resource/models/sac_actor_80000.pth (torch, 80607 bytes, 8 tensors)

fc1.weight f4 [128, 12]
000000 70 f4 ec bd f1 32 26 3e 21 f4 a6 be 37 ef f4 be
       -0.1157006 0.1623037 -0.3260813 -0.47838756
000010 dd df ad be c5 ca cb 3e 21 ec e9 3d c9 0a ce be
       -0.33959857 0.39803138 0.11421991 -0.40242603
000020 e0 83 01 be 78 8d 84 3e d8 02 c2 bd 07 2e a9 3d
       -0.12647963 0.25889182 -0.09473199 0.08260732
000030 17 e5 71 be ed b5 2c bd c2 64 55 3e 02 79 d9 be
       -0.23622547 -0.042165685 0.20839217 -0.42475134
000040 22 36 2a be 49 c5 80 3e 55 5a a2 3d 50 79 8a be
       -0.16622213 0.25150517 0.07927386 -0.2704568
000050 b4 93 21 be c0 9e 18 be b4 9e 8a 3c 16 9d 01 3d
       -0.15779 -0.14904308 0.016921379 0.03164395
000060 b5 19 9c be 66 94 2c be f6 37 b2 3b 7a 51 a4 bd
       -0.30488363 -0.16853485 0.0054388 -0.08023353
000070 b5 02 7c 3e c8 1e 97 be bb 9f de 3c c4 b5 44 3e
       0.24610408 -0.29515672 0.027175775 0.19209963
000080 62 56 ee be af 01 cd 3d 1b be c5 3e fe 8e 10 be
       -0.4655028 0.10010087 0.386216 -0.14117047
000090 9f 01 1b be ae 88 23 bd 9b 36 c5 bd 7d 04 ec 3d
       -0.15137337 -0.03992527 -0.09629556 0.115242936
0000a0 4f f1 29 3d f5 ed a7 bd 63 d8 a5 be 57 26 b5 be
       0.041489895 -0.081996836 -0.32391652 -0.35380813
0000b0 e1 2a 42 3e b4 1c f6 3e a3 54 34 3e d9 39 59 3e
       0.1896167 0.48068774 0.17610411 0.21213473
0000c0 a5 90 76 bc 4f 88 46 3e e5 8d 30 bd 57 cc 9f bd
       -0.015049134 0.19387935 -0.04310407 -0.078026466
0000d0 65 45 19 3e 72 8b 35 bf 64 96 da be ce 8f 1f 3e
       0.14967878 -0.709159 -0.42692864 0.15582201
0000e0 7f c6 f3 3d 54 49 5c bc a7 09 1e 3e 45 9c 92 be
       0.119030945 -0.013445217 0.1543337 -0.2863485
0000f0 bc f0 31 3e dd 80 aa bd 87 77 a4 be 5b 50 72 3d
       0.17376989 -0.0832536 -0.32122442 0.059158664
000100 e5 d1 99 bd 1d f1 39 bf 6c 02 1e bb 31 42 93 3d
       -0.07510737 -0.72633535 -0.002411033 0.071903594
000110 92 80 4f 3e 64 ff db 3a ae 09 b6 3e b6 36 d7 3d
       0.2026389 0.0016784486 0.3555426 0.10508482
000120 2c e5 5d be 97 87 32 3e 0d ca 19 3e 63 a8 d0 be
       -0.21669453 0.17434536 0.15018483 -0.4075347
000130 8f 03 24 3e f4 89 a8 3d 1b 9b d2 3d c2 8c 0b bf
       0.16016982 0.082294375 0.1028349 -0.54511654
000140 42 17 9f be 36 b8 1e be e3 c5 15 3f 04 3e 14 3e
       -0.31072432 -0.15499958 0.58505076 0.14476782
000150 06 fe 71 3e a5 50 b0 3e 0e 74 6b be c3 66 fc 3d
       0.23632059 0.34436527 -0.2299349 0.12324288
000160 a0 f1 12 bf bc cf 0a bf 79 c2 ac be 10 f4 3b be
       -0.5739994 -0.5422323 -0.3374212 -0.18354821
000170 53 a3 40 be bd b9 6f be a8 78 1e 3c 70 ef 20 3e
       -0.18812303 -0.23410697 0.009672321 0.15716338
000180 d2 c1 25 3e 65 e5 cd bd b5 d4 04 3f 58 35 b2 be
       0.16187218 -0.10053519 0.51887065 -0.34806323
000190 40 eb bc 3d db ff 34 be de cb db 3d 94 2c ca 3e
       0.09224558 -0.17675726 0.10732244 0.39487135
0001a0 1f 41 dc bb 33 32 a5 3e 0e 92 28 3e f5 50 05 bf
       -0.00672163 0.3226486 0.16461965 -0.52076656
0001b0 ac 8c b7 3d 34 b3 e0 bd 23 96 39 3e 9f 10 91 bd
       0.08962378 -0.1097168 0.18123679 -0.07083248
0001c0 3d b2 08 be b2 1f d8 3d 0a c9 0e 3f 67 f1 ab 3e
       -0.13349243 0.105529204 0.5577551 0.33582613
0001d0 eb cc d8 be 23 eb ad 3e 10 57 03 bd 86 f1 84 3e
       -0.4234384 0.33968458 -0.03206545 0.25965518
0001e0 f5 c5 c0 3d 57 45 92 bd be e5 a7 bc 34 03 77 3d
       0.09412757 -0.07142132 -0.020495292 0.06030579
0001f0 0f b6 37 be f4 b5 74 3e 75 9a a8 be 66 46 96 be
       -0.17940544 0.23897535 -0.3293034 -0.29350585
000200 83 22 43 3e ac 5d b7 3e 2a 75 e5 bc 81 99 f3 be
       0.19056134 0.35813653 -0.02800997 -0.47578052
000210 c2 cd 5c be be 35 c1 be 99 d0 08 3d 78 38 29 be
       -0.21562865 -0.37736315 0.03340206 -0.16525447
000220 ce 6d 97 be 39 4e d9 be 49 34 ca 3e 4c b7 dc be
       -0.29575962 -0.42442492 0.39493015 -0.43108594
000230 f5 26 ad bd f7 73 8f 3d 04 f7 a8 3d fe a6 ab bc
       -0.08454696 0.070045404 0.082502395 -0.020953652
000240 ef 3e 86 3d 84 a6 da be 7f 5e 84 be 15 ac 8b be
       0.065549724 -0.42705166 -0.25853345 -0.27279726
000250 d9 96 bf be e0 6e ed be 4a ae c2 bd b3 51 0c 3e
       -0.37419775 -0.46373653 -0.09505899 0.13703041
000260 40 0b 82 3e 1c 16 69 3e eb 68 91 3e 6e 1e 51 3e
       0.25399208 0.2276234 0.2840036 0.20421764
000270 d3 94 d7 3d 4b f0 94 3d 2d 26 ef bd 36 c5 3d 3e
       0.10526433 0.07272395 -0.11677203 0.18532261
000280 0f e1 12 be a4 ea 04 bf 95 83 7b 3e 8f 3f 89 bd
       -0.14343666 -0.51920533 0.24561913 -0.06701576
000290 f8 37 63 bb 08 26 00 be fb b0 a3 3d d0 ae 11 3d
       -0.003467081 -0.12514508 0.07992741 0.035567105
0002a0 5f 9c 5e be 3d f8 c4 bd 64 57 82 be be 29 04 bd
       -0.21739338 -0.0961766 -0.254573 -0.03226637
0002b0 3a 86 19 3d 3c a6 fb bd cf 6b 6f 3e 49 d8 12 3d
       0.037481524 -0.12287566 0.2338097 0.035850797
0002c0 1f c3 7e 3e 82 3f 08 3f 9e f8 a2 be 21 ea 34 3e
       0.2487912 0.53221905 -0.31830305 0.17667438
0002d0 06 19 07 bd 2d 58 8f bc 1e 56 41 be fe 0d 1d 3e
       -0.03298285 -0.0174981 -0.18880507 0.15337369
0002e0 f5 7a 0c bf 99 95 79 3e 68 4d 81 3e cb c0 46 3e
       -0.5487512 0.24373473 0.2525437 0.19409482
0002f0 24 e8 c2 bd f1 e0 27 bf 84 a2 94 3c 4f aa 26 3e
       -0.095169336 -0.6557761 0.0181439 0.16275905
000300 fc fd 8c be 9f ce 41 be 6f ed 57 bc 0d 57 cc 3c
       -0.27537525 -0.18926476 -0.013179167 0.024943853
000310 61 8d 76 3e 19 55 e6 bd d5 cf 48 bd d9 71 b0 3e
       0.2407737 -0.112467 -0.04902633 0.3446186
000320 5f 9f 1c bf 70 c5 88 be e9 d2 e6 3e 65 7b 90 bd
       -0.6118068 -0.26713133 0.45082787 -0.07054786
000330 24 fa 6e bd 1e 50 15 3e 92 b0 71 be 25 23 f1 be
       -0.05834402 0.14581344 -0.23602512 -0.47097126
000340 bb ba 8b 3d 57 26 3b bf 0a 9f ce 3e e1 a9 e9 be
       0.068227254 -0.73105377 0.40355712 -0.4563742
000350 0b 06 9e be e3 7c 2c 3e d6 e7 c1 be 70 62 8f bc
       -0.30863985 0.16844516 -0.3787219 -0.017502993
000360 27 3c 72 3c 12 c5 78 3d 55 d3 91 3e a7 9e 7d be
       0.014784849 0.060734816 0.28481546 -0.24767552
000370 6b 25 20 3e 35 1c 5a 3e 8b df 88 bd cf 57 22 3d
       0.15639274 0.21299823 -0.066832624 0.039634522
000380 2c e3 91 3e 64 98 81 be a5 a7 28 be 52 76 22 bd
       0.2849363 -0.25311577 -0.16470201 -0.03966362
000390 31 11 62 3e 27 46 2d be ba 0d 11 be 23 26 76 be
       0.2207687 -0.16921292 -0.14165393 -0.24037986
0003a0 87 dd aa 3e fa cf a0 3c d0 4b a5 3e 9f bb aa be
       0.33372137 0.019630421 0.32284403 -0.3334627
0003b0 99 3f 1c 3e 97 cb 8f 3e ff be b7 be 64 ef 40 3d
       0.15258636 0.28085014 -0.35887906 0.0471033
0003c0 48 89 49 3e 2c 92 58 bf ae 73 d2 3d c7 b4 7e 3e
       0.19681275 -0.8459804 0.102759704 0.24873649
0003d0 06 ce 3e be f6 08 94 3e f3 04 a1 be 3a a0 74 be
       -0.18633279 0.28913087 -0.31449088 -0.23889247
0003e0 22 66 31 3e f4 e8 84 be 4a c9 7a 3e f9 82 9e 3e
       0.17324117 -0.2595898 0.24490848 0.309593
0003f0 ec 73 5d be 6b 49 a6 be 38 c5 6b be d2 cd c4 3e
       -0.21626252 -0.32477888 -0.23024452 0.38438278

fc1.bias f4 [128]
000000 c7 6e 14 be a5 1d 7b 3e fa 6d af 3e 3e eb 5f be
       -0.14495383 0.24523027 0.34263593 -0.21867082
000010 9d e9 2b 3e 54 f4 1b 3e c3 d5 14 3e 8a 65 42 3e
       0.16788335 0.15229923 0.14534669 0.18984047
000020 47 0a 60 bd 74 1e 73 bd cb 2b 77 be d0 49 33 3e
       -0.0546973 -0.059355214 -0.241378 0.17508626
000030 7c 86 2d 3e 1a a2 02 3e ff ba 05 3e 51 03 f1 bd
       0.16945833 0.1275715 0.13059615 -0.11768211
000040 34 d7 37 3e e0 77 af 3d 6e 00 83 be c8 3f eb 3b
       0.17953187 0.08567786 -0.25586265 0.007179234
000050 40 5b be bd 0f 6a 22 be cd d3 7e 3e 46 57 b2 bd
       -0.09294748 -0.1586077 0.24885483 -0.08708052
000060 6c 58 97 bd 5f d2 41 3e bf d0 6d be a0 89 f5 3d
       -0.07389912 0.18927906 -0.23224162 0.119891405
000070 aa 3b 8e be 5f de 9d 3d 4e 0a b6 3b c6 28 12 3e
       -0.27779895 0.077084295 0.0055554276 0.14273366
000080 33 0f a2 bd bd 1a 78 bc a1 4f 20 3e e7 78 16 3e
       -0.07913055 -0.015143094 0.15655376 0.14694558
000090 09 c4 40 3e ec ea f2 3d 12 f4 19 3e 14 dd 14 3e
       0.18824781 0.11861214 0.15034512 0.1453746
0000a0 e7 a7 eb bc 4e 5c 5e be 16 ea 98 3d d9 60 7b 3d
       -0.028766586 -0.21714899 0.07466523 0.061371658
0000b0 e2 2e a1 3d 81 a8 b7 bd 32 9c 73 be b3 df 16 3e
       0.0787027 -0.089676864 -0.23790053 0.14733772
0000c0 11 0c dc be 5d 31 a2 3e 6c ec 27 3e 81 cc b0 3d
       -0.42977956 0.31678286 0.16398782 0.08632756
0000d0 b4 5c 01 3e 92 33 ae 3d 6e 8c 14 3e cb fb 0a 3e
       0.1263302 0.0850593 0.14506695 0.13572614
0000e0 10 48 b6 bd c6 9f d2 bd 33 68 1e 3e 6f 42 ad 3d
       -0.089004636 -0.102843806 0.15469436 0.08459937
0000f0 b4 fd 83 3e 7f 55 f2 3d 9c 70 18 bc e8 5e aa 3d
       0.25779498 0.11832713 -0.009304192 0.08318883
000100 cb a4 6f be 53 34 72 be 3c 1e 56 3e ea 98 05 3e
       -0.23402707 -0.23652773 0.20909971 0.13046613
000110 3d a5 9d 3e 4a f2 16 3e cd 95 aa 3d c2 c2 8b bd
       0.3079013 0.14740863 0.083293535 -0.068242565
000120 54 d7 5b 3e 80 8e 95 be 07 f5 4c bc a0 63 f8 3d
       0.2146886 -0.2921028 -0.012509591 0.12128377
000130 3d ad 3e 3e 1e 10 db 3c 3e 95 5b 3e 25 8a 2d ba
       0.18620773 0.026741084 0.2144365 -0.00066200114
000140 c8 0e a8 be d4 21 c5 3d 03 a9 32 3e b8 2f 0c bd
       -0.32823777 0.09625593 0.17447285 -0.034225196
000150 cd 98 8b 3d e0 21 6e be a8 c9 02 be ec 3e 06 3e
       0.06816254 -0.2325511 -0.12772238 0.1310994
000160 76 17 8a bd 53 86 ce bd 89 c3 5b 3e 20 e9 44 be
       -0.06742756 -0.10084214 0.2146131 -0.19229555
000170 ba fc 2b bd a8 41 45 3e 16 bf a2 bb 6b e9 8b be
       -0.041989066 0.19263327 -0.004966627 -0.2732652
000180 d9 26 1f 3e bb 77 a0 bd b1 68 a6 3d 3f 8d 70 bc
       0.15542163 -0.07835337 0.08125437 -0.014682113
000190 b5 9b d0 bd 1c 39 ea 3d be de 3d be de 5b 0d 3d
       -0.10185949 0.11436674 -0.18542 0.03451144
0001a0 1a a3 41 be ba 94 13 3e 22 cb 1d be f9 ce 74 be
       -0.18909875 0.14412203 -0.1540952 -0.23907079
0001b0 fe f4 0f 3e 99 e9 6c bc 83 ce 86 be d3 ec ac bc
       0.14058301 -0.014459991 -0.2632943 -0.02110902
0001c0 be 68 04 3d f4 92 c1 bd c3 a5 0b bd 0b ff 4e 3d
       0.032326452 -0.09451857 -0.03409363 0.050536197
0001d0 54 f6 32 bd b9 5c 30 3e b5 d7 5f 3e c0 8a a3 bc
       -0.043691948 0.17222871 0.2185963 -0.019963622
0001e0 e7 6c 98 3d 2f 3c 3a 3e fa 17 23 3e af 5b 79 3e
       0.074426465 0.1818702 0.15927115 0.24351381
0001f0 91 bf 2a 3e a8 7a d6 bd d9 db 2e 3e 75 ff 25 3e
       0.1667464 -0.104726136 0.17076053 0.1621073

fc2.weight f4 [128, 128]
000000 55 40 0c be ba b0 cc 3c ac d4 5e 3d 3e 54 be 3b
       -0.13696416 0.024986614 0.05440204 0.0058083823
000010 8f 7e 00 bd 2f 83 02 be a6 33 23 be 66 73 02 3d
       -0.031370696 -0.12745355 -0.15937671 0.031848334
000020 03 9c 37 bc fd 82 c4 bd 37 3d 10 be 7c 93 ce 3c
       -0.01120663 -0.095952965 -0.14085852 0.02521681
000030 17 ba 9d bc 1b bc 20 bc 20 56 90 bc c9 fd 6b be
       -0.019253774 -0.009810473 -0.017619193 -0.2304603
000040 3c 4a 2b be f5 6b bc bd 35 b3 0f be 56 49 67 be
       -0.16727537 -0.09200279 -0.14033206 -0.22586569
000050 c5 f9 84 bd 57 8e 16 3e e4 b6 57 bd e3 9d 00 be
       -0.06492952 0.14702736 -0.052664652 -0.12560229
000060 ed 59 19 bc 31 73 19 3e 5d 84 62 bc 24 45 fe bd
       -0.009359819 0.14985348 -0.013825503 -0.12415531
000070 05 3f 67 bd 1e cb a3 3c c8 78 73 bd 3e 43 be bd
       -0.056456584 0.019994315 -0.059441358 -0.09290169
000080 76 9a aa bd af e5 c5 bd 2a 44 b3 bd 6a 40 9c bc
       -0.08330242 -0.09662949 -0.08753236 -0.019073684
000090 c6 92 51 3d 85 02 19 3b a3 a2 4f bd a4 5f df bd
       0.051165365 0.002334745 -0.05069221 -0.10906914
0000a0 a4 14 1e be 05 3f 7f bd eb ad 5c bd ab b5 53 bd
       -0.15437561 -0.06231596 -0.0538768 -0.051686924
0000b0 33 7f 97 bd 4c 56 b6 bd a1 4e 80 bd 7b 90 30 be
       -0.07397308 -0.089031786 -0.06264997 -0.17242615
0000c0 18 df c6 ba fe b8 98 3c 6a 64 8c bb 28 ba 15 be
       -0.0015172688 0.018642899 -0.004284431 -0.14621794
0000d0 be 26 0a 3e 13 74 b8 bd 29 6d 93 bb 84 23 02 3c
       0.13491341 -0.090065144 -0.004499097 0.007943038
0000e0 88 39 4a bd 97 dd c2 bd bd 87 c2 bb ad e5 d7 bd
       -0.049371272 -0.09514921 -0.0059365914 -0.10541854
0000f0 d6 87 54 3b c3 6a ae bc 11 fe bd 3d c5 f3 f6 bc
       0.0032429597 -0.021291142 0.09276975 -0.030145535
000100 90 02 5a 3d 35 c4 17 3b eb 72 7a bd e0 19 a8 3d
       0.0532251 0.002315772 -0.06114475 0.0820806
000110 96 cf 18 3d c9 d3 c4 bc 51 1b cd 3c dd ed 3a be
       0.037307344 -0.024026768 0.02503744 -0.182548
000120 b8 7c 74 bd 12 20 54 3d e5 75 20 be 1e 8e e0 bc
       -0.059689254 0.051788397 -0.15669973 -0.027411517
000130 5c f9 f1 bd a9 6f 26 be 7f 04 4e 3d ac 38 59 bc
       -0.1181514 -0.16253532 0.050297257 -0.0132581405
000140 3f a3 cf bd 0e 78 68 3c a0 74 e1 3c 35 0c 09 bd
       -0.101385586 0.0141887795 0.027521431 -0.033458907
000150 8d 14 ce 3b 1a 67 63 3d f1 6e fa bc 41 3b 9c bd
       0.006289071 0.055518247 -0.03057048 -0.07628489
000160 39 fa a2 bc 7b e9 d3 3c 35 3a bf 3d ce e8 5b 3d
       -0.019894706 0.025868168 0.09337274 0.053688817
000170 e8 b1 11 be 16 63 6a bd a2 47 fe bd 9e be a7 3b
       -0.14228022 -0.057223402 -0.124160066 0.005119159
000180 81 7c 0e be 47 32 5b bc d5 a0 d9 bc ec 92 c3 bc
       -0.13914682 -0.013378686 -0.026565949 -0.023873769
000190 52 ec b8 3c 02 6b e5 bd 72 fa b4 bc d8 f7 82 be
       0.022573624 -0.11202051 -0.022092078 -0.25579715
0001a0 25 af 67 bd 63 f5 8f 3c 66 ca 66 3d 3c 9f 59 bc
       -0.056563515 0.017573064 0.056345366 -0.013282593
0001b0 81 48 9d bd 24 bd 13 bd 32 ec e6 bd cd de 0d be
       -0.07679845 -0.03606905 -0.112755194 -0.13854523
0001c0 dc 7e 67 bd 62 e6 2c be e4 b0 2b be 19 a9 45 be
       -0.056517467 -0.16884759 -0.16766697 -0.19302787
0001d0 2f 40 39 3c 29 f0 d1 bc fa 2f 8f bd 9e de 1f bc
       0.0113068065 -0.025627213 -0.06991573 -0.009757666
0001e0 49 f4 ba bd ee 3f ce bb 47 3b 50 3d 46 64 2e 3d
       -0.09128625 -0.006294242 0.05083778 0.042576097
0001f0 42 88 15 ba a7 cc bd bd c7 f6 45 3d f3 da ec bd
       -0.0005704203 -0.0926755 0.04833105 -0.11565199
000200 bd 11 e7 bd 46 4a b9 3c 69 c8 03 be 80 dd dc 3c
       -0.1128268 0.022618424 -0.12869419 0.026961088
000210 f1 1b 18 3c 62 84 71 bd 29 dc 83 be 04 a1 67 be
       0.0092840055 -0.05896414 -0.25753906 -0.22620016
000220 f1 2a 13 bd ff db 01 be 76 bc 15 3c 2d 8b d4 bd
       -0.035929624 -0.12681578 0.009139171 -0.10378108
000230 95 21 37 bc 24 81 9a be 72 fe aa 3c 04 ad d6 bd
       -0.01117744 -0.3017665 0.020873282 -0.10482219
000240 64 93 03 3d bc b0 2f be df 40 1e bd 9f 04 37 3c
       0.032122985 -0.17157263 -0.038636085 0.011170535
000250 d7 92 60 bd 01 21 3f 3e 07 76 95 bd 61 2b a1 bd
       -0.054827537 0.18664934 -0.072979026 -0.07869602
000260 32 01 ce 3d 87 46 86 3d e5 6e 80 bd 3d 82 d8 be
       0.10058822 0.06556421 -0.062711515 -0.42286864
000270 f9 b4 93 3d 9c e6 67 be 6d c9 d6 bd ca 6e 26 be
       0.07212252 -0.22646564 -0.10487638 -0.162532
000280 67 1c 86 3d d9 26 68 be 97 5c f5 bd 96 3b 07 be
       0.06548386 -0.22671069 -0.11980551 -0.13206324
000290 5a 8f 3d bc a0 50 49 be 40 b8 02 be 83 c6 df bd
       -0.011569822 -0.19659662 -0.12765598 -0.10926535
0002a0 95 82 a9 bd 72 93 00 bd 96 ee c6 bd f4 97 96 be
       -0.0827686 -0.031390615 -0.097134754 -0.29412806
0002b0 a3 e0 a7 be 5c e1 49 be 83 9f 73 be 6a 94 68 be
       -0.32788572 -0.19714874 -0.23791318 -0.22712865
0002c0 29 2a c4 3d ba 1c 48 bd 38 78 8e bd 3b 0f 07 bd
       0.09578354 -0.04885552 -0.06956524 -0.03297351
0002d0 23 f9 4c 3d 74 fe 17 bf b9 19 8c 3d 62 9c 4b bd
       0.050042283 -0.5937264 0.06840844 -0.049709685
0002e0 3b c9 84 bd 43 24 d2 3d 3c 6a 69 be 15 04 23 3d
       -0.06483694 0.102608226 -0.22794431 0.039798815
0002f0 83 b5 fa bc c2 60 5d 3d b4 4e a3 3c 0a 75 d4 bd
       -0.03060413 0.054047354 0.01993499 -0.10373886
000300 76 34 b4 bd e2 11 0d 3e 67 f2 99 bc fc d8 38 be
       -0.08799069 0.13776353 -0.018792344 -0.18051523
000310 e2 14 30 bd 73 42 d8 bd 92 9d c0 3d b4 a7 80 be
       -0.042988665 -0.10559549 0.09405054 -0.25127947
000320 c9 20 91 bd db 55 0d 3e c4 85 7c be d6 e4 08 be
       -0.070863314 0.13802283 -0.24660403 -0.13368544
000330 e4 26 95 be 40 a4 e4 3c 6a 5c 3f 3d e7 fa 12 bd
       -0.29131234 0.027910352 0.046718992 -0.03588381
000340 e3 a8 f4 bd 21 24 f7 3c 03 2a 9a 3d 52 7f f9 bd
       -0.11946275 0.030168595 0.07527544 -0.121824875
000350 01 11 6a be 16 e1 ea bc 8a 9f e0 bb 53 76 06 be
       -0.22858049 -0.028671782 -0.006854956 -0.13131075
000360 ae 6d 24 be d1 f3 3f bd 1f 66 70 3d 2c 2d 27 bd
       -0.16057464 -0.04686338 0.05869114 -0.040814564
000370 59 27 31 be b5 f9 95 3d 97 7e dc bd e0 cb 3e 3c
       -0.17300166 0.073230185 -0.107663326 0.011645287
000380 9a dd 64 bd 6f 53 86 be c8 39 80 bc 1c 8e 2c be
       -0.0558754 -0.2623553 -0.015652552 -0.16851085
000390 ce 2e cd 3d 41 62 4b 3d 42 95 ce 3c 62 2b 6c be
       0.10018693 0.04965425 0.025217656 -0.23063424
0003a0 ae 08 0a be f4 38 1e bd bd 89 e8 3d 47 53 0a 3e
       -0.13479874 -0.038628533 0.113543965 0.1350833
0003b0 20 24 d1 bc f3 b5 23 3e 03 34 26 3e a8 d5 12 be
       -0.025529921 0.15987377 0.16230778 -0.14339316
0003c0 a5 57 25 be cc 20 e3 be 72 86 6b bd 76 e5 eb bc
       -0.16146715 -0.4436096 -0.057501264 -0.028795939
0003d0 08 6d 67 3e 7f 3f d9 bd 31 9c 9b 3d 00 c2 98 bd
       0.22600186 -0.10607814 0.075981505 -0.074588776
0003e0 63 a1 ed 3d 1c 31 16 bd 56 8a da bc 90 a9 91 bc
       0.11603048 -0.036667928 -0.026677292 -0.017781049
0003f0 2a 6d fb 3d 07 32 4f be 0e 68 64 bd e1 4c 12 be
       0.12276681 -0.20233928 -0.055763297 -0.1428714

fc2.bias f4 [128]
000000 63 9f 05 3c 0e 85 c7 bc 0f 61 18 be cc 85 9d 3d
       0.008155677 -0.024355438 -0.14880775 0.07691535
000010 16 3d 98 bd 2c 10 04 3a e0 e9 90 bd a5 9e 50 bc
       -0.07433526 0.000503781 -0.07075858 -0.012733136
000020 1c d6 b5 3a c0 c7 60 bd cc 88 d1 3b 88 75 8b bd
       0.0013873014 -0.054877996 0.0063944813 -0.06809527
000030 d1 01 e5 3c c1 46 2a be c8 c4 09 bd 58 f7 86 3c
       0.027954968 -0.16628553 -0.03363493 0.016475365
000040 65 37 26 3d ba fc 06 bc 4b b5 a4 bd 8a 98 1d 3d
       0.040580172 -0.008238966 -0.080423914 0.03847555
000050 60 5f 01 bd aa a2 e4 bc 77 54 3e 3c b0 bb 93 bd
       -0.031585097 -0.027909596 0.011616818 -0.07213533
000060 12 b0 b7 bd 91 f7 4c be 07 a9 f8 bc 3c c1 9f 3d
       -0.089691296 -0.20016314 -0.030354036 0.078005284
000070 d3 c2 8c bd 4b 76 0a be d8 dc c0 bd 8b 3a 99 3a
       -0.06873097 -0.13521688 -0.094171226 0.0011690421
000080 85 fd c9 bc 9b 72 b7 bd ec 32 b4 bd d9 ae 66 be
       -0.02465702 -0.08957406 -0.08798775 -0.22527637
000090 d2 b7 16 bd 78 23 b4 3c cb 06 9b 3d 86 91 03 3e
       -0.0367964 0.021989569 0.07569655 0.12848482
0000a0 62 56 f7 bd 0f 19 e2 ba c0 f6 0f bd 64 ad 5c bd
       -0.12077023 -0.00172499 -0.03514743 -0.053876296
0000b0 9a a9 a8 bd 24 33 72 bd 45 cd ca 3d 3c eb 32 3d
       -0.08235474 -0.059130803 0.09902433 0.04368137
0000c0 5b 4f 32 3e ff d7 b2 bd 6b 06 b7 bd da e4 04 bd
       0.17413084 -0.08732604 -0.08936771 -0.032444812
0000d0 ca af c4 bc 0c 93 d7 bc d7 2f 9c bd 34 4d a9 bd
       -0.024009604 -0.026315235 -0.07626312 -0.082666785
0000e0 a3 75 64 3c ca cf 03 3d e7 38 1b be 81 50 ff 3d
       0.013944062 0.032180585 -0.15158425 0.12466527
0000f0 df f5 de bd dd aa 37 3d e1 11 4b 3d e8 e5 a3 3d
       -0.1088674 0.044840682 0.049577598 0.080028355
000100 41 34 f8 3d 4a 91 08 be 38 15 c3 bd ec c8 fa bd
       0.12119342 -0.13336673 -0.095255315 -0.12245354
000110 bb 72 49 bd 8d 03 36 be cc 42 29 bd 91 e2 1b 3b
       -0.04918168 -0.17774792 -0.041323468 0.0023786167
000120 45 14 7a 3d b5 e8 ef bd 85 d6 c6 3d 12 a0 ff bd
       0.061054487 -0.11714307 0.09708885 -0.12481703
000130 42 c2 d7 bc ee 16 3c 3c 17 35 5e bd 38 20 a9 bd
       -0.026337747 0.011480076 -0.05424985 -0.08258098
000140 4b 3a 4e bd ec 9b cf bc 92 19 38 bd c6 f4 5c bd
       -0.05034856 -0.025342904 -0.04494626 -0.05394437
000150 bb 88 8a bd 64 34 ad 3d 38 86 1a 3e 3a d6 7e 3d
       -0.067643605 0.08457258 0.15090263 0.06221602
000160 32 24 3b bd 52 63 31 be b0 d9 03 be 8b 5a 44 bc
       -0.045688815 -0.17323044 -0.1287601 -0.011984478
000170 cd 58 f2 bc f6 09 80 3c 2c fb a8 bc 58 4c 97 bd
       -0.02958336 0.01562975 -0.02062758 -0.07387608
000180 6f e3 0f 3c 81 16 33 bd 08 74 75 3d c6 e5 01 bd
       0.008782252 -0.043722633 0.05992511 -0.03171327
000190 7c 0d 84 bd 51 95 41 3d 9f a4 0d 3c 55 45 b1 bb
       -0.064478844 0.04726154 0.008645206 -0.0054098764
0001a0 35 a8 0f be 6e 34 18 3e 8d b1 a6 3d 42 cd a2 bd
       -0.1402901 0.1486375 0.08139334 -0.07949306
0001b0 44 eb 2f bd 78 4e 4c bd 51 ca 9a 3c c6 31 2e bd
       -0.042948976 -0.04987952 0.0188953 -0.042527936
0001c0 81 1c 1f 3d e8 6b ba bd 6d 15 d5 bd 12 da 35 3a
       0.038845543 -0.09102613 -0.10404477 0.0006937097
0001d0 59 63 4d bc b7 9d 95 bd 02 13 17 bd c0 af 55 bd
       -0.012535893 -0.07305472 -0.03688336 -0.05216956
0001e0 c4 33 dc ba a1 d3 83 bd 8a d3 24 be cc 48 cc bd
       -0.0016800095 -0.064368494 -0.16096321 -0.099748224
0001f0 36 03 d3 bd ff 9a d2 bd a2 e3 9f 3d 31 57 a5 bd
       -0.10303347 -0.102834694 0.078070894 -0.08073271

mu.weight f4 [5, 128]
000000 d3 0d b5 3c c6 e0 a9 bd 4d ae 11 be b8 5a ba 3e
       0.022101318 -0.08294825 -0.14226647 0.36397338
000010 26 8f 81 3b b7 93 36 bd 8f 29 3f bd 2c f8 09 3d
       0.003953832 -0.044574466 -0.046670493 0.03368394
000020 ba 8e 37 3e b1 f4 9b bd 8c b0 6a bd 73 34 8a bd
       0.1792554 -0.076150306 -0.057297274 -0.06748285
000030 9a a7 c4 3d 9e 0d 0a 3c 2e ea 72 bd 01 a6 91 bc
       0.0960228 0.008426098 -0.059305362 -0.017779352
000040 19 81 e0 3c 59 dd 25 3e 55 a0 fa 3d 6e ea 8b 3e
       0.027405309 0.16197719 0.12237612 0.27327293
000050 36 ff d7 3e dc f6 19 3d c8 2d 95 3d 33 04 93 3b
       0.42186898 0.03758894 0.07284123 0.0044865846
000060 2b b0 a1 3c 5e 18 3f be 99 a7 03 be 44 82 2d be
       0.019737324 -0.18661639 -0.12856902 -0.16944224
000070 34 1f f2 bd 0a c6 88 3e 66 be c7 3d 77 ee fa bc
       -0.11822358 0.26713592 0.097531125 -0.030631287
000080 3b 01 ac 3d 7b f8 c8 bc e8 e7 7e bb 13 e8 96 3e
       0.08398672 -0.024532547 -0.003889555 0.29473934
000090 a4 f7 49 be a7 cb 26 bd 0f 1f 96 3d ed 0f 5d 3e
       -0.19723374 -0.04072156 0.07330143 0.21588106
0000a0 1b f7 6d 3e 67 c4 81 bd 20 81 3c bc f6 00 47 3d
       0.23238795 -0.06336289 -0.011505395 0.0485849
0000b0 a7 f0 9c bd 57 95 70 bd 95 8d 52 be 4a 7f 2c be
       -0.07663088 -0.05873617 -0.20561822 -0.16845432
0000c0 09 a2 44 bd e2 40 81 bd 2a bf 11 bd 09 19 2f 3e
       -0.04800609 -0.063112035 -0.0355827 0.17099394
0000d0 de 30 93 bd 2f 75 8b bd ad 66 ba bc 21 da 1e bd
       -0.07187055 -0.0680946 -0.022754038 -0.038782243
0000e0 e5 8e c9 3e ff 41 82 3c fd 69 1b bd f1 27 3a 3e
       0.39366832 0.01590061 -0.037942875 0.18179299
0000f0 72 01 3f bc ef 9b 31 bd e0 7c 66 3c 0c 96 d1 3e
       -0.011658059 -0.0433616 0.014067858 0.4093479
000100 2b d3 ad 3c 1e 74 23 bd 96 0f 95 bd 13 25 b3 3e
       0.021218857 -0.03990566 -0.072783634 0.34989223
000110 91 30 95 bd 81 e5 e5 3d fb dc 18 3d 5f 42 0b 3e
       -0.07284654 0.11225415 0.03732012 0.13599537
000120 b6 90 81 be 0c 71 db bd 17 ad 5b bb c8 38 47 bd
       -0.25305718 -0.10714921 -0.0033519918 -0.048638135
000130 61 3d 21 3e 48 89 06 be c3 bb f1 3d 8a 40 9d be
       0.1574607 -0.13138306 0.11803391 -0.30713302
000140 43 5c 7f 3e 42 ce 67 3c f3 7f bd be 0f 44 bd bd
       0.24937539 0.014148297 -0.3701168 -0.09241497
000150 a3 55 80 bd 1b 5a e5 bd 2a 0f 56 be af b0 bb 3b
       -0.06266334 -0.11198827 -0.20904222 0.0057278494
000160 bf 6b b8 bd 44 86 b3 3c c0 dd 16 be 3e 70 9b 3d
       -0.09004926 0.021914609 -0.14733028 0.07589768
000170 ce 58 f1 3d 47 2a 28 3c a1 57 d2 3d a8 71 a3 be
       0.11784516 0.010263986 0.1027062 -0.3192265
000180 cf 3f 8f be f2 31 96 bc b6 b3 e8 3d 54 8d fd 3d
       -0.2797837 -0.018334363 0.11362402 0.12380472
000190 30 27 b9 bd 45 31 a6 be af a2 ee 3d b9 26 0c be
       -0.090406775 -0.32459465 0.11652123 -0.13686647
0001a0 79 2f f6 3d 53 c8 fe 3c dc c3 8a 3d cb 42 33 3e
       0.120207734 0.031101381 0.067756385 0.17505948
0001b0 11 30 03 3d 2a ca 54 bd 57 1e 5e bd be ab 98 3e
       0.03202826 -0.05195061 -0.054228153 0.2981853
0001c0 91 2c 24 be 70 29 8b be bb 79 cf 3d b3 e8 a0 3d
       -0.16032626 -0.27180052 0.1013064 0.07856884
0001d0 bd 72 ee be e6 20 6f 3d 78 3c bc 3e 49 6e fb 3d
       -0.46571913 0.058380984 0.36764884 0.122768946
0001e0 0b f4 25 3e 1d 18 a7 3c 94 f0 23 3e 45 86 3e bc
       0.16206376 0.02039724 0.16009742 -0.011628692
0001f0 36 d5 41 be 46 54 25 3d ef c4 07 be ca e8 ea 3d
       -0.1892899 0.040363573 -0.13258718 0.11470182
000200 dc d5 1d bc fc 58 2b bc d4 a8 d0 be 2b f8 b3 bd
       -0.009633508 -0.010458227 -0.40753806 -0.08787569
000210 34 87 10 be 6a 75 5f be 05 f6 af 3e d9 66 c4 bd
       -0.14114076 -0.21822134 0.34367386 -0.09589929
000220 2f fe c2 3e b0 ce b3 3d 4a 2c fa 3c 22 a7 be bc
       0.38084552 0.08779657 0.030538697 -0.023273055
000230 7b 2d d7 bc 38 29 6e be 9c 13 b3 bd 51 50 8e bd
       -0.026266804 -0.23257911 -0.087439746 -0.06948913
000240 ba 8d f8 bc 13 f9 fe 3d 55 47 11 3e 0d 99 92 3b
       -0.030341018 0.12449851 0.14187367 0.0044738115
000250 97 89 0f 3e d8 a8 93 bd 9f f5 dc ba a4 14 ae bd
       0.1401733 -0.07209939 -0.0016857869 -0.08500031
000260 e6 1f 65 be f8 7a 23 3e 9e 48 f1 bd b5 a5 9b bd
       -0.2237545 0.15964878 -0.11781429 -0.075999655
000270 09 55 a1 3c 4c 99 48 3d 2e 36 da bd 3f 89 bc be
       0.019693868 0.04897432 -0.10654865 -0.3682346
000280 75 a5 a6 3d 4f cb 33 bc 0f 0c eb 3b 84 85 24 3e
       0.08137027 -0.0109737655 0.0071730684 0.16066557
000290 2c 4c d8 bd 80 56 5e bc 0f 91 21 be 67 e0 b5 bd
       -0.10561404 -0.013570428 -0.15777992 -0.08880692
0002a0 f2 e1 dc 3e b9 36 8e bd a8 8c 5a be 82 49 c6 bb
       0.43141133 -0.06944031 -0.21342719 -0.0060512433
0002b0 b1 ef 49 bd 07 82 56 bd 19 2f 55 be db 9b 0f bd
       -0.049300853 -0.052370097 -0.20818748 -0.035060745
0002c0 78 86 47 be 95 ee 52 3e 14 d5 28 3c 4a f2 20 3d
       -0.1948489 0.20598824 0.010304708 0.039293565
0002d0 ca 7f 30 be 1e c9 02 3e a5 bf f5 3c 19 35 b0 3d
       -0.17236248 0.12772033 0.02999861 0.086038776
0002e0 d1 44 e1 3e c4 aa 11 bd bb 7d 99 3c 60 1f 81 bd
       0.43997815 -0.035563245 0.01873671 -0.063048124
0002f0 0e bc 72 be 08 df 5d bd 62 0a e7 bd 4a 31 9e be
       -0.2370455 -0.054167777 -0.11281277 -0.3089698
000300 c7 f2 c2 bd 12 25 bf 3c 49 10 1b bd 80 be fd 3c
       -0.09518962 0.023333106 -0.037857328 0.030974627
000310 06 59 27 3e 19 f9 36 3c 2b 03 89 3d 98 5a 90 bd
       0.16342553 0.011167788 0.06690057 -0.070485294
000320 6b a4 0c be ab fa 85 bd 73 d0 04 3e 70 08 36 3d
       -0.13734595 -0.06541952 0.12970142 0.04444164
000330 48 4f ef 3d 53 2e 88 3d 45 b2 ac be e9 8c ef bc
       0.116850436 0.06649461 -0.3372976 -0.029241996
000340 4a fe 70 3e 97 51 e5 3c ed 5a 28 3e 48 58 91 be
       0.23534504 0.027993007 0.16440935 -0.28387666
000350 b3 d4 1d be 7f bb 80 3e 96 58 81 bc a9 87 78 3e
       -0.1541317 0.25143048 -0.015789311 0.242705
000360 98 65 c6 3d 10 b0 2d 3d 4c 75 e5 bc c0 67 00 be
       0.09687346 0.042404234 -0.028010033 -0.12539577
000370 b3 38 68 3d a4 28 de 3e e7 bd 93 3d 1c c7 1e be
       0.056694698 0.4339038 0.072139554 -0.15505642
000380 95 1b a7 3d cb 2d 92 3e 3b 20 f0 bd 31 c1 07 bc
       0.08159558 0.28550562 -0.117248975 -0.0082858065
000390 65 1d 09 3e 66 82 a8 3e 26 09 52 3c e5 04 b8 3d
       0.1339012 0.32911986 0.012819564 0.089853086
0003a0 0c e6 22 be 6f 92 ec 3c d3 14 4a 3e 20 24 ae bc
       -0.15908068 0.028878419 0.19734506 -0.02125746
0003b0 9e 8d 79 3d 14 c2 82 3c 39 86 4f 3d 5e a9 0c be
       0.060926072 0.015961684 0.050665114 -0.13736483
0003c0 e8 09 53 3e 46 84 00 3e b1 6d 08 3f f3 18 39 3e
       0.20609248 0.12550458 0.53292376 0.18075924
0003d0 61 31 95 bd c3 13 27 be f1 c8 ea bd 56 03 d6 3d
       -0.07284809 -0.16316132 -0.11464108 0.10449855
0003e0 48 15 52 3b 4d af 1f 3c 4b 44 8d 3d 56 b8 9d 3e
       0.0032056142 0.009746385 0.068977915 0.308047
0003f0 c5 04 35 be ce db 31 bc 25 81 50 3d 36 ce b8 3e
       -0.176776 -0.010855628 0.05090441 0.36094826

mu.bias f4 [5]
000000 72 28 9f 3d 48 a6 e9 3d ed 90 40 be 2c c8 ba bd
       0.07771386 0.11408669 -0.18805285 -0.09120211
000010 cc 83 90 bd
       -0.07056388

log_std.weight f4 [5, 128]
000000 b7 2b 94 bc 08 84 13 bd f5 4c 01 be 61 ab 3c 3d
       -0.018087251 -0.036014587 -0.12627013 0.046061877
000010 c1 ae d3 b9 ac cd b1 bd 61 83 43 be 9c 5b 59 3c
       -0.00040375258 -0.08681807 -0.19093086 0.01326647
000020 d8 ab 9b 3e b0 c2 85 be b7 a7 02 3d dd 35 35 bd
       0.30404544 -0.26125097 0.031898227 -0.04424082
000030 0c f8 12 be 91 ae 3d bd 82 f7 98 bc 43 26 79 be
       -0.14352435 -0.046309058 -0.018672708 -0.24331002
000040 31 01 ab 3d 0c ac 54 bd 02 41 6b bc be 2b 1b 3e
       0.083498366 -0.05192189 -0.014358761 0.15153405
000050 90 3b 18 3e c2 f4 28 3d 78 67 70 be bf 34 8b 3d
       0.14866471 0.041249044 -0.2347697 0.0679717
000060 eb b9 d9 3d 6d 59 c7 be ed a4 21 be 82 c3 af bd
       0.10631164 -0.38935414 -0.1578557 -0.08582212
000070 df 96 40 3e b5 1b f8 bd 64 9b 3d be 38 9d 9b 3e
       0.18807553 -0.1211466 -0.18516308 0.30393386
000080 b8 05 39 3e 5b 75 8d bd c4 30 7d bb 12 5f cb 3d
       0.18068588 -0.069071494 -0.0038633803 0.099302426
000090 75 2b c6 3d ca fb 17 bd 5d fd 98 bd 16 f7 c7 3b
       0.096762575 -0.03710536 -0.074702 0.006102453
0000a0 19 e0 76 3d 2a 63 b6 be f2 48 c8 bc 0a 1e 9a 3d
       0.06027231 -0.3562253 -0.024448846 0.07525261
0000b0 83 3a 17 be 0e 75 56 3e 30 a2 e7 bd 20 f0 67 bd
       -0.14768414 0.2094309 -0.11310232 -0.056625485
0000c0 f6 e2 e4 3d ac 28 0b bd 43 e5 9f 3c 89 c5 dc 3d
       0.11176102 -0.033974335 0.0195185 0.10779864
0000d0 57 de 9f be b7 37 8c be ba e9 f5 3a 42 86 b7 3d
       -0.3122432 -0.27386257 0.0018761673 0.089611545
0000e0 0c 4e 48 3e de 03 30 be 75 b8 2b be 27 10 e3 3c
       0.19561023 -0.17188975 -0.16769584 0.027717663
0000f0 47 c4 8e 3c 2a df 8f bc e8 c0 86 be 01 9d f9 bd
       0.017427577 -0.017562468 -0.2631905 -0.12188149
000100 07 0f 0f be dd ec 16 be a0 9c e6 3b 0f 2c 49 3d
       -0.13970576 -0.14738794 0.007037714 0.049114283
000110 c4 bc 85 bd dd cd 10 3d 06 7a 75 be 54 c1 24 bb
       -0.06530145 0.035352577 -0.2397233 -0.0025139647
000120 cd 19 15 be 82 dd db 3c 31 03 18 be 3a 8a aa bc
       -0.14560623 0.026839022 -0.14844967 -0.020817865
000130 bc 4f 4a 3e b8 94 18 be 9c 86 00 be 36 2d 78 3d
       0.19756979 -0.14900482 -0.1255135 0.06058999
000140 2c 89 0c 3d 6b f4 0f be 02 fc 30 3e eb b6 76 bd
       0.034310505 -0.14058082 0.17283633 -0.060233038
000150 27 af 87 be 58 de 9e 3d 63 4a 4e be 3e 46 04 be
       -0.26500818 0.077572525 -0.20145564 -0.1291742
000160 5e a4 b5 be 2c b9 40 bc af 16 6b bd c4 84 7d be
       -0.35476965 -0.011762898 -0.05739468 -0.24757677
000170 6a ff d2 be 1f 7d 85 3c 09 03 41 3d b1 3b c7 3e
       -0.4121049 0.016295014 0.047122035 0.38912728
000180 96 cc e6 bd bf 4a e4 bd 15 29 e2 3d b8 bf 65 bb
       -0.112694904 -0.11147069 0.11042992 -0.00350569
000190 9e 3f 04 be 4a 84 85 3d fd 1f ed bd 4d 75 91 3b
       -0.12914893 0.06519373 -0.11578367 0.004439032
0001a0 a2 ba bf 3d fe 63 41 be 3d bc c2 be b6 1d 50 3d
       0.09361769 -0.188858 -0.3803424 0.050809585
0001b0 e4 06 ca bd 16 51 2e bd 62 38 a6 3d 7f 65 53 3e
       -0.098645955 -0.0425578 0.08116223 0.20644186
0001c0 f4 b9 8b be 94 64 ec bc 0c 53 0d bd 6a 41 63 be
       -0.27290308 -0.028856553 -0.034503028 -0.22192922
0001d0 1c ce 84 3e 82 a5 82 bd fa 61 71 3e 0d 95 0f be
       0.259385 -0.06379224 0.23572531 -0.14021702
0001e0 2c 92 88 3e 50 cb fc bc 71 af 2c bd 4f 32 08 be
       0.2667402 -0.030858666 -0.0421595 -0.13300441
0001f0 b8 b5 a4 3d d5 0a 62 3d 91 3f 2e 3e fa 40 cb 3d
       0.080424726 0.05518611 0.17016436 0.09924503
000200 25 bd 39 be b0 4c d5 bd 70 bd 00 3e 1c 91 a9 be
       -0.18138559 -0.104150176 0.12572265 -0.33118522
000210 c1 c4 a5 3d 67 c6 0e 3e d9 49 29 be 73 2b b8 3b
       0.080941685 0.13942872 -0.16532077 0.005620414
000220 4b 25 c0 3d dd 79 ad bd e3 0e 74 bd 48 59 26 3d
       0.09382113 -0.08470509 -0.05958451 0.04061249
000230 89 f0 35 be 5f 50 66 bd b7 ad b4 bd 1c b6 fd 3c
       -0.17767538 -0.05622899 -0.08822196 0.030970626
000240 ed be 02 3e 5d 98 43 be 4b b6 96 bd e3 80 89 3d
       0.12768145 -0.1910109 -0.073589884 0.06714036
000250 5e e4 fe bd b1 a0 12 3d 21 bf fb bc cc ff 6c be
       -0.12445901 0.03579778 -0.030730786 -0.23144454
000260 3c c2 bb ba f3 09 00 be 96 21 ea bd b4 b5 42 be
       -0.0014324854 -0.12503795 -0.11432187 -0.19014627
000270 7d 39 e0 3d 2b 51 21 be 57 b4 3c be 19 82 ec 3d
       0.10948465 -0.1575362 -0.18428169 0.11548252
000280 7c 5c 42 be d9 63 9a bd 6a ac 04 be c1 85 8f bd
       -0.18980592 -0.07538576 -0.12956396 -0.070079334
000290 49 67 b6 bd 11 03 0d 3e 5a 62 eb be db 6f cb bd
       -0.08906419 0.13770701 -0.45973474 -0.09933444
0002a0 8c fe 7d bd b5 66 3f be 5e 7b 8f 3e 35 19 94 3c
       -0.062010333 -0.18691523 0.2802381 0.018078426
0002b0 d8 ed 93 3d f0 ad f4 3c 0a 83 93 3d 73 cc a7 bd
       0.072230995 0.029868096 0.07202728 -0.081932925
0002c0 60 03 16 3e fb 6e cf bd 5e 88 c2 3c 4d c7 97 bd
       0.14649725 -0.1012859 0.023746666 -0.074110605
0002d0 63 ed 57 be 88 4d ad 3d f2 41 8f 3d cd 56 e6 bd
       -0.2108665 0.084620535 0.06995 -0.11247025
0002e0 d1 8b 9d 3d af a2 22 3e e6 98 18 3d 61 9e ad be
       0.076926835 0.15882371 0.03725519 -0.33909896
0002f0 3c 67 ad 3d 8b a7 33 3c 9f 3b f7 be 6e e1 b3 3c
       0.08466956 0.010965238 -0.48287675 0.02195808
000300 2d cb f4 bd 30 b7 4f be af e6 11 3d 0d 5b 46 be
       -0.11952815 -0.20284724 0.035620388 -0.1937067
000310 bb 1f 15 3d b2 bf e8 3d cb 4d cd bd e8 09 d4 3d
       0.036407214 0.11364688 -0.100246035 0.10353452
000320 28 d1 2e be 20 1a c3 bd 7f 62 43 be 2f 46 4a 3e
       -0.17071974 -0.09526467 -0.19080542 0.19753335
000330 c5 24 9e bd 9b 79 14 be 0e bd bd 3c b7 6e 72 bd
       -0.07721857 -0.14499514 0.023161437 -0.059187617
000340 76 9c 00 3e d6 c8 18 3e 76 c5 6b be a5 7e d9 3c
       0.12559685 0.14920363 -0.23024544 0.026549647
000350 d2 37 02 be ff b1 43 3d 43 68 66 be d0 08 41 bd
       -0.12716606 0.047777172 -0.2250071 -0.047127545
000360 cd fd 7c 3e 4a f7 23 be 72 3a 62 be 64 c5 b9 3d
       0.24706192 -0.16012302 -0.22092608 0.090708524
000370 e5 bb 83 bd e1 92 12 be 06 54 57 bc 10 33 3d 3d
       -0.064323224 -0.14313842 -0.013142591 0.046191275
000380 19 92 3a be 93 aa 93 3e 4c a9 80 be fa e9 3f be
       -0.18219794 0.28841075 -0.25129163 -0.18741599
000390 45 2c c3 bd d2 0e c1 bd 10 6b 19 3d e0 99 0f be
       -0.09529928 -0.09426655 0.03745562 -0.14023542
0003a0 0e 50 cd bd 9b f1 7b be c9 c7 9f 3d dc ce b7 3d
       -0.10025035 -0.24603884 0.07801778 0.08975002
0003b0 82 6d 5c bd 1f cf 8b 3c cc a9 50 bd 6f 0a 9e be
       -0.053815372 0.017066536 -0.05094318 -0.30867335
0003c0 b0 92 6c bd 59 fe 1c 3e c6 53 9e 3c 31 be 82 3d
       -0.05775708 0.15331401 0.019327056 0.063839324
0003d0 10 5d 75 3e e6 cb ab 3d a0 d3 31 3d 8c de 22 3d
       0.23961282 0.083885 0.043414712 0.03976302
0003e0 cc 1f 22 be 7d 62 2f be fc cd 58 be 09 d8 0d 3e
       -0.15832442 -0.17127414 -0.21172327 0.13851942
0003f0 3b 38 22 bc 2b 85 9c 3d 64 c9 d7 be 85 85 3f 3e
       -0.009901102 0.07642587 -0.42145836 0.18703277

log_std.bias f4 [5]
000000 69 bb b4 be 2a 68 6b be c8 c3 5a be a4 27 57 be
       -0.35299233 -0.22988954 -0.21363747 -0.21011215
000010 72 7c 9a be
       -0.3017307
