resource/models/sac_critic_20000.pth (torch, 155391 bytes, 10 tensors)

fc1.weight f4 [128, 17]
00000000: 936a fabc 180c 47be f3dd 09be c4c3 503d
00000010: 9d50 103e 26ec adbb 5392 9f3e 3e0e 5fbe
00000020: e523 3fbe 6807 48be 71bf c1bd d01d fe3d
00000030: 8a93 973e 1ed4 743e 1491 15be 6436 853c
00000040: 9b32 733d b279 4dbd 0324 8d3e 6a1c 803d
00000050: 8d49 eb3d 2900 873e 0ba7 723e 93b5 dfbd
00000060: 6b85 20be db63 09be 8d6e 55be 6cb8 213c
00000070: ecd1 3b3e 49e2 9cbe 3eb9 8c3e 8242 99be
00000080: 1659 42bd 05d1 453e d01d cebc 66e6 f6bd
00000090: 88e9 203e e305 6abd 72f8 48be 81fe aebd
000000a0: 3b14 513e 745f 99be e9ed e0be 4675 3a3e
000000b0: b9bc 14be 6afd 71bd 6313 2bbe 4c73 253e
000000c0: 3532 e43d 0b5c 533d d5cf 973d 3573 813e
000000d0: fd01 c0bd bc10 f6bd 5950 6dbe 2e93 4b3e
000000e0: 0be3 483b 4ffd 0abd f555 543d b26e e5bd
000000f0: 3d43 06be a8af 3bbd 8948 463c 6dc5 b5bd
00000100: a2dd a83e 42b9 55be be07 a8be c2c4 1ebe
00000110: d343 a63d 0fcd b9bc 76b2 6c3e 57ba dfbd
00000120: a8e4 be3d 6ab5 cebd 2dd4 60be 37c1 633d
00000130: 3de4 78bd ade7 89be 928f 5bbe 4090 b23d
00000140: 8390 d03e 8ac9 93be 8bd3 103e dd72 44be
00000150: 1333 973e 511a 8b3d fb94 adbe 9cd5 27be
00000160: 25f4 8abe 5537 e23d 1805 ad3d 2c1b c1bb
00000170: f8d5 453c 08d8 593b 9a81 c6be d703 933d
00000180: f966 24be 2700 b73c c9b8 483d b2f2 353e
00000190: b3bc acbd bad0 893d 2ce2 693c 36ee 553e
000001a0: fb12 e23d 8b73 c33d 2d0f 21bd 9764 903e
000001b0: ebd7 73bb f13e 22be f658 b33d c230 d0bd
000001c0: bb0f 10be 4700 0d3e 8911 1f3e 5420 a03e
000001d0: adf4 a73e ac52 883e 2859 d63d 956a 2cbd
000001e0: eedf 51bd 18e4 603e 0078 f83d 24cc a8be
000001f0: e25f 893e f239 5ebc f896 b13d b08f 0ebe
00000200: 4cc5 40be 90ad 2a3e 06e5 a73d 7c2b ab3e
00000210: d1ac 12bd d73b 403e 0486 c5be c36f 253e
00000220: 86af dabd 9c83 b83d 2f67 62bd 8141 04be
00000230: a214 683e 0cc0 2fbe 60b2 c73c b61a c5bd
00000240: 058f cb3d a229 2abe be2b 743e 1f0d d03d
00000250: 6189 d4be d674 14be 8560 2ebe d434 d13d
00000260: 957c 4abe b057 0ebe e51f 673e 8668 8dbd
00000270: c246 8fbd 9a32 973c f65f 13be 87b3 a03e
00000280: eb74 683e 9b3b 8a3e 0185 87bd b890 84be
00000290: fe94 d0bd 1ba4 9e3d 5fe5 b1bd 1529 7abd
000002a0: ef33 183d 6b1a 023e fab7 043e 826b 90ba
000002b0: 32c9 9d3c a981 793e d13c 9c3e 72de 163c
000002c0: 85fb 253c 1c47 843e 3273 3cbe e0cf 583e
000002d0: aab5 26bd 925e 713b c4ac 493e 9ab6 5abe
000002e0: e3ea 7cbe 92d8 3ebe 3523 373e e390 01be
000002f0: c6a4 88bd c692 493e f0c0 a13e 1f39 d8bd
00000300: 89c0 933e 1ae7 433e 26c7 2dbe d627 12be
00000310: 2199 bdbe 47bd 963d bc6f 163a 8c07 d5be
00000320: 68af 3ebd 1baa 89bd 5bc2 5ebe c75b e73d
00000330: fd04 7bbe 4843 afbe ab78 b9bd b04d b7bc
00000340: 2a37 01be 12f2 77be f5a5 4ebe 0ded f1bd
00000350: b6b0 253e b252 29be 895d 1dbe 0b15 773e
00000360: dbb1 4b3e 9a67 62be 3705 2bbc 65db cbbc
00000370: b202 3bbe 96d8 d93d f0ff 053e 3b36 a3be
00000380: a8ed 84bd fbe6 6abe 56d6 903c 90a9 21bd
00000390: 56ab 8d3c 118c 223d 5206 883d 9adc fdbd
000003a0: 5c0a 26be 4be6 b7be abb0 e53c eb7a 003e
000003b0: 02f8 af3e 5157 73be 9979 34be 4d88 023e
000003c0: 1133 333e 9518 eb3d e61a a8be 5045 113e
000003d0: 56b1 4bbe 65ce 1e3d 5ab9 e5bd a242 7d3e
000003e0: e537 aebd 43ae 8f3e 495f 353e ecee 0ebe
000003f0: 00a7 953e c5b2 afbd 0b61 b1bd b0e6 963e
-0.030568397 -0.19438207 -0.13463573 0.050967947 0.14093252 -0.005307692 0.31166324 -0.21782777
-0.18666036 -0.19534075 -0.09460343 0.1240803 0.2960475 0.23909041 -0.14606124 0.016261287
0.059374433 -0.050164886 0.27566537 0.062554196 0.11488638 0.2636731 0.23696534 -0.109233044
-0.15675895 -0.13416998 -0.20842953 0.00987063 0.18341798 -0.30641392 0.2748508 -0.29933554
-0.04744824 0.19318016 -0.0251607 -0.12055664 0.15714085 -0.05713452 -0.19626024 -0.085446365
0.20417874 -0.29955637 -0.4393151 0.18208799 -0.14525117 -0.059079565 -0.16706614 0.16157264
0.11142389 0.05160145 0.07412688 0.25283208 -0.09375379 -0.120149106 -0.23175181 0.19880363
0.0030652906 -0.03393298 0.051839788 -0.11202754 -0.13111587 -0.045821816 0.012102255 -0.088755466
0.32981592 -0.20871451 -0.32818407 -0.15504745 0.08118405 -0.022680787 0.23114952 -0.109242134
0.093209565 -0.10093196 -0.21955939 0.055604186 -0.06076454 -0.26934567 -0.21441486 0.0871892
0.40735254 -0.288647 0.14143197 -0.19184442 0.29531154 0.06792129 -0.33902726 -0.1639008
-0.27139392 0.1104571 0.08448237 -0.0058931317 0.01207494 0.0033240337 -0.38770753 0.07178467
-0.16054906 0.02233894 0.04900435 0.17768362 -0.08434429 0.067292646 0.014275115 0.20891652
0.110387765 0.095435224 -0.039321113 0.28201744 -0.0037207555 -0.15844323 0.08757202 -0.1016555
-0.140685 0.13769637 0.15534033 0.31274664 0.3280386 0.26625574 0.10466224 -0.042093832
-0.051238947 0.21962011 0.12132263 -0.32968247 0.26830965 -0.01356362 0.08671373 -0.13922
-0.18825263 0.16667771 0.0819798 0.33431613 -0.03580934 0.18772827 -0.38578808 0.16155915
-0.1067801 0.090094775 -0.055274185 -0.12915613 0.22664121 -0.17163104 0.024377048 -0.09624235
0.09939388 -0.16617444 0.23844811 0.10158753 -0.41511062 -0.14497694 -0.17029007 0.10215154
-0.19774087 -0.13900638 0.2257076 -0.06904702 -0.06995918 0.018456746 -0.14392075 0.31386968
0.2270085 0.269986 -0.06617165 -0.25891662 -0.10184668 0.077461444 -0.08686327 -0.061074335
0.037158903 0.1270539 0.12960806 -0.0011018368 0.019260976 0.24365868 0.3051515 0.0092083085
0.010130768 0.25835502 -0.18403319 0.21173048 -0.040700592 0.003683005 0.19694811 -0.2135872
-0.24698977 -0.18637303 0.17884524 -0.12652926 -0.06672053 0.19684896 0.31592512 -0.1055777
0.2885783 0.19131127 -0.169705 -0.14273009 -0.3703089 0.073603205 0.00057386956 -0.4160732
-0.046554 -0.06721898 -0.21753828 0.11296802 -0.24513622 -0.3423102 -0.09056219 -0.022375911
-0.126187 -0.24213436 -0.20180495 -0.11812792 0.16180691 -0.16535452 -0.15367712 0.24129121
0.19892065 -0.22109833 -0.010438255 -0.024884889 -0.18262747 0.106370136 0.13085914 -0.31877312
-0.06490642 -0.22939675 0.017680328 -0.039468348 0.017293613 0.03968436 0.066418305 -0.12395592
-0.1621489 -0.35917887 0.028038343 0.1254689 0.34368902 -0.23763777 -0.17624511 0.12747307
0.17499949 0.11479298 -0.32833022 0.14186597 -0.19891867 0.038771052 -0.11216994 0.2473245
-0.08506755 0.2806264 0.1771213 -0.13958329 0.29228973 -0.085790195 -0.086610876 0.29472876

fc1.bias f4 [128]
00000000: 2abf 6dbd 93df 13be ccba 9b3e e9d9 1abe
00000010: 5c5a 0abe 5b91 733e 4a36 1c3d a9ba 803e
00000020: 5c75 363e bc7c ce3e f79d aa3e 37f6 333d
00000030: e095 453e fd2e b13d 9eb7 30be ca3f 8f3e
00000040: 3b5c 19be cf7b c13e e1e0 74be 9451 82bd
00000050: 60b8 23bd c01c bc3e 6aae 06bd 096e 8dbe
00000060: 244c 8a3e 6245 ac3e 6cb1 5c3e bae5 b43e
00000070: 80e9 9b3e 472a 4bbe 0d17 61be a371 a7bd
00000080: 0b2e 3bbe a015 243e 7bd6 6fbd 2cc2 a03e
00000090: 202a d63e 0e61 963d de26 2b3e fc37 ce3e
000000a0: 05cd c7bc 2904 48be f3c6 cb3e 6985 c93d
000000b0: 06ab b03e 9af5 283e c21b cf3e f02a ab3e
000000c0: 95ce 8a3e 4d8c 19be 8e11 24be aae4 27bc
000000d0: 1cf7 183e eda3 2d3d 66af db3e 12d0 04be
000000e0: 2a2e 033e f926 ddbd f5f0 d4bc 0e9f b33e
000000f0: 8059 3dbe 375c 32bd af01 20bb f11f 2abe
00000100: 9211 643e dcba 853e 397a ecbd 0463 a23e
00000110: dc0a eabd 2145 73be 29a3 75be e26c 4fbe
00000120: e905 d73e 2f8f b13e 172e 86be 22b9 373d
00000130: fd11 71bc 6ec3 0a3d efde 113d 7294 ae3e
00000140: 3c4f 613e c4c6 2f3d f9f5 7b3e 5af4 1c3e
00000150: e686 403e 7e5a b13e 039b ee3c 89db 823e
00000160: 8537 0dbe 3118 c6bc 641d 8c3e eabf d53e
00000170: e984 a43e 4872 38be 8ebc 30be a3d3 593e
00000180: 7304 c23e 99ce f6bd 0f79 d53e da99 32be
00000190: 8eec d33e 7beb b83d ac58 ad3e 8b8b a63e
000001a0: 4655 d9bd c25c 8f3e c0fc c7bd 4902 163e
000001b0: 4b9a 863e 6d55 d83c 8ab1 db3e 1bc9 23be
000001c0: c069 f7bc c22a b73e 05fb e4bd 8bce 363e
000001d0: dc55 66be 6091 1e3e b040 19be 390e 87bd
000001e0: 921e ea3d ba58 a93e acde 4b3e f196 78be
000001f0: b06e b83e f556 d03d 71ec c83e 9a11 8cbc
-0.058043636 -0.14440756 0.30415952 -0.15122189 -0.13511032 0.23785917 0.03813771 0.2514241
0.17818207 0.4032954 0.33323643 0.04393598 0.19295454 0.086515404 -0.17257544 0.27978355
-0.1497659 0.3778977 -0.2391391 -0.06363216 -0.039970756 0.36740685 -0.032881178 -0.27623013
0.27011216 0.33646685 0.21552056 0.35331517 0.30451584 -0.19840346 -0.2198145 -0.08175971
-0.18279283 0.16023874 -0.058554154 0.3139814 0.41829014 0.073427305 0.16714045 0.40277088
-0.024389753 -0.19532837 0.39800224 0.09839899 0.3450548 0.1649994 0.40450865 0.33431196
0.27110735 -0.14994927 -0.16022322 -0.010247389 0.14938015 0.04239266 0.42907256 -0.12969998
0.12810579 -0.10798449 -0.025993804 0.35082287 -0.18491173 -0.043544974 -0.0024415066 -0.16613747
0.22272328 0.26119125 -0.115467496 0.31716168 -0.114278525 -0.2375684 -0.23988022 -0.20256379
0.41996697 0.34679553 -0.2620704 0.04485429 -0.014713761 0.033877783 0.035612997 0.3409763
0.22002882 0.042914167 0.2460555 0.15327588 0.1880146 0.34639353 0.02912665 0.25558117
-0.1379071 -0.024181457 0.27366173 0.4174798 0.32132652 -0.18012345 -0.17259428 0.21272139
0.3789402 -0.12051124 0.41693923 -0.17441502 0.41391414 0.09029289 0.33856714 0.32528338
-0.10611968 0.28000456 -0.09765005 0.14649309 0.2628959 0.026407922 0.4290889 -0.15994684
-0.030201793 0.3577481 -0.11180691 0.17852227 -0.2249369 0.15485144 -0.14966083 -0.0659451
0.11431612 0.33075505 0.19909161 -0.2427633 0.36021948 0.10172836 0.3924289 -0.017098237

fc2.weight f4 [128, 128]
00000000: acf7 48be 0d95 133c d929 a23e 3dd1 cbbc
00000010: 69a9 a1bd e10e 163e 9372 323e 7226 a93d
00000020: 7715 313e ab84 413e 08a8 be3c f057 ba3c
00000030: db0a 4f3e 01b6 7bbc 010c 1a3e 4d41 b53d
00000040: 3e40 ee3d d05b 273e c646 4b3d 1202 88bb
00000050: 2587 f73d 3d0e eb3d 46d2 383e 56a7 df3c
00000060: 5d9e ab3d a7fa 103e 221f 363e 2d19 163e
00000070: 54d7 1a3d c89f 1ebd 0464 8cbd 5d54 0d3d
00000080: fccf d93d ebf6 5f3e aa3f df3d efb0 dc3d
00000090: 98d4 123e c815 d23d 6726 923e 508a 2a3e
000000a0: 2183 ee3d a6dd f6bd 7170 493e 64dc d93c
000000b0: a5e9 403e a7c4 063e efbe 863e 0e6d 073e
000000c0: 6cd8 0d3e c42e 24be e764 39be cfab c73d
000000d0: 0b4b 123d a9f9 bebc a502 253e b141 1abe
000000e0: be3f ef3d 5662 3abe b98e 563e a8cc e03d
000000f0: 0d82 aabd 21d9 043e 4181 d73d b1b5 8ebd
00000100: cd1d 203e 2b2c 8a3e 363b 82bd 34cd 2f3e
00000110: 2a2c 143c 05d7 64bc bcf1 77bd 74f0 d1bd
00000120: 6af0 303e d52e a73d c6dc 9cbd fff8 f03d
00000130: f0df 0b3c 3fe5 3e3d 0e82 473d dd53 253e
00000140: cd37 f63d 71e3 0f3d cc19 103e debb e93d
00000150: 75cd 623e ff84 553e 0e6f 3d3e 0dc2 9c3d
00000160: f421 bb3d 7de2 133e dfcc ce3d 19bb 873e
00000170: fd1f c73d 8e43 383e 59b4 883d f45d 503e
00000180: 487e 403e aa88 a73c 171a 5b3e 142b 0f3e
00000190: d3f0 353e 1fbc 853d caf7 473e a612 5b3e
000001a0: 7622 1abe d444 673d bf5d b33c 6d58 323e
000001b0: 7cb6 693e de8d 583e 8e22 233e ef40 60be
000001c0: 4109 8abb de3f 083e d6c4 c1bd bd69 ca3d
000001d0: 6d86 c7bd 80b3 e43d e10f 95bc 936f b03d
000001e0: 5297 873d 484f 323d 3fba f73c cfb9 2bbe
000001f0: e61f a33d 4f83 da3d 3349 d93d 5237 8dbd
00000200: dab6 cf3e d718 9a3c 27be 21bf a132 b2be
00000210: 9026 183e 27b9 32be 51c4 24bd 1dd2 c4bd
00000220: 936c 50be ddbc 023e 8ccd b13d b3c8 dbbe
00000230: c8da 97be 366c fbbe fd0c dabe e696 fc3d
00000240: bdf1 fabd be52 07be ab5f f43d b318 28be
00000250: 5cd2 303d 6b67 ed3d 2a68 16be 9f62 973c
00000260: aa7c 533d 7ebf c63c b609 27bf ec43 0bbd
00000270: 1f56 90bd 8116 903d bebb 6fbe 12c8 a13d
00000280: 89bd c8bd 530b 21be ef93 d43c 9374 e8bd
00000290: 5160 873d e2ab 4e3d f557 c5be 2297 c1be
000002a0: b1f8 61bf 39a6 2b3e f98c b03d 76bc 71bd
000002b0: f2bc a9bd 3f06 8d3e 7f36 1fbd 7549 20bd
000002c0: 3d79 d13d 54cf 523b f458 043e a3b8 233e
000002d0: cdce 4dbe c415 053e 8f70 bc3d 5340 b63d
000002e0: 13d2 3ebf bf9d bcbd 12ef abbe c72d 0f3e
000002f0: 654c 423e eb26 883d 2fc9 ba3d 964a 1f3e
00000300: e1dc 923b 7a3e 6bbf 5637 9cbd a3a1 173d
00000310: 2646 8bbf f4c3 ec3d def0 8abf eeca 08bc
00000320: 00f5 283d 4055 17bd ca41 e93d 8780 96bf
00000330: 41b3 473e fddb acbd 4edf 453e 6508 563d
00000340: c421 dcbe 88df c3be abf5 033d 23c4 b7bd
00000350: 2485 c4bc 90f3 e0bd bd99 943c ac46 253d
00000360: a995 13bf fc4d 403d e44a 193c 566c d13d
00000370: 858a 74bd 0427 45be c067 07be 4897 10bb
00000380: 1e87 69be c8c7 133e 51ac 4dbc 3002 76be
00000390: 0804 193d a8cb 643b 3d44 e2bb 3c90 2cbf
000003a0: 3cc6 94be 18a9 053e bb6c c13d 50d1 85be
000003b0: a840 163d 5f7c 0c3e d3d7 d43d 93e2 e7bc
000003c0: 14c6 65bf 576f 7b3c ea7c f7be 798f e8bd
000003d0: 01a3 853d 7f2b 4c3d f9ca d23d 1a02 b7bd
000003e0: e81d 4ebe 7111 853c de19 b73d 903d e93d
000003f0: bf31 d1bd 2067 46be e51d fd3c 41fd ddbd
-0.1962573 0.009007704 0.31672552 -0.024880046 -0.078936405 0.14654113 0.17426519 0.08259286
0.17293344 0.18898265 0.023273483 0.02274701 0.20218985 -0.015363217 0.15043642 0.08850346
0.11633347 0.16343617 0.04962804 -0.0041506374 0.12086324 0.11477325 0.18048963 0.027301472
0.08379815 0.14158116 0.17785314 0.14658041 0.03780301 -0.038726598 -0.06855014 0.034504283
0.10635373 0.21871535 0.10900815 0.10775935 0.1433891 0.10258061 0.28544924 0.16654325
0.116461046 -0.12053995 0.19671799 0.026594348 0.18839128 0.13160954 0.26317546 0.13225195
0.1385209 -0.16033465 -0.18104897 0.09749567 0.035716098 -0.023312407 0.1611429 -0.15064122
0.1168208 -0.18201575 0.20952882 0.10976535 -0.083255865 0.12973453 0.105227 -0.06968249
0.15636368 0.26986822 -0.0635895 0.17168123 0.009043733 -0.01396728 -0.06053327 -0.10250941
0.1727921 0.081632294 -0.07659297 0.11766242 0.008537278 0.046605345 0.048708014 0.16145273
0.12022362 0.035129014 0.1407234 0.11412786 0.22148688 0.20851515 0.18499395 0.076542
0.091373354 0.14441867 0.1009767 0.26509932 0.09722898 0.1799452 0.066750236 0.2034834
0.18798172 0.020450909 0.21396671 0.13981277 0.17767648 0.06530022 0.19528118 0.21393833
-0.15052208 0.056462124 0.021895288 0.17416544 0.22823519 0.21147868 0.1593115 -0.2189977
-0.004212529 0.13305613 -0.094613716 0.09883449 -0.097424366 0.111670494 -0.018196048 0.08615031
0.06620659 0.04353264 0.030240176 -0.16770099 0.079650685 0.106695764 0.10609665 -0.06895317
0.40569192 0.018810673 -0.63180774 -0.34804252 0.1485846 -0.17453443 -0.040226284 -0.096103884
-0.20353918 0.12767358 0.08681783 -0.4292656 -0.29659104 -0.49105996 -0.42588034 0.12333469
-0.12253139 -0.13215157 0.1193231 -0.16415672 0.043169364 0.11591991 -0.14688173 0.018479643
0.05163256 0.024261232 -0.6524919 -0.034000322 -0.07047676 0.07035542 -0.23411462 0.078994885
-0.09801776 -0.15726976 0.025949446 -0.1135036 0.06610168 0.05045689 -0.38543668 -0.37810618
-0.882701 0.16762628 0.086206384 -0.05901762 -0.082879916 0.27543828 -0.03887033 -0.039132554
0.102282025 0.0032167034 0.12924558 0.15988402 -0.2009842 0.12996584 0.09201156 0.088989876
-0.745393 -0.09209775 -0.33580834 0.13982306 0.18974455 0.06648048 0.09120404 0.15555796
0.004481897 -0.91892207 -0.07627742 0.037019383 -1.0880783 0.115608126 -1.0854757 -0.008349163
0.041249275 -0.036946535 0.113895014 -1.1757973 0.19501974 -0.08440397 0.19323465 0.0522541
-0.4299451 -0.38256478 0.03221671 -0.08972957 -0.023989268 -0.10983956 0.018139714 0.0403506
-0.5765024 0.04694937 0.009356234 0.102257416 -0.059702415 -0.19253165 -0.13223171 -0.0022062827
-0.2280545 0.14431679 -0.01255329 -0.24024272 0.03735736 0.0034911428 -0.0069051073 -0.67407584
-0.2905749 0.13052785 0.09444567 -0.26136255 0.036682755 0.13719319 0.10392728 -0.028306281
-0.8975537 0.01534637 -0.4833749 -0.1135549 0.06525231 0.04984617 0.1029262 -0.08935948
-0.20128596 0.016243668 0.08940481 0.11388695 -0.102145664 -0.19375277 0.030898044 -0.1083932

fc2.bias f4 [128]
00000000: f5ed f43d 6b5b af3d 3472 84bd 59f9 923e
00000010: c977 c73d a436 5a3d 5ba7 22bd ac91 753e
00000020: 322a 0c3e fb96 7b3e 5eed 103e 21df c53d
00000030: 9173 df3d 4c58 743e 2222 8e3e 4955 603e
00000040: d93d 213e 8e12 9e3d a05d 393e baa8 3e3e
00000050: 598a c6bd ce11 ed3d 90ea 823d f617 7d3e
00000060: 23ea 4bbc c130 333e 077d 293e 590c 1b3e
00000070: 0c81 383e 9418 e8bc ac2d 723e d4d5 b33d
00000080: e44a 713d 1a0c cebc 2aa9 4cbd 006b 6d3e
00000090: e33a 473c af8e 0f3e deee 163e 07c4 f3bd
000000a0: 114d 4b3d 7a5e 783e ab79 823d 18ee 723e
000000b0: 12c9 cbbb e494 8d3e 41d6 cabd e13c 5e3e
000000c0: da38 a73d 02d7 683d 8c80 49bd 1146 58bd
000000d0: ecd5 2e3e ee81 0a3e 616c b5bc 32c2 dd3c
000000e0: 8187 663e c714 00bd 4496 91bd e97c 5ebc
000000f0: 7160 1b3e 9a1a b13c 159d 3b3c 1e4f c4bd
00000100: 933d 8c3d 3ad5 213e fb6d 133e 9ee7 893d
00000110: 7d0c 20bd b407 433d 7b2a 293e f721 6c3d
00000120: 416f 833d 2460 3fbd 865b 723e 6895 77bd
00000130: 698d 863a 1f20 043e 1ad8 c73d 7397 a7bd
00000140: 0c16 fb3d a4b8 1d3e 6dfd 163e f818 463e
00000150: c4a3 c3bd cad2 f73c 9c4d 563e c206 253e
00000160: b68b f03d 734b 06bc 8db2 0a3d 526b 803e
00000170: 0e8d 8ebd c504 e53d 1cdc 8d3d b9e4 c23d
00000180: 1c96 833d 521e 3b3e e367 493e 3a5b 1a3e
00000190: f9b6 813e dad5 4bbc a2e0 de3d 5c7f 273e
000001a0: 9c0d 263d 4ffe 06bc 2691 90bd 22a6 803e
000001b0: 320e 513e 2eba 813e 7d8c 0bbd d728 67bb
000001c0: 0fbb ef3d 8325 793e d2b7 833d 694a 8b3e
000001d0: 4952 0e3d f477 b0bd d83b 0fbd 4bb1 72bd
000001e0: f84f 663e 1dc7 343e c8ad 1abc f191 e63d
000001f0: 6a51 903d f763 923d 02dd 733e 3672 cd3d
0.11959449 0.085623585 -0.06467095 0.28705862 0.09739644 0.053274766 -0.039710384 0.2398135
0.13687971 0.24569313 0.14153048 0.09661699 0.109107144 0.23861808 0.27760416 0.21907534
0.1574625 0.07718383 0.18102121 0.18619052 -0.096943565 0.115756616 0.063923955 0.24716172
-0.012445959 0.17499067 0.165516 0.15141429 0.18017977 -0.028332032 0.23650235 0.08781019
0.058909312 -0.025152255 -0.049966015 0.23185349 0.012160036 0.14019273 0.14739558 -0.119026236
0.049634043 0.2425479 0.063708626 0.23723638 -0.006219038 0.27652657 -0.09904147 0.21702911
0.081651405 0.056845672 -0.049194857 -0.052801196 0.17073792 0.13526127 -0.022146406 0.027070139
0.22512628 -0.031269815 -0.07108739 -0.013579586 0.15173508 0.02161913 0.0114510255 -0.09585403
0.06847682 0.15803996 0.14397423 0.067336306 -0.03907441 0.04761477 0.16520111 0.05764958
0.064177044 -0.046722546 0.23667726 -0.06044522 0.0010265532 0.12902878 0.09758015 -0.081831835
0.122600645 0.15402466 0.14745112 0.19345462 -0.0955272 0.03025188 0.20928043 0.16115859
0.11745398 -0.008196699 0.033861686 0.2508188 -0.06960498 0.1118255 0.06926748 0.09516282
0.064251155 0.18273285 0.19668536 0.15073863 0.2533491 -0.012441123 0.10882689 0.16357177
0.040540323 -0.008239343 -0.07058935 0.2512675 0.20415571 0.25337356 -0.034069527 -0.0035272145
0.117056005 0.24330716 0.06431545 0.27205208 0.034746442 -0.08616629 -0.03496918 -0.05925111
0.22491443 0.1765408 -0.009440847 0.11258305 0.070467785 0.07147973 0.23814777 0.1003155

q1.weight f4 [1, 128]
00000000: 76bf 4a3e 3a6e 60bf e9ca 35bf 89eb 373e
00000010: 0862 6f3e d4d0 06bf 1a5a 8bbb d9c5 693e
00000020: 18bd 723e 8bb4 423e 8d93 863e 2969 883e
00000030: 674f 783e 5857 593e fe9b 3f3e 7f68 783e
00000040: 2b63 6b3e 3259 e9be 62e0 5e3e 4922 403e
00000050: 0522 32bf 4e95 4e3e 5271 55bf 7599 3d3e
00000060: ef08 59bf eb2c 8d3e 143c 853e 8fb0 713e
00000070: 6f79 513e 902b bcbe c190 8c3e b99b 863e
00000080: 7918 38bf 5c9c f6bb 4e67 e1be 9f6a 853e
00000090: 2a27 cdbe 7ee6 693e 0d38 853e 62e3 e3be
000000a0: fe59 18bf 5111 763e faa4 fbbe e223 3b3e
000000b0: cae3 d3be 94d6 3b3e 0295 32bf 251f 8b3e
000000c0: 6de2 25bf 6760 14bf 3cdf 2fbf 10ed 92be
000000d0: 3267 903e b1f6 453e 304b 3bbf cbdf 52bd
000000e0: 9470 673e ec33 ebbe c692 29bf 8644 90be
000000f0: 8bf2 693e 7faa 09bf 583f 183f 2c5b 94be
00000100: 6a4e 40bf 9dc9 5f3e df79 af3e c9e8 e0be
00000110: 8995 0dbf 8767 05bf 32d9 9f3e b698 15bf
00000120: e6c7 00bf 1415 1abf c6fa 763e 972d 2abf
00000130: 5c85 d03e 53e2 483e 8440 fe3e 5331 0ebf
00000140: c907 9a3e 0f9b 953e dff8 b43e 66c7 353e
00000150: ae03 89be 27ba 47bf 681c b03e dd30 563e
00000160: f05d 323e 69c7 0fbf 2ad7 a4be 8dcc 3d3e
00000170: 66ce f0be 0c98 853e cf61 03bf 50ad b23e
00000180: 24de 10bf 3600 803e 7c46 643e 6358 953e
00000190: 2cb4 333e b9a1 5bbd bc5e 463e 6214 693e
000001a0: cdf0 37bf e65a b3be 7f08 22bf 8fa4 a33e
000001b0: 6edc 813e 9dd7 363e 342e 64bf 3914 51bf
000001c0: f73f 823e c8b9 653e 4790 103f bd36 383e
000001d0: 2486 4cbf d833 0bbf 390c aabe 1403 13bf
000001e0: 2337 843e 57da 803e 7734 00bf 81ac 803e
000001f0: c80b 2abf 4e00 36bf 47b8 5a3e 36b7 4d3e
0.19799599 -0.8766819 -0.7101274 0.17960943 0.2337724 -0.52662396 -0.0042526843 0.22829379
0.23704946 0.19014184 0.26284447 0.2664273 0.2424904 0.21224725 0.1871185 0.24258612
0.22987048 -0.45575863 0.21765283 0.18763079 -0.6958316 0.20174143 -0.8337604 0.1851557
-0.84779257 0.27573332 0.26022398 0.23602508 0.2045648 -0.36751986 0.27454188 0.26290682
-0.7191234 -0.0075259637 -0.44024128 0.26057908 -0.40068942 0.22841832 0.26019326 -0.44509417
-0.5951232 0.24030043 -0.49149305 0.18275407 -0.41384727 0.18343574 -0.6975862 0.271722
-0.64798623 -0.579596 -0.68700004 -0.2869649 0.28203732 0.19332387 -0.731616 -0.051482957
0.22601539 -0.4593805 -0.66239583 -0.2817728 0.22846429 -0.5377578 0.59471655 -0.2897581
-0.7511965 0.21854253 0.34272668 -0.439276 -0.553063 -0.52111095 0.31220394 -0.58436143
-0.5030502 -0.6018841 0.241191 -0.66475815 0.40726745 0.19617586 0.49658597 -0.5554401
0.30084065 0.29219863 0.35346124 0.17751846 -0.2676062 -0.7801842 0.34396672 0.20917077
0.17418647 -0.5616365 -0.32195407 0.18535061 -0.4703247 0.26092565 -0.5132112 0.34897852
-0.5658896 0.2500016 0.22292513 0.29168996 0.17549199 -0.053621028 0.19372076 0.22761682
-0.7185181 -0.35030288 -0.63294214 0.31961486 0.25363487 0.17855687 -0.89133 -0.8167148
0.25439426 0.22434151 0.5647015 0.17989631 -0.7989218 -0.5437598 -0.3321245 -0.5742657
0.25823316 0.2516658 -0.50080055 0.2513161 -0.66424227 -0.71094215 0.21359359 0.2008942

fc3.weight f4 [128, 17]
00000000: 2ab7 303e 25eb b73d 3f38 523e d308 10bd
00000010: 71d6 0fbd d735 c2bd 3bf4 a93d 8f23 53be
00000020: f9e6 7d3e 3371 a3bd 5a27 a9be 04fb 2d3e
00000030: e6b8 923e 7281 823e 01f9 f2be 3836 1dbe
00000040: 88c4 6fbe b773 3f3e 7e80 053e ad85 43be
00000050: 59e5 5f3e 29dc 0c3c 99bd 4b3e 85b8 fabc
00000060: c220 6dbd 4425 013d 2e9b 13be 9444 8c3e
00000070: 7dde 003d c3f9 fc3d b033 b13e 954c 6f3e
00000080: 5f5b 16be d5fb a9be 12fd 2c3e 0d40 33bd
00000090: d8e0 b83d efc6 29be 9277 f83c 118c e2bd
000000a0: 419b 4fbe 2d43 a6bd 2325 153e dea6 b83e
000000b0: fd13 9d3e 90c3 193d ffcc 2dbe 769f 4bbd
000000c0: 24f3 8b3e d728 f3bc 2dea 163e a6f7 403e
000000d0: 62bf 04be 7eee 683e cce3 32be 800c 0a3e
000000e0: 4806 9c3e 5eeb 003d a8e4 6ebe b003 7c3e
000000f0: 5968 873e e8bb 743d 0770 4b3e ffb7 e3bb
00000100: 32fd 8dbe 68d5 3f3e 6197 23be 0903 153c
00000110: 8f22 a23d cdd7 94be e947 57bc e9d6 043d
00000120: f3f0 a23d ee8b 57be b6b4 a5bd c361 12be
00000130: 15f9 b03e 6c07 bcbc 7a90 143d 3c9b 813e
00000140: f0f6 9a3e 4f6f b53e 2696 4d3e 499f 6a3d
00000150: 80b7 c1bd ea3f 9fbd 5f9b 9fbe 2315 8a3d
00000160: ca25 19bd 5b90 68be b3be 9e3e 86c7 f8bd
00000170: 6318 9cbe 1a99 4cbd 1b4e 3d3d f266 afbd
00000180: bab7 81be 7a5f 763d dbfa c4bd 655b 05bd
00000190: eb93 ce3b fa90 523e ad41 5fbd ece1 00be
000001a0: b4c3 08be 43b0 693e 9880 c13d 08e2 c9be
000001b0: f81a 10be 2e68 aabd 5bae 7bbd 5a1b f4bd
000001c0: 0152 b23e b452 643e 5fbf 30be 28e3 503e
000001d0: 2601 95be 3e74 8f3d 8455 f13d 6548 843e
000001e0: 5cc5 133e a10f 933e 7e09 09be ac34 763c
000001f0: 813f 5cbd b4b1 07bf 694b 4fbe 0a52 ac3d
00000200: bab6 05bd 0e1a 3b3e 8a8b 8d3d 579a 8d3e
00000210: 94c9 833c 5387 243e 6b40 6f3e 9e26 d43e
00000220: b97b bb3d ec26 65bd d18e b4bd b20d 333d
00000230: 2ee2 b53d f6c3 143e 7ec9 f6bc 9f90 153d
00000240: a6c1 3bbd 499c c23d e39b 003c f656 0ebe
00000250: 8d93 91be 11a7 4fbe 71c7 b3be 989f 043e
00000260: 294d 62be c78c 493e c3ad 26bd 0bf0 afbe
00000270: 9072 e1be fbcd 723e 4d88 ad3d 3271 523e
00000280: 26a7 4cbe f7a8 c0bc 5470 92bd 8b74 c8bd
00000290: f12e 1dbd b9e3 cf3c ff48 29be 29c7 4ebe
000002a0: 9420 cebe 272e 94bd b501 383e 9e45 72bd
000002b0: 0f34 3cbe 7155 f4bd 453f 0d3d 08bd 04be
000002c0: 2bf3 823e d345 0b3e 2194 5f3d a9e0 57bd
000002d0: 6cc7 8b3d b53b 7e3e 9215 eabd 9042 08be
000002e0: 679d 59bd fc45 053d ef65 c3be 4911 8fbd
000002f0: ad26 92be 306a aa3c 2898 d9bd e1bd f1bc
00000300: b5f6 3f3d 4f01 8dbd 6809 50be af03 c3be
00000310: 52be 2cbe 34d1 e1bd 812a c1bc aa21 80be
00000320: 5e15 55bd 80d1 27be 3490 63be c59e f5bd
00000330: 4de6 e43d 9eb3 943e c372 a1bc cef6 4bbe
00000340: 7184 11be 109f 4cbd 9de5 49be abe9 bd3d
00000350: b43d c43c 89f1 5b3e 4099 37be 6eb4 6c3e
00000360: 0751 eabd 00f2 34be e246 2fbe 5133 833e
00000370: 546f ab3e a7f3 94bd 68c5 ea3d 946f c6bd
00000380: aa7f 8f3e 6afb 143e e410 1a3e f303 923d
00000390: 4637 093e 3998 4f3e 853f 20be 746d 1ebe
000003a0: ffdc 3cbe ab7b debd a317 65be 42c1 54be
000003b0: 282f 503e 6975 3f3e 82e0 443e b284 b83d
000003c0: 525e a93c e0e8 723c 351a ab3d 499f ec3d
000003d0: 8e4e 73be 2373 0a3e 5381 623e 489a d9bc
000003e0: 9bec 793d 9ec4 2b3e 60cd 06be 9f59 56be
000003f0: cd83 ea3d 5364 dabc 9275 cfbb cfde 86be
0.17257372 0.08980397 0.20529269 -0.035164665 -0.035116617 -0.094829254 0.082985364 -0.20619033
0.2479514 -0.079805754 -0.33037835 0.16990286 0.2865669 0.25489384 -0.474556 -0.15352714
-0.23414814 0.18696485 0.13037297 -0.19093962 0.21864833 0.008597412 0.19896545 -0.030605564
-0.05789257 0.03152968 -0.14414665 0.2739607 0.03146218 0.12352326 0.34609747 0.23369057
-0.14683293 -0.33199945 0.16893414 -0.043762255 0.090272605 -0.16579793 0.030330453 -0.11061872
-0.20274068 -0.081182815 0.14564948 0.3606481 0.30679312 0.03754002 -0.16972731 -0.04971262
0.2733394 -0.02968256 0.14737768 0.1884447 -0.12963632 0.22747228 -0.1746971 0.13481331
0.30473542 0.031474464 -0.23329413 0.24610782 0.26446798 0.059749514 0.19866954 -0.0069494243
-0.27732235 0.18733752 -0.15975715 0.009094962 0.07916748 -0.29070893 -0.013139703 0.032431517
0.07956114 -0.21049473 -0.080911085 -0.14295106 0.34565035 -0.022952758 0.036270596 0.25313747
0.30266523 0.35436484 0.20076808 0.057280812 -0.09458828 -0.077758625 -0.31173226 0.06742313
-0.037389554 -0.22711317 0.31004867 -0.12147431 -0.30487356 -0.049950697 0.046217065 -0.08564557
-0.25335485 0.060149647 -0.096181594 -0.032557864 0.0063042543 0.20563117 -0.054505993 -0.12586182
-0.13355905 0.22821145 0.094483554 -0.3943026 -0.14072788 -0.08320652 -0.061445575 -0.119192794
0.3482819 0.22297174 -0.17260502 0.20399153 -0.2910244 0.07004593 0.11783889 0.25836483
0.14430755 0.2872286 -0.13382527 0.015027206 -0.0537715 -0.5300553 -0.2024361 0.08414085
-0.032644965 0.18271658 0.069113806 0.27656814 0.01608733 0.16067247 0.23364417 0.41435713
0.091544576 -0.055945322 -0.088163026 0.043714233 0.08881031 0.14527878 -0.030125376 0.036514875
-0.045838974 0.09502465 0.007849666 -0.1390036 -0.28432885 -0.20278575 -0.351131 0.12951505
-0.22099747 0.19682609 -0.040693056 -0.34362826 -0.44032717 0.23711388 0.08473263 0.20550993
-0.19985637 -0.023518069 -0.07150331 -0.09787854 -0.038374845 0.025377141 -0.16531752 -0.20193161
-0.4025923 -0.07235365 0.17969401 -0.059148423 -0.18379234 -0.11930359 0.034484167 -0.12962735
0.25576147 0.13600855 0.054584626 -0.052704487 0.06825146 0.24827464 -0.114298955 -0.13306642
-0.053128626 0.032537445 -0.38163707 -0.06985719 -0.28545132 0.020802587 -0.106247246 -0.029509487
0.046866138 -0.06885015 -0.20316088 -0.38088748 -0.16869476 -0.110262305 -0.023579838 -0.25025684
-0.05202233 -0.16388512 -0.22222978 -0.119931735 0.11176739 0.29043287 -0.019708043 -0.19918367
-0.14210679 -0.04995638 -0.19716497 0.09273084 0.023955204 0.21478857 -0.17929554 0.23115703
-0.11441236 -0.1767044 -0.17116883 0.2562509 0.33483374 -0.072730355 0.114634335 -0.096892506
0.28027087 0.14549032 0.15045506 0.071296595 0.13399991 0.20272912 -0.15649231 -0.1547144
-0.18443678 -0.108634315 -0.22372298 -0.20776847 0.20330489 0.18697132 0.19226268 0.090096846
0.020674858 0.01482603 0.08354608 0.11553819 -0.23760435 0.13520484 0.22119646 -0.026562825
0.06101666 0.16774222 -0.13164282 -0.20932625 0.1145092 -0.026659166 -0.006331154 -0.26341864

fc3.bias f4 [128]
00000000: fd19 2e3d 9e44 81be 8ecb eb3d de4b 7f3e
00000010: 9825 19be a5da cc3e a78b fa3d 0768 87bd
00000020: ac8e 043e 4051 6ebe 9972 29bb 67b2 c13e
00000030: 62c0 a23e e8c5 a93e 9430 9b3e 31f6 e93d
00000040: dfd9 04be fc46 c03e 2c33 603e 3cb2 49be
00000050: 9e7f 17be 49e2 02be aa90 f6bd 9e91 893e
00000060: 2567 1c3e 42c5 a43d d28b a53e 4475 9e3e
00000070: 559c 263e 7c36 5d3e 9883 ca3e 926b 453e
00000080: 873d 6a3c 71ae 4a3e f5be 08be 41dd d73e
00000090: 6431 fbbd 3bf5 25bc 00fb aa3e 62f5 d03e
000000a0: 60da 953e aed7 b63e ec19 2c3e 6a59 a7bd
000000b0: ef42 383e eafa 333e a811 b03e 6593 c9bc
000000c0: c771 50bd b117 103e 1d24 ac3e 0b1e fdbd
000000d0: 31d0 a03e 1440 12be c399 dcbd eb68 163e
000000e0: 19c6 973e d58e ca3e 7896 a83e ae82 e6bd
000000f0: d231 19be 7102 da3e 4a84 cc3e f260 c93e
00000100: f959 4f3e 4114 bc3e fcd2 8c3e b9d3 693e
00000110: 70b5 96be 71df ccbd 6aa9 c63e d36e 513e
00000120: dfff a13e 9b62 f8bc 3a71 2c3e 94a1 1e3e
00000130: f9e4 bd3e d8c8 bb3e 64e9 b13e 518c 4f3e
00000140: 0923 903e 9367 903e 1293 ea3d 4960 10be
00000150: 4e40 4ebe 87f7 9b3e e655 cd3e 85b1 29be
00000160: 0566 633d 7dcd 86bc d730 803e 1547 ac3e
00000170: 628a d13e 3400 943e 49d5 71be a7e5 a63d
00000180: bd63 3bbe 22e6 b73e 59a7 15bc 9206 4b3e
00000190: b79b 27be d861 b43d a5e3 28be 03e3 413e
000001a0: 8753 29be e52f 4fbe 5341 53be fb52 86be
000001b0: d051 c03e 38a1 ac3d 2fc3 bd3e 7fbd 053e
000001c0: 6ad9 fabd b421 2d3e 3200 b33e 35d2 23be
000001d0: d522 153d bc39 c83e af2b 19be 7039 9d3e
000001e0: 133e be3e 5bb4 6a3d 7055 8c3e a15b 3e3e
000001f0: 3b46 9e3d 693f 333e 3df1 64be 1d1b 8dbd
0.042505253 -0.25247663 0.11513434 0.24931285 -0.14955747 0.40010563 0.12233668 -0.066116385
0.1294505 -0.23273182 -0.002585566 0.37831423 0.317874 0.33158803 0.303105 0.114239104
-0.12973736 0.37554157 0.2189452 -0.19696897 -0.14794776 -0.12781633 -0.12039311 0.2686891
0.15273722 0.080454364 0.32333237 0.30948842 0.16270573 0.21602815 0.39553523 0.19279316
0.014296896 0.19793107 -0.13354094 0.4216099 -0.1226528 -0.010129268 0.33394623 0.40812212
0.2926817 0.35711426 0.16806763 -0.08171351 0.17994283 0.17576185 0.3438847 -0.024606416
-0.050889757 0.14071538 0.33621302 -0.12359246 0.31408837 -0.14282256 -0.10771515 0.1468846
0.29643324 0.39562097 0.329273 -0.11255394 -0.14960411 0.42579988 0.3994468 0.39331776
0.20249166 0.36734203 0.27504718 0.22834672 -0.294353 -0.100035556 0.38801128 0.20452432
0.31640527 -0.030320456 0.16840068 0.15491325 0.37088755 0.3667667 0.34748375 0.2026837
0.2815173 0.2820402 0.11453833 -0.1409923 -0.20141718 0.30462286 0.40104598 -0.16571625
0.055517215 -0.016455406 0.25037262 0.3364798 0.4092589 0.28906405 -0.23616518 0.081492715
-0.18299766 0.35917765 -0.009134137 0.19826725 -0.16367994 0.08807725 -0.1649309 0.18934254
-0.1653577 -0.20233114 -0.20630388 -0.26235184 0.37562418 0.084291875 0.37062976 0.13060568
-0.122485 0.16907388 0.34961087 -0.15998156 0.03641017 0.39106548 -0.1495807 0.30707884
0.37156734 0.057300907 0.27408934 0.18589641 0.07728239 0.17504658 -0.2235765 -0.06889937

fc4.weight f4 [128, 128]
00000000: 62f2 5dbc 3bfb ffbc ac60 c83d b446 e43d
00000010: 8485 d53c 63b7 233e 36c4 5e3e 45bd 143d
00000020: 9c02 353d 72ed 03be e9b1 173e 024d 823e
00000030: 3203 1f3e ff6c 653d 59b2 2c3d a453 233e
00000040: ecd5 a9bd f0aa 4b3e d162 543e ac94 55bd
00000050: 57f3 80bd 439c 30be c437 02bd 2643 443e
00000060: be4d 4f3a fe0a e23c c328 4a3e 81ab 4a3e
00000070: 16aa aa3c cf97 233e ecbd 153e 9d37 d93d
00000080: 0ff8 3abd d5da 0a3e aa6a d3bd 067b 2f3e
00000090: a4e6 11be da23 bd3c cb57 e33d 1206 ed3d
000000a0: adb0 163e 2925 133e d8ed f13d 0d11 edbc
000000b0: 5bef 503c a5f2 9e3d 207a ca3d dd70 21bc
000000c0: de23 d5bd 5d84 863d fea3 293e 8891 883d
000000d0: 985b 4a3e 62a9 6ab9 92d6 c63b 364e 1d3e
000000e0: 981a 653d 7a4f 623d fd1d 5c3e 5bf0 30bc
000000f0: 80f2 853e 8e00 633e fb33 a43d e67a 403e
00000100: 5c46 063e a736 123e 2f72 ce3d e23d 1e3e
00000110: 6427 fcbd 7df6 b6bd 6e6e 6b3e 7f45 263e
00000120: c082 813d a1b1 98bd b72d 8dbc cd6a 273e
00000130: aec2 593d da38 7f3e 6c47 123e 9b44 c8ba
00000140: cd34 7c3c aff6 c03d 132e e7bc d696 13be
00000150: c770 5cbd 67c2 913d 7a2c 113e a175 eebc
00000160: 5fd9 9d3d 7c29 a53d 54ec 953d 5c0f c23d
00000170: aec0 383e 263a 7e3e b610 febd 8868 963d
00000180: 75ea dcbc 08c6 2a3e 4746 39bd ee4b 283e
00000190: 0073 43bc 6163 a13d 4190 a1bd fc2d 533e
000001a0: dcfe 093e 2107 653d 6522 063e ab28 1c3c
000001b0: 0200 153e 6ba5 613d 115a 9a3d 4a5c fa3d
000001c0: a40c c53d ad7d 963e d772 4d3e 3a50 39bd
000001d0: 65dc 443c 9a73 013d befe 39be c074 233e
000001e0: 1526 b73d 5f0c e33d e9ef 1a3d 5248 d93d
000001f0: 9d36 633d 42df 303e 3700 b1bd dae0 a4bd
00000200: 31f7 443d 7692 e1bd 3413 0d3e 9781 853d
00000210: 845b ec3c 3371 0f3e 9ae7 633e 5789 3a3e
00000220: 3cf3 e33d 2133 3fbe 7ac4 a83d b195 6a3e
00000230: 1912 b63c c577 6a3d f5fa 1c3e 25c1 4e3d
00000240: e692 343d d2a2 003e 7547 9f3e 1b2e bb3d
00000250: 337d bdbd 9002 d5bd 06ac 6f3d 5837 5e3e
00000260: 34e3 c43c 4950 19bc 8e90 8b3e 6218 d13d
00000270: 19ec d43d 54ce ae3d 5f82 643d 9e29 623d
00000280: fbbc 86bd b30b 213e 4ec4 fdbd 7a66 d93d
00000290: 5fc2 acbd 42c6 9b3d e932 ec3c f51d eb3d
000002a0: 52a1 043e 4aa0 233e 2402 053e 6ac1 25be
000002b0: 2a1d b23d b55e 193e 29ae b83d 1b57 89bd
000002c0: b10a a7bd b3a0 173c 4ddf 8c3e 89ae 163e
000002d0: 2f93 623e c83a 68bc 7900 063e 6121 343e
000002e0: 05fe 383e 6b9a 313e 1277 4b3e 3924 e13d
000002f0: f97a f43d 41c0 c33d d9f2 753e 5517 343e
00000300: c6f2 093e d2dc 693e f21f 1c3e 769c be3d
00000310: 0283 7dbe 18dc 8cbd a890 563e 77bf 9b3d
00000320: 5269 4d3c a515 b83c 3f8f 083e 75f0 d23d
00000330: 6327 153e 36c2 113e 2aef 653e a230 263c
00000340: 3cee 043e 7270 833d b12b 053e 761e 25bd
00000350: d001 47be d0c4 8b3d e209 8a3e ac49 fdbd
00000360: 5f12 d63d e7f1 6e3d a75f 453d 6ccd 5d3e
00000370: 6272 413e 2a42 9b3e 341b 11be ca76 093e
00000380: 1977 e7bd 8756 203e c038 e5bd 18b2 ea3d
00000390: 504a e1bd fcaf ac3d 038b cd3c 3acc 183e
000003a0: cf9f 123e 0d12 84bd d143 4d3d afab f33d
000003b0: bb5a 483d 15a0 113e c79c 773d 00ee 7f3e
000003c0: 5c42 7f3d e178 653e a4fa 103e 0e42 5d3d
000003d0: 16c4 363d 9ead fe3d c80a 07be e330 1e3e
000003e0: 0514 293e 1b1d b03d 1118 f33c d59c 783d
000003f0: 0375 fe3d 86b5 383d 95b9 66bd 271c 8ebc
-0.013546558 -0.031247726 0.09784064 0.11146298 0.026064642 0.15987925 0.21754536 0.036313314
0.04419194 -0.12883547 0.14813961 0.25449377 0.15528563 0.05601215 0.042162273 0.15949875
-0.082927555 0.19889426 0.2074082 -0.052143738 -0.062964134 -0.17247109 -0.031791463 0.1916624
0.0007908008 0.027593132 0.19742112 0.19791986 0.020833056 0.15975879 0.1462323 0.106063105
-0.045646723 0.1356004 -0.10323079 0.17136773 -0.14248139 0.023088384 0.111007296 0.115734234
0.14715834 0.14369644 0.11812943 -0.028938795 0.012752379 0.077611245 0.09886575 -0.009853569
-0.10407232 0.06568215 0.16566464 0.06668383 0.19761503 -0.00022379079 0.0060680592 0.15361866
0.055933565 0.055251576 0.21495815 -0.010799493 0.26161575 0.2216818 0.08017727 0.18796882
0.13112777 0.1427866 0.100803725 0.15453294 -0.12312201 -0.08933733 0.22991344 0.16237448
0.06323767 -0.07455755 -0.017233713 0.16349335 0.053164177 0.24924031 0.14285058 -0.0015279235
0.015393448 0.09422051 -0.028220212 -0.14413008 -0.05381849 0.071171574 0.14177123 -0.029108824
0.07707476 0.08064553 0.07320467 0.09475586 0.18042251 0.2482687 -0.12405531 0.073441565
-0.026967267 0.16677105 -0.045233037 0.16435215 -0.011929274 0.07880283 -0.078888424 0.2062301
0.13476127 0.055915 0.13099058 0.00953118 0.14550784 0.055089395 0.0753671 0.12224634
0.09621552 0.29392758 0.20063339 -0.045242526 0.012015437 0.031604387 -0.18163583 0.15962505
0.089428104 0.11086344 0.037826452 0.10609497 0.055472005 0.17272666 -0.08642619 -0.080506995
0.048087303 -0.11014263 0.13776857 0.06518858 0.028852232 0.14008026 0.22256318 0.18216453
0.11130378 -0.18671848 0.082406 0.22908665 0.022225427 0.057243127 0.15330108 0.050477166
0.044085406 0.12562111 0.31109205 0.09139653 -0.092523955 -0.104008794 0.058513664 0.217008
0.02403412 -0.00935752 0.27258724 0.10209729 0.103965946 0.08535448 0.055788394 0.05521547
-0.06579014 0.15727119 -0.12390958 0.10615249 -0.08435511 0.07606174 0.02883287 0.11480323
0.12952164 0.15979114 0.12989098 -0.16187063 0.08696969 0.14977534 0.090175934 -0.06706067
-0.08156336 0.009254622 0.27514115 0.14715017 0.22126459 -0.014174171 0.13086118 0.17590858
0.18065651 0.17344062 0.1986964 0.10993237 0.11937518 0.09558154 0.2401842 0.17587025
0.13471517 0.22838143 0.15246561 0.09307186 -0.24757007 -0.06877917 0.2095362 0.076048784
0.012537317 0.022471258 0.13335894 0.1029977 0.14565806 0.14234242 0.22454515 0.010143431
0.12981504 0.064179316 0.13004948 -0.040312253 -0.19434285 0.068246484 0.26960665 -0.123675674
0.10452723 0.058336165 0.048186924 0.21660393 0.1889129 0.30323917 -0.14170533 0.1342422
-0.11302013 0.15658008 -0.11192465 0.1145975 -0.11000502 0.08432004 0.0250907 0.14921656
0.14318775 -0.064487554 0.050113503 0.118979804 0.048914652 0.14221223 0.06045225 0.24993134
0.062319145 0.22409393 0.14158112 0.054018073 0.044620596 0.124354586 -0.13187706 0.15448336
0.16511543 0.085993014 0.029674562 0.06069644 0.12424662 0.04509499 -0.05632933 -0.017347408

fc4.bias f4 [128]
00000000: 87e3 463e 4c86 f63d 2f81 843d 5e9e 313e
00000010: e5cb e13d 0192 b0bd f56f 17bd 5bae b8bc
00000020: 2c32 07bd d084 fb3d bc2c d3bd 81bc 6cbd
00000030: 3343 853d 9dd9 e53d 6086 05bd e7f2 053e
00000040: 69d4 df3d 1385 85bd c2b6 873e c624 543d
00000050: 4a50 92bd 7d9d b6bd cfce 143e 8e2d 053d
00000060: f289 45bd aded 87bd 30cf c23c 522d 073e
00000070: 06d7 483e 92d3 6f3e bbeb aabd 1610 013e
00000080: 4eb1 4ebd fadc 74bd a599 423e 073d 553e
00000090: d404 f7bd ad76 88bd 9598 ab3c a37b 2d3e
000000a0: a14f 8c3d 9757 5a3d bb3b 2e3d 5fb3 573e
000000b0: c95d 6f3e e1a7 383c e079 373e 474a e53d
000000c0: 10df 18bc 3ff5 a1bd f271 483e 4998 443e
000000d0: e46f 253e a633 733e 3ad4 043e 86dc 293e
000000e0: 801c 063d 0a3f 6d3e ee55 893e 6ac9 633e
000000f0: 3013 9b3d 1dc2 853e ad06 cd3d a6a4 533d
00000100: 7759 aabd 8c04 2d3e 4842 333e 568b a23c
00000110: b529 153e ba45 92bd 0089 4b3e 4f0f 81bd
00000120: fefc 573e 21f7 f33d b704 44bd b396 9c3d
00000130: 8d09 dc3c 8ca1 183e 1c6a 083e ae60 0a3e
00000140: c80b 2f3e 6e5e 813e 1dfb 01bc 9998 973d
00000150: 9846 bbbd 6553 483e 39e9 1fbc bfeb 96bd
00000160: dfb9 87bb 7c91 12bc 63a0 8fbd f9de 243e
00000170: 9fb6 5b3e 3e5b 4d3d 5efd a53c ecf5 6bbd
00000180: abf0 e63d fb3a a23d c27d 5c3e cf60 d93c
00000190: 0f93 4d3e 4cae ee3d 56f7 953d 268d 0e3e
000001a0: cef4 643b 6a08 033e 636b 06bc 7629 993d
000001b0: 7552 533e bd75 033e 35cf 103e e79e ea3d
000001c0: b4a9 8b3c 7ca4 773e caa2 f1bd f92c 23bd
000001d0: 912a 883e 4820 243e 4129 8ebb 7297 e33d
000001e0: 8210 6f3e adf5 b73d 8ed4 4c3e 1ecd e23d
000001f0: 56f4 56bb 2972 843d cf28 38bd c5b7 013e
0.19422732 0.12037334 0.06469952 0.17345569 0.11025218 -0.08621598 -0.036972005 -0.022544077
-0.033006832 0.12281191 -0.10311267 -0.05779696 0.06506958 0.11223147 -0.032598853 0.13080941
0.10929186 -0.065195225 0.2650662 0.051792882 -0.0714422 -0.08916757 0.14532016 0.032514147
-0.048227258 -0.0663713 0.023780435 0.13200882 0.19613275 0.23420551 -0.08345743 0.12603793
-0.05046206 -0.059781052 0.19003923 0.20824061 -0.12061468 -0.066632606 0.02094678 0.16941695
0.068511255 0.05330619 0.042537432 0.21064518 0.2337562 0.011270494 0.17917585 0.11195808
-0.009330526 -0.07908105 0.19574717 0.19198717 0.16155964 0.23750171 0.12971583 0.1658803
0.032742023 0.23168579 0.26823372 0.22244802 0.07572019 0.2612466 0.10011039 0.051670693
-0.08317845 0.16896266 0.17505753 0.019841831 0.14566691 -0.071422055 0.1987648 -0.06301748
0.21092603 0.119123705 -0.04785606 0.07645931 0.026860023 0.14905375 0.13321728 0.13513443
0.17094338 0.25267357 -0.007933405 0.074021526 -0.09144324 0.19563062 -0.009760194 -0.07369184
-0.0041420306 -0.008945819 -0.07013013 0.16100682 0.21456383 0.050135843 0.020262416 -0.057607576
0.112763725 0.07921406 0.21532348 0.02653542 0.2007563 0.11654338 0.07322566 0.13921031
0.0034935954 0.12796178 -0.008204314 0.07478611 0.20636924 0.12837882 0.14141543 0.114560895
0.017048694 0.2418384 -0.11798628 -0.03983781 0.26594976 0.1602794 -0.004338414 0.1111287
0.23346141 0.08982406 0.20002958 0.11074279 -0.0032799444 0.06467087 -0.044960793 0.12667759

q2.weight f4 [1, 128]
00000000: 1d25 453e f724 433e bdf7 6d3e 2ed9 743e
00000010: 4147 503e 2d25 0cbf 6774 b6be 8a39 09bf
00000020: d23e a1be a96b 873e 2b21 e2be 9540 dbbe
00000030: 1646 33bf 1e12 633e e4a6 cebe e0db 793e
00000040: 2b24 4d3e 0d25 f7be e256 313e 7eb4 19bf
00000050: 8e6d dcbe 00e7 afbe 3547 8c3e 8eaf 81be
00000060: a321 eebe fc8d 0abf 9de1 733e ebd5 7d3e
00000070: 7f75 5d3e 673c 903e 1b34 fdbe 9819 263e
00000080: 2f5a 49bf cff8 f3be 6699 493e 8ff4 5a3e
00000090: f928 d03e 1f4e d1be 2899 3dbf d0cb 7a3e
000000a0: 9a2a 4f3e 792a fabe 5fb1 f6be 3019 503e
000000b0: cf2d ae3e fe56 1cbf 9bc1 553e 90b6 633e
000000c0: f156 20bf 5840 993d e350 883e f834 803e
000000d0: d317 2e3e 8676 4c3e a8ca a83e 5882 493e
000000e0: 3000 21bf e934 593e 2efc 523e cc32 5c3e
000000f0: 70d9 1fbf 9fc5 323e 7e5f 4dbf ba84 b1be
00000100: e04c 5abe 3925 483e 0a68 513e ae57 40bf
00000110: fb5f 973e a2d6 0abf b254 643e 7b6d 0ebf
00000120: 0214 733e 5e96 243e 01e0 25bf 7314 363e
00000130: 0995 0fbf 47c6 3e3e 448b 743e 1629 6f3e
00000140: 5485 663e ad8a 4f3e 88cd 1fbf 3e3f 01bf
00000150: aea2 20bf d792 693e 1748 32bf 8f0c 2cbf
00000160: 1672 4dbf 131f f5be 649b e7be e880 783e
00000170: 66e9 6e3e 709b 40bf 7bc6 19bf 61c6 eabe
00000180: 57ab 873e a59b 343e 6d8f 633e 0de7 0ebf
00000190: b757 5b3e 046b 6e3e e091 503e c0cb 7c3e
000001a0: b321 3fbf 8122 4e3e da30 d4be acb1 1abf
000001b0: e56c 663e 4c0f 723e 00cc 983e 0b20 4f3e
000001c0: a62b f8be f55b 7b3e 041a 12bf 402f 0bbf
000001d0: 4ece 2f3e e99f 593e d923 e7be fbf3 7e3e
000001e0: 93b1 3e3e 4af4 683e a684 513e fe7c 803e
000001f0: 8f40 07bf 4dcb efbc a9c8 ffbe ce88 793e
0.19252439 0.1905707 0.23239036 0.23910972 0.20339681 -0.54744226 -0.35635683 -0.5360342
-0.3149324 0.26449326 -0.4416593 -0.4282271 -0.7002882 0.2217488 -0.40361702 0.24400282
0.20033328 -0.48270455 0.173183 -0.60041034 -0.43052334 -0.34355927 0.27398077 -0.2532925
-0.46510038 -0.541229 0.23816533 0.24788634 0.21626852 0.28171083 -0.49453816 0.162207
-0.78653234 -0.47650763 0.19687423 0.21382354 0.4065626 -0.40879914 -0.7406182 0.24491811
0.20231095 -0.4886053 -0.48182198 0.20322108 0.34019324 -0.6107024 0.20874636 0.22237611
-0.6263266 0.07482976 0.26624212 0.25040412 0.17001276 0.19967088 0.32967114 0.19678628
-0.6289091 0.2121159 0.20604011 0.21503752 -0.6244116 0.17458199 -0.80223835 -0.34671575
-0.21318388 0.1954545 0.20449844 -0.7513379 0.29565415 -0.54233754 0.22297934 -0.55635804
0.23738101 0.16072986 -0.6479493 0.17781238 -0.56086785 0.18630324 0.2388125 0.23355517
0.22511798 0.20267744 -0.6242299 -0.50487125 -0.6274823 0.22809921 -0.6964125 -0.6720666
-0.80252206 -0.4787527 -0.4523574 0.24267924 0.23331222 -0.7523718 -0.6006848 -0.45854476
0.2649791 0.17637499 0.22222681 -0.55821306 0.2142018 0.2328301 0.20368147 0.246871
-0.74660796 0.2013035 -0.4144352 -0.60427356 0.22502477 0.23638648 0.2984314 0.20227067
-0.484708 0.24546798 -0.57070947 -0.5436897 0.17168543 0.21252407 -0.45144537 0.24897759
0.18622427 0.22749439 0.20460758 0.2509536 -0.52832884 -0.029271746 -0.4995778 0.24368593
