resource/models/sac_actor_30000.pth (torch, 80607 bytes, 8 tensors)

fc1.weight f4 [128, 12]
0	0xbe09c0ef	-0.13452505
1	0x3db8a09b	0.09015008
2	0xbe8ed403	-0.27896127
3	0xbee797ca	-0.45232993
4	0xbeb78353	-0.3584238
5	0x3ea029cc	0.31281888
6	0x3e623fe4	0.22094685
7	0xbec0b35c	-0.3763684
8	0xbe14ca9f	-0.14530419
9	0x3e5a6c83	0.21330456
10	0xbe171b79	-0.14756574
11	0x3dde8bca	0.108665064
12	0xbe07606b	-0.13220374
13	0xbdfafaae	-0.122548446
14	0x3e06b268	0.13153994
15	0xbec69040	-0.3878193
16	0xbd55351b	-0.0520526
17	0x3e58d2db	0.21174185
18	0x3dee01d5	0.11621443
19	0xbead1aab	-0.3380941
20	0xbe439f86	-0.19103822
21	0xbdedc347	-0.11609512
22	0xbd75829a	-0.059939004
23	0x3e029dbe	0.12755486
24	0xbe09245f	-0.1339278
25	0x3d71a120	0.05899155
26	0x3d5c2e61	0.053755168
27	0xbcdcc5ae	-0.02694973
28	0x3e434b37	0.19071661
29	0xbec574d7	-0.38565704
30	0x3d87e127	0.06634741
31	0x3e12ac0c	0.14323443
32	0xbee7cbe3	-0.4527274
33	0x3cd2f412	0.025751147
34	0x3ec729d5	0.38899103
35	0xbdcfe1e2	-0.101505056
36	0xbe045b8e	-0.1292555
37	0xbcb483bf	-0.022035478
38	0xbd876054	-0.0661017
39	0x3e89e871	0.2693515
40	0x3d704ce3	0.058667075
41	0xbd199fe4	-0.037506
42	0xbeb96ab3	-0.36214218
43	0xbe5bbad7	-0.21457992
44	0x3e60cb69	0.21952595
45	0x3ed0d869	0.40790108
46	0x3d86a88a	0.06575115
47	0x3eab4967	0.3345444
48	0xbce392d9	-0.027779983
49	0x3e283e96	0.16430125
50	0xbd308de5	-0.04310407
51	0xbdb83127	-0.0899375
52	0x3e0f8bda	0.14018193
53	0xbedd2028	-0.43188596
54	0xbecf931a	-0.40541917
55	0x3dca1d1b	0.09868833
56	0x3ded5405	0.11588291
57	0x3ced2a7e	0.028950926
58	0x3e08032e	0.13282463
59	0xbe967cb9	-0.2939203
60	0x3e14acf3	0.145191
61	0x3d80fdef	0.06298434
62	0xbe913b9f	-0.283658
63	0x3dde82bd	0.1086478
64	0xbd8e15ba	-0.06937738
65	0xbec12bf0	-0.37728834
66	0x3e283f74	0.16430455
67	0x3dc03ce2	0.093866125
68	0x3dd77cf5	0.105218805
69	0xbde66716	-0.11250131
70	0x3e3f00d6	0.18652663
71	0x3d885053	0.06655946
72	0xbd78b16f	-0.06071609
73	0x3e92fa3e	0.28706545
74	0x3e03b391	0.12861468
75	0xbdda8b28	-0.10671073
76	0x3e53d4e2	0.20686677
77	0x3e105aa5	0.14097078
78	0x3dfdedf9	0.12398905
79	0xbed128e0	-0.40851498
80	0xbe8eb852	-0.27875
81	0xbdf6fbde	-0.120597586
82	0x3f120382	0.570366
83	0xbcecb609	-0.028895395
84	0x3e2dc0a2	0.16968015
85	0x3d5cb821	0.053886537
86	0xbe6b740e	-0.2299349
87	0x3d98de33	0.07464256
88	0xbecefdf2	-0.4042812
89	0xbeafec24	-0.34359848
90	0xbeb0c596	-0.34525746
91	0xbe3f8f36	-0.18706974
92	0xbe2a400e	-0.16625997
93	0x3d61ecb0	0.055157363
94	0x3c8f6dc6	0.017508399
95	0x3e55dec2	0.20885757
96	0x3e287b1c	0.16453212
97	0xbe089cbf	-0.13341044
98	0x3efb83ba	0.49123937
99	0xbeb5f999	-0.3554199
100	0x3dc25e1b	0.094906054
101	0xbe5c4a0c	-0.21512622
102	0x3e65aa7d	0.22428317
103	0x3e844cd7	0.25839874
104	0xbb851711	-0.0040615876
105	0x3ea00b1d	0.3125848
106	0x3b932827	0.0044908705
107	0xbedac690	-0.42729616
108	0x3df58928	0.11989051
109	0xbe95795f	-0.2919416
110	0x3e75d172	0.24005678
111	0xbe33844d	-0.17530937
112	0xbe15e356	-0.14637503
113	0xbc11caf4	-0.008898485
114	0x3efbeb1f	0.4920282
115	0x3e6f4909	0.23367704
116	0xbecc64c4	-0.39920628
117	0x3e19d3d8	0.15022218
118	0xbc180583	-0.009278658
119	0x3e1e3f14	0.1545375
120	0x3e1e1609	0.15438093
121	0xbe6790f4	-0.22613889
122	0xbca7e5be	-0.020495292
123	0x3d0659dd	0.032800544
124	0xbdf405cb	-0.119151674
125	0x3dac907a	0.08425994
126	0xbea89a75	-0.3293034
127	0xbe601f09	-0.21886839
128	0x3e806ae1	0.25081542
129	0x3e504e09	0.20342268
130	0xbce5752a	-0.02800997
131	0xbec250c5	-0.37952247
132	0xbdc2fc2b	-0.095207535
133	0xbeaf98e8	-0.34296346
134	0x3d894dbf	0.06704282
135	0x3d2e8ac7	0.042612817
136	0xbe338515	-0.17531236
137	0xbe8de13c	-0.27710903
138	0x3e8b8a48	0.27253938
139	0xbe00b9d7	-0.12570892
140	0x3d12f2d1	0.0358761
141	0x3c138735	0.009004404
142	0x3e870533	0.26371154
143	0xbe3581df	-0.17725323
144	0xbd5ff072	-0.054672666
145	0xbeb08b62	-0.3448134
146	0xbe845e7f	-0.25853345
147	0xbe53e555	-0.20692952
148	0xbefb9f5b	-0.49145016
149	0xbec24437	-0.3794267
150	0x3e0be80d	0.13662739
151	0x3e85e441	0.26150706
152	0x3e05b2c9	0.13056482
153	0x3e6b531e	0.22980925
154	0x3d564aeb	0.05231754
155	0x3e55dd42	0.20885184
156	0x3d87c317	0.06629007
157	0x3e54d170	0.20783019
158	0xbdcd4ff5	-0.10025016
159	0x3e1e8e5e	0.15483996
160	0xbe30434b	-0.1721317
161	0xbde35e48	-0.11101967
162	0x3e43d84e	0.19125482
163	0xbe0dfa45	-0.13865001
164	0xbd95c32b	-0.07312616
165	0xbe851c51	-0.25998166
166	0x3e033a5d	0.12815233
167	0xbdc166b8	-0.0944342
168	0xbe5ee23b	-0.21765988
169	0xbe892dd9	-0.2679279
170	0xbe82984a	-0.25506812
171	0xbd3376f6	-0.043814622
172	0x3d8d068d	0.06886015
173	0xbe992ea7	-0.29918405
174	0x3e55c3d6	0.20875487
175	0x3b249876	0.0025115288
176	0x3e5cbfe3	0.21557574
177	0x3ebd218c	0.36939657
178	0xbe987db9	-0.2978342
179	0x3e0b6e0d	0.136162
180	0xbdf268bf	-0.11836385
181	0xbe67242a	-0.22572389
182	0xbd87ab9e	-0.0662453
183	0x3e0cee3a	0.13762751
184	0xbeae0369	-0.33986977
185	0x3e5085d8	0.20363557
186	0x3e604274	0.2190035
187	0x3e6f6324	0.23377663
188	0x3c3a88a6	0.011385119
189	0xbedc2811	-0.42999318
190	0x3cbf13d2	0.02332488
191	0x3e285ce7	0.1644169
192	0xbe8e940c	-0.27847326
193	0xbe937d07	-0.28806326
194	0xba95d7bc	-0.0011432092
195	0x3cfe26fd	0.03102445
196	0x3e55fb5d	0.20896669
197	0xbda277e8	-0.079330266
198	0xbd178345	-0.036990423
199	0x3e884f6e	0.266231
200	0xbeea5c4a	-0.45773536
201	0xbe7a7f55	-0.24462636
202	0x3eecfc69	0.46286324
203	0xbb3e9eec	-0.0029086424
204	0x3d839093	0.0642406
205	0x3dd1de62	0.10247494
206	0xbe71b092	-0.23602512
207	0xbe61e468	-0.22059786
208	0x3d9ea963	0.07747152
209	0xbf1daa61	-0.615881
210	0x3ec536e1	0.38518432
211	0xbe52f1cc	-0.2060005
212	0xbe076d53	-0.13225298
213	0x3e36012c	0.17773885
214	0xbeb87fad	-0.3603491
215	0x3e6e7610	0.23287225
216	0xbc7c05bf	-0.015382229
217	0x3e1b5606	0.15169534
218	0x3e6d3551	0.2316487
219	0xbe20ebe7	-0.1571499
220	0x3e080cdd	0.13286157
221	0x3e29bbc5	0.16575535
222	0x3cedef2c	0.02904471
223	0x3e420bd3	0.18949823
224	0x3e7dde13	0.24791746
225	0xbe791538	-0.243245
226	0xbe6b1ec0	-0.22960949
227	0xbda2d144	-0.079500705
228	0x3cc9f6f1	0.024653884
229	0xbe927d84	-0.28611386
230	0xbe1cd3b0	-0.15315127
231	0xbe3e3bb3	-0.18577461
232	0x3e0ce984	0.13760954
233	0xbd48e041	-0.04904199
234	0x3e8e89c0	0.2783947
235	0xbe98dc76	-0.29855698
236	0xbd324a48	-0.04352787
237	0x3e08ce6d	0.13359995
238	0xbeaa4026	-0.33252066
239	0x3d754000	0.05987549
240	0x3db630df	0.0889604
241	0xbf300a69	-0.68765885
242	0x3d9241b7	0.0714144
243	0x3e8f0c21	0.2793894
244	0xbe86bb91	-0.26314977
245	0x3e8f8b09	0.28035763
246	0xbe91f89a	-0.2850998
247	0xbe6adcdc	-0.22935814
248	0x3d0eea6c	0.03489153
249	0xbe62e88c	-0.22159022
250	0x3e85f9ec	0.26167238
251	0x3e9516e7	0.29119036
252	0xbd868f62	-0.06570317
253	0xbe8850f3	-0.2662426
254	0xbe6bc538	-0.23024452
255	0x3ef0e6d3	0.47051105

fc1.bias f4 [128]
0	0xbe13c610	-0.14431024
1	0x3e45a82b	0.19302432
2	0x3eae113d	0.33997527
3	0xbe08e4b2	-0.1336849
4	0xbd3ea6c0	-0.046545744
5	0xbc1a3c9d	-0.009413865
6	0x3e2a9772	0.16659334
7	0x3e4eadb6	0.20183453
8	0x3d2a7eaf	0.04162472
9	0xbe288dac	-0.16460294
10	0xbe851804	-0.25994885
11	0x3e6b3862	0.22970727
12	0x3e2b13a2	0.16706708
13	0x3e8452d1	0.25844434
14	0x3c375de2	0.011191817
15	0xbdb97c00	-0.09056854
16	0x3c85c19f	0.016327677
17	0x3dc542fa	0.096319154
18	0xbe4adad4	-0.19810039
19	0xbe5218a2	-0.20517209
20	0xbd91c351	-0.07117332
21	0xbda022a7	-0.078191094
22	0x3e2e496f	0.170202
23	0xbe4837c5	-0.19552524
24	0xbcb9874a	-0.022647519
25	0x3e2bd255	0.16779454
26	0xbe0255bc	-0.12728018
27	0x3de1ecc4	0.110314876
28	0xbe2a9337	-0.1665772
29	0x3e4a6d12	0.1976817
30	0x3d81695c	0.06318924
31	0x3db39bda	0.08769961
32	0xbd93f2d4	-0.0722405
33	0xbd230fc1	-0.039809946
34	0x3d77bdba	0.06048367
35	0x3e803964	0.25043786
36	0x3e7d8408	0.24757397
37	0xbde0e199	-0.10980529
38	0x3e821ecf	0.2541413
39	0x3e0ecacb	0.13944547
40	0xbca13fce	-0.019683745
41	0xbe52cc22	-0.20585683
42	0x3e007a14	0.12546569
43	0xbc8a16cf	-0.01685658
44	0x3ce94c0c	0.028478645
45	0xbe61f0da	-0.22064534
46	0xbe8827fd	-0.2659301
47	0x3dd13ab2	0.10216273
48	0xbea99ad8	-0.3312595
49	0x3e9015ef	0.28141734
50	0x3e289012	0.16461208
51	0x3d657af6	0.056025468
52	0x3e848497	0.25882408
53	0x3daa99ad	0.083300926
54	0x3cfaf4b5	0.030634264
55	0x3e864a3a	0.26228505
56	0xbdb64810	-0.089004636
57	0xbe319e60	-0.17345572
58	0x3df4c7d5	0.119521774
59	0x3bfed03e	0.0077762892
60	0x3deaccb7	0.114648275
61	0xbdc76e35	-0.09737817
62	0x3d0b6160	0.03402841
63	0x3defe828	0.11714202
64	0xbe83ee81	-0.25767902
65	0xbe6ec122	-0.23315862
66	0x3e12348f	0.14277862
67	0x3e5b480d	0.21414204
68	0x3e35297d	0.17691608
69	0x3dd93509	0.10605819
70	0x3e19e462	0.15028527
71	0x3d0cd1dc	0.034379825
72	0x3d8ef9f5	0.06981269
73	0xbe2e46a4	-0.17019135
74	0x3d904d1b	0.07045957
75	0x3e20ba26	0.1569601
76	0x3d5deffc	0.054183945
77	0x3d259929	0.040429268
78	0x3e80e011	0.2517095
79	0xbca42086	-0.02003504
80	0xbea31866	-0.31854552
81	0x3dcb6c9f	0.09932827
82	0x3c96211f	0.01832634
83	0xbcdd5c4b	-0.027021548
84	0x3e2c54a4	0.16829163
85	0xbe6e21e0	-0.2325511
86	0xbcb2b564	-0.02181501
87	0x3e3a4617	0.181908
88	0xbdb58fe1	-0.08865333
89	0xbe02fddf	-0.12792157
90	0x3d495d98	0.049161524
91	0xbe44e920	-0.19229555
92	0xbceaeaa8	-0.028676346
93	0x3e8e0512	0.27738243
94	0xbd103457	-0.035206165
95	0xbe8be96b	-0.2732652
96	0x3d123190	0.035691798
97	0xbe248248	-0.16065323
98	0x3d184050	0.03717071
99	0xbdbb6c40	-0.091515064
100	0xbdb5efec	-0.08883652
101	0xbd215fed	-0.039398123
102	0xbe446822	-0.19180349
103	0xbbce63a5	-0.0062984996
104	0xbd36d431	-0.044635955
105	0x3d3535b2	0.04424066
106	0xbe3e1d54	-0.18565875
107	0xbe13724d	-0.14399071
108	0x3e136616	0.14394411
109	0xbc5bf17b	-0.013424273
110	0xbe3666f4	-0.17812711
111	0xbc3e11f2	-0.011600958
112	0xbbb64ebf	-0.0055635865
113	0xbd0d7d8d	-0.034543563
114	0xbca3e76a	-0.020007808
115	0x3cc29404	0.02375222
116	0xbcc0cc75	-0.023534993
117	0x3db890e8	0.09012014
118	0xbb148042	-0.0022659455
119	0xbd469d75	-0.048490006
120	0x3d759c48	0.059963495
121	0x3d47ae30	0.048750103
122	0x3dd9f777	0.10642903
123	0x3e4437e8	0.19161952
124	0x3dec0f46	0.11526351
125	0x3bc4e42b	0.006008645
126	0x3d81c3b4	0.063361555
127	0x3d91bf72	0.071165934

fc2.weight f4 [128, 128]
0	0xbe0c4055	-0.13696416
1	0x3cccb0ba	0.024986614
2	0x3d5ed4ac	0.05440204
3	0x3bbe543e	0.0058083823
4	0xbd007e8f	-0.031370696
5	0xbe02832f	-0.12745355
6	0xbe2333a6	-0.15937671
7	0x3d027366	0.031848334
8	0xbc379c03	-0.01120663
9	0xbdc482fd	-0.095952965
10	0xbe103d37	-0.14085852
11	0x3cce937c	0.02521681
12	0xbc9dba17	-0.019253774
13	0xbc20bc1b	-0.009810473
14	0xbc905620	-0.017619193
15	0xbe6bfdc9	-0.2304603
16	0xbe2b4a3c	-0.16727537
17	0xbdbc6bf5	-0.09200279
18	0xbe0fb335	-0.14033206
19	0xbe674956	-0.22586569
20	0xbd84f9c5	-0.06492952
21	0x3e168e57	0.14702736
22	0xbd57b6e4	-0.052664652
23	0xbe009de3	-0.12560229
24	0xbc1959ed	-0.009359819
25	0x3e197331	0.14985348
26	0xbc62845d	-0.013825503
27	0xbdfe4524	-0.12415531
28	0xbd673f05	-0.056456584
29	0x3ca3cb1e	0.019994315
30	0xbd7378c8	-0.059441358
31	0xbdbe433e	-0.09290169
32	0xbdaa9a76	-0.08330242
33	0xbdc5e5af	-0.09662949
34	0xbdb3442a	-0.08753236
35	0xbc9c406a	-0.019073684
36	0x3d5192c6	0.051165365
37	0x3b190285	0.002334745
38	0xbd4fa2a3	-0.05069221
39	0xbddf5fa4	-0.10906914
40	0xbe1e14a4	-0.15437561
41	0xbd7f3f05	-0.06231596
42	0xbd5cadeb	-0.0538768
43	0xbd53b5ab	-0.051686924
44	0xbd977f33	-0.07397308
45	0xbdb6564c	-0.089031786
46	0xbd804ea1	-0.06264997
47	0xbe30907b	-0.17242615
48	0xbac6df18	-0.0015172688
49	0x3c98b8fe	0.018642899
50	0xbb8c646a	-0.004284431
51	0xbe15ba28	-0.14621794
52	0x3e0a26be	0.13491341
53	0xbdb87413	-0.090065144
54	0xbb936d29	-0.004499097
55	0x3c022384	0.007943038
56	0xbd4a3988	-0.049371272
57	0xbdc2dd97	-0.09514921
58	0xbbc287bd	-0.0059365914
59	0xbdd7e5ad	-0.10541854
60	0x3b5487d6	0.0032429597
61	0xbcae6ac3	-0.021291142
62	0x3dbdfe11	0.09276975
63	0xbcf6f3c5	-0.030145535
64	0x3d5a0290	0.0532251
65	0x3b17c435	0.002315772
66	0xbd7a72eb	-0.06114475
67	0x3da819e0	0.0820806
68	0x3d18cf96	0.037307344
69	0xbcc4d3c9	-0.024026768
70	0x3ccd1b51	0.02503744
71	0xbe3aeddd	-0.182548
72	0xbd747cb8	-0.059689254
73	0x3d542012	0.051788397
74	0xbe2075e5	-0.15669973
75	0xbce08e1e	-0.027411517
76	0xbdf1f95c	-0.1181514
77	0xbe266fa9	-0.16253532
78	0x3d4e047f	0.050297257
79	0xbc5938ac	-0.0132581405
80	0xbdcfa33f	-0.101385586
81	0x3c68780e	0.0141887795
82	0x3ce174a0	0.027521431
83	0xbd090c35	-0.033458907
84	0x3bce148d	0.006289071
85	0x3d63671a	0.055518247
86	0xbcfa6ef1	-0.03057048
87	0xbd9c3b41	-0.07628489
88	0xbca2fa39	-0.019894706
89	0x3cd3e97b	0.025868168
90	0x3dbf3a35	0.09337274
91	0x3d5be8ce	0.053688817
92	0xbe11b1e8	-0.14228022
93	0xbd6a6316	-0.057223402
94	0xbdfe47a2	-0.124160066
95	0x3ba7be9e	0.005119159
96	0xbe0e7c81	-0.13914682
97	0xbc5b3247	-0.013378686
98	0xbcd9a0d5	-0.026565949
99	0xbcc392ec	-0.023873769
100	0x3cb8ec52	0.022573624
101	0xbde56b02	-0.11202051
102	0xbcb4fa72	-0.022092078
103	0xbe82f7d8	-0.25579715
104	0xbd67af25	-0.056563515
105	0x3c8ff563	0.017573064
106	0x3d66ca66	0.056345366
107	0xbc599f3c	-0.013282593
108	0xbd9d4881	-0.07679845
109	0xbd13bd24	-0.03606905
110	0xbde6ec32	-0.112755194
111	0xbe0ddecd	-0.13854523
112	0xbd677edc	-0.056517467
113	0xbe2ce662	-0.16884759
114	0xbe2bb0e4	-0.16766697
115	0xbe45a919	-0.19302787
116	0x3c39402f	0.0113068065
117	0xbcd1f029	-0.025627213
118	0xbd8f2ffa	-0.06991573
119	0xbc1fde9e	-0.009757666
120	0xbdbaf449	-0.09128625
121	0xbbce3fee	-0.006294242
122	0x3d503b47	0.05083778
123	0x3d2e6446	0.042576097
124	0xba158842	-0.0005704203
125	0xbdbdcca7	-0.0926755
126	0x3d45f6c7	0.04833105
127	0xbdecdaf3	-0.11565199
128	0xbde711bd	-0.1128268
129	0x3cb94a46	0.022618424
130	0xbe03dbf1	-0.1287687
131	0x3d80f057	0.06295841
132	0x3be0debd	0.00686249
133	0xba68dd26	-0.00088830513
134	0xbe7c096e	-0.24612972
135	0xbe67a104	-0.22620016
136	0xbd177a37	-0.036981788
137	0xbe01dc02	-0.12681583
138	0x3bd83e72	0.006599241
139	0xbde71b65	-0.11284522
140	0x3cb49d2a	0.022047598
141	0xbe9d4122	-0.30713755
142	0x3d557ca3	0.052120816
143	0xbdd64ffc	-0.104644746
144	0x3d039358	0.03212294
145	0xbe2fb0bc	-0.17157263
146	0xbc03a9d1	-0.008036093
147	0x3c37049f	0.011170535
148	0xbd0cfba8	-0.034419686
149	0x3e62cdb5	0.22148784
150	0xbd956fdf	-0.07296728
151	0xbda12b67	-0.078696065
152	0x3dfca48c	0.12336072
153	0x3d864687	0.06556421
154	0xbd0f25c1	-0.034948114
155	0xbed4281b	-0.41436848
156	0x3da0a437	0.078438215
157	0xbe4234c5	-0.18965442
158	0xbdd6c96d	-0.10487638
159	0xbe266eca	-0.162532
160	0x3dc73b44	0.09728101
161	0xbe500240	-0.20313358
162	0xbdf55c97	-0.11980551
163	0xbe073b96	-0.13206324
164	0xbc629873	-0.013830292
165	0xbe4950a0	-0.19659662
166	0xbe00ca4e	-0.12577173
167	0xbddfc683	-0.10926535
168	0xbcb19df4	-0.021681763
169	0x3bcc33c2	0.006231756
170	0xbdbb9568	-0.09159356
171	0xbe933fe9	-0.28759697
172	0xbea7e0a3	-0.32788572
173	0xbe49e15e	-0.19714877
174	0xbe518561	-0.20461036
175	0xbe68946a	-0.22712865
176	0x3e0b2db4	0.13591653
177	0xbd481cba	-0.04885552
178	0xbd8cc087	-0.06872659
179	0xbd01f260	-0.031725287
180	0x3d4510c6	0.0481117
181	0xbf1a8bc2	-0.60369503
182	0x3d67914f	0.05653506
183	0xbd4b9c62	-0.049709685
184	0xbd84c93b	-0.06483694
185	0x3e0d1a04	0.13779455
186	0xbe696a3c	-0.22794431
187	0x3d7e2357	0.06204542
188	0xbcfab583	-0.03060413
189	0x3d40d2be	0.04707598
190	0x3d5d4f96	0.054030977
191	0xbd9f2c6f	-0.07772147
192	0xbd41df3f	-0.047332045
193	0x3e30a730	0.17251277
194	0xbc99f267	-0.018792344
195	0xbe38d8fc	-0.18051523
196	0xbd4d92f3	-0.05018897
197	0xbd6bdc4f	-0.05758315
198	0x3dc09d8d	0.094050504
199	0xbe8059a7	-0.250684
200	0xbd911b2d	-0.070852615
201	0x3e34db2a	0.1766173
202	0xbe7e6dee	-0.24846622
203	0xbdfcf72e	-0.12351833
204	0xbe9526e4	-0.29131234
205	0x3d6bab97	0.057536688
206	0x3d3f5c62	0.046718962
207	0xbd0846b5	-0.033270556
208	0xbdf4a8e3	-0.11946275
209	0x3d424227	0.04742637
210	0x3d8d7bce	0.069083795
211	0xbdb059ba	-0.08610864
212	0xbe4527e2	-0.19253495
213	0xbceae116	-0.028671782
214	0x3cc0433e	0.023469564
215	0xbe067653	-0.13131075
216	0xbde1d1a2	-0.110263124
217	0xbd3ff3d1	-0.04686338
218	0x3d70661f	0.05869114
219	0xbd272d2c	-0.040814564
220	0xbe312759	-0.17300166
221	0x3dcd1390	0.10013497
222	0xbdda2092	-0.106507435
223	0x3c3ecbe0	0.011645287
224	0xbd64dd9a	-0.0558754
225	0xbe7f9f62	-0.24963143
226	0xbc913371	-0.017724724
227	0xbe2c8e1c	-0.16851085
228	0x3e097d65	0.1342674
229	0x3d4b6241	0.04965425
230	0x3d7db2cd	0.061938096
231	0xbe6c2b62	-0.23063424
232	0xbe0a0033	-0.13476638
233	0xbd1e38f4	-0.038628533
234	0x3e17f5db	0.1483988
235	0x3e2dc2ba	0.16968814
236	0xbcd12420	-0.025529921
237	0x3e23b5f3	0.15987377
238	0x3e263403	0.16230778
239	0xbe12d5a8	-0.14339316
240	0xbe2557a5	-0.16146715
241	0xbeda8de9	-0.42686394
242	0xbd715445	-0.058918256
243	0xbce9dba9	-0.028547125
244	0x3e850674	0.25981486
245	0xbda08230	-0.07837331
246	0x3ddae6ea	0.106885746
247	0xbd06a971	-0.032876436
248	0x3e170e6a	0.14751592
249	0xbd1f1ab3	-0.03884382
250	0x3b94a702	0.0045365104
251	0xbc91a990	-0.017781049
252	0x3dfb6d2a	0.12276681
253	0xbe2585f7	-0.16164385
254	0xbd761c44	-0.06008555
255	0xbe15c487	-0.1462575

fc2.bias f4 [128]
0	0x3c059f63	0.008155677
1	0x3bc031e6	0.0058653234
2	0xbdad8974	-0.08473483
3	0xbc92a5bc	-0.017901294
4	0xbd983d16	-0.07433526
5	0x3cffa95f	0.031208692
6	0xbd12f312	-0.03587634
7	0x3c35a4f7	0.011086694
8	0x3ceabe0e	0.028655078
9	0xbd41eafd	-0.047343243
10	0x3bd188cc	0.0063944813
11	0xbd8b7588	-0.06809527
12	0xbc523630	-0.012830302
13	0xbd80c5ba	-0.06287713
14	0x3cc08fb4	0.023506023
15	0x3d1e6275	0.038668115
16	0xbcabc562	-0.020968143
17	0x3c73cb17	0.014879963
18	0xbda4b54b	-0.080423914
19	0x3d36bb0e	0.044611983
20	0xbcd7959f	-0.026316462
21	0xbc87895d	-0.016544992
22	0x3c83b27b	0.016076317
23	0xbd93bbb0	-0.07213533
24	0xbc776643	-0.015100065
25	0xbe388254	-0.18018466
26	0xbcf8a907	-0.030354036
27	0x3d97ed78	0.074183404
28	0xbd8cc2d3	-0.06873097
29	0xbdac2d28	-0.0840705
30	0x3d07bd53	0.033139538
31	0x3c9d76a4	0.019221611
32	0x3d638a72	0.055551954
33	0xbdb7729b	-0.08957406
34	0xbdb432ec	-0.08798775
35	0xbd8eb814	-0.06968704
36	0xbd869fb4	-0.0657343
37	0x3d66b948	0.05632904
38	0x3b0da9f6	0.0021616197
39	0x3da1f1bd	0.07907436
40	0xbd935b7f	-0.07195186
41	0xbd0ada79	-0.033899758
42	0x3d85f883	0.065415405
43	0xbd5cad64	-0.053876296
44	0xbd6191ba	-0.055070616
45	0x3bc2a716	0.0059403284
46	0xbc180a37	-0.009279779
47	0x3d82ae00	0.06380844
48	0x3d4f4095	0.0505987
49	0x3b1db7d4	0.002406587
50	0xbda386f2	-0.07984723
51	0x3d8940ca	0.06701811
52	0xbcdd84e2	-0.027040903
53	0x3cb93a44	0.022610791
54	0xbd9c2fd7	-0.07626312
55	0xbda94d34	-0.082666785
56	0x3d169375	0.03676172
57	0x3d775e77	0.060392823
58	0xbce743e5	-0.028230617
59	0x3d9fa9b0	0.07796037
60	0xbd998a93	-0.07497134
61	0x3d7f6d30	0.06235999
62	0x3dad3e42	0.0845914
63	0xbb7ca415	-0.003854995
64	0x3d2e394c	0.04253511
65	0xbdd6cb5f	-0.10488009
66	0xbdc31538	-0.095255315
67	0xbe3d93f8	-0.18513477
68	0xbd38c3ed	-0.045108724
69	0xbdb632ef	-0.088964336
70	0xb998c63a	-0.0002913939
71	0xbd8a6e24	-0.06759289
72	0xba722cfa	-0.00092382694
73	0xbdefe8b5	-0.11714307
74	0x3d07f597	0.033193197
75	0xbdcceb0e	-0.100057706
76	0x3d1fb089	0.038986716
77	0x3d696b1e	0.05698692
78	0xbd791c88	-0.060818225
79	0xbd8618a1	-0.06547666
80	0xbd8d3eec	-0.06896767
81	0x3d4409d1	0.047860924
82	0x3d3e66df	0.046484824
83	0xbd537155	-0.051621754
84	0x3b900209	0.004394774
85	0x3dcca145	0.09991697
86	0x3e2adabd	0.16685005
87	0x3d1995cd	0.037496377
88	0x3d493e8d	0.04913192
89	0xbde2bd21	-0.1107123
90	0xbcabee73	-0.020987725
91	0x3de31fa0	0.11090016
92	0x3d0a38bf	0.033745524
93	0x3d77c8fa	0.0604944
94	0xbc35d74f	-0.011098697
95	0xbd3d20e9	-0.046173964
96	0xbc8961d0	-0.016770273
97	0xbcf907d4	-0.03039924
98	0x3c2550c1	0.010090054
99	0xbd09c40f	-0.03363424
100	0xbdcffd8d	-0.10155783
101	0x3da9fefe	0.08300589
102	0x3daa9610	0.083294034
103	0xbbb14555	-0.0054098764
104	0xbde4987c	-0.111618966
105	0x3d30fcd3	0.043209862
106	0x3dbde4cf	0.092721574
107	0xbc3b0fa4	-0.011417303
108	0xbd039a17	-0.032129373
109	0xbd2546bc	-0.04035066
110	0x3c9aca51	0.0188953
111	0x3bd43a8a	0.006476705
112	0x3d79224f	0.060823735
113	0xbd9a5a34	-0.07536736
114	0xbd9cf908	-0.076646864
115	0xbb59600a	-0.0033168816
116	0xbd20bd23	-0.039242875
117	0x3d12b9c5	0.035821695
118	0x3cd51432	0.026010606
119	0xbd51bfa3	-0.05120815
120	0xbcd411bf	-0.025887368
121	0xbd83d3a1	-0.064368494
122	0xbdd76dc3	-0.10518982
123	0x3cfe27e7	0.031024886
124	0xbcab64bb	-0.020922055
125	0xbdbf44f3	-0.09339323
126	0xbbb3f596	-0.0054919226
127	0xbdb5efc0	-0.08883619

mu.weight f4 [5, 128]
0	0x3cb50dd3	0.022101318
1	0xbdb4aeee	-0.08822428
2	0x3a1742de	0.0005770157
3	0x3e1ea285	0.15491684
4	0x3b818f26	0.003953832
5	0xbdca104d	-0.098663904
6	0xbe8510a5	-0.2598926
7	0x3d4edf60	0.050505996
8	0xbd2fe883	-0.04294635
9	0xbd9c1bca	-0.07622488
10	0xbd6ab08c	-0.057297274
11	0xbd8a3473	-0.06748285
12	0x3dd12d7f	0.10213756
13	0x3dc6fb97	0.09715956
14	0xbcccae4f	-0.02498546
15	0x3d86266f	0.065502994
16	0x3e1b81b6	0.151862
17	0x39607e9b	0.00021409469
18	0x3dfaa055	0.12237612
19	0x3e33e0c0	0.17566204
20	0x3ea56aa3	0.3230792
21	0x3d43add3	0.047773194
22	0x3ce63acb	0.028104207
23	0x3b930433	0.0044865846
24	0x3e2b1475	0.16707022
25	0xbe084ec4	-0.13311297
26	0xbe03a799	-0.12856902
27	0xbe165e80	-0.14684486
28	0xbdf21f34	-0.11822358
29	0x3e470c69	0.19438328
30	0xbca80b54	-0.020513214
31	0x3e30c25a	0.17261639
32	0xbd438677	-0.047735658
33	0xbcc8f87b	-0.024532547
34	0xbb7ee7e8	-0.003889555
35	0x3e4fe36b	0.20301597
36	0xbdeaa509	-0.11457259
37	0xbbe639d1	-0.007025935
38	0x3de119b6	0.10991232
39	0x3dd53699	0.10410804
40	0x3dbabd2c	0.09118113
41	0xbdbdc9c2	-0.09266998
42	0x3da7a2a8	0.08185321
43	0x3d4700f6	0.0485849
44	0x3d98348a	0.07431896
45	0xbd796853	-0.060890507
46	0xbd050011	-0.032470766
47	0xbc81bd44	-0.01583732
48	0xbc19d3e1	-0.009388895
49	0xbd9402e3	-0.07227113
50	0xbce2e058	-0.027694866
51	0x3e56db0b	0.20981996
52	0x3d909d93	0.07061305
53	0xbdc0b83f	-0.09410142
54	0xbcba66ad	-0.022754038
55	0xbd1eda21	-0.038782243
56	0x3d9d7e2a	0.076900795
57	0xbd298a06	-0.041391395
58	0xbd64bae0	-0.05584228
59	0x3da22d3d	0.07918785
60	0x3c700d84	0.01465166
61	0xbd57dc88	-0.05270055
62	0xbdb5267a	-0.088452294
63	0x3d984db8	0.07436699
64	0xbd1e3bb5	-0.03863116
65	0xbd200379	-0.03906581
66	0xbd950f96	-0.072783634
67	0x3e292ec3	0.16521744
68	0xbd94f20a	-0.07272728
69	0x3e25bfbb	0.1618642
70	0xbd3c517e	-0.045976155
71	0x3de03b4d	0.10948811
72	0xbd88778b	-0.06663426
73	0xbddb710c	-0.10714921
74	0x3c80c420	0.01571852
75	0x3e262de9	0.16228451
76	0x3dafad16	0.085779354
77	0xbdd020c0	-0.101624966
78	0xbcdb1e2b	-0.026747784
79	0xbe89564c	-0.26823652
80	0xbd50847f	-0.050907608
81	0xbb70bdd6	-0.0036734245
82	0xbe6be016	-0.23034701
83	0xbd99f853	-0.07518067
84	0x3ce5d37c	0.028054945
85	0xbd0941af	-0.033509906
86	0xbdb2b86b	-0.08726581
87	0xbc5b054a	-0.01336796
88	0xbdf0eb30	-0.117636085
89	0x3d8d7406	0.06906895
90	0xbc9e8687	-0.019351257
91	0xbd45125c	-0.048113212
92	0x3dc4c1f1	0.09607304
93	0x3b90fc86	0.0044246344
94	0x3de4ce02	0.11172105
95	0x3da7c826	0.08192472
96	0xbd8b9c33	-0.06816902
97	0xbd5874ea	-0.052845873
98	0x3d724199	0.05914459
99	0x3eae5efd	0.34056845
100	0xbd10aca8	-0.035320908
101	0xbe9b2e7c	-0.30308902
102	0x3c8ddbf2	0.017316792
103	0xbe0c26b9	-0.13686647
104	0x3dc04b3b	0.09389349
105	0xbbaf315e	-0.005346461
106	0xbcdc95b5	-0.026926855
107	0x3e4c492e	0.19949791
108	0x3d03754d	0.03209429
109	0xbd7b52d4	-0.061358288
110	0xbd5e1e57	-0.054228153
111	0x3e3f0511	0.18654276
112	0xbe9fff74	-0.31249583
113	0xbda43352	-0.08017601
114	0x3e4d0d7f	0.2002468
115	0x3e35a20e	0.177376
116	0xbe9a98e1	-0.30194762
117	0xbdde4dd9	-0.10854692
118	0x3e869e34	0.26292574
119	0x3cb38cdb	0.021917751
120	0x3e809165	0.25110927
121	0x3ca7181d	0.02039724
122	0x3d78aea6	0.060713433
123	0x3aa2f72a	0.001243328
124	0xbe5aabf3	-0.21354656
125	0x3d49c64f	0.049261387
126	0x3d2ffdb4	0.04296656
127	0x3ded42a9	0.1158498
128	0xbc1dd5dc	-0.009633508
129	0x3bf68533	0.007523203
130	0xbe43876d	-0.1909463
131	0xbd66f53c	-0.056386217
132	0xbe108734	-0.14114076
133	0xbe240dcb	-0.16020887
134	0x3e2ef4df	0.17085598
135	0xbd536984	-0.0516143
136	0x3dad1d70	0.084528804
137	0x3db3c5be	0.08777951
138	0x3cfa2c4a	0.030538697
139	0xbcbea722	-0.023273055
140	0x3d73e417	0.059543695
141	0xbe2de366	-0.16981277
142	0xbe041dd7	-0.12902008
143	0xbc8f0159	-0.017456697
144	0x3ca85b9c	0.020551495
145	0x3e071d2e	0.13194725
146	0x3e114755	0.14187367
147	0xbc91aeeb	-0.017783603
148	0x3e234a60	0.1594634
149	0xbd832afb	-0.06404682
150	0xbda58a8d	-0.08083067
151	0xbdae14a4	-0.08500031
152	0xbe5b4d83	-0.21416287
153	0x3e20d35e	0.1570563
154	0xbdf1489e	-0.11781429
155	0xbdfd3329	-0.12363274
156	0x3ca15509	0.019693868
157	0xbdeb7555	-0.11496989
158	0xbe4f4578	-0.20241344
159	0xbe064ba5	-0.13114794
160	0x3dc050ac	0.09390387
161	0xbc33cb4f	-0.0109737655
162	0x3beb0c0f	0.0071730684
163	0x3d51b164	0.051194564
164	0xbc3363ea	-0.010949114
165	0x3ca257d7	0.019817276
166	0xbe101e6e	-0.14074108
167	0xbd9cc830	-0.0765537
168	0x3ee24afa	0.44197828
169	0x3e1b0fb8	0.15142715
170	0xbe8da978	-0.27668357
171	0xbbc64982	-0.0060512433
172	0x3c78d822	0.015188249
173	0x3d24b2dd	0.04020964
174	0xbda36b8d	-0.07979498
175	0xbe227a70	-0.15867019
176	0xbdfdbab7	-0.12389129
177	0x3e575c1d	0.21031232
178	0x3c8bde9a	0.017073918
179	0xbd5456f1	-0.051840726
180	0xbdd83cc5	-0.10558466
181	0x3dd665cc	0.10468635
182	0x3cf5bfa5	0.02999861
183	0x3db03519	0.086038776
184	0x3ea8548e	0.3287701
185	0x3d25826f	0.040407594
186	0xbe327805	-0.17428596
187	0xbdf26a7d	-0.11836717
188	0xbe5bdfd9	-0.2147211
189	0xbd84f4d3	-0.06492009
190	0xbe502c80	-0.20329475
191	0xbe9d3c75	-0.30710188
192	0xbdc88c90	-0.09792435
193	0x3cc93bcf	0.024564652
194	0xbd1b1049	-0.037857328
195	0x3e1b542b	0.15168826
196	0x3e27785e	0.1635451
197	0xbe83f8a3	-0.25775632
198	0xbd1440a9	-0.036194477
199	0x3d6ffaf3	0.058588933
200	0x3c8a8aa5	0.016911814
201	0xbd85faab	-0.06541952
202	0x3e0e4bf6	0.13896164
203	0x3d7534ea	0.059864916
204	0xbb8569fe	-0.004071473
205	0xbd92234c	-0.071356386
206	0xbe69b56b	-0.22823112
207	0xbd71436f	-0.0589022
208	0x3e8695b1	0.2628608
209	0x3d73f805	0.0595627
210	0x3d83edd4	0.064418465
211	0xbe2d19f8	-0.16904438
212	0xbe089f5e	-0.13342044
213	0x3d9cb120	0.076509714
214	0x3db2df21	0.08733965
215	0x3e16878e	0.14700148
216	0xbd7643ef	-0.06012338
217	0x3cb6ed14	0.022329845
218	0x3e0bf05b	0.13665907
219	0xbe488727	-0.19582807
220	0x3da5537e	0.080725655
221	0x3eabae94	0.3353163
222	0x3d8a3c01	0.06749726
223	0x3e207515	0.15669663
224	0x3e0072d0	0.12543797
225	0x3e00ed14	0.12590438
226	0x3d1bfa42	0.03808046
227	0xbe34be06	-0.17650613
228	0x3dfd237a	0.12360282
229	0x3c915d59	0.017744707
230	0xbe31f038	-0.17376792
231	0x3db804e5	0.089853086
232	0xbdf6d79f	-0.12052845
233	0x3d82b5c0	0.06382322
234	0x3e10b460	0.14131308
235	0xbb7ee8b5	-0.0038896028
236	0x3d79c621	0.060979966
237	0x3bd99995	0.006640623
238	0x3d4f8639	0.050665114
239	0xbdc52800	-0.0962677
240	0x3d931c52	0.07183136
241	0x3e0b3439	0.1359414
242	0x3eaf4ead	0.34239712
243	0x3e2d0b73	0.16898899
244	0xbd5dcc5a	-0.054149963
245	0xbe474550	-0.19460034
246	0xbdcd88b4	-0.1003584
247	0xbd2b7b0d	-0.041865397
248	0xbe18a37e	-0.14906117
249	0x3c1faf4d	0.009746385
250	0x3cb7c306	0.022431862
251	0x3e1faabf	0.15592478
252	0xbe58d2fe	-0.21174237
253	0xbad34c63	-0.0016120787
254	0x3da6bdb3	0.08141651
255	0x3e05e2f7	0.13074861

mu.bias f4 [5]
0	0xbd386df9	-0.045026753
1	0x3d4f1d4a	0.05056504
2	0xbdb015b7	-0.08597892
3	0x3d78c44e	0.060734086
4	0xbd8ab665	-0.0677307

log_std.weight f4 [5, 128]
0	0xbc942bb7	-0.018087251
1	0xbcd7f505	-0.026361952
2	0x3d2452cc	0.040118024
3	0xbe054378	-0.13014019
4	0xb9d3aec1	-0.00040375258
5	0xbcb2b68f	-0.021815566
6	0xbdd1e296	-0.10248296
7	0x3ab51e54	0.0013818243
8	0x3e6a2665	0.22866209
9	0xbe85c059	-0.26123312
10	0x3d02a7b7	0.031898227
11	0xbd3535dd	-0.04424082
12	0x3d52a64b	0.05142812
13	0x3ad697da	0.001637216
14	0xbe257274	-0.16156942
15	0xbe174743	-0.14773278
16	0x3d8060c8	0.062684596
17	0xbecab094	-0.39587843
18	0xbc6b4102	-0.014358761
19	0x3dc08dbe	0.09402035
20	0x3dcb165c	0.09916374
21	0x3d537bea	0.051631846
22	0xbe827e88	-0.2548716
23	0x3d8b34bf	0.0679717
24	0x3c4b52b8	0.012409858
25	0xbe779a1c	-0.24179882
26	0xbe21a4ed	-0.1578557
27	0xbd844456	-0.064583465
28	0x3e4096df	0.18807553
29	0xbd7c89af	-0.061654743
30	0xbe370a47	-0.17875014
31	0x3e2ecb58	0.17069757
32	0x3dc2cb1d	0.09511397
33	0xbd8d755b	-0.069071494
34	0xbb7d30c4	-0.0038633803
35	0xbd87e1cf	-0.066348664
36	0xbddc8a60	-0.107685804
37	0x3d49c0ea	0.049256243
38	0xbc8353ac	-0.016031109
39	0x3d1d477a	0.038398243
40	0x3d30f06c	0.043198034
41	0xbdc33236	-0.09531061
42	0x3abb4cca	0.0014289853
43	0x3d9a1e0a	0.07525261
44	0x3d243d16	0.04009732
45	0x3df9b6c5	0.12193064
46	0xbdb91388	-0.090369284
47	0xbcbe0089	-0.023193615
48	0xbdc3ccc6	-0.09560542
49	0xbd0d7429	-0.034534607
50	0x3c57d264	0.01317272
51	0x3d918cbd	0.07106922
52	0xbd56e7d2	-0.052467175
53	0xbea329e2	-0.31867892
54	0x3af5e9ba	0.0018761673
55	0x3db78642	0.089611545
56	0xbe0c7f1c	-0.13720363
57	0x3d71f5ff	0.05907249
58	0xbcaa2d1e	-0.020773467
59	0xbe863118	-0.2620933
60	0xbdef4ea6	-0.11684923
61	0xbc157681	-0.009122492
62	0xbe2d317d	-0.1691341
63	0x3d997fca	0.07495077
64	0xbe6e14db	-0.23250143
65	0xbe2273dd	-0.15864511
66	0x3be69ca0	0.007037714
67	0x3cb778aa	0.022396404
68	0xbd868fb7	-0.0657038
69	0x3d30acf0	0.043133676
70	0xbde2284f	-0.110428445
71	0x3dd55fa9	0.10418636
72	0xbe4f9f10	-0.20275521
73	0x3cdbdd82	0.026839022
74	0x3d1159bb	0.035485964
75	0xbd47453c	-0.04865001
76	0x3d85d4a2	0.06534697
77	0xbd742b14	-0.059611395
78	0xbe0ceb79	-0.137617
79	0x3cafbaea	0.021451432
80	0xbdd295fa	-0.10282512
81	0xbe1e87d4	-0.15481502
82	0x3e18a897	0.14908062
83	0xbe7855e2	-0.24251512
84	0xbe3634c4	-0.17793566
85	0x3e068c44	0.13139445
86	0xbea26e02	-0.31724554
87	0xbe468e17	-0.1939014
88	0xbe233a75	-0.15940268
89	0xbd75f338	-0.060046405
90	0xbd004b43	-0.031321775
91	0xbe8b4f3b	-0.27208886
92	0xbe5c7e17	-0.21532474
93	0xbdc1f90d	-0.09471331
94	0x3d2f5ace	0.042811207
95	0x3e9d083c	0.30670345
96	0xbc9bdeab	-0.019027075
97	0xbe156c91	-0.14592196
98	0xbd8ca844	-0.068680316
99	0x3bc726b8	0.0060776137
100	0xbd88918c	-0.06668386
101	0x3da54abe	0.080708966
102	0xbd3bd3e0	-0.045856357
103	0x3b91754d	0.004439032
104	0x3e04f233	0.12983017
105	0xbeb19a87	-0.34688208
106	0xbe6af76c	-0.22945946
107	0x3c887cad	0.016661013
108	0xbdca1dc0	-0.098689556
109	0xbd536ed7	-0.051619377
110	0x3da63862	0.08116223
111	0x3e1151ac	0.14191312
112	0xbe500f3f	-0.20318316
113	0xbd3b32fa	-0.045702912
114	0xbcb50e62	-0.022101585
115	0xbda89f5d	-0.08233521
116	0xbbde2f0c	-0.006780511
117	0xbcc7cd71	-0.024389954
118	0x3dc8b442	0.098000064
119	0x3cd031e4	0.025414415
120	0x3d523a9e	0.051325433
121	0xbcfccb50	-0.030858666
122	0x3c1766ae	0.009240789
123	0xbdcdd1b7	-0.100497656
124	0x3db53ec0	0.08849859
125	0x3d40245d	0.04690968
126	0x3da904c6	0.082528636
127	0xbde4ba74	-0.111683756
128	0xbe39bd25	-0.18138559
129	0xbdd3349b	-0.10312768
130	0x3dd3e67c	0.10346696
131	0xbc052a0d	-0.0081277015
132	0x3da5c4c1	0.080941685
133	0x3d92ff66	0.0717762
134	0xbe4492ba	-0.19196597
135	0xbe0813b4	-0.13288766
136	0x3d9fc835	0.07801858
137	0xbdad852f	-0.084726684
138	0xbd740ee3	-0.05958451
139	0x3d265948	0.04061249
140	0xbe32ed28	-0.1747328
141	0xbd5e378e	-0.0542522
142	0xbe16bcad	-0.14720412
143	0x3e0ea151	0.13928725
144	0x3ccb7426	0.024835657
145	0xbe0f0888	-0.13968098
146	0xbd96b64b	-0.073589884
147	0x3e09e2a9	0.1346537
148	0x3de1173d	0.109907605
149	0x3d5e7d56	0.05431875
150	0xbdfd83ce	-0.123786554
151	0xbe6cffcc	-0.23144454
152	0x3df9f269	0.12204439
153	0xbddb2007	-0.10699468
154	0xbdea2196	-0.11432187
155	0xbddf7963	-0.109118246
156	0x3de0397d	0.10948465
157	0xbd40f5c0	-0.047109365
158	0xbe8d0a41	-0.27546886
159	0xbc8b6993	-0.017018115
160	0xbe37d863	-0.17953639
161	0xbd9a63d9	-0.07538576
162	0xbe04ac6a	-0.12956396
163	0x3c895731	0.016765209
164	0xbd496e73	-0.0491776
165	0xbe0ce2a9	-0.13758339
166	0xbe58489d	-0.2112145
167	0xbd1465db	-0.03622995
168	0x3d96e213	0.07367339
169	0xbd39f258	-0.045397133
170	0x3e59d416	0.2127231
171	0x3c941935	0.018078426
172	0xbd61f8cc	-0.05516891
173	0xbd2f63b5	-0.042819697
174	0xbe0da58f	-0.13832687
175	0xbdb17b36	-0.08666079
176	0xbdba04aa	-0.09082921
177	0xbe15b19b	-0.14618532
178	0x3cf666f7	0.030078394
179	0xbe08156a	-0.13289419
180	0xbc74ead2	-0.014948564
181	0x3d49cecd	0.049269486
182	0x3d8f41f2	0.06995
183	0xbde656cd	-0.11247025
184	0x3db25d9c	0.08709261
185	0xbc0c6903	-0.008569959
186	0x3b96870f	0.004593737
187	0xbe48a337	-0.19593512
188	0x3dfe7780	0.124251366
189	0x391b86d3	0.00014832178
190	0xbe7262e2	-0.23670533
191	0xbd76b5ff	-0.06023216
192	0xbdea1a2b	-0.114307724
193	0xbe51291a	-0.20425835
194	0x3d11e6af	0.035620388
195	0x3d0d60ab	0.034516018
196	0x3d1483ac	0.036258385
197	0x3e0a37b0	0.13497806
198	0xbddf18ab	-0.10893377
199	0xbd57a9b2	-0.05265207
200	0xbde75e3b	-0.1129727
201	0xbdc31a20	-0.09526467
202	0xbd81b6f3	-0.06333723
203	0x3e044fb2	0.12921026
204	0x3d998240	0.07495546
205	0xbe157078	-0.14593685
206	0xbdee8f7e	-0.11648463
207	0xbdfade85	-0.122494735
208	0x3e261462	0.16218713
209	0xbd6bd107	-0.05757239
210	0xbe66a5ac	-0.22524136
211	0xbd81ca48	-0.0633741
212	0xbe44889d	-0.19192739
213	0xbe0c14c6	-0.136798
214	0xbe9b61f3	-0.30348167
215	0xbdcf2175	-0.10113803
216	0x3d73fbc6	0.05956628
217	0xbe16bb14	-0.14719802
218	0xbe4cee4a	-0.20012775
219	0xbd8eb76d	-0.069685794
220	0xbda90d0e	-0.08254443
221	0xbd843530	-0.06455457
222	0xbc8de10c	-0.017319225
223	0x3d8c254f	0.068430535
224	0xbe6cc536	-0.23122105
225	0xbe0e689a	-0.1390709
226	0xbe9db83d	-0.30804625
227	0x3cbbea8b	0.022938987
228	0xbd4739d5	-0.048639137
229	0x3cc8f10b	0.024529
230	0x3d70820b	0.05871777
231	0xbe0f99e0	-0.14023542
232	0xbe221eee	-0.15832111
233	0xbe30ce22	-0.17266133
234	0x3cf268f6	0.029591065
235	0x3d99302e	0.07479893
236	0xbd5c7f91	-0.053832594
237	0x3c05f3ab	0.008175771
238	0xbd50a9cc	-0.05094318
239	0xbe9b2508	-0.3030169
240	0x3d97c2fc	0.07410237
241	0x3d8c88f9	0.06862063
242	0xbb69a1e7	-0.003564948
243	0x3c9c6d2f	0.019095032
244	0x3e0e5aee	0.13901874
245	0xbe4289aa	-0.18997827
246	0x3e82607d	0.2546424
247	0x3e27ce78	0.16387355
248	0xbe26e61c	-0.16298717
249	0xbe2f627d	-0.17127414
250	0xbe4dc351	-0.20094039
251	0x3d0481e6	0.032350443
252	0x3cc8295e	0.024433788
253	0x3d8a6cc8	0.067590296
254	0xbe0d3b4f	-0.13792156
255	0xbeb1e3f1	-0.34744218

log_std.bias f4 [5]
0	0xbe29fee4	-0.1660114
1	0xbe49616e	-0.19666073
2	0xbddef3f0	-0.10886371
3	0xbe19d75f	-0.15023564
4	0xbe39c503	-0.1814156
