resource/models/without_gt_critic_20000.pth (torch, 155617 bytes, 10 tensors)

fc1.weight f4 [128, 17]
-0.080564275 -0.14759393 0.103838615 0.24648857 0.21746968 -0.22610442 -0.25683004 0.18390283
0.11129543 -0.17418288 -0.034314167 0.14996478 0.33759058 0.0043594902 -0.20223092 0.10720932
0.06086893 0.16050573 -0.09557517 -0.0061508273 -0.1860487 0.1358454 -0.31965673 -0.2733369
-0.25930956 -0.14338376 0.0404205 0.16128038 0.17770408 -0.010418883 0.09358067 0.08384427
0.09668408 0.13965847 0.13991371 -0.30002123 0.055488117 -0.059898302 -0.0010966244 -0.1902633
-0.29313666 0.15226729 -0.040449273 0.06145677 0.23355725 0.1303643 0.16817352 0.26260826
0.11070862 -0.1620361 0.21571761 -0.09980914 -0.09552939 -0.20969303 -0.03479608 -0.17269483
0.15951 -0.2061368 -0.047498118 -0.07386696 0.094850786 0.05113768 -0.2053438 -0.13590384
0.23387335 0.15714023 -0.13110614 0.11170217 -0.25432968 -0.14448638 0.0009233075 -0.06726854
-0.26362434 0.119175024 -0.08886207 0.09427526 -0.21530221 0.17636132 -0.23733073 0.03322242
-0.0859894 0.042267233 -0.24762395 0.09568435 -0.16757843 0.09705533 0.10932172 -0.025885241
-0.2808719 0.10189423 -0.031858742 0.25909266 -0.17490457 0.0045646494 -0.12235193 -0.24611221
-0.18623659 -0.12725084 0.018339537 -0.09005201 0.010890787 0.20557578 0.1545954 -0.2135729
0.1747319 0.016855007 0.15338545 -0.08200299 -0.21960542 -0.11854344 0.03917435 0.35348818
0.062388215 -0.15131095 -0.019299138 0.08307405 -0.08839058 -0.14662595 -0.060830403 -0.17357194
-0.23017243 -0.15674509 0.34193006 0.01822086 -0.063180864 -0.2768124 -0.01075394 -0.27980453
0.09380538 -0.05672928 -0.043453217 0.2958037 -0.051024694 -0.23958921 0.11031847 0.19546449
-0.22849602 -0.120501414 0.07612824 -0.039435726 0.07942285 -0.25862217 -0.13314806 0.14769745
0.2025051 0.28584504 -0.2759057 0.22732559 -0.3238352 -0.027769832 -0.10729323 0.2316822
0.12435955 -0.15448442 0.06475274 -0.10434072 -0.17399935 0.06456703 0.09539392 0.106420666
-0.12113402 0.0023322005 -0.224263 -0.016636346 -0.029252183 0.17721449 0.09784256 0.22439945
-0.3394212 0.40947855 -0.19078267 0.17916463 -0.010886834 -0.0572794 0.100626096 -0.28553215
-0.07991306 0.020159356 -0.21197052 -0.11648744 -0.2119109 0.28462115 0.0046897796 -0.16910245
0.10649073 0.1335452 -0.022970218 0.22758946 -0.33658603 -0.25031456 -0.24986811 0.086050674
0.029872695 -0.20160587 -0.3324312 -0.03100223 -0.1725507 0.20485768 -0.20584497 0.19365801
0.02446743 0.119486526 -0.21450365 -0.110914215 -0.16259395 -0.24737725 0.012801539 0.17733149
0.1832676 0.18400712 0.034604665 0.07997337 0.00063159765 -0.022964198 -0.10987963 0.114536375
0.18748274 0.12932031 0.23701982 0.22859365 -0.018432224 0.16085453 -0.22864456 0.039564587
0.14248572 0.20547229 -0.3294982 0.04269081 -0.009235536 -0.08058877 -0.09394987 -0.07269257
-0.27215 0.055956382 -0.32205132 0.24188752 0.08235154 -0.3397986 0.07939268 -0.08730948
0.23023178 -0.25470424 0.0815878 0.10707984 0.22514075 -0.20120017 0.18486138 -0.13183801
-0.22221649 -0.028790658 0.1708027 0.31030992 -0.03488278 0.014052762 -0.13062419 0.11684392
00000000: e2fe a4bd dd22 17be 57a9 d43d 8067 7c3e
00000010: 5fb0 5e3e eb87 67be 3a7f 83be 0651 3c3e
00000020: dcee e33d ff5c 32be 038d 0cbd 5e90 193e
00000030: acd8 ac3e 0eda 8e3b 9f15 4fbe 8f90 db3d
00000040: b351 793d 9d5b 243e eabc c3bd e18c c9bb
00000050: 8d83 3ebe 0e1b 0b3e 0caa a3be d0f2 8bbe
00000060: 39c4 84be 31d3 12be f78f 253d af26 253e
00000070: 0ff8 353e f6b3 2abc 39a7 bf3d 8bb6 ab3d
00000080: 4e02 c63d a102 0f3e 8a45 0f3e 629c 99be
00000090: 8247 633d ec57 75bd 9cbc 8fba 62d4 42be
000000a0: 0216 96be f5eb 1b3e 23ae 25bd 18ba 7b3d
000000b0: a229 6f3e 387e 053e ae35 2c3e 9774 863e
000000c0: 33bb e23d cbec 25be 14e5 5c3e bc68 ccbd
000000d0: eaa4 c3bd c5b9 56be 5686 0ebd ead6 30be
000000e0: 9756 233e 8615 53be 638d 42bd 9047 97bd
000000f0: 2141 c23d be75 513d a545 52be 602a 0bbe
00000100: 7f7c 6f3e 5ee9 203e b040 06be 1bc4 e43d
00000110: 8037 82be 3df4 13be 1e0a 723a 17c4 89bd
00000120: c5f9 86be 0912 f43d 51fd b5bd 6313 c13d
00000130: 2f78 5cbe 1098 343e d406 73be 3b14 083d
00000140: 361b b0bd 6820 2d3d 2291 7dbe 28f6 c33d
00000150: ae99 2bbe f2c4 c63d 11e4 df3d 490d d4bc
00000160: 71ce 8fbe ecad d03d 507e 02bd cba7 843e
00000170: 2f1a 33be 0e93 953b a693 fabd d704 7cbe
00000180: ceb4 3ebe 0b4e 02be cc3c 963c 306d b8bd
00000190: 456f 323c 7582 523e 424e 1e3e dbb2 5abe
000001a0: ebec 323e 8313 8a3c 1311 1d3e 2ff1 a7bd
000001b0: 3ee0 60be e7c6 f2bd 4975 203d 67fc b43e
000001c0: c98a 7f3d 42f1 1abe 3a19 9ebc ba22 aa3d
000001d0: 1f06 b5bd 1d25 16be 4d29 79bd d8bc 31be
000001e0: 52b2 6bbe c981 20be 7511 af3e ea43 953c
000001f0: f864 81bd 5bba 8dbe 4b31 30bc 8a42 8fbe
00000200: 091d c03d f65c 68bd 00fc 31bd 9573 973e
00000210: 45ff 50bd e056 75be a6ee e13d d827 483e
00000220: dcfa 69be 72c9 f6bd 1fe9 9b3d 5b87 21bd
00000230: 72a8 a23d 206a 84be f757 08be 003e 173e
00000240: 7f5d 4f3e 485a 923e 8343 8dbe 0ac8 683e
00000250: bacd a5be 8f7d e3bc 8ebc dbbd 193e 6d3e
00000260: 38b0 fe3d 2a31 1ebe 169d 843d 96b0 d5bd
00000270: e32c 32be b83b 843d e35d c33d 14f3 d93d
00000280: 1d15 f8bd d5d7 183b 33a5 65be f248 88bc
00000290: 46a2 efbc b777 353e ae61 c83d f8c8 653e
000002a0: 9ec8 adbe 2ca7 d13e 885c 43be ef76 373e
000002b0: b15e 32bc ce9d 6abd 0e15 ce3d 4531 92be
000002c0: 75a9 a3bd 3c25 a53c cd0e 59be f890 eebd
000002d0: 2cff 58be ddb9 913e b9ac 993b 3129 2dbe
000002e0: d017 da3d 13c0 083e 0a2c bcbc 360d 693e
000002f0: 0155 acbe 3b29 80be 6ddd 7fbe 563b b03d
00000300: 95b7 f43c c571 4ebe 6c34 aabe 63f8 fdbc
00000310: 21b1 30be 36c6 513e 06c9 52be 494e 463e
00000320: eb6f c83c 5ab5 f43d d8a6 5bbe fe26 e3bd
00000330: 077f 26be 7650 7dbe 8cbd 513c 6396 353e
00000340: 80aa 3b3e 5d6c 3c3e 9fbd 0d3d 14c9 a33d
00000350: cd91 253a 6a1f bcbc 9208 e1bd 0c92 ea3d
00000360: 7afb 3f3e 8b6c 043e 53b5 723e 7414 6a3e
00000370: 2dff 96bc 0db7 243e cd21 6abe 7a0e 223d
00000380: c7e7 113e 5467 523e fdb3 a8be 8fdc 2e3d
00000390: a550 17bc ba0b a5bd ca68 c0bd d8df 94bd
000003a0: 3f57 8bbe 8532 653d e9e3 a4be 5db1 773e
000003b0: eda7 a83d 15fa adbe a198 a23d 50cf b2bd
000003c0: e1c1 6b3e 9868 82be 8117 a73d ad4c db3d
000003d0: 4c8b 663e 6b07 4ebe 4d4c 3d3e 8b00 07be
000003e0: b88c 63be 63da ebbc e7e6 2e3e f1e0 9e3e
000003f0: 3fe1 0ebd 8e3d 663c 59c2 05be dd4b ef3d

fc1.bias f4 [128]
0.30265614 0.3408101 -0.0902041 0.3697179 0.42581588 0.33205438 0.27115473 0.12583268
0.08740831 0.19326457 0.29204753 0.15325971 0.38029206 -0.12041189 0.318208 0.0810277
0.15228891 -0.21979026 0.2490654 -0.15988584 -0.097108 -0.059797663 0.43765074 0.15717208
0.12993579 0.2526768 -0.07575552 0.34953386 0.19545828 -0.17559174 0.06802289 -0.15356146
-0.022592332 -0.011948191 0.3656421 0.26873073 0.3754371 0.14743185 0.3105747 -0.0129932985
0.23998703 -0.2035671 -0.28299853 -0.14381944 0.3410178 0.3625483 0.44146878 0.2790089
0.426736 -0.07724141 -0.21798481 -0.19260986 0.3073045 0.4125828 -0.1886818 0.28459638
0.3314897 -0.19862446 -0.040343713 0.017228164 0.40683955 -0.23831198 -0.055179216 0.08610008
-0.097327664 0.07332756 0.15126635 0.35708916 0.38553163 0.19925593 0.016392844 -0.13385114
0.44348937 0.1847064 0.40124008 0.4336051 0.39356297 0.18114407 0.36295313 -0.038001742
0.3771538 -0.21909748 0.3280538 0.41366622 -0.0912373 0.1432628 -0.19723885 -0.2611171
0.43327117 -0.1313806 -0.31168556 0.24408586 0.21487017 -0.18609168 -0.021049287 -0.04430979
-0.10999887 0.16067886 -0.012697146 -0.08004719 -0.0022747633 0.40951663 0.2458855 -0.16328219
-0.07330331 -0.21066627 0.19154641 0.43672967 0.31307468 -0.2769366 -0.15608296 0.21177258
0.28009623 -0.3142178 0.08423301 -0.05945574 -0.17308371 -0.21653959 0.38840437 -0.18551974
-0.0020247414 -0.108140275 0.061988614 -0.030034326 0.36901093 0.33041242 -0.015698086 -0.04945423
00000000: bff5 9a3e a97e ae3e edbc b8bd aa4b bd3e
00000010: 8a04 da3e 0803 aa3e cbd4 8a3e 48da 003e
00000020: 2103 b33d 26e7 453e 4187 953e 1df0 1c3e
00000030: a4b5 c23e 829a f6bd 29ec a23e daf1 a53d
00000040: a0f1 1b3e b310 61be 000b 7f3e 1db9 23be
00000050: 8fe0 c6bd 65ee 74bd c213 e03e b8f1 203e
00000060: e30d 053e db5e 813e b625 9bbd 1af6 b23e
00000070: 3726 483e 52ce 33be 964f 8b3d 373f 1dbe
00000080: 8e13 b9bc 58c2 43bc 7135 bb3e 1397 893e
00000090: 4b39 c03e 60f8 163e a603 9f3e d8e1 54bc
000000a0: 29bf 753e e573 50be 2fe5 90be 6745 13be
000000b0: e399 ae3e ee9f b93e 3208 e23e 41da 8e3e
000000c0: 247d da3e bf30 9ebd 6937 5fbe 853b 45be
000000d0: 0457 9d3e 0e3e d33e cd35 41be 9eb6 913e
000000e0: 05b9 a93e 3664 4bbe 733f 25bd 1422 8d3c
000000f0: 464d d03e 0e08 74be 9a03 62bd 3d55 b03d
00000100: ba53 c7bd c32c 963d 91e5 1a3e 64d4 b63e
00000110: 6764 c53e bf09 4c3e 494a 863c 4610 09be
00000120: 0a11 e33e ad23 3d3e 576f cd3e 7d01 de3e
00000130: 1681 c93e d57d 393e fed4 b93e b7a7 1bbd
00000140: 4e1a c13e 175b 60be abf6 a73e 0fcc d33e
00000150: 9fda babd 7cb3 123e fbf8 49be 24b1 85be
00000160: b8d5 dd3e a388 06be 4095 9fbe a5f1 793e
00000170: ed06 5c3e d18e 3ebe 8e6f acbc 2f7e 35bd
00000180: 1647 e1bd 0089 243e b107 50bc c8ef a3bd
00000190: 3214 15bb 2aac d13e 69c9 7b3e 7233 27be
000001a0: 0c20 96bd e6b8 57be be24 443e 089b df3e
000001b0: 534b a03e a2ca 8dbe 36d4 1fbe e9da 583e
000001c0: c668 8f3e 28e1 a0be 5b82 ac3d dd87 73bd
000001d0: db3c 31be 8ebc 5dbe f0dc c63e e3f8 3dbe
000001e0: 86b1 04bb a678 ddbd c6e7 7d3d 8c0a f6bc
000001f0: 00ef bc3e d12b a93e 4699 80bc 8590 4abd

fc2.weight f4 [128, 128]
0.041938838 0.16917542 0.041662157 0.27470627 0.2837763 0.16515583 0.20990178 0.040216763
0.092313565 -0.012312859 0.20751013 0.12670793 0.17005241 -0.18663694 0.06690695 0.10146808
0.123635195 -0.016443662 0.118283436 -0.05106488 0.051554892 0.050708316 0.09995983 0.1083397
0.042256523 0.10889877 -0.058452528 0.26674485 0.040488094 -0.10672354 0.1937143 -0.0128888115
0.03466237 0.03134638 0.13500257 0.058283504 0.14015824 0.16119207 0.2755252 -0.13896082
0.15442453 -0.108017795 0.21255027 -0.05150265 0.14087541 0.12425272 0.18427138 0.039410934
0.13613766 -0.025507053 -0.021872405 -0.12805665 0.24081789 0.20042211 -0.22679923 0.21606027
0.21299179 -0.16722454 0.096421055 0.19577874 0.17499566 -0.16088721 0.13097268 0.060838785
0.07722097 0.1750527 0.00970117 0.03940622 0.13095696 0.13004288 0.0870428 0.12434578
0.17365761 0.24182186 0.16104095 0.27696815 0.15534829 0.097390786 0.09907875 -0.012637145
0.19047728 -0.07150411 0.16423488 0.11722763 0.01088627 0.007755595 -0.051786624 0.038527835
0.2242152 -0.10567892 0.18718554 0.14725731 0.029027877 0.10098021 -0.0778549 0.009696245
0.1988504 0.08199684 -0.02444513 0.18736723 0.12496337 0.16235551 0.10730009 -0.03872284
0.14984418 -0.1469937 0.14303678 0.10450826 0.20378575 -0.03146276 -0.05758606 0.09971589
0.19643067 -0.07570657 0.018906016 0.06566215 -0.016300356 -0.121068 0.17598252 -0.1740692
0.20947064 -0.13371372 0.14528963 0.08025525 0.15212527 0.13986498 0.084577225 0.16064085
0.06735001 0.23645392 0.16989769 0.2026431 0.20134385 0.0904181 0.23435827 0.18095419
0.13567883 0.14468491 0.19521736 0.10831593 0.17984368 -0.15940017 0.17403884 0.048648033
0.05276057 -0.055443287 0.013653639 -0.17966594 -0.114085205 0.1819243 0.20953953 0.12652597
0.1186669 0.16508399 -0.08071828 0.1573609 0.05575234 0.056342933 0.10002756 -0.11578597
0.124497004 0.17742123 0.1520646 0.15986526 0.10685077 0.146032 0.23782007 -0.058253072
0.036598746 -0.09883027 0.3032096 -0.12659316 0.12849618 0.25519457 0.1697733 0.09592808
0.1997466 0.068135075 -0.06501954 -0.13564788 0.26220962 0.24971294 -0.23460989 0.13400581
0.16597217 -0.18186475 0.12010768 0.22831674 0.13342464 -0.12000773 -0.041230533 0.05687468
0.034197867 0.14991114 0.034240358 0.031227935 0.19765517 0.049341768 0.049280964 0.016825838
0.24290153 0.2762664 0.19034909 0.29535314 0.15618177 0.15192892 0.06308556 0.081500255
0.033986095 -0.048794195 0.19196092 0.25230166 -0.07661086 0.09461907 -0.11398326 0.05059781
0.16199806 -0.13239583 0.18429168 0.06306409 0.10107849 0.06051804 -0.11535901 0.05058785
0.13532424 0.0128117 0.019811269 0.045470092 0.12997474 0.10108151 0.028328681 -0.056906227
0.17502847 -0.11951703 0.059927486 0.25497782 0.21469262 -0.10105954 -0.20765203 0.13448925
0.08060253 -0.20915689 0.11847421 -0.02744509 -0.11417436 -0.10692757 0.22620767 -0.14328282
0.1414672 -0.116682105 0.04475833 0.18421337 0.15037963 0.13708894 0.014361692 0.12307113
00000000: 0fc8 2b3d 523c 2d3e f0a5 2a3d 4da6 8c3e
00000010: 214b 913e 9c1e 293e 7ef0 563e 55ba 243d
00000020: e50e bd3d e0bb 49bc 897d 543e b9bf 013e
00000030: 3822 2e3e c11d 3fbe 8306 893d 7fce cf3d
00000040: 7334 fd3d dcb4 86bc 963e f23d 6829 51bd
00000050: 392b 533d 86b3 4f3d bdb7 cc3d 34e1 dd3d
00000060: 2d15 2d3d 5106 df3d eb6b 6fbd c892 883e
00000070: d8d6 253d df91 dabd 0b5d 463e 982b 53bc
00000080: 21fa 0d3d 1065 003d 1d3e 0a3e afba 6e3d
00000090: a485 0f3e 890f 253e a411 8d3e bf4b 0ebe
000000a0: 7721 1e3e 6f38 ddbd c7a6 593e 71f4 52bd
000000b0: a541 103e 3678 fe3d a3b1 3c3e 5c6d 213d
000000c0: ac67 0b3e 2bf4 d0bc c22d b3bc 4821 03be
000000d0: f798 763e 743b 4d3e 0f3e 68be e73e 5d3e
000000e0: 851a 5a3e e93c 2bbe 6778 c53d 397a 483e
000000f0: 1032 333e 9ebf 24be b41d 063e 1732 793d
00000100: 0726 9e3d 0441 333e a8f1 1e3c 6b68 213d
00000110: 9519 063e f629 053e 7f43 b23d 00a9 fe3d
00000120: 4dd3 313e 26a0 773e ebe7 243e c5ce 8d3e
00000130: 9f13 1f3e d274 c73d cde9 ca3d 070c 4fbc
00000140: 7a0c 433e bf70 92bd 302d 283e 0a15 f03d
00000150: 535c 323c a522 fe3b 361e 54bd 5dcf 1d3d
00000160: ab98 653e 316e d8bd 91ad 3f3e 9fca 163e
00000170: dfcb ed3c b6ce ce3d 6472 9fbd 00dd 1e3c
00000180: 709f 4b3e f6ed a73d 2741 c8bc 32dd 3f3e
00000190: ccec ff3d 8640 263e 26c0 db3d d79b 1ebd
000001a0: c170 193e 8485 16be 3c78 123e 6d08 d63d
000001b0: 36ad 503e 18df 00bd 5cdf 6bbd d837 cc3d
000001c0: 1f25 493e 0c0c 9bbd cae0 9a3c e179 863d
000001d0: 5388 85bc 80f2 f7bd c334 343e 323f 32be
000001e0: 797f 563e 40ec 08be cec6 143e dd5c a43d
000001f0: bac6 1b3e c438 0f3e d336 ad3d 097f 243e
00000200: cdee 893d fa20 723e a9f9 2d3e ac81 4f3e
00000210: 152d 4e3e 202d b93d 9dfb 6f3e 0e4c 393e
00000220: 64ef 0a3e 4828 143e 0fe7 473e bed4 dd3d
00000230: f128 383e cc39 23be 3d37 323e 2943 473d
00000240: 781b 583d 8018 63bd 83b3 5f3c 59fa 37be
00000250: 81a5 e9bd 5d4a 3a3e 8891 563e 0690 013e
00000260: a207 f33d c70b 293e a04f a5bd 3723 213e
00000270: 915c 643d d9c7 663d 40db cc3d 3221 edbd
00000280: 49f8 fe3d e9ad 353e d3b6 1b3e b8b3 233e
00000290: 94d4 da3d 6a89 153e 1b87 733e c69a 6ebd
000002a0: 91e8 153d 8667 cabd 4a3e 9b3e a3a1 01be
000002b0: 8194 033e dda8 823e 0dd9 2d3e f175 c43d
000002c0: 5f8a 4c3e 678a 8b3d f728 85bd 47e7 0abe
000002d0: 5740 863e c0b4 7f3e 933d 70be d238 093e
000002e0: 9cf4 293e c13a 3abe 04fb f53d ddcb 693e
000002f0: 78a0 083e 9dc6 f5bd 59e1 28bd 6df5 683d
00000300: 1013 0c3d 4e82 193e 9e3f 0c3d bad1 ff3c
00000310: 1e66 4a3e 981a 4a3d d6da 493d 57d6 893c
00000320: 2ebb 783e ca72 8d3e dfea 423e 8738 973e
00000330: 1dee 1f3e 4193 1b3e 0133 813d 9be9 a63d
00000340: 0135 0b3d 6cdc 47bd 6791 443e af2d 813e
00000350: 28e6 9cbd a5c7 c13d 0e70 e9bd a63f 4f3d
00000360: d2e2 253e c692 07be f5b6 3c3e bf27 813d
00000370: 3d02 cf3d c4e1 773d 5841 ecbd 3535 4f3d
00000380: 7092 0a3e 2ae8 513c 3e4b a23c d93e 3a3d
00000390: 1918 053e d303 cf3d 8d11 e83c 8116 69bd
000003a0: aa3a 333e 58c5 f4bd 8676 753d 748c 823e
000003b0: 62d8 5b3e 4ef8 cebd bca2 54be 8db7 093e
000003c0: f012 a53d 392d 56be 9ba2 f23d 86d4 e0bc
000003d0: 3fd4 e9bd d8fc dabd fca2 673e bbb8 12be
000003e0: c7dc 103e 07f7 eebd 8354 373d 6ea2 3c3e
000003f0: 1efd 193e 0b61 0c3e 4d4d 6b3c b70c fc3d

fc2.bias f4 [128]
0.15301675 0.19896084 0.25933543 0.21345688 -0.015474377 0.05644396 0.09586817 -0.097539015
0.19616553 0.23291397 0.14830315 0.19039513 0.23520897 -0.020609539 0.21602939 -0.07263291
0.08249631 0.20813215 0.1935212 0.115674116 0.024697596 0.032379672 -0.025844429 -0.043106955
0.16516617 0.13678823 -0.019522302 -0.0120893605 -0.08518308 -0.05905236 0.21943945 0.20308049
-0.007957312 0.17150645 0.21510611 0.2073052 0.160064 0.05030594 -0.0938464 0.12402855
0.15866153 0.016437437 -0.014742932 0.020491714 -0.11244912 0.24022937 0.24244036 0.17260218
0.19351657 0.009300068 0.20718464 -0.048018977 0.061892025 0.26860997 0.0044825873 0.24446268
0.1439366 0.2273389 -0.03210162 0.04031953 -0.12375032 -0.015468095 0.15207167 0.04590468
0.24708188 0.024235848 0.014671334 0.13928932 0.19353911 0.13393968 0.20653915 -0.06506224
-0.021332951 0.2127677 -0.10128118 0.010245087 -0.0250238 0.20310189 -0.020504933 0.22545484
-0.017866874 0.09368638 -0.02067446 0.2539814 0.060407165 0.16475846 0.16013394 -0.0013453505
0.17476982 -0.041606102 0.060613517 -0.018433074 0.23796779 -0.07978567 0.05616257 -0.004934405
0.012490522 0.19898786 0.06665514 0.06167868 0.26449373 0.02969906 0.16165632 -0.019888617
0.16968954 0.22648661 0.23686332 0.19175793 0.18583728 0.02235059 0.13329086 0.1309582
-0.104733355 -0.019463338 -0.058187664 -0.027714562 0.19358452 -0.10168639 -0.03574007 0.065393776
0.039477535 0.1420124 0.23853618 0.24060775 0.009658953 0.17649978 -0.03403475 -0.08757807
00000000: 6cb0 1c3e 64bc 4b3e 9dc7 843e 7194 5a3e
00000010: 3e88 7dbc c831 673d 8856 c43d 89c2 c7bd
00000020: 9edf 483e 0081 6e3e c8dc 173e f1f6 423e
00000030: 9fda 703e 56d5 a8bc cf36 5d3e 90c0 94bd
00000040: d3f3 a83d 9820 553e 6c2a 463e 8de6 ec3d
00000050: 9d52 ca3c 8ca0 043d b2b7 d3bc eb90 30bd
00000060: 5221 293e 3712 0c3e 3ced 9fbc 7412 46bc
00000070: 7774 aebd e3e0 71bd bcb4 603e 55f4 4f3e
00000080: 635f 02bc 639f 2f3e c744 5c3e d047 543e
00000090: d1e7 233e 9a0d 4e3d 8b32 c0bd ae02 fe3d
000000a0: 2b78 223e cea7 863c 578c 71bc 3dde a73c
000000b0: b94b e6bd b0fe 753e 4942 783e a0be 303e
000000c0: 3529 463e 505f 183c 3628 543e 8caf 44bd
000000d0: 7e82 7d3d 3f87 893e abe2 923b 6d54 7a3e
000000e0: 1e64 133e 87cb 683e fd7c 03bd 1726 253d
000000f0: cf70 fdbd e56d 7dbc adb8 1b3e 8c06 3c3d
00000100: 0803 7d3e 428a c63c 0960 703c dca1 0e3e
00000110: 1e2f 463e 7c27 093e 007f 533e 5a3f 85bd
00000120: 71c2 aebc c7df 593e 826c cfbd 02db 273c
00000130: b6fe ccbc f1f9 4f3e f6f9 a7bc a2dd 663e
00000140: 8d5d 92bc a5de bf3d 7c5d a9bc da09 823e
00000150: 816d 773d 71b6 283e 27fa 233e 7956 b0ba
00000160: dcf6 323e 296b 2abd e145 783d f500 97bc
00000170: d4ad 733e ab66 a3bd b90a 663d cab0 a1bb
00000180: 0ca5 4c3c 79c3 4b3e 7d82 883d c9a2 7c3d
00000190: b96b 873e 714b f33c 3c89 253e 74ed a2bc
000001a0: 18c3 2d3e 1bec 673e 4c8c 723e 315c 443e
000001b0: 214c 3e3e 9618 b73c 667d 083e e819 063e
000001c0: 717e d6bd 9471 9fbc 3056 6ebd a609 e3bc
000001d0: 053b 463e f440 d0bd 2e64 12bd 2ced 853d
000001e0: 32b3 213d b36b 113e d442 743e e161 763e
000001f0: 9640 1e3c 5cbc 343e 0668 0bbd 225c b3bd

q1.weight f4 [1, 128]
0.17084254 0.20319231 0.18293129 0.22414944 -0.56087095 -0.41666365 0.20515224 -0.4139945
0.20644234 0.23593064 0.22836897 0.19572942 0.26573694 -0.05180238 0.25916556 -0.4248997
0.21209474 0.22081102 0.21700375 0.26713637 -0.5625778 -0.54356265 -0.29846972 -0.69864637
0.19515511 0.19789885 -0.51829046 -0.32295397 -0.053901713 -0.2568172 0.23367319 0.18139727
-0.42775732 0.24732451 0.22038683 0.22613563 0.21878457 -0.73802733 -0.51623464 0.16249426
0.1844699 -0.48721844 -0.5016508 -0.04424253 -0.25939834 0.241006 0.2009435 0.22167923
0.19842242 -0.5657582 0.1763056 -0.32626644 -0.39934176 0.25467402 -0.48087594 0.26868057
0.26809627 0.18792726 -0.011653054 -0.52771455 -0.6162963 -0.23998082 0.21983238 -0.3070056
0.24095851 -0.48511416 -0.07947379 0.21233147 0.23019017 0.18245128 0.296478 -0.40564233
-0.0047507994 0.22073866 -0.44732475 -0.63237524 -0.55955327 0.2351396 -0.5768889 0.18893035
-0.32273823 0.18112643 -0.5060039 0.21874593 -0.60099167 0.20549603 0.24201988 -0.37484616
0.21817105 -0.48618245 -0.5125073 -0.5952747 0.22148931 -0.5407561 -0.4985241 -0.37623218
-0.4505475 0.22857605 -0.535971 -0.50183165 0.24382213 -0.863454 0.20850797 -0.6846661
0.19116133 0.24235153 0.19060253 0.2124883 0.21782388 -0.35943824 0.23180237 0.21497294
-0.43443462 -0.46061853 -0.50302243 -0.6976312 0.22169173 -0.5148111 -0.41753775 -0.5562826
-0.3915835 0.2696615 0.28964788 0.25966397 -0.36923596 0.22846636 -0.39474148 -0.002483629
00000000: 59f1 2e3e a511 503e 5752 3b3e 6e87 653e
00000010: 3d95 0fbf f054 d5be 6e13 523e 16f7 d3be
00000020: 9f65 533e cd97 713e 8ed9 693e 4b6d 483e
00000030: ac0e 883e bb2e 54bd 59b1 843e 748c d9be
00000040: 5d2f 593e 491c 623e 3b36 5e3e 19c6 883e
00000050: 1905 10bf ec26 0bbf 06d1 98be 7dda 32bf
00000060: bed6 473e ffa5 4a3e afae 04bf 395a a5be
00000070: 0bc8 5cbd 8b7d 83be 0648 6f3e 35c0 393e
00000080: 0203 dbbe a342 7d3e 16ad 613e 1990 673e
00000090: 1009 603e 5cef 3cbf f427 04bf e564 263e
000000a0: ade5 3c3e b274 f9be 306c 00bf a837 35bd
000000b0: dccf 84be 47ca 763e 22c4 4d3e e1ff 623e
000000c0: 3f2f 4b3e 88d5 10bf 7589 343e 650c a7be
000000d0: 8676 ccbe a264 823e 5f35 f6be 8090 893e
000000e0: ea43 893e 0170 403e 73ec 3ebc 4d18 07bf
000000f0: 98c5 1dbf 88bd 75be bd1b 613e d72f 9dbe
00000100: d4bd 763e e260 f8be 28c3 a2bd 6c6d 593e
00000110: f9b6 6b3e 82d4 3a3e f7cb 973e 5ab0 cfbe
00000120: 98ac 9bbb 5109 623e c007 e5be 58e3 21bf
00000130: e23e 0fbf 6fc8 703e feae 13bf f576 413e
00000140: f23d a5be 3579 393e 7989 01bf effe 5f3e
00000150: 97da 19bf 8d6d 523e 0fd4 773e d6eb bfbe
00000160: 3b68 5f3e e8ec f8be ae33 03bf ec63 18bf
00000170: 18ce 623e fe6e 0abf 8d3e ffbe 81a1 c0be
00000180: 29ae e6be d70f 6a3e 6535 09bf 0a78 00bf
00000190: 82ac 793e 520b 5dbf 1d83 553e 4746 2fbf
000001a0: ccbf 433e 002b 783e 4f2d 433e 8896 593e
000001b0: 390d 5f3e 4a08 b8be 9a5d 6d3e de21 5c3e
000001c0: 376e debe 31d6 ebbe 14c6 00bf f597 32bf
000001d0: 2803 633e a9ca 03bf 82c7 d5be 8968 0ebf
000001e0: a27d c8be 1211 8a3e ba4c 943e adf2 843e
000001f0: 7f0c bdbe 16f3 693e 8e1b cabe 61c4 22bb

fc3.weight f4 [128, 17]
0.22448218 -0.17411445 0.09001762 0.013998131 0.12426454 0.01687745 -0.2224413 -0.2772438
0.07583267 -0.039763246 -0.07238177 0.1541772 0.08061927 -0.13321663 -0.0920329 -0.07268024
0.15471846 -0.101452366 0.05414774 -0.2209343 -0.027794378 0.113640405 0.16961451 -0.31865358
0.06812195 0.20375024 0.060887266 0.27582538 -0.13484092 -0.026066786 -0.33992195 -0.0823663
-0.07189386 -0.15648372 -0.08064554 0.25323975 0.19095163 0.10826734 0.172299 -0.17192332
0.2999153 -0.23018652 0.17214905 0.06085915 0.1162227 0.021172768 0.40161055 -0.050828233
-0.31263605 -0.17088711 -0.17061846 0.299648 0.22608314 -0.011244992 -0.09640925 0.044625722
0.09457661 0.10144759 -0.09833066 0.039287753 0.15385929 0.20361654 0.09943216 0.027433928
-0.11257429 -0.2859668 0.11137075 0.15137587 -0.19934472 -0.143683 -0.23429166 0.20369974
0.13926274 -0.19785601 0.10403515 -0.025765128 -0.1105864 0.03175268 -0.1752651 0.19176148
-0.2194832 0.15379322 -0.19659339 -0.28014752 -0.28067452 -0.20436974 -0.06952886 -0.19520889
0.0759116 -0.042239424 -0.112408236 -0.05569047 -0.21552506 0.08893859 0.052436683 0.1989716
0.15541008 -0.28835046 -0.096878804 -0.25414103 0.3497903 -0.036222342 0.0133084105 -0.083199725
0.1147586 -0.08226234 -0.026585696 0.15478411 -0.36572334 0.13285422 0.22661729 -0.06394306
0.31752875 -0.25940123 -0.22511299 -0.20317967 0.027975718 0.05584082 -0.08685886 0.304117
0.21745773 0.1560337 -0.11629736 -0.07966582 0.1886447 -0.07917395 -0.05328428 0.044527587
0.03331254 0.06273803 0.24887307 0.2371432 0.091394335 -0.20792194 0.30417266 0.19719505
-0.12639682 -0.09157499 -0.041993704 0.07699459 0.25723103 0.23450103 -0.10685081 -0.13975288
0.06879182 -0.06887313 -0.04063465 0.08129447 -0.2525932 -0.25686324 -0.25699183 -0.1868246
0.046143547 -0.25145254 0.02391925 -0.21113482 -0.0010419352 0.040009905 0.21178372 -0.099000484
-0.29385212 -0.14925636 0.17598991 -0.060977545 0.12071845 -0.074442774 0.04279579 0.041248664
-0.033059895 0.14215872 0.06681068 -0.22514543 0.40975347 0.12802936 -0.098623514 -0.15462025
0.066579 -0.22265975 -0.0193504 0.17430432 -0.15227683 -0.06154728 -0.071541674 0.1942145
-0.12985156 -0.3058852 -0.26066107 -6.224804e-05 0.16679427 -0.20383528 -0.036845975 -0.06755349
-0.17910208 0.17703003 -0.33688766 0.16427085 0.10061398 0.06629468 0.12552576 0.19545276
-0.023674408 0.14267103 0.048493292 -0.17392232 0.20830454 0.18889989 0.12935682 0.11419293
0.03618583 0.26502675 -0.16192234 -0.057970297 0.021736903 -0.2508909 -0.13143592 -0.05681762
0.28431708 -0.107575946 0.13434137 0.27218294 -0.22169206 0.06302315 -0.11535746 0.22400025
-0.12158664 -0.20707472 -0.12431969 -0.092217505 -0.25344023 0.106600575 -0.022218313 -0.19928782
-0.32306692 0.13044 -0.115666695 -0.027365856 -0.25328037 0.25650236 0.05284456 0.01940058
0.040616017 0.2044635 -0.09505002 -0.0781507 -0.19221991 0.11071998 0.2112314 0.00897991
-0.16793595 0.23020412 0.15770486 0.14605129 0.43406546 0.22371559 0.24500282 0.16737226
00000000: a8de 653e 0f4b 32be 285b b83d 6b58 653c
00000010: 687e fe3d 9442 8a3c a7c7 63be e6f2 8dbe
00000020: 294e 9b3d c9de 22bd e53c 94bd a1e0 1d3e
00000030: b71b a53d f169 08be bf7b bcbd 61d9 94bd
00000040: 846e 1e3e 42c6 cfbd 05ca 5d3d 9a3c 62be
00000050: 09b1 e3bc 4dbc e83d 6daf 2d3e 9026 a3be
00000060: 8583 8b3d e7a3 503e ed64 793d fc38 8d3e
00000070: bd13 0abe 038a d5bc 400a aebe aaaf a8bd
00000080: 173d 93bd 453d 20be 7d29 a5bd a4a8 813e
00000090: d388 433e 44bb dd3d 266f 303e ab0c 30be
000000a0: 808e 993e 04b6 6bbe d747 303e 7247 793d
000000b0: 2b06 ee3d 8372 ad3c e69f cd3e 4431 50bd
000000c0: d511 a0be 08fd 2ebe 9bb6 2ebe 766b 993e
000000d0: 5782 673e ea3c 38bc 3672 c5bd 76c9 363d
000000e0: 62b1 c13d c1c3 cf3d 9661 c9bd 32ec 203d
000000f0: 4a8d 1d3e db80 503e 17a3 cb3d 1ebd e03c
00000100: 598d e6bd 3e6a 92be 5916 e43d 4702 1b3e
00000110: 0621 4cbe a321 13be 27ea 6fbe aa96 503e
00000120: e49a 0e3e c49a 4abe 6110 d53d 6411 d3bc
00000130: 1f7b e2bd 190f 023d b278 33be 1f5d 443e
00000140: 34c0 60be f87b 1d3e c74f 49be 7f6f 8fbe
00000150: 92b4 8fbe 4d46 51be 2665 8ebd d7e4 47be
00000160: 8a77 9b3d 3f03 2dbd 4a36 e6bd b11b 64bd
00000170: 9ab2 5cbe 6f25 b63d d9c7 563d 36bf 4b3e
00000180: d223 1f3e aca2 93be 6568 c6bd c61e 82be
00000190: b717 b33e e15d 14bd 850b 5a3c 9e64 aabd
000001a0: 8f06 eb3d 2879 a8bd 3fca d9bc ba7f 1e3e
000001b0: 1740 bbbe f00a 083e 5d0e 683e 94f4 82bd
000001c0: 2193 a23e 3dd0 84be 0584 66be 550e 50be
000001d0: 552d e53c 58b9 643d 0fe3 b1bd 39b5 9b3e
000001e0: 3dad 5e3e 4cc7 1f3e 4f2d eebd d527 a3bd
000001f0: 142c 413e f425 a2bd 9e40 5abd 8f62 363d
00000200: bb72 083d cc7c 803d 95d8 7e3e abd5 723e
00000210: f42c bb3d 7de9 54be 85bc 9b3e 80ed 493e
00000220: 2b6e 01be ab8b bbbd 9701 2cbd 57af 9d3d
00000230: c9b3 833e 0a21 703e 99d4 dabd 611b 0fbe
00000240: bae2 8c3d 5b0d 8dbd 8570 26bd b77d a63d
00000250: e553 81be 9483 83be 6f94 83be f34e 3fbe
00000260: 0401 3d3d 63be 80be 4ef2 c33c ba33 58be
00000270: 8b91 88ba 6de1 233d d5dd 583e c4c0 cabd
00000280: c973 96be a9d6 18be b336 343e 97c3 79bd
00000290: 3c3b f73d 7475 98bd a34a 2f3d 5cf4 283d
000002a0: d069 07bd 0e92 113e 0ad4 883d 868c 66be
000002b0: 35cb d13e 211a 033e 20fb c9bd c554 1ebe
000002c0: 925a 883d eb00 64be bb84 9ebc d57c 323e
000002d0: 75ee 1bbe 0019 7cbd 7184 92bd 2ae0 463e
000002e0: cff7 04be fc9c 9cbe 5e75 85be 298b 82b8
000002f0: 1ecc 2a3e 32ba 50be ceeb 16bd 7c59 8abd
00000300: 8966 37be 5c47 353e 8a7c acbe 9e36 283e
00000310: b40e ce3d 81c5 873d d389 003e c524 483e
00000320: d5f0 c1bc 5b18 123e e7a0 463d b118 32be
00000330: c94d 553e f96e 413e 1d76 043e fcdd e93d
00000340: 9837 143d 96b1 873e f8ce 25be 4372 6dbd
00000350: 9711 b23c c674 80be 2397 06be 98b9 68bd
00000360: 0292 913e c750 dcbd c990 093e 905b 8b3e
00000370: 3e03 63be 4812 813d 8840 ecbd 5260 653e
00000380: 6b02 f9bd 650b 54be 529b febd 88dc bcbd
00000390: ebc2 81be 6751 da3d 2e03 b6bc 1b12 4cbe
000003a0: 0769 a5be 1092 053e a9e2 ecbd 5c2e e0bc
000003b0: f7ad 81be 4754 833e 8a73 583d f7ed 9e3c
000003c0: fb5c 263d e15e 513e 96a9 c2bd 790d a0bd
000003d0: 4cd5 44be 28c1 e23d 0b4d 583e 7920 133c
000003e0: 67f7 2bbe a1ba 6b3e 627d 213e 788e 153e
000003f0: d43d de3e b315 653e 05e2 7a3e a263 2b3e

fc3.bias f4 [128]
0.25229603 0.13128303 -0.15109913 -0.11137843 0.21413901 0.3436575 0.3815412 0.10832966
-0.10786816 0.26414463 -0.011065059 0.28477862 -0.10141596 0.34927505 -0.23059976 -0.19430493
-0.19012529 -0.10822209 -0.1583765 0.4512273 0.029070405 0.3755158 -0.22876742 -0.23445664
0.13482912 0.2172731 0.392228 -0.20123878 0.3245312 -0.22846921 0.0770767 -0.18921635
0.20867264 0.33783093 0.1494343 0.118107796 0.03006715 -0.26118457 0.19797806 0.12075539
-0.14040346 -0.21808422 0.26564085 0.4911866 0.3210215 0.32836932 -0.22970216 -0.13304125
-0.17402007 0.08600249 0.31187716 -0.21638879 0.02255795 0.03603343 0.30042708 -0.21950915
-0.2320736 -0.13898441 0.3063609 -0.19991799 0.33712128 0.07839135 -0.11615654 0.36019763
0.014623218 -0.14387073 -0.07871218 0.114635095 -0.011947721 0.26116985 -0.19835125 -0.1751987
0.33889702 -0.34256577 -0.3507851 0.34276664 0.34321314 -0.2256369 0.29469323 -0.24768196
-0.12247697 0.37513885 0.15337196 0.3030368 -0.20391417 0.45298037 0.37384546 -0.15959655
-0.11675682 0.16292354 0.1978541 0.4017381 -0.13291766 -0.11685111 0.18703178 0.103976026
-0.04610629 0.32504487 0.2666337 -0.14527078 0.12725717 0.48437026 -0.051737968 -0.26577893
0.31945196 0.059447147 0.31292313 -0.010400793 0.0076506846 -0.21562254 0.34284058 -0.052416574
-0.17868051 0.45470998 0.36273524 0.30840912 0.34927726 0.009607968 -0.009236907 -0.30212915
0.2768385 0.41810763 0.17830504 0.09671156 0.38422966 -0.07323883 0.27617353 -0.11957186
00000000: f22c 813e 0f6f 063e bbb9 1abe 601a e4bd
00000010: 4247 5b3e e0f3 af3e 5e59 c33e f1db dd3d
00000020: fbe9 dcbd f73d 873e 394a 35bc 81ce 913e
00000030: 2cb3 cfbd 2ed4 b23e 5822 6cbe dff7 46be
00000040: 34b0 42be 8ba3 ddbd 732d 22be 4407 e73e
00000050: 0f25 ee3c 9b43 c03e 0242 6abe 6715 70be
00000060: a510 0a3e d77c 5e3e 1cd2 c83e 8a11 4ebe
00000070: f428 a63e d5f3 69be 64da 9d3d eec1 41be
00000080: 48ae 553e 2df8 ac3e 4e05 193e 80e2 f13d
00000090: 624f f63c fcb9 85be c3ba 4a3e 9a4e f73d
000000a0: edc5 0fbe 7851 5fbe 1402 883e cf7c fb3e
000000b0: ee5c a43e 0620 a83e 0b37 6bbe f73b 08be
000000c0: 5132 32be 1322 b03d 5dae 9f3e 0695 5dbe
000000d0: 73cb b83c ca97 133d 94d1 993e 02c7 60be
000000e0: b4a4 6dbe ee51 0ebe 56db 9c3e 4db7 4cbe
000000f0: 299b ac3e a58b a03d 7be3 edbd d36b b83e
00000100: 3996 6f3c d952 13be da33 a1bd cec5 ea3d
00000110: 60c0 43bc 0eb8 853e 971c 4bbe 4a67 33be
00000120: e983 ad3e c864 afbe 1b9a b3be 1c7f af3e
00000130: a2b9 af3e 5c0d 67be 08e2 963e 57a0 7dbe
00000140: 35d5 fabd 3312 c03e 8a0d 1d3e a427 9b3e
00000150: e0ce 50be 0bed e73e ac68 bf3e 476d 23be
00000160: 331e efbd 6ed5 263e 449a 4a3e 9eb0 cd3e
00000170: 911b 08be a24f efbd 4285 3f3e 62f1 d43d
00000180: f3d9 3cbd 486c a63e 3684 883e ddc1 14be
00000190: b44f 023e 61ff f73e 31eb 53bd 2d14 88be
000001a0: 358f a33e da7e 733d 7637 a03e 1668 2abc
000001b0: 98b2 fa3b 28cc 5cbe cd88 af3e c3b2 56bd
000001c0: 06f8 36be bfcf e83e 6fb8 b93e cde7 9d3e
000001d0: 78d4 b23e bd6a 1d3c 6556 17bc acb0 9abe
000001e0: c7bd 8d3e 3412 d63e 9995 363e b610 c63d
000001f0: c0b9 c43e 3dfe 95bd 9e66 8d3e 17e2 f4bd

fc4.weight f4 [128, 128]
0.1294953 0.1578236 -0.058715783 0.074669816 0.085005276 0.20522554 0.10042228 0.14209865
0.0063909725 0.24450982 0.15222521 0.21308976 -0.07002223 0.2718429 -0.023018977 0.012433387
0.12602352 -0.14153723 0.1666326 0.24104413 0.059931953 0.16543116 -0.122042604 0.009637677
0.0118941665 0.14833444 0.10260093 0.12400888 0.16958223 -0.15751183 -0.0073531265 0.018847352
0.058730904 0.18879637 0.04016303 0.084375374 -0.1512178 0.079346254 0.1378561 0.060614433
-0.118342265 0.15186521 0.07571899 0.27642676 0.31663933 0.18189381 0.021618739 -0.14166908
-0.10352643 0.21353365 0.16052787 -0.1430788 -0.009904622 0.043444294 0.17963111 -0.022357583
-0.15129322 -0.13048433 0.21619187 -0.11642651 0.098355584 0.17311022 -0.11704775 0.18601994
0.009467981 0.016617253 -0.019628366 0.1829887 0.15170167 0.07183205 0.15813436 0.061694972
0.20285802 -0.1537025 -0.22196643 0.08111708 0.122316875 0.1603488 0.08127122 -0.16444097
-0.12151599 0.10862559 0.0583194 0.056236874 0.08667747 0.22478539 0.2393942 -0.11866904
-0.0011275405 0.21141252 0.14677079 0.18411498 0.07903649 0.032020535 -0.0001987051 0.07442272
0.06912799 0.088371694 0.112565085 0.13546455 0.048092652 0.13018787 0.17060357 -0.12929974
0.09637167 0.18366563 0.041822553 0.020954479 -0.08742264 -0.15997769 0.0631012 -0.109604865
-0.038481206 0.28888068 0.07848307 0.13716407 0.25572738 0.14870185 0.19905373 -0.26841554
0.20277125 0.14514004 0.09657403 0.09808667 0.2132563 0.073468104 0.27980176 -0.022906683
0.12748605 0.007252434 -0.100624375 0.053356823 0.13490437 0.15031713 0.12212534 0.101215266
-0.12556924 0.16624117 0.16219322 0.1842061 -0.025634985 0.29368746 0.037235226 -0.01693542
-0.01490704 -0.07786863 0.14993653 0.19106765 0.07681065 0.24279362 -0.010275548 -0.05483254
0.08943441 0.01550476 0.087457776 0.18962245 0.10463243 -0.09331667 0.0068901614 0.053313036
0.13370429 0.19638443 0.015646651 0.03945491 -0.15781033 0.0129364 0.11777199 0.11455731
-0.15014778 -0.007288209 0.19129136 0.211809 0.27442458 0.11737059 0.018175539 -0.2524039
-0.12450429 0.0869818 0.16565709 -0.005711506 -0.026768908 0.14190196 0.034915753 -0.029544951
-0.20214689 -0.16366164 0.21688478 -0.115132496 0.07205074 0.16356604 -0.10981367 0.021437488
0.023690665 -0.11485252 -0.026453137 0.08240566 0.051156096 0.092535965 0.07972129 0.13208738
0.14941548 -0.18149242 -0.25442263 0.030741272 0.115085684 0.11672485 0.1243967 -0.07602828
-0.07066184 0.043434884 0.12479994 0.12455542 0.07729431 0.11673986 0.28193215 -0.07928231
0.10603729 0.08934336 0.080499195 0.08031378 0.06207193 0.071753554 0.14054959 0.09961441
0.13459557 0.20455478 0.13978975 0.1448165 0.023698589 0.09925891 0.12852176 -0.08807547
0.1559331 0.14834087 0.013024263 0.089632526 -0.0830589 -0.08835008 0.00848255 0.051883955
-0.03383496 0.26357308 0.18848895 0.16360195 0.19244821 0.052198287 0.04784927 -0.20371337
0.18836133 0.13730875 0.13051331 0.11515028 0.11147954 -0.043032993 0.14812623 0.09040015
00000000: 6a9a 043e 839c 213e f67f 70bd 7dec 983d
00000010: 3f17 ae3d a526 523e 32aa cd3d 4f82 113e
00000020: 5d6b d13b c860 7a3e ede0 1b3e 3434 5a3e
00000030: d167 8fbd fe2e 8b3e 4b92 bcbc 68b5 4b3c
00000040: 4f0c 013e 23ef 10be bca1 2a3e 46d4 763e
00000050: 357b 753d c966 293e 79f1 f9bd 59e7 1d3c
00000060: c0df 423c fce4 173e 7020 d23d 5ef8 fd3d
00000070: f7a6 2d3e c84a 21be 7ff2 f0bb c365 9a3c
00000080: d18f 703d d653 413e fd81 243d ffcc ac3d
00000090: d7d8 1abe 4a80 a23d 262a 0d3e d746 783d
000000a0: 6e5d f2bd 8e82 1b3e 8f12 9b3d cf87 8d3e
000000b0: 8d1e a23e 5f42 3a3e c819 b13c b311 11be
000000c0: aa05 d4bd 91a8 5a3e 6b61 243e 4083 12be
000000d0: ff46 22bc a5f2 313d 38f1 373e 4027 b7bc
000000e0: 9cec 1abe af9d 05be 6761 5d3e 0671 eebd
000000f0: a76e c93d ce43 313e bbb6 efbd 037c 3e3e
00000100: 971f 1b3c e820 883c abcb a0bc 6461 3b3e
00000110: af57 1b3e af1c 933d f9ed 213e deb3 7c3d
00000120: 03ba 4f3e 3064 1dbe 2b4b 63be b620 a63d
00000130: 4581 fa3d 7a32 243e 8771 a63d 3763 28be
00000140: 60dd f8bd 1877 de3d 53e0 6e3d a358 663d
00000150: f583 b13d 242e 663e c123 753e c108 f3bd
00000160: fbc9 93ba 867c 583e 154b 163e a388 3c3e
00000170: e2dd a13d f727 033d 7e5b 50b9 f06a 983d
00000180: fa92 8d3d 38fc b43d 8688 e63d 38b7 0a3e
00000190: cdfc 443d f84f 053e b4b2 2e3e 2767 04be
000001a0: 835e c53d d812 3c3e 204e 2b3d baa8 ab3c
000001b0: a40a b3bd 31d1 23be 343b 813d 8478 e0bd
000001c0: 789e 1dbd 2be8 933e bbbb a03d bd74 0c3e
000001d0: b3ee 823e 4c45 183e bed4 4b3e c36d 89be
000001e0: 44a3 4f3e 979f 143e 9bc8 c53d aae1 c83d
000001f0: dc5f 5a3e 7276 963d 2d42 8f3e cca6 bbbc
00000200: b48b 023e d3a5 ed3b 2714 cebd af8c 5a3d
00000210: 5f24 0a3e bcec 193e da1c fa3d f349 cf3d
00000220: 3995 00be 203b 2a3e fb15 263e 86a0 3c3e
00000230: 7600 d2bc 345e 963e f783 183d 26bc 8abc
00000240: a83c 74bc 9779 9fbd f688 193e 3da7 433e
00000250: e74e 9d3d e49e 783e c65a 28bc 1698 60bd
00000260: 6329 b73d ad07 7e3c 101d b33d 632c 423e
00000270: 8749 d63d cf1c bfbd ddc6 e13b c55e 5a3d
00000280: c7e9 083e 0019 493e 682d 803c 799b 213d
00000290: 0899 21be 32f3 533c 7132 f13d 069d ea3d
000002a0: 57c0 19be eed1 eebb e2e1 433e 75e4 583e
000002b0: 6181 8c3e fe5f f03d dee4 943c 153b 81be
000002c0: 1bfc febd 8423 b23d 03a2 293e 9627 bbbb
000002d0: 784a dbbc bf4e 113e d203 0f3d 4108 f2bc
000002e0: 98ff 4ebe eb96 27be 0b17 5e3e 96ca ebbd
000002f0: 578f 933d db7d 273e fde5 e0bd ac9d af3c
00000300: ed12 c23c cc37 ebbd 40b4 d8bc 4cc4 a83d
00000310: 0e89 513d 7f83 bd3d ea44 a33d ea41 073e
00000320: 5f00 193e 26d9 39be af43 82be 1fd5 fb3c
00000330: 0bb2 eb3d 700d ef3d b2c3 fe3d b7b4 9bbd
00000340: 28b7 90bd c7e8 313d 1c97 ff3d e916 ff3d
00000350: 7b4c 9e3d 4f15 ef3d 6959 903e c45e a2bd
00000360: 142a d93d a7f9 b63d c3dc a43d 8d7b a43d
00000370: 233f 7e3d 87f3 923d 3bec 0f3e a402 cc3d
00000380: 6cd3 093e cf76 513e 0b25 0f3e c74a 143e
00000390: 8b23 c23c 4148 cb3d 359b 033e e960 b4bd
000003a0: edac 1f3e abe6 173e b863 553c 4291 b73d
000003b0: c91a aabd e3f0 b4bd 65fa 0a3c 4584 543d
000003c0: 8796 0abd 0df3 863e 3f03 413e 4587 273e
000003d0: 2511 453e dfcd 553d 99fd 433d 3d9a 50be
000003e0: cbe1 403e aa9a 0c3e 48a5 053e e9d3 eb3d
000003f0: 634f e43d 5d43 30bd 67ae 173e b723 b93d

fc4.bias f4 [128]
0.18550907 0.100501046 0.26239315 -0.037927117 0.013043986 0.042791195 0.19373384 0.2344459
0.031814974 0.2224904 0.21749544 0.037783626 0.2300025 0.07028502 0.014045617 0.25899845
-0.027148811 0.1858778 0.13720186 0.23326217 0.11401846 0.05831096 0.3113704 -0.039964363
0.22219801 0.15200387 0.06854444 0.27912465 -0.14008515 0.2655972 -0.08940595 0.2057366
-0.08506759 -0.07958734 -0.053819716 0.24613255 0.05075951 -0.033713195 -0.12053494 0.061637096
0.2475885 0.25185874 -0.024215452 0.16380686 0.1715279 -0.10675901 -0.04779642 0.16449694
0.24605411 0.24139625 -0.057660688 0.19289136 -0.097152986 0.16295068 0.12165683 -0.010289218
0.07892713 0.07079917 0.20173416 0.046808388 0.31114286 -0.0022659602 0.26067495 -0.107920036
0.007982443 -0.08223467 0.21184278 -0.044302545 -0.02073153 0.1911765 -0.09169164 0.21061319
0.24159884 0.056678027 -0.05700291 0.22198492 0.24230048 0.18668461 -0.03229227 0.036324106
0.09470561 -0.019863928 0.24184419 0.17721215 0.007076894 0.20716837 0.21048737 0.03450539
-0.07070965 0.19269533 0.20655279 -0.019020783 -0.042185307 0.19106098 0.2874546 -0.09108163
-0.034256097 -0.05756681 0.071575254 0.11775699 0.17468028 -0.060475737 -0.046649653 0.19812083
0.14131644 0.25585118 0.14578733 -0.071306184 -0.07212076 0.2499569 -0.104732856 -0.10464344
0.19317327 0.27960733 0.1609886 -0.005112219 0.06448147 0.15355651 -0.07226606 0.15576854
0.11970106 0.023817996 -0.07571995 0.0747935 0.21119039 0.18134053 0.24514781 0.21327715
00000000: 17f6 3d3e 7ed3 cd3d 6558 863e 7759 1bbd
00000010: 71b6 553c d245 2f3d 2a62 463e 9612 703e
00000020: 6b50 023d 86d4 633e 20b7 5e3e 01c3 1a3d
00000030: c685 6b3e 98f1 8f3d 961f 663c 729b 843e
00000040: 2f67 debc c056 3e3e a57e 0c3e 47dc 6e3e
00000050: 8382 e93d 79d7 6e3d f16b 9f3e acb1 23bd
00000060: e087 633e e7a6 1b3e 0761 8c3d 6de9 8e3e
00000070: 7b72 0fbe 5bfc 873e 771a b7bd 9eac 523e
00000080: eb37 aebd b0fe a2bd 1072 5cbd 2c0a 7c3e
00000090: 34e9 4f3d d916 0abd 06db f6bd 2e77 7c3d
000000a0: d787 7d3e a1f3 803e 7c5f c6bc fcbc 273e
000000b0: 03a5 2f3e 78a4 dabd 2ec6 43bd e371 283e
000000c0: 9cf5 7b3e 9430 773e 9d2d 6cbd 5085 453e
000000d0: 25f8 c6bd 8bdc 263e 3727 f93d 1c94 28bc
000000e0: 8ca4 a13d 28ff 903d 6693 4e3e 27ba 3f3d
000000f0: 1e4e 9f3e 8180 14bb 3077 853e 2e05 ddbd
00000100: cbc8 023c a76a a8bd 50ed 583e 9676 35bd
00000110: 2bd5 a9bc c6c3 433e d4c8 bbbd fcaa 573e
00000120: b065 773e 3827 683d e27b 69bd 0450 633e
00000130: 9e1d 783e 402a 3f3e e644 04bd 96c8 143d
00000140: 04f5 c13d adb9 a2bc 01a6 773e 1a77 353e
00000150: 4ae5 e73b f223 543e 008a 573e 8655 0d3d
00000160: 39d0 90bd ed51 453e 9382 533e 79d1 9bbc
00000170: 80ca 2cbd 7da5 433e 402d 933e 0189 babd
00000180: 1f50 0cbd 2dcb 6bbd 0c96 923d 942a f13d
00000190: 63df 323e 68b5 77bd b513 3fbd 30e0 4a3e
000001a0: 42b5 103e edfe 823e 4649 153e fa08 92bd
000001b0: 0db4 93bd b4f4 7f3e 2e7e d6bd 4d4f d6bd
000001c0: 37cf 453e b128 8f3e 32da 243e 6784 a7bb
000001d0: dc0e 843d eb3d 1d3e 3a00 94bd ca81 1f3e
000001e0: d425 f53d f51d c33c 1013 9bbd 562d 993d
000001f0: 4b42 583e 55b1 393e 0708 7b3e 5365 5a3e

q2.weight f4 [1, 128]
0.21614097 0.2560131 0.23691714 -0.4476458 -0.40638414 -0.44014344 0.21657912 0.21822001
-0.5167616 0.23198286 0.1851536 -0.5096319 0.17256522 -0.53503025 -0.4399503 0.21011856
-0.4657986 0.26542768 0.19250855 0.1691812 0.22253896 -0.026403517 0.2824703 -0.45085695
0.23239097 0.24753045 -0.53869605 0.2427842 -0.6101549 0.18619902 0.08291073 0.30924457
-0.43143868 -0.4345801 -0.3969693 0.2424611 -0.73581535 -0.43366387 -0.7836338 -0.7958382
0.2605071 0.21447626 0.039545067 0.24528605 0.22054365 -0.2727767 -0.4505752 0.28606823
0.22456825 0.30616915 -0.4072705 0.28146157 -0.14379555 0.16986951 0.23850116 -0.6914676
-0.79528356 -0.568754 0.26194948 -0.5027739 0.24292967 -0.47952077 0.26722705 -0.37054226
-0.6434852 -0.22558656 0.21385735 -0.42095447 -0.5008472 0.26884988 0.06943972 0.2345278
0.23726623 -0.45268413 -0.5362185 0.2110922 0.21557024 0.22939909 -0.04147332 -0.073531106
0.25061476 -0.6178416 0.23169772 0.22279431 -0.5231291 0.21077712 0.2331037 -0.45202985
-0.18362308 0.24537672 0.3199931 -0.66225415 -0.73495996 0.21029665 0.20817693 -0.27288562
-0.4714772 0.57402694 -0.5219081 0.1983108 0.2784135 -0.38329595 -0.26964495 0.19576785
0.21343178 0.21924503 0.23652136 -0.42346558 -0.5737444 0.23861006 -0.49371213 -0.24375825
0.24667476 0.16971684 0.31535402 -0.3122813 -0.6454866 0.237226 -0.902141 0.25748354
0.19782564 -0.4210544 -0.34821847 -0.030972933 0.18702169 0.20037654 0.20223211 0.25711796
00000000: 0f54 5d3e 2614 833e 689a 723e d531 e5be
00000010: 9511 d0be 7b5a e1be ebc6 5d3e 1175 5f3e
00000020: 7d4a 04bf ea8c 6d3e e898 3d3e 3c77 02bf
00000030: f0b4 303e bef7 08bf 2a41 e1be 5229 573e
00000040: 277d eebe 23e6 873e f620 453e d63d 2d3e
00000050: 41e1 633e 304c d8bc f29f 903e b9d6 e6be
00000060: e6f7 6d3e 9f78 7d3e fce7 09bf 6c9c 783e
00000070: 1d33 1cbf f5aa 3e3e 1acd a93d 4e55 9e3e
00000080: 88e5 dcbe 4881 debe 8f3f cbbe b947 783e
00000090: 655e 3cbf 3109 debe 3a9c 48bf 0dbc 4bbf
000000a0: 3061 853e aa9f 5b3e 02fa 213d 442c 7b3e
000000b0: 32d6 613e 63a9 8bbe cbb1 e6be 8977 923e
000000c0: 38f5 653e 34c2 9c3e c285 d0be bb1b 903e
000000d0: 243f 13be 46f2 2d3e a639 743e 0504 31bf
000000e0: b497 4bbf dd99 11bf 3e1e 863e cab5 00bf
000000f0: 8ec2 783e bf83 f5be fcd1 883e b7b7 bdbe
00000100: 72bb 24bf 2a00 67be 6cfd 5a3e 5887 d7be
00000110: 8637 00bf b1a6 893e 6936 8e3d 0e28 703e
00000120: ebf5 723e 37c6 e7be 9e45 09bf 8e28 583e
00000130: 72be 5c3e 98e7 6a3e eedf 29bd 7a97 96bd
00000140: 9450 803e de2a 1ebf 2b42 6d3e 3124 643e
00000150: caeb 05bf f5d5 573e bdb2 6e3e 7570 e7be
00000160: b007 3cbe 0944 7b3e 23d6 a33e 7d89 29bf
00000170: 5626 3cbf 0158 573e 552c 553e aab7 8bbe
00000180: 7665 f1be 6ef3 123f c59b 05bf fd11 4b3e
00000190: 378c 8e3e 5e3f c4be e70e 8abe 5e77 483e
000001a0: dc8d 5a3e c581 603e a832 723e 7bd0 d8be
000001b0: eae0 12bf 3256 743e d6c7 fcbe c39b 79be
000001c0: 4f98 7c3e 40ca 2d3e 1576 a13e 56e3 9fbe
000001d0: 9c3e 25bf 5feb 723e b6f2 66bf e2d4 833e
000001e0: ce92 4a3e 7194 d7be b149 b2be f3ba fdbc
000001f0: 9d82 3f3e 822f 4d3e ef15 4f3e f7a4 833e
