resource/models/with_gt_critic_15000.pth (torch, 155511 bytes, 10 tensors)

fc1.weight f4 [128, 17]
-0.044664845 0.2172683 -0.38430703 0.07095538 0.1365135 -0.18203948 0.2833842 0.110078715
-0.1208777 -0.045822147 -0.055569496 -0.23252353 -0.23401162 0.13978593 0.12621303 -0.0048554065
0.18836233 -0.118773796 -0.103856504 -0.24362579 0.107107386 0.11095179 -0.1828508 -0.020564105
0.18652643 -0.054649986 0.016108466 -0.04724626 0.19002403 -0.037011597 0.32516578 -0.025345732
0.14059713 -0.111961775 -0.18422577 -0.056247458 -0.1610622 -0.07601156 -0.16380057 -0.09192203
-0.019505875 0.05555479 0.10255603 -0.23301971 -0.26014137 0.16913986 0.042514905 -0.12573269
-0.070724875 0.08183658 0.08002197 0.031539038 -0.09449053 0.29011065 -0.21914741 0.12428757
0.20869364 -0.4925709 -0.18630193 0.13309243 0.23968387 0.09623519 -0.17900392 -0.17613876
-0.17791136 -0.28169385 -0.0077546733 0.10096581 -0.28912252 0.057863507 0.019945977 0.035837937
-0.20848121 -0.17143355 -0.26229253 -0.05395083 -0.2301166 -0.06564737 0.27231047 0.32346305
-0.260627 -0.111099385 -0.095417194 -0.051165495 -0.03710431 0.22204776 -0.053492315 0.4840497
-0.032133427 -0.21633936 -0.32339162 0.207296 -0.17663884 0.016724521 0.040073346 0.07364697
0.08746097 -0.07598194 0.13151538 0.3682196 0.28112602 0.1266722 -0.22665939 -0.124361165
0.18098289 -0.10630319 -0.2148121 0.09738787 -0.3573894 0.054044455 -0.09690812 0.20896669
0.03927333 0.12729844 -0.07978091 -0.23157537 0.1823728 0.26860863 -0.018007139 0.18804094
-0.14921841 -0.16710117 -0.084823884 -0.1841638 -0.39022797 0.17321742 -0.027389538 -0.13544348
-0.17889737 -0.16978301 -0.1298769 0.07857841 0.29680866 -0.19395134 0.24681841 -0.17041868
0.14115413 -0.124829076 0.038951464 0.08626825 0.09397848 -0.09306371 -0.013421906 -0.060078643
0.26786116 0.16561967 0.14711118 -0.15150943 0.033023965 0.07013403 0.17551632 0.18234858
0.028864427 0.2811193 0.22518517 -0.18454842 0.26278985 0.18341279 -0.014458062 0.01171273
-0.15439188 -0.13902093 -0.17399426 -0.22449465 0.16384648 0.10777749 0.14960454 0.2406178
0.25072607 -0.044205558 -0.008265263 0.051265046 0.23423041 -0.10722487 0.060366407 0.08550084
-0.044500906 -0.041824874 0.018477626 -0.18497609 0.11080706 -0.3062944 -0.28473264 0.30961132
-0.25244 0.24336495 0.08209652 0.20051034 0.18407317 -0.07213787 -0.20381306 0.14560753
-0.044093642 -0.52727085 0.12687103 0.040169086 -0.06162089 0.43851632 -0.043951962 -0.0044211065
-0.016533162 -0.24606895 -0.19533853 0.15717071 0.08326224 0.17274292 0.09744927 0.104292125
0.25697568 -0.0882111 0.09866685 -0.14942417 0.043532666 -0.2665308 0.099626966 -0.064973034
-0.2290074 0.33205622 0.053983122 0.1061507 0.031237649 -0.10158154 -0.21871357 -0.10541807
-0.26084864 -0.023610773 -0.06241903 0.18465781 -0.2754654 -0.031181412 0.17985536 -0.16809998
-0.11865604 -0.12768182 -0.03164291 -0.15050307 -0.12092818 0.03924689 0.084030874 0.107709445
0.0974969 0.22518818 0.13559154 -0.113629535 -0.15269302 0.02197006 -0.07159891 0.17751929
0.098923005 -0.007663022 -0.16692945 0.007677663 -0.19520907 0.06110445 -0.049745474 -0.05119774
00000000: 7cf2 36bd 957b 5e3e e4c3 c4be 0e51 913d
00000010: 32ca 0b3e 8f68 3abe bc17 913e f370 e13d
00000020: ba8e f7bd 01b0 3bbd d79c 63bd a61a 6ebe
00000030: bea0 6fbe 0b24 0f3e fd3d 013e 1a1a 9fbb
00000040: 0ee2 403e ad3f f3bd b8b2 d4bd 0a79 79be
00000050: 1e5b db3d b13a e33d 3d3d 3bbe 0e76 a8bc
00000060: c900 3f3e aad8 5fbd e7f5 833c 4b85 41bd
00000070: a995 423e 7999 17bd 217c a63e daa1 cfbc
00000080: b2f8 0f3e 374c e5bd aea5 3cbe bc63 66bd
00000090: 7ded 24be f3ab 9bbd 56bb 27be 9e41 bcbd
000000a0: c9ca 9fbc 6b8d 633d e508 d23d b89c 6ebe
000000b0: 4031 85be 0033 2d3e 1c24 2e3d 12c0 00be
000000c0: 34d8 90bd f099 a73d 8fe2 a33d 142f 013d
000000d0: 4084 c1bd 6289 943e 2e68 60be 7b8a fe3d
000000e0: c9b3 553e 4132 fcbe efc5 3ebe 6249 083e
000000f0: b06f 753e f516 c53d ce4c 37be b85d 34be
00000100: 652e 36be 2d3a 90be ea1a febb 2ac7 ce3d
00000110: de07 94be 4902 6d3d bf65 a33c cdca 123d
00000120: 197c 55be 478c 2fbe 354b 86be 8cfb 5cbd
00000130: b0a3 6bbe 2172 86bd 476c 8b3e f39c a53e
00000140: e770 85be 1388 e3bd 176a c3bd e992 51bd
00000150: b0fa 17bd 7d60 633e c21a 5bbd 5dd5 f73e
00000160: 579e 03bd 1188 5dbe 9693 a5be 6745 543e
00000170: d0e0 34be dd01 893c f323 243d 39d4 963d
00000180: bd1e b33d 6b9c 9bbd f8ab 063e 4887 bc3e
00000190: c0ef 8f3e 5bb6 013e 6619 68be 11b1 febd
000001a0: 9453 393e 7db5 d9bd b4f7 5bbe 4b73 c73d
000001b0: befb b6be b85d 5d3d c477 c6bd 5dfb 553e
000001c0: 12dd 203d 865a 023e 2c64 a3bd 1822 6dbe
000001d0: efbf 3a3e 1287 893e b583 93bc ce8d 403e
000001e0: b6cc 18be 921c 2bbe 25b8 adbd 6f95 3cbe
000001f0: f6cb c7be e85f 313e 0660 e0bc b2b1 0abe
00000200: df30 37be 99db 2dbe 73fe 04be b8ed a03d
00000210: 4ef7 973e 2e9b 46be f7bd 7c3e 3c82 2ebe
00000220: b58a 103e 63a6 ffbd 928b 1f3d 69ad b03d
00000230: ca77 c03d 3098 bebd 8ee7 5bbc 0615 76bd
00000240: 1925 893e 3498 293e 50a4 163e 4a25 1bbe
00000250: 2344 073d 6ea2 8f3d 8dba 333e 96b9 3a3e
00000260: 1775 ec3c deee 8f3e f196 663e 43fa 3cbe
00000270: 648c 863e 90d0 3b3e 82e1 6cbc c0e6 3f3c
00000280: e818 1ebe 815b 0ebe 8d2b 32be ede1 65be
00000290: 5fc7 273e 72ba dc3d ef31 193e 8364 763e
000002a0: 2b5f 803e e310 35bd 076b 07bc 4cfb 513d
000002b0: 19da 6f3e b698 dbbd c442 773d 101b af3d
000002c0: 9546 36bd 8f50 2bbd 645e 973c 5f6a 3dbe
000002d0: d0ee e23d 9fd2 9cbe 7ac8 91be 6085 9e3e
000002e0: d13f 81be a934 793e 3822 a83d 9552 4d3e
000002f0: ad7d 3c3e 05bd 93bd 5fb4 50be 241a 153e
00000300: 899b 34bd 39fb 06bf 7bea 013e 5788 243d
00000310: 3066 7cbd 3685 e03e f906 34bd eede 90bb
00000320: 8e70 87bc 80f9 7bbe d306 48be 5cf1 203e
00000330: 6585 aa3d 85e3 303e 7c93 c73d 1c97 d53d
00000340: 5192 833e 05a8 b4bd d811 ca3d a602 19be
00000350: 4f4f 323d ba76 88be 3909 cc3d 9510 85bd
00000360: ea80 6abe 4603 aa3e 681d 5d3d 8a65 d93d
00000370: 19e6 ff3c fc09 d0bd 73f6 5fbe 6ee5 d7bd
00000380: f48d 85be 616b c1bc 19ab 7fbd f016 3d3e
00000390: cd09 8dbe 2970 ffbc 012c 383e 6722 2cbe
000003a0: f001 f3bd 06bf 02be ff9b 01bd 7a1d 1abe
000003b0: 32a9 f7bd 59c1 203d 6118 ac3d c596 dc3d
000003c0: 74ac c73d bb97 663e 82d8 0a3e 9ab6 e8bd
000003d0: 8f5b 1cbe 8efa b33c 73a2 92bd 9ec7 353e
000003e0: 2598 ca3d 161a fbbb 8eef 2abe e894 fb3b
000003f0: e3e4 47be a948 7a3d e9c1 4bbd b9b4 51bd

fc1.bias f4 [128]
-0.084352754 -0.24788663 -0.22637089 -0.035370696 0.34745386 -0.19210032 0.16889545 0.29076937
-0.07664814 0.13045245 -0.16833927 0.3384978 0.32265446 0.42901945 0.20181312 -0.13379726
0.20004389 0.29762098 0.0065172035 -0.25791076 0.109492466 0.1274012 -0.1772486 0.14374553
0.038754422 0.09074019 0.18342209 -0.121262126 0.18374263 0.33901316 0.055257533 0.3920169
0.32461032 0.0302066 -0.17644498 0.34995568 -0.22608937 0.2882413 -0.24011952 0.28875336
-0.039285082 0.28449437 0.31211936 -0.012570009 -0.019769024 -0.12802295 0.28065863 0.42325157
0.054416955 -0.14861287 -0.14913236 -0.079028696 0.04270235 0.22789027 0.0729464 0.3617061
0.3314254 -0.21261494 0.1871928 0.35288495 -0.19343604 0.33109257 0.07245933 0.3513063
0.020428944 0.38242242 0.059400182 -0.23557623 -0.24665913 -0.08458489 0.28167415 0.02243117
0.36959404 -0.22586207 0.36612538 -0.002969823 0.2977474 0.33515325 -0.008932655 0.37913734
0.2203234 0.4593353 0.17822167 -0.19745652 -0.16569746 -0.09130022 0.27736327 -0.16711044
0.22017756 -0.035070546 -0.02690779 -0.24124692 -0.14395188 -0.0902317 -0.1309005 0.3734268
0.1457386 0.009588818 -0.03704495 -0.08400312 -0.25787038 0.20181525 0.3675278 0.42821285
0.35917434 0.33867347 0.48423806 0.026671441 0.08887826 0.14323857 0.43872556 0.2105853
-0.08058677 0.444021 0.02894356 0.00035503024 0.33278546 0.017211478 0.24727665 -0.03640511
0.33863604 0.2936928 -0.1369002 -0.076020904 0.08742439 0.041734725 0.28636345 -0.083631635
00000000: 23c1 acbd fed5 7dbe c5cd 67be dde0 10bd
00000010: 79e5 b13e f2b5 44be eef2 2c3e b9df 943e
00000020: b3f9 9cbd 5495 053e 2161 2cbe 954f ad3e
00000030: f732 a53e 70a8 db3e 19a8 4e3e 2602 09be
00000040: 4ed8 4c3e c761 983e 448e d53b e10c 84be
00000050: 963d e03d 7675 023e a880 35be 0732 133e
00000060: f5bc 1e3d fed5 b93d 00d3 3b3e 4758 f8bd
00000070: 0727 3c3e 2293 ad3e b955 623d 70b6 c83e
00000080: 5333 a63e d573 f73c fead 34be 642d b33e
00000090: f983 67be 5d94 933e e4e1 75be 7bd7 933e
000000a0: 65e9 20bd 3fa9 913e 1cce 9f3e 70f2 4dbc
000000b0: a6f2 a1bc 7318 03be 7db2 8f3e 6eb4 d83e
000000c0: 50e4 5e3d f92d 18be 27b6 18be ccd9 a1bd
000000d0: a9e8 2e3d 115c 693e ec64 953d 8b31 b93e
000000e0: 97b0 a93e bbb7 59be 78af 3f3e 56ad b43e
000000f0: 1914 46be f784 a93e 8f65 943d 6bde b33e
00000100: 9a5a a73c dfcc c33e 9b4d 733d e53a 71be
00000110: 3694 7cbe d83a adbd 9837 903e 93c1 b73c
00000120: 6e3b bd3e 6348 67be c974 bb3e 5da1 42bb
00000130: 5972 983e 3599 ab3e 455a 12bc 4a1e c23e
00000140: 759c 613e ff2d eb3e be7f 363e 0b32 4abe
00000150: 98ac 29be 9cfb babd 8f02 8e3e 001f 2bbe
00000160: 3a76 613e 22a6 0fbd ba6d dcbc 6f09 77be
00000170: 1f68 13be 66cb b8bd c80a 06be cc31 bf3e
00000180: 803c 153e 6b1a 1d3c 72bc 17bd d409 acbd
00000190: 9607 84be a8a8 4e3e 9b2c bc3e b73e db3e
000001a0: b3e5 b73e 9c66 ad3e 0dee f73e 117e da3c
000001b0: ce05 b63d 22ad 123e a3a0 e03e aca3 573e
000001c0: ad0a a5bd b856 e33e 0b1b ed3c 5a23 ba39
000001d0: db62 aa3e 16ff 8c3c 1736 7d3e 861d 15bd
000001e0: b461 ad3e e75e 963e 912f 0cbe d9b0 9bbd
000001f0: 8f0b b33d 08f2 2a3d 3b9e 923e 1047 abbd

fc2.weight f4 [128, 128]
0.050295923 -0.021099642 -0.027553333 -0.023905601 -0.07736758 0.05970485 -0.044369686 0.036525927
-0.048948035 -0.016060276 -0.048168782 0.07502115 -0.08989088 -0.08115501 0.062398802 -0.06982081
0.056750014 0.055983935 0.035457972 0.03592986 0.017975856 -0.020511482 0.07385112 -0.059994724
-0.0071336622 0.038891483 0.065337 0.059797663 -0.05873831 -0.05289357 -0.06259191 0.0506252
-0.06252259 -0.06302619 0.025557062 -0.065459475 -0.036729515 -0.0135415215 0.07159187 -0.06850799
0.025419885 0.042696126 -0.06819688 0.059101336 -0.066502884 -0.077559374 -0.050483372 0.027841939
0.028701419 -0.08762021 -0.04404554 -0.0428885 -0.08710702 -0.0152359605 -0.019509323 0.07079214
-0.06576072 -0.08937238 -0.005534509 0.025650186 -0.0113142375 -0.06894304 -0.07212491 -0.09471108
-0.051868454 -0.0033878882 -0.028181154 0.003972582 0.06337041 0.052335944 -0.051367924 0.05020005
-0.02112741 0.074084364 -0.061690383 -0.047411364 -0.07400335 0.03417499 0.015279648 -0.051003397
0.076288804 0.071248055 -0.036711738 0.050922506 0.03591204 -0.091607355 -0.042781457 -0.06478722
0.016637959 -0.05178471 0.040071078 0.04033041 -0.064874925 -0.054149833 -0.0074425526 0.077780865
0.020628538 0.043160126 0.0390637 0.063361086 -0.0826157 -0.00031965974 -0.083861195 0.061091024
0.02030862 0.083915815 -0.06630528 -0.00028656435 -0.033498585 -0.026184276 -0.046634573 0.028167674
0.005444951 0.018721182 0.03546449 0.02237682 -0.07730403 0.01734522 0.042649083 0.044893634
-0.0074706743 -0.05357285 0.048859067 0.005634775 -0.058657885 -0.093453035 -0.06509508 0.035987467
0.0035450791 -0.08046939 -0.29212478 -0.08670251 -0.01864963 0.0057961014 0.103977606 -0.012762304
-0.037831064 0.010695829 0.2141971 -0.091178 -0.00030298074 0.0074379724 -0.043974645 0.040281564
0.09323452 0.12704135 0.07778001 0.22594395 0.04746872 0.06387745 0.013029071 0.041801028
-0.050657585 0.08347864 -0.11440467 -0.049253535 -0.05090739 -0.04192116 -0.034989584 -0.108309045
0.029056106 -0.023712995 0.22810708 -0.0665248 0.20101371 -0.059955634 0.014145981 0.07230567
-0.1690449 -0.08189759 0.06566233 -0.061119743 -0.06477993 -0.024373943 -0.04733659 -0.08813983
-0.08227776 0.12891129 0.2383792 0.13337733 0.06965026 -0.0660291 0.17289332 -0.051011343
-0.03893925 0.15636075 -0.103003554 -0.09447089 0.08798402 -0.016911237 0.045372766 0.02166193
0.06337316 -0.009672011 0.0900934 0.09036343 0.22135904 0.06810057 -0.20150143 0.060703598
-0.047586527 0.038177285 0.011067195 0.2833711 -0.09875317 -0.11734918 -0.023646168 0.05202168
0.08177125 -0.14486097 -0.11800699 -0.1983992 0.027127039 0.15239944 -0.14126407 -0.0694206
0.0061474657 0.05547011 0.28475305 0.26042524 -0.031439885 0.1792265 -0.07994581 0.050565325
0.101326115 -0.045306243 0.00023353953 0.23473397 -0.027441815 -0.088268645 -0.083924934 -0.09776324
0.077895775 0.086682506 -0.08225328 0.0648759 -0.07862394 0.040269177 0.0009877795 -0.06905341
0.11661608 0.019864943 0.120239064 -0.04296817 0.035189565 -0.045482088 -0.08783472 0.061643105
-0.02031304 -0.01465241 0.2779817 0.020303247 0.080422886 -0.09674132 0.015311002 0.042557802
00000000: 1903 4e3d 28d9 acbc 87b7 e1bc aed5 c3bc
00000010: e572 9ebd 138d 743d fdbc 35bd 369c 153d
00000020: bc7d 48bd d790 83bc a14c 45bd b0a4 993d
00000030: b618 b8bd 9934 a6bd e395 7f3d 36fe 8ebd
00000040: b472 683d 694f 653d 613c 113d 302b 133d
00000050: 1a42 933c b207 a8bc 423f 973d 07bd 75bd
00000060: 7fc1 e9bb ad4c 1f3d 68cf 853d 65ee 743d
00000070: 9597 70bd eea6 58bd 3030 80bd 5f5c 4f3d
00000080: d80b 80bd e013 81bd 0b5d d13c 9e0f 86bd
00000090: b071 16bd 42dd 5dbc c29e 923d eb4d 8cbd
000000a0: 5d3d d03c 22e2 2e3d ceaa 8bbd 3e14 723d
000000b0: aa32 88bd 73d7 9ebd a7c7 4ebd c714 e43c
000000c0: 3d1f eb3c 3a72 b3bd 1969 34bd daab 2fbd
000000d0: 2a65 b2bd 40a0 79bc 04d2 9fbc 78fb 903d
000000e0: 8ead 86bd de08 b7bd d45a b5bb 5720 d23c
000000f0: 5a5f 39bc 0232 8dbd 3ab6 93bd e2f7 c1bd
00000100: 0474 54bd 5507 5ebb 2adc e6bc 6f2c 823b
00000110: 58c8 813d 375e 563d 2c67 52bd 919e 4d3d
00000120: 6413 adbc 8bb9 973d 0eaf 7cbd 6b32 42bd
00000130: 128f 97bd 13fb 0b3d 7d57 7a3c f0e8 50bd
00000140: 4e3d 9c3d 80ea 913d 0c5f 16bd 1e94 503d
00000150: 8118 133d a39c bbbd 9c3b 2fbd 29af 84bd
00000160: 544c 883c 341c 54bd 9221 243d 8031 253d
00000170: 25dd 84bd 37cc 5dbd a8e0 f3bb 934b 9f3d
00000180: 2efd a83c acc8 303d 4201 203d 75c3 813d
00000190: 6c32 a9bd 0198 a7b9 6bbf abbd 953a 7a3d
000001a0: 435e a63c 0edc ab3d 10cb 87bd 043e 96b9
000001b0: d035 09bd 6880 d6bc e503 3fbd e5bf e63c
000001c0: 8f6b b23b 2a5d 993c 3743 113d 984f b73c
000001d0: 9351 9ebd 9017 8e3c ceb0 2e3d 63e2 373d
000001e0: 8fcc f4bb 346f 5bbd 7220 483d eba3 b83b
000001f0: 4043 70bd 4e64 bfbd 9250 85bd 9867 133d
00000200: 8f54 683b 23cd a4bd 6191 95be 1691 b1bd
00000210: 1cc7 98bc 39ed bd3b 36f2 d43d fc18 51bc
00000220: bff4 1abd 8f3d 2f3c 7c56 5b3e 88bb babd
00000230: 63d9 9eb9 3cba f33b c21e 34bd 48fe 243d
00000240: bdf1 be3d 2117 023e 204b 9f3d da5d 673e
00000250: 8f6e 423d 2ed2 823d e277 553c 8e37 2b3d
00000260: 547e 4fbd d9f6 aa3d ff4c eabd 13be 49bd
00000270: 4484 50bd 86b5 2bbd 3d51 0fbd 22d1 ddbd
00000280: 1207 ee3c c141 c2bc e794 693e 283e 88bd
00000290: 8ad6 4d3e 0a94 75bd 8bc4 673c ff14 943d
000002a0: 1b1a 2dbe ecb9 a7bd f979 863d b258 7abd
000002b0: 57ab 84bd ddab c7bc 03e4 41bd a882 b4bd
000002c0: 3e81 a8bd 5201 043e ad19 743e 1194 083e
000002d0: cca4 8e3d 443a 87bd f20a 313e 45f1 50bd
000002e0: c37e 1fbd 081d 203e 87f3 d2bd f479 c1bd
000002f0: f730 b43d 6f89 8abc cbd8 393d 5c74 b13c
00000300: cac9 813d 5b77 1ebc e382 b83d 7610 b93d
00000310: f2ab 623e 5078 8b3d 6456 4ebe 56a4 783d
00000320: 17ea 42bd c95f 1c3d 2e53 353c 0416 913e
00000330: 1a3f cabd c454 f0bd 9cb5 c1bc af14 553d
00000340: af77 a73d 6f56 14be a6ad f1bd 2929 4bbe
00000350: 8639 de3c 990e 1c3e 87a7 10be 632c 8ebd
00000360: ae70 c93b a034 633d 27cb 913e 7556 853e
00000370: 1cc7 00bd 2787 373e a1ba a3bd 961d 4f3d
00000380: 1184 cf3d 0a93 39bd 4ae2 7439 1a5e 703e
00000390: a8cd e0bc 31c6 b4bd d6e0 abbd 1838 c8bd
000003a0: d287 9f3d 9986 b13d 6874 a8bd a8dd 843d
000003b0: 9705 a1bd 4bf1 243d 6178 813a e06b 8dbd
000003c0: 69d4 ee3d cebb a23c e63f f63d 64ff 2fbd
000003d0: ef22 103d 6d4b 3abd b1e2 b3bd 7b7d 7c3d
000003e0: 8867 a6bc a910 70bc 9e53 8e3e ff52 a63c
000003f0: c1b4 a43d 5020 c6bd ffda 7a3c 1751 2e3d

fc2.bias f4 [128]
-0.042518668 -0.03638048 0.0781433 0.15799618 0.16997644 0.1311793 0.14429033 0.18266056
-0.085131 0.098500535 0.05754124 0.12502587 0.18229546 0.085012905 -0.06605742 0.19755198
0.18357903 0.025679711 0.2131187 0.12161577 0.16920365 -0.0064222724 0.22978076 0.11749843
0.09783242 -0.07377582 -0.06408322 0.12750979 0.14913242 -0.0016751281 -0.07492014 0.19812009
0.013602512 -0.024668679 0.17495699 0.05005485 -0.039108038 0.1596744 -0.082851835 -0.00831749
0.11554841 0.22072698 -0.10342779 0.22310305 0.23230867 0.07986537 0.14981417 0.0785602
-0.02481957 0.08159257 0.21878928 0.08289503 0.067789726 0.06433397 -0.028843205 0.026535586
0.21923442 0.1153888 0.15555735 0.26537353 -0.105871655 -0.08912078 -0.023949264 -0.09035515
0.11459207 0.01066849 0.15379095 0.06858694 -0.07141703 0.25808182 0.21295005 0.09808306
0.095076576 -0.03894759 0.2347335 -0.054007962 -0.010659493 0.04558458 -0.07325128 0.20743775
-0.034231097 0.026375053 0.1584653 0.06530025 -0.0105899535 0.19819319 0.1436872 0.17112185
0.14387284 0.13784954 -0.09520268 0.09269471 -0.05396108 0.12813017 -0.09839492 0.025424266
0.18843487 0.108804174 -0.00024523778 0.21636416 -0.10321463 0.025860278 0.25320315 -0.016619103
0.19792454 0.043270264 0.11062339 -0.12928623 -0.010756994 0.11845904 0.0434816 0.12727039
-0.009386446 0.1263705 0.0925919 0.20579265 0.1779134 0.19982786 0.21987526 -0.05884986
0.19212845 0.13442634 0.04165351 -0.08347969 0.09874415 0.1948302 0.22690704 0.21474887
00000000: 0e28 2ebd b303 15bd 9809 a03d c0c9 213e
00000010: 4e0e 2e3e de53 063e d8c0 133e 5f0b 3b3e
00000020: 2959 aebd a6ba c93d 5db0 6b3d c806 003e
00000030: a9ab 3a3e 3f1b ae3d 1d49 87bd 114b 4a3e
00000040: 24fc 3b3e 425e d23c ca3b 5a3e b011 f93d
00000050: b943 2d3e ed71 d2bb a64b 6b3e 04a3 f03d
00000060: 5d5c c83d c717 97bd 103e 83bd ed91 023e
00000070: 2bb6 183e f98f dbba bb6f 99bd fedf 4a3e
00000080: 12dd 5e3c f815 cabc ed27 333e 5006 4d3d
00000090: c02f 20bd b081 233e 39ae a9bd 1546 08bc
000000a0: a5a4 ec3d 4106 623e f3d1 d3bd 2075 643e
000000b0: 53e2 6d3e 7590 a33d e368 193e 2ce4 a03d
000000c0: 6952 cbbc 011a a73d 4c0a 603e dfc4 a93d
000000d0: 57d5 8a3d 87c1 833d 9648 ecbc 2861 d93c
000000e0: fd7e 603e f750 ec3d 6d4a 1f3e 0adf 873e
000000f0: 3dd3 d8bd f584 b6bd 3f31 c4bc 1f0c b9bd
00000100: 3faf ea3d e4ca 2e3c 607b 1d3e 4f77 8c3d
00000110: 1843 92bd 4d23 843e 940f 5a3e c5df c83d
00000120: 82b7 c23d 8287 1fbd fb5d 703e 7437 5dbd
00000130: 27a5 2ebc e6b6 3a3d c404 96bd 906a 543e
00000140: e835 0cbd 7f10 d83c ba44 223e 23bc 853d
00000150: 7c81 2dbc 28f3 4a3e bd22 133e 913a 2f3e
00000160: 6753 133e 6e28 0d3e 9ff9 c2bd b9d6 bd3d
00000170: 4b06 5dbd 8e34 033e 4783 c9bd 8d46 d03c
00000180: 12f5 403e b9d4 de3d 4293 80b9 918e 5d3e
00000190: 3162 d3bd efd8 d33c d8a3 813e c924 88bc
000001a0: bbac 4a3e 293c 313d 848e e23d 9c63 04be
000001b0: 1a3e 30bc a79a f23d c319 323d 2b53 023e
000001c0: 9cc9 19bc 4567 013e d2a0 bd3d 4fbb 523e
000001d0: ee2e 363e ad9f 4c3e fb26 613e 8d0c 71bd
000001e0: 52bd 443e 0fa7 093e df9c 2a3d 66f7 aabd
000001f0: 5f3a ca3d 9181 473e 525a 683e 21e7 5b3e

q1.weight f4 [1, 128]
-0.0431204 -0.41941234 -0.32031402 0.23086035 0.20330696 0.2674838 0.16090763 0.18808335
-0.32914212 0.18806188 -0.3091514 0.24506044 0.23328777 0.262295 -0.376245 0.23380123
0.22557193 -0.4726847 0.26855037 0.17300415 0.23146367 -0.34632334 0.17756225 0.17987499
0.2449017 -0.40938732 -0.022952344 0.23868643 0.17096764 -0.031269345 -0.45666185 0.1897047
-0.24457055 -0.46456268 0.16911305 -0.43326443 -0.3107522 0.26562536 -0.3698871 -0.42462173
0.23063643 0.19511235 -0.53638816 0.23575474 0.16434361 0.15776917 0.163492 0.21682699
-0.40630966 0.23178314 0.16760497 0.3297228 -0.5978549 -0.30760577 -0.023742624 -0.4951168
0.21811783 0.22834815 0.24420673 0.20226929 -0.35822102 -0.51585734 -0.42913726 -0.28715825
0.19071212 -0.61125475 0.21426655 0.25210345 -0.37994865 0.24599043 0.2231877 0.1510209
0.24775699 -0.3015513 0.1677596 -0.3196596 -0.06900095 -0.4657297 -0.044448268 0.21556191
-0.016753275 -0.4605569 0.21584207 -0.51489353 -0.4306901 0.20701751 0.2582141 0.23894994
0.23594005 0.18448421 -0.27246493 0.24444732 -0.48473042 0.22163273 -0.23124002 -0.5102747
0.19592354 0.21486351 -0.35667953 0.3059041 -0.47558045 -0.4796228 0.25858113 -0.51337284
0.23444277 -0.032995794 0.22764196 -0.22690396 -0.4355946 0.17581894 -0.2611271 0.1975982
-0.5188349 0.19450966 0.17192265 0.17651702 0.15579647 0.1681409 0.16730656 0.7708525
0.36652336 0.20311059 -0.16542783 -0.347538 0.18996976 0.24472539 0.17088892 0.2071834
00000000: 049f 30bd 37bd d6be 3300 a4be a866 6c3e
00000010: b32f 503e a3f3 883e f8c4 243e ec98 403e
00000020: 5185 a8be 4b93 403e 1849 9ebe 20f1 7a3e
00000030: fde2 6e3e 884b 863e 2fa3 c0be 9769 6f3e
00000040: 54fc 663e bb03 f2be 6f7f 893e 0028 313e
00000050: d004 6d3e 4b51 b1be e1d2 353e 2631 383e
00000060: 83c7 7a3e 379b d1be 8e06 bcbc 376a 743e
00000070: 2412 2f3e 4914 00bd 95cf e9be f341 423e
00000080: b470 7abe 29db edbe f92b 2d3e d6d4 ddbe
00000090: ea1a 9fbe 0c00 883e d861 bdbe 0568 d9be
000000a0: f52b 6c3e 88cb 473e bc50 09bf b169 713e
000000b0: b149 283e 3e8e 213e 726a 273e e507 5e3e
000000c0: d207 d0be 8f58 6d3e a3a0 2b3e 6dd1 a83e
000000d0: 050d 19bf 817e 9dbe e47f c2bc f37f fdbe
000000e0: 485a 5f3e 19d4 693e 5411 7a3e ae1f 4f3e
000000f0: bf68 b7be 3a0f 04bf e1b7 dbbe 6806 93be
00000100: 0a4a 433e 317b 1cbf b168 5b3e b413 813e
00000110: a188 c2be eae4 7b3e 518b 643e 39a5 1a3e
00000120: 02b4 7d3e ef64 9abe 2cc9 2b3e 6caa a3be
00000130: 5f50 8dbd 2074 eebe 630f 36bd 43bc 5c3e
00000140: 2a3e 89bc 1dce ebbe b405 5d3e 10d0 03bf
00000150: 6a83 dcbe 66fc 533e a334 843e 4baf 743e
00000160: 459a 713e 6ee9 3c3e 8680 8bbe 6650 7a3e
00000170: 962e f8be b1f3 623e 2fca 6cbe 5da1 02bf
00000180: 2ea0 483e 2e05 5c3e b39e b6be 769f 9c3e
00000190: 487f f3be 1f91 f5be bf64 843e 676c 03bf
000001a0: c411 703e 9926 07bd f91a 693e 8359 68be
000001b0: 4106 dfbe e109 343e 74b2 85be 2f57 4a3e
000001c0: 5dd2 04bf 8a2d 473e 7e0c 303e e1c0 343e
000001d0: 1c89 1f3e 212d 2c3e 6952 2b3e 9756 453f
000001e0: f3a8 bb3e 39fc 4f3e ea65 29be 80f0 b1be
000001f0: 6f87 423e 4b99 7a3e 81fd 2e3e e327 543e

fc3.weight f4 [128, 17]
-0.19147144 -0.009288961 0.107109316 0.22341084 -0.068382256 0.18017542 0.07421404 0.20042396
-0.2669659 -0.33038867 0.17953548 -0.3002326 0.1434482 -0.14794348 0.06400623 -0.04811561
0.08438993 -0.14408498 0.09924659 0.047530815 0.12115958 -0.16127096 0.12543799 -0.30497894
0.124154806 0.026124643 0.28558385 0.19038372 -0.0743748 -0.06949568 -0.029489119 0.4001017
-0.32374525 -0.10551814 -0.05878698 0.096266985 -0.058503464 0.026706474 0.13217233 0.17308997
-0.0696439 0.095026016 -0.08141905 -0.083858244 0.11333481 -0.1665005 0.28119868 0.19653995
0.29857206 -0.11824061 0.13031325 -0.16736111 0.0024409818 0.17171465 0.057793926 -0.15317412
-0.08296785 -0.12292663 -0.13845773 -0.16478671 0.28011593 -0.15634309 0.2582515 0.039389458
0.38628155 0.2606316 -0.10844383 0.20427273 -0.2183059 0.13681498 -0.34158495 0.21862765
-0.2630355 0.18915701 0.14562847 -0.11456012 -0.35657296 -0.12886219 -0.18148051 -0.23453905
0.27300394 -0.1788955 0.091826044 -0.084997006 -0.16953656 -0.19052723 0.26635367 -0.28027275
-0.051626038 -0.35838726 -0.3663474 0.23613414 -0.00555289 -0.070746854 -0.056296498 0.07922929
0.13623177 0.3192436 -0.09592724 -0.077202596 -0.05828819 -0.29163316 -0.0021337958 -0.009923643
0.1633914 0.30762646 0.22944671 0.1663654 -0.26562455 0.21937487 0.1745116 -0.043947138
0.068972096 -0.194319 -0.17191677 0.1993151 0.094716266 0.39565185 0.07239962 -0.06123078
0.3079167 -0.14669842 0.0030572265 0.23054169 -0.055721167 -0.12522426 0.18874083 0.18081933
-0.25856668 -0.23051882 -0.16191143 -0.2828604 -0.14622091 -0.12245727 0.17718393 -0.24423705
-0.052070014 -0.31170568 -0.07223258 -0.06300213 0.16741392 -0.24945968 -0.12692077 0.2950579
-0.045745067 0.1002727 -0.18603598 0.23371013 -0.009186164 -0.17067657 0.028718896 0.13302563
0.031226493 0.038645174 -0.2166381 -0.0803415 0.11246682 0.17297502 -0.06914617 -0.3265154
0.043962955 0.13614054 0.22340052 0.40474313 0.060252298 -0.09763063 -0.13922326 -0.14838977
-0.22929901 0.25014368 0.093285955 -0.16586041 -0.18067296 0.14399494 -0.15510334 -0.041789107
0.03297165 -0.06289547 -0.0019076797 -0.09752239 -0.10150482 0.1273 -0.20065111 0.25968304
-0.13445333 -0.12670997 0.3627974 0.24409679 -0.14526142 0.15853149 0.21206397 -0.03930586
-0.1933536 -0.1655431 -0.012801159 -0.19297203 0.12490106 0.1394559 0.2633162 0.13993414
0.022691347 0.0070673646 -0.10702075 -0.18986021 0.11103749 -0.23922546 -0.11883495 -0.20108546
-0.1374458 -0.2757037 -0.021907704 0.11178095 0.18273446 0.084980585 0.10378536 -0.07547063
-0.08427591 0.25740665 -0.0008661119 -0.08555366 -0.01732765 -0.17189248 0.0848331 -0.23905998
-0.29202977 -0.0606034 0.1969736 0.12743662 -0.3411592 -0.02152047 -0.06569929 -0.08243066
-0.22911228 0.1895072 -0.1855632 0.09153641 -0.10617201 -0.037278496 -0.178594 0.0945912
0.17171367 -0.07682326 -0.23810467 0.16789865 -0.08189433 -0.055818338 -0.068596706 -0.0381448
-0.12946296 0.04880935 -0.26417768 0.26723468 0.13675731 0.2751968 0.14122638 -0.26009932
00000000: 1711 44be ba30 18bc 215c db3d d0c5 643e
00000010: ff0b 8cbd e87f 383e 88fd 973d f03b 4d3e
00000020: c1af 88be b428 a9be 26d8 373e 16b8 99be
00000030: 16e4 123e 7f7e 17be b315 833d e014 45bd
00000040: a1d4 ac3d 038b 13be cc41 cb3d acaf 423d
00000050: 8422 f83d 3724 25be d172 003e 3326 9cbe
00000060: e044 fe3d 5903 d63c 0c38 923e f3f3 423e
00000070: d151 98bd c053 8ebd 2a93 f1bc 21da cc3e
00000080: f0c1 a5be e519 d8bd 9eca 70bd a027 c53d
00000090: 54a1 6fbd 89c7 da3c 2f58 073e 7f3e 313e
000000a0: 76a1 8ebd 009d c23d 08bf a6bd dfbd abbd
000000b0: 151c e83d 1b7f 2abe 46f9 8f3e c541 493e
000000c0: 70de 983e 2228 f2bd d670 053e b660 2bbe
000000d0: e1f8 1f3b f7d5 2f3e 53b9 6c3d add9 1cbe
000000e0: 0ceb a9bd f5c0 fbbd ddc7 0dbe d9bd 28be
000000f0: 5b6b 8f3e 6718 20be 8a39 843e d756 213d
00000100: b2c6 c53e 8171 853e cc17 debd df2c 513e
00000110: 958b 5fbe 3a19 0c3e 39e4 aebe eddf 5f3e
00000120: 97ac 86be 60b2 413e a11f 153e 7f9e eabd
00000130: bb90 b6be 73f4 03be 07d6 39be 012b 70be
00000140: 2cc7 8b3e 6230 37be 4b0f bc3d e912 aebd
00000150: fe9a 2dbe 9219 43be 825f 883e e97f 8fbe
00000160: d375 53bd 897e b7be e391 bbbe 26cd 713e
00000170: 04f5 b5bb bae3 90bd 2897 66bd f742 a23d
00000180: 5780 0b3e e673 a33e 8075 c4bd 651c 9ebd
00000190: 99bf 6ebd f150 95be 27d7 0bbb c796 22bc
000001a0: 1350 273e 3781 9d3e 14f4 6a3e b15b 2a3e
000001b0: f1ff 87be cea3 603e 2bb3 323e ea01 34bd
000001c0: 3e41 8d3d 8ffb 46be f30a 30be 4219 4c3e
000001d0: 9afa c13d e192 ca3e 4146 943d 20cd 7abd
000001e0: 42a7 9d3e 1c38 16be c05b 483b 1f13 6c3e
000001f0: e13b 64bd ca3a 00be 4745 413e b428 393e
00000200: da62 84be 200d 6cbe 1ccc 25be 14d3 90be
00000210: efba 15be e1ca fabd b46f 353e 4719 7abe
00000220: 5e47 55bd e397 9fbe adee 93bd 4307 81bd
00000230: 8e6e 2b3e 5c72 7fbe 85f7 01be d411 973e
00000240: 2e5f 3bbd c65b cd3d 3780 3ebe b551 6f3e
00000250: 9081 16bc d7c5 2ebe e443 eb3c df37 083e
00000260: b4ce ff3c 674a 1e3d 61d6 5dbe 168a a4bd
00000270: 0155 e63d 5d20 313e 829c 8dbd 072d a7be
00000280: 8012 343d 6d68 0b3e 1bc3 643e 7e3a cf3e
00000290: 1dcb 763d 91f2 c7bd 8b90 0ebe 7df3 17be
000002a0: 5ccd 6abe d512 803e b50c bf3d 50d7 29be
000002b0: 5502 39be 6973 133e 69d3 1ebe 0e2b 2bbd
000002c0: 480d 073d 57cf 80bd 1c0b faba d2b9 c7bd
000002d0: c2e1 cfbd ee5a 023e 7c77 4dbe 2df5 843e
000002e0: 22ae 09be 42c0 01be 95c0 b93e 82f4 793e
000002f0: 69bf 14be 1456 223e 4c27 593e 2eff 20bd
00000300: 7cfe 45be 2184 29be f4bb 51bc 769a 45be
00000310: 20cc ff3d 87cd 0e3e 62d1 863e e54a 0f3e
00000320: 34e3 b93c 5a95 e73b b22d dbbd b76a 42be
00000330: a067 e33d 85f7 74be bd5f f3bd 59e9 4dbe
00000340: 97be 0cbe 0929 8dbe c977 b3bc 69ed e43d
00000350: be1e 3b3e 4d0a ae3d 6b8d d43d 5890 9abd
00000360: d998 acbd ceca 833e c90b 63ba c236 afbd
00000370: b7f2 8dbc 9504 30be fabc ad3d 24cc 74be
00000380: ed84 95be 453b 78bd 73b3 493e bf7e 023e
00000390: 6bac aebe b24b b0bc 598d 86bd 68d1 a8bd
000003a0: 699c 6abe 2d0e 423e 4804 3ebe 7177 bb3d
000003b0: b670 d9bd 56b1 18bd 58e1 36be 08b9 c13d
000003c0: b5d5 2f3e 8355 9dbd b6d1 73be a0ed 2b3e
000003d0: 37b8 a7bd c5a1 64bd 6e7c 8cbd b93d 1cbd
000003e0: f091 04be 50ec 473d 4c42 87be fcd2 883e
000003f0: 1c0a 0c3e 98e6 8c3e a69d 103e bd2b 85be

fc3.bias f4 [128]
0.30136734 -0.2554965 -0.051751968 0.14231788 -0.12583405 -0.09115803 -0.040440843 0.17112452
0.30483958 0.14641237 -0.18493965 0.38468653 0.34849674 0.4873864 0.4199627 0.36252373
-0.043326046 -0.16564754 0.19402413 -0.2273589 0.11109141 0.14823231 -0.10353349 -0.13342029
-0.05030956 0.26354167 0.24229226 0.28880146 0.28233677 -0.079180926 0.12150916 -0.21582581
0.30148226 -0.1324552 0.35699162 0.09974476 -0.008189102 0.3310533 -0.15283003 0.3234508
0.14727816 0.38488716 0.17784333 0.24426934 0.4393202 0.0168351 0.0866463 0.35307175
0.08831268 0.13218069 0.23427154 0.12619226 0.06265374 0.2898185 0.09542853 0.19210115
0.44242144 0.054368448 -0.106919326 0.22457884 -0.109274395 0.37636572 0.25047618 0.07688048
0.32853112 0.13182104 0.095326506 -0.06244638 -0.1356551 -0.23307349 0.29065558 0.36537912
0.44395036 0.42189735 -0.12503897 0.03332674 0.29475477 0.052967317 -0.23791254 0.027849846
-0.1979867 0.21353397 -0.12125379 -0.048023578 0.27578256 0.16838269 0.41251534 -0.1308586
-0.100823954 -0.12250064 -0.07834741 0.41695648 0.0050757225 -0.14142013 0.33621475 -0.018470023
0.370039 0.04264937 0.121999264 0.33292383 -0.20062798 -0.24194539 0.32855517 -0.049937584
0.22893623 0.11549253 0.123682216 0.10892034 -0.21360448 0.039823 -0.012600577 0.107368894
-0.08773414 0.40666288 0.107422814 0.35921323 0.16800408 0.4233156 -0.220745 0.05311759
-0.13307817 0.25428435 0.036675323 0.29044622 -0.083354585 -0.28710905 0.23775741 0.40032
00000000: d24c 9a3e 70d0 82be dff9 53bd c7bb 113e
00000010: a4da 00be 10b1 babd 4ca5 25bd 443b 2f3e
00000020: ef13 9c3e 20ed 153e d260 3dbe a2f5 c43e
00000030: 2a6e b23e b68a f93e 5a05 d73e b69c b93e
00000040: a776 31bd 829f 29be 43ae 463e c5d0 68be
00000050: e583 e33d 36ca 173e 5e09 d4bd 549f 08be
00000060: 6611 4ebd efee 863e 761b 783e c9dd 933e
00000070: 728e 903e 9c29 a2bd cbd9 f83d 7101 5dbe
00000080: e25b 9a3e 56a2 07be 9bc7 b63e fb46 cc3d
00000090: 952b 06bc d17f a93e 7a7f 1cbe 589b a53e
000000a0: 16d0 163e ee0f c53e 901c 363e be21 7a3e
000000b0: 94ee e03e c3e9 893c 9e73 b13d d2c5 b43e
000000c0: 47dd b43d 605a 073e e1e4 6f3e 8b38 013e
000000d0: 9b50 803d 1763 943e 0870 c33d 2ab6 443e
000000e0: 1085 e23e 73b1 5e3d 85f8 dabd fff7 653e
000000f0: 41cb dfbd 02b3 c03e 6a3e 803e 8373 9d3d
00000100: 3b35 a83e 18fc 063e 8b3a c33d c6c7 7fbd
00000110: 2ce9 0abe d1aa 6ebe cfd0 943e f912 bb3e
00000120: 764d e33e ee02 d83e 370a 00be 9f81 083d
00000130: 19ea 963e 42f4 583d 589f 73be 5c25 e43c
00000140: 07bd 4abe a6a8 5a3e e853 f8bd 5fb4 44bd
00000150: 5f33 8d3e 836c 2c3e 3635 d33e ccff 05be
00000160: ca7c cebd 9ee1 fabd 9b74 a0bd 527b d53e
00000170: 3f52 a63b 70d0 10be 5724 ac3e 724e 97bc
00000180: c075 bd3e 1bb1 2e3d c0da f93d fe74 aa3e
00000190: 6c71 4dbe 88c0 77be 6238 a83e 5a8b 4cbd
000001a0: 426e 6a3e 5987 ec3d 1a4d fd3d a111 df3d
000001b0: 22bb 5abe 711d 233d a772 4ebc 39e4 db3d
000001c0: f5ad b3bd 1e36 d03e 7e00 dc3d ccea b73e
000001d0: 4309 2c3e d3bc d83e fa0a 62be d491 593d
000001e0: a545 08be 8f31 823e dd38 163d 5eb5 943e
000001f0: cfb5 aabd f5ff 92be ae76 733e bef6 cc3e

fc4.weight f4 [128, 128]
0.10930439 -0.084449634 -0.07890558 0.19068745 -0.041269906 0.14232391 0.06638355 0.06959698
0.13239484 0.09176527 -0.062746525 0.09226693 0.13271981 0.20832224 0.18155478 0.18302743
-0.032844547 0.114170805 0.26629108 0.13976873 0.18083237 0.15325485 -0.06694055 0.05066126
-0.05396792 0.1648671 0.030923316 0.2239379 0.23370185 0.048166838 0.086913094 -0.12206858
0.14501975 0.0054354738 0.25785315 -0.030567646 0.006127696 0.2079202 -0.12513438 0.08252259
0.16758591 0.26105094 0.040227856 0.13159773 0.31293222 -0.041239772 0.010529349 0.22846767
0.0125368 0.09260501 0.09015893 0.040349707 0.15286247 0.04558041 0.10162198 0.14860743
0.08444383 0.019146008 -0.03242508 0.17660487 -0.07183445 0.20299318 0.030378476 0.15284441
0.13126138 0.05045555 0.049266998 -0.021673836 0.036313947 -0.11509517 0.08391697 0.23044527
0.3358348 0.13069284 -0.06768939 0.003915069 0.13524792 0.06979094 -0.23071614 0.12174458
-0.17645176 0.019150626 -0.0132700885 0.123684965 0.10478579 0.3047065 0.17585528 -0.048102826
-0.08798445 -0.1653356 0.1409494 0.17260341 0.051535767 -0.18564692 0.12924354 -0.094944745
0.26863933 0.056568492 0.09286093 0.17102405 -0.09775623 -0.22014824 0.112725765 0.10148127
0.063486636 0.13654698 0.042033814 0.24460685 -0.046793986 0.08959188 -0.040762845 0.007964667
0.096755035 0.17997614 0.059294835 0.1274847 0.12714311 0.18789966 -0.034146637 0.21974671
-0.093524456 0.16746531 0.0017727396 0.13678654 -0.061854992 -0.114342555 0.15200998 0.18597111
-0.042100202 0.23851115 0.15468088 -0.08558227 0.11412602 0.14240721 -0.08683748 -0.06470704
0.028040687 -0.12835951 0.114514016 -0.06475761 0.10262333 0.06360494 -0.18338986 -0.047807
0.10127357 0.077163726 -0.027855288 -0.009398171 0.043032702 -0.08327764 0.1306788 0.06356322
0.22002712 0.020901619 0.047617298 -0.2685894 0.06809526 -0.01953169 0.058924858 0.109081484
0.013811094 0.07028523 -0.033043306 0.052946057 -0.014092028 -0.0890019 0.26119888 0.0009546209
0.036670562 0.011691267 -0.032261625 0.032625545 0.071338765 0.13137114 -0.102241985 -0.20348935
-0.07110265 0.07028693 0.10923872 -0.18164842 -0.0625622 0.1158559 -0.0010813251 0.085734025
0.041185357 -0.01705026 0.14503714 0.08112645 0.14422445 -0.07555552 0.12487375 -0.18118675
0.01235096 0.119294174 0.07757541 -0.033407032 0.16261844 0.20736301 -0.03078584 -0.0067049772
-0.12480471 0.050104752 0.15713942 -0.044602502 -0.18836668 -0.036222048 0.014217264 0.034789495
0.24127305 0.008056273 -0.14225441 -0.06526589 -0.06035017 -0.115825206 -0.003944541 0.0010665719
0.10819659 0.13979483 0.2296252 -0.06768045 -0.036694676 -0.0014942096 0.12505868 0.048831135
0.05027722 0.03027448 0.06808713 0.023920283 -0.02784195 0.27530307 -0.08267582 -0.21773508
-0.08019536 -0.061165113 -0.122103065 0.06482172 0.08731941 -0.046418067 0.0030498854 0.24964301
-0.11851547 0.041925095 -0.08403644 -0.02280558 0.028519608 0.04354664 0.12171349 -0.013605707
0.07293086 -0.08884893 0.076221265 0.022053428 -0.033357203 0.1759779 -0.019759601 0.060683686
00000000: fbda df3d eef3 acbd 4099 a1bd 9243 433e
00000010: a20a 29bd 5cbd 113e 19f4 873d dd88 8e3d
00000020: 8392 073e 6eef bb3d 4081 80bd 72f6 bc3d
00000030: b4e7 073e 6d52 553e 7fe9 393e 8b6b 3b3e
00000040: 0188 06bd 62d2 e93d 4e57 883e 891f 0f3e
00000050: 1f2c 393e d7ee 1c3e 2118 89bd 2e82 4f3d
00000060: 770d 5dbd ecd2 283e e552 fd3c fa4f 653e
00000070: 8a4f 6f3e 974a 453d 7eff b13d 17ff f9bd
00000080: 0f80 143e 0f1c b23b 5405 843e 0069 fabc
00000090: d7ca c83b 08e9 543e 3a23 00be 9b01 a93d
000000a0: a49b 2b3e 78a8 853e f7c5 243d 8ec1 063e
000000b0: a738 a03e 09eb 28bd 4a83 2c3c 6ef3 693e
000000c0: 2667 4d3c b2a7 bd3d 3fa5 b83d bc45 253d
000000d0: fb87 1c3e 86b2 3a3d 2f1f d03d 8c2c 183e
000000e0: e3f0 ac3d 17d8 9c3c 29d0 04bd e8d7 343e
000000f0: f11d 93bd 72dd 4f3e 48dc f83c 3f83 1c3e
00000100: 6269 063e 7baa 4e3d 31cc 493d 548d b1bc
00000110: efbd 143d 04b7 ebbd a9dc ab3d d8f9 6b3e
00000120: 8af2 ab3e 58d4 053e bca0 8abd fb49 803b
00000130: 6e7e 0a3e 8dee 8e3d da40 6cbe 3955 f93d
00000140: c5af 34be c6e1 9c3c c96a 59bc 8b4e fd3d
00000150: ef99 d63d 7e02 9c3e 6813 343e 7807 45bd
00000160: 3131 b4bd bc4d 29be 0a55 103e f3be 303e
00000170: 2b17 533d 3a1a 3ebe 6b58 043e 6472 c2bd
00000180: 188b 893e 5db4 673d df2d be3d ee20 2f3e
00000190: 6b34 c8bd 8a6e 61be c4dc e63d 69d5 cf3d
000001a0: 4805 823d f9d2 0b3e a62b 2c3d 387a 7a3e
000001b0: 0dab 3fbd f37b b73d f1f6 26bd 3c7e 023c
000001c0: 8127 c63d aa4b 383e 24df 723d 598b 023e
000001d0: ce31 023e c568 403e 58dd 0bbd 4805 613e
000001e0: c089 bfbd 077c 2b3e 455b e83a c511 0c3e
000001f0: a95b 7dbd 6e2c eabd 81a8 1b3e 366f 3e3e
00000200: 4371 2cbd 443c 743e aa64 1e3e c245 afbd
00000210: e7ba e93d 32d3 113e d9d7 b1bd 2085 84bd
00000220: 95b5 e53c ad70 03be 5386 ea3d a39f 84bd
00000230: 2e2c d23d 4f43 823d 8dca 3bbe 46d1 43bd
00000240: 8468 cf3d 0408 9e3d c630 e4bc c9fa 19bc
00000250: 0f43 303d 788d aabd aad0 053e 6f2d 823d
00000260: ca4e 613e df39 ab3c 5b0a 433d 8d84 89be
00000270: 8775 8b3d ec00 a0bc 315b 713d 1d66 df3d
00000280: ed47 623c b4f1 8f3d 6b58 07bd f7dd 583d
00000290: 40e2 66bc a146 b6bd dcbb 853e 863f 7a3a
000002a0: df33 163d ba8c 3f3c c424 04bd 5da2 053d
000002b0: 0f1a 923d 2886 063e 3f64 d1bd 835f 50be
000002c0: 449e 91bd 98f2 8f3d 8db8 df3d 0b02 3abe
000002d0: 9c20 80bd dc45 ed3d 40bb 8dba 5295 af3d
000002e0: fab1 283d fdac 8bbc 9e84 143e a025 a63d
000002f0: 93af 133e dabc 9abd cfbd ff3d 0589 39be
00000300: ae5b 4a3c 8150 f43d dbdf 9e3d d0d5 08bd
00000310: 7385 263e f856 543e 9632 fcbc 6db5 dbbb
00000320: 9d99 ffbd a43a 4d3d 28e9 203e 1db1 36bd
00000330: 32e3 40be 925d 14bd 87ef 683c 6e7f 0e3d
00000340: 4810 773e 75fe 033c 24ab 11be 1faa 85bd
00000350: bd31 77bd c435 edbd 3541 81bb 37cc 8b3a
00000360: 2c96 dd3d 6026 0f3e de22 6b3e 0c9c 8abd
00000370: 284d 16bd 5bd9 c3ba 620f 003e 2803 483d
00000380: 7cef 4d3d 3002 f83c 4471 8b3d 78f4 c33c
00000390: cd14 e4bc 86f4 8c3e f151 a9bd f2f5 5ebe
000003a0: 773d a4bd 4588 7abd 2c11 fabd 40c1 843d
000003b0: 85d4 b23d df20 3ebd 96e0 473b 6ba2 7f3e
000003c0: 3db8 f2bd a6b9 2b3d 4c1b acbd c5d2 babc
000003d0: f4a1 e93c f65d 323d ec44 f93d 79ea 5ebc
000003e0: c65c 953d 6ef6 b5bd e519 9c3d 64a9 b43c
000003f0: 90a1 08bd 8d33 343e e3de a1bc 758f 783d

fc4.bias f4 [128]
0.18556346 -0.03692104 0.01840916 0.12494033 0.10117089 -0.042627037 0.22345999 0.16650306
0.2283064 0.21545467 0.18040779 0.20593192 0.15883859 0.1785207 0.09847773 0.15323955
0.21400157 0.11227088 -0.038913757 0.145808 0.19904973 0.19749542 -0.052369446 0.042252187
0.063296 0.111862466 0.019752026 -0.09729004 0.18865715 0.15726729 -0.051139027 -0.076115
-0.0419359 -0.09655205 0.12585749 -0.12611324 0.17593718 0.20301844 0.15068428 0.13762371
-0.07118348 0.23983696 0.0023677566 0.19684602 -0.0095508015 -0.043780748 -0.09646673 0.055392586
0.07283539 0.22172537 -0.008188498 0.045171175 0.16622096 0.10483363 -0.07352738 0.008914982
0.16581143 0.11482054 0.22772367 -0.020956492 0.16618031 0.19441773 -0.08090815 -0.11653838
0.17843914 -0.10577139 0.01138547 -0.01524395 0.16033278 -0.06857267 0.28120774 0.21270448
-0.006713357 0.23068759 0.14352186 0.15366611 -0.120083615 0.0102842795 0.23103328 0.033252865
0.04733858 0.1714519 0.14380483 0.2429084 0.05563972 0.23876725 0.08171022 -0.062768765
0.14230298 0.17866634 0.21307497 -0.0027696018 0.038130883 0.21785 -0.023145204 0.21583883
-0.10139146 0.14986953 0.0041762977 -0.10113875 0.19921511 -0.093523555 0.11900067 -0.040752485
0.19520536 0.2107666 0.082852416 0.20303886 0.0040655835 0.15622307 -0.003162666 -0.0082416
-0.12092416 0.12569456 -0.060570408 0.20814775 0.2429125 0.22420594 0.13879159 0.097053014
-0.13521574 0.14509404 0.14753838 -0.08405684 0.21205412 0.04845062 0.14875856 -0.035250407
00000000: 5904 3e3e 843a 17bd cfce 963c b7e0 ff3d
00000010: af32 cf3d b099 2ebd b2d2 643e c77f 2a3e
00000020: 27c9 693e 26a0 5c3e d2bc 383e d1df 523e
00000030: 95a6 223e 21ce 363e b1ae c93d d4ea 1c3e
00000040: 3a23 5b3e 46ee e53d 0864 1fbd b14e 153e
00000050: b1d3 4b3e 3d3c 4a3e 5881 56bd a110 2d3d
00000060: 55a1 813d 2618 e53d 00cf a13c 0040 c7bd
00000070: 572f 413e ad0a 213e 2877 51bd 2ee2 9bbd
00000080: fac4 2bbd 15bd c5bd c9e0 003e d423 01be
00000090: e028 343e 11e4 4f3e fb4c 1a3e 3bed 0c3e
000000a0: a5c8 91bd d297 753e 5d2c 1b3b 0192 493e
000000b0: f77a 1cbc 7153 33bd 5990 c5bd 56e3 623d
000000c0: b92a 953d fa0b 633e 0d29 06bc 6905 393d
000000d0: d435 2a3e 04b3 d63d 8695 96bd 2510 123c
000000e0: 79ca 293e 0827 eb3d 6530 693e f3ac abbc
000000f0: 2c2b 2a3e 7115 473e 2cb3 a5bd adab eebd
00000100: c0b8 363e ac9e d8bd 1f8a 3a3c c3c1 79bc
00000110: 472e 243e d46f 8cbd 76fa 8f3e 34cf 593e
00000120: b8fb dbbb 5e39 6c3e 65f7 123e a65a 1d3e
00000130: 66ee f5bd 657f 283c fd93 6c3e 2834 083d
00000140: 19e6 413d 1691 2f3e 9341 133e fbbc 783e
00000150: 7ae6 633d 677f 743e b057 a73d e98c 80bd
00000160: dfb7 113e 4ff4 363e 5330 5a3e 3582 35bb
00000170: 212f 1c3d 1214 5f3e 039b bdbc db04 5d3e
00000180: 53a6 cfbd 6677 193e 53d9 883b d521 cfbd
00000190: 0cff 4b3e 4789 bfbd a0b6 f33d 14ec 26bd
000001a0: eae3 473e 33d3 573e 87ae a93d 6be9 4f3e
000001b0: 9638 853b f1f8 1f3e bb44 4fbb c707 07bc
000001c0: 16a7 f7bd 13b6 003e ad18 78bd af24 553e
000001d0: 0ebe 783e 3e96 653e 621f 0e3e bbc3 c63d
000001e0: ff75 0abe 8893 143e 4d14 173e fe25 acbd
000001f0: b724 593e 2874 463d 2a54 183e bb62 10bd

q2.weight f4 [1, 128]
0.21651672 -0.25949395 -0.41358066 0.24873047 0.25118747 -0.03138666 0.19373676 0.27098277
0.19418606 0.15074614 0.16737372 0.19939503 0.19966538 0.46610525 0.17773753 0.2165325
0.22563495 0.16375884 -0.32620648 0.16799311 0.16370037 0.16593812 -0.400141 -0.01867378
-0.54221207 0.22411636 -0.3132213 -0.50200063 0.21667741 0.18705711 -0.6097639 -0.5547722
-0.025359044 -0.19071959 0.1586958 -0.3734744 0.22641338 0.1632252 0.17363112 0.2265977
-0.35935602 0.17986163 -0.43624 0.2377909 -0.4204461 -0.47636423 -0.5920035 -0.35541826
-0.45643616 0.22288236 -0.3719018 -0.39698836 0.28459042 0.20691632 -0.4171295 -0.4056448
0.22650714 0.24027205 0.17496713 -0.25390565 0.15132032 0.22540574 -0.2526427 -0.33839023
0.21137646 -0.54203486 -0.0019261712 -0.46382475 0.19412443 -0.38093913 0.23400706 0.25862592
-0.440657 0.20142739 0.19282375 0.26814008 -0.3627244 -0.37822795 0.21894483 -0.5150503
-0.4243517 0.16178347 0.25686193 0.1644089 -0.3519644 0.16942887 0.24046354 -0.01801146
0.19532837 0.1754126 0.15423192 -0.66364765 -0.33862317 0.2055097 -0.38314906 0.19704011
-0.2278161 0.23247126 -0.42035875 -0.39946213 0.31934547 -0.42573318 0.20159799 -0.54135823
0.14360712 0.3012657 0.19716085 0.2303717 -0.48172393 0.20863284 -0.49623007 -0.4064702
-0.3089681 0.20286924 -0.50372076 0.1566176 0.17473139 0.22028714 0.24836251 0.17260373
-0.26741794 0.2061437 0.18621132 -0.5613643 0.23888943 -0.34968576 0.23121107 -0.37266895
00000000: 8fb6 5d3e 64dc 84be d8c0 d3be 33b3 7e3e
00000010: a59b 803e 4c8f 00bd ee62 463e 41be 8a3e
00000020: b6d8 463e 325d 1a3e 0464 2b3e 362e 4c3e
00000030: 1575 4c3e 59a5 ee3e d400 363e b2ba 5d3e
00000040: d90c 673e 66b0 273e 8904 a7be 6306 2c3e
00000050: 12a1 273e afeb 293e 48df ccbe c1f9 98bc
00000060: 69ce 0abf c27e 653e 8b5e a0be 1d83 00bf
00000070: afe0 5d3e e68b 3f3e 7d19 1cbf 8d05 0ebf
00000080: c5bd cfbc ff4b 43be 2781 223e 0938 bfbe
00000090: e9d8 673e 8224 273e 5bcc 313e 3a09 683e
000000a0: 83fd b7be a62d 383e d95a dfbe 757f 733e
000000b0: b644 d7be 03e6 f3be 8b8d 17bf 62f9 b5be
000000c0: 00b2 e9be 463b 643e ea69 bebe 0f42 cbbe
000000d0: d6b5 913e dfe1 533e ff91 d5be adb0 cfbe
000000e0: 7df1 673e e009 763e 952a 333e ecff 81be
000000f0: b7f3 1a3e c3d0 663e 625a 81be 7c41 adbe
00000100: 1273 583e ccc2 0abf 9577 fcba 707a edbe
00000110: 8ec8 463e 740a c3be 8c9f 6f3e 9e6a 843e
00000120: cb9d e1be fb42 4e3e 9773 453e a849 893e
00000130: 03b7 b9be 18a7 c1be 1333 603e 56da 03bf
00000140: a044 d9be 91aa 253e 6883 833e cf5a 283e
00000150: ae34 b4be c37e 2d3e 133c 763e c58c 93bc
00000160: 2904 483e 5c9f 333e f9ee 1d3e d0e4 29bf
00000170: 0460 adbe 2371 523e 1d2c c4be e2c4 493e
00000180: a048 69be f20c 6e3e 4339 d7be 4d86 ccbe
00000190: 4081 a33e b3f9 d9be b46f 4e3e 7496 0abf
000001a0: bf0d 133e 7f3f 9a3e 89e4 493e 8fe6 6b3e
000001b0: 85a4 f6be d9a3 553e de11 febe dd1c d0be
000001c0: 1131 9ebe f4bc 4f3e d8f3 00bf 5d60 203e
000001d0: c9ec 323e f492 613e be52 7e3e 08bf 303e
000001e0: 01eb 88be 5617 533e 2eae 3e3e 92b5 0fbf
000001f0: 6e9f 743e 030a b3be 98c2 6c3e 77ce bebe
