resource/models/without_gt_critic_10000.pth (torch, 155617 bytes, 10 tensors)

fc1.weight f4 [128, 17]
000000 3e c1 ce bd e8 a5 32 be 05 e6 d5 3d 49 47 60 3e
       -0.10095452 -0.174461 0.10444263 0.21902193
000010 6a 66 4d 3e 76 7f 2c be 41 33 87 be 1c 46 4e 3e
       0.20058599 -0.16845497 -0.2640629 0.20143932
000020 e4 54 03 3e 2d 91 14 be df 2f 16 bd 6a 6a 2e 3e
       0.12825352 -0.14508505 -0.036666747 0.17032781
000030 5d 05 98 3e 41 f6 19 3d 50 f8 60 be 4d 6e c1 3d
       0.29691592 0.03758836 -0.21969724 0.09444866
000040 ba f6 55 3d bc 33 36 3e fd eb a8 bd f1 8b 4b bd
       0.05223725 0.17793173 -0.08248136 -0.049694005
000050 95 4d 48 be 28 3b 05 3e 1e db 94 be f9 9b 97 be
       -0.19560845 0.13010848 -0.29073423 -0.29611185
000060 42 4f 82 be a1 8e 19 be 33 2e b9 3a d9 2f 1e 3e
       -0.25451094 -0.14995815 0.0014128148 0.1544794
000070 ed 8e 2f 3e d6 e3 bb 3b ff 04 e9 3d b8 cf 88 3d
       0.17144366 0.0057339473 0.11377906 0.06680244
000080 5d e2 c9 3d 7f 0e e9 3d d8 e6 1c 3e f9 fb 95 be
       0.098576285 0.11379718 0.15322435 -0.29293802
000090 0c 3f c1 3d ef ed 0b bd 05 a9 9a 3c eb 95 46 be
       0.09435853 -0.034162458 0.018879423 -0.19393127
0000a0 0e 79 80 be 9c 7d 1e 3e 7e a2 2f bd 1f b4 f5 3d
       -0.25092357 0.15477604 -0.042879574 0.11997246
0000b0 bd 46 20 3e 28 89 db 3c be 92 10 3e 12 1f 70 3e
       0.15651985 0.0267988 0.14118478 0.23449352
0000c0 e8 b8 9d 3d 98 b4 12 be 52 07 51 3e 12 69 f3 bd
       0.07701284 -0.14326704 0.20412949 -0.11885275
0000d0 72 ff b0 bc 91 f6 2e be 20 33 b1 bc 2b 53 31 be
       -0.02160618 -0.17086245 -0.021630824 -0.17316882
0000e0 45 d7 40 3e 5c 11 3e be 03 26 63 bd 5e 61 cc bd
       0.18832119 -0.1856131 -0.055456173 -0.09979509
0000f0 5e 4a c3 3d 8b b2 a2 3d c7 a6 3c be a7 4e 05 be
       0.09535669 0.079442106 -0.18422996 -0.13018285
000100 4d 14 26 3e 58 0d 07 3e 2e 57 8d bd a6 64 1a 3e
       0.16218682 0.13188684 -0.06901394 0.15077457
000110 52 de 84 be 3f bb 0b be d2 26 8d 3c 3d 5f 8e bd
       -0.25950867 -0.13645647 0.017230425 -0.06951759
000120 3b ee 6b be c5 97 ce 3d ac 3a 93 bd 50 05 a3 3d
       -0.23040096 0.100875415 -0.07188925 0.07959998
000130 66 7c 69 be d3 cc 3a 3e 68 c5 7b be 72 b0 62 3d
       -0.2280136 0.18242197 -0.24587023 0.055344053
000140 c4 99 37 bd b3 4a c2 3d 94 ef 21 be 02 a3 0b 3e
       -0.044824377 0.09486904 -0.15814048 0.13636401
000150 f4 6a 1f be eb 44 b5 3d d5 4c 04 3e d6 b9 1f bc
       -0.15568143 0.08851036 0.12919934 -0.009748897
000160 a8 23 8d be fb 67 dd 3d a2 12 a3 bc ae 06 70 3e
       -0.27566266 0.10810848 -0.019906346 0.23440048
000170 7f bc 2e be 36 e9 96 bc f9 6d f3 bd e7 40 78 be
       -0.17064093 -0.01842175 -0.1188621 -0.24243508
000180 f7 a9 26 be c4 26 c3 bd df 1e 24 3c 8e 5a 95 bd
       -0.16275774 -0.09528878 0.010017126 -0.072926626
000190 f5 f8 69 3d 51 c7 49 3e 56 de 11 3e 01 b0 42 be
       0.05712219 0.1970494 0.1424497 -0.19012453
0001a0 31 85 6e 3e 56 28 02 3d 79 fb 04 3e 9f cb a1 bd
       0.23292996 0.03177675 0.12986554 -0.07900166
0001b0 bf ec 94 be 4f 43 e6 bd d1 06 15 3d e2 43 ad 3e
       -0.29086873 -0.11243307 0.036383454 0.33840853
0001c0 d1 e9 b9 3d b4 39 f6 bd 4f 50 9a bc 0c 3f ab 3d
       0.090778 -0.12022725 -0.018837122 0.083616346
0001d0 87 17 0e bd 66 da 11 be bb 91 bd bd 87 89 54 be
       -0.034690406 -0.14243469 -0.092563115 -0.20755588
0001e0 7a f9 47 be 85 e3 44 be 98 7c 9f 3e c7 03 81 bd
       -0.19528762 -0.19227417 0.31149745 -0.062995486
0001f0 91 02 ab bd ba ec 45 be a1 9b 8e bd ed 67 65 be
       -0.08350099 -0.19328585 -0.069632776 -0.22402926
000200 3c df 1b 3e d3 41 b7 bd f8 10 97 bd a0 b0 3d 3e
       0.15221876 -0.08948102 -0.073762834 0.18524408
000210 91 02 46 bc aa 4f 81 be d4 05 b2 3c 06 71 31 3e
       -0.012085573 -0.2525609 0.021731295 0.17328271
000220 4f 27 54 be 92 94 4b bd 97 96 d9 3d a6 de b2 bd
       -0.2071812 -0.049702235 0.10624426 -0.08733873
000230 7b 8e b0 3d fa 86 7f be ba 26 e6 bd 8f da ca 3d
       0.08620926 -0.24953833 -0.11237855 0.09904968
000240 5d fe 73 3e 99 ae 5c 3e 12 80 8f be e7 9e 59 3e
       0.238275 0.21550979 -0.28027397 0.21252023
000250 a1 a5 8f be b4 5e b0 bc 10 61 c3 bd 75 f6 71 3e
       -0.28056052 -0.021529533 -0.095399976 0.23629172
000260 25 a2 f7 3d 53 d8 13 be ac 4d 9c 3d 90 d3 bf be
       0.120914735 -0.1443799 0.07632002 -0.37466097
000270 de 7f b0 bd f1 d3 7f 3d 8e e6 2a bb e8 ec 43 3e
       -0.08618139 0.062457982 -0.0026077363 0.19133341
000280 ee 42 ef bd c3 d8 03 bc 50 9f 2e be 4c f4 a4 bd
       -0.11682688 -0.0080472855 -0.1705296 -0.080544084
000290 6d 74 5f 3d 5f 55 2d 3e eb b2 03 3e 55 90 c6 3d
       0.05455439 0.16927098 0.1286122 0.09695498
0002a0 8d d5 8e be 17 86 94 3e 03 b2 2e be 27 b9 3f 3e
       -0.278973 0.29008552 -0.17060094 0.18722974
0002b0 b6 d9 9f bb db b4 9c bd 4f c8 cf 3d 68 53 8d be
       -0.004878248 -0.07651683 0.10145628 -0.27602696
0002c0 29 35 25 bd 38 50 65 ba af 79 47 be 74 ce 02 be
       -0.0403339 -0.000874761 -0.19480012 -0.12774068
0002d0 50 9b 80 be 48 36 8a 3e ce cd e7 3c c1 0c 50 be
       -0.25118494 0.26994538 0.028296378 -0.20317365
0002e0 c9 de 8e 3d f6 ad e1 3d b1 02 3a bd c9 9e 63 3e
       0.06976087 0.110195085 -0.045412723 0.2222854
0002f0 14 94 b5 be b7 8d 1a be 44 47 8c be 39 d7 d8 3d
       -0.35464537 -0.15093122 -0.2739812 0.105879255
000300 d6 f4 7c 3d 4c 83 3c be 26 6f a3 be c7 c2 06 bc
       0.06175693 -0.18409461 -0.31920737 -0.0082251495
000310 cf 59 08 be 32 1f 40 3e 62 5c 4c be 34 ea 0d 3e
       -0.1331551 0.187619 -0.19957116 0.13858873
000320 62 e7 a5 bc c6 93 08 3e 08 3e 33 be c3 84 9e bd
       -0.020251933 0.13337621 -0.17504132 -0.07740166
000330 e4 e3 2b be 06 7f 61 be c2 c7 63 bb c4 51 32 3e
       -0.16786152 -0.22021112 -0.0034756516 0.17414004
000340 06 1a 3d 3e 71 ce 3b 3e a4 34 8b 3c be 94 34 3d
       0.18466958 0.1834047 0.016992874 0.044087164
000350 e1 2c d5 bb 53 e7 3f bc 8e 0b ea bd 4d 94 08 3e
       -0.006505594 -0.011712867 -0.11427985 0.13337822
000360 da c6 39 3e 9f fd ed 3d d7 78 32 3e c2 5b 5e 3e
       0.18142262 0.1162064 0.17428909 0.2171469
000370 d2 c7 8e bd eb 64 25 3e d4 53 83 be 58 5a da 3d
       -0.069717064 0.16151778 -0.25649893 0.10661763
000380 6e 8a 0f 3e 5f 02 55 3e 02 5c 7f be 79 d7 4d 3d
       0.1401765 0.20801686 -0.24937442 0.05025432
000390 41 cf a9 bd 32 88 2e bd 39 51 96 bd f5 96 f5 bd
       -0.08291484 -0.042610355 -0.07339711 -0.119916834
0003a0 71 87 58 be 7f f4 c3 3d 36 c1 a4 be 86 ff 4e 3e
       -0.21145417 0.09568118 -0.32178658 0.20214662
0003b0 84 69 e3 3d 55 cf a5 be d6 87 95 3d 47 dd c4 bd
       0.1110411 -0.32384744 0.07301299 -0.09612518
0003c0 b4 8f 60 3e a5 52 60 be 47 3f 44 3d f9 9b 01 3e
       0.21929818 -0.21906526 0.04791191 0.12657155
0003d0 b1 41 48 3e 17 18 30 be 87 45 3a 3e 11 93 08 be
       0.1955631 -0.1719669 0.18190585 -0.13337351
0003e0 7b 99 61 be a3 e9 3b bd 0d d4 43 3e a3 44 7b 3e
       -0.22031204 -0.04587711 0.1912386 0.24537902
0003f0 34 d3 40 bd ca c4 d4 3b 01 87 0f be 22 70 0f 3c
       -0.04707642 0.0064931856 -0.14016344 0.008754762

fc1.bias f4 [128]
000000 05 2b 8e 3e 05 99 9f 3e aa 2f af bd a9 c3 a3 3e
       0.27767196 0.31171432 -0.08554013 0.31985214
000010 a7 d0 c7 3e 16 e8 95 3e b5 eb 7a 3e ae 2f 09 3e
       0.39026377 0.2927863 0.24503978 0.13397095
000020 27 1f 6c 3d 07 ff 09 3e 1d 9a 7d 3e 29 b3 cd 3d
       0.057646897 0.13476191 0.24765821 0.10043938
000030 bc 2c b6 3e e0 b9 30 be 2b 3a 9a 3e 9b 39 e6 3d
       0.35581005 -0.17258406 0.30122504 0.11241456
000040 f9 00 19 3e 36 3b 56 be 18 10 52 3e 1e 32 10 be
       0.14941777 -0.20921025 0.20513952 -0.14081618
000050 3c b4 d3 bd ff 3a 90 bd 59 43 d5 3e d1 19 0f 3e
       -0.10337111 -0.070425026 0.41652945 0.13974692
000060 33 37 99 3d b1 3c 88 3e 40 7f f5 bd fa 66 a8 3e
       0.074812315 0.26608804 -0.11987162 0.32891065
000070 9c d6 4b 3e 4d 55 26 be 06 ce 17 3d a2 01 14 be
       0.19906086 -0.16243477 0.037061714 -0.14453748
000080 92 19 f9 bc 3c 11 31 bc 2f 16 b8 3e 47 0a 7f 3e
       -0.0304077 -0.010807332 0.35954425 0.24906264
000090 b6 d0 b1 3e a4 16 f6 3d 71 e7 9b 3e 90 0d 5c bd
       0.34729546 0.12016037 0.30450013 -0.05372387
0000a0 63 f3 53 3e 52 15 34 be 6b 1a 6c be e5 07 e3 bd
       0.20698313 -0.17586258 -0.23056953 -0.1108549
0000b0 fd fa ab 3e 65 cc af 3e 0c b6 d5 3e b4 69 80 3e
       0.33589926 0.34335628 0.41740453 0.25080645
0000c0 a9 24 ce 3e 0e 67 91 bd 67 7f 61 be 80 9c 25 be
       0.40262344 -0.07099734 -0.22021256 -0.16172981
0000d0 e8 4a 8a 3e 97 ba ca 3e 1b d1 40 be 96 c3 81 3e
       0.27010274 0.39595482 -0.18829767 0.25344533
0000e0 0a b1 a4 3e 93 ec 63 be 73 76 f2 bc dc fb a9 3c
       0.3216632 -0.22258215 -0.029597497 0.020749979
0000f0 6b 3e c3 3e 6e 30 58 be f5 24 f0 bc 76 45 dc bb
       0.3813356 -0.21112224 -0.029314497 -0.0067221476
000100 c1 83 e6 bd 84 49 ab 3d 53 fb 26 3e 64 1c a7 3e
       -0.11255599 0.08363631 0.1630681 0.32638848
000110 dd 9e bb 3e 32 69 49 3e 98 de e8 3c 3c a3 02 be
       0.3664464 0.19669035 0.028426453 -0.12757581
000120 87 e6 d4 3e a6 c3 2c 3e 09 c2 bf 3e 30 07 cf 3e
       0.41582128 0.16871509 0.37452725 0.4043517
000130 fc 43 bc 3e cc e0 2f 3e c5 11 a0 3e 99 a0 6d 3c
       0.36770618 0.17175597 0.31263557 0.0145036215
000140 ab d5 b8 3e d2 6a 5b be 32 d6 98 3e 32 48 cd 3e
       0.36100516 -0.21427467 0.29850918 0.40094143
000150 7a ad d2 bd fa 46 62 3d 2e 22 4b be 1a e3 80 be
       -0.10286994 0.05524347 -0.19837257 -0.25173265
000160 e2 4e d2 3e ef cb 08 be 82 3c 82 be 5b b0 68 3e
       0.41075808 -0.13359044 -0.2543679 0.22723524
000170 fe e2 4c 3e 8d a7 3d be 10 b2 48 bd 0a af 5b bd
       0.20008466 -0.18520947 -0.04899794 -0.053633727
000180 e9 d5 c6 bd 8f 80 19 3e 19 0b 30 bd 65 ae a7 bd
       -0.09708769 0.14990447 -0.042979334 -0.0818756
000190 80 46 68 3c 64 21 cb 3e ee b5 49 3e ef 99 24 be
       0.014176965 0.39673913 0.19698307 -0.16074346
0001a0 06 f5 73 bd 4d 93 61 be fb d1 16 3e 56 df d0 3e
       -0.059559844 -0.22028847 0.14728539 0.40795392
0001b0 ef c4 8a 3e d8 3a 57 be 76 51 1d be 2d 60 21 3e
       0.27103373 -0.21018541 -0.15363106 0.15759344
0001c0 44 4f 82 3e be c9 91 be 3d 6f 9a 3d 2b 42 81 bd
       0.254511 -0.2847423 0.07540748 -0.06311449
0001d0 62 6e 24 be 67 78 3f be 63 21 bc 3e 32 98 0f be
       -0.16057733 -0.18698274 0.36744222 -0.14022902
0001e0 55 4c 7a bd 48 71 c9 bd c3 2b 04 3d 4d d9 01 bd
       -0.061107952 -0.0983606 0.032268297 -0.031701375
0001f0 e8 85 a4 3e e5 b2 a5 3e 2f ad 51 bd f2 62 d5 bc
       0.32133412 0.32363048 -0.05119055 -0.026048157

fc2.weight f4 [128, 128]
000000 51 0e e2 3c 94 26 15 3e fa b4 0c 3c 55 e7 58 3e
       0.027594717 0.14565498 0.00858807 0.21181996
000010 60 40 72 3e d9 6d 0a 3e c9 6c 3d 3e b7 0a e9 3c
       0.2365737 0.13518466 0.1849853 0.028447492
000020 d8 38 95 3d 57 db 5d bd 49 96 3e 3e 21 a2 c6 3d
       0.07286233 -0.054164257 0.18612017 0.096988924
000030 34 a2 10 3e 11 22 3f be d1 4f 0e 3d 65 e4 71 3d
       0.14124376 -0.18665339 0.034744088 0.059055705
000040 8d 15 b3 3d 6a e4 b9 bb 70 c6 b4 3d 90 69 dc 3c
       0.08744345 -0.005672981 0.088269114 0.026905805
000050 1c 83 8f 3d 7b b7 e5 bb 14 6e ad 3d 81 19 7a 3d
       0.07007429 -0.007010398 0.08468261 0.06105948
000060 1e 4d 37 bb ea 2a 88 3d 30 9a 12 bc 40 0c 65 3e
       -0.002796955 0.0664881 -0.008947894 0.22367954
000070 70 de 35 3c 65 56 f1 bd c2 4a 09 3e 06 e5 82 3b
       0.0111003965 -0.117840566 0.13407424 0.003994587
000080 49 8d 80 3c 75 41 b8 bb dd bc e5 3d ba 71 6e 3d
       0.01569237 -0.0056230375 0.112176634 0.058213927
000090 10 c4 f5 3d c5 cd fd 3d 2c dd 5d 3e be 1b f0 bd
       0.120002866 0.12392763 0.21666402 -0.117240414
0000a0 cb c1 04 3e 52 85 b2 bd 1f b3 96 3d a4 1e 92 bc
       0.12964551 -0.08716835 0.073583834 -0.017836876
0000b0 12 91 f7 3d c9 d6 d5 3d 86 59 1f 3e 68 5e 06 3c
       0.12088217 0.10441358 0.15561494 0.008201219
0000c0 ca 20 db 3d e4 63 13 bd 90 c9 cc bb 43 b8 9e bd
       0.106996134 -0.035983935 -0.006249614 -0.07749989
0000d0 fa 2f 4d 3e 8c 49 25 3e 74 0c 2f be 1f 74 3f 3e
       0.20037833 0.16141337 -0.17094594 0.1869664
0000e0 0c 83 41 3e 94 25 a5 bd ff 25 cc 3c 8b 9a 18 3e
       0.18897647 -0.08063808 0.024920462 0.14902703
0000f0 b9 80 21 3e bd 76 13 be 41 21 fc 3d 60 73 da 3c
       0.1577176 -0.14400764 0.1231103 0.026666343
000100 61 11 7c 3d 4e 96 29 3e 5e 77 64 bc 3e 3d bc 3c
       0.06154001 0.16561243 -0.013944475 0.022978421
000110 35 e5 ad 3d c4 0c df 3d b2 05 99 3d 55 c9 e1 3d
       0.084909834 0.10891107 0.074717894 0.11024729
000120 64 50 19 3e 79 9f 51 3e 76 8e 0b 3e db 3b 62 3e
       0.14972073 0.2047099 0.13628563 0.22093146
000130 2b 36 07 3e 10 cc 5e 3d 23 c9 98 3d 23 8b 4c bd
       0.13204257 0.054393828 0.07460239 -0.04993738
000140 f1 38 2e 3e 0e e8 e0 3c 74 4c ce 3d e0 cb bd 3d
       0.17013909 0.027454402 0.10073176 0.09267402
000150 03 cc b9 3c 24 b0 ac bc ef 7e 95 bc 15 f5 12 3d
       0.022680288 -0.021080084 -0.018249003 0.03587826
000160 4a 37 3a 3e b6 40 67 bd 43 2b 74 3d be f4 ee 3d
       0.18185154 -0.056458198 0.05961157 0.116677746
000170 27 5a 87 bc 17 e9 8d 3d ec 45 1a bd 6e a6 ad bc
       -0.01652248 0.06929224 -0.03766434 -0.021197524
000180 fd cb 2a 3e cd 71 60 3d 29 99 48 bd 6c 1b 22 3e
       0.16679378 0.05479603 -0.04897419 0.15830773
000190 17 65 d0 3d 88 c9 13 3e 55 6d a2 3d a5 87 29 bc
       0.10175531 0.14432347 0.0793101 -0.010347282
0001a0 36 d7 b1 3d f3 a2 fd bd c7 93 b3 3d eb 48 85 3d
       0.08683626 -0.12384596 0.08768421 0.065080486
0001b0 d8 65 23 3e 7e e9 cc 3c e5 c1 5d bb 02 62 9e 3d
       0.15956819 0.025013682 -0.0033837494 0.07733537
0001c0 b1 5e 27 3e 94 d9 92 3a b0 4a 26 bc c7 cb 95 3d
       0.16344716 0.0011203759 -0.010149643 0.07314258
0001d0 31 82 5b 3c 54 c8 a3 bd a4 e5 06 3e f7 0a e6 bd
       0.013397739 -0.07997194 0.13173538 -0.1123256
0001e0 53 49 23 3e 87 99 ed bd 15 66 e6 3d e6 44 3e 3d
       0.1594594 -0.11601549 0.11249939 0.046452425
0001f0 27 a2 d5 3d 18 95 04 3e 9b d7 70 3d bb db 10 3e
       0.10431319 0.129475 0.058799367 0.1414632
000200 0f db 57 3d 4e ca 59 3e e6 f0 0b 3e 1f f9 0e 3e
       0.052699145 0.2126858 0.13666114 0.1396222
000210 b4 ab 1d 3e 05 d9 76 3d 11 30 56 3e c3 06 2d 3e
       0.15397531 0.06026556 0.20916773 0.1689711
000220 93 70 ed 3d 37 45 d2 3d e9 b8 31 3e 92 9f a0 3d
       0.115937375 0.10267108 0.17355694 0.078429356
000230 f6 52 1a 3e fd 84 23 be bd 0d 11 3e 9b 26 c8 3b
       0.1507071 -0.159687 0.14165397 0.0061081178
000240 6d 65 86 3c 3f 62 38 bd c5 ff 87 bc c2 4e d1 bd
       0.016405785 -0.04501557 -0.016601453 -0.102201
000250 94 4b c4 bd 38 3b fe 3d d8 9d 46 3e 50 3a a2 3d
       -0.09584728 0.12413639 0.1939615 0.079212785
000260 66 68 96 3d 0d da fa 3d 48 6f 01 bd e8 cd e9 3d
       0.07344131 0.12248621 -0.031600267 0.114162266
000270 df 5b d5 3c 93 66 38 3d bb 06 25 3d 94 30 cb bd
       0.026044784 0.045019697 0.04028962 -0.09921375
000280 a6 7b d7 3d 7c a6 0f 3e 51 04 04 3e 5d 41 23 3e
       0.10521631 0.14028352 0.12892272 0.15942903
000290 3f e4 b0 3d fe 55 de 3d 0c 13 37 3e 77 b1 16 bd
       0.086372845 0.108562455 0.1787836 -0.036790337
0002a0 d1 bd 3c 3c b0 5a a0 bd 02 61 28 3e e9 f2 be bd
       0.011519865 -0.07829797 0.16443256 -0.09323675
0002b0 61 97 dd 3d 59 d0 70 3e ed 35 10 3e 22 11 84 3d
       0.10819889 0.23516978 0.14083071 0.0644858
0002c0 0b 5e 2e 3e f4 bf 6a 3d 4e 56 4b bd d5 fe ae bd
       0.17028062 0.057311967 -0.049642853 -0.08544699
0002d0 cf 0b 63 3e a9 8a 57 3e 40 59 37 be 42 56 d6 3d
       0.22172473 0.21048988 -0.1790514 0.10465671
0002e0 23 06 11 3e 7f dd c3 bd 9a 05 47 3d 57 e1 39 3e
       0.14162497 -0.095637314 0.048589326 0.18152367
0002f0 3b 2a ed 3d c3 e7 d3 bd 5d 88 4a bd bd 08 b8 3c
       0.115803204 -0.103469394 -0.049446452 0.022465104
000300 8f 05 96 3c 1c b1 0f 3e 35 24 2a 3c 6b bf 6c 3c
       0.018313197 0.14032406 0.010384609 0.0144499345
000310 3c 0b 1b 3e 8d fb e4 3c 46 ea 15 3d a6 da 23 3b
       0.15141004 0.02795198 0.036600374 0.002500215
000320 ab ed 5f 3e b9 c1 74 3e 11 45 29 3e 54 d7 74 3e
       0.21868007 0.23902024 0.16530253 0.23910266
000330 ed b8 07 3e 03 ad de 3d ef b3 1c 3d 79 30 34 3d
       0.13254137 0.10872843 0.038257536 0.04399154
000340 26 fb 59 3c 62 c6 4b 3d 84 73 03 3e 02 e5 68 3e
       0.013304507 0.04974974 0.12837034 0.2274361
000350 17 56 85 bd ec 27 86 3d 2b 9c a5 bd e1 32 43 3d
       -0.06510561 0.06550583 -0.08086427 0.047655944
000360 5b 6e f4 3d 06 23 ab bd e2 e9 68 3d da eb 03 3d
       0.11935111 -0.083562896 0.056863673 0.032207347
000370 7b 9b 62 3d 88 62 ea 3c b5 b9 9a bd 06 22 9f 3c
       0.05532406 0.028611436 -0.07554952 0.019425403
000380 80 7e d3 3d e2 01 70 bc f2 12 a4 bb 45 55 85 3c
       0.10326862 -0.014648886 -0.0050071413 0.016276011
000390 99 23 da 3d 56 77 a9 3d 7c f1 3e 38 78 44 ed bc
       0.10651321 0.08274715 4.552443e-05 -0.028963313
0003a0 a3 65 e5 3d 22 7a c5 bd 39 4d 90 3b ed 72 5c 3e
       0.11201026 -0.096424356 0.004403737 0.21528216
0003b0 08 4c 2e 3e 38 1f 38 bd 44 7d 1d be 57 38 e5 3d
       0.17021191 -0.044951648 -0.15379816 0.111923866
0003c0 de 36 42 3d d8 d3 07 be 75 a0 b6 3d ff 0c a6 bc
       0.047415607 -0.13264406 0.089173235 -0.020269869
0003d0 15 93 ad bd b4 9f 87 bd ad 21 3a 3e 2a bd a7 bd
       -0.08475319 -0.06622258 0.18176909 -0.08190377
0003e0 69 24 bb 3d 0c 68 cb bd 36 77 3f 3c de dd 19 3e
       0.09137804 -0.09931955 0.011686137 0.15026042
0003f0 80 bb d1 3d 24 69 01 3e 2a 47 3d bc 28 60 d4 3d
       0.10240841 0.12637764 -0.011552611 0.10369903

fc2.bias f4 [128]
000000 59 ec e9 3d 84 b3 23 3e 92 bd 61 3e fe 7d 32 3e
       0.11422033 0.15986449 0.22044972 0.17430875
000010 a6 0e ae bc 4a ba 3c 3d af b2 68 3d 02 be af bd
       -0.02124722 0.046076097 0.05681103 -0.08581163
000020 e5 e2 20 3e df 51 46 3e b8 8d df 3d 8f 05 1b 3e
       0.15711553 0.19367169 0.109157026 0.15138839
000030 e7 94 48 3e 56 d5 a8 bc 94 fe 34 3e 82 ce 97 bd
       0.19588052 -0.020609539 0.17675239 -0.07412435
000040 30 45 32 3d d4 08 2d 3e 3f 13 1e 3e 71 7f 9c 3d
       0.043523014 0.16897899 0.1543703 0.07641495
000050 f5 89 41 3c 9c 45 d1 3c 34 82 27 bd 97 66 84 bd
       0.011812677 0.025545888 -0.040895656 -0.0646488
000060 3d 3e 01 3e 7e 4b c8 3d d7 77 5f bc 20 f1 1d bc
       0.12621398 0.09780024 -0.013639412 -0.009640008
000070 77 74 ae bd 9e af 4a bd 3a a1 38 3e 61 18 28 3e
       -0.08518308 -0.049483888 0.18030253 0.1641555
000080 11 ef 41 bc 69 6d 07 3e 8b 3d 34 3e 55 33 2c 3e
       -0.011836783 0.1322533 0.17601602 0.16816457
000090 c4 d6 f7 3d 30 94 1c 3d 6a 68 d4 bd dc b0 ae 3d
       0.1210151 0.03822726 -0.10371478 0.08529827
0000a0 9e 47 f5 3d 77 af 21 3b f3 f8 c4 bc 3d de a7 3c
       0.119765505 0.0024671236 -0.02404449 0.020491714
0000b0 d0 45 e5 bd 2c d9 4d 3e 88 56 50 3e 88 a4 08 3e
       -0.11194956 0.20102376 0.20345509 0.13344014
0000c0 2c 3c 1e 3e 76 66 0a 3b e3 5b 2c 3e 72 92 59 bd
       0.15452641 0.00211182 0.16831927 -0.053118177
0000d0 91 e9 3f 3d 6d cd 6a 3e 6d 0e 3a 3c a7 16 52 3e
       0.046853606 0.22929926 0.011355978 0.20516454
0000e0 2d 58 d6 3d 4c f5 40 3e fd 7c 03 bd f7 cf 23 3d
       0.10466037 0.18843573 -0.03210162 0.039993253
0000f0 82 b5 f5 bd 95 f7 59 bc 62 67 e7 3d 7a 71 4e 3d
       -0.119975105 -0.013303657 0.112990156 0.05040119
000100 19 d0 54 3e 44 25 21 3d 09 60 70 3c 6e 51 cd 3d
       0.20782508 0.03934218 0.014671334 0.10025297
000110 f5 1f 1e 3e e1 c4 c2 3d f0 32 2b 3e eb 12 80 bd
       0.15441878 0.09510208 0.1671865 -0.06253608
000120 59 77 9c bc d8 d9 31 3e 09 f2 c6 bd 99 cc 45 3c
       -0.019099878 0.17368257 -0.09714133 0.012072706
000130 43 0a ca bc e6 d9 27 3e 4d 6a 20 bd dd fb 3e 3e
       -0.024663096 0.16391715 -0.039163876 0.18650766
000140 0b 3d 97 bc 59 a2 60 3d 5a a3 94 bc 74 f9 5b 3e
       -0.018461725 0.054842327 -0.018144298 0.21481878
000150 93 9b 3a 3d 30 b0 00 3e 65 a4 f7 3d 45 01 ed 3a
       0.045558523 0.1256721 0.12091903 0.0018082043
000160 4b ea 0a 3e 12 11 0f bd a9 c0 2e 3d 8a 79 af bc
       0.13565938 -0.03492839 0.042664204 -0.021420259
000170 92 8d 4b 3e 24 df aa bd ea f6 47 3d 94 87 0c bc
       0.19878224 -0.08343342 0.04881946 -0.008577246
000180 bc 25 03 3c b9 b8 23 3e eb 0d 3d 3d e6 b0 71 3d
       0.008004602 0.15988435 0.04615585 0.059006594
000190 a3 a6 66 3e 60 70 e2 3b f2 0f fb 3d 7a 18 73 bc
       0.22524504 0.006910369 0.12258901 -0.014837379
0001a0 d9 d1 05 3e 68 b1 3f 3e 20 9b 4a 3e 68 4c 1c 3e
       0.13068332 0.18720019 0.19785738 0.15263522
0001b0 a4 53 16 3e c3 54 35 3b 81 cd c0 3d 50 58 bc 3d
       0.14680344 0.002766893 0.09414197 0.09196532
0001c0 43 53 d6 bd 21 54 d5 bc 45 a0 66 bd 88 4c a0 bc
       -0.104651 -0.026041092 -0.05630519 -0.019567743
0001d0 14 2f 1e 3e 42 f3 d6 bd 02 59 10 bd 06 e3 6b 3d
       0.15447646 -0.104956165 -0.035241134 0.057589553
0001e0 41 e9 28 3d ec 47 d2 3d 4f f2 4b 3e 76 2b 4e 3e
       0.041238073 0.10267624 0.19916652 0.20133767
0001f0 43 c1 e6 3b 80 9d 0c 3e ea 52 e8 bc df bb a2 bd
       0.0070420816 0.13731956 -0.028359849 -0.0794599

q1.weight f4 [1, 128]
000000 a6 d5 04 3e 1c a7 21 3e 18 b3 10 3e cb 56 38 3e
       0.12972125 0.15786403 0.14130819 0.18001859
000010 0d 14 4b be c7 b6 e2 bd cf 0e 26 3e 03 fd 82 be
       -0.19831868 -0.11070018 0.16216587 -0.25583658
000020 df ef 27 3e 12 44 43 3e da 5b 3e 3e fa 06 1d 3e
       0.16400097 0.19068936 0.18589726 0.15334693
000030 9a 8a 61 3e bb 2e 54 bd 94 9e 5c 3e 60 d8 77 be
       0.22025529 -0.05180238 0.21544868 -0.24203634
000040 5e 0e 31 3e 49 94 35 3e 9c bb 30 3e 0a 4e 66 3e
       0.17290637 0.17732348 0.17259067 0.22490707
000050 89 90 a7 be 80 ad 2e be ab ef 2e be 29 31 93 be
       -0.3272746 -0.17058372 -0.17083614 -0.28748444
000060 75 f5 1d 3e 0e 7f 1e 3e cc 33 49 be 43 78 72 be
       0.15425666 0.15478155 -0.19648665 -0.23678689
000070 0b c8 5c bd ba 70 0a be 83 a6 44 3e 6a 9a 0d 3e
       -0.053901713 -0.13519564 0.19204144 0.13828436
000080 33 5e 28 be 7f 88 4f 3e a3 08 36 3e 9c b2 3b 3e
       -0.16442184 0.20266913 0.17776732 0.18329853
000090 b1 13 36 3e c0 ff a4 be 93 10 88 be 8a 84 f8 3d
       0.17780949 -0.32226372 -0.26575145 0.12134655
0000a0 a8 4b 13 3e ae ba 80 be 7f 32 89 be a8 37 35 bd
       0.1438433 -0.25142425 -0.26796338 -0.04424253
0000b0 20 d1 18 be 20 57 4a 3e bf 9d 22 3e cf 12 35 3e
       -0.14923525 0.19759798 0.15880488 0.17682956
0000c0 3e a0 20 3e 81 7d 86 be 62 eb 08 3e 1a 73 63 be
       0.15686128 -0.26267627 0.13371041 -0.22211877
0000d0 4b cf 72 be 5c ff 55 3e aa c0 96 be 4b 93 65 3e
       -0.23711888 0.20898193 -0.29443866 0.22419469
0000e0 b4 d1 65 3e 1c d2 15 3e 73 ec 3e bc 1c 55 43 be
       0.22443277 0.14630932 -0.011653054 -0.19075435
0000f0 dd d7 ab be 02 dd ec bd 8f 4f 36 3e 53 44 38 be
       -0.33563128 -0.115655914 0.17803787 -0.17994814
000100 b1 30 48 3e 7a b6 23 be 28 c3 a2 bd e7 92 2e 3e
       0.19549824 -0.15987578 -0.07947379 0.17048226
000110 44 85 41 3e 83 90 11 3e 23 96 81 3e d0 dc 8d be
       0.18898493 0.14215283 0.25309858 -0.2770753
000120 f5 c1 9c bb ec 88 37 3e c4 89 9a be f0 74 59 be
       -0.0047838637 0.17923325 -0.30183232 -0.21236014
000130 25 14 85 be 67 e7 43 3e 5b e7 b8 be 2b e9 16 3e
       -0.25991932 0.19131242 -0.3611401 0.14737384
000140 e7 19 11 be 54 22 10 3e 04 b0 8b be 88 80 31 3e
       -0.14170037 0.14075595 -0.27282727 0.17334187
000150 64 7a 73 be 0b 09 25 3e dd 98 4b 3e 0a 5f 30 be
       -0.23777157 0.16116731 0.19882531 -0.17223755
000160 6e 39 33 3e dd db 97 be 32 79 68 be 32 8c be be
       0.17502376 -0.2965993 -0.22702482 -0.37216336
000170 4c 6d 33 3e b5 42 8c be 2a 92 52 be 69 49 4e be
       0.17522162 -0.27394643 -0.2056357 -0.20145191
000180 48 18 db bd e5 04 40 3e e4 1a 0b be f6 1f 2d be
       -0.10697991 0.18751867 -0.13584477 -0.16906723
000190 8b bd 4b 3e 65 29 b6 be 8a 75 29 3e f2 4b 87 be
       0.19896524 -0.35578457 0.16548744 -0.2642513
0001a0 a5 ab 16 3e 1e 72 47 3e ab 94 16 3e f1 c9 2b 3e
       0.14713915 0.19477126 0.1470515 0.16776253
0001b0 06 80 35 3e 7a f5 31 be 91 8f 41 3e 03 dc 34 3e
       0.17724618 -0.17378798 0.18902422 0.17662053
0001c0 18 d0 6e be ad 15 5c be 29 bc 43 be f7 98 bc be
       -0.23321569 -0.21492644 -0.19114746 -0.36835453
0001d0 fd 2f 37 3e fe 6d 9a be 3f b2 72 be ca dc af be
       0.178894 -0.30162042 -0.23700808 -0.34348136
0001e0 97 2e 98 be a3 75 65 3e 09 14 7b 3e 00 fb 5c 3e
       -0.29723045 0.22408156 0.24519362 0.21580124
0001f0 db 66 5e be 00 c4 3c 3e e6 23 67 be 12 5e 2f bb
       -0.21718924 0.18434143 -0.22572288 -0.002675895

fc3.weight f4 [128, 17]
000000 7d e4 55 3e a3 d2 26 be 47 d4 e4 3d bd e7 9f 3c
       0.20887943 -0.16291289 0.11173301 0.019519681
000010 27 70 db 3d 69 99 2e 3a 69 66 61 be a6 67 82 be
       0.10714751 0.0006660433 -0.22011723 -0.25469702
000020 46 bd b1 3d 18 d3 a2 bc 24 6c 8f bd 97 9c 13 3e
       0.08678679 -0.019876048 -0.07003048 0.14415203
000030 ae 92 8c 3d 87 ce 2c be 89 da 94 bd a0 d4 24 bd
       0.068639144 -0.16875659 -0.07268245 -0.040241838
000040 9e ad 01 3e 77 4a f6 bd 7a d6 2b 3d 75 28 23 be
       0.12663886 -0.12025922 0.041952588 -0.15933402
000050 5a a5 ba bc cb e6 b2 3d a0 14 47 3e 0c fa 9f be
       -0.022783924 0.087354265 0.19441462 -0.31245458
000060 ea 6e 66 3d 3f 95 28 3e c2 ae 7e 3d f4 26 4c 3e
       0.05625812 0.16463183 0.06217838 0.19936734
000070 47 81 07 be 8b 48 12 3c 9b 48 73 be ab 2c 7c bd
       -0.13232909 0.008928428 -0.23758166 -0.061566036
000080 8c 4f 98 bd 46 91 ca bd fc 78 8f bd 5b b2 6f 3e
       -0.07437047 -0.0989099 -0.07005498 0.23407881
000090 6b cc 55 3e 86 86 3e 3e 2b 09 21 3e 8c 9d 59 be
       0.2087876 0.18606004 0.15726154 -0.21251506
0000a0 7c 06 87 3e 33 62 0a be 90 5a 26 3e 90 02 2a 3c
       0.26372135 -0.13514023 0.16245484 0.0103765875
0000b0 70 ee d6 3d 9b 38 1e 3d 6e d9 92 3e d6 7b 6a ba
       0.10494697 0.038628202 0.2868151 -0.00089448446
0000c0 bf 3d 99 be 27 77 52 be 8c db 54 be 81 6c 98 3e
       -0.2992992 -0.20553266 -0.20786875 0.29770282
0000d0 a6 0d 32 3e c1 2d f6 3c ba 6c a8 bd 71 c7 20 3d
       0.17388019 0.030051114 -0.08223863 0.039252702
0000e0 e3 75 4b 3d 37 29 e9 3d 6e ac ab bd 72 ee 47 3d
       0.049672972 0.11384814 -0.08382498 0.048811384
0000f0 74 a2 24 3e d6 b7 6c 3e 21 44 d8 3d 9c 30 42 3d
       0.16077596 0.23117003 0.105598696 0.04740964
000100 84 f6 23 be 24 d2 43 be e1 b7 1c 3d 01 ac 0e 3e
       -0.16012007 -0.19123131 0.038261298 0.13932802
000110 b8 d8 3c be 19 d4 34 be 2a 4e 5c be b6 1c 53 3e
       -0.18442047 -0.17659034 -0.21514192 0.20616421
000120 24 b8 26 3e 8e bd 45 be 57 74 a2 3d d8 67 21 bd
       0.16281182 -0.1931059 0.07932346 -0.039405674
000130 7d 76 c6 bd 9d 53 16 3d a4 a9 32 be 67 57 4f 3e
       -0.096905686 0.036700834 -0.17447525 0.20248185
000140 1f 29 5c be 54 36 eb 3d 2c 9a 37 be 7b 99 61 be
       -0.21500061 0.11484972 -0.17929906 -0.22031204
000150 ae 48 6a be 15 37 4a be 49 f5 14 bd 26 89 5b be
       -0.22879288 -0.19747575 -0.036366735 -0.21439037
000160 49 2b 9c 3d c0 f8 e6 bb 15 d4 57 bd 26 62 ba 3c
       0.076254435 -0.0070486963 -0.05269249 0.022751879
000170 f5 72 58 be e5 45 85 3d a2 46 15 3d a0 f7 40 3e
       -0.21137603 0.06507472 0.036444314 0.18844461
000180 06 7c 49 3e aa 13 7e be f4 db 0a be 2a f3 28 be
       0.19676217 -0.24812189 -0.13560468 -0.1649901
000190 f7 0b 88 3e d2 36 c6 bd 68 2c 9e 3b 2d cf a7 bd
       0.26571628 -0.09678425 0.004827071 -0.081938125
0001a0 b6 04 11 3e 73 d7 b2 bd be 37 1a bd c0 29 17 3e
       0.14161953 -0.087325 -0.037650816 0.1476202
0001b0 a3 69 a9 be a4 01 01 3e 9c a0 65 3e c4 a4 9e bd
       -0.33088407 0.12598282 0.22424549 -0.0774627
0001c0 ed 54 9b 3e 21 33 80 be 77 2f 75 be 2a ba 1b be
       0.3033823 -0.25039008 -0.23943888 -0.15207735
0001d0 80 36 54 bb 12 15 34 3d d2 69 ed bc 6f 85 a5 3e
       -0.0032381117 0.043965407 -0.028981123 0.32328364
0001e0 f9 d9 40 3e f6 19 37 3e 51 39 03 be 09 a7 8e bd
       0.1883315 0.17880997 -0.12814833 -0.06965453
0001f0 03 3d 11 3e 96 67 ac 3b 43 26 15 bd c0 03 02 3d
       0.1418343 0.005261372 -0.036413442 0.031741858
000200 13 45 6d 3d 17 03 e4 3a 73 0d 72 3e 49 dc 47 3e
       0.057927202 0.001739594 0.23637943 0.19517626
000210 01 83 c1 3d df e9 58 be 20 3b 56 3e 91 4b 81 3e
       0.09448815 -0.21182965 0.20920992 0.25252965
000220 68 2b 0a be 06 03 c8 bd d7 c4 e2 bd f6 bd c7 3d
       -0.1349312 -0.09766202 -0.110727005 0.09753029
000230 19 09 62 3e 49 f2 42 3e c4 af 43 bd fc 45 18 be
       0.22073783 0.19037737 -0.047775045 -0.14870447
000240 8d fa 2b 3d cc ff 08 be cd e3 71 bd cb 01 88 3d
       0.04198699 -0.13378829 -0.05905514 0.06640967
000250 0b e2 45 be a9 21 83 be 05 80 72 be 72 1d 38 be
       -0.1932451 -0.25611618 -0.23681648 -0.17979982
000260 d6 e5 4b 3d 9b 67 7e be f7 31 c8 bc ec 44 33 be
       0.049779736 -0.2484421 -0.024437888 -0.1750676
000270 aa 67 a4 3c c7 ca 00 3d 72 f5 32 3e e8 e5 c2 bd
       0.020068962 0.031443384 0.17476442 -0.095165074
000280 5e 06 90 be 8b 8a 1d be ea 83 43 3e 5a fc 15 bd
       -0.28129858 -0.15384881 0.1909329 -0.036617614
000290 2b 39 b4 3d 17 62 19 bd 7e 8f 87 3d af 58 62 3d
       0.087999664 -0.03744706 0.06619166 0.055260357
0002a0 78 d8 47 bd 4b ee 1d 3e d0 2a b5 3c 52 15 81 be
       -0.048790425 0.15422933 0.022115141 -0.2521158
0002b0 03 4e 0b 3d 34 f0 13 3e 1d 26 c6 bd 86 c8 04 be
       0.034009945 0.14447099 -0.09675238 -0.12967119
0002c0 d0 9b 3f bd d2 91 12 be 44 8d ab bc 81 cc 2f 3e
       -0.046779454 -0.14313439 -0.020941384 0.17167856
0002d0 4b 49 40 bd b4 c8 c7 bc ad bb 91 bd ce 50 21 3e
       -0.046944898 -0.024387695 -0.071158744 0.15753481
0002e0 50 1e 2f be 17 9d 57 be 34 23 4c be d4 2b e1 bc
       -0.17101407 -0.21056019 -0.19935304 -0.02748672
0002f0 6e 5c 1a 3e ee 97 66 be 63 4c a1 bc b6 a1 ac bd
       0.15074322 -0.22518894 -0.019689744 -0.084292814
000300 50 89 3c be f3 b2 0d 3e 8c 05 97 be 5d 8b 23 3e
       -0.18411756 0.13837795 -0.2949642 0.15971132
000310 9c d7 a5 3d a3 a9 c0 3d 0b 96 fd 3d 86 93 32 3e
       0.08097765 0.09407356 0.12382134 0.17439088
000320 72 c9 3e 3d d2 6a 41 3e d3 74 91 3d 4a fd 36 be
       0.046578832 0.18888405 0.071023606 -0.1787006
000330 39 80 64 3e 35 bd 26 3e b6 70 0a 3e 5b 93 08 3e
       0.22314538 0.16283114 0.13519558 0.13337462
000340 03 a4 1f 3d df 9f 6b 3e 99 50 15 be 84 8f a4 bd
       0.038974773 0.23010205 -0.14581527 -0.08035186
000350 5a da f6 3c 63 64 82 be 30 d4 32 be df 1d 2a 3c
       0.030133415 -0.25467214 -0.17463756 0.010383098
000360 17 b5 64 3e 7f 38 83 bd d7 52 fb 3d 48 68 69 3e
       0.22334705 -0.0640726 0.1227166 0.22793686
000370 97 34 68 be ee d4 9b 3d d8 4a 04 be 5f b3 58 3e
       -0.22676311 0.076089725 -0.12919176 0.21162175
000380 eb 21 e6 bd ba 06 41 be 66 b5 d8 bd 15 b5 79 be
       -0.11236938 -0.18850222 -0.10581474 -0.24385484
000390 e9 75 65 be 63 e3 0a 3e 7c 6c 9b bc 26 33 fb bd
       -0.2240826 0.13563304 -0.018972628 -0.12265615
0003a0 e4 07 91 be 13 48 d0 3d e5 b6 04 be 48 47 25 bd
       -0.28326333 0.10169997 -0.12960394 -0.040351182
0003b0 12 39 33 be c1 fe 61 3e dd ca 10 3d fb 39 b6 3c
       -0.1750224 0.22069837 0.035349716 0.022244444
0003c0 1e 1e fe 3b 29 fb 62 3e 5c f0 d5 bd 7d 16 ca bd
       0.007755055 0.22166122 -0.104462355 -0.098675705
0003d0 dc 1f 4c be c8 3c e4 3d 48 9c 50 3e f7 f0 e2 bc
       -0.19934028 0.111444056 0.20372117 -0.027702792
0003e0 a0 74 09 be 42 82 4c 3e c9 84 5b 3e 8d 01 34 3e
       -0.13423395 0.19971564 0.21437372 0.17578717
0003f0 71 85 c1 3e 04 04 2e 3e 70 53 79 3e 3b 97 23 3e
       0.3779712 0.1699372 0.24348235 0.15975659

fc3.bias f4 [128]
000000 07 91 75 3e 47 d9 ce 3d 9b ef da bd 30 8b d2 bd
       0.23981105 0.10100036 -0.10690232 -0.10280454
000010 c1 97 3d 3e ec 72 b3 3e 5e d8 b1 3e 66 ba 00 3e
       0.18514921 0.35048616 0.34735388 0.12571105
000020 bb ab b0 bd 4a 92 73 3e d8 68 ef 3c c0 f3 87 3e
       -0.08626505 0.23786274 0.029224798 0.26553154
000030 f5 78 dd bd a2 21 b0 3e 42 83 56 be d2 76 35 be
       -0.10814086 0.3440066 -0.20948508 -0.17721108
000040 ce 17 0e be cf b9 c8 bd 08 31 21 be 37 55 db 3e
       -0.13876268 -0.09801065 -0.1574136 0.4283845
000050 bb ea f2 bc 52 80 b6 3e 22 43 6c be b2 b2 4c be
       -0.029652944 0.35644776 -0.23072484 -0.19990042
000060 52 59 4d 3d 99 76 2b 3e a6 bd b6 3e 64 07 2d be
       0.05013401 0.1674446 0.35691565 -0.1689735
000070 da 30 8a 3e 9a f0 41 be 3a cd a4 3d c4 2f 3b be
       0.26990396 -0.18939438 0.08046956 -0.1827994
000080 4e 44 51 3e 8c ec a6 3e ca 6e 15 3e 5f 6e f1 3d
       0.20436212 0.32602346 0.14593044 0.1178863
000090 14 7c 72 bc e1 97 82 be c7 84 43 3e c2 a9 b7 3d
       -0.01480009 -0.255065 0.1909362 0.089679256
0000a0 78 59 38 be 57 7e 2e be 72 5b 7e 3e a9 82 e8 3e
       -0.1800288 -0.17040382 0.24839571 0.45412186
0000b0 74 fe 9a 3e 98 25 98 3e a9 43 6f be 15 3c f4 bd
       0.30272257 0.29716182 -0.23365654 -0.11925522
0000c0 eb 15 3e be de 1c 77 3d e3 a1 86 3e a2 f0 63 be
       -0.18563049 0.060330264 0.26295385 -0.22259763
0000d0 cb 0a e8 ba 50 d1 81 3d 6f de 8f 3e 7e 32 5e be
       -0.0017703412 0.06338751 0.2809939 -0.21698949
0000e0 77 ad 5d be dd 92 10 be 8c d5 84 3e 8a 5b 41 be
       -0.21648203 -0.14118524 0.25944173 -0.18882576
0000f0 a2 48 9a 3e c0 f5 44 3d 3b 69 10 be fe c0 a6 3e
       0.3013354 0.048085928 -0.14102642 0.32569116
000100 8a b4 39 3d 7d c4 24 be ac d8 ad bd 9b 8d dd 3d
       0.04533819 -0.1609058 -0.084885925 0.10818025
000110 09 e4 30 3d 0a 5c 78 3e 20 c9 2f be 2b 10 1b be
       0.04318622 0.2425386 -0.17166567 -0.15142886
000120 a9 c5 9e 3e c8 a8 92 be bb 5d 9d be 44 91 b4 3e
       0.31010178 -0.28644395 -0.30735573 0.3526708
000130 6c d4 94 3e 94 17 47 be 9e d4 87 3e 4b 93 5f be
       0.29068315 -0.19442588 0.26529402 -0.21833532
000140 42 93 14 be cb 09 a8 3e d8 0e 04 3e 1e 44 8f 3e
       -0.145093 0.3281997 0.12896287 0.27981657
000150 3f fd 00 be 43 0d de 3e 0e c5 a9 3e c1 89 2c be
       -0.12596606 0.43369493 0.33158153 -0.16849424
000160 24 88 17 be 70 13 07 3e d9 9c 39 3e 1b 2f b8 3e
       -0.14798027 0.13191009 0.18126239 0.3597344
000170 7f 7a d8 bd d2 49 a5 bd 87 c1 29 3e 05 16 cc 3d
       -0.10570239 -0.08070721 0.16577731 0.099651374
000180 da 97 12 bd 1c c9 92 3e 53 ca 75 3e cf d8 fb bd
       -0.03578935 0.2866906 0.24002962 -0.12297212
000190 f7 b4 d4 3d 36 fa e3 3e 08 31 a1 bd 10 69 6b be
       0.10386079 0.44526833 -0.0787068 -0.22989297
0001a0 81 a6 97 3e 2a 61 27 3d 98 97 9f 3e 3f 76 bc 3c
       0.2961922 0.040864147 0.31170344 0.023005603
0001b0 ee a5 d3 bc 72 c4 1e be db f6 a2 3e 8d ac 21 bd
       -0.025835957 -0.15504625 0.3182896 -0.039471198
0001c0 51 59 45 be 8f c3 df 3e bd c2 aa 3e 01 a8 91 3e
       -0.19272353 0.43703887 0.333517 0.2844849
0001d0 59 79 af 3e b4 7a 97 bc 9b c2 ae 3c 7e 54 87 be
       0.34272268 -0.018491127 0.02133303 -0.2643165
0001e0 d5 73 87 3e b8 3e d1 3e c5 ec 3c 3e 94 87 de 3d
       0.2645556 0.40868163 0.18449695 0.10865703
0001f0 50 ae b5 3e 0b f0 79 bd 72 00 8e 3e c4 16 d4 bd
       0.35484552 -0.06101994 0.27734715 -0.10355905

fc4.weight f4 [128, 128]
000000 d3 21 d9 3d c9 65 d1 3d 7e 99 a0 bc ad 52 66 3d
       0.106021546 0.10224492 -0.01960444 0.05623119
000010 f7 5b 54 3d 8d 53 22 3e cc 36 73 3d 82 a5 06 3e
       0.051845517 0.15852185 0.05937843 0.13149074
000020 80 fa 80 3c 91 a6 5a 3e b8 a2 af 3d bf 7a 4d 3e
       0.015744448 0.21352603 0.08575958 0.20066355
000030 8a d8 54 bd 00 c8 6b 3e 9d ad 78 bc 11 00 e7 3b
       -0.05196432 0.23025513 -0.015178111 0.0070495685
000040 33 02 dc 3d 8f 45 ed bd 32 fc 0e 3e b1 c7 50 3e
       0.10742607 -0.11585533 0.13963392 0.20388676
000050 a2 6f 44 3d 7b b5 02 3e 2e 97 d4 bd 74 54 08 3d
       0.047958024 0.12764542 -0.10380398 0.033283666
000060 1b ba a5 bc 6d 75 c7 3d 1a 96 80 3d b1 36 82 3d
       -0.020230344 0.09739194 0.062786296 0.06358088
000070 ce f7 fb 3d 9c 96 09 be d4 ff 73 bc b5 90 00 bd
       0.12303124 -0.13436359 -0.014892537 -0.031388003
000080 63 23 0f 3d 4f 78 0f 3e dc 47 31 3d 19 04 6f 3d
       0.034945857 0.14010738 0.04328142 0.058353517
000090 bb 7d f9 bd b8 e6 23 3d 42 99 c5 3d ae 10 63 3c
       -0.12182184 0.040014952 0.09648372 0.013858957
0000a0 1d e0 a5 bd f0 d8 da 3d a3 2b 42 3d 52 4a 76 3e
       -0.08099387 0.10685909 0.047404896 0.24051788
0000b0 24 c4 88 3e 82 e1 20 3e f0 74 59 3d 52 ce c3 bd
       0.26712143 0.15711024 0.053090036 -0.09560837
0000c0 ac 5a cf bd cb 27 0f 3e 8f 93 0e 3e bc 1b de bd
       -0.10124716 0.13980024 0.13923477 -0.10845134
0000d0 49 66 14 bb 19 15 5e 3c 7a 48 23 3e 77 44 9b bb
       -0.0022643975 0.013554835 0.15945616 -0.0047383863
0000e0 e0 fc 8c bd 9c 29 9c bd 85 de 24 3e 19 ff b8 bd
       -0.068841696 -0.07625124 0.1610051 -0.09033031
0000f0 11 06 60 3d a3 aa 25 3e f4 d6 d1 bd 50 7f 24 3e
       0.054693285 0.16178374 -0.10246077 0.16064191
000100 0a 77 b4 bc 68 02 57 3d cc 7d 18 3b d1 62 24 3e
       -0.022029418 0.05249253 0.002326834 0.1605332
000110 17 23 15 3e ab f2 43 3d ed a2 fe 3d fa d3 20 3d
       0.14564167 0.047838848 0.124334194 0.039264657
000120 68 83 30 3e 7f 0d d8 bd 54 6f 04 be 87 4d 79 3d
       0.17237628 -0.10549449 -0.12933093 0.06086495
000130 51 b5 b7 3d 7e 02 bb 3d 92 77 10 3d 2e a4 00 be
       0.0897013 0.09131335 0.03527028 -0.1256263
000140 fc 14 c8 bd 12 04 ae 3d f9 bb 28 3d b0 7e 2e 3d
       -0.097696275 0.0849687 0.04119489 0.042601287
000150 a5 cc 36 bb c2 1c 47 3e 94 5f 3f 3e ec ac a8 bd
       -0.0027892974 0.19444564 0.18688804 -0.08236107
000160 51 c7 b9 ba 3f 9c 16 3e 7c 91 fc 3d dc 64 26 3e
       -0.0014173781 0.1470804 0.123324364 0.16249412
000170 5b d3 6e 3d 5e 8c ec 3c 1a 81 a2 bc cb af 6f 3d
       0.058307033 0.028875526 -0.019836951 0.05851726
000180 d9 0d 55 3d 2c fe 62 3d 51 8f 9c 3d 29 ca f8 3d
       0.05201516 0.05541818 0.07644523 0.12147934
000190 ef b5 76 3c 72 63 b4 3d 34 2a d5 3d a8 ab 46 bd
       0.015058025 0.0880803 0.1040844 -0.048503548
0001a0 e0 f3 98 3d c9 20 19 3e 44 f3 9f 3c 6f 95 0c 3d
       0.074683905 0.14953913 0.019525178 0.0343222
0001b0 ea cf 4b bd 06 4e b2 bd 1f 5a 36 3d e0 40 b7 bd
       -0.04975883 -0.08706288 0.04451954 -0.08947921
0001c0 1c 26 7c bc 86 6e 68 3e 78 f2 1d 3d a7 fb f0 3d
       -0.015389945 0.22698411 0.038561314 0.11766749
0001d0 71 57 6a 3e 63 32 f8 3d f1 96 0b 3e 9b bd 3b be
       0.22884919 0.121189855 0.13631798 -0.18334047
0001e0 65 ad 29 3e 1d 51 f6 3d 4f 4d a4 3d 79 55 ba 3d
       0.16570051 0.1202719 0.08022558 0.09098334
0001f0 ed 63 26 3e f0 5d 82 3d 07 9f 54 3e da 8e 5d bd
       0.16249056 0.063655734 0.20763789 -0.054091312
000200 70 bf d4 3d 0a d2 45 bd a4 eb 7d bd 9e 71 0e 3d
       0.10388076 -0.048296012 -0.061992303 0.034776323
000210 39 51 d0 3d 50 33 d4 3d 15 f3 a5 3d 7b 20 b9 3d
       0.10171742 0.103613496 0.08103005 0.09039398
000220 0a 83 ee bd 87 7b 0a 3e c6 75 c4 3d f1 b4 2f 3e
       -0.116460875 0.13523684 0.09592776 0.17158867
000230 04 78 01 bc 5a 12 81 3e 5e b3 37 3d 1f 6f b8 bc
       -0.007902149 0.25209314 0.044848792 -0.022513924
000240 ee bb 09 bd a5 25 57 bd 55 d9 fb 3d 57 93 1d 3e
       -0.03362649 -0.052526135 0.12297312 0.15388237
000250 a5 7e 84 3d cc fa 51 3e 09 74 fd 3b 31 f9 00 bd
       0.06469468 0.20505828 0.0077347797 -0.031487647
000260 e4 78 6a 3d cd 13 11 bd 35 0d 43 3d 30 af 04 3e
       0.057244197 -0.035419274 0.047620017 0.12957454
000270 66 c6 6d 3d eb 2d 90 bd 46 b2 63 ba 45 3a 4b 3b
       0.058050536 -0.07040008 -0.00086859276 0.0031010073
000280 04 d8 e0 3d 0d 4b 17 3e a1 9d 97 3c 37 27 5a 3c
       0.10978702 0.14774723 0.01850778 0.013315014
000290 de ef 03 be cf 64 d8 bc cf 6a 9c 3d cc ec 8a 3d
       -0.12884471 -0.026415257 0.076375596 0.06783447
0002a0 38 dc e7 bd e9 01 56 bd 86 ca 26 3e 99 0d 34 3e
       -0.113213 -0.052247915 0.16288194 0.17583312
0002b0 dc 6e 66 3e 08 57 bd 3d b5 f1 49 3d ac b4 53 be
       0.22503227 0.092451155 0.049302775 -0.2067439
0002c0 39 9e fa bd 0f 2a 5d 3c d0 af 13 3e b9 b7 e9 3c
       -0.1223721 0.013498797 0.14422536 0.028529989
0002d0 0b 80 9e bc f6 4e e5 3d b0 f4 6e 3c 6a 13 48 bc
       -0.019348165 0.11196701 0.014584705 -0.01221166
0002e0 4b 5a f6 bd d8 05 e1 bd 9c a9 25 3e af 09 b7 bd
       -0.12028941 -0.10987443 0.16177982 -0.08937394
0002f0 e5 3b e8 3c 90 ba 1b 3e 28 86 c3 bd ad a3 85 bb
       0.028348872 0.15207887 -0.09547073 -0.0040783496
000300 ea c2 fd bb e5 aa a2 bd b3 5c 9d bb 41 54 75 3d
       -0.007744183 -0.07942752 -0.0048023104 0.059894804
000310 62 bd 37 3d 95 39 8c 3d 02 3f 3c 3d 5c b8 e0 3d
       0.044858344 0.068469204 0.045958526 0.10972664
000320 29 55 f3 3d 7f de 08 be 10 60 26 be 45 9a 29 3c
       0.118814774 -0.13366126 -0.16247582 0.010351722
000330 b7 ce a8 3d aa a1 44 3d ed 90 a0 3d b3 cb 19 bd
       0.08242553 0.048005737 0.078401424 -0.03754778
000340 98 46 41 bd e4 98 a0 3c 0e 28 dc 3d ab cf e2 3d
       -0.047186464 0.019604154 0.10749827 0.11074766
000350 4e c2 42 bc 9a c3 b0 3d af fe 6a 3e 7f 94 31 bd
       -0.011887146 0.08631058 0.22948717 -0.043354508
000360 57 4c d8 3d 50 73 ce 3c 73 42 69 3d 24 cc 6f 3d
       0.10561436 0.02520147 0.056948137 0.058544293
000370 75 0a 29 3d 35 0b 8c 3d 64 50 f7 3d c6 3b ab 3d
       0.04126974 0.06838075 0.1207588 0.0836101
000380 d6 3f f0 3d f8 ab 2f 3e d8 4c d4 3d 8f e6 05 3e
       0.11730926 0.17155445 0.10366219 0.13076232
000390 a6 75 19 bc 11 03 6a 3d ee 9b 7e 3d 44 05 01 bc
       -0.0093664285 0.05713183 0.062160425 -0.007874791
0003a0 ed 54 09 3e 5f f3 e9 3d 01 f9 19 bc d0 73 d2 3d
       0.13411303 0.114233725 -0.009397746 0.10275996
0003b0 83 bc 3b bd b1 d2 82 bc 55 31 28 bc b1 eb 92 3d
       -0.045834076 -0.015969606 -0.010265668 0.07173861
0003c0 32 84 35 bc 0b af 4e 3e 5a 15 18 3e 47 64 13 3e
       -0.011078881 0.20183961 0.14851895 0.14393722
0003d0 32 6e 29 3e b8 53 c9 3c 78 39 71 bc a0 69 f4 bd
       0.16545942 0.024576053 -0.014723174 -0.11934209
0003e0 11 eb 1a 3e b3 fc e5 3d 7d 7d e9 3d 57 d8 dc 3d
       0.15128733 0.11229839 0.11400888 0.10783451
0003f0 ca e7 78 3d 69 42 59 bd 6e 13 9c 3d b0 48 72 3d
       0.060767926 -0.05304185 0.076208934 0.05915135

fc4.bias f4 [128]
000000 d0 04 11 3e fc af 67 3d 7e 59 5f 3e db 44 01 bd
       0.14161992 0.056564316 0.21811482 -0.031559806
000010 d1 34 7a 3c 20 dd 50 3d f5 92 19 3e a3 2e 43 3e
       0.0152713815 0.05099213 0.14997466 0.19060759
000020 59 37 a7 3c 3b e6 36 3e 81 f8 31 3e f6 9f 40 3d
       0.020412134 0.17861263 0.17379953 0.04702755
000030 73 e2 3e 3e a0 9f 79 3d 4c a6 e9 3b b8 56 5c 3e
       0.18641071 0.060943246 0.00713042 0.21517456
000040 ee b9 f0 bc 19 36 11 3e cc 97 bf 3d be 14 42 3e
       -0.029385533 0.14180793 0.09355125 0.18953225
000050 48 ae 8f 3d c3 c3 72 3d 28 b7 88 3e 82 6a ed bc
       0.070156634 0.059268724 0.26702237 -0.028981451
000060 30 8c 36 3e 93 5f dd 3d 97 a7 66 3d 7c ce 70 3e
       0.17826915 0.10809245 0.05631217 0.23516268
000070 2d d7 00 be 68 34 63 3e 77 1a b7 bd a1 3d 25 3e
       -0.12582083 0.2218796 -0.08940595 0.16136791
000080 05 85 a3 bd 12 f1 a0 bd 9b 7c 36 bd c2 0a 4f 3e
       -0.07984356 -0.078584805 -0.044552427 0.20218948
000090 4d 76 01 3d cd 07 1c bd 89 45 ce bd ee ab 3f 3d
       0.03160696 -0.038093377 -0.100718565 0.046794824
0000a0 2b 71 50 3e 3d f2 54 3e 7c 5f c6 bc 23 99 f5 3d
       0.2035567 0.20795532 -0.024215452 0.11992099
0000b0 b5 d4 02 3e 7c 01 cc bd b3 70 00 bd 87 af f6 3d
       0.12776454 -0.099612206 -0.03135748 0.12045198
0000c0 6d f7 4e 3e 74 c5 49 3e 31 40 78 bd e3 5a 18 3e
       0.20211573 0.19704229 -0.060608093 0.1487842
0000d0 e1 39 c5 bd ec 70 f4 3d 1a 44 9f 3d 97 d3 ae bc
       -0.0963018 0.11935601 0.07776661 -0.021341128
0000e0 1a 77 94 3d 77 f4 6a 3d 53 85 21 3e 56 ad 00 3d
       0.07249279 0.057362046 0.15773515 0.031415306
0000f0 d9 c7 88 3e d1 c2 04 bc 71 d6 5d 3e d5 31 df bd
       0.26714972 -0.0081030885 0.21663834 -0.108981766
000100 d3 06 7d 3b f4 b3 a4 bd 0c 21 2c 3e b6 ff 3b bd
       0.0038608804 -0.08042136 0.16809481 -0.04589816
000110 d4 82 55 bc 48 bb 16 3e d4 c8 bb bd ad b4 2a 3e
       -0.01303168 0.1471988 -0.09169164 0.16670485
000120 96 79 4a 3e e3 92 55 3d 62 72 32 bd 91 7f 36 3e
       0.19772944 0.052142035 -0.043566115 0.178221
000130 96 36 4b 3e 91 1f 12 3e e6 44 04 bd 96 c8 14 3d
       0.19845042 0.14269854 -0.03229227 0.036324106
000140 42 ef 4f 3d 2a 28 92 bc 06 af 4a 3e 02 a5 08 3e
       0.050765283 -0.017841417 0.19793329 0.13344195
000150 2c 32 b1 3a 1e 35 27 3e cc 95 2a 3e 4b 24 e6 3c
       0.0013518981 0.16328856 0.16658705 0.028093478
000160 23 27 93 bd 99 60 18 3e de 24 26 3e 65 a8 b4 bc
       -0.07185199 0.14880599 0.16225001 -0.022052953
000170 79 54 54 bd 00 c9 16 3e 4d 75 79 3e 4c 5c bd bd
       -0.051838372 0.14725113 0.24361153 -0.0924612
000180 51 64 09 bd 1a 5d 06 bd d0 6f 86 3d 29 9b 97 3d
       -0.033542935 -0.032803632 0.06564295 0.07402641
000190 6c 8c 05 3e cd 13 6c bd d7 65 2c bd 14 22 1e 3e
       0.13041848 -0.05763607 -0.04208931 0.15442687
0001a0 e5 ac c7 3d eb 1a 59 3e 99 cb d0 3d 1b 27 8b bd
       0.09749774 0.21201675 0.10195083 -0.06794568
0001b0 86 69 9a bd 25 f9 52 3e 5e f7 d4 bd 05 91 cc bd
       -0.07539658 0.20602854 -0.10398744 -0.09988598
0001c0 b3 b7 18 3e 6c 95 71 3e d0 7f ee 3d 50 53 50 39
       0.14913826 0.23592156 0.11645472 0.00019867462
0001d0 ff df 85 3d 81 9f e0 3d db 7d 88 bd 1a d0 e4 3d
       0.065368645 0.10967923 -0.0666463 0.11172505
0001e0 3c 71 9b 3d 8f 68 40 3c 64 b7 98 bd 56 2d 99 3d
       0.07589957 0.011743679 -0.07456854 0.0747935
0001f0 3b 7b 2b 3e 92 f2 0c 3e 35 1d 4e 3e 4e 6d 2d 3e
       0.16746227 0.13764408 0.20128329 0.16936228

q2.weight f4 [1, 128]
000000 ee e7 2e 3e 9a d3 5a 3e 8d 69 37 3e d4 f2 30 be
       0.17080662 0.21369782 0.17911358 -0.17280132
000010 44 5f 4d be c7 dd 30 be 5f 0b 34 3e 34 af 33 3e
       -0.20055872 -0.17272101 0.17582463 0.17547303
000020 94 ba 4b be f1 4d 40 3e a5 f3 11 3e 7b c1 61 be
       -0.19895393 0.18779732 0.142531 -0.22046463
000030 0a 41 06 3e 77 c9 4b be b8 85 5f be ec 44 2a 3e
       0.13110748 -0.19901071 -0.21828353 0.16627854
000040 16 a1 78 be 85 07 5f 3e 0e ea 1c 3e a9 72 fb 3d
       -0.242802 0.21780212 0.1532366 0.12277729
000050 50 f2 37 3e b3 55 d8 bc 5d 7f 65 3e f8 71 5a be
       0.17963529 -0.026408052 0.22411866 -0.21332538
000060 b1 1a 40 3e 52 df 51 3e 9a 0b 86 be af 86 4a 3e
       0.18760182 0.20495346 -0.26180726 0.1977794
000070 f7 d1 5d be fa 95 12 3e 1a cd a9 3d 5b b4 80 3e
       -0.21662126 0.14315024 0.08291073 0.251376
000080 aa 29 7d be 59 96 21 be cf d0 1e be 37 1f 4b 3e
       -0.24722925 -0.1578001 -0.15509342 0.19836126
000090 c6 3e c2 be 8c 11 65 be 90 50 9e be fa c7 a7 be
       -0.37938517 -0.22369975 -0.3092084 -0.32769758
0000a0 2a a1 5b 3e 73 4a 2c 3e 02 fa 21 3d 4e b2 4f 3e
       0.21448198 0.16825275 0.039545067 0.20282862
0000b0 08 1f 39 3e 25 15 23 be bf eb 67 be c4 d2 76 3e
       0.18078244 -0.15926035 -0.22648524 0.24103838
0000c0 94 49 36 3e 7a 98 7d 3e 0b 58 79 be 1b e0 6e 3e
       0.17801505 0.24765196 -0.24349992 0.23327677
0000d0 e5 05 e1 bd dc 61 02 3e 29 fc 48 3e 93 44 a7 be
       -0.109874524 0.12732643 0.19627441 -0.32669505
0000e0 b4 92 a1 be 7e 0b 7b be 83 54 5f 3e 92 28 31 be
       -0.31557238 -0.24516103 0.21809582 -0.17300633
0000f0 c7 f8 49 3e 6d 4c 58 be 0b 19 63 3e 81 26 f4 bd
       0.19723807 -0.21122904 0.22177522 -0.119214065
000100 da 1b b2 be 7a 80 1c be 53 31 32 3e a4 94 50 be
       -0.34786874 -0.15283385 0.17401628 -0.20369202
000110 45 8a 93 be 4a de 66 3e 69 36 8e 3d 00 63 42 3e
       -0.2881643 0.22545734 0.06943972 0.18983078
000120 c1 c8 47 3e 33 3f 81 be 5f 8d 8e be f6 56 2d 3e
       0.19510175 -0.2524353 -0.27842233 0.16927704
000130 8a c7 2f 3e b1 5d 3a 3e ee df 29 bd 7a 97 96 bd
       0.17165962 0.18199803 -0.04147332 -0.073531106
000140 b4 a2 54 3e f5 27 9b be e6 2e 40 3e 34 d4 3a 3e
       0.20765191 -0.30303922 0.1876789 0.18245012
000150 37 93 7e be 70 2d 29 3e 3a f2 41 3e c3 64 5d be
       -0.24860846 0.1652124 0.18940058 -0.21620469
000160 e2 44 96 bd 6e 25 50 3e 6d 7c 87 3e b6 5a 8a be
       -0.07337357 0.20326778 0.26462117 -0.27022332
000170 57 5e c4 be ac 02 2b 3e 9e d6 27 3e a2 7a 27 be
       -0.38353226 0.16700238 0.16390464 -0.16355374
000180 76 80 58 be bc 76 9d 3d 20 dc 77 be 62 75 1f 3e
       -0.21142754 0.076886624 -0.24205065 0.15572122
000190 84 5d 65 3e cd a9 70 be 7a 45 3a be 39 03 1f 3e
       0.22398955 -0.23502274 -0.18190566 0.15528573
0001a0 3d 92 2e 3e 35 30 35 3e 3c bf 48 3e f4 f3 09 be
       0.17047973 0.17694171 0.196042 -0.13471967
0001b0 24 ee ad be 19 e8 46 3e b9 58 89 be 09 54 3c be
       -0.3397075 0.19424476 -0.26825503 -0.18391432
0001c0 8f b7 4b 3e 6f 71 ff 3d 7b 9c 80 3e b1 2d fe bd
       0.19894241 0.124728076 0.25119385 -0.12411059
0001d0 3a 09 84 be 75 9c 46 3e f6 25 ff be 09 e1 57 3e
       -0.2578829 0.19395621 -0.4983365 0.21081938
0001e0 4b b3 1c 3e 26 18 48 be d0 1f 2d be f3 ba fd bc
       0.1530277 -0.19540462 -0.16906667 -0.030972933
0001f0 8c 01 13 3e 56 58 24 3e ae 21 21 3e 81 f3 5c 3e
       0.14356059 0.16049322 0.15735504 0.21577264
