resource/multi_run_experiment_20250319_111011/run_2/sac_actor_10000.pth (torch, 80607 bytes, 8 tensors)

fc1.weight f4 [128, 12]
0.10517158 -0.25388557 0.16853401 -0.21411149 -0.14227553 -0.10329858 -0.17826493 -0.25531727
-0.2821379 -0.28795588 0.2780632 0.014900641 -0.0971776 0.052792672 -0.1540443 0.17676638
-0.028834343 -0.3385262 0.13899799 0.08316142 -0.1006489 -0.19166017 0.23903175 0.19861166
0.095090665 -0.17562793 0.14741726 -0.06552244 0.15790868 -0.20726524 -0.3340667 -0.083965324
0.22922727 -0.13854712 0.044907402 0.05420634 -0.05113801 -0.023741242 -0.0007285794 0.019020606
0.03470192 -0.2344738 -0.21057355 0.07500583 -0.24840558 0.08215063 0.076796524 -0.22549845
0.23030011 -0.3509508 0.0111743985 0.023491472 0.31447446 -0.0836118 -0.17336349 -0.23675981
-0.27538103 0.24708772 0.07967063 0.24540026 -0.12318844 0.003750597 0.028307568 0.34576306
0.21838744 0.087012246 -0.10793731 -0.32470518 0.21176252 -0.33795235 -0.038352896 -0.3207371
-0.2698324 0.22483945 0.08673492 -0.205409 0.18234617 0.24670677 0.06820262 -0.3549326
-0.290378 0.081548914 -0.27502963 0.025637418 0.16891478 -0.23190989 0.17222223 0.17157172
0.27736187 -0.26865062 0.31192026 0.26159498 0.31655437 0.039057076 -0.17769766 -0.2822513
-0.02763155 -0.34464428 0.2481165 0.010423886 0.16318206 -0.16377974 0.042589042 0.21906184
-0.03620569 -0.04990535 -0.31031567 0.022932412 0.26742646 -0.07813842 0.08889761 -0.042180974
-0.1087235 0.33163518 0.1973158 -0.18048348 -0.11645848 -0.34589276 -0.23052229 0.0965603
0.13186933 -0.14128132 -0.06044099 -0.08914986 -0.11933166 0.26236504 -0.49034804 -0.22309978
-0.003598588 -0.38393983 0.09338199 0.23386069 0.2807349 0.1420216 0.22132766 0.089982435
0.20878837 -0.10888838 -0.10014746 0.041959643 -0.032973833 0.10842527 0.10673951 -0.004317513
-0.08394114 0.20244466 0.18948632 -0.20945899 0.28750944 0.1252146 -0.20306331 0.019716391
-0.105187975 -0.2582944 -0.24885035 0.19739942 0.15227117 -0.18210909 -0.11495097 0.1481645
-0.022630237 -0.19190472 -0.2828151 0.16662262 0.061796833 0.21596944 0.17369643 -0.38454175
0.0207182 0.12142798 0.07330051 -0.26087484 -0.17521742 -0.06412162 -0.11251806 -0.448389
-0.10174368 -0.38610566 0.004556497 -0.0061288155 -0.1279308 0.2783277 0.11225178 0.29558873
0.21070899 -0.14045411 -0.20568995 0.21801712 -0.25191686 -0.31774485 0.30608723 0.19349323
-0.024619576 -0.24080496 0.1343591 -0.1532739 -0.0617272 -0.3598114 0.35515827 0.37346435
-0.008092278 0.23831102 -0.15209636 -0.22893283 -0.010882546 0.19506525 0.31258294 -0.4236986
-0.20122257 -0.017195987 0.4150904 -0.29441065 0.08611519 -0.2524545 -0.08173044 -0.07733104
0.22201167 -0.40318698 -0.32627276 -0.3345761 0.057643663 0.028596826 -0.25003237 -0.050093647
0.17741622 -0.03728199 0.19767937 0.22675183 0.19858567 -0.32597297 0.11716428 -0.40428835
0.2841034 0.066762015 -0.2596025 -0.049410623 -0.015406751 0.16215333 0.26984662 0.09516166
-0.22969718 -0.37523937 -0.27003804 0.2918594 -0.03573614 -0.056020033 -0.12708554 0.14736758
-0.013834646 0.051843666 0.23342004 -0.3697137 -0.052429844 -0.084292844 -0.20154643 0.15162718
00000000: 3364 d73d 4afd 81be 2e94 2c3e 0b40 5bbe
00000010: adb0 11be 358e d3bd 158b 36be f2b8 82be
00000020: 6174 90be f46e 93be 4d5e 8e3e d121 743c
00000030: 0d05 c7bd 213d 583d cabd 1dbe 3f02 353e
00000040: 0036 ecbc 4e53 adbe 7d55 0e3e 8950 aa3d
00000050: 0321 cebd 9042 44be bdc4 743e db60 4b3e
00000060: e5be c23d cfd7 33be 8df4 163e a130 86bd
00000070: d0b2 213e 573d 54be ca0a abbe 03f6 abbd
00000080: 8eba 6a3e 4cdf 0dbe d3f0 373d 7807 5e3d
00000090: 1776 51bd fe7c c2bc 23fe 3eba 1ad1 9b3c
000000a0: 9a23 0e3d e619 70be 98a0 57be a89c 993d
000000b0: 085e 7ebe 973e a83d 7f47 9d3d 11e9 66be
000000c0: cbd3 6b3e d3af b3be d314 373c 3071 c03c
000000d0: cc02 a13e aa3c abbd 3386 31be 2a71 72be
000000e0: befe 8cbe 9004 7d3e 5b2a a33d 354a 7b3e
000000f0: 394a fcbd 93cc 753b 46e5 e73c db07 b13e
00000100: f5a0 5f3e 7a33 b23d 3d0e ddbd c23f a6be
00000110: 46d8 583e 1708 adbe ed17 1dbd a737 a4be
00000120: 7927 8abe 503c 663e 14a2 b13d bd56 52be
00000130: f4b8 3a3e b3a0 7c3e d1ad 8b3d bab9 b5be
00000140: 6dac 94be 1e03 a73d afd0 8cbe 9005 d23c
00000150: fff7 2c3e c979 6dbe 065b 303e 7fb0 2f3e
00000160: 6002 8e3e 938c 89be 03b4 9f3e c7ef 853e
00000170: 6a13 a23e 50fa 1f3d 60f6 35be 3e83 90be
00000180: 8f5b e2bc 3775 b0be 4012 7e3e f2c8 2a3c
00000190: 3319 273e e0b5 27be d971 2e3d bf51 603e
000001a0: 6b4c 14bd 8d69 4cbd b2e1 9ebe c1dc bb3c
000001b0: 1fec 883e 0907 a0bd f30f b63d f5c5 2cbd
000001c0: 6daa debd 16cc a93e 270d 4a3e a9d0 38be
000001d0: c981 eebd db18 b1be 090e 6cbe 68c1 c53d
000001e0: c108 073e 0dac 10be f990 77bd 3494 b6bd
000001f0: 2864 f4bd b654 863e e60e fbbe 4574 64be
00000200: 4ad6 6bbb c393 c4be 0f3f bf3d 2d79 6f3e
00000210: 7cbc 8f3e 1c6e 113e b8a3 623e b648 b83d
00000220: 9ecc 553e df00 dfbd 1d1a cdbd e0dd 2b3d
00000230: 920f 07bd 110e de3d 3f9a da3d ed79 8dbb
00000240: 55e9 abbd a74d 4f3e b408 423e 6b7c 56be
00000250: 7034 933e 4238 003e d4ef 4fbe 4584 a13c
00000260: cb6c d7bd 2a3f 84be a0d2 7ebe 1323 4a3e
00000270: f9ec 1b3e ce7a 3abe 6a6b ebbd 6fb8 173e
00000280: 0c63 b9bc ac82 44be 24cd 90be 1f9f 2a3e
00000290: ad1e 7d3d 1827 5d3e 7add 313e a8e2 c4be
000002a0: 37b9 a93c 3caf f83d 941e 963d 6391 85be
000002b0: 326c 33be 3252 83bd de6f e6bd 3e93 e5be
000002c0: fe5e d0bd a4af c5be ab4e 953b 3bd4 c8bb
000002d0: 4b00 03be f880 8e3e 43e4 e53d 6857 973e
000002e0: 19c4 573e 34d3 0fbe 63a0 52be e13f 5f3e
000002f0: 3ffb 80be 74af a2be 77b7 9c3e 1723 463e
00000300: feae c9bc 9395 76be 6f95 093e d5f3 1cbe
00000310: a9d5 7cbd 3339 b8be 4ed7 b53e b836 bf3e
00000320: 7995 04bc ce07 743e 26bf 1bbe 5e6d 6abe
00000330: b54c 32bc 2fbf 473e df0a a03e 06ef d8be
00000340: 4a0d 4ebe 99de 8cbc bb86 d43e febc 96be
00000350: 295d b03d b741 81be 4a62 a7bd bc5f 9ebd
00000360: 0757 633e 866e cebe 390d a7be 8f4d abbe
00000370: c31b 6c3d e443 ea3c 3e04 80be ff2e 4dbd
00000380: 99ac 353e 00b5 18bd 766c 4a3e a231 683e
00000390: 0b5a 4b3e eee5 a6be d3f3 ef3d e2fe cebe
000003a0: 0076 913e 86ba 883d 9eea 84be cb62 4abd
000003b0: 996c 7cbc 860b 263e 5629 8a3e 1ee4 c23d
000003c0: bd35 6bbe 601f c0be 6d42 8abe 986e 953e
000003d0: 0f60 12bd 4375 65bd b622 02be 87e7 163e
000003e0: b6aa 62bc 065a 543d aa05 6f3e 1d4b bdbe
000003f0: adc0 56bd baa1 acbd 3062 4ebe 2844 1b3e

fc1.bias f4 [128]
0.26591393 0.1578964 0.09625701 0.26203635 -0.11380056 -0.06887818 0.12381051 -0.049481496
0.0862505 0.09550074 -0.044101957 -0.15821967 0.2225965 -0.1475361 0.20055246 -0.16944765
-0.0035704928 0.0029460648 0.07753106 0.029418755 0.17002964 0.028951045 0.21561176 -0.2642694
0.08733551 0.27816635 -0.16325228 0.2711592 -0.033014577 0.10956491 -0.043619126 0.093509056
0.028960627 -0.26460686 -0.076061875 -0.049136117 -0.06376797 -0.1878285 0.19188647 0.0746392
-0.0014270875 0.2441383 -0.24998672 -0.19855854 0.22003834 0.065606855 -0.022374094 0.20408726
0.097913705 -0.05930883 0.031857118 0.033158965 0.17926122 0.22117212 0.114674546 -0.11358756
-0.118815295 -0.020300273 -0.2767719 0.19834839 -0.18748008 -0.16434832 -0.03539852 0.12446734
0.12405154 0.011129454 -0.0042914767 0.12213519 -0.012481242 0.25321445 -0.15743281 -0.18289934
0.08516371 -0.07177232 -0.24887387 -0.13500337 -0.19319655 0.07393551 0.121296935 -0.0075844047
-0.006618093 -0.038514044 -0.3229791 0.02192136 -0.0018208767 0.16199633 0.052426714 0.0417494
-0.10656399 -0.018147402 -0.08246429 -0.08637928 0.10854911 0.2087573 0.09377588 -0.009795742
-0.18474153 0.19845414 -0.23021108 0.0062992494 0.039253768 -0.20851451 -0.17849164 -0.11038872
0.024120621 0.20397279 -0.31979316 0.21474433 -0.2562589 0.11327374 0.16937347 -0.28063634
-0.1936667 0.113735184 -0.089379385 -0.081015944 -0.07882988 -0.16060044 0.15519059 0.047575224
-0.10807067 0.0013265494 -0.16387847 -0.09492594 0.042085443 0.16440755 -0.0035071007 0.2992146
00000000: df25 883e 98af 213e 6522 c53d a129 863e
00000010: 4510 e9bd 0110 8dbd 5d90 fd3d 1cad 4abd
00000020: 1aa4 b03d e495 c33d 41a4 34bd 5604 22be
00000030: 56f0 633e b413 17be a05d 4d3e af83 2dbe
00000040: eefe 69bb c412 413b 9bc8 9e3d 9aff f03c
00000050: 401c 2e3e be2a ed3c 54c9 5c3e 524e 87be
00000060: f6dc b23d d26b 8e3e 9b2b 27be 61d5 8a3e
00000070: 4b3a 07bd 9163 e03d f8a9 32bd ad81 bf3d
00000080: d63e ed3c 8d7a 87be 54c6 9bbd f442 49bd
00000090: c898 82bd 1d56 40be e37d 443e 70dc 983d
000000a0: 1c0d bbba 64ff 793e 85fc 7fbe ee52 4bbe
000000b0: bb51 613e e35c 863d e049 b7bc 40fc 503e
000000c0: fb86 c83d d1ed 72bd 9c7c 023d b2d1 073d
000000d0: 4190 373e f27a 623e 7dda ea3d 98a0 e8bd
000000e0: 6f55 f3bd c24c a6bc 0cb5 8dbe d71b 4b3e
000000f0: c7fa 3fbe ed4a 28be 0afe 10bd bce8 fe3d
00000100: bc0e fe3d 5058 363c 849f 8cbb 0422 fa3d
00000110: 207e 4cbc 53a5 813e 1136 21be f749 3bbe
00000120: 506a ae3d 5efd 92bd cbd8 7ebe 533e 0abe
00000130: 51d5 45be 806b 973d 876a f83d 9986 f8bb
00000140: 96dc d8bb e7c0 1dbd 845d a5be 6d94 b33c
00000150: 7caa eeba 5ee2 253e 65bd 563d 6b01 2b3d
00000160: 393e dabd dca9 94bc 0ae3 a8bd 9fe7 b0bd
00000170: ff4e de3d 79c4 553e 920d c03d 527e 20bc
00000180: e22c 3dbe 9037 4b3e 74bc 6bbe ef69 ce3b
00000190: 8fc8 203d d484 55be 83c6 36be 7b13 e2bd
000001a0: 9c98 c53c 3ede 503e eebb a3be f0e5 5b3e
000001b0: 5e34 83be 10fc e73d 3d70 2d3e 91af 8fbe
000001c0: 9050 46be feed e83d 8a0c b7bd b0eb a5bd
000001d0: 8f71 a1bd 7174 24be 48ea 1e3e 3dde 423d
000001e0: 2854 ddbd 9ddf ad3a c2cf 27be 8868 c2bd
000001f0: c961 2c3d 745a 283e 63d7 65bb a832 993e

fc2.weight f4 [128, 128]
0.04451795 0.03696256 -0.069542445 -0.021880902 0.075572036 -0.019034132 0.023734368 -0.0649012
-0.055611502 0.06982175 -0.037289023 0.07546 0.020716762 -0.015948502 -0.08711387 0.025943922
-0.051854424 0.0013517365 -0.00026492774 0.0024341792 -0.0025300086 -0.018240433 -0.055349015 0.025823366
0.03992852 -0.036597453 -0.053978965 -0.09042158 -0.09991613 0.05241873 -0.020281136 0.06501345
0.044681285 -0.06653525 -0.03584616 -0.0418707 -0.04018565 -0.03419044 0.013698809 -0.026235547
-0.019521028 -0.097227216 0.06508633 -0.0757021 -0.0856847 -0.0067314263 -0.045855556 0.028024824
-0.05657162 -0.071143895 0.031127632 -0.08947479 -0.045311965 -0.015515003 -0.032025576 -0.033158265
-0.05683914 0.0026955055 0.011759306 0.018446071 -0.06269933 0.056246467 -0.06651802 0.034541655
0.08641059 -0.006041769 -0.040465202 0.058922272 0.08423381 -0.049253017 0.052304458 0.028110608
-0.041345067 -0.016810633 0.042530708 -0.02703832 0.06209932 -0.07631902 0.01796469 -0.024928054
-0.06231574 -0.011868439 0.025882982 -0.018584566 -0.07549619 -0.037648264 0.04350885 -0.071853496
-0.082723364 0.00038236732 0.057091706 -0.083238825 -0.04018193 0.038257856 -0.05959953 -0.09408208
-0.052889258 0.025161617 0.037453935 -0.058952276 -0.061124206 0.014080767 0.037235215 0.019223481
-0.027081179 0.022164105 0.034860514 0.059545957 0.046981357 0.012228488 -0.068787605 0.03783738
-0.008175068 0.043409713 -0.094525315 -0.03954585 -0.031848013 0.025685258 0.0008965886 -0.08652385
0.05677146 0.009524502 -0.02565147 0.06260018 -0.07275525 -0.04740904 0.03398785 -0.07803355
-0.02462635 -0.012828728 -0.018763207 -0.018557826 -0.1415018 -0.083252706 -0.048102 0.07283637
0.029388703 0.020395141 0.17871872 -0.07265886 -0.09259547 0.07283891 0.16173689 -0.043603767
0.17616005 0.13794567 0.026468355 -0.022976942 -0.015686383 -0.040534735 -0.011610064 -0.050771322
0.0141940825 0.13488089 -0.2055411 -0.08174002 -0.039642468 0.13552113 0.02106182 0.025416452
0.07047844 -0.033410266 -0.04567369 0.062297493 0.034457013 -0.029845964 -0.009498105 -0.061385617
0.0013551936 -0.04512041 0.10212435 -0.09245287 -0.067439325 0.08955405 -0.13255869 0.06531273
0.096322134 -0.03292311 -0.076378345 -0.08300355 -0.080429316 0.063913204 0.004052204 0.08456292
-0.06243866 0.0750739 -0.02402652 0.008166662 -0.12643081 0.14855656 -0.005499167 0.11972603
-0.11075714 -0.03991748 0.105184324 0.019388977 -0.058179546 -0.08941704 -0.028698903 -0.09841617
-0.108950354 -0.103514336 -0.04696708 -0.017476983 0.018109258 0.017933194 -0.043541323 0.043314386
0.017153922 -0.018186567 -0.16922079 -0.018006677 -0.060940433 0.095205076 0.13922063 -0.057771023
-0.058435827 -0.12126248 -0.059089713 -0.041093547 -0.10152326 0.005021853 -0.14724529 0.1475952
0.055856228 0.0996975 0.03126399 0.03884766 0.023948882 0.05174796 0.054480728 0.104694605
0.13344344 -0.1272643 -0.09375278 0.14025418 -0.035386857 0.02702558 -0.10224456 -0.034148935
-0.018124126 0.018220834 -0.040042505 0.07620879 0.14363648 -0.08924397 0.06288205 0.052648526
0.07966657 0.07474286 -0.09755286 -0.054598033 0.0906102 -0.026645856 0.083259374 0.045441054
00000000: 7458 363d 0e66 173d 456c 8ebd 943f b3bc
00000010: 83c5 9a3d 78ed 9bbc 946e c23c ecea 84bd
00000020: e3c8 63bd b5fe 8e3d 60bc 18bd c68a 9a3d
00000030: 33b6 a93c 6fa6 82bc c268 b2bd 5988 d43c
00000040: 4e65 54bd c02c b13a 00e6 8ab9 c086 1f3b
00000050: 80ce 25bb f66c 95bc a6b5 62bd 868b d33c
00000060: 168c 233d 36e7 15bd 0c19 5dbd f32e b9bd
00000070: d4a0 ccbd 06b5 563d a024 a6bc c625 853d
00000080: b903 373d a243 88bd 6cd3 12bd 9c80 2bbd
00000090: b599 24bd 460b 0cbd f870 603c eeeb d6bc
000000a0: 90ea 9fbc 101f c7bd fb4b 853d b409 9bbd
000000b0: 767b afbd 4c93 dcbb 09d3 3bbd 5194 e53c
000000c0: a5b7 67bd e4b3 91bd 60ff fe3c 8f3e b7bd
000000d0: 0a99 39bd a432 7ebc 402d 03bd f6d0 07bd
000000e0: 28d0 68bd 14a7 303b 1baa 403c 371c 973c
000000f0: 8268 80bd b262 663d 9a3a 88bd 8d7b 0d3d
00000100: 09f8 b03d 08fa c5bb d7be 25bd 7b58 713d
00000110: c782 ac3d 88bd 49bd 333d 563d 3848 e63c
00000120: 7259 29bd 74b6 89bc ae34 2e3d 787f ddbc
00000130: db5b 7e3d 254d 9cbd b02a 933c eb35 ccbc
00000140: ca3e 7fbd d773 42bc 8c08 d43c a93e 98bc
00000150: bf9d 9abd 1135 1abd 5636 323d ed27 93bd
00000160: de6a a9bd 7978 c839 fed8 693d 1e79 aabd
00000170: cf95 24bd 45b4 1c3d a31e 74bd 1bae c0bd
00000180: 68a2 58bd bc1f ce3c 4c69 193d f177 71bd
00000190: 605d 7abd 04b3 663c f483 183d 907a 9d3c
000001a0: 59d9 ddbc 7f91 b53c e6c9 0e3d 76e6 733d
000001b0: 866f 403d ff59 483c 84e0 8cbd 5efb 1a3d
000001c0: b8f0 05bc 62ce 313d 7d96 c1bd d4fa 21bd
000001d0: 1073 02bd e469 d23c 0b09 6b3a 6b33 b1bd
000001e0: 3189 683d a80c 1c3c 0823 d2bc 8634 803d
000001f0: b400 95bd fb2f 42bd d836 0b3d 0ed0 9fbd
00000200: 33bd c9bc 962f 52bc 4cb5 99bc 9506 98bc
00000210: d9e5 10be 6580 aabd 9a06 45bd 3c2b 953d
00000220: 94c0 f03c b613 a73c 0a02 373e 2bce 94bd
00000230: b2a2 bdbd 912c 953d 5b9e 253e dd99 32bd
00000240: 4d63 343e a141 0d3e 2ad4 d83c 243a bcbc
00000250: bb80 80bc c007 26bd 2338 3ebc 97f5 4fbd
00000260: 4c8e 683c 371e 0a3e 5e79 52be 5067 a7bd
00000270: 2460 22bd 0dc6 0a3e d789 ac3c 2a36 d03c
00000280: 0057 903d 34d9 08bd 5614 3bbd a82b 7f3d
00000290: cc22 0d3d 867f f4bc f19d 1bbc 7c6f 7bbd
000002a0: c0a0 b13a 2ed0 38bd 9226 d13d ee57 bdbd
000002b0: a11d 8abd 1d68 b73d 77bd 07be aec2 853d
000002c0: 8a44 c53d 62da 06bd 406c 9cbd c4fd a9bd
000002d0: 20b8 a4bd ede4 823d 5ac8 843b 532f ad3d
000002e0: aebf 7fbd 58c0 993d 44d3 c4bc 77cd 053c
000002f0: 1477 01be 361f 183e 5b32 b4bb ec32 f53d
00000300: a4d4 e2bd 8380 23bd e16a d73d a2d5 9e3c
00000310: ad4d 6ebd 4820 b7bd f619 ebbc 6b8e c9bd
00000320: 5d21 dfbd 53ff d3bd 8e60 40bd e42b 8fbc
00000330: de59 943c a2e8 923c 6358 32bd 6d6a 313d
00000340: 6286 8c3c fffb 94bc 3748 2dbe bd82 93bc
00000350: ad9c 79bd e1fa c23d da8f 0e3e 4fa1 6cbd
00000360: 685a 6fbd 7758 f8bd 0e08 72bd b551 28bd
00000370: 6deb cfbd 5b8e a43b 78c7 16be 3223 173e
00000380: 80c9 643d 342e cc3d ab0e 003d b91e 1f3d
00000390: 7230 c43c abf5 533d 2f27 5f3d 206a d63d
000003a0: 66a5 083e 9351 02be 7501 c0bd cb9e 0f3e
000003b0: cff1 10bd c064 dd3c 9965 d1bd c1df 0bbd
000003c0: 0c79 94bc dc43 953c 9c03 24bd 5b13 9c3d
000003d0: 7115 133e 8bc5 b6bd 4ec8 803d fba5 573d
000003e0: 3a28 a33d c912 993d cbc9 c7bd 30a2 5fbd
000003f0: d791 b93d 6948 dabc e483 aa3d 6620 3a3d

fc2.bias f4 [128]
-0.028538605 -0.03691465 0.09899144 0.035153277 0.04635003 0.07286542 0.10084058 -0.02209392
0.08714984 0.03446948 0.008932622 0.06498408 -0.094840266 0.026057031 -0.083236784 0.061020773
0.04846151 0.043684438 -0.033626452 0.019911801 0.028423715 0.0123887025 0.023168784 0.08884934
0.042996805 0.01000165 0.006905707 0.069847845 -0.02001865 -0.026812043 -0.038284354 -0.011776663
-0.05030762 -0.08219838 -0.021748783 -0.07749462 0.02933874 -0.1025238 0.062280037 -0.038198102
0.036613964 -0.03825812 -0.02817199 -0.035458766 -0.06424786 0.11872358 -0.05546328 0.011364288
0.065598354 0.02498034 0.09635155 0.016009435 -0.0030616513 0.002776977 0.04053864 0.05216207
0.042057008 0.07075315 -0.044747878 0.06721598 0.032078646 -0.093980856 0.0130767515 0.06522895
-0.016708681 0.053659998 -0.08984495 0.026072046 -0.029308707 0.04219152 -0.044869058 -0.071325034
-0.10247494 -0.014630556 0.051035613 -0.04517977 -0.04476447 0.060664676 0.15966243 0.04811942
0.10786757 0.106121965 -0.016324954 -0.018143842 -0.009677716 0.016031371 0.036020402 -0.056376874
-0.055614825 -0.029074969 0.063659176 0.051441643 -0.009750368 -0.046709754 0.05437848 -0.09905459
0.048565187 -0.049647104 0.1257718 0.018017793 0.026307316 -0.06105816 0.048375912 -0.05978752
0.020692743 0.003664888 0.0070707384 -0.0071818484 -0.030497355 -0.0421775 0.106924035 0.03176336
-0.113259286 0.013684538 0.044280447 -0.043669466 0.037967768 0.06443308 -0.00717828 0.041289978
-0.0780265 0.0419434 -0.009242297 -0.11239232 0.047647603 0.028808368 -0.040350474 0.10875008
00000000: cbc9 e9bc d133 17bd 06bc ca3d e2fc 0f3d
00000010: 87d9 3d3d 773a 953d 8285 ce3d 4ffe b4bc
00000020: 9e7b b23d df2f 0d3d 225a 123c 6016 853d
00000030: 9d3b c2bd 8e75 d53c 0c78 aabd ebf0 793d
00000040: 947f 463d 74ee 323d e4bb 09bd 131e a33c
00000050: dad8 e83c fcf9 4a3c 76cc bd3c a5f6 b53d
00000060: 6b1d 303d f6dd 233c 4549 e23b 630c 8f3d
00000070: 27fe a3bc eea4 dbbc 0ed0 1cbd e8f2 40bc
00000080: 5d0f 4ebd a057 a8bd 812a b2bc 80b5 9ebd
00000090: cc57 f03c 00f8 d1bd 5a19 7f3d 9d75 1cbd
000000a0: 86f8 153d 8cb4 1cbd f2c8 e6bc 363d 11bd
000000b0: 6294 83bd 5925 f33d 772d 63bd 4731 3a3c
000000c0: 6e58 863d 92a3 cc3c f653 c53d 3826 833c
000000d0: fca5 48bb f1fd 353b d80b 263d e5a7 553d
000000e0: f843 2c3d 07e7 903d 8d49 37bd 88a8 893d
000000f0: e664 033d 0979 c0bd df3f 563c c196 853d
00000100: a5e0 88bc 96ca 5b3d a100 b8bd 0b95 d53c
00000110: d018 f0bc 04d1 2c3d 9ec8 37bd dc12 92bd
00000120: 62de d1bd 00b5 6fbc b80a 513d 6c0e 39bd
00000130: f35a 37bd 867b 783d 8c7e 233e de18 453d
00000140: ace9 dc3d 7956 d93d e9bb 85bc 65a2 94bc
00000150: 488f 1ebc 3954 833c 218a 133d 70eb 66bd
00000160: 5fcc 63bd a12e eebc be5f 823d 79b4 523d
00000170: 02c0 1fbc ba52 3fbd f8bb 5e3d 22dd cabd
00000180: 4aec 463d c35a 4bbd 53ca 003e 0d9a 933c
00000190: 7182 d73c 1f18 7abd d225 463d c2e3 74bd
000001a0: d483 a93c 9e2e 703b a7b1 e73b b655 ebbb
000001b0: 97d5 f9bc 50c2 2cbd fdfa da3d 4c1a 023d
000001c0: 7cf4 e7bd 1d35 603c 6a5f 353d c1de 32bd
000001d0: 1784 1b3d 7ef5 833d c737 ebbb ae1f 293d
000001e0: 5ccc 9fbd d8cc 2b3d 016d 17bc f22d e6bd
000001f0: 222a 433d 87ff eb3c 8a46 25bd 5db8 de3d

mu.weight f4 [5, 128]
-0.009062824 0.13425209 0.07305683 0.086921714 0.044599477 0.051818028 0.09013455 0.014580051
-0.12894093 0.13530341 0.053332496 0.06993784 -0.054721218 -0.0498249 -0.03609624 0.16122067
-0.16370228 0.046659585 -0.0076302816 0.019973973 0.01413321 -0.1450211 0.15802853 -0.09389664
0.1450559 0.108221896 0.038473286 0.08394903 0.20381759 -0.005143337 -0.05658093 -0.016692024
-0.008713241 0.030003788 0.019754408 0.1177673 -0.019917041 -0.019613829 0.07472685 0.078849666
-0.20107207 -0.0808499 -0.02687024 0.16207682 0.1722169 -0.004905957 -0.0269373 -0.03398662
0.08348628 0.05225471 -0.067862235 -0.060063627 -0.28963247 -0.03047481 0.058886345 -0.17263198
0.09372225 0.0337405 -0.022758532 -0.15351383 -0.022018218 0.038428318 0.025184171 -0.07317671
-0.085987695 -0.01011293 0.072941765 -0.09072455 0.05978264 0.16479637 0.04463628 0.037291884
-0.23370944 0.15014592 0.12700538 -0.18986745 0.014657671 0.14299302 -0.2201772 -0.07606141
-0.11851863 0.17194685 0.11209483 0.026922325 0.032024466 -0.100847885 -0.052423645 -0.033280935
-0.014218267 0.0070834775 -0.12326109 -0.024702778 0.08618812 -0.17507122 0.081050225 0.027941694
-0.011691049 -0.11610829 -0.05335312 0.09607955 -0.017476588 -0.08657371 0.15836711 0.049784333
0.0247649 0.19351609 -0.038209278 -0.0757222 0.09860621 -0.1678318 -0.049449977 -0.008439132
0.020772474 0.11131823 0.03999186 0.06542952 -0.10636268 0.20337728 -0.0008870612 -0.07979611
0.060122386 0.01448902 0.14295053 0.042839106 0.026038874 -0.011848943 0.00596097 -0.16406359
0.019681875 -0.040935576 -0.05422499 0.1234113 0.12653343 0.066536784 -0.19772361 -0.05817743
0.12819219 -0.017202873 -0.03445782 -0.059948776 -0.051019493 0.02381105 -0.027403655 0.16045855
0.056699116 0.05596162 -0.21106458 0.009706757 0.012137098 0.012667508 -0.04921624 -0.15687233
0.02503905 0.06144308 0.08976628 0.12165196 -0.052773286 0.038708247 -0.009766994 0.107771136
-0.09661641 0.032893725 0.007603648 0.06882645 0.13542172 0.020275183 -0.12287149 -0.07215351
0.04534149 -0.048810177 -0.0048302035 0.08587823 0.11859257 0.14451143 -0.14248942 -0.18984696
0.12812477 -0.17258555 0.15717375 0.1008208 -0.048360318 -0.044546586 0.0033365511 -0.012302852
-0.08739686 0.08507278 0.2313667 -0.02634554 -0.20412485 0.03236237 0.010627167 -0.13148984
-0.048499554 -0.021753285 0.118776776 0.0632055 -0.057166956 -0.09843821 -0.12078846 -0.027470598
0.088135816 0.0033164322 0.113853835 0.02200968 0.12059892 -0.0041558146 -0.22416516 -0.093754366
-0.14325751 -0.021793542 -0.007976672 0.04631391 0.03948696 -0.12731753 -0.009932798 0.057636585
-0.14706512 -0.00235774 0.047088422 0.10635116 0.06418688 -0.025326135 0.13999796 0.055262476
0.09292808 -0.11276128 0.10815168 0.10968266 0.15060166 0.027068898 0.14266634 0.028431756
0.21726939 0.059064116 -0.008408391 0.059256725 0.0347546 0.07165846 0.07575917 -0.18271099
-0.102678195 -0.06262039 -0.14948454 -0.07370071 0.010401362 0.0662729 0.0077583096 -0.16380107
0.06659206 -0.17606221 -0.011518517 -0.012823653 0.0736518 -0.13752386 0.07777453 -0.073536985
00000000: 3d7c 14bc 6179 093e d29e 953d 0304 b23d
00000010: f1ad 363d 243f 543d 7798 b83d 2be1 6e3c
00000020: 1709 04be fa8c 0a3e 2d73 5a3d 923b 8f3d
00000030: 5b23 60bd 3215 4cbd a7d9 13bd 0817 253e
00000040: 92a1 27be 1f1e 3f3d 7107 fabb 75a0 a33c
00000050: fb8e 673c 6980 14be 3bd2 213e e24c c0bd
00000060: 8989 143e 71a3 dd3d 2a96 1d3d 78ed ab3d
00000070: 8fb5 503e 7089 a8bb 68c1 67bd b6bd 88bc
00000080: fbc1 0ebc 81ca f53c ffd3 a13c fb2f f13d
00000090: 1029 a3bc 2ead a0bc 640a 993d ef7b a13d
000000a0: d6e5 4dbe a294 a5bd fa1e dcbc 77f7 253e
000000b0: a159 303e 26c2 a0bb 9dab dcbc 8e35 0bbd
000000c0: dbfa aa3d 0909 563d 5bfb 8abd 4705 76bd
000000d0: b54a 94be 4fa6 f9bc cf32 713d 70c6 30be
000000e0: 73f1 bf3d 7b33 0a3d 1a70 babc bb32 1dbe
000000f0: 8d5f b4bc 0367 1d3d 094f ce3c acdd 95bd
00000100: 511a b0bd b4b0 25bc 7e62 953d cbcd b9bd
00000110: a4de 743d 61c0 283e 88d4 363d 60bf 183d
00000120: 8751 6fbe dabf 193e b30d 023e 9d6c 42be
00000130: ba26 703c c36c 123e 2276 61be 16c6 9bbd
00000140: e5b9 f2bd d612 303e f991 e53d 358c dc3c
00000150: 162c 033d 5689 cebd 2dba 56bd 9751 08bd
00000160: bcf3 68bc 841c e83b 4f70 fcbd 7b5d cabc
00000170: 6683 b03d df45 33be a9fd a53d fbe5 e43c
00000180: d08b 3fbc 2fca edbd cd88 5abd 5bc5 c43d
00000190: 102b 8fbc 8f4d b1bd fd2a 223e a8ea 4b3d
000001a0: c2df ca3c 1529 463e 5581 1cbd 3e14 9bbd
000001b0: 0df2 c93d 19dc 2bbe 0f8c 4abd 4944 0abc
000001c0: 092b aa3c d0fa e33d 81ce 233d eaff 853d
000001d0: add4 d9bd 2242 503e ab89 68ba 256c a3bd
000001e0: e442 763d 5b63 6d3c a061 123e 0f78 2f3d
000001f0: 7a4f d53c 1222 42bc 3e54 c33b 4900 28be
00000200: e23b a13c 10ac 27bd 061b 5ebd 10bf fc3d
00000210: fb91 013e 7044 883d 0f78 4abe 754b 6ebd
00000220: d044 033e 0aed 8cbc a523 0dbd d98c 75bd
00000230: d1f9 50bd 640f c33c a17d e0bc 3f4f 243e
00000240: 553d 683d 0338 653d 5021 58be 1709 1f3c
00000250: aeda 463c 618b 4f3c f896 49bd 24a3 20be
00000260: b21e cd3c bdab 7b3d 62d7 b73d aa24 f93d
00000270: cd28 58bd 8a8c 1e3d be05 20bc 1db7 dc3d
00000280: d3de c5bd 92bb 063d 0628 f93b e2f4 8c3d
00000290: feab 0a3e 2418 a63c 0ca4 fbbd 38c5 93bd
000002a0: 00b8 393d 2eed 47bd af46 9ebb ede0 af3d
000002b0: a9e0 f23d cefa 133e bfe8 11be 3e67 42be
000002c0: 2433 033e 44ba 30be 28f2 203e 237b ce3d
000002d0: 7815 46bd 7b76 36bd 0aaa 5a3b e791 49bc
000002e0: 20fd b2bd a33a ae3d 64eb 6c3e 9ad2 d7bc
000002f0: 1b06 51be 688e 043d 921d 2e3c 46a5 06be
00000300: 78a7 46bd f233 b2bc 3d41 f33d e371 813d
00000310: e627 6abd f999 c9bd f15f f7bd 050a e1bc
00000320: 8d80 b43d 8058 593b 332c e93d a54d b43c
00000330: 91fc f63d 802d 88bb 8d8b 65be 4a02 c0bd
00000340: 19b2 12be 5f88 b2bc 96b0 02bc a8b3 3d3d
00000350: 14bd 213d 875f 02be 2dbd 22bc 5714 6c3d
00000360: 3d98 16be 5084 1abb cadf 403d a3ce d93d
00000370: 6974 833d c178 cfbc a05b 0f3e e85a 623d
00000380: 1451 be3d 63ef e6bd a17e dd3d 4da1 e03d
00000390: 5237 1a3e 98bf dd3c 2017 123e b7e9 e83c
000003a0: de7b 5e3e 37ed 713d 59c3 09bc 2eb7 723d
000003b0: d75a 0e3d acc1 923d a027 9b3d 9718 3bbe
000003c0: f248 d2bd 1e3f 80bd 7a12 19be 66f0 96bd
000003d0: 796a 2a3c 16ba 873d 6b39 fe3b 78bb 27be
000003e0: 6b61 883d a749 34be 29b8 3cbc 4d1a 52bc
000003f0: c1d6 963d 0ed3 0cbe 4148 9f3d 8f9a 96bd

mu.bias f4 [5]
-0.022553997 -0.08454421 -0.02487042 0.076948784 0.005956268
00000000: 29c3 b8bc 8425 adbd 0dbd cbbc 5397 9d3d
00000010: cc2c c33b

log_std.weight f4 [5, 128]
-0.07077368 -0.07347258 -0.06454594 -0.00867426 -0.07967398 0.021036241 0.029367633 -0.03719972
0.0040324093 -0.12608309 0.005799937 0.071111165 -0.076056555 -0.053335957 -0.06537219 -0.08823125
-0.10521539 -0.03711493 -0.016595576 -0.07126746 -0.13311963 -0.07710642 0.13191617 -0.08266116
-0.072299585 -0.04121367 0.0057089883 0.010960386 0.043572433 0.062252022 0.07342684 -0.026936358
0.03430979 0.081501275 -0.07614769 -0.102956034 -0.016600031 0.049157802 -0.003573408 0.085935906
-0.03660855 -0.048286907 -0.02323439 -0.11234495 -0.050719045 0.033665694 -0.044082567 -0.04283285
-0.006448173 0.016881948 0.064899415 -0.002977284 -0.10617528 0.028364005 -0.033555355 -0.0015392052
0.05984243 0.00397553 -0.021196615 0.0067355367 -0.001358211 0.0483004 0.03600501 -0.13388571
0.019431984 -0.021840058 -0.006093343 0.06503619 -0.06990752 -0.100526914 0.01631967 -0.056548983
-0.030391743 0.023193788 0.012721366 0.09215472 0.049473055 -0.017212944 0.039039418 -0.08766957
0.038279314 -0.09250839 -0.006048752 0.08477458 0.061026167 0.045642447 0.014404325 -0.078159146
-0.12827942 0.029696813 -0.045374136 0.023661299 0.033676285 -0.01819929 -0.005319922 0.011944534
0.055076562 -0.07199578 -0.054714 -0.087806314 0.09395108 -0.049384724 0.055138174 0.0054765167
-0.07423601 -0.011421319 0.048779637 -0.03886106 -0.08778075 -0.073008105 0.09131275 -0.0024320881
-0.107600994 0.0014789543 -0.07438266 0.087076165 0.026252734 -0.056546777 -0.08216923 -0.01589246
0.029337 0.12770925 -0.032990254 -0.020317415 -0.069527656 -0.012661104 0.009260113 -0.0721314
-0.011714359 -0.077018574 -0.082250424 0.005283808 -0.09433616 0.0410165 0.08002893 0.013841543
-0.004301442 -0.00369324 0.05657259 -0.02865772 0.08143219 0.02438744 0.033097394 -0.005214958
0.0003802871 -0.05516527 -0.08373045 -0.07892078 -0.076739475 0.09742845 -0.08579598 -0.07179029
0.0094938325 0.059636816 -0.054472808 -0.072118215 -0.003119668 0.03213661 0.080774866 0.06375134
0.066388465 -0.065138586 -0.0684634 -0.15527838 -0.015871828 -0.0007181935 -0.039458692 0.08012235
0.018688245 -0.00855433 0.10931067 0.047239155 -0.03752932 -0.01580885 -0.076028846 0.00095754175
0.076025546 -0.04643506 -0.0040560225 0.09911156 0.025915846 0.015354206 -0.024519322 -0.03943001
0.025073746 -0.020793535 -0.0037527073 -0.08654801 -0.041352242 -0.077096954 -0.055364724 -0.040999644
0.029889733 -0.07200477 -0.01543071 -0.05440937 -0.08250942 -0.041028105 -0.10117692 0.089982666
0.059957933 -0.009576832 -0.051330578 0.04112898 0.0071377605 -0.0132226 0.07055987 -0.044965524
0.020127092 -0.06465574 -0.10196358 -0.07897364 -0.086333774 0.010518528 0.042769533 0.07008003
-0.051328246 -0.029494515 0.068361126 0.071399815 -0.09081122 0.0875898 0.046296693 -0.042016476
0.017608175 -0.016437467 -0.081427865 -0.11407918 0.04233816 0.07335097 -0.10587186 0.013037593
-0.036462996 0.060284663 0.058686867 -0.06538863 -0.03730063 0.01601529 0.043947037 0.044902366
-0.073554896 -0.072345346 -0.004008669 0.051400866 -0.10018384 0.0027330823 -0.061260156 0.004695839
0.069063835 -0.12146123 -0.02647435 -0.05137517 -0.10378632 0.0195036 0.045446977 -0.05646297
00000000: cbf1 90bd cb78 96bd a930 84bd 7c1e 0ebc
00000010: 1d2c a3bd 3254 ac3c 6494 f03c bc5e 18bd
00000020: 4d22 843b ed1b 01be 660d be3b bba2 913d
00000030: 8ac3 9bbd ce76 5abd dbe1 85bd 96b2 b4bd
00000040: 2b7b d7bd d305 18bd 72f3 87bc adf4 91bd
00000050: 8350 08be f9e9 9dbd 0815 073e 414a a9bd
00000060: ce11 94bd aacf 28bd 7712 bb3b 3193 333c
00000070: 0279 323d fafb 7e3d d060 963d a3a9 dcbc
00000080: 6c88 0c3d 24ea a63d 52f3 9bbd 9dda d2bd
00000090: cafc 87bc b159 493d d62f 6abb 2aff af3d
000000a0: d9f2 15bd 7ec8 45bd 0c56 bebc 1c15 e6bd
000000b0: c6be 4fbd 0ae5 093d ec8f 34bd 8071 2fbd
000000c0: 324b d3bb 034c 8a3c fce9 843d 891e 43bb
000000d0: 6d72 d9bd a15b e83c 5771 09bd 28bf c9ba
000000e0: 561d 753d 2a45 823b 86a4 adbc c7b5 dc3b
000000f0: 0006 b2ba a4d6 453d fd79 133d 5619 09be
00000100: d32f 9f3c ece9 b2bc aaaa c7bb b231 853d
00000110: ad2b 8fbd 0ee1 cdbd d4b0 853c e89f 67bd
00000120: 1bf8 f8bc e600 be3c 476d 503c 9dbb bc3d
00000130: 42a4 4a3d 2902 8dbc cce7 1f3d 1b8c b3bd
00000140: c5ca 1c3d 0a75 bdbd 9c34 c6bb 4c9e ad3d
00000150: 93f6 793d 93f3 3a3d 1e00 6c3c e711 a0bd
00000160: ae5b 03be bb46 f33c 3bda 39bd 57d5 c13c
00000170: 25f0 093d ad16 95bc be52 aebb 02b3 433c
00000180: f697 613d 8672 93bd ca1b 60bd ccd3 b3bd
00000190: 6d69 c03d a347 4abd 91d8 613d 5a74 b33b
000001a0: 0d09 98bd 7c20 3bbc 28cd 473d c62c 1fbd
000001b0: 65c6 b3bd 4685 95bd 2e02 bb3d ab63 1fbb
000001c0: e95d dcbd 79d9 c13a f055 98bd fd54 b23d
000001d0: f90f d73c 989d 67bd 5748 a8bd e730 82bc
000001e0: 2654 f03c 37c6 023e ca20 07bd b570 a6bc
000001f0: 8464 8ebd 8570 4fbc bbb7 173c a1b9 93bd
00000200: 95ed 3fbc eabb 9dbd e972 a8bd cb23 ad3b
00000210: 5133 c1bd eb00 283d 35e6 a33d a4c7 623c
00000220: 1cf3 8cbb 490a 72bb a9b8 673d 98c3 eabc
00000230: ecc5 a63d 2bc8 c73c 2291 073d 3de2 aabb
00000240: 4561 c739 faf4 61bd df7a abbd 38a1 a1bd
00000250: 9629 9dbd 9188 c73d ceb5 afbd ca06 93bd
00000260: 058c 1b3c bc45 743d e11e 5fbd b7b2 93bd
00000270: 5873 4cbb aea1 033d 4b6d a53d 1090 823d
00000280: adf6 873d 6167 85bd 8a36 8cbd 4c01 1fbe
00000290: a305 82bc 2645 3cba 709f 21bd 3017 a43d
000002a0: 1718 993c 7627 0cbc 46de df3d d87d 413d
000002b0: 58b8 19bd 9081 81bc 03b5 9bbd 8a03 7b3a
000002c0: 48b3 9b3d b132 3ebd 62e8 84bb 00fb ca3d
000002d0: 784d d43c 3590 7b3c bfdc c8bc 5d81 21bd
000002e0: 7567 cd3c 3457 aabc fbef 75bb 1540 b1bd
000002f0: f860 29bd 02e5 9dbd 1fc6 62bd 3eef 27bd
00000300: 50db f43c 3d77 93bd 17d1 7cbc 5cdc 5ebd
00000310: b3fa a8bd 160d 28bd d835 cfbd d548 b83d
00000320: 7396 753d 25e8 1cbc 0340 52bd dd76 283d
00000330: e0e3 e93b 9ba3 58bc b181 903d c52d 38bd
00000340: 92e1 a43c 3b6a 84bd 48d2 d0bd efbc a1bd
00000350: c3cf b0bd e755 2c3c 1b2f 2f3d 1e86 8f3d
00000360: 913d 52bd 7b9e f1bc eb00 8c3d 113a 923d
00000370: 3cfb b9bd 4862 b33d 9aa1 3d3d 7819 2cbd
00000380: 053f 903c dea7 86bc a7c3 a6bd 58a2 e9bd
00000390: c76a 2d3d 0939 963d 59d3 d8bd a19b 553c
000003a0: 395a 15bd 0ded 763d a461 703d 79ea 85bd
000003b0: 8cc8 18bd 7f32 833c cf01 343d 8beb 373d
000003c0: f3a3 96bd cc29 94bd 275b 83bb b789 523d
000003d0: 2f2d cdbd 831d 333b eeeb 7abd 8ddf 993b
000003e0: 5771 8d3d aac0 f8bd bce0 d8bc c56e 52bd
000003f0: ec8d d4bd 04c6 9f3c 9c26 3a3d b745 67bd

log_std.bias f4 [5]
0.031319477 -0.021289855 -0.05676342 -0.057290796 -0.03577489
00000000: da48 003d 1068 aebc c380 68bd c1a9 6abd
00000010: b188 12bd
