resource/multi_run_experiment_20250319_111011/run_2/sac_critic_45000.pth (torch, 155391 bytes, 10 tensors)

fc1.weight f4 [128, 17]
-0.0054758494 -0.021888826 0.053484257 -0.24533923 -0.13774702 -0.22053656 0.12803258 -0.26461777
0.07687048 -0.10895437 -0.09735598 0.10614884 -0.022643356 0.22568186 0.074180745 -0.08341371
-0.21658064 0.12715961 0.2001486 -0.206422 0.031383436 0.15380372 0.31765893 0.2486742
-0.012149361 -0.25006455 0.24069181 0.024722468 0.048036408 -0.28815353 -0.1907804 0.33611208
0.11252313 -0.24364853 0.24534282 0.03858247 -0.15336315 -0.20610926 -0.060036846 -0.17861505
0.06584078 -0.13554598 -0.023618544 -0.15009075 0.14722677 -0.23493211 0.122235425 0.007818801
0.080511846 -0.22458121 0.19255807 0.23757784 -0.056045603 0.20908459 -0.16430216 0.122183606
-0.018609617 -0.1590277 0.1666737 -0.13582137 0.044643164 0.14113046 0.078135565 0.14506121
0.29088056 0.04789082 -0.06675127 -0.18367176 -0.20742586 0.1362368 -0.039172355 0.029630126
0.11342415 0.1472538 -0.25040627 -0.12847283 0.049126998 0.0181352 0.21459873 0.066061795
0.18350759 0.096166804 0.058553778 0.32213545 0.18840699 -0.01081784 0.23791105 -0.5492245
0.013572307 -0.10090665 0.19881237 -0.21505813 0.26259437 -0.046595663 0.08455389 0.16820957
0.24358077 0.45049548 0.15900901 0.33043215 0.42806062 -0.5536188 0.0234545 0.12090672
0.51739025 0.160557 0.027951306 -0.55697054 -0.23352219 -0.057259653 0.21783425 -0.32696748
0.34453744 -0.0033485072 0.35831195 -0.36925784 -0.21686524 0.120255515 -0.19358794 -0.042037375
-0.18646525 0.08209271 0.07509176 -2.4446403e-05 0.28719345 -0.015752612 0.24534345 0.24746113
0.27291557 0.053383425 0.07445557 -0.0650295 0.1805538 -0.35943756 -0.11116927 -0.13696596
-0.5458963 0.11466668 0.2170341 -0.16507426 -0.59892476 0.1239705 0.06767005 0.07312849
0.22082745 -0.018369647 -0.08914933 -0.1651929 0.15385668 -0.010510442 -0.30206367 -0.5230131
-0.22768174 0.09841351 -0.15501817 0.07395726 0.10230637 0.18487097 -0.007844462 -0.079466745
-0.11880016 0.14676104 0.15847512 0.08092274 0.19566615 -0.08848534 0.10235444 -0.048847154
-0.0635379 -0.06635174 -0.18618101 0.14221203 0.58550555 -0.03818194 -0.42433515 -0.2569902
-0.11898305 0.026154907 -0.17052099 -0.18060178 0.017020637 -0.06410604 -0.23902096 -0.121540815
0.38451147 -0.25104386 -0.05228184 -0.026050733 -0.1245311 0.116831906 0.10381778 -0.36309344
-0.34960103 0.091999196 -0.06364726 -0.17870802 0.17692158 0.30630547 -0.055943355 -0.059668638
0.038972374 -0.1131414 -0.20116316 0.31286958 0.13559514 -0.14107332 -0.10312488 -0.23775297
0.134465 0.25662303 -0.17399362 0.1662056 0.014123196 0.10417334 0.23501939 0.19291352
0.12750593 0.24220625 -0.23165898 0.17639361 -0.16252834 -0.054602217 -0.06539418 -0.035293404
-0.32006374 0.11195067 -0.019719454 -0.09606711 -0.20610651 0.08042353 0.013984 0.081583045
0.072658785 -0.17815399 0.12983944 -0.048051674 -0.037962407 0.15269539 0.28488293 0.15280601
0.19589661 0.27670142 0.26894018 -0.1965898 0.14919634 0.13395461 0.06570006 -0.20852609
0.03016084 0.108975686 -0.26710963 -0.22123769 0.09676407 0.13952312 -0.29989052 -0.14671813
00000000: c16e b3bb 3250 b3bc 4f12 5b3d 353a 7bbe
00000010: 8e0d 0dbe 56d4 61be f91a 033e fb7b 87be
00000020: 456e 9d3d 7823 dfbd 9262 c7bd 9064 d93d
00000030: 8f7e b9bc 2519 673e 13ec 973d cfd4 aabd
00000040: 51c7 5dbe 2136 023e c1f3 4c3e 4a60 53be
00000050: eb8b 003d b97e 1d3e 31a4 a23e 73a4 7e3e
00000060: 1d0e 47bc 7608 80be ea77 763e c686 ca3c
00000070: d3c1 443d dc88 93be f05b 43be e216 ac3e
00000080: 8772 e63d 007f 79be 263b 7b3e a708 1e3d
00000090: 3b0b 1dbe 4e0e 53be 32e9 75bd dde6 36be
000000a0: 88d7 863d 91cc 0abe ad7b c1bc 64b1 19be
000000b0: 9dc2 163e 0b92 70be 9156 fa3d 6e1a 003c
000000c0: 65e3 a43d 9ef8 65be f12d 453e 9b47 733e
000000d0: 1390 65bd 451a 563e d33e 28be 663b fa3d
000000e0: 3273 98bc 28d8 22be 83ac 2a3e c214 0bbe
000000f0: c0db 363d 8184 103e 8a05 a03d ed8a 143e
00000100: 4cee 943e 2a29 443d e4b4 88bd 7314 3cbe
00000110: 7267 54be a981 0b3e 3173 20bd e1ba f23c
00000120: ec4a e83d b3c9 163e 4035 80be 628e 03be
00000130: 6439 493d 4590 943c c5bf 5b3e 684b 873d
00000140: 6ae9 3b3e 1af3 c43d 16d6 6f3d f0ee a43e
00000150: c3ed 403e 4f3d 31bc f49e 733e fa99 0cbf
00000160: 625e 5e3c 25a8 cebd 7895 4b3e 3338 5cbe
00000170: c572 863e 18db 3ebd 972a ad3d 213f 2c3e
00000180: 3d6d 793e 58a7 e63e 42d3 223e 672e a93e
00000190: c32a db3e f6b9 0dbf a723 c03c f19d f73d
000001a0: b073 043f 0e69 243e 23fa e43c 9f95 0ebf
000001b0: 7120 6fbe 1989 6abd f10f 5f3e 4868 a7be
000001c0: 3667 b03e a172 5bbb aa74 b73e 5d0f bdbe
000001d0: ec11 5ebe 8648 f63d eb3b 46be 622f 2cbd
000001e0: bff0 3ebe 3920 a83d b5c9 993d 4012 cdb7
000001f0: 050b 933e 9f0b 81bc 503b 7b3e 7366 7d3e
00000200: 97bb 8b3e 94a8 5a3d 297c 983d 302e 85bd
00000210: 18e3 383e 3308 b8be b7ac e3bd ce40 0cbe
00000220: dcbf 0bbf 5dd6 ea3d 303e 5e3e 3a09 29be
00000230: 2253 19bf 3fe4 fd3d 9896 8a3d 64c4 953d
00000240: 9720 623e f17b 96bc ed93 b6bd 5428 29be
00000250: 9b8c 1d3e fd33 2cbc 17a8 9abe 30e4 05bf
00000260: 6725 69be 068d c93d 15bd 1ebe e776 973d
00000270: 0186 d13d d14e 3d3e 0f86 00bc 76bf a2bd
00000280: 804d f3bd 8748 163e 4d47 223e d2ba a53d
00000290: b55c 483e cd37 b5bd 349f d13d f413 48bd
000002a0: 2920 82bd 6ce3 87bd 3ca6 3ebe 08a0 113e
000002b0: b1e3 153f aa64 1cbd 7542 d9be 3894 83be
000002c0: 63ad f3bd d142 d63c 0e9d 2ebe acef 38be
000002d0: dd6e 8b3c 074a 83bd e9c1 74be 64ea f8bd
000002e0: b0de c43e d288 80be 7c25 56bd 5968 d5bc
000002f0: 290a ffbd 9145 ef3d 6b9e d43d 62e7 b9be
00000300: e8fe b2be 136a bc3d 7f59 82bd 3cff 36be
00000310: ee2a 353e 12d4 9c3e dc24 65bd 1a67 74bd
00000320: 7fa1 1f3d aeb6 e7bd b7fd 4dbe 7130 a03e
00000330: 74d9 0a3e 8675 10be 2333 d3bd 8475 73be
00000340: 31b1 093e 1864 833e 622b 32be cd31 2a3e
00000350: fa64 673c d558 d53d eca8 703e 1f8b 453e
00000360: ea90 023e ea04 783e 0338 6dbe 87a0 343e
00000370: d46d 26be 93a6 5fbd 62ed 85bd d18f 10bd
00000380: 65df a3be 6546 e53d b18a a1bc d5be c4bd
00000390: 960d 53be 17b5 a43d 261d 653c 0315 a73d
000003a0: 21ce 943d 006e 36be a1f4 043e d5d1 44bd
000003b0: 787e 1bbd 2e5c 1c3e 2ddc 913e 2e79 1c3e
000003c0: 1f99 483e cfab 8d3e 87b2 893e d64e 49be
000003d0: edc6 183e 662b 093e c18d 863d dd87 55be
000003e0: de13 f73c a52e df3d 98c2 88be 228c 62be
000003f0: 3e2c c63d 26df 0e3e 408b 99be 473d 16be

fc1.bias f4 [128]
0.49580875 -0.03439721 0.45772153 0.31692624 0.21674758 0.035337836 -0.01261967 0.17207803
-0.12887205 0.41064534 -0.08247531 0.30241233 0.30058473 0.41776586 0.2698917 0.10332855
0.2499203 0.3622333 0.16215801 0.023667956 -0.27965367 0.30926478 0.43586046 0.3702744
-0.21760218 0.32384393 0.05462057 0.1259755 0.2918751 -0.15601431 0.44456372 -0.1507163
-0.057479553 0.115006275 0.2766942 0.025808409 0.29570347 -0.09019607 0.18972656 0.3648132
0.04979998 0.31045243 -0.12635079 0.47222134 0.27019408 0.15643032 0.40626714 -0.15218624
0.10147556 -0.29056448 -0.0867187 0.29963288 0.079916194 0.19341677 0.19573244 -0.053742416
0.23277238 0.18454356 2.2726963e-05 0.15522586 0.24102652 0.34182507 -0.14443292 0.4128777
-0.09855245 0.13845074 -0.14593495 0.3690554 -0.1317193 0.35127467 0.062352505 0.16612527
0.19775793 0.059038598 0.39238355 0.245133 -0.18042392 -0.18296742 -0.1751753 0.14426549
-0.17731728 0.36266744 0.06880579 0.035014134 -0.06216034 0.12765074 0.395166 -0.092078716
-0.113669336 -0.12784466 0.076211385 0.022822734 0.15971182 0.25165558 -0.19271943 -0.019365083
0.0050948616 -0.07709542 0.2008955 0.05281904 0.13384639 0.48791888 0.08838108 0.073198505
0.22687523 0.21378979 0.099416345 -0.08470744 -0.12244854 0.3812354 0.3259204 0.4244559
0.36297968 0.2827966 0.13509658 0.36601454 -0.1509344 0.42360136 0.31631428 0.43494096
0.09969225 0.2760067 0.46712452 0.11568548 -0.16183612 -0.19588208 0.18939832 -0.2578643
00000000: a5da fd3e 17e4 0cbd 7a5a ea3e 2844 a23e
00000010: 14f3 5d3e 68be 103d bbc2 4ebc 3935 303e
00000020: 09f7 03be 1b40 d23e d1e8 a8bd cad5 9a3e
00000030: 3ee6 993e 68e5 d53e 3f2f 8a3e eb9d d33d
00000040: 1beb 7f3e a576 b93e c00c 263e 4de3 c13c
00000050: c42e 8fbe f457 9e3e 1a29 df3e 9b94 bd3e
00000060: 1bd3 5ebe dfce a53e d2b9 5f3d b9ff 003e
00000070: a770 953e 37c2 1fbe db9d e33e 6055 1abe
00000080: ae6f 6bbd 6988 eb3d ddaa 8d3e 286c d33c
00000090: 7266 973e b8b8 b8bd ae47 423e ccc8 ba3e
000000a0: 10fb 4b3d 9ff3 9e3e 1a62 01be ffc6 f13e
000000b0: e156 8a3e 452f 203e 3f02 d03e b6d6 1bbe
000000c0: 6bd2 cf3d dec4 94be 9399 b1bd 7b69 993e
000000d0: 1aab a33d 0c0f 463e 166e 483e 0221 5cbd
000000e0: e25b 6e3e fdf8 3c3e c8a5 be37 87f3 1e3e
000000f0: a8cf 763e b203 af3e 39e6 13be b564 d33e
00000100: ded5 c9bd 08c6 0d3e f96f 15be d4f4 bc3e
00000110: 6de1 06be 46da b33e 5765 7f3d be1c 2a3e
00000120: 0e81 4a3e 75d2 713d 7fe6 c83e 2504 7b3e
00000130: 0cc1 38be d05b 3bbe 2761 33be 55ba 133e
00000140: a992 35be 8caf b93e 0dea 8c3d fb6a 0f3d
00000150: d79b 7ebd e0b6 023e 3353 ca3e c493 bcbd
00000160: 78cb e8bd b6e9 02be b714 9c3d bef6 ba3c
00000170: 7f8b 233e 00d9 803e 3e58 45be 86a3 9ebc
00000180: ccf2 a63b 34e4 9dbd 8db7 4d3e c758 583d
00000190: 070f 093e 81d0 f93e 2401 b53d 19e9 953d
000001a0: fb51 683e b6eb 5a3e cc9a cb3d 187b adbd
000001b0: 4dc6 fabd 4931 c33e 0adf a63e 4952 d93e
000001c0: 79d8 b93e b7ca 903e c256 0a3e 4266 bb3e
000001d0: 8c8e 1abe 47e2 d83e f2f3 a13e 95b0 de3e
000001e0: 732b cc3d c050 8d3e f22a ef3e 82ec ec3d
000001f0: 5eb8 25be 5095 48be a2f1 413e ca06 84be

fc2.weight f4 [128, 128]
-0.076084465 -0.109260954 0.11575846 -0.1595965 -0.053823944 0.017594976 0.03504589 -0.098570056
0.2765059 -0.032884926 0.24077928 -0.14186971 0.055299666 0.008763616 0.09223453 -0.020257099
-0.113116935 0.10885006 -0.012473503 0.08676014 0.23143932 0.08009641 -0.018392788 -0.014973402
0.21026258 0.04304619 0.25566006 0.070644245 -0.109072275 -0.14104877 -0.14315313 0.34486583
0.14750364 -0.10649734 -0.09028513 -0.10020289 0.124262564 0.22927305 -0.0412573 -0.025026606
-0.15809144 0.006763388 -0.012666671 0.1186109 -0.040353265 0.25906178 -0.06091893 0.21783392
0.20135869 -0.0104939 -0.17976591 0.09728836 -0.088259496 -0.01816105 -0.14727157 0.123087585
-0.11262747 0.13311523 0.24996954 0.04474751 0.009002002 0.10119342 -0.04278376 0.014412711
0.26588854 0.029815674 0.2826335 -0.11482277 -0.18398002 -0.011911262 0.16318339 -0.035847887
-0.10906373 0.029211782 -0.07373839 0.045330063 0.11976058 0.40379605 0.36885512 0.09912011
-0.0021744038 -0.043845687 0.05144594 -0.31877235 -0.11995984 0.1374125 -0.036748257 0.08947504
-0.7023795 0.26458034 -0.09747631 -0.05576858 0.044133022 -0.0454025 0.13201408 -0.55682725
-0.00011497684 0.30397505 -0.19573168 -0.16520014 -0.098749466 0.032686707 -0.2862798 -0.0044108233
0.020312421 0.081154294 -0.11298799 0.0014264325 -0.31507492 0.06856611 -0.024550699 0.069291696
-0.046191838 -0.013834779 -0.038012933 0.0030661493 0.10393073 -0.027337551 -0.01912716 0.10034185
-0.255837 -0.0369429 -0.1287034 -0.15660812 0.024331305 -0.1464319 0.10266445 0.22022526
0.21849515 0.011966547 -0.10620043 0.05900244 -0.07414401 0.133788 -0.037514634 -0.002959118
0.08256295 0.0166736 0.18990053 -0.5155833 0.012774275 -0.17416863 0.027502088 0.12222598
-0.13396518 0.01611284 -0.04919506 -0.25255144 0.21340539 0.07745186 -0.16521962 -0.018834079
0.22408988 0.14895082 -0.45077854 0.11385737 0.029447813 -0.07441289 0.012658392 0.20127892
0.27912182 0.019216513 -0.0049539134 0.14217988 -0.061599076 -0.07351389 -0.5481691 -0.124079585
-0.59489006 0.018672464 -0.03871061 -0.0673564 -0.018150622 0.014129415 -0.02848425 0.0676149
0.04409144 0.0977537 -0.0791681 -0.15974765 -0.119221814 0.026415406 -0.120115966 0.12777883
-0.40748143 0.2218095 0.114864714 -0.028737452 -0.50349206 0.042922173 0.06305211 0.1406568
0.1827264 0.0011392185 0.069876306 0.121432364 -0.25067824 -0.07180693 0.13852598 -0.051045008
-0.092821755 0.05490668 0.05910546 -0.09576007 0.30418777 0.15301703 -0.1883805 0.047423545
-0.052290086 0.08668138 -0.032442704 0.18305139 0.15520482 -0.044814285 0.010995548 0.0093407575
0.0176055 0.19143331 -0.14718919 -0.021010881 -0.08684528 -0.56589186 0.13597247 0.010934666
0.19882773 -0.12579817 -0.10714472 -0.27231124 -0.21856605 0.0223448 -0.10216479 0.09479033
-0.16548982 0.08202432 -0.120151035 -0.10417998 0.09394343 0.16711012 0.018510962 -0.029459989
0.053319626 0.24843112 -0.5488029 0.060709883 3.7238078e-06 0.0050003817 0.07844103 0.016885819
-0.05745233 -0.008747584 -0.0009730288 0.09689872 0.22191681 0.074502826 0.04489069 0.3752969
00000000: 2cd2 9bbd 35c4 dfbd c512 ed3d 446d 23be
00000010: 7f76 5cbd 5723 903c 478c 0f3d 19df c9bd
00000020: 2e92 8d3e 58b2 06bd d88e 763e 4b46 11be
00000030: e781 623d 4595 0f3c 75e5 bc3d 37f2 a5bc
00000040: daa9 e7bd c8ec de3d aa5d 4cbc 4daf b13d
00000050: 6efe 6c3e 9609 a43d 79ac 96bc 0053 75bc
00000060: 134f 573e 3451 303d e0e5 823e eead 903d
00000070: 4961 dfbd 176f 10be bc96 12be 4192 b03e
00000080: 320b 173e 471b dabd 69e7 b8bd 2c37 cdbd
00000090: 5f7d fe3d 8ec6 6a3e 6afd 28bd 9904 cdbc
000000a0: b9e2 21be 699f dd3b de87 4fbc 46ea f23d
000000b0: 7749 25bd bfa3 843e 2186 79bd db0f 5f3e
000000c0: f930 4e3e 9bee 2bbc 8e14 38be 1f3f c73d
000000d0: 65c1 b4bd 7bc6 94bc 5cce 16be 5815 fc3d
000000e0: 3ba9 e6bd 5c4f 083e 04f8 7f3e 2a49 373d
000000f0: 227d 133c 7f3e cf3d 063e 2fbd 4b23 6c3c
00000100: 8b22 883e 0040 f43c 57b5 903e 3328 ebbd
00000110: 4265 3cbe 7427 43bc 8c19 273e 3cd5 12bd
00000120: ce5c dfbd 8c4d ef3c 2704 97bd 04ac 393d
00000130: 0945 f53d 5bbe ce3e 94da bc3e 7cff ca3d
00000140: 7180 0ebb 8997 33bd fab8 523d 2136 a3be
00000150: 81ad f5bd ddb5 0c3e 5785 16bd b13e b73d
00000160: 25cf 33bf 1377 873e a9a1 c7bd 986d 64bd
00000170: d4c4 343d f9f7 39bd b32e 073e 3b8c 0ebf
00000180: b91f f1b8 9ea2 9b3e e36d 48be 3a2a 29be
00000190: 293d cabd 7fe2 053d 4493 92be ab88 90bb
000001a0: 3c66 a63c 3934 a63d 3f66 e7bd 22f7 ba3a
000001b0: 8051 a1be 646c 8c3d 8c1e c9bc cee8 8d3d
000001c0: a733 3dbd 45ab 62bc 73b3 1bbd 73f1 483b
000001d0: a2d9 d43d 00f3 dfbc 90b0 9cbc 0780 cd3d
000001e0: 11fd 82be 7051 17bd d3ca 03be e15d 20be
000001f0: 7252 c73c 3ef2 15be bd41 d23d bb82 613e
00000200: 31bd 5f3e 560f 443c 9c7f d9bd 8bac 713d
00000210: d1d8 97bd b9ff 083e f2a8 19bd c3ed 41bb
00000220: c416 a93d 1397 883c 4975 423e 44fd 03bf
00000230: 314b 513c 4359 32be 0f4c e13c 9d51 fa3d
00000240: 2b2e 09be 13ff 833c c280 49bd 6c4e 81be
00000250: f186 5a3e 159f 9e3d 552f 29be ed49 9abc
00000260: d177 653e 9086 183e 72cc e6be 0e2e e93d
00000270: 8a3c f13c c965 98bd 2565 4f3c 101c 4e3e
00000280: 0ee9 8e3e f36b 9d3c 7054 a2bb 9a97 113e
00000290: 504f 7cbd 738e 96bd cf54 0cbf 701d febd
000002a0: b74a 18bf fff6 983c 048f 1ebd 27f2 89bd
000002b0: 9db0 94bc 107f 673c cd57 e9bc ae79 8a3d
000002c0: 3a99 343d 1833 c83d e322 a2bd e394 23be
000002d0: 912a f4bd 1f65 d83c 5cff f5bd 74d8 023e
000002e0: 68a1 d0be 0822 633e 313e eb3d ce6a ebbc
000002f0: dbe4 00bf 29cf 2f3d 7721 813d 5608 103e
00000300: a11c 3b3e d451 953a 4f1b 8f3d 88b1 f83d
00000310: e658 80be 830f 93bd c1d9 0d3e 9214 51bd
00000320: 5519 bebd d4e5 603d 9118 723d db1d c4bd
00000330: 80be 9b3e 7fb0 1c3e d1e6 40be 313f 423d
00000340: 212e 56bd 0286 b13d a4e2 04bd d371 3b3e
00000350: 03ee 1e3e 2f8f 37bd ac26 343c fa09 193c
00000360: 6939 903c 1807 443e c3b8 16be 031f acbc
00000370: f0db b1bd 4ade 10bf 5e3c 0b3e 5027 333c
00000380: 7f99 4b3e 3cd1 00be b16e dbbd 616c 8bbe
00000390: c7cf 5fbe 710c b73c c63b d1bd 6f21 c23d
000003a0: 2a76 29be 5efc a73d bf11 f6bd 505c d5bd
000003b0: 6a65 c03d ea1e 2b3e 4da4 973c 1356 f1bc
000003c0: ae65 5a3d ba64 7e3e 597e 0cbf edaa 783d
000003d0: 88e6 7936 3eda a33b b1a5 a03d 2154 8a3c
000003e0: 2253 6bbd 0752 0fbc db12 7fba d672 c63d
000003f0: 293e 633e f094 983d 4ddf 373d ea26 c03e

fc2.bias f4 [128]
-0.11688535 0.07502809 0.20509893 -0.00013328876 0.25671092 0.16024803 0.15404706 0.23540509
0.17659599 0.22582877 0.052626755 0.038026717 0.14142036 0.17803507 -0.024382945 0.122696355
0.012478432 0.14563686 0.23625213 0.10471259 0.1240845 -0.12294724 0.18356742 0.22001398
0.22300903 -0.015038549 0.25346133 0.19762589 0.09147041 -0.13030888 0.011227146 0.18989213
0.08037477 0.27135593 0.12669487 -0.115572535 0.14573729 0.1942507 -0.07459999 0.16617942
0.23014921 -0.11650028 -0.08293491 0.22824697 0.19139461 0.07713041 -0.08442411 0.13390292
-0.14267416 0.13324459 0.21970145 0.12056753 0.11817812 0.24706307 0.029222935 -0.009664809
-0.046596456 -0.044823363 -0.044096224 -0.09319149 0.008551466 -0.088357516 0.27362055 0.1418525
0.020110045 0.03625958 0.21485141 -0.09204036 0.14256354 0.18738814 -0.0773141 -0.039380886
-0.011159886 0.11705494 0.120861426 0.20658325 0.019532314 0.22192657 0.113806605 0.07883534
0.13728495 0.13198878 0.16964081 0.1922509 0.18516935 0.097474724 -0.07945714 0.24623336
-0.020116672 0.13968535 0.25365418 0.022744844 0.22989756 0.014258443 -0.01450996 0.16970822
-0.061092537 0.120944865 0.042258155 0.1076723 -0.016157178 0.21241146 -0.07915 0.2742024
0.020964252 -0.06223937 -0.0027710868 -0.02972669 -0.12757294 0.18868439 -0.0062461495 0.1068083
-0.15859899 -0.07661459 -0.051026136 -0.058631115 0.23614489 0.09019005 0.1657953 0.21272807
-0.09586348 -0.022185568 0.22107783 0.23579966 0.033209197 0.066728204 0.14733896 0.26187658
00000000: 9661 efbd 54a8 993d 7405 523e 6ec3 0bb9
00000010: 9d6f 833e 0f18 243e 83be 1d3e 080e 713e
00000020: 94d5 343e a83f 673e 278f 573d e7c1 1b3d
00000030: 80d0 103e d34e 363e bebe c7bc 3a48 fb3d
00000040: 5672 4c3c d421 153e 14ec 713e 8e73 d63d
00000050: 0420 fe3d c3cb fbbd 19f9 3b3e 584b 613e
00000060: 7b5c 643e 3f64 76bc afc5 813e 715e 4a3e
00000070: d754 bb3d b16f 05be 10f2 373c 1573 423e
00000080: 879b a43d 2aef 8a3e 4dbc 013e 4bb1 ecbd
00000090: 283c 153e a8e9 463e e1c7 98bd f02a 2a3e
000000a0: 3cac 6b3e b397 eebd c7d9 a9bd 93b9 693e
000000b0: f3fc 433e 8cf6 9d3d 8ce6 acbd d91d 093e
000000c0: 2d19 12be 4571 083e 6bf9 603e 1cec f63d
000000d0: 5f07 f23d 1afe 7c3e f064 ef3c 2659 1ebc
000000e0: eddb 3ebd b498 37bd 3e9e 34bd 2edb bebd
000000f0: 731b 0c3c c9f4 b4bd fe17 8c3e c841 113e
00000100: d2bd a43c ed84 143d 0202 5c3e a87f bcbd
00000110: 2dfc 113e ade2 3f3e db56 9ebd da4d 21bd
00000120: f4d7 36bc 80ba ef3d 3286 f73d 8f8a 533e
00000130: 3b02 a03c b840 633e 7013 e93d 6c74 a13d
00000140: 6d94 0c3e 1128 073e 52b6 2d3e 6cdd 443e
00000150: 099d 3d3e d4a0 c73d 6dba a2bd 9924 7c3e
00000160: b8cb a4bc ad09 0f3e f6de 813e 6553 ba3c
00000170: 446a 6b3e 3f9c 693c 2fbb 6dbc fec7 2d3e
00000180: 2b3c 7abd f1b1 f73d e316 2d3d 4b83 dc3d
00000190: 0f5c 84bc 6482 593e 6519 a2bd 4264 8c3e
000001a0: 39bd ab3c b6ee 7ebd 1f9b 35bb 6385 f3bc
000001b0: 7ba2 02be 7b36 413e 80ac ccbb 4fbe da3d
000001c0: c667 22be 1ce8 9cbd c800 51bd 2e27 70bd
000001d0: f7cf 713e 90b5 b83d 3ec6 293e 63d5 593e
000001e0: 1254 c4bd 82be b5bc 3a62 623e 7775 713e
000001f0: 5e06 083d cca8 883d 06e0 163e b014 863e

q1.weight f4 [1, 128]
-0.659279 -0.5545124 0.2296082 -0.7116841 0.27971122 0.2540524 0.256153 0.25318706
0.2562287 0.30973834 -0.05709393 -0.5839788 -1.2714436 0.238702 -0.11266433 -1.1108876
-0.02343193 0.19468641 0.22816949 0.22352494 0.20463035 -0.64755785 0.22819942 0.2927764
0.21534108 -0.0014127101 0.26822895 0.26380354 -0.9727528 -0.35410023 -0.58401954 0.24229278
-0.8118579 0.26145416 0.25758037 -0.636501 0.298715 0.2505606 -0.38643166 0.23640043
0.2338736 -0.120379016 0.06648196 0.16878077 0.18653554 -0.89168215 -0.38826033 0.21658832
-0.45824912 0.23023413 0.2376013 0.22177406 0.2254333 0.21965036 -0.88614213 -1.2061452
-0.61942863 -1.1527904 -0.6207619 -0.92716044 -0.95089346 -0.74006736 0.23974305 0.2919898
-0.39779964 -0.68900657 0.21031336 -0.19648497 0.25217992 0.19228496 -0.43600255 -0.8379593
-0.6063545 -0.72538495 0.1884475 0.19662844 -0.07110011 0.1971316 0.22064178 -0.86988443
0.23212124 0.33881816 0.23234285 0.20953588 0.2068293 0.22371383 -0.29006702 0.24754651
-0.548632 0.19659005 0.26404405 -0.45415387 0.25294217 -0.74596745 -0.8090786 0.21262151
-0.6334912 0.22068831 -0.07502117 0.22931212 -0.9889506 0.17940016 -0.6252813 0.25575614
-0.8366267 -0.7411575 0.6822315 -0.7598341 -0.6255817 0.2787553 -0.069454625 0.207681
-0.54054326 -0.18846536 -0.6982952 -0.4851034 0.2435949 -0.5125006 0.33841354 0.25144395
-0.77764446 -0.011126677 0.23248982 0.22430195 -1.0207572 -0.7021551 0.22271766 0.262462
00000000: 82c6 28bf 86f4 0dbf 691e 6b3e ee30 36bf
00000010: 4f36 8f3e 2813 823e 7c26 833e bca1 813e
00000020: 6830 833e 0696 9e3e 53db 69bd a27f 15bf
00000030: aabe a2bf 4c6e 743e 8ebc e6bd 9131 8ebf
00000040: 52f4 bfbc e05b 473e 43a5 693e b9e3 643e
00000050: 9e8a 513e 5ac6 25bf 1cad 693e cae6 953e
00000060: 5f82 5c3e af2a b9ba 4e55 893e 4211 873e
00000070: 5406 79bf a04c b5be 4e82 15bf 991b 783e
00000080: ebd5 4fbf 52dd 853e 93e1 833e bbf1 22bf
00000090: 2cf1 983e 7b49 803e 5fda c5be f412 723e
000000a0: 907c 6f3e 4689 f6bd b227 883d ded4 2c3e
000000b0: 2c03 3f3e 4845 64bf 0fca c6be 54c9 5d3e
000000c0: a19f eabe 7fc2 6b3e c14d 733e bd18 633e
000000d0: fdd7 663e 06ec 603e 36da 62bf f762 9abf
000000e0: e092 1ebf a38e 93bf 40ea 1ebf 635a 6dbf
000000f0: c16d 73bf 0e75 3dbf 347f 753e b07f 953e
00000100: 65ac cbbe bc62 30bf 635c 573e 5b33 49be
00000110: ba1d 813e 59e6 443e ba3b dfbe 8084 56bf
00000120: 0c3a 1bbf d4b2 39bf 62f8 403e f758 493e
00000130: ef9c 91bd dedc 493e ebef 613e bfb0 5ebf
00000140: 31b1 6d3e 9379 ad3e 49eb 6d3e 9390 563e
00000150: 0fcb 533e 3d15 653e aa83 94be d57c 7d3e
00000160: 2673 0cbf e74e 493e c830 873e db86 e8be
00000170: a381 813e b9f7 3ebf c61f 4fbf 74b9 593e
00000180: 7b2c 22bf 1efc 613e b3a4 99bd ccd0 6a3e
00000190: de2b 7dbf adb4 373e 6f12 20bf 78f2 823e
000001a0: 2b2d 56bf 7fbc 3dbf b9a6 2e3f 7d84 42bf
000001b0: 1f26 20bf 04b9 8e3e 3a3e 8ebd 54aa 543e
000001c0: 0b61 0abf 10fd 40be 79c3 32bf 795f f8be
000001d0: f170 793e 3d33 03bf 8a44 ad3e 43bd 803e
000001e0: b513 47bf aa4c 36bc d011 6e3e 69af 653e
000001f0: 2ca8 82bf 70c0 33bf 1910 643e 6b61 863e

fc3.weight f4 [128, 17]
0.028079458 -0.41194588 0.041859943 -0.22760293 -0.21442983 -0.16589405 0.23422065 -0.29021117
0.22915888 0.0498598 -0.104412034 -0.10645543 -0.07980002 -0.033179417 -0.00067102205 -0.10247222
0.12062518 4.5945e-05 -0.09364587 -0.0048620957 0.10377737 0.16832353 -0.0009785455 0.04837284
0.15453753 0.03566994 -0.2385351 -0.27589428 -0.11873737 -0.5397657 -0.083430834 0.4031125
0.18279728 -0.4693819 -0.25160262 -0.23216067 0.014704447 0.07720858 -0.30721104 -0.15465182
-0.23625131 -0.13893418 -0.096597426 0.10875274 0.3340691 0.18601507 -0.052523013 -0.066409945
-0.043152038 -0.047401212 0.12031106 0.11711684 -0.11716274 0.056820862 -0.24097094 0.24236678
0.18159254 0.15815248 -0.080435745 0.22484383 -0.16442312 0.055607576 -0.05071041 -0.0040822877
0.3181159 -0.26576322 0.06484791 -0.12574321 -0.060046945 -0.025841221 -0.031118674 -0.260562
0.28325644 -0.17882475 0.07324724 -0.26697153 0.11283555 0.13356553 -0.12950277 -0.038624793
0.1945278 0.014104612 0.22421917 -0.22652258 -0.06867116 -0.1743885 0.09497731 -0.38000223
0.0076101334 0.11001709 -0.26990336 -0.091597624 0.19599113 0.21600443 -0.07394645 -0.18796466
0.10546783 0.03638465 -0.3523484 0.14130396 0.32661688 -0.27250767 0.10784029 -0.2045886
-0.05638054 0.12756932 -0.20895882 -0.08679434 0.13281018 -0.21580428 -0.2311472 0.24051987
-0.042640768 0.17341742 0.10461282 0.34951085 0.12614089 -0.09600638 -0.17978154 0.13689429
-0.003529927 0.1890127 0.10116619 0.096647926 0.15418254 0.21648845 -0.2225986 0.15924597
0.28196368 -0.18439414 -0.23963006 -0.4013062 0.19454528 -0.04140652 -0.099689245 0.23462462
-0.18599792 -0.10228428 -0.3415884 -0.10245831 0.12150953 0.19521165 0.1669758 0.09692653
-0.086221494 0.14945164 -0.15985084 -0.24038252 0.17497246 -0.25069502 -0.020536214 0.18333751
-0.1435714 0.0311204 0.09367222 0.5501713 -0.086006895 -0.17200992 -0.22742914 -0.034661405
0.1708322 -0.21076421 -0.10090145 -0.20462973 0.1383936 0.15881136 -0.14068213 -0.2493465
0.10568762 0.3948115 -0.03186717 0.19361539 0.105705 0.11380096 -0.13782033 -0.10474556
0.061676554 -0.18425417 0.29669186 -0.12179306 0.22739065 0.079936355 -0.2563619 0.016619194
-0.44170707 -0.20588337 -0.1787776 0.039711826 0.000624433 0.24650131 0.14508685 0.18168195
0.031854305 -0.04191377 0.21001881 -0.01943313 0.06826772 0.12334347 0.10522646 -0.08753584
-0.4534809 -0.25409028 -0.058634866 0.22773577 -0.12062551 -0.1403405 0.15258026 -0.2882422
0.11332144 -0.15326001 0.19320865 -0.36371297 0.27886584 0.19876988 0.14895973 0.18840115
-0.00861163 0.1253797 -0.214719 0.11437355 -0.17823325 0.22842097 0.10642812 0.07896146
-0.2070187 -0.011200981 0.116328605 0.035980146 -0.32939473 0.1837383 0.20327915 0.3246702
0.21543455 0.29518676 0.54995465 -0.18670046 -0.12621708 0.056000087 0.15236165 -0.26634136
0.14649041 -0.027553702 -0.01889535 0.09150673 0.15610404 0.03434525 0.2767268 0.28382728
-0.059780996 0.21556595 -0.41050965 -0.31296507 0.46425435 -0.038127877 0.26130745 0.19634476
00000000: e406 e63c 92ea d2be 5575 2b3d be10 69be
00000010: 7e93 5bbe 21e0 29be 8ad7 6f3e 8f96 94be
00000020: a0a8 6a3e ca39 4c3d fad5 d5bd 4e05 dabd
00000030: 316e a3bd 24e7 07bd 87e7 2fba f5dc d1bd
00000040: 560a f73d 11b5 4038 68c9 bfbd 3752 9fbb
00000050: 3b89 d43d 015d 2c3e 8a42 80ba 9922 463d
00000060: 163f 1e3e a51a 123d 8c42 74be 0442 8dbe
00000070: 942c f3bd 162e 0abf c9dd aabd c364 ce3e
00000080: 362f 3b3e d352 f0be 0fd2 80be 87bb 6dbe
00000090: ecea 703c 881f 9e3d c44a 9dbe 0c5d 1ebe
000000a0: ddeb 71be c344 0ebe dfd4 c5bd c2b9 de3d
000000b0: 1b0b ab3e bc7a 3e3e 5f22 57bd f001 88bd
000000c0: 31c0 30bd c627 42bd a565 f63d f4da ef3d
000000d0: 05f3 efbd febc 683d 16c1 76be ff2e 783e
000000e0: 65f3 393e b9f2 213e 7fbb a4bd 763d 663e
000000f0: 895e 28be c5c4 633d b8b5 4fbd b6c4 85bb
00000100: 16e0 a23e 1e12 88be fbce 843d d4c2 00be
00000110: c9f3 75bd f8b0 d3bc 97ec febc 6268 85be
00000120: fd06 913e d61d 37be a602 963d 7eb0 88be
00000130: 5316 e73d 67c5 083e 609c 04be 0835 1ebd
00000140: 4c32 473e 0817 673c b699 653e 89f5 67be
00000150: 77a3 8cbd e692 32be 7783 c23d a78f c2be
00000160: 6d5e f93b a450 e13d c630 8abe 8997 bbbd
00000170: e6b1 483e 4430 5d3e 3d71 97bd cf79 40be
00000180: 85ff d73d 1208 153d 0267 b4be fcb1 103e
00000190: 543a a73e 2086 8bbe 5fdb dc3d ad7f 51be
000001a0: 48ef 66bd 88a1 023e 4df9 55be 3bc1 b1bd
000001b0: 64ff 073e ccfb 5cbe dab1 6cbe d74a 763e
000001c0: 16a8 2ebd 5694 313e 3f3f d63d 16f3 b23e
000001d0: 142b 013e fe9e c4bd a718 38be 042e 0c3e
000001e0: 5956 67bb 8c8c 413e 3830 cf3d 59ef c53d
000001f0: 07e2 1d3e 26af 5d3e e3f0 63be 6011 233e
00000200: 8b5d 903e d1d1 3cbe 9561 75be 0278 cdbe
00000210: e136 473e e299 29bd e029 ccbd 7041 703e
00000220: 3d76 3ebe 6c7a d1bd ade4 aebe aad5 d1bd
00000230: fdd9 f83d 90e5 473e b4fb 2a3e 6b81 c63d
00000240: e594 b0bd da09 193e f0af 23be d626 76be
00000250: fb2b 333e 195b 80be 903b a8bc d4bc 3b3e
00000260: 6204 13be 36f0 fe3c 39d7 bf3d 07d8 0c3f
00000270: 6224 b0bd 5e23 30be 2fe3 68be 1ef9 0dbd
00000280: a3ee 2e3e 93d2 57be 6ba5 cebd 758a 51be
00000290: 0db7 0d3e 729f 223e fa0e 10be b054 7fbe
000002a0: c072 d83d bc24 ca3e 2687 02bd 1d43 463e
000002b0: dd7b d83d 7a10 e93d c620 0dbe d784 d6bd
000002c0: 8ea0 7c3d 20ad 3cbe ffe7 973e a46e f9bd
000002d0: 18d9 683e acb5 a33d de41 83be fa24 883c
000002e0: 6e27 e2be 17d3 52be 7a11 37be dea8 223d
000002f0: fdb0 233a d76a 7c3e a691 143e d50a 3a3e
00000300: a979 023d c6ad 2bbd 2c0f 573e 3a32 9fbc
00000310: f2cf 8b3d 809b fc3d f880 d73d fe45 b3bd
00000320: a62e e8be 1f18 82be 1d2b 70bd 9133 693e
00000330: 820a f7bd 6cb5 0fbe 003e 1c3e 7b94 93be
00000340: 1215 e83d 31f0 1cbe 7dd8 453e 9638 babe
00000350: 81c7 8e3e 558a 4b3e e688 183e 3bec 403e
00000360: cb17 0dbc 8963 003e 4cdf 5bbe ae3c ea3d
00000370: c782 36be 30e7 693e fcf6 d93d 8cb6 a13d
00000380: b6fc 53be 5284 37bc b13d ee3d eb5f 133d
00000390: 6da6 a8be e525 3c3e 6928 503e 2c3b a63e
000003a0: e09a 5c3e b822 973e d4c9 0c3f 682e 3fbe
000003b0: 0d3f 01be 5960 653d b104 1c3e e55d 88be
000003c0: 9501 163e 4db8 e1bc 6cca 9abc e167 bb3d
000003d0: bdd9 1f3e 9bad 0c3d 23af 8d3e cf51 913e
000003e0: ebdc 74bd 52bd 5c3e 522e d2be f53c a0be
000003f0: bfb2 ed3e fa2b 1cbd 17ca 853e 9a0e 493e

fc3.bias f4 [128]
0.5282408 -0.0781057 0.42508784 0.14436448 0.25372744 -0.06724777 0.40801245 0.25645784
0.22709055 -0.24570413 -0.21316871 -0.28867394 0.29697475 -0.0030102166 0.17641571 0.39855286
0.37284687 0.37832615 -0.04452794 0.21738231 0.2632097 0.40634754 0.23024519 0.21675049
0.115157425 -0.16272588 -0.22880727 -0.21194957 0.32965514 0.33433855 0.387799 -0.083077416
-0.004802239 0.21495351 0.1502001 0.11389648 -0.14384745 -0.1106773 0.09281543 -0.149131
0.33591777 0.22915922 0.28037855 0.46181828 0.31513575 0.4609525 0.30842975 -0.10506446
-0.2548478 0.064173415 -0.35188553 0.26906034 0.22022702 0.11318972 -0.064584404 -0.14434661
-0.029908938 0.024075512 -0.2687682 -0.14257023 -0.0810489 0.19134629 -0.036260452 0.17408064
-0.20893705 0.26418418 0.41447115 0.006636209 0.36459404 0.10937777 0.306565 -0.12631547
0.48554042 0.43745667 0.41631728 -0.048865627 -0.23903707 0.26757032 -0.030117035 0.4000789
-0.14087299 0.20320301 0.3466758 0.27244282 0.1533326 -0.005123645 -0.086482905 0.15593944
0.350284 0.020540228 0.22384362 0.27389634 0.3665081 0.48883465 0.05872175 0.029230269
-0.26364213 0.2130506 0.4194626 0.42883876 0.21699995 0.37537134 0.36843085 0.44413492
-0.20275721 -0.061473753 -0.04749491 0.4849263 0.13563043 0.31396896 -0.22615673 -0.24393363
-0.033356033 -0.21538223 0.17070396 0.29727453 -0.13955233 0.2590941 -0.1191135 -0.012555838
-0.12639025 -0.029402306 -0.222333 0.06320496 -0.15155609 0.16440651 0.14789085 0.20446374
00000000: ca3a 073f e2f5 9fbd 1da5 d93e 48d4 133e
00000010: 90e8 813e 33b9 89bd 02e7 d03e 714e 833e
00000020: 6d8a 683e dd99 7bbe e648 5abe 12cd 93be
00000030: 130d 983e 0e47 45bb 52a6 343e 1f0f cc3e
00000040: c9e5 be3e f7b3 c13e ee62 36bd 7899 5e3e
00000050: 6cc3 863e c90c d03e 65c5 6b3e d7f3 5d3e
00000060: a8d7 eb3d 9da1 26be 744c 6abe 4f09 59be
00000070: 8fc8 a83e 6c2e ab3e 978d c63e 7e24 aabd
00000080: 1a5c 9dbb c61c 5c3e 0ece 193e 8f42 e93d
00000090: bf4c 13be c8aa e2bd 0416 be3d ccb5 18be
000000a0: 6afd ab3e b7a8 6a3e c78d 8f3e 7273 ec3e
000000b0: 7959 a13e f701 ec3e 81ea 9d3e 092c d7bd
000000c0: 697b 82be 5a6d 833d 572a b4be 47c2 893e
000000d0: 3183 613e 03d0 e73d d444 84bd 99cf 13be
000000e0: 9703 f5bc 023a c53c fc9b 89be eefd 11be
000000f0: f7fc a5bd 48f0 433e d785 14bd 3242 323e
00000100: 98f3 55be 2643 873e 9035 d43e 8e74 d93b
00000110: 12ac ba3e 7401 e03d 16f6 9c3e d858 01be
00000120: c198 f83e 52fa df3e 8a27 d53e 5327 48bd
00000130: 22c6 74be fafe 883e 00b8 f6bc 24d7 cc3e
00000140: 0241 10be 7314 503e 7e7f b13e a07d 8b3e
00000150: 3903 1d3e 40e4 a7bb f31d b1bd 97ae 1f3e
00000160: 6d58 b33e fb43 a83c 4337 653e 243c 8c3e
00000170: f3a6 bb3e 8948 fa3e 3886 703d 5174 ef3c
00000180: 1afc 86be f029 5a3e cdc3 d63e c190 db3e
00000190: 3c35 5e3e ac30 c03e f8a2 bc3e a765 e33e
000001a0: 969f 4fbe e7cb 7bbd 068a 42bd 4348 f83e
000001b0: b4e2 0a3e 8ac0 a03e a195 67be bdc9 79be
000001c0: 56a0 08bd 298d 5cbe 05cd 2e3e 5e34 983e
000001d0: cee6 0ebe fba7 843e c7f1 f3bd 00b7 4dbc
000001e0: 726c 01be 1bdd f0bc 43ab 63be 9a71 813d
000001f0: 8531 1bbe 2e5a 283e b370 173e f15e 513e

fc4.weight f4 [128, 128]
-0.02895787 0.17504026 -0.07750726 0.038760994 -0.2954751 0.11545029 -0.26793337 0.006699679
-0.14901236 -0.8546994 0.40692517 -0.024892798 -0.08199491 -0.07878832 0.1515101 -0.06656333
-0.21874493 0.04624747 -0.0714981 -0.04762433 0.075661205 0.0027140274 -0.03980454 -0.08511774
-0.1304124 -0.8240914 0.40539825 -0.14453155 0.09490686 -0.037135705 0.094487384 0.18419164
0.24900383 0.19619364 -0.39985022 -0.33042446 0.0030235893 0.20330761 -0.41041157 -0.02033294
0.063743144 0.14908023 0.07779323 0.0032708454 -0.075693965 0.022408355 -0.10721705 -0.009642706
-0.33698753 0.02626094 -2.4376318 0.16940512 -0.004207454 -0.14415725 -0.16334933 0.17968197
-0.06290121 -0.07190999 0.3909459 0.30390647 0.3823339 0.06606213 -0.018563114 0.20642991
-0.7057688 -0.2095627 -0.08104812 -0.45686924 0.07693875 -0.16611697 -0.046229985 0.07039482
-0.016868059 -6.94732e-05 -0.008413096 0.0956942 0.55357933 -0.09815921 0.19650859 0.015149523
-0.2662608 -0.018355861 -0.18010192 -0.07688961 0.22568163 -0.02685628 0.24142359 -0.0047219936
0.10595175 0.19411287 -0.16098393 -0.41266093 0.020953096 -0.09304847 -0.26773328 0.11492861
-0.016349835 0.17856619 0.11228694 0.02253336 -0.09796919 -0.09316893 0.05997792 0.0032804108
0.029322691 -0.3105538 0.3056597 0.045323346 0.07899945 -0.085451916 -0.014785921 -0.07714239
-2.4470901 -0.033260755 -0.08816672 0.008196203 0.020137807 0.062129546 0.081092335 -0.23828638
0.27056292 -0.6113398 0.31333646 0.054549642 0.32425383 0.15648343 -0.14168417 -0.08875766
-0.051022228 0.15089518 -0.06217609 0.0562494 0.02089334 -0.19399457 0.250839 0.08961518
-0.14330831 0.07183395 0.09709081 -0.12884271 -0.057929132 0.06817047 -0.05359803 -0.13285193
-0.063147604 0.037013963 -0.087349266 -0.058722287 -0.09375573 -0.01107621 -0.022921653 0.10328912
0.02369583 -0.027028147 0.07047211 -0.098871365 -0.34641019 0.002364198 0.061679255 -0.036287386
0.28160626 -0.4212143 -0.18892813 -0.063632004 0.17032361 -0.18498753 -0.122967444 0.19001493
0.16950674 -0.18086442 -0.16573179 0.12697843 0.039057873 0.13283312 -0.15077908 0.061719682
-0.11725906 -0.0063916743 0.06904177 -0.00814743 -0.026045378 -0.6770158 -0.56582177 0.2551559
0.18112321 0.017267074 0.112143226 0.38901854 -0.59741557 -0.13248694 0.011645071 -0.015501344
0.10653126 -0.25552693 0.119203195 0.11932978 -0.056978676 0.07375798 -0.10845043 -0.15337002
0.020387344 -0.05715228 0.14806491 0.25663874 0.5106148 -0.29752022 -0.056814637 -0.19859068
0.11908232 -0.007873001 0.07299171 0.06625836 0.08524967 0.041171003 0.20249608 -0.26274025
-0.12754604 0.25575614 0.10426089 0.041628994 -0.056930024 0.14753643 -0.035401512 -0.098003715
-0.1952424 0.16540647 -0.05850813 0.038928743 0.061196115 0.0250198 0.015073931 0.0048867525
0.05792384 0.045645338 0.24449188 0.06711108 0.047920056 -0.1672194 -0.18344907 0.40889654
-2.0248737 0.35085133 -0.14565618 -0.25097075 0.0027124982 0.015927752 -0.042927228 -0.054674163
0.22671689 0.10805683 -2.0029876 0.13954884 0.12691088 -0.33603913 -0.037687045 0.0071562114
00000000: 0e39 edbc c13d 333e 20bc 9ebd d9c3 1e3d
00000010: 8348 97be 3471 ec3d 902e 89be fb88 db3b
00000020: b296 18be 94cd 5abf 7f58 d03e fbeb cbbc
00000030: f3ec a7bd c55b a1bd 7725 1b3e 5b52 88bd
00000040: acfe 5fbe fd6d 3d3d 996d 92bd bb11 43bd
00000050: 43f4 9a3d d3dd 313b 160a 23bd 3652 aebd
00000060: d48a 05be a7f7 52bf 5c90 cf3e 1400 14be
00000070: 875e c23d 9c1b 18bd 9a82 c13d bc9c 3c3e
00000080: dcfa 7e3e fce6 483e 2bb9 ccbe 652d a9be
00000090: 6927 463b df2f 503e 7721 d2be 4491 a6bc
000000a0: c48b 823d 7da8 183e 0f52 9f3d ae5b 563b
000000b0: 7005 9bbd ba91 b73c 9d94 dbbd 71fc 1dbc
000000c0: a189 acbe 2f21 d73c 2902 1cc0 8978 2d3e
000000d0: afde 89bb f59d 13be 0c45 27be 8dfe 373e
000000e0: 59d2 80bd 8b45 93bd 102a c83e a199 9b3e
000000f0: 45c1 c33e 954b 873d ac11 98bc 5d62 533e
00000100: 44ad 34bf 9b97 56be 8ffc a5bd c4ea e9be
00000110: 1092 9d3d 911a 2abe a75b 3dbd 292b 903d
00000120: e22e 8abc 24b2 91b8 15d7 09bc 52fb c33d
00000130: 60b7 0d3f b207 c9bd 8c39 493e b435 783c
00000140: 5653 88be 085f 96bc a36c 38be 4d78 9dbd
00000150: 1619 673e b401 dcbc bf37 773e f4ba 9abb
00000160: 3bfd d83d 86c5 463e f9d8 24be 4b48 d3be
00000170: d4a5 ab3c 3290 bebd 5614 89be b15f eb3d
00000180: 17f0 85bc 0eda 363e b2f6 e53d e297 b83c
00000190: 12a4 c8bd 5acf bebd 68ab 753d 29fc 563b
000001a0: 2436 f03c e800 9fbe 6e7f 9c3e f9a4 393d
000001b0: 77ca a13d 6a01 afbd a640 72bc d4fc 9dbd
000001c0: 209d 1cc0 6e3c 08bd c190 b4bd 5e49 063c
000001d0: 0bf8 a43c 8d7b 7e3d bd13 a63d 5801 74be
000001e0: 3987 8a3e c480 1cbf a36d a03e 726f 5f3d
000001f0: 9904 a63e 313d 203e a815 11be 93c6 b5bd
00000200: affc 50bd 4484 1a3e 5bac 7ebd c565 663d
00000210: 8328 ab3c 83a6 46be f86d 803e 2a88 b73d
00000220: 6abf 12be ae1d 933d 8cd7 c63d 58ef 03be
00000230: 1947 6dbd f69c 8b3d 9c89 5bbd 560a 08be
00000240: 8853 81bd f49b 173d 2ce4 b2bd c886 70bd
00000250: 0103 c0bd fe78 35bc 31c6 bbbc 3f89 d33d
00000260: c21d c23c 226a ddbc ae53 903d 127d cabd
00000270: ad5c b1be a9f0 1a3b 63a3 7c3d 15a2 14bd
00000280: b22e 903e 67a9 d7be 6076 41be 7f51 82bd
00000290: 5069 2e3e 5f6d 3dbe 5bd6 fbbd 4693 423e
000002a0: 2d93 2d3e 8634 39be 98b5 29be a206 023e
000002b0: 26fb 1f3d 6805 083e d565 1abe c7cd 7c3d
000002c0: 8525 f0bd 4071 d1bb c665 8d3d cc7c 05bc
000002d0: 1e5d d5bc e850 2dbf b2d9 10bf cba3 823e
000002e0: 5d78 393e ae73 8d3c 59ab e53d 702d c73e
000002f0: 3af0 18bf a8aa 07be f8ca 3e3c 59f9 7dbc
00000300: 102d da3d 6dd4 82be ce20 f43d 2c63 f43d
00000310: 7962 69bd 6c0e 973d 421b debd 080d 1dbe
00000320: 5c03 a73c 8218 6abd 549e 173e 2766 833e
00000330: a7b7 023f 9254 98be 77b6 68bd 5b5b 4bbe
00000340: 6ee1 f33d c2fd 00bc ad7c 953d 77b2 873d
00000350: 6197 ae3d eda2 283d 225b 4f3e e485 86be
00000360: 6e9b 02be 78f2 823e bc86 d53d 2a83 2a3d
00000370: 752f 69bd ca13 173e 2d01 11bd 2cb6 c8bd
00000380: a0ed 47be 5060 293e 39a6 6fbd bf73 1f3d
00000390: c7a8 7a3d 53f6 cc3c a6f8 763c 0d21 a03b
000003a0: 8c41 6d3d 9bf6 3a3d 145c 7a3e 8971 893d
000003b0: d247 443d 903b 2bbe 13da 3bbe e35a d13e
000003c0: 8897 01c0 c9a2 b33e e526 15be 3d7f 80be
000003d0: 2bc4 313b eb7a 823c 76d4 2fbd 04f2 5fbd
000003e0: 7928 683e e64c dd3d f330 00c0 e4e5 0e3e
000003f0: edf4 013e 520d acbe bb5d 1abd a77e ea3b

fc4.bias f4 [128]
0.006781626 -0.016631685 0.26436284 -0.028426087 0.1822152 0.12793623 -0.1059899 0.19940874
-0.059030145 -0.07638471 0.013710532 0.12937336 -0.10372173 0.023831556 -0.034310367 0.23696205
0.12479607 -0.12156042 0.21695167 0.27526793 0.05988324 -0.10220609 0.21701875 0.17390384
-0.03628108 0.06042039 0.18890426 0.11590012 -0.080006585 -0.05001101 0.072922744 0.15280056
0.3364167 0.09399611 0.23794524 0.20261726 0.26019266 0.24338366 0.11537186 -0.015751287
-0.055495575 0.25410503 0.2198095 0.0722576 0.08652876 0.15724619 0.11307268 0.024940755
0.012831471 0.2154197 0.2077156 -0.03737986 -0.023998218 -0.027731918 0.1986171 0.08065439
0.15063402 0.26201215 0.088980265 0.061470266 0.076929085 -0.086084925 0.27606046 0.031548336
0.3133983 -0.1212008 0.042149756 0.17129418 0.26671845 0.2571381 0.09075707 0.101254806
0.19785899 0.19179001 0.06705342 0.0026204502 0.14320868 0.104649894 -0.07928599 0.041344706
0.11000982 0.17192249 -0.07993915 0.061422687 0.19914465 0.24426547 -0.10453834 0.24358046
0.2680305 0.08881854 -0.00563304 -0.037255965 0.024684962 0.026147643 0.16626151 -0.05885474
0.09325914 0.11895968 0.15898506 0.10800983 0.2178703 -0.022965379 -0.11515826 -0.0061160233
0.17707886 0.06384636 0.17880526 -0.05098495 0.12649655 0.009021841 -0.04745795 0.13902828
0.24291734 0.16746368 0.12602082 0.054056086 0.1857104 0.24888366 0.24230689 0.2085638
-0.027106812 0.27910137 0.15631357 0.010381112 -0.06433021 -0.091187015 0.12107956 -0.12105102
00000000: 6738 de3b 2c3f 88bc 915a 873e d3dd e8bc
00000010: 9f96 3a3e b701 033e 3c11 d9bd ce31 4c3e
00000020: 98c9 71bd 966f 9cbd 24a2 603c 737a 043e
00000030: 0f6c d4bd 653a c33c 0789 0cbd 2ea6 723e
00000040: 1595 ff3d abf4 f8bd 9428 5e3e ebef 8c3e
00000050: 2148 753d 6d51 d1bd 2a3a 5e3e d913 323e
00000060: 789b 14bd 5f7b 773d 1e70 413e 0b5d ed3d
00000070: 7eda a3bd 58d8 4cbd 8558 953d c077 1c3e
00000080: cf3e ac3e 0881 c03d eba7 733e e67a 4f3e
00000090: f937 853e 9139 793e 1548 ec3d d808 81bc
000000a0: 544f 63bd 0e1a 823e be15 613e cbfb 933d
000000b0: fe35 b13d 2505 213e a692 e73d 8e50 cc3c
000000c0: 173b 523c fb96 5c3e 66b3 543e a01b 19bd
000000d0: e997 c4bc 0c2e e3bc 4862 4b3e 212e a53d
000000e0: ce3f 1a3e 7526 863e 493b b63d 3fc8 7b3d
000000f0: ff8c 9d3d 4b4d b0bd cc57 8d3e d438 013d
00000100: be75 a03e 2038 f8bd 39a5 2c3d be67 2f3e
00000110: 528f 883e 9ba7 833e d8de b93d ae5e cf3d
00000120: 8c9b 4a3e 9a64 443e 4e53 893d dcbb 2b3b
00000130: 4ca5 123e af52 d63d b160 a2bd 1159 293d
00000140: d44c e13d 730c 303e 23b7 a3bd 5b96 7b3d
00000150: 93ec 4b3e ba20 7a3e 3218 d6bd 286d 793e
00000160: 4b3b 893e 7fe6 b53d 5d95 b8bb b699 18bd
00000170: 1e38 ca3c 9533 d63c 7540 2a3e ab11 71bd
00000180: a6fe be3d 22a1 f33d fbcc 223e 4234 dd3d
00000190: 6419 5f3e e421 bcbc 18d8 ebbd ec68 c8bb
000001a0: 2954 353e e1c1 823d ba18 373e 98d5 50bd
000001b0: 5088 013e 58d0 133c 4463 42bd 6e5d 0e3e
000001c0: 53bf 783e 997b 2b3e 9a0b 013e ea69 5d3d
000001d0: de2a 3e3e 5cdb 7e3e 4c1f 783e c091 553e
000001e0: 1b0f debc 60e6 8e3e aa10 203e 8a15 2a3c
000001f0: 8fbf 83bd 42c0 babd 8ff8 f73d 99e9 f7bd

q2.weight f4 [1, 128]
-0.9074005 -0.64252824 0.26857746 -0.79042614 0.1836416 0.18518639 -0.44740033 0.29809976
-0.94180673 -0.5417096 -0.7425829 0.19883436 -0.2611134 -0.9321449 -1.220223 0.24041557
0.24786538 -0.30536374 0.26895428 0.24597867 -1.050476 -0.718757 0.21715519 0.23893584
-0.86999434 -0.83356595 0.21676424 0.28034833 -0.77091885 -0.0003402377 -0.47330752 0.21921033
0.2729082 -1.267219 0.22560816 0.2623538 0.21954432 0.24326244 0.23100364 -0.44919518
-0.92497486 0.19984941 0.25165087 -0.40670922 -0.7397994 0.20767143 -0.5929412 -0.057410173
-0.57221425 0.2384551 0.24626565 -1.0211439 -0.7376897 -0.3122882 0.27998546 -1.2138834
0.21056695 0.19410527 0.27506733 -0.87417567 -0.9263852 -0.5834961 0.30734947 -0.44784304
0.27113992 -0.6677123 -0.5006544 0.24264999 0.23655678 0.19770764 -1.2835886 0.27297217
0.22034189 0.20437585 -0.8288787 -0.67043084 0.299352 0.24424832 -0.17864622 -0.72927976
0.258566 0.21935941 0.015757307 -0.02385908 0.23242426 0.21328688 -0.5575874 0.21809667
0.24528846 -0.9194299 -1.2713453 -0.55044794 -0.0445982 -0.6745797 0.23307973 -0.9458902
-0.8810934 0.2817901 0.21290252 0.22387941 0.21209083 -0.77497226 -0.25747567 -1.1336342
0.19552317 -0.8801011 0.26606512 -0.017531866 0.2524071 -1.2605541 -0.9681458 0.23314333
0.21650103 0.40538085 0.3607042 0.2602001 0.20974748 0.26515284 0.16847551 0.22281264
-0.73329836 0.26541457 0.19924627 -0.0018359198 -0.42595544 -0.7194313 0.2500107 -0.44988567
00000000: 664b 68bf bb7c 24bf fc82 893e 5e59 4abf
00000010: 8b0c 3c3e 80a1 3d3e a811 e5be 88a0 983e
00000020: 3f1a 71bf 7bad 0abf ea19 3ebf 3c9b 4b3e
00000030: a8b0 85be 0ca1 6ebf 4430 9cbf 802f 763e
00000040: 6cd0 7d3e a358 9cbe 60b4 893e d5e1 7b3e
00000050: ff75 86bf 7500 38bf ee5d 5e3e 99ab 743e
00000060: f3b7 5ebf 9464 55bf 72f7 5d3e d189 8f3e
00000070: f05a 45bf ee61 b2b9 5d55 f2be ac78 603e
00000080: a0ba 8b3e 3b34 a2bf d305 673e 3d53 863e
00000090: 3ad0 603e ca19 793e 388c 6c3e e9fc e5be
000000a0: 27cb 6cbf 53a5 4c3e 62d8 803e 313c d0be
000000b0: 7e63 3dbf d2a7 543e ffca 17bf ee26 6bbd
000000c0: a27c 12bf 932d 743e 102d 7c3e d8b4 82bf
000000d0: 3bd9 3cbf 3de4 9fbe 415a 8f3e 8860 9bbf
000000e0: dd9e 573e 88c3 463e a0d5 8c3e fac9 5fbf
000000f0: 9527 6dbf 0060 15bf e95c 9d3e af4b e5be
00000100: dad2 8a3e 31ef 2abf e32a 00bf 3d79 783e
00000110: f13b 723e df73 4a3e a24c a4bf 02c3 8b3e
00000120: 4ea1 613e e747 513e 6531 54bf 5ba1 2bbf
00000130: aa44 993e 3b1c 7a3e 09ef 36be 14b2 3abf
00000140: c362 843e c19f 603e 7815 813c 1e74 c3bc
00000150: a000 6e3e e067 5a3e 0cbe 0ebf bc54 5f3e
00000160: e62c 7b3e c25f 6bbf 71bb a2bf 28ea 0cbf
00000170: 9aac 36bd 41b1 2cbf 74ac 6e3e dc25 72bf
00000180: 568f 61bf cb46 903e 1e03 5a3e a540 653e
00000190: 572e 593e 9564 46bf dad3 83be ed1a 91bf
000001a0: 3a37 483e 4e4e 61bf b039 883e fd9e 8fbc
000001b0: 813b 813e d659 a1bf 67d8 77bf 20bd 6e3e
000001c0: 72b2 5d3e 148e cf3e 39ae b83e f338 853e
000001d0: 0bc8 563e 1dc2 873e d884 2c3e ff28 643e
000001e0: 71b9 3bbf 6be4 873e 3707 4c3e 3fa3 f0ba
000001f0: d516 dabe a62c 38bf 6701 803e 6a57 e6be
