resource/multi_run_experiment_20250319_111011/run_2/sac_critic_40000.pth (torch, 155391 bytes, 10 tensors)

fc1.weight f4 [128, 17]
-0.0044257496 -0.029414373 0.043732565 -0.24415477 -0.13337712 -0.22179012 0.11394435 -0.26281187
0.077211715 -0.103234194 -0.097242594 0.10669509 -0.019363532 0.20874396 0.07676869 -0.08649134
-0.21113369 0.13171914 0.1921956 -0.21352658 0.019728405 0.15412353 0.31160378 0.2521869
-0.014412516 -0.2401995 0.23169611 0.019495256 0.044284124 -0.28515148 -0.19312824 0.35007647
0.11836728 -0.23306373 0.24499653 0.04409455 -0.16556033 -0.20639569 -0.06356302 -0.17433155
0.05650672 -0.13357039 -0.020357465 -0.1464358 0.1418024 -0.23978636 0.13501284 0.0027436274
0.073935606 -0.22168219 0.20147662 0.23942824 -0.042036448 0.21556269 -0.16837637 0.12046
-0.005374941 -0.15986569 0.1644151 -0.13549176 0.029797506 0.1358385 0.080084115 0.15618515
0.2927131 0.04668565 -0.060506787 -0.18144707 -0.21280825 0.14698726 -0.042319156 0.026923176
0.104201965 0.17191394 -0.25996342 -0.12239715 0.047754526 -0.0011735426 0.19393095 0.061321322
0.17733261 0.1012441 0.064890005 0.28903663 0.18241322 -0.008630952 0.2348231 -0.5254549
0.02495102 -0.09406052 0.17668933 -0.20744595 0.26360622 -0.048817497 0.09437778 0.17816637
0.2523823 0.42623353 0.15567185 0.32812035 0.43175521 -0.5464646 0.018044814 0.13474907
0.51091 0.15145668 0.019677514 -0.54566354 -0.22800033 -0.06316018 0.22288218 -0.30772412
0.32382837 -0.0076653017 0.34206662 -0.36891025 -0.21549131 0.11469669 -0.19822696 -0.03741589
-0.17738892 0.08536367 0.077296175 0.00748835 0.2864477 -0.00876919 0.2495919 0.2490955
0.27432856 0.04106401 0.069408745 -0.0664014 0.1801682 -0.35850778 -0.1091474 -0.15447001
-0.59070456 0.116881415 0.22214285 -0.16663413 -0.64053476 0.12594756 0.061540827 0.06699686
0.20665571 -0.024748296 -0.07798041 -0.18396324 0.12994102 -0.0016575485 -0.28078333 -0.51730645
-0.22466628 0.09988917 -0.15168628 0.07952133 0.10057765 0.18804803 -0.009760161 -0.07779613
-0.1202662 0.15031888 0.16900681 0.07504744 0.19654074 -0.08107082 0.10325411 -0.046034023
-0.059938848 -0.071741946 -0.16799748 0.13771068 0.58016694 -0.052141383 -0.42289123 -0.24538298
-0.12144102 0.040291194 -0.15056138 -0.16514552 0.0060382383 -0.07221838 -0.26054773 -0.09559648
0.34208 -0.24173805 -0.05272814 -0.03219829 -0.10196786 0.111644745 0.11289777 -0.35825464
-0.3248961 0.08277079 -0.060742196 -0.20197111 0.19932887 0.30852637 -0.04917799 -0.0677406
0.03840344 -0.09044695 -0.1940993 0.30504012 0.12927471 -0.13848275 -0.10170058 -0.23567751
0.13111632 0.2606949 -0.17214018 0.16922612 0.00943538 0.10461135 0.22444774 0.19316408
0.12149425 0.2404286 -0.23534837 0.1794378 -0.1670842 -0.056598034 -0.07081542 -0.040564094
-0.31669852 0.11360177 -0.015532788 -0.10411864 -0.20165095 0.07106261 0.021646501 0.08012181
0.079585075 -0.1732042 0.12478114 -0.040806267 -0.040671702 0.14417823 0.27742523 0.15719216
0.19570641 0.27804226 0.26369452 -0.18681486 0.14552082 0.13488202 0.057211943 -0.21031849
0.023793798 0.11276883 -0.26916724 -0.22148386 0.095530875 0.14329506 -0.3116509 -0.15797916
00000000: e105 91bb 69f6 f0bc eb20 333d b503 7abe
00000010: 0394 08be f31c 63be a85b e93d 478f 86be
00000020: 2d21 9e3d 736c d3bd 2027 c7bd f582 da3d
00000030: 45a0 9ebc fac0 553e e738 9d3d 5f22 b1bd
00000040: 6e33 58be 62e1 063e ecce 443e b6a6 5abe
00000050: 779d a13c 8fd2 1d3e 888a 9f3e a41e 813e
00000060: 7922 6cbc dcf6 75be bf41 6d3e 84b4 9f3c
00000070: 4563 353d 60ff 91be 69c3 45be 393d b33e
00000080: 8b6a f23d 42a8 6ebe 5fe0 7a3e 7d9c 343d
00000090: a688 29be 6459 53be 542d 82bd f883 32be
000000a0: 9773 673d adc6 08be b3c4 a6bc 44f3 15be
000000b0: a634 113e 8e8a 75be ce40 0a3e 6ece 333b
000000c0: 8d6b 973d a800 63be e34f 4e3e ad2c 753e
000000d0: 692e 2cbd 77bc 5c3e db6a 2cbe bcb3 f63d
000000e0: 4620 b0bb d5b3 23be 6f5c 283e 5abe 0abe
000000f0: e619 f43c 3f19 0b3e 2403 a43d 00ef 1f3e
00000100: 7ede 953e 7439 3f3d f7d5 77bd 43cd 39be
00000110: 68ea 59be d483 163e da56 2dbd fe8d dc3c
00000120: d767 d53d 350a 303e ed19 85be 5bab fabd
00000130: 409a 433d 8ed1 99ba d695 463e 112c 7b3d
00000140: ae96 353e 1159 cf3d 0de5 843d 9cfc 933e
00000150: 88ca 3a3e d668 0dbc 7775 703e 3684 06bf
00000160: 1566 cc3c cda2 c0bd 0cee 343e b66c 54be
00000170: 65f7 863e dbf4 47bd 2349 c13d 3f71 363e
00000180: 4138 813e 483b da3e 7168 1f3e 64ff a73e
00000190: 050f dd3e 1be5 0bbf b8d2 933c a9fb 093e
000001a0: ffca 023f 7617 1b3e bd32 a13c 9bb0 0bbf
000001b0: eb78 69be 205a 81bd 3a3b 643e 048e 9dbe
000001c0: d5cc a53e 362d fbbb 5b23 af3e cee1 bcbe
000001d0: c1a9 5cbe 19e6 ea3d 02fc 4abe 6741 19bd
000001e0: 71a5 35be 26d3 ae3d 754d 9e3d d560 f53b
000001f0: 46a9 923e a6ac 0fbc 0595 7f3e e412 7f3e
00000200: cb74 8c3e bc32 283d 2c26 8e3d 75fd 87bd
00000210: 037e 383e 558e b7be ac88 dfbd 632d 1ebe
00000220: 6a38 17bf 865f ef3d 6a79 633e 23a2 2abe
00000230: 16fa 23bf 66f8 003e 3c12 7c3d a635 893d
00000240: 8e9d 533e f0bc cabc 31b4 9fbd dc60 3cbe
00000250: 420f 053e 1942 d9ba d5c2 8fbe 326e 04bf
00000260: eb0e 66be b192 cc3d a653 1bbe 14dc a23d
00000270: a8fb cd3d aa8f 403e 15e9 1fbc 9453 9fbd
00000280: 204e f6bd 31ed 193e 1f10 2d3e 79b2 993d
00000290: fa41 493e 7508 a6bd e476 d33d 2c8e 3cbd
000002a0: 7082 75bd 71ed 92bd 8807 2cbe 0704 0d3e
000002b0: d285 143f 3492 55bd 3385 d8be ad45 7bbe
000002c0: 12b6 f8bd 6108 253d c32c 1abe e81b 29be
000002d0: 6adc c53b 3be7 93bd 8366 85be 16c8 c3bd
000002e0: 1c25 af3e 2e8a 77be 76f9 57bd 5be2 03bd
000002f0: 86d4 d0bd 00a6 e43d f236 e73d 276d b7be
00000300: c858 a6be bb83 a93d cfcc 78bd 84d1 4ebe
00000310: de1c 4c3e 2bf7 9d3e dc6e 49bd 95bb 8abd
00000320: ed4c 1d3d 403c b9bd f8c1 46be 382e 9c3e
00000330: 9760 043e 6cce 0dbe 6548 d0bd 7255 71be
00000340: 5b43 063e cd79 853e 8445 30be 9d49 2d3e
00000350: da96 1a3c 7a3e d63d a1d5 653e cecc 453e
00000360: fad1 f83d ea32 763e 2aff 70be 8bbe 373e
00000370: 1f18 2bbe 57d3 67bd ad07 91bd 8926 26bd
00000380: 4f26 a2be 0ba8 e83d 3c7d 7ebc 273c d5bd
00000390: 967d 4ebe 4689 913d 0154 b13c e716 a43d
000003a0: 80fd a23d 715c 31be 418d ff3d 7924 27bd
000003b0: 5f97 26bd 75a3 133e ae0a 8e3e fbf6 203e
000003c0: 4367 483e 8e5b 8e3e f802 873e 654c 3fbe
000003d0: 6903 153e 831e 0a3e 1257 6a3d bb5d 57be
000003e0: 36eb c23c 58f3 e63d 4ad0 89be aacc 62be
000003f0: b1a5 c33d f1bb 123e b590 9fbe 4ac5 21be

fc1.bias f4 [128]
0.49788773 -0.030231731 0.45619807 0.3180609 0.22542092 0.035690147 0.0014528963 0.17085652
-0.14553316 0.41265565 -0.10608385 0.31026542 0.30050945 0.41707686 0.27635977 0.10435252
0.25569224 0.3666515 0.16345161 0.02613883 -0.28550103 0.31738248 0.43682522 0.37727103
-0.21834657 0.3339739 0.05510546 0.1262394 0.29376262 -0.16102844 0.44570032 -0.15000124
-0.06326421 0.11852933 0.28659803 0.026725054 0.30273494 -0.09573187 0.19708307 0.36816317
0.044950385 0.31109458 -0.12865439 0.47284228 0.26929048 0.16263667 0.40407595 -0.14733602
0.09027828 -0.27884933 -0.08317366 0.2970117 0.07776049 0.19000289 0.19477774 -0.05066323
0.2245109 0.17369388 -0.00060471124 0.16067211 0.25152543 0.34298962 -0.12756218 0.4142327
-0.09733971 0.15557931 -0.14077878 0.3708925 -0.119885355 0.34966636 0.06473518 0.16951327
0.19221269 0.06763657 0.39051342 0.23901072 -0.18805678 -0.18145382 -0.17942597 0.14466472
-0.16648331 0.36037552 0.05107349 0.044957995 -0.0658866 0.13886508 0.39193287 -0.086524926
-0.108632006 -0.13564342 0.07288311 0.03937262 0.15575816 0.25866958 -0.19607712 -0.014672277
0.011685163 -0.07214909 0.20207 0.054448545 0.13134035 0.490129 0.094379425 0.08523953
0.23084716 0.21128784 0.09735278 -0.07621321 -0.11834394 0.38204876 0.33061305 0.42781535
0.37022468 0.2817952 0.14035213 0.35957 -0.1467298 0.42927104 0.32006162 0.44161347
0.10266419 0.27688646 0.46907973 0.1213132 -0.15267715 -0.19604674 0.17015027 -0.2619728
00000000: 24eb fe3e 89a8 f7bc cb92 e93e e1d8 a23e
00000010: bed4 663e d52f 123d 1c6f be3a 03f5 2e3e
00000020: a506 15be 9a47 d33e 7d42 d9bd 1cdb 9e3e
00000030: 60dc 993e 198b d53e 077f 8d3e c6b6 d53d
00000040: 18ea 823e bfb9 bb3e dc5f 273e 1a21 d63c
00000050: 312d 92be f57f a23e 8ea7 df3e ab29 c13e
00000060: 3e96 5fbe a1fe aa3e 43b6 613d e744 013e
00000070: 0e68 963e a4e4 24be d532 e43e ed99 19be
00000080: ab90 81bd 81bf f23d fabc 923e 80ee da3c
00000090: 1300 9b3e 120f c4bd 25d0 493e e27f bc3e
000000a0: e51d 383d ca47 9f3e fabd 03be 6218 f23e
000000b0: 71e0 893e 3a8a 263e 0be3 ce3e 41df 16be
000000c0: d2e3 b83d 57c5 8ebe f456 aabd eb11 983e
000000d0: e440 9f3d 1e90 423e d173 473e 3f84 4fbd
000000e0: 2fe6 653e cfdc 313e 7c85 1eba 3b87 243e
000000f0: f1c7 803e 569c af3e a99f 02be 4f16 d43e
00000100: 0b5a c7bd 2f50 1f3e 5028 10be 9fe5 bd3e
00000110: 7486 f5bd 7807 b33e e193 843d e394 2d3e
00000120: 67d3 443e 0b85 8a3d 60f1 c73e 3abf 743e
00000130: f591 40be 08cf 39be 71bb 37be fd22 143e
00000140: 9a7a 2abe 2483 b83e 7032 513d e025 383d
00000150: 8eef 86bd a632 0e3e 6dab c83e fb33 b1bd
00000160: 757a debd 1ce6 0abe bd43 953d 2f45 213d
00000170: 117f 1f3e 5770 843e 71c8 48be fd63 70bc
00000180: 2073 3f3c e7c2 93bd 70eb 4e3e 7005 5f3d
00000190: 167e 063e 30f2 fa3e 004a c13d 1092 ae3d
000001a0: 3363 6c3e d75b 583e e560 c73d ac15 9cbd
000001b0: 4f5e f2bd e59b c33e 1d46 a93e 9d0a db3e
000001c0: 178e bd3e 7647 903e 78b8 0f3e 8f19 b83e
000001d0: 5640 16be 6ac9 db3e 1edf a33e 291b e23e
000001e0: 9a41 d23d 10c4 8d3e 382b f03e 0e73 f83d
000001f0: 6657 1cbe 7ac0 48be df3b 2e3e 4d21 86be

fc2.weight f4 [128, 128]
-0.08329402 -0.09771958 0.10571268 -0.15257557 -0.050153457 0.032967888 0.046744734 -0.10071551
0.2573043 -0.036468096 0.22517078 -0.14864911 0.05589174 0.008009837 0.087509796 -0.012176015
-0.10449679 0.103849895 -0.009559174 0.10418066 0.24078575 0.075310946 -0.014209584 -0.012162299
0.21876262 0.041492734 0.25524202 0.065915376 -0.1038794 -0.121600285 -0.13920452 0.32916465
0.1675282 -0.08612268 -0.08763082 -0.074900895 0.11365175 0.21204919 -0.018135855 -0.029173877
-0.16330622 -7.2696304e-05 -0.021333575 0.11162311 -0.038116433 0.24602285 -0.05180088 0.21993163
0.1901205 -0.0012651726 -0.18713424 0.09453446 -0.08937707 -0.012992721 -0.13812359 0.10744912
-0.08846798 0.13935615 0.24695034 0.04858326 -0.012921319 0.082229786 -0.046149638 0.0121943755
0.2487748 0.023001945 0.277834 -0.11465794 -0.17322941 -0.013057329 0.15002015 -0.03142771
-0.09715678 0.042469077 -0.06798688 0.043119125 0.09963289 0.40758732 0.3606213 0.09211418
0.02398203 -0.0432772 0.031646952 -0.30097455 -0.102108344 0.13155212 -0.013114183 0.11384351
-0.6738002 0.2884731 -0.10423006 -0.0525376 0.015866272 -0.056894507 0.13332799 -0.5189874
-0.0034229842 0.28449067 -0.17873947 -0.16140755 -0.10527324 0.02752198 -0.25807005 0.013248646
0.016011264 0.07033574 -0.11029271 0.0016136009 -0.28602946 0.06149493 -0.033178706 0.061178263
-0.04387267 -0.014472338 -0.041512143 -0.0066046193 0.1116021 -0.03400275 -0.019109122 0.09334003
-0.23287793 -0.044245858 -0.1290295 -0.13931128 0.03637037 -0.14677867 0.09959136 0.20850153
0.21056418 -0.00025692154 -0.10005815 0.054932043 -0.058648895 0.13851477 -0.018688036 -0.0009929563
0.080864325 0.010767337 0.17633758 -0.51779026 0.018152654 -0.16494893 0.018512458 0.10074106
-0.1393808 0.008470049 -0.042251542 -0.22189385 0.20217812 0.06779159 -0.17033853 -0.022897774
0.24140105 0.14421764 -0.4282648 0.11443641 0.027041446 -0.100822665 0.006065085 0.18795915
0.28612906 0.018614115 -0.0051526856 0.11914606 -0.06014862 -0.07527613 -0.52587694 -0.12169291
-0.56956065 0.015759114 -0.038791157 -0.07398787 -0.027450964 0.0076891766 -0.0040904228 0.06341056
0.034320418 0.12264963 -0.0857524 -0.18563202 -0.116260424 0.012694545 -0.11056463 0.11832033
-0.4054259 0.20865767 0.13177373 -0.017284201 -0.48845854 0.042060994 0.06802815 0.12839861
0.16570544 -0.017019318 0.06272478 0.111174196 -0.25071955 -0.06347601 0.13479991 -0.048311926
-0.08473023 0.052933272 0.05467429 -0.08821078 0.29604608 0.16128488 -0.2068108 0.04597337
-0.040480375 0.09665644 0.012840177 0.17329355 0.16119815 -0.031505562 0.006213301 0.0065592495
0.038960055 0.18641463 -0.13435885 -0.011550153 -0.114336744 -0.58050853 0.11497653 0.01369674
0.19137116 -0.12783164 -0.10049964 -0.25459364 -0.21781254 0.03420291 -0.098305725 0.10012161
-0.16675225 0.06860761 -0.12349689 -0.08188668 0.07465382 0.1579909 -0.0070935595 -0.031619254
0.048430048 0.22959022 -0.5213577 0.062461648 0.005152317 0.008239317 0.06686627 0.012499176
-0.054178376 -0.0003736567 -0.008484711 0.0628566 0.22491245 0.07698438 0.058681626 0.36903125
00000000: 0e96 aabd 3421 c8bd e47f d83d c53c 1cbe
00000010: b66d 4dbd 5609 073d 6877 3f3d ef43 cebd
00000020: 64bd 833e 925f 15bd 2b93 663e 7937 18be
00000030: bdee 643d b13b 033c 5638 b33d e97d 47bc
00000040: 6a02 d6bd 41af d43d 159e 1cbc ab5c d53d
00000050: 8a90 763e a03c 9a3d 51cf 68bc 6144 47bc
00000060: 4f03 603e 49f4 293d 15af 823e a4fe 863d
00000070: b9be d4bd 9209 f9bd a18b 0ebe 4588 a83e
00000080: 838c 2b3e 1661 b0bd ca77 b3bd a465 99bd
00000090: 40c2 e83d 6c23 593e a591 94bc 0efe eebc
000000a0: bf39 27be 8874 98b8 c0c3 aebc a89a e43d
000000b0: fa1f 1cbd 6aed 7b3e 292d 54bd c235 613e
000000c0: f3ae 423e 26d4 a5ba 1ea0 3fbe 489b c13d
000000d0: 530b b7bd 6cdf 54bc 4570 0dbe 490e dc3d
000000e0: b32e b5bd 61b3 0e3e 8de0 7c3e 3eff 463d
000000f0: f1b3 53bc 1768 a83d 6707 3dbd ebca 473c
00000100: d2be 7e3e 936e bc3c 4240 8e3e c8d1 eabd
00000110: 0d63 31be 68ee 55bc e29e 193e 58ba 00bd
00000120: 22fa c6bd 0ef4 2d3d b53c 8bbd ae9d 303d
00000130: 540c cc3d 49af d03e 5ba3 b83e 5ca6 bc3d
00000140: f675 c43c 6f43 31bd 3ca0 013d 5619 9abe
00000150: 2e1e d1bd 99b5 063e dfdc 56bc c926 e93d
00000160: 2b7e 2cbf bfb2 933e 9276 d5bd ab31 57bd
00000170: fcf9 813c 370a 69bd 2287 083e 5cdc 04bf
00000180: 2554 60bb c3a8 913e 7b07 37be 0548 25be
00000190: 7f99 d7bd c775 e13c c221 84be d910 593c
000001a0: 0e2a 833c 2f0c 903d 25e1 e1bd 767f d33a
000001b0: 7472 92be 1ce2 7b3d 65e6 07bd 0f96 7a3d
000001c0: d4b3 33bd 631d 6dbc a308 2abd 906b d8bb
000001d0: a48f e43d 7846 0bbd bc8a 9cbc 0f29 bf3d
000001e0: 8d77 6ebe 253b 35bd 4f20 04be 9ea7 0ebe
000001f0: 19f9 143d 264d 16be 8ef6 cb3d 6d81 553e
00000200: 239e 573e 6db3 86b9 4aeb ccbd 6c00 613d
00000210: d339 70bd d1d6 0d3e a717 99bc 1626 82ba
00000220: 329c a53d 7c69 303c d791 343e e78d 04bf
00000230: e0b4 943c 5fe8 28be 70a7 973c 5451 ce3d
00000240: d7b9 0ebe f6c5 0a3c f40f 2dbd 2438 63be
00000250: c807 4f3e 51d6 8a3d 396d 2ebe 1d94 bbbc
00000260: d631 773e caad 133e 8645 dbbe a35d ea3d
00000270: 0686 dd3c 1d7c cebd 9fbd c63b 5d78 403e
00000280: 827f 923e a17c 983c dcd7 a8bb d902 f43d
00000290: 665e 76bd 5f2a 9abd df9f 06bf 223a f9bd
000002a0: bace 11bf 4219 813c 7ae3 1ebd f486 97bd
000002b0: d8e0 e0bc 7df5 fb3b f408 86bb 65dd 813d
000002c0: 9193 0c3d bb2f fb3d f49e afbd 5216 3ebe
000002d0: f219 eebd c8fc 4f3c b56f e2bd ee51 f23d
000002e0: fc93 cfbe 5baa 553e b1ef 063e 9997 8dbc
000002f0: 3d17 fabe 2648 2c3d 5852 8b3d ed7a 033e
00000300: b0ae 293e 196c 8bbc d975 803d 4caf e33d
00000310: 505e 80be b6ff 81bd fd08 0a3e bae2 45bd
00000320: 0b87 adbd 8fd0 583d 26f2 5f3d daa7 b4bd
00000330: 5a93 973e dd27 253e 36c6 53be 934e 3c3d
00000340: c0ce 25bd d0f3 c53d 9b5f 523c dd73 313e
00000350: 2111 253e fa0b 01bd f298 cb3b f9ee d63b
00000360: 9494 1f3d 7ae3 3e3e 5e95 09be da3c 3dbc
00000370: 6229 eabd 359c 14bf d178 eb3d 4b68 603c
00000380: cdf6 433e 4ce6 02be c1d2 cdbd 195a 82be
00000390: 400a 5fbe 5a18 0c3d 8354 c9bd 8f0c cd3d
000003a0: 1ac1 2abe 2682 8c3d f0eb fcbd 34b4 a7bd
000003b0: 1ae4 983d 5ec8 213e 1771 e8bb 3183 01bd
000003c0: 965e 463d b319 6b3e b377 05bf c9d7 7f3d
000003d0: c5d4 a83b 33fe 063c 2ff1 883d 58c9 4c3c
000003e0: 25ea 5dbd 5ae7 c3b9 7503 0bbc f6ba 803d
000003f0: 734f 663e fda9 9d3d 255c 703d aaf1 bc3e

fc2.bias f4 [128]
-0.122024946 0.07185891 0.20671842 0.0028652048 0.2581988 0.16179341 0.15558887 0.23695771
0.17813957 0.227258 0.052626755 0.03692697 0.13568245 0.17962633 -0.02410396 0.12153656
0.012478432 0.14738525 0.23787542 0.10635223 0.12579346 -0.1245636 0.18518963 0.22147381
0.22467674 -0.015038549 0.2549729 0.19914903 0.090651534 -0.12958416 0.005371193 0.1914735
0.070164345 0.272886 0.12823536 -0.11639375 0.14718542 0.19580704 -0.07224372 0.16777553
0.2317545 -0.114534386 -0.08293491 0.23013164 0.19318153 0.06665665 -0.08706934 0.1355653
-0.14179958 0.13486178 0.22129571 0.12221196 0.11981007 0.24871528 0.026934145 -0.011722901
-0.0552413 -0.049912903 -0.04298546 -0.092448205 0.0034355435 -0.088901386 0.27520755 0.14331442
0.023428885 0.027750818 0.216538 -0.09448103 0.14411713 0.1891514 -0.079453744 -0.038925096
-0.010937357 0.110740505 0.12264132 0.2083261 0.019532314 0.22366868 0.11545615 0.07266443
0.13889676 0.13143015 0.17125265 0.19393912 0.1868694 0.09911242 -0.08337207 0.24779904
-0.02316928 0.14142466 0.25517547 0.021305216 0.23144971 0.018891657 -0.014013339 0.17138538
-0.0533768 0.12259239 0.042258155 0.10929474 -0.020698205 0.21423557 -0.08106637 0.27574825
0.016391521 -0.06259253 0.0021573955 -0.027459119 -0.12512101 0.19017377 -0.0062461495 0.10850422
-0.16368972 -0.077755414 -0.04956059 -0.0614421 0.23772061 0.08509788 0.16717729 0.21428187
-0.0947725 -0.022185568 0.22268714 0.23743543 0.032955177 0.07140515 0.14898014 0.26340255
00000000: 37e8 f9bd c42a 933d fead 533e 29c6 3b3b
00000010: a232 843e 2cad 253e b052 1f3e 0ba5 723e
00000020: 386a 363e 52b6 683e 278f 573d bc40 173d
00000030: 57f0 0a3e f7ef 373e ab75 c5bc 29e8 f83d
00000040: 5672 4c3c 29ec 163e 9d95 733e 33cf d93d
00000050: 00d0 003e 331b ffbd 5aa2 3d3e 08ca 623e
00000060: a911 663e 3f64 76bc cf8b 823e b9ed 4b3e
00000070: 83a7 b93d b6b1 04be d500 b03b a111 443e
00000080: 53b2 8f3d b7b7 8b3e 2150 033e d95f eebd
00000090: c6b7 163e a481 483e 84f4 93bd 59cd 2b3e
000000a0: 0d51 6d3e 0191 eabd c7d9 a9bd a1a7 6b3e
000000b0: 61d1 453e 4883 883d 6951 b2bd a1d1 0a3e
000000c0: e933 11be 3519 0a3e 589b 623e 444a fa3d
000000d0: fb5e f53d 38af 7e3e ffa4 dc3c 6911 40bc
000000e0: b444 62bd 7971 4cbd 8611 30bd 7c55 bdbd
000000f0: db26 613b ee11 b6bd 01e8 8c3e 04c1 123e
00000100: efed bf3c af55 e33c 23bc 5d3e 457f c1bd
00000110: 7193 133e e8b0 413e a5b8 a2bd ec6f 1fbd
00000120: 9a32 33bc ebcb e23d 5f2b fb3d 7053 553e
00000130: 3b02 a03c 6709 653e 4674 ec3d 17d1 943d
00000140: f43a 0e3e a095 063e db5c 2f3e fa97 463e
00000150: b15a 3f3e 74fb ca3d fabe aabd 08bf 7d3e
00000160: 80cd bdbc a0d1 103e 5ca6 823e 4788 ae3c
00000170: 2701 6d3e adc2 9a3c 3498 65bc a67f 2f3e
00000180: a2a1 5abd b811 fb3d e316 2d3d ecd5 df3d
00000190: 488f a9bc 9260 5b3e 2006 a6bd e02e 8d3e
000001a0: 8347 863c 8330 80bd 1763 0d3b f2f1 e0bc
000001b0: b91f 00be eabc 423e 80ac ccbb 7637 de3d
000001c0: 479e 27be 3b3e 9fbd 0c00 4bbd b6aa 7bbd
000001d0: 086d 733e cc47 ae3d 8630 2b3e b56c 5b3e
000001e0: 1618 c2bd 82be b5bc 1908 643e 4622 733e
000001f0: 02fc 063d dd3c 923d 408e 183e b3dc 863e

q1.weight f4 [1, 128]
-0.6219727 -0.53455067 0.2315983 -0.6942495 0.28126422 0.2559308 0.25834915 0.25503668
0.25799304 0.3113738 -0.05709393 -0.56377536 -1.2021059 0.24047044 -0.115952395 -1.0562636
-0.02343193 0.19672702 0.23002055 0.22509284 0.20622744 -0.61447954 0.22970173 0.29521003
0.21705481 -0.0014127101 0.27041832 0.2654405 -0.91710544 -0.34665546 -0.5590344 0.24417554
-0.77490455 0.26322162 0.25897762 -0.6082729 0.3007104 0.2523685 -0.37423354 0.23816173
0.23558307 -0.12280216 0.06648196 0.17047858 0.18838385 -0.841128 -0.38442114 0.21865451
-0.44938758 0.23177229 0.23949929 0.22367634 0.22739522 0.22158429 -0.87135124 -1.1464711
-0.5847202 -1.1139888 -0.6048514 -0.8961415 -0.92588305 -0.6992912 0.24159531 0.29370993
-0.38571304 -0.6722439 0.21196502 -0.2057294 0.2540949 0.19352481 -0.41630036 -0.7967792
-0.5818521 -0.6947625 0.19054182 0.19836631 -0.07110011 0.1988022 0.22242695 -0.82570606
0.23428397 0.33852944 0.23396179 0.21159232 0.20854114 0.22557198 -0.2873124 0.24948142
-0.52832574 0.19857751 0.265818 -0.43594047 0.25483522 -0.7293358 -0.7692829 0.21445361
-0.60556847 0.22289814 -0.07502117 0.23080616 -0.94680613 0.18123353 -0.6136303 0.25689882
-0.79554933 -0.72214526 0.6521996 -0.7188796 -0.6118068 0.2805545 -0.069454625 0.20930648
-0.51339805 -0.18420513 -0.67329496 -0.44942975 0.24522401 -0.49536335 0.34044185 0.25316554
-0.7537806 -0.011126677 0.23430155 0.22640496 -0.95313704 -0.6652134 0.22429658 0.2642576
00000000: 9a39 1fbf 50d8 08bf 1b28 6d3e 56ba 31bf
00000010: dd01 903e 5d09 833e 5746 843e 2b94 823e
00000020: aa17 843e 636c 9f3e 53db 69bd 9553 10bf
00000030: 9bde 99bf e23d 763e 7378 edbd a533 87bf
00000040: 52f4 bfbc cf72 493e 828a 6b3e bd7e 663e
00000050: 492d 533e 884e 1dbf ee36 6b3e c525 973e
00000060: 9e43 5e3e af2a b9ba 4574 8a3e d1e7 873e
00000070: 6cc7 6abf d37c b1be e11c 0fbf 2709 7a3e
00000080: 2560 46bf fcc4 863e b798 843e c6b7 1bbf
00000090: b7f6 993e 7236 813e 8a9b bfbe abe0 733e
000000a0: b03c 713e b37f fbbd b227 883d f091 2e3e
000000b0: b2e7 403e 2a54 57bf d9d2 c4be f8e6 5f3e
000000c0: 2116 e6be b755 6d3e 4d3f 753e 690b 653e
000000d0: 4bda 683e fee6 623e e010 5fbf 91bf 92bf
000000e0: 39b0 15bf 2f97 8ebf 8bd7 1abf 8869 65bf
000000f0: ac06 6dbf c004 33bf c364 773e 2661 963e
00000100: 2e7c c5be 2d18 2cbf 5c0d 593e baaa 52be
00000110: ba18 823e 5e2b 463e 5225 d5be b9f9 4bbf
00000120: 42f4 14bf f5db 31bf 651d 433e 8a20 4b3e
00000130: ef9c 91bd ce92 4b3e e4c3 633e 7961 53bf
00000140: 23e8 6f3e bb53 ad3e ae93 6f3e a8ab 583e
00000150: cf8b 553e 57fc 663e 9c1a 93be 0f78 7f3e
00000160: 5b40 07bf e757 4b3e 4c19 883e 9733 dfbe
00000170: c379 823e c0b5 3abf b9ef 44bf ba99 5b3e
00000180: 8906 1bbf 693f 643e b3a4 99bd 7358 6c3e
00000190: e361 72bf 4895 393e e016 1dbf 3e88 833e
000001a0: 1fa9 4bbf 83de 38bf 8ef6 263f 7e08 38bf
000001b0: 5f9f 1cbf d7a4 8f3e 3a3e 8ebd 7054 563e
000001c0: 0e6e 03bf 45a0 3cbe 0f5d 2cbf a81b e6be
000001d0: 011c 7b3e 44a0 fdbe 654e ae3e ea9e 813e
000001e0: c4f7 40bf aa4c 36bc bfec 6f3e b4d6 673e
000001f0: ca00 74bf 6d4b 2abf 01ae 653e c64c 873e

fc3.weight f4 [128, 17]
0.024982413 -0.4074146 0.038560502 -0.2280277 -0.21762502 -0.15784436 0.22934708 -0.2829531
0.22586532 0.03690185 -0.10298048 -0.1081092 -0.07272911 -0.038927943 -0.00034021842 -0.10231924
0.12356101 0.013837555 -0.08339807 0.008713804 0.089440756 0.18355516 0.010292303 0.058815204
0.15267543 0.04550342 -0.22399142 -0.2988226 -0.13107942 -0.51766413 -0.11239895 0.4088277
0.19138214 -0.4609638 -0.2457314 -0.23605238 0.009998169 0.08371915 -0.3076976 -0.14112319
-0.24255627 -0.13629396 -0.102133244 0.097950675 0.33314595 0.1892128 -0.042803418 -0.06904708
-0.038656794 -0.052465778 0.12263154 0.118377075 -0.10903419 0.05687051 -0.23396833 0.2389626
0.19049264 0.15270795 -0.07369473 0.22941136 -0.15144414 0.05061504 -0.046494152 -0.014934062
0.3128285 -0.26538086 0.08162284 -0.122140914 -0.07102313 -0.03538977 -0.062472012 -0.26570612
0.27079585 -0.1689991 0.065049775 -0.28113675 0.10527463 0.13589844 -0.151362 -0.03369383
0.20451103 0.014877782 0.22118224 -0.21096642 -0.055899452 -0.17006074 0.10480632 -0.32176763
0.0040901196 0.12065944 -0.26453462 -0.09825929 0.19075058 0.21653552 -0.0745164 -0.18812805
0.10337992 0.031817917 -0.33547226 0.1342289 0.3307551 -0.2554233 0.10551527 -0.20047025
-0.050114095 0.12315907 -0.20170955 -0.08617392 0.13761891 -0.20770563 -0.22379586 0.2439177
-0.03921361 0.16437441 0.10218338 0.34679213 0.12308915 -0.1060144 -0.1761605 0.13751103
-0.0020404942 0.18271625 0.095944494 0.10267606 0.15444241 0.21455863 -0.22113435 0.15427002
0.28841966 -0.18817829 -0.2446985 -0.38304862 0.18669935 -0.04394259 -0.101057366 0.2152671
-0.18761864 -0.096973635 -0.3184196 -0.091752864 0.11937479 0.18948394 0.15959933 0.09867129
-0.09150456 0.15132228 -0.15274869 -0.23542449 0.16379295 -0.2491181 0.016175427 0.18239145
-0.14829999 0.03330633 0.10082637 0.5488592 -0.077010736 -0.17998315 -0.25038517 -0.039405756
0.17084458 -0.20754352 -0.084368974 -0.20451675 0.15494867 0.17434134 -0.13358653 -0.24814254
0.08066406 0.37777555 -0.030256925 0.19692266 0.10132939 0.11966838 -0.1333073 -0.09265334
0.055465195 -0.16994372 0.29173395 -0.11692413 0.22559114 0.08293788 -0.25861368 0.019834341
-0.4374439 -0.20799032 -0.16985397 0.029780501 0.0037807596 0.23640175 0.14632073 0.19099681
0.022971472 -0.05265094 0.21296369 -0.030077294 0.0634631 0.12886545 0.1168569 -0.07869414
-0.44319916 -0.25323024 -0.06594841 0.22562942 -0.11661844 -0.14682879 0.14375661 -0.27803034
0.11565107 -0.1492076 0.19209877 -0.3549059 0.28454655 0.20342363 0.13764085 0.19103277
-0.012084137 0.11285654 -0.2366173 0.118702434 -0.16659093 0.21470194 0.12100254 0.06180316
-0.20926361 -0.02054079 0.12250108 0.011432392 -0.32096305 0.16724612 0.19924565 0.31797335
0.21624562 0.27067503 0.54301316 -0.20100339 -0.10826862 0.07561636 0.14123222 -0.27955085
0.15533519 -0.027340202 -0.033733282 0.07627202 0.15165485 0.052014846 0.27419314 0.2788133
-0.058470834 0.2191328 -0.37588626 -0.32271174 0.4597153 -0.041354973 0.2743842 0.19052084
00000000: eba7 cc3c a598 d0be 9ef1 1d3d 1880 69be
00000010: 18d9 5ebe f4a1 21be f6d9 6a3e 3bdf 90be
00000020: 3d49 673e 6526 173d 6ee7 d2bd 5b68 ddbd
00000030: 00f3 94bd e872 1fbd 585f b2b9 c08c d1bd
00000040: 8e0d fd3d eab6 623c 9bcc aabd 58c4 0e3c
00000050: b72c b73d e2f5 3b3e 0ca1 283c 36e8 703d
00000060: f356 1c3e cb61 3a3d 025e 65be 47ff 98be
00000070: af39 06be a385 04bf 6c31 e6bd dd51 d13e
00000080: aef9 433e 7203 ecbe 03a1 7bbe b7b7 71be
00000090: 5ccf 233c f274 ab3d 8a8a 9dbe 9982 10be
000000a0: ac60 78be a590 0bbe 3c2b d1bd 5d9a c83d
000000b0: 1b92 aa3e 00c1 413e a352 2fbd 8e68 8dbd
000000c0: 9656 1ebd 5be6 56bd 3f26 fb3d ae6f f23d
000000d0: 514d dfbd 0df1 683d 6595 6fbe 9db2 743e
000000e0: 8110 433e 795f 1c3e 43ed 96bd d0ea 6a3e
000000f0: 2c14 1bbe b751 4f3d a770 3ebd ffad 74bc
00000100: 0f2b a03e 00e0 87be e029 a73d 0425 fabd
00000110: 9374 91bd ddf4 10bd a7e2 7fbd a20a 88be
00000120: c1a5 8a3e 1a0e 2dbe d138 853d 28f1 8fbe
00000130: 3a9a d73d f628 0b3e a4fe 1abe 8b02 0abd
00000140: 576b 513e f1c1 733c 997d 623e 9507 58be
00000150: d3f6 64bd 6724 2ebe b2a4 d63d babe a4be
00000160: 6906 863b 4c1c f73d 1571 87be 2b3c c9bd
00000170: 1f54 433e 7dbb 5d3e 0e9c 98bd a4a4 40be
00000180: dab8 d33d 8153 023d 05c3 abbe 4d73 093e
00000190: bc58 a93e d8c6 82be 6418 d83d 1348 4dbe
000001a0: 7044 4dbd d33a fc3d f38c 4ebe f47b b0bd
000001b0: f9eb 0c3e c9b0 54be be2a 65be 90c5 793e
000001c0: 739e 20bd c451 283e 8545 d13d bd8e b13e
000001d0: 2a16 fc3d 141e d9bd 6b63 34be b1cf 0c3e
000001e0: d0b9 05bb f819 3b3e 8c7e c43d d347 d23d
000001f0: 2726 1e3e 42b5 5b3e 0b71 62be f6f8 1d3e
00000200: beab 933e cfb1 40be 3e92 7abe f31e c4be
00000210: 1d2e 3f3e 25fd 33bd 2af7 cebd fb6e 5c3e
00000220: 1a1f 40be 1d9a c6bd e507 a3be ede8 bbbd
00000230: c57a f43d 1408 423e 026e 233e 2c14 ca3d
00000240: be66 bbbd 3af4 1a3e 276a 1cbe 1e13 71be
00000250: 57b9 273e d118 7fbe 5482 843c d3c4 3a3e
00000260: f4db 17be 386c 083d 0e7e ce3d 0982 0c3f
00000270: ceb7 9dbd 814d 38be 7c32 80be ee67 21bd
00000280: e2f1 2e3e 4a86 54be a4c9 acbd d76c 51be
00000290: ddaa 1e3e 8986 323e e8ca 08be 1419 7ebe
000002a0: 3333 a53d cc6b c13e 5fdd f7bc 18a6 493e
000002b0: c985 cf3d b214 f53d b581 08be 09c1 bdbd
000002c0: 792f 633d ba05 2ebe 275e 953e eb75 efbd
000002d0: 5d01 673e 56db a93d 0369 84be a17b a23c
000002e0: a6f8 dfbe 6afb 54be 33ee 2dbe 3df6 f33c
000002f0: 9fc6 773b 4d13 723e 1ad5 153e ab94 433e
00000300: ab2e bc3c 83a8 57bd 2713 5a3e a864 f6bc
00000310: f1f8 813d 4ef5 033e ac52 ef3d 652a a1bd
00000320: 00eb e2be 65a7 81be f60f 87bd 660b 673e
00000330: a6d5 eebd 495a 16be ef34 133e fe59 8ebe
00000340: 78da ec3d e1c9 18be 8ab5 443e 3ab6 b5be
00000350: 16b0 913e 494e 503e b9f1 0c3e 189e 433e
00000360: 8bfc 45bc 5421 e73d ce4b 72be 431a f33d
00000370: d096 2abe d3da 5b3e 2ed0 f73d 4f25 7d3d
00000380: 3349 56be 2945 a8bc d9e1 fa3d ed4e 3b3c
00000390: 4555 a4be 9142 2b3e 0d07 4c3e 67cd a23e
000003a0: 7e6f 5d3e eb95 8a3e e902 0b3f d5d3 4dbe
000003b0: f0bb ddbd c0dc 9a3d 2e9f 103e 4a21 8fbe
000003c0: 3010 1f3e 8ff8 dfbc e92b 0abd 8134 9c3d
000003d0: 694b 1b3e 850d 553d 0b63 8c3e 9ec0 8e3e
000003e0: 1d7f 6fbd 5964 603e 2a74 c0be 793a a5be
000003f0: ce5f eb3e d563 29bd 167c 8c3e e517 433e

fc3.bias f4 [128]
0.5301487 -0.078036435 0.4197045 0.14503498 0.25533438 -0.056718476 0.41026548 0.25189313
0.23643802 -0.22952446 -0.21480316 -0.28420833 0.29861325 0.0104468735 0.19044514 0.40449086
0.37113765 0.3795141 -0.040795173 0.2180008 0.26541683 0.40697777 0.23408516 0.22231773
0.11044033 -0.15272996 -0.2313063 -0.2098647 0.32476547 0.3394973 0.38731915 -0.08538093
-0.01304962 0.21732052 0.1478656 0.10078761 -0.13288796 -0.10397879 0.09099798 -0.1503502
0.33979708 0.23113883 0.28142557 0.4659451 0.313555 0.46310553 0.30697286 -0.104795404
-0.24932238 0.057732634 -0.36163875 0.27754292 0.21978822 0.10323254 -0.055156823 -0.13891605
-0.030914702 0.035218827 -0.26456213 -0.15367918 -0.06530561 0.18520473 -0.04117546 0.17328541
-0.21827625 0.26129523 0.4166854 0.015626548 0.37089726 0.11897005 0.31101438 -0.1264322
0.48831636 0.4419438 0.4151188 -0.05595529 -0.23854975 0.26618677 -0.030646654 0.39576492
-0.13998123 0.20375691 0.34837782 0.2794305 0.1432671 -0.012346639 -0.08867416 0.14610136
0.34764344 0.022681452 0.2304366 0.27445143 0.37355348 0.4895126 0.050995298 0.029955022
-0.26415795 0.2022011 0.42669994 0.43222585 0.21553537 0.38644662 0.37327114 0.45136935
-0.20226632 -0.058414742 -0.0473638 0.4777148 0.115130804 0.31745172 -0.21722992 -0.24898683
-0.037729707 -0.22150972 0.16777001 0.2987527 -0.1383432 0.26291975 -0.11185025 -0.017234232
-0.12328159 -0.027281344 -0.22994897 0.065021835 -0.14306535 0.16918412 0.14816862 0.20728147
00000000: d3b7 073f 91d1 9fbd 82e3 d63e 0d84 143e
00000010: 30bb 823e a251 68bd 510e d23e 23f8 803e
00000020: cf1c 723e 7608 6bbe 5cf5 5bbe c183 91be
00000030: d6e3 983e 5d29 2b3c 0d04 433e 6d19 cf3e
00000040: c105 be3e ac4f c23e d718 27bd 9a3b 5f3e
00000050: b7e4 873e 645f d03e 05b4 6f3e 42a7 633e
00000060: 8a2e e23d 3e65 1cbe 8fdb 6cbe c6e6 56be
00000070: a947 a63e 97d2 ad3e b24e c63e 32dc aebd
00000080: 13ce 55bc 4589 5e3e 146a 173e bc69 ce3d
00000090: c813 08be d5f2 d4bd 265d ba3d 67f5 19be
000000a0: e2f9 ad3e a8af 6c3e 0317 903e 5b90 ee3e
000000b0: 488a a03e 2b1c ed3e 8c2b 9d3e f99e d6bd
000000c0: 5e4e 7fbe 0e79 6c3d b728 b9be 1b1a 8e3e
000000d0: 2a10 613e 956b d33d 1fec 61bd 0240 0ebe
000000e0: d440 fdbc 9e41 103d b074 87be 135e 1dbe
000000f0: f3be 85bd 4fa6 3d3e 99a7 28bd bb71 313e
00000100: cf83 5fbe 7dc8 853e ca57 d53e 3f03 803c
00000110: 3fe6 bd3e 92a6 f33d 473d 9f3e 7177 01be
00000120: 9a04 fa3e 7546 e23e 748a d43e 6031 65bd
00000130: 6346 74be a249 883e b10e fbbc b3a1 ca3e
00000140: 3d57 0fbe a7a5 503e 945e b23e 8411 8f3e
00000150: 9cb4 123e 8f49 4abc cc9a b5bd 989b 153e
00000160: 52fe b13e 74ce b93c 92f7 6b3e e684 8c3e
00000170: 6742 bf3e 65a1 fa3e 72e0 503d 3c64 f53c
00000180: b63f 87be ce0d 4f3e 6a78 da3e b54c dd3e
00000190: 4eb5 5c3e 55dc c53e 651d bf3e e219 e73e
000001a0: e71e 4fbe 4c44 6fbd 8b00 42bd 0997 f43e
000001b0: b3c9 eb3d 0889 a23e 8571 5ebe 67f6 7ebe
000001c0: 778a 1abd 72d3 62be e7cb 2b3e 1df6 983e
000001d0: d7a9 0dbe 6b9d 863e be11 e5bd ce2e 8dbc
000001e0: 0f7b fcbd 207d dfbc be77 6bbe 2b2a 853d
000001f0: b97f 12be 9a3e 2d3e 84b9 173e 9841 543e

fc4.weight f4 [128, 128]
-0.030004859 0.15614802 -0.055525422 0.03780954 -0.281509 0.105030164 -0.2560951 0.0021324707
-0.14392887 -0.8285509 0.3805046 -0.022606438 -0.08479195 -0.073178954 0.14631759 -0.065863
-0.19983521 0.044287004 -0.08128856 -0.036040984 0.07326047 0.005980915 -0.04337941 -0.091513865
-0.12374801 -0.79793423 0.4142281 -0.15963922 0.09778765 -0.034042023 0.06941546 0.17942025
0.25911933 0.19081017 -0.36721048 -0.31292084 0.01204197 0.18195967 -0.37322783 -0.022699393
0.06797938 0.13962242 0.07334991 -0.000597567 -0.07670053 0.018689394 -0.09090107 0.019185605
-0.28871894 0.019430678 -2.2316766 0.15798222 -0.010963504 -0.1445935 -0.17394552 0.16561726
-0.07726578 -0.073169544 0.34631178 0.27977017 0.36028603 0.06359009 0.0017576064 0.20382418
-0.6654964 -0.20032343 -0.07546101 -0.4372776 0.073664315 -0.15532853 -0.049034763 0.06634749
-0.0084401695 0.00045212344 -0.010823494 0.102750026 0.5216355 -0.08995916 0.22282039 0.014797881
-0.24200538 -0.008795669 -0.17561546 -0.07283076 0.22434454 -0.0029512336 0.23992115 0.0069080866
0.097367845 0.19419912 -0.1684886 -0.42322913 0.017016262 -0.09448156 -0.2742647 0.10518385
-0.020061074 0.17526205 0.11224057 0.02170232 -0.09792071 -0.07327227 0.06600635 -0.009900179
0.029015498 -0.2936257 0.28603986 0.037657727 0.07141938 -0.08444331 -0.0052571143 -0.080133185
-2.3338947 -0.025641644 -0.07840497 0.0021201435 -0.0031777292 0.06966997 0.0847049 -0.21124057
0.25538588 -0.5694629 0.30083397 0.029242763 0.3085511 0.18402207 -0.17711005 -0.0785714
-0.02874074 0.106578715 -0.05540591 0.06641681 0.03226022 -0.1766519 0.23993653 0.09359704
-0.15568045 0.06259704 0.09958336 -0.10470575 -0.047027268 0.08168228 -0.047339607 -0.13876048
-0.051214222 0.043231875 -0.07308912 -0.049549874 -0.093037084 -0.01135777 -0.013330749 0.10794866
0.0060743988 -0.04973308 0.04078936 -0.103650056 -0.36309612 0.0057150763 0.056366865 -0.05280013
0.26799327 -0.41436708 -0.13753164 -0.072108 0.16613875 -0.19397436 -0.13908322 0.18872795
0.16650526 -0.17624597 -0.16274208 0.115220405 0.04159406 0.12934089 -0.12866464 0.06923631
-0.11748135 -0.0036827675 0.043206614 -0.010584395 -0.02689306 -0.67570746 -0.4859552 0.21696776
0.1772375 0.011480523 0.090343826 0.36792618 -0.5988111 -0.14187884 -0.01013316 -0.012068325
0.09604149 -0.261832 0.10610802 0.12152249 -0.04953547 0.07996204 -0.097954765 -0.15893258
0.03181559 -0.050809283 0.15176578 0.23176084 0.4645636 -0.27135414 -0.08441936 -0.18844391
0.10289919 -0.0018030709 0.07134992 0.06660474 0.074353464 0.036832567 0.18044014 -0.27839908
-0.12392122 0.25204438 0.10928545 0.037449628 -0.050200425 0.13501316 -0.004946269 -0.11089263
-0.16224301 0.12790667 -0.052481648 0.03771388 0.06617201 0.023517318 0.026628336 -0.0063280347
0.046293363 0.043857485 0.2019727 0.052086495 0.033926897 -0.16348907 -0.16549487 0.3946222
-1.8186086 0.3169941 -0.1500498 -0.2526271 -0.0017742994 0.014490007 -0.077140346 -0.060891233
0.24945219 0.10993047 -2.063268 0.14663875 0.11583675 -0.31554255 -0.06777293 0.007016655
00000000: c0cc f5bc 44e5 1f3e a06e 63bd 2dde 1a3d
00000010: f321 90be 0e1a d73d e61e 83be ecc0 0b3b
00000020: 1762 13be e91b 54bf 80d1 c23e 2331 b9bc
00000030: 67a7 adbd d9de 95bd 47d4 153e 2ee3 86bd
00000040: 9aa1 4cbe 4a66 353d 9e7a a6bd b69f 13bd
00000050: 9609 963d 8dfb c33b 9cae 31bd 9f6b bbbd
00000060: 996f fdbd 6b45 4cbf b515 d43e 7778 23be
00000070: e444 c83d a66f 0bbd b129 8e3d f1b9 373e
00000080: 4aab 843e be63 433e 0303 bcbe 2937 a0be
00000090: af4b 453c a353 3a3e b817 bfbe 14f4 b9bc
000000a0: c638 8b3d 2ef9 0e3e 7a38 963d 0ba6 1cba
000000b0: 2b15 9dbd 801a 993c 572a babd 212b 9d3c
000000c0: f8d2 93be 162d 9f3c cad3 0ec0 17c6 213e
000000d0: 45a0 33bc 5210 14be c61e 32be 9297 293e
000000e0: 853d 9ebd ead9 95bd c74f b13e 093e 8f3e
000000f0: 6977 b83e 853b 823d 7c5f e63a 49b7 503e
00000100: f95d 2abf 9621 4dbe 4d8b 9abd d9e2 dfbe
00000110: 51dd 963d 710e 1fbe add8 48bd 31e1 873d
00000120: a348 0abc fb0a ed39 0655 31bc 9b6e d23d
00000130: e789 053f 823c b8bd 072b 643e d072 723c
00000140: 42d0 77be b61b 10bc 8ad4 33be 4b28 95bd
00000150: 93ba 653e 7c69 41bb e4ad 753e 3b5d e23b
00000160: cb68 c73d 22dc 463e 4788 2cbe 7db1 d8be
00000170: b065 8b3c 8c7f c1bd 6c6c 8cbe a16a d73d
00000180: 1f57 a4bc e577 333e 62de e53d 10c9 b13c
00000190: a78a c8bd c60f 96bd 562e 873d 5c34 22bc
000001a0: e9b1 ed3c 1c56 96be d173 923e fd3e 1a3d
000001b0: 5344 923d 9df0 acbd df43 acbb de1c a4bd
000001c0: 885e 15c0 6d0e d2bc c992 a0bd 1bf2 0a3b
000001d0: 7341 50bb 21af 8e3d c379 ad3d 734f 58be
000001e0: f0c1 823e 52c8 11bf e906 9a3e 858e ef3c
000001f0: 69fa 9d3e 4870 3c3e 565c 35be 0bea a0bd
00000200: b371 ebbc f145 da3d 4ff1 62bd 8905 883d
00000210: 4b23 043d 3ce4 34be ecb1 753e ceaf bf3d
00000220: b26a 1fbe e032 803d 5cf2 cb3d f86f d6bd
00000230: aa9f 40bd 0a49 a73d 2de7 41bd 3a17 0ebe
00000240: 01c6 51bd e813 313d c0af 95bd cff4 4abd
00000250: 3a8a bebd f115 3abc 3769 5abc 3014 dd3d
00000260: c00b c73b eab4 4bbd be12 273d 7b46 d4bd
00000270: bce7 b9be 8945 bb3b f1e0 663d f344 58bd
00000280: 6a36 893e ec27 d4be 18d5 0cbe 5cad 93bd
00000290: 4720 2a3e 37a1 46be d56b 0ebe e641 413e
000002a0: 5b80 2a3e d379 34be dca5 26be adf8 eb3d
000002b0: 885e 2a3d f071 043e aac0 03be c4cb 8d3d
000002c0: 109a f0bd 965a 71bb 6bf9 303d 2c6a 2dbc
000002d0: d64e dcbc 2afb 2cbf 1fcf f8be cc2c 5e3e
000002e0: bf7d 353e ce18 3c3c 2f06 b93d d260 bc3e
000002f0: af4b 19bf b048 11be 8e05 26bc 39ba 45bc
00000300: 67b1 c43d d80e 86be 294f d93d c9e0 f83d
00000310: b4e5 4abd 23c3 a33d 829c c8bd 39bf 22be
00000320: 1051 023d 651d 50bd 7d68 1b3e b752 6d3e
00000330: 48db ed3e eeee 8abe 0fe4 acbd 71f7 40be
00000340: cfbc d23d 0555 ecba e81f 923d 1168 883d
00000350: a146 983d bfdd 163d 4dc5 383e 538a 8ebe
00000360: 69ca fdbd f60b 813e 0dd1 df3d c864 193d
00000370: f69e 4dbd e440 0a3e 5014 a2bb ad1b e3bd
00000380: 0823 26be f7f9 023e fff6 56bd df79 1a3d
00000390: 3185 873d 64a7 c03c ab23 da3c 675b cfbb
000003a0: 1c9e 3d3d e8a3 333d eed1 4e3e a658 553d
000003b0: eef6 0a3d ae69 27be 7d77 29be ec0b ca3e
000003c0: 2bc8 e8bf 0d4d a23e a8a6 19be 5758 81be
000003d0: 9c8f e8ba 7f67 6d3c c2fb 9dbd 1669 79bd
000003e0: 6570 7f3e 3a23 e13d 950c 04c0 7828 163e
000003f0: d13b ed3d cb8e a1be 89cc 8abd f8eb e53b

fc4.bias f4 [128]
0.004493569 -0.013086099 0.26621905 -0.028401995 0.18436094 0.1300785 -0.10493909 0.20120233
-0.059435025 -0.07725658 0.0064245216 0.13144742 -0.106293105 0.023612147 -0.03623145 0.23889168
0.12670465 -0.12892015 0.2188061 0.27718082 0.063906625 -0.10117867 0.2190264 0.17583908
-0.04762264 0.055759 0.19091472 0.11773073 -0.08147849 -0.05001101 0.07132077 0.15479882
0.3382646 0.08915648 0.23992069 0.20448728 0.26219115 0.245306 0.11733176 -0.01675906
-0.05208385 0.25617844 0.22170915 0.06771027 0.083017945 0.15928675 0.10721755 0.024940755
0.010534437 0.21735416 0.20963018 -0.04067507 -0.022659142 -0.028444117 0.20044634 0.07640999
0.15266366 0.26411223 0.0908225 0.05956768 0.07744189 -0.08673803 0.2778352 0.03469973
0.31524938 -0.12118749 0.03946911 0.17321847 0.26866096 0.25921944 0.07908142 0.10310058
0.19985385 0.19384277 0.06431734 0.0017173024 0.14500019 0.1065699 -0.08338678 0.03974954
0.11247631 0.17391971 -0.07993915 0.061422687 0.2010968 0.24628742 -0.10684892 0.24558279
0.26994666 0.08925337 -0.009637888 -0.043094948 0.024684962 0.027797556 0.16821446 -0.054516695
0.09986239 0.120787285 0.16100717 0.10999422 0.21989629 -0.026130462 -0.11634334 -0.008009582
0.17916526 0.059297357 0.18066819 -0.0414576 0.12839422 0.009390212 -0.043711655 0.14098091
0.24492525 0.16910404 0.124657296 0.054947436 0.18774179 0.25074437 0.24453534 0.21054912
-0.035879713 0.28096598 0.15838838 0.010381112 -0.06623049 -0.09381113 0.12298189 -0.11608972
00000000: ca3e 933b 1467 56bc dd4d 883e 4dab e8bc
00000010: 1dc9 3c3e 4c33 053e 4eea d6bd fc07 4e3e
00000020: 2472 73bd b338 9ebd cb84 d23b 279a 063e
00000030: 33b0 d9bd 436e c13c 6e67 14bd 05a0 743e
00000040: ddbe 013e a503 04be b50e 603e a5ea 8d3e
00000050: 7ae1 823d c336 cfbd 7548 603e 290f 343e
00000060: f50f 43bd 8d63 643d 267f 433e cf1c f13d
00000070: 32de a6bd 58d8 4cbd a010 923d 9583 1e3e
00000080: 0531 ad3e ac97 b63d c5ad 753e 1d65 513e
00000090: eb3d 863e 7f31 7b3e a24b f03d 4c4a 89bc
000000a0: e055 55bd d229 833e b907 633e afab 8a3d
000000b0: 5005 aa3d 111c 233e e094 db3d 8e50 cc3c
000000c0: a298 2c3c 1792 5e3e 4ba9 563e e79a 26bd
000000d0: aa9f b9bc a303 e9bc ce41 4d3e d77c 9c3d
000000e0: dd53 1c3e b839 873e 2601 ba3d 3dfd 733d
000000f0: db99 9e3d b5a3 b1bd 6a40 8e3e 4e21 0e3d
00000100: 5e68 a13e 2631 f8bd 5daa 213d 2f60 313e
00000110: ee8d 893e 69b8 843e 71f5 a13d 6626 d33d
00000120: 7da6 4c3e b87e 463e cfb8 833d 1b17 e13a
00000130: ee7a 143e 5241 da3d b0c6 aabd 6ad0 223d
00000140: fb59 e63d 0218 323e 23b7 a3bd 5b96 7b3d
00000150: 52ec 4d3e c532 7c3e 9bd3 dabd 0e7a 7b3e
00000160: 7336 8a3e 79ca b63d 3be8 1dbc 5484 30bd
00000170: 1e38 ca3c b3b7 e33c 6940 2c3e e64c 5fbd
00000180: a784 cc3d 535f f73d 10df 243e a644 e13d
00000190: 7e2c 613e 8d0f d6bc 6b45 eebd 9f3a 03bc
000001a0: 1977 373e c9e1 723d 1501 393e 72cf 29bd
000001b0: c679 033e 67d9 193c fe0a 33bd 4d5d 103e
000001c0: afcd 7a3e 9c29 2d3e 534c ff3d 9010 613d
000001d0: 623f 403e 9161 803e 7967 7a3e 309a 573e
000001e0: 9bf6 12bd c6da 8f3e 9030 223e 8a15 2a3c
000001f0: daa3 87bd 0d20 c0bd eedd fb3d 72c0 edbd

q2.weight f4 [1, 128]
-0.846804 -0.6096009 0.27108368 -0.76971954 0.18624581 0.18739031 -0.43894565 0.30080894
-0.9015603 -0.5266237 -0.7159759 0.20151477 -0.2445069 -0.8692087 -1.151268 0.24287972
0.25063747 -0.27322343 0.2713787 0.24828626 -0.9867774 -0.6904648 0.2194534 0.24167833
-0.8120846 -0.7675736 0.21876279 0.28345802 -0.7417487 -0.0003402377 -0.44642505 0.22205019
0.27580655 -1.2044573 0.22854127 0.26518562 0.22201616 0.24601665 0.23344176 -0.42295018
-0.89372903 0.20244089 0.25440904 -0.39737028 -0.709283 0.21051887 -0.5707607 -0.057410173
-0.55721974 0.24155436 0.24869947 -0.9923961 -0.7115717 -0.30744988 0.28291702 -1.132882
0.21300599 0.19660133 0.2782721 -0.84596413 -0.9070573 -0.5665378 0.3098944 -0.40280724
0.2739948 -0.641608 -0.46305975 0.24531707 0.23975825 0.20045458 -1.1992973 0.27543992
0.2231301 0.20714626 -0.8024807 -0.644033 0.30221754 0.24674255 -0.18723208 -0.6835001
0.26667523 0.22203325 0.015757307 -0.02385908 0.23564811 0.2159025 -0.5369852 0.22065225
0.2476386 -0.88613254 -1.1893805 -0.53252864 -0.0445982 -0.6495966 0.23551552 -0.91568613
-0.83140254 0.28454554 0.21571107 0.22612342 0.21490508 -0.7280163 -0.2645799 -1.0874017
0.19843958 -0.84242064 0.2688924 -0.027035953 0.25510135 -1.2049447 -0.9237506 0.23560718
0.2192742 0.40952763 0.34971875 0.26319814 0.2126025 0.26831976 0.17071536 0.22531076
-0.71089643 0.26824823 0.20210756 -0.0018359198 -0.40256828 -0.68780607 0.25296676 -0.43871382
00000000: 26c8 58bf ce0e 1cbf 7bcb 8a3e 570c 45bf
00000010: 39b7 3e3e 3fe3 3f3e 7cbd e0be a103 9a3e
00000020: a8cc 66bf d0d0 06bf 324a 37bf e359 4e3e
00000030: 0460 7abe 7684 5ebf c05c 93bf 76b5 783e
00000040: 8e53 803e f1e3 8bbe 26f2 8a3e c13e 7e3e
00000050: 729d 7cbf 4dc2 30bf 64b8 603e 867a 773e
00000060: c7e4 4fbf b47f 44bf 5a03 603e 6921 913e
00000070: 3ee3 3dbf ee61 b2b9 d391 e4be 2061 633e
00000080: 8436 8d3e a82b 9abf b906 6a3e 69c6 873e
00000090: 3458 633e caeb 7b3e 5b0b 6f3e ed8c d8be
000000a0: 6dcb 64bf aa4c 4f3e e741 823e 1e74 cbbe
000000b0: 9293 35bf 4292 573e 601d 12bf ee26 6bbd
000000c0: f4a5 0ebf 075a 773e 13ab 7e3e ac0d 7ebf
000000d0: 9029 36bf 126a 9dbe 80da 903e 4702 91bf
000000e0: 3e1e 5a3e dc51 493e ae79 8e3e 1b91 58bf
000000f0: e834 68bf 9f08 11bf 7baa 9e3e c03c cebe
00000100: 0c49 8c3e 6c40 24bf 2b16 edbe 6634 7b3e
00000110: 3083 753e f743 4d3e 9382 99bf 7606 8d3e
00000120: 387c 643e 261e 543e 606f 4dbf 59df 24bf
00000130: 42bc 9a3e 14aa 7c3e c4b9 3fbe ddf9 2ebf
00000140: a889 883e af5c 633e 7815 813c 1e74 c3bc
00000150: bd4d 713e 8c15 5d3e dd77 09bf aaf2 613e
00000160: f994 7d3e 95d9 62bf 9f3d 98bf cc53 08bf
00000170: 9aac 36bd f64b 26bf fb2a 713e 686a 6abf
00000180: ccd6 54bf f4af 913e 5de3 5c3e e68c 673e
00000190: 1410 5c3e 475f 3abf 0477 87be fb2f 8bbf
000001a0: bf33 4b3e e1a8 57bf 44ac 893e 817a ddbc
000001b0: a59c 823e a13b 9abf eb7a 6cbf 0243 713e
000001c0: 6a89 603e 9bad d13e 560e b33e e8c1 863e
000001d0: 78b4 593e 3561 893e 02d0 2e3e ddb7 663e
000001e0: 4ffd 35bf d557 893e 49f5 4e3e 3fa3 f0ba
000001f0: 6e1d cebe 0f14 30bf dc84 813e 199f e0be
