resource/multi_run_experiment_20250319_111011/run_2/sac_actor_30000.pth (torch, 80607 bytes, 8 tensors)

fc1.weight f4 [128, 12]
0	0x3e2ead4a	0.17058292
1	0xbebdbae6	-0.37056655
2	0x3e2c942e	0.16853401
3	0xbe4fc7be	-0.2029104
4	0xbe86c685	-0.26323333
5	0xbe295e95	-0.16539986
6	0xbe450568	-0.19240344
7	0xbe7f77bf	-0.24948023
8	0xbe6fef27	-0.23431073
9	0xbe3ade25	-0.18248804
10	0x3e959b7a	0.29220182
11	0xba19df42	-0.0005869755
12	0xbd83992c	-0.064256996
13	0xbc871d1e	-0.016493376
14	0xbe1dbdca	-0.1540443
15	0x3e2515fc	0.16121668
16	0xbdf5db01	-0.12004662
17	0xbef25dc7	-0.4733717
18	0xbd798322	-0.060916074
19	0x3d4d5f91	0.050139967
20	0xbd1adad5	-0.03780635
21	0xbe1a111d	-0.1504559
22	0x3ee0c241	0.43898204
23	0x3e34b1b5	0.17645915
24	0xbba98302	-0.005173088
25	0xbcad73a1	-0.0211733
26	0x3e2c66be	0.16836068
27	0xbbb8eae3	-0.005643235
28	0x3d60888c	0.05481772
29	0xbe9ed213	-0.3101965
30	0xbf0b8f6b	-0.54515713
31	0xbc4a7f3b	-0.012359436
32	0x3e08c634	0.13356858
33	0xbe844967	-0.25837252
34	0x3df20ff8	0.11819452
35	0x3e070971	0.13187195
36	0xbdf2f463	-0.11863019
37	0xbe720a2f	-0.23636697
38	0xba3efe23	-0.0007285794
39	0x3cb51b94	0.022107877
40	0x3dff5c0a	0.12468727
41	0xbe8474ac	-0.25870264
42	0xbe811a12	-0.25215203
43	0x3e1b1c25	0.15147455
44	0xbe99fe1a	-0.30076677
45	0x3df6a140	0.12042475
46	0x3df26ed8	0.11837548
47	0xbdc28097	-0.09497183
48	0x3dc8d303	0.09805872
49	0xbee170b2	-0.44031292
50	0x3d78d206	0.06074717
51	0x3deb7940	0.11497736
52	0x3e545a59	0.2073759
53	0xbe534827	-0.20632993
54	0xbe4108c6	-0.18851003
55	0xbe115dbb	-0.14195912
56	0xbede10f7	-0.43372318
57	0x3e648649	0.2231685
58	0x3d4347fe	0.04767608
59	0x3eafe27a	0.34352475
60	0xbe53df81	-0.20690729
61	0x3c996218	0.018723533
62	0xbcb5a789	-0.022174614
63	0x3ea1fcb6	0.31638116
64	0x3e24a3f7	0.16078173
65	0xbddcbe6d	-0.10778508
66	0xbce5df19	-0.028060483
67	0xbe99ede7	-0.30064318
68	0x3e366a6a	0.17814031
69	0xbe831342	-0.2560063
70	0xbdbf4eb3	-0.093411826
71	0xbea157a1	-0.31512168
72	0xbe6c4eae	-0.23076889
73	0x3e6cfcbe	0.23143288
74	0xbd59ef71	-0.053206865
75	0xbe743550	-0.23848462
76	0x3e56e169	0.20984425
77	0x3e3466c6	0.1761733
78	0x3d202fcb	0.03910808
79	0xbeff5ac8	-0.49873948
80	0xbe8f8597	-0.28031608
81	0xbc2b239f	-0.010445504
82	0xbed510fd	-0.41614524
83	0xbd060238	-0.03271696
84	0x3dc61268	0.096714795
85	0xbea9b7e6	-0.33148116
86	0x3e1cec11	0.15324427
87	0x3e7103e0	0.23536634
88	0x3e3505a4	0.17677933
89	0xbecaab5a	-0.39583856
90	0x3ddc5e0a	0.10760124
91	0x3ea4ea45	0.32209983
92	0x3e75b13e	0.23993394
93	0x3c800740	0.015628457
94	0x3c7ae59c	0.015313532
95	0xbe48a015	-0.19592316
96	0xbd136d07	-0.03599265
97	0xbf41e8f7	-0.757461
98	0x3eeec3db	0.466338
99	0x3bff85cd	0.0077979327
100	0x3e006f29	0.12542404
101	0xbe2d2228	-0.16907561
102	0x3c564324	0.013077531
103	0x3e364867	0.17801057
104	0xbc6b86fb	-0.014375444
105	0x3dc89b36	0.09795229
106	0xbeb10d42	-0.34580427
107	0x3dee193b	0.11625906
108	0x3ec6a278	0.3879583
109	0xbdbd091e	-0.092302546
110	0x3d47aa10	0.04874617
111	0xbd879c1e	-0.06621574
112	0xbc9be542	-0.019030217
113	0x3e96b9cd	0.2943863
114	0x3dcf9f8c	0.10137853
115	0xbe379aa5	-0.17930086
116	0xbc8948c6	-0.016758334
117	0xbec605cf	-0.38676307
118	0xbe7b6738	-0.24551094
119	0x3df88feb	0.12136825
120	0x3ded5557	0.11588543
121	0xbdfe9e01	-0.124324806
122	0xbd014256	-0.031557404
123	0x39d93544	0.0004142915
124	0xbdfb8110	-0.12280476
125	0x3eaa8887	0.33307287
126	0xbf159537	-0.5843081
127	0xbe12f8ba	-0.14352694
128	0x3ce2db9c	0.027692609
129	0xbeec9be2	-0.4621268
130	0x3dc0d866	0.09416275
131	0x3ebf1cc1	0.37326625
132	0x3e62f033	0.22161941
133	0x3dca528d	0.098790266
134	0x3ece2fd7	0.40270874
135	0x3e54f8fa	0.20798102
136	0x3e019101	0.12652971
137	0xbe6d7542	-0.23189262
138	0x3decb9d0	0.115588784
139	0x3debc7ae	0.11512695
140	0xbded5cca	-0.11589964
141	0x3d5b6fd3	0.05357344
142	0x3ef2c622	0.47416788
143	0xbcbb6a24	-0.02287776
144	0xbd845f33	-0.0646347
145	0x3b999f68	0.004688192
146	0x3e9f8b3b	0.31160912
147	0xbe68ba5b	-0.22727339
148	0x3e9dca83	0.30818567
149	0xbbd2aacd	-0.0064290524
150	0xbefa238b	-0.48855242
151	0xbd2749d2	-0.040841885
152	0xbe096597	-0.1341766
153	0xbe8478fc	-0.25873554
154	0xbe03a024	-0.12854058
155	0x3e321c6b	0.17393653
156	0x3de162ed	0.11005197
157	0xbeb1b10e	-0.34705395
158	0xbdeb6b6a	-0.11495097
159	0x3db4d689	0.08829982
160	0xbd0004d3	-0.0312546
161	0xbd2d0bde	-0.042247646
162	0xbe90cd24	-0.2828151
163	0x3e881387	0.26577398
164	0x3da99817	0.08280962
165	0x3df46590	0.11933434
166	0x3e31dd7a	0.17369643
167	0xbefebddc	-0.49754226
168	0x3ca947e1	0.020664157
169	0x3d6e5d03	0.05819417
170	0x3d961e94	0.07330051
171	0xbe6e7de7	-0.23290215
172	0xbe99b32a	-0.30019504
173	0xbd020c87	-0.03175023
174	0xbd91e1a6	-0.07123117
175	0xbec1dae7	-0.37862322
176	0xbda6ddf6	-0.081478044
177	0xbec603b4	-0.386747
178	0xbd167221	-0.036729936
179	0xbdef2e1f	-0.11678719
180	0xbe23b3a8	-0.15986502
181	0x3ebe9f7d	0.37231055
182	0xbd3987c3	-0.045295488
183	0x3e97ce05	0.29649368
184	0x3e159c90	0.14610505
185	0xbdd0dba5	-0.10198144
186	0xbeb409c4	-0.351637
187	0x3e8a9bd7	0.2707202
188	0xbe8cb07d	-0.274784
189	0xbeda346b	-0.42618117
190	0x3f096148	0.53664064
191	0x3dfccf91	0.12344278
192	0xbd50ce0f	-0.050977763
193	0xbedf32e1	-0.43593505
194	0x3e016b16	0.12638506
195	0xbe462e57	-0.19353615
196	0xbdebd37c	-0.11514947
197	0xbecc20fb	-0.39868912
198	0x3ec006ab	0.37505087
199	0x3eba4e82	0.36388022
200	0xbba51010	-0.005037315
201	0x3eacb8c4	0.33734715
202	0xbe309cb5	-0.17247279
203	0xbe4b2130	-0.19836879
204	0xbd7598b1	-0.05996007
205	0x3e96144d	0.29312363
206	0x3e9df9b1	0.30854562
207	0xbf038373	-0.5137245
208	0xbe806240	-0.2507496
209	0x3e320e58	0.17388284
210	0x3ed32d4d	0.412455
211	0xbe86004f	-0.2617211
212	0x3d4dcb64	0.050242797
213	0xbe9f78cc	-0.31146848
214	0xbdefc29c	-0.11707041
215	0xbe3a7862	-0.18209985
216	0x3e6d733c	0.2318849
217	0xbf0dc620	-0.5538044
218	0xbea70d39	-0.32627276
219	0xbe3f9a6c	-0.18711251
220	0x3d1be6e9	0.03806201
221	0xbea16dcb	-0.31529078
222	0xbe9de791	-0.30840734
223	0x3dd2e950	0.10298407
224	0x3e5dff5d	0.21679445
225	0x3e323445	0.17402752
226	0x3e82fb4f	0.25582358
227	0x3ec477a6	0.38372535
228	0x3de7728e	0.113011464
229	0xbee8d347	-0.45473692
230	0x3cafd217	0.021462483
231	0xbed096a1	-0.4073992
232	0x3e545203	0.2073441
233	0xbdf8b0f2	-0.12143125
234	0xbea9a54f	-0.33133933
235	0xbcae8a70	-0.021306247
236	0xbddd5b58	-0.10808438
237	0x3dca0a06	0.09865193
238	0x3e8db32b	0.27675757
239	0x3e1daa64	0.1539703
240	0xbe2baad1	-0.1676438
241	0xbee2a7d6	-0.44268674
242	0xbe8a426d	-0.27003804
243	0x3e929320	0.28627872
244	0x3df7f406	0.12107091
245	0xbd8f9a21	-0.0701182
246	0xbe0222b6	-0.12708554
247	0x3dcbe978	0.0995664
248	0x3de53d15	0.11193291
249	0x3da71613	0.08158507
250	0x3e6f05aa	0.23342004
251	0xbee39d64	-0.44456017
252	0xbe47c6e9	-0.19509472
253	0xbe509217	-0.20368229
254	0xbe4e6230	-0.20154643
255	0x3e244517	0.1604198

fc1.bias f4 [128]
0	0x3e79d420	0.24397326
1	0x3e1830b7	0.14862333
2	0xbdaba23e	-0.083805546
3	0x3e948e37	0.2901475
4	0xbe20e0ce	-0.15710756
5	0xbe380788	-0.17971623
6	0x3e18dda5	0.149283
7	0xbde37734	-0.111067206
8	0x3d3fea3f	0.046854254
9	0x3dd8f767	0.10594063
10	0xbd6039d5	-0.054742653
11	0xbe64f4dd	-0.22359033
12	0x3e4c3bdf	0.19944714
13	0xbe06f61b	-0.1317982
14	0x3e76fe30	0.24120402
15	0xbe009c91	-0.12559725
16	0x3cc3e489	0.023912685
17	0x3dd7ebed	0.10543046
18	0x3de5bc22	0.11217524
19	0x3ce7373a	0.028224576
20	0x3e073627	0.13204251
21	0x3c726e56	0.014796814
22	0x3e1ca811	0.15298487
23	0xbe9ac2f9	-0.30226877
24	0x3dacebb1	0.08443392
25	0x3e7eb8ed	0.24875231
26	0xbe787684	-0.2426396
27	0x3e52e16f	0.20593809
28	0x3b39f387	0.0028373913
29	0x3d9c8646	0.07642798
30	0x3d0731a0	0.03300631
31	0x3d898a47	0.067158274
32	0x3d598fbb	0.053115588
33	0xbe9f1804	-0.3107301
34	0xbdbb570d	-0.09147463
35	0xbda48353	-0.080328606
36	0x3da5e15f	0.08099627
37	0xbe29efdb	-0.16595404
38	0x3e54c714	0.20779067
39	0x3ddba272	0.10724343
40	0x3c46e22b	0.012138884
41	0x3e81adec	0.25328004
42	0xbe78fa48	-0.24314225
43	0xbe53822a	-0.20655122
44	0x3e3c1d6b	0.18370597
45	0xbd8b2b0d	-0.06795321
46	0x3cefb5ce	0.029261496
47	0x3e87d74d	0.2653145
48	0x3df3760f	0.11887752
49	0xbd38fe94	-0.04516466
50	0xbd8f33f5	-0.06992332
51	0xbced9ef7	-0.029006464
52	0x3e1c34ae	0.1525447
53	0x3e0eb17e	0.13934895
54	0x3dece66b	0.11567386
55	0xbe01769e	-0.12642905
56	0xbd9aa7de	-0.075515494
57	0xbd7a60f1	-0.061127607
58	0xbe9f71c9	-0.311415
59	0x3e0a4dda	0.1350626
60	0xbe4a8c30	-0.1978004
61	0xbd11dc82	-0.035610683
62	0xbd97f6a6	-0.07420091
63	0x3dd06cc2	0.10176994
64	0x3e2ae88d	0.16690274
65	0xbb86e9af	-0.0041172127
66	0xbc448b98	-0.011996172
67	0x3db2f514	0.08738151
68	0xbb8d0ca1	-0.004304484
69	0x3e7e3458	0.24824655
70	0xbe5a141b	-0.21296732
71	0xbe03ba08	-0.12863934
72	0x3c8bd20e	0.017067935
73	0xbda5975c	-0.0808551
74	0xbe1c9d0e	-0.15294287
75	0xbdcaf3a4	-0.09909752
76	0xbe6cd4a0	-0.23127985
77	0x3d813999	0.06309814
78	0x3df59bef	0.119926326
79	0xbdeeb9ca	-0.1165653
80	0x3ddb4172	0.10705842
81	0x3c8db107	0.017296327
82	0xbe90f841	-0.28314403
83	0xbd888a83	-0.06667044
84	0xbc1b2aee	-0.009470684
85	0x3dc11778	0.094283044
86	0x3da4e9d6	0.08052413
87	0xbbfb619d	-0.0076715485
88	0xbc529819	-0.012853646
89	0x3c853a43	0.016263133
90	0x3bd55e09	0.006511454
91	0xbdb93e89	-0.09045131
92	0x3d5a635e	0.05331742
93	0x3e483dc3	0.1955481
94	0x3e20ff9d	0.15722509
95	0xbd88f699	-0.0668766
96	0xbe3dcacb	-0.1853439
97	0x3e4e3746	0.20138273
98	0xbe4bb019	-0.19891395
99	0xbd9fde67	-0.07806092
100	0x3dd24cfb	0.10268589
101	0xbe4365d7	-0.19081818
102	0xbe2856c2	-0.16439345
103	0xbd606bb2	-0.054790206
104	0x3d3f0ed2	0.046644993
105	0x3e425ae5	0.18979986
106	0xbe8ac106	-0.2710039
107	0x3e70f95b	0.23532622
108	0xbe80783b	-0.2509173
109	0x3e2e7fdb	0.1704096
110	0x3e12e1e8	0.14343989
111	0xbe8faf91	-0.28063634
112	0xbe91b656	-0.28459424
113	0x3d60337a	0.054736592
114	0xbe586b0e	-0.21134588
115	0xbd214145	-0.039368887
116	0xbe4d2c18	-0.20036352
117	0xbe347da0	-0.17626047
118	0x3e424b4a	0.18974033
119	0xbd65d03d	-0.056106795
120	0xbe3e1a37	-0.18564688
121	0x3da0d99e	0.07854007
122	0xbe1a2cfc	-0.15056223
123	0xbbf5ce5b	-0.007501406
124	0xbda10997	-0.07863157
125	0x3e81a273	0.2531925
126	0xbd964eff	-0.07339286
127	0x3ea37927	0.3192837

fc2.weight f4 [128, 128]
0	0x3d02292a	0.03177754
1	0x3c67c906	0.014147049
2	0xbdc7f47f	-0.09763431
3	0xbb7176f1	-0.0036844576
4	0x3d9ac583	0.075572036
5	0xbbbddbfc	-0.0057940464
6	0x3c9f35bc	0.019434802
7	0xbd9afb18	-0.075674236
8	0xbdaae924	-0.08345249
9	0x3d82cd4a	0.06386812
10	0xbd3f2d59	-0.046674106
11	0x3d9dbb03	0.07701685
12	0x3bb4b8d6	0.005515198
13	0xbbd8d9b1	-0.0066177477
14	0xbdcc9b20	-0.09990525
15	0x3c40fbdd	0.011778799
16	0xbd8c6ac9	-0.06856305
17	0xbd379335	-0.044818122
18	0xbca9f142	-0.020744924
19	0xbc28c0d6	-0.010299882
20	0x3c2de2ef	0.010613187
21	0xbcfe3a1e	-0.031033572
22	0xbd96030e	-0.073248014
23	0x3c4a244f	0.012337758
24	0x3d57d3f6	0.052692376
25	0xbd15e736	-0.036597453
26	0xbd43fc13	-0.04784782
27	0xbdd36034	-0.10321084
28	0xbdde5e1c	-0.10857794
29	0x3d545896	0.051842295
30	0xbce4d1a8	-0.027932003
31	0x3d7e24b7	0.062046733
32	0x3d181587	0.037129905
33	0xbda6264f	-0.081127755
34	0xbd81712c	-0.06320414
35	0xbd645e30	-0.055753887
36	0xbd65b6ad	-0.056082416
37	0xbd4ddb3d	-0.05025791
38	0x3bb7a128	0.005603928
39	0xbc9b997c	-0.018994085
40	0xbd21cfde	-0.03950488
41	0xbde371e9	-0.11105711
42	0x3d6764e9	0.05649272
43	0xbda5c54b	-0.08094271
44	0xbdf3c16a	-0.11902125
45	0x3c5ea6d1	0.013589577
46	0xbdb24e9b	-0.08706399
47	0x3d089ec7	0.033354547
48	0xbd9e2239	-0.07721371
49	0xbdd3d3f6	-0.10343163
50	0x3c0f42ca	0.008743951
51	0xbdfac29c	-0.1224415
52	0xbd39990a	-0.045311965
53	0xbc99af66	-0.018760394
54	0xbd0a91ed	-0.033830572
55	0xbd326b71	-0.043559495
56	0xbdc4d35f	-0.09610628
57	0xbc74d2e5	-0.014942859
58	0x3bc858ca	0.0061141
59	0x3bb9a2a9	0.0056651426
60	0xbdcb1807	-0.09916692
61	0x3d4bec46	0.049785875
62	0xbd4e12d8	-0.05031094
63	0x3ca7335e	0.020410236
64	0x3da86eae	0.082242355
65	0x3c8a6024	0.016891547
66	0xbd675434	-0.056476787
67	0x3d71587b	0.058922272
68	0x3d78035e	0.060550086
69	0xbd55dbb2	-0.05221147
70	0x3d743ceb	0.05962841
71	0xbc61d545	-0.013783758
72	0xbd844c1c	-0.06459829
73	0xbc9635ab	-0.018336138
74	0x3c9f80bf	0.01947057
75	0xbcda9abe	-0.026685115
76	0x3d643a91	0.055719916
77	0xbdd333f8	-0.103126466
78	0x3ba98b06	0.0051740436
79	0xbcf0f0bd	-0.029411668
80	0xbd7f3eca	-0.06231574
81	0xbd4a0afd	-0.049326885
82	0xbad00fad	-0.0015873812
83	0xbc983ea9	-0.018584566
84	0xbdce5bda	-0.10076113
85	0xbd884977	-0.06654637
86	0x3d0ca44c	0.034336373
87	0xbdc5d4aa	-0.09659703
88	0xbddef104	-0.10885814
89	0xbb9dc39b	-0.0048145778
90	0x3d356390	0.044284403
91	0xbd9e9021	-0.07742334
92	0xbd304753	-0.04303677
93	0x3cd22b43	0.025655394
94	0xbd2a51ba	-0.041581847
95	0xbde6ce55	-0.112698235
96	0xbd52ea54	-0.051493004
97	0x3c17bfd8	0.009262048
98	0x3c2c0fa2	0.010501774
99	0xbd945ce4	-0.0724428
100	0xbd532bfc	-0.05155562
101	0xbbc1192d	-0.0058928938
102	0x3d310e87	0.043226745
103	0x3bd341b0	0.0064470395
104	0xbd78015a	-0.060548164
105	0x3b543487	0.0032379942
106	0x3c1fa810	0.009744659
107	0x3d7e0a8c	0.062021777
108	0x3ccb043d	0.024782294
109	0x3b5c8c3c	0.0033652922
110	0xbdc4c3a8	-0.09607631
111	0x3d1afb5e	0.03783738
112	0xbcd81358	-0.026376411
113	0x3d05979c	0.03261529
114	0xbde2ce96	-0.110745594
115	0xbd26b9a1	-0.040704373
116	0xbd2c2ffd	-0.042037953
117	0x3c91a303	0.017777925
118	0xbcbf2d54	-0.023337044
119	0xbdbdfaef	-0.092763774
120	0x3d80eebc	0.06295535
121	0xbc8acb68	-0.016942695
122	0xbd80c9eb	-0.06288513
123	0x3d18b444	0.03728129
124	0xbdb4d16e	-0.08829008
125	0xbd296d2a	-0.041363873
126	0x3c592e7c	0.013255712
127	0xbdf17394	-0.11789623
128	0xbb31c233	-0.0027123808
129	0x3ca89a7f	0.020581482
130	0x3ddd8530	0.10816419
131	0xbd0520a4	-0.03250183
132	0xbdba3a8f	-0.090932004
133	0xbcbdfff0	-0.02319333
134	0x3c9485a0	0.018130124
135	0x3e029154	0.12750751
136	0x3cc6fbc2	0.02428997
137	0x3d2512b7	0.04030105
138	0x3e47051b	0.19435541
139	0xbe249207	-0.1607133
140	0x3a8dac1f	0.0010808742
141	0x3d583521	0.052785043
142	0x3e45e1cf	0.1932442
143	0xbdfe68d1	-0.12422336
144	0x3e1d32dc	0.15351433
145	0x3e296897	0.16543804
146	0x3e5d4915	0.2160991
147	0x3d8b5b89	0.06804568
148	0xbda0d05e	-0.07852243
149	0xbe3e0470	-0.1855638
150	0xbd43a3ed	-0.047763754
151	0xbe36d1b6	-0.17853436
152	0x3ce199b7	0.027539117
153	0x3e3c8332	0.18409422
154	0xbe91265b	-0.28349575
155	0xbd527e23	-0.051389825
156	0xbdfc1ad5	-0.12309805
157	0x3d9b7c7e	0.075921044
158	0x3c1f76fe	0.00973296
159	0x3c14c1cf	0.009079411
160	0xbd70d78b	-0.058799308
161	0xbda8f376	-0.082495615
162	0x3b18a067	0.0023288967
163	0xbc33a669	-0.010964968
164	0x3da909bf	0.08253812
165	0xbe1f3bac	-0.15550107
166	0x3d833bdc	0.06407902
167	0xbdabd06a	-0.08389361
168	0x3c7324ac	0.014840286
169	0x3c350cc0	0.011050403
170	0x3db3f085	0.0878611
171	0xbe7fbbf5	-0.24974044
172	0x3d81207c	0.06305024
173	0xbc2d55f5	-0.010579576
174	0xbe276b44	-0.16349512
175	0x3db3c0e4	0.08777025
176	0x3de74281	0.112919815
177	0xbe08616e	-0.13318416
178	0xbe2af4a5	-0.16694887
179	0x3cdc7bf5	0.026914576
180	0x3c2dfda9	0.010619559
181	0x3df5c92f	0.12001263
182	0x3d7ba014	0.06143196
183	0x3d5e2cb6	0.05424186
184	0xbdc360a2	-0.095399156
185	0x3df0a569	0.117502995
186	0xbdb9adb3	-0.090663336
187	0x3d240e83	0.040052902
188	0xbe0df212	-0.13861874
189	0x3e0c22b5	0.13685115
190	0xbd1baf6a	-0.038009085
191	0x3e164356	0.14674124
192	0xbd8bdb71	-0.068289645
193	0xbd63d4e4	-0.05562295
194	0x3d6b261c	0.05740939
195	0x3de71e4b	0.11285075
196	0xbdc47333	-0.09592285
197	0xbc8939bd	-0.016751165
198	0xbd8454ca	-0.06461485
199	0x3cb1c644	0.021700986
200	0xbda2e145	-0.07953123
201	0xbdcac104	-0.09900096
202	0x3cd0a20b	0.025467893
203	0xbd211db4	-0.039334968
204	0xbd8cf9ef	-0.068836085
205	0x392bc001	0.00016379358
206	0xbd2ac189	-0.041688476
207	0x3a2bd9a3	0.0006555563
208	0x3db84f5e	0.08999513
209	0x3deadf9f	0.114684336
210	0xbe11d5d5	-0.14241727
211	0xbd645c89	-0.05575231
212	0xbd9e7ec1	-0.0773902
213	0x3dbdc918	0.09266871
214	0x3e1cdf5d	0.15319581
215	0xbe24ff79	-0.1611308
216	0x3cbd8325	0.023133824
217	0xbe056c29	-0.13029541
218	0xbda30cfd	-0.07961462
219	0xbdcadc64	-0.099053174
220	0xbdad1a4d	-0.08452282
221	0x3cb89e1d	0.022536332
222	0xbde56c20	-0.11202264
223	0x3dfa8b00	0.122335434
224	0x3d57b4b2	0.05266256
225	0x3dfec721	0.124403246
226	0x3e0c2af4	0.1368826
227	0xbcf1ffc0	-0.029540896
228	0x3c577fa9	0.013152995
229	0x397c1e7b	0.00024043948
230	0x3c0468b6	0.008081606
231	0x3db78269	0.08960421
232	0x3e811f30	0.25219107
233	0xbda14352	-0.078741685
234	0xbcc6a37a	-0.024247874
235	0x3e256d3e	0.16154954
236	0x3d54b3c4	0.05192925
237	0x3d0e8509	0.03479484
238	0x3da4c07b	0.08044525
239	0xbd0bdfc1	-0.034148935
240	0xbd9e3a5e	-0.077259764
241	0x3b5fd6eb	0.00341552
242	0xbd4abc43	-0.049495947
243	0x3e091370	0.13386321
244	0x3dfde1dd	0.123965956
245	0xbe4036d9	-0.18770923
246	0x3dcfcfde	0.101470694
247	0x3da96dd9	0.08272905
248	0xbc934d40	-0.017981172
249	0x3e24f105	0.16107567
250	0xbd9e2f2c	-0.07723841
251	0xbe29f652	-0.1659787
252	0x3e5ac6f6	0.2136496
253	0xbd83ec1e	-0.0644152
254	0x3e34dca2	0.1766229
255	0x3dc8b0d3	0.097993515

fc2.bias f4 [128]
0	0xbd2f9384	-0.04286529
1	0xbbac5483	-0.005259098
2	0x3da52f70	0.080656886
3	0xbd439aa9	-0.047754917
4	0x3c855449	0.016275542
5	0x3d2724da	0.04080663
6	0x3d9920c4	0.07476953
7	0xbcf9b1da	-0.030480314
8	0x3c048690	0.008088723
9	0x3d44d0b6	0.048050605
10	0xbdad16a6	-0.084515855
11	0x3d841a9e	0.06450389
12	0xbd7e1787	-0.062034156
13	0x3c60545c	0.013691988
14	0xbd216f21	-0.03941262
15	0xbae56b85	-0.0017503357
16	0x3d6e9ad8	0.05825314
17	0xbcdaa269	-0.026688771
18	0x3ba88c6d	0.005143693
19	0x3c2a24e0	0.010384768
20	0x3d1d58eb	0.038414877
21	0x3d1674bf	0.03673243
22	0x3a729773	0.0009254135
23	0x3dd049d3	0.10170331
24	0xbb10ddc8	-0.0022104848
25	0x3d236afe	0.039896958
26	0xbcfd1b7b	-0.030896893
27	0x3d3755a3	0.044759404
28	0xbdc7900a	-0.0974427
29	0xbd3bd74d	-0.045859624
30	0xbd3374ab	-0.043812435
31	0xbd060aca	-0.032725133
32	0xbd4e0f5d	-0.05030762
33	0xbdb1e4b7	-0.08686202
34	0xbd8688fc	-0.065690964
35	0xbdec6f2a	-0.1154464
36	0x3cbd0718	0.023074672
37	0xbd8d6581	-0.06904126
38	0x3d744775	0.05963846
39	0xbd1c759d	-0.038198102
40	0xbdbbc08d	-0.091675855
41	0xbd37daf2	-0.044886537
42	0xbce6c8f2	-0.02817199
43	0xbd62c4c3	-0.055363428
44	0xbbb0f804	-0.0054006595
45	0x3df85587	0.12125688
46	0xbd7e7c42	-0.06213022
47	0xbc92e90d	-0.017933393
48	0x3d54c36b	0.051944178
49	0xbc3c5185	-0.011494045
50	0x3d94df8f	0.07269203
51	0x3c5437a4	0.012952719
52	0xbd39b446	-0.045337938
53	0x3d450be0	0.048107028
54	0x3d49b5ae	0.04924553
55	0x3d5f58e4	0.054528132
56	0xbc658066	-0.014007663
57	0x3bdf6101	0.0068169837
58	0xbdad7f64	-0.084715635
59	0x3d3aa3aa	0.04556624
60	0xbd014036	-0.031555377
61	0xbd9742f5	-0.07385818
62	0xbb1cd573	-0.0023930937
63	0x3d9650d0	0.073396325
64	0x3cf8b11b	0.030357888
65	0x3d0da0db	0.03457723
66	0xbd13aec7	-0.036055353
67	0xbd0d5c4d	-0.034511853
68	0xbd282a14	-0.041055754
69	0x3d2cea53	0.042215656
70	0xbd0f20dc	-0.034943447
71	0xbd141171	-0.036149446
72	0xbdb88581	-0.09009839
73	0x3cc6962f	0.024241535
74	0x3cd8502c	0.026405416
75	0xbdf49e1f	-0.11944222
76	0xbdc0d264	-0.09415129
77	0x3e137f94	0.14404136
78	0x3e57ecc0	0.21086407
79	0x3d0eeaf8	0.034892052
80	0x3d89e3db	0.06732913
81	0x3d978029	0.073974915
82	0xbcbbb510	-0.022913486
83	0x3b87326b	0.0041258833
84	0xbd1fec54	-0.03904374
85	0xbcb783e9	-0.022401767
86	0x3dc5cdb3	0.09658375
87	0xbd85e2ed	-0.06537423
88	0xbd91753b	-0.07102438
89	0xbd0efc5e	-0.034908645
90	0x3c67c2ff	0.014145612
91	0xbc8cd027	-0.017189099
92	0x3c611ba7	0.013739503
93	0xbdd0e897	-0.10200613
94	0x3a1fea88	0.00061003165
95	0xbded89b4	-0.115985304
96	0x3c910fc6	0.017707717
97	0xbdc5cee9	-0.096586056
98	0x3e32f1da	0.17475072
99	0x3ca61a0d	0.020276094
100	0xbc5cd039	-0.0134773785
101	0xbd9ce7aa	-0.07661374
102	0x3ca8a402	0.020586018
103	0x3c739ab3	0.014868426
104	0x3cb64e5e	0.022254165
105	0x3dbf865d	0.093518
106	0xbb2086a7	-0.0024494322
107	0xbb04abe3	-0.0020244054
108	0xbd76b465	-0.06023063
109	0xbd178a34	-0.036997035
110	0x3dfbeedc	0.12301418
111	0xbd16650d	-0.036717463
112	0xbe3a6403	-0.18202214
113	0x3d10429a	0.035219766
114	0xbd0674a9	-0.0328261
115	0xbd998800	-0.07496643
116	0x3bcf4360	0.0063251704
117	0x3d61247d	0.05496644
118	0xbc81fd06	-0.015867721
119	0xbba083d5	-0.004898528
120	0xbd9fcc5c	-0.0780265
121	0x3d4520c2	0.048126943
122	0x3b8d46b6	0.004311408
123	0xbe18bc76	-0.14915642
124	0xba2e145b	-0.00066406064
125	0xbc98fa59	-0.018674063
126	0xbd4df13f	-0.0502789
127	0x3d81dca2	0.063409105

mu.weight f4 [5, 128]
0	0xbc31b814	-0.01084711
1	0x3db791d4	0.089633614
2	0x3e71b34d	0.23603554
3	0x3d924b88	0.07143313
4	0xbcb07e39	-0.021544563
5	0xbcca4e3d	-0.02469551
6	0x3e582103	0.21106343
7	0x3c6e8244	0.014557425
8	0xbd8411a9	-0.06448681
9	0x3dbaeebe	0.09127568
10	0x3dd39e04	0.103328735
11	0xbc990400	-0.018678665
12	0xbd4ff462	-0.05077017
13	0xbd988efe	-0.074491486
14	0xbe2cc405	-0.1687165
15	0x3e13d7ab	0.1443774
16	0xbe0e2bd1	-0.13883902
17	0xbc9bb462	-0.019006912
18	0xbd22f5a3	-0.03978504
19	0x3c3c88b9	0.011507207
20	0xbdca4a1f	-0.09877419
21	0xbe1ad868	-0.15121615
22	0x3eadcf7b	0.33947358
23	0x3bacc068	0.00527196
24	0x3e072d5d	0.13200898
25	0x3e07f855	0.13278325
26	0x3c3e7662	0.011624904
27	0x3e0d1e79	0.13781156
28	0x3e91d4a0	0.28482533
29	0x3b339a76	0.0027405298
30	0xbd6df9e8	-0.058099657
31	0xbd14d2bf	-0.036333796
32	0xbc0ec1fb	-0.008713241
33	0xbacf7eb9	-0.0015830613
34	0xbd6d7b08	-0.05797866
35	0x3db84022	0.08996607
36	0xba400866	-0.000732547
37	0xbe3dcf89	-0.185362
38	0xbdbf7aee	-0.09349619
39	0x3da17bef	0.078849666
40	0xbe32c6bf	-0.17458628
41	0xbdbb01c0	-0.09131193
42	0xbcdc1efa	-0.02687024
43	0x3d6787a4	0.05652584
44	0x3e4909bb	0.19632618
45	0x3d441bca	0.047878064
46	0x3d29067d	0.041265953
47	0x3d1b2518	0.037877172
48	0x3d525db5	0.051358897
49	0xbdf9da92	-0.12199892
50	0xbddbc97f	-0.10731792
51	0x3c8c0aa5	0.01709492
52	0xbeb3b6a0	-0.3510027
53	0xbd9f17df	-0.07768225
54	0x3c9fc6f3	0.019504046
55	0xbe434ccf	-0.19072269
56	0x3e7d32b9	0.2472638
57	0x3d23aa9c	0.039957628
58	0xbd540be0	-0.051769137
59	0xbe682f1d	-0.22674222
60	0x3dc44dd0	0.09585154
61	0x3e472b12	0.19450024
62	0x3e3bdee3	0.18346743
63	0xbde5e7aa	-0.11225827
64	0xbdd7c30c	-0.10535249
65	0xbe061289	-0.13093008
66	0x3d9bc334	0.076055914
67	0xbd972afc	-0.073812455
68	0x3e22c4ce	0.15895388
69	0x3e150629	0.14553131
70	0xbdbe2d64	-0.09286001
71	0xbd029b7b	-0.03188656
72	0xbea51d6b	-0.32249007
73	0x3dabe574	0.08393374
74	0x3de2e615	0.11079041
75	0xbdd520e0	-0.10406661
76	0xbc2995dd	-0.010350672
77	0x3e67d140	0.22638416
78	0x3cbb8f2a	0.022895414
79	0xbe048c93	-0.1294425
80	0xbdc66bf0	-0.09688556
81	0x3e492bd4	0.19645625
82	0x3d8fc9be	0.07020901
83	0x3e65f133	0.22455291
84	0x3be94ae6	0.0071195243
85	0xbdd71466	-0.105019376
86	0x3d47bcfd	0.048764218
87	0xbd0ada6c	-0.03389971
88	0x3d59f906	0.053216003
89	0x3be828b5	0.007084931
90	0xbdb81355	-0.08988062
91	0xbc9f91b4	-0.019478656
92	0x3e14c938	0.14529884
93	0xbe12001c	-0.14257854
94	0x3dfd21af	0.1235994
95	0x3c3e801f	0.011627226
96	0xb6a78200	-4.992122e-06
97	0xbd76d26f	-0.06025928
98	0x3ae1ea5d	0.0017235983
99	0x3dbad7f0	0.09123218
100	0xbe45402f	-0.19262765
101	0xbdbac1e4	-0.09119013
102	0x3d963064	0.073334485
103	0x3e5f9c9d	0.21837087
104	0x3ce35d92	0.027754579
105	0x3eace314	0.33766997
106	0xbd0edcc4	-0.034878507
107	0xbe65d378	-0.2244395
108	0x3d1b6e2b	0.03794686
109	0xbe83fc29	-0.2577832
110	0x3be5bcdb	0.0070110387
111	0x3c9a04d0	0.018801123
112	0x3cc73bbe	0.02432048
113	0x3e5bda21	0.21469928
114	0x3cbeefd3	0.023307716
115	0x3e0ab483	0.13545422
116	0xbd39230d	-0.045199443
117	0x3e174539	0.147725
118	0xbdf4e1c4	-0.11957124
119	0xbe030135	-0.12793429
120	0x3d7642e4	0.060122386
121	0xbe5281e4	-0.20557362
122	0x3d96f5c4	0.07371095
123	0xbdf9d3ca	-0.12198599
124	0xbc766ec0	-0.015041053
125	0x3e061add	0.13096185
126	0x3ca849f1	0.02054307
127	0xbe149018	-0.14508092
128	0x3d5c6736	0.053809367
129	0xbd98f2b5	-0.07468168
130	0xbd6bfe55	-0.057615597
131	0x3d82f868	0.06395036
132	0x3e10f018	0.14154088
133	0x3d16a6c4	0.036780134
134	0xbd9ce563	-0.076609395
135	0xbd6e45fe	-0.05817222
136	0x3e0f4747	0.13992034
137	0x3c4fdc82	0.0126868505
138	0x3bb7e7d7	0.0056123543
139	0x3d85fb2f	0.0654205
140	0x3c049450	0.008092001
141	0xbd815145	-0.06314329
142	0x3cccd3a1	0.025003256
143	0x3e402427	0.18763791
144	0x3e1baf6c	0.15203637
145	0xbbd4b8d0	-0.006491758
146	0xbe066296	-0.13123545
147	0x3c8f2035	0.017471412
148	0xbccbe52a	-0.024889547
149	0xbbaf09e0	-0.0053417534
150	0xbd5df3cc	-0.05418758
151	0xbe4a32bf	-0.1974592
152	0x3cd05b33	0.025434112
153	0x3df12f93	0.11776652
154	0x3d7a2c40	0.061077356
155	0x3de6719d	0.11252139
156	0xbcab215d	-0.020889932
157	0x3cece2b6	0.028916698
158	0xbcc44790	-0.023959905
159	0x3df964da	0.12177439
160	0xbdc5ded3	-0.09661641
161	0x3d034f5b	0.0320581
162	0x3d95b77f	0.0731039
163	0x3d98ebdb	0.07466861
164	0x3dd22be0	0.10262275
165	0xbd90dc0a	-0.07073219
166	0xbd213170	-0.039353788
167	0xbd93c538	-0.07215351
168	0x3cef28e8	0.02919431
169	0xbceaf600	-0.028681755
170	0xbb9e46af	-0.0048302035
171	0x3d9ca875	0.07649318
172	0x3e8e309a	0.27771455
173	0x3e5c62f2	0.2152212
174	0xbda5eccf	-0.08101808
175	0xbe8ca4a4	-0.2746936
176	0x3e7b8c70	0.24565291
177	0x3e45b0d3	0.19305734
178	0x3e536a72	0.20646074
179	0x3bd05e96	0.006358932
180	0xbdbaf151	-0.09128059
181	0xbcd1e3f6	-0.025621396
182	0x3dd6ea96	0.104939625
183	0xbd826f7c	-0.0636892
184	0xbe5c5e64	-0.21520382
185	0x3e6d7baa	0.23191705
186	0x3e48d08b	0.19610803
187	0xbe807cc4	-0.2509519
188	0xbe46ff08	-0.19433224
189	0x3e01b4b3	0.12666588
190	0x3d0c0aa2	0.034189828
191	0xbe61efd7	-0.22064148
192	0x3cd50424	0.026002951
193	0x3c966c9a	0.018362332
194	0x3e58295c	0.21109527
195	0xbe1a3b53	-0.15061693
196	0xbcb5fc3f	-0.022215007
197	0xbe36b314	-0.1784175
198	0xbdbd67cc	-0.09248313
199	0x3d30c511	0.043156687
200	0x3e2b4ff6	0.16729721
201	0x3d4fa6ca	0.05069617
202	0x3dc6a8dc	0.09700176
203	0x3c873db1	0.016508909
204	0x3dc21080	0.094758034
205	0xbd789f6b	-0.060698908
206	0xbe663bc0	-0.2248373
207	0xbc29ba2b	-0.010359327
208	0xbde617d6	-0.11235015
209	0x3d6c4abc	0.05768846
210	0x3cb7af4e	0.022422459
211	0x3e10da56	0.14145789
212	0x3e2ec034	0.17065507
213	0xbe41016b	-0.18848197
214	0xbe3fb8c5	-0.18722828
215	0x3d927075	0.07150356
216	0xbe4018e9	-0.18759502
217	0xbb1a9700	-0.0023588538
218	0x3eb9ab93	0.36263713
219	0x3ddfffbb	0.109374486
220	0x3d36710e	0.04454141
221	0x3d52eac6	0.05149343
222	0x3e1bdd9b	0.15221255
223	0x3d93ad1c	0.07210752
224	0x3e00370f	0.12521003
225	0xbdd4008a	-0.10351665
226	0x3e0cac2b	0.13737552
227	0xbc21a6a4	-0.00986639
228	0x3dd856e1	0.10563446
229	0x3c80b409	0.015710847
230	0x3e2c4d3d	0.16826339
231	0x3d95731f	0.07297348
232	0x3e63b938	0.22238624
233	0x3d247694	0.040152147
234	0xbbc3f3bd	-0.0059799836
235	0x3d943dd8	0.07238358
236	0x3d6ba367	0.05752888
237	0x3e282cc4	0.16423327
238	0x3dffdc6c	0.12493214
239	0xbdc9ffc8	-0.098632395
240	0xbd347233	-0.04405422
241	0xbd26d84d	-0.040733624
242	0xbdd979ad	-0.10618911
243	0xbd3e1726	-0.046408795
244	0xbe0db047	-0.13836776
245	0x3dabd176	0.08389561
246	0x3daa9a6e	0.083302364
247	0xbe687890	-0.22702241
248	0x3d88616b	0.06659206
249	0xbeb6f163	-0.35731038
250	0xbd86dbb1	-0.065848716
251	0xbe278479	-0.16359128
252	0x3e0bd934	0.13657075
253	0xbe2f016c	-0.17090386
254	0x3dcf98fc	0.10136601
255	0xbc8c7688	-0.017146364

mu.bias f4 [5]
0	0xbd073d1f	-0.033017274
1	0xbd54a0d4	-0.05191119
2	0x3c895454	0.016763844
3	0x3dc8df27	0.09808188
4	0x3de52cc5	0.1119018

log_std.weight f4 [5, 128]
0	0xbe0cdc45	-0.13755901
1	0xbe85067c	-0.2598151
2	0xbd2df3cb	-0.042468827
3	0x3dae31e6	0.08505611
4	0xbe69d609	-0.22835554
5	0xbd7ca24d	-0.06167822
6	0xbe3e4651	-0.18581511
7	0xbd1861a2	-0.037202485
8	0x3cf39f16	0.029738944
9	0xbe973085	-0.29529205
10	0x3d03f112	0.032212324
11	0x3e4b32cb	0.19843595
12	0xbbbb6b12	-0.005719551
13	0xbda3ef7d	-0.08004663
14	0xbe2e5a34	-0.17026597
15	0xbe1e6b1f	-0.15470551
16	0xbe2db98e	-0.16965315
17	0x3cac4967	0.021031095
18	0xbd4ff14c	-0.050767228
19	0xbd88a17f	-0.06671428
20	0xbea83e7b	-0.3286017
21	0xbe941e2c	-0.2892927
22	0x3e0c6771	0.13711335
23	0xbd46fc98	-0.048580736
24	0xbd91441c	-0.07093069
25	0x3b25d1ec	0.0025302125
26	0xbd985eef	-0.07439982
27	0xbce42f17	-0.027854485
28	0x3c703e6e	0.014663322
29	0x3d666b47	0.05625465
30	0x3da4d718	0.080488384
31	0xbd0a59ea	-0.033777155
32	0x3d0c886c	0.03430979
33	0x3df3b873	0.11900415
34	0xbe2c820d	-0.16846485
35	0x3d10fc89	0.035397086
36	0xbe77c00f	-0.24194358
37	0x3e44f39e	0.19233558
38	0xbc40a5be	-0.011758266
39	0x3dafff2a	0.085935906
40	0x3caf4efc	0.021399967
41	0xbd31bdcd	-0.0433939
42	0xbcbe560c	-0.02323439
43	0xbe7528d4	-0.23941356
44	0xbe3422e4	-0.17591435
45	0x3d2fa634	0.042883113
46	0xbd623c1f	-0.055233117
47	0x3a8dc21e	0.0010815298
48	0xbbfa8345	-0.007645043
49	0xbb7dc08f	-0.003871951
50	0xbd636ab5	-0.055521686
51	0x3d37badf	0.04485595
52	0xbd9f4b63	-0.07778051
53	0xbdbfeed6	-0.09371726
54	0xbda99c8c	-0.08281812
55	0xbcb59d90	-0.022169858
56	0x3dbba418	0.09162158
57	0x3d846907	0.06465345
58	0xbc5a9046	-0.0133400615
59	0xbce6d996	-0.028179925
60	0x3be9fde6	0.0071408628
61	0x3d940da9	0.07229168
62	0xbd809461	-0.06278301
63	0xbdd7a637	-0.1052975
64	0xbdeb4f4f	-0.11489736
65	0xbd3899d1	-0.045068566
66	0xbd56eb48	-0.052470475
67	0x3dd0e4d1	0.10199893
68	0x3d23dce3	0.040005576
69	0xbe7e214b	-0.24817388
70	0xbde7ba76	-0.113148615
71	0xbd191a2a	-0.037378468
72	0x3e661c2e	0.22471687
73	0xbd74c2db	-0.05975614
74	0x3d154f8c	0.036452815
75	0x3e532c86	0.20622453
76	0x3d6fb3d3	0.058521103
77	0x3d32f932	0.043694682
78	0x3d9ed568	0.07755548
79	0xbe56707c	-0.20941347
80	0x3d1c8b62	0.038218863
81	0xbdb3ce70	-0.08779609
82	0xbd793d6d	-0.060849596
83	0x3d0ea96f	0.034829553
84	0x3d8fa42b	0.070137344
85	0x3c535f83	0.01290119
86	0x3d8861a1	0.06659246
87	0xbdaa37ee	-0.08311449
88	0x3c8a322c	0.016869627
89	0x3cf34891	0.029697688
90	0x3e50103a	0.2031869
91	0x3d8e5d28	0.06951362
92	0xbcdc9024	-0.0269242
93	0xbd976c09	-0.07393653
94	0x3b54f731	0.003249597
95	0xbda94c04	-0.08266452
96	0x3de32a02	0.11091997
97	0xbd7eec9f	-0.06223738
98	0xbe2cde28	-0.16881621
99	0xbe994d4d	-0.29941788
100	0x3daeeaa4	0.08540848
101	0xbd82ceee	-0.06387125
102	0x3ae9524d	0.0017801017
103	0xbe02d396	-0.12776026
104	0xbe5fe02f	-0.21862863
105	0xbe06d246	-0.1316615
106	0x3d46ba3b	0.048517447
107	0x3dcebd2f	0.10094678
108	0xbd741d4a	-0.059598245
109	0xbdd43a0c	-0.10362634
110	0x3dc3e54b	0.095652185
111	0xbd1a174b	-0.03761987
112	0xbca7f495	-0.020502368
113	0x3cae7c99	0.021299647
114	0xbcde7e33	-0.027159786
115	0xbca50e99	-0.020148562
116	0x3d8f6505	0.0700169
117	0xbdbfff79	-0.093748994
118	0xbea27f37	-0.31737682
119	0xbc70b9d3	-0.014692741
120	0x3cf05426	0.029337
121	0x3e85352b	0.26017126
122	0xbd9cb181	-0.07651044
123	0x3d732dd7	0.05936989
124	0xbe2ff66b	-0.17183845
125	0x3d3615b5	0.044454295
126	0x3d9beed2	0.07613911
127	0xbd8ca71f	-0.06867813
128	0xbba4aa52	-0.0050251866
129	0xbe4f3f35	-0.20238955
130	0xbe3447c0	-0.17605495
131	0x3cf3ae1b	0.029746106
132	0x3cdf1760	0.027232826
133	0xbda1ee79	-0.07906813
134	0x3d1786b9	0.036993716
135	0x3c62ad10	0.013835207
136	0xbae64338	-0.001756764
137	0xbe77ad7e	-0.24187276
138	0x3d533577	0.05156466
139	0xbd9a15cc	-0.07523689
140	0xbd2b5858	-0.041832298
141	0xbd45501e	-0.04817211
142	0xbd29823a	-0.04138396
143	0xbcd6c912	-0.026218925
144	0x3dba4c41	0.090965755
145	0xbdf23b19	-0.11827678
146	0xbe0e2066	-0.13879547
147	0xbd99616f	-0.07489287
148	0xbe6d8c8f	-0.2319815
149	0x3dbe86b5	0.09303037
150	0xbd765a58	-0.060144752
151	0xbe371edd	-0.17882867
152	0x3c32a4e5	0.010903572
153	0x3dc7c661	0.09754635
154	0xbcf6f7e3	-0.030147498
155	0xbe49e5c7	-0.1971656
156	0xbc224f66	-0.009906625
157	0x3cc9287e	0.024555441
158	0x3d90e8e7	0.070756726
159	0x3d61b62a	0.055105366
160	0x3d87f6ad	0.066388465
161	0xbd9be30a	-0.07611664
162	0xbdff72a9	-0.124730416
163	0xbe141be1	-0.1446376
164	0xbd8fe699	-0.07026405
165	0xbda84525	-0.08216313
166	0xbc58c76a	-0.013231138
167	0x3da41730	0.08012235
168	0xbd15de90	-0.036589205
169	0xbc0a44a0	-0.008439213
170	0x3ddfde46	0.10931067
171	0xbd9007d1	-0.07032741
172	0xbdb23491	-0.087014325
173	0xbe36fccb	-0.1786987
174	0xbd351450	-0.044208825
175	0x3c5427c6	0.012948936
176	0x3bf03e3d	0.007331638
177	0x3e4bec26	0.19914302
178	0xbe12e717	-0.14345966
179	0x3d0fd8d3	0.03511889
180	0xbcba392f	-0.022732345
181	0xbdba4b19	-0.09096355
182	0x3cfbdfff	0.030746458
183	0xbc31bd15	-0.010848303
184	0x3d476d1b	0.048688035
185	0xbe1378e2	-0.14401582
186	0x3dcaadc1	0.09896422
187	0xbd80e738	-0.062941015
188	0xbd8c1cae	-0.06841408
189	0x3d3b0a6c	0.045664236
190	0xbe8420bf	-0.25806233
191	0x3cbd1750	0.023082405
192	0xbd199b59	-0.037501667
193	0xbdf099e4	-0.11748102
194	0xbd682905	-0.056679744
195	0x3d66cea1	0.0563494
196	0xbd95b95a	-0.07310744
197	0x3b2dec1d	0.002653844
198	0xbd026a42	-0.031839617
199	0x3e3e8150	0.18604016
200	0x3d3f4597	0.046697225
201	0xbca537d2	-0.020168219
202	0xbde297d6	-0.11064117
203	0xbb6f2b9c	-0.00364945
204	0xbd66edb0	-0.05637902
205	0xbd0776cb	-0.033072274
206	0xbe048b87	-0.1294385
207	0xbddc1eb0	-0.10748041
208	0x3d599e85	0.05312969
209	0xbdc26433	-0.09491768
210	0xbe6c9e51	-0.23107268
211	0xbe0a909e	-0.1353173
212	0xbd9cd0cb	-0.076570116
213	0x3d2328f3	0.039833974
214	0xbdaea7e6	-0.08528118
215	0x3d8a95e4	0.067668706
216	0x3e427fbb	0.18994038
217	0xbcf19b71	-0.029493066
218	0xbbc6d169	-0.006067444
219	0x3da6a42a	0.081367806
220	0xbebfd11c	-0.37464225
221	0x3ae6081a	0.0017550022
222	0xbc811cb0	-0.01576075
223	0xbdb146db	-0.08656093
224	0x3cc8144b	0.024423739
225	0xbe01faf6	-0.1269339
226	0xbd9d8ed8	-0.07693261
227	0xbca2ee1f	-0.019888936
228	0xbd44cff9	-0.0480499
229	0x3d872a73	0.065998934
230	0xbdea4913	-0.11439719
231	0x3d326192	0.04355008
232	0x3cc20cd0	0.02368775
233	0x3d0a45ed	0.033758093
234	0x3d71be44	0.059019342
235	0xbe0e891d	-0.13919492
236	0xbc717204	-0.014736656
237	0xbbd76bb0	-0.0065741166
238	0xbda324f0	-0.0796603
239	0x3e1a97d9	0.15096988
240	0x3d882b89	0.06648929
241	0xbe852899	-0.26007536
242	0xbd44e056	-0.048065506
243	0x3dd3f442	0.10349323
244	0xbdafbdff	-0.08581161
245	0xbb6907fd	-0.003555774
246	0x3d6aca5a	0.057321884
247	0xbcb3dcc0	-0.021955848
248	0x3d8d7157	0.069063835
249	0xbe4a7958	-0.19772851
250	0xbe12ec52	-0.14347962
251	0x3ce0036a	0.027345378
252	0xbe2690be	-0.16266152
253	0xbd8557f7	-0.065109186
254	0x3dafdbbe	0.08586834
255	0xbce75f78	-0.028243765

log_std.bias f4 [5]
0	0xbe241f77	-0.16027628
1	0xbe05cfcb	-0.13067548
2	0xbdd21770	-0.102583766
3	0xbe6075f6	-0.21919999
4	0xbe2895a0	-0.16463327
