resource/multi_run_experiment_20250319_111011/run_2/sac_critic_15000.pth (torch, 155391 bytes, 10 tensors)

fc1.weight f4 [128, 17]
000000 99 e4 19 bd 25 c3 e0 ba 1b f5 9d 3d 5c 88 6a be
       -0.037571523 -0.0017148001 0.07712766 -0.2290358
000010 a3 e9 1c be 0e d2 5a be 34 30 d1 3d fd fe 81 be
       -0.153235 -0.21369192 0.10214272 -0.25389853
000020 8d 68 8c 3d fa bc 43 bd 0c 4b 80 bd 22 55 e0 3d
       0.06855879 -0.047787644 -0.06264314 0.10953738
000030 74 74 80 3d 68 98 e0 3d a1 2d d4 3d e9 2f dd bd
       0.06272212 0.10966569 0.103602655 -0.10800154
000040 27 15 26 be 17 23 03 3e 08 7e 4c 3e 40 58 47 be
       -0.16219006 0.12806354 0.19969952 -0.19467258
000050 a2 67 96 bc 5d 59 be 3d bc d7 7b 3e 88 da 82 3e
       -0.018359963 0.092943884 0.24594015 0.2555735
000060 7c 91 9e 3c b3 23 6d be 24 bb 3a 3e bb db 75 3d
       0.019356482 -0.2315815 0.18235451 0.060024004
000070 0c 7a 9c 3d 97 a8 93 be 83 85 3b be 95 c6 a5 3e
       0.07640466 -0.2883956 -0.1831265 0.3237807
000080 23 a3 cf 3d 6f eb 84 be c3 63 83 3e 22 6e de 3d
       0.10138538 -0.25960872 0.2566205 0.1086085
000090 d1 3a 42 be 08 a7 63 be d2 fb 77 bd 8c 50 e5 bd
       -0.18967749 -0.22231686 -0.06054289 -0.11197004
0000a0 c7 42 84 3b ff 19 06 be 38 1a b1 bb 55 7d 05 be
       0.004036281 -0.13095854 -0.005404737 -0.13036092
0000b0 75 24 24 3e 3c 1d 73 be 5e 38 c1 3d 84 e6 01 3d
       0.16029532 -0.23741621 0.09434579 0.031713977
0000c0 6b 62 a2 3d a2 ff 26 be ea ea 35 3e 0d 9b 54 3e
       0.07928928 -0.16308454 0.17765394 0.20762272
0000d0 4a b9 4e bd ce 50 80 3e d6 9b 24 be 22 e0 bb 3d
       -0.050469674 0.2506165 -0.16075072 0.09173609
0000e0 bc 00 41 3b 55 40 eb bd 1f 7e 16 3e 7b 4f 1e be
       0.00294499 -0.1148688 0.14696549 -0.15460007
0000f0 0a 2a 91 3d f8 b4 ff 3d 48 d2 cc 3d 52 e5 1f 3e
       0.070880964 0.12485689 0.100010455 0.15614823
000100 97 5f 8b 3e a4 76 5e 3d e5 43 30 bd 4b 3a 16 be
       0.27221367 0.054312363 -0.0430335 -0.14670675
000110 a9 bf 5f be 90 e9 14 3e 33 77 2c bd cb ae b3 3c
       -0.21850456 0.14542222 -0.042105865 0.021933934
000120 e0 cf b4 3d af 0e 40 3e b5 17 57 be 62 58 ab bd
       0.088287115 0.18755601 -0.21005137 -0.08366467
000130 c7 df d1 3d 7c 87 4b bc 67 9d e7 3d a9 0a a0 3d
       0.1024776 -0.012422439 0.11309319 0.07814533
000140 4f 79 cd 3d 8c fb 81 3d d5 e0 0c 3e 49 14 5f 3e
       0.100329034 0.06346807 0.13757642 0.21785082
000150 42 b9 27 3e ba 12 7f 3c e0 30 2e 3e 4c 3a b0 be
       0.16379264 0.01556843 0.17010832 -0.34419477
000160 d8 dd 15 bb f3 79 2c bc 9d 09 af 3d c4 48 aa bd
       -0.0022867825 -0.010527122 0.085467555 -0.0831466
000170 6b 86 5e 3e ba 59 a4 bd 25 dc a9 3d 3c 6e da 3d
       0.21730964 -0.080249265 0.08293942 0.10665557
000180 95 d7 85 3e 94 5f 8b 3e 16 69 a4 3d 27 64 a2 3e
       0.2614104 0.27221358 0.08027856 0.31717035
000190 c3 c1 bc 3e 6d 4d cb be cc 82 a6 bd 56 4e 3b 3e
       0.36866578 -0.3970751 -0.08130416 0.18291602
0001a0 92 89 de 3e a5 4e a1 3d ee bc 85 bd 05 83 cf be
       0.43464333 0.078763284 -0.06530176 -0.40529647
0001b0 aa f5 74 be 55 ab 0c be b6 57 47 3e 59 20 7f be
       -0.23921838 -0.13737233 0.19467053 -0.24914683
0001c0 b8 82 89 3e 84 d4 76 3d fa a8 8f 3e 25 5d 9a be
       0.26857543 0.060261264 0.28058606 -0.3014919
0001d0 4c d3 1b be ef 50 2b 3e e5 02 5d be 1c e6 3f bd
       -0.15217322 0.16730092 -0.21583135 -0.04685031
0001e0 1e f7 35 be 8c 0c 8b 3d 7b 70 88 3d 58 f9 ac 3b
       -0.17770049 0.067895025 0.06662079 0.0052787475
0001f0 c0 0f 81 3e cc 75 a3 3c 40 f7 85 3e cc 90 6d 3e
       0.2520733 0.01995363 0.261652 0.23199767
000200 77 0a 94 3e 6b 6d 55 bb d3 58 78 3c e6 40 92 bd
       0.28914234 -0.003256644 0.015157896 -0.07141285
000210 c6 ea ee 3d 21 43 b5 be b4 5d a7 bd 83 20 47 be
       0.11665873 -0.35402778 -0.08172169 -0.19445996
000220 e2 13 b7 be dd 04 10 3e 2a 81 1c 3e 40 d3 2b be
       -0.35757357 0.14064355 0.15283647 -0.16779804
000230 15 ef 09 bf ef 07 04 3e 4d 27 f7 3c ec 1d d1 3d
       -0.53880435 0.12893651 0.030170107 0.10210785
000240 29 53 44 bd 0e 85 0d 3d 77 0c f7 bd a1 bf b9 bd
       -0.04793087 0.03455072 -0.12062924 -0.090697534
000250 71 6f 16 3e 3d 04 f7 bb b9 de 7d be 04 c9 e3 be
       0.14690949 -0.007538347 -0.24791993 -0.444893
000260 18 52 44 be 51 9b cc 3d eb 22 2d be 0a 66 d8 3d
       -0.19171941 0.09990562 -0.16907851 0.105663374
000270 21 8d a4 3d 1c 31 48 3e 85 52 60 bc 4c b3 81 bd
       0.08034731 0.19549984 -0.013691549 -0.06333026
000280 31 1a f4 bd e7 da 19 3e 2b d1 37 3e 64 a0 9d 3d
       -0.11919058 0.15024911 0.17950885 0.07696608
000290 99 1c 3b 3e 34 56 38 bd a5 36 f1 3d 25 4b 98 bd
       0.18272628 -0.045004085 0.11778001 -0.07436208
0002a0 c9 df 3c bc 8f 9a 9c bd d1 6c 95 bd 23 1d ef 3d
       -0.011527964 -0.07646667 -0.07296146 0.11675479
0002b0 fa 28 e9 3e c7 42 e2 bd 2b b8 a5 be 6f 2d 53 be
       0.45539075 -0.11047893 -0.32367072 -0.206228
0002c0 a4 67 3d be 35 45 d8 3d 63 f7 c5 bd 87 3e 36 be
       -0.18496567 0.10560075 -0.09666326 -0.1779729
0002d0 d3 55 d7 bd 1e 70 bb bd 14 94 25 be c7 6b 30 bd
       -0.105144165 -0.09152244 -0.16169769 -0.043071534
0002e0 ef d3 6d 3e 93 56 82 be dc a6 7e bd ec 91 b1 bc
       0.23225378 -0.25456676 -0.06217085 -0.021676026
0002f0 71 57 84 bd 13 0f f9 3d 60 19 de 3d f6 84 ba be
       -0.064619906 0.12161078 0.10844684 -0.36429566
000300 5e 86 81 be 5c 34 a8 3d 73 07 0b bd 27 b3 5c be
       -0.25297827 0.08213112 -0.03394265 -0.21552716
000310 ed 29 43 3e ee d8 a4 3e 13 1a c7 bd db 50 6f bd
       0.19058962 0.32196754 -0.0972177 -0.05842672
000320 0f f2 02 3d 01 83 06 bd 2b 22 34 be 5f 0e 78 3e
       0.031969126 -0.03283978 -0.17591159 0.24224232
000330 36 38 00 3e 6d 03 f8 bd f8 46 94 bd 6a 08 4b be
       0.12521443 -0.121100284 -0.07240099 -0.19827428
000340 2c e0 e4 3d 6e 1e 7a 3e 30 9e 28 be 47 01 26 3e
       0.1117557 0.2442567 -0.16466594 0.16211425
000350 d7 d2 89 bc dd 2c 08 3e 1b 29 74 3e 14 fc 29 3e
       -0.01682417 0.13298364 0.23843805 0.16600066
000360 c2 f8 00 3e f1 46 64 3e 43 33 74 be 02 37 42 3e
       0.12594894 0.22292687 -0.2384768 0.18966296
000370 0d de 3e be 38 d2 99 bd cc 88 e4 bd b0 1e 6a bb
       -0.18639393 -0.07510799 -0.111589044 -0.0035723858
000380 3f 4a 8b be 03 34 de 3d d3 31 4c bc c1 b8 48 bd
       -0.27205083 0.10849764 -0.012463051 -0.04900432
000390 95 8b 80 be 62 5b 28 3d 70 3f 90 3d cb 41 47 3d
       -0.25106493 0.041102774 0.0704335 0.04864673
0003a0 52 a8 da 3d ae 6f ee bd a5 4e 57 3d 56 44 4d bc
       0.10676636 -0.11642395 0.052565236 -0.0125285
0003b0 32 1c 04 bd a6 7b b7 3d 17 fe 86 3e 70 0e 2e 3e
       -0.03225345 0.08959131 0.2636573 0.16997695
0003c0 44 00 34 3e e1 af 92 3e 22 fb 7d 3e 15 70 38 be
       0.17578226 0.2864981 0.24802831 -0.18011506
0003d0 b8 0c 03 3e 40 6b 07 3e 38 9a 2e 3d b7 d0 2c be
       0.1279782 0.13224506 0.042627543 -0.16876493
0003e0 5a c2 81 3c 57 4c f0 3d ed 6a 61 be d9 e1 20 be
       0.015839744 0.11733311 -0.22013445 -0.15711154
0003f0 6c dd b9 3d 03 59 45 3e 4f c1 9e be 10 2a e0 bd
       0.09075436 0.19272237 -0.31006858 -0.10945523

fc1.bias f4 [128]
000000 ba 03 ff 3e e7 83 50 bc 5b e7 de 3e f3 02 a7 3e
       0.4980753 -0.0127267605 0.43535885 0.32619438
000010 e5 12 75 3e 9f 37 ec 3c 69 cb 5a 3d 55 c1 28 3e
       0.23932989 0.028835116 0.053416643 0.1648
000020 a5 0d 10 be d7 83 d7 3e 9b c6 e9 bd 50 1c a6 3e
       -0.14067705 0.42092773 -0.11414834 0.32443476
000030 3e 8f 9e 3e a3 08 d4 3e 2c b9 9e 3e d3 09 8b 3d
       0.3096866 0.4141284 0.3100065 0.06788983
000040 b3 ff 87 3e 83 e4 be 3e 6d 04 0b 3e 06 76 4d bc
       0.2656227 0.37283716 0.13575907 -0.012540346
000050 42 76 83 be b3 e9 9f 3e 83 5a d7 3e f0 c3 ca 3e
       -0.2567616 0.31232986 0.42061242 0.39602613
000060 87 b0 6c be be e2 a3 3e 1f 19 35 3d b7 aa fb 3d
       -0.23114215 0.32008928 0.04421341 0.12288421
000070 8c fc 8b 3e 20 e5 22 be 4e fd d8 3e 28 d0 22 be
       0.27341115 -0.15907717 0.42380756 -0.15899718
000080 fb 5c 7c bd a0 5e ce 3d 5b f0 93 3e a4 0d 96 3d
       -0.06161211 0.10076642 0.28894314 0.073268205
000090 72 26 96 3e 0e d1 0b be 0b 16 1a 3e bb ab bd 3e
       0.29326206 -0.13653967 0.15047471 0.37045082
0000a0 6d e0 1b 3d bf 24 9c 3e f8 fd f1 bd 85 fd ee 3e
       0.038055826 0.30496785 -0.11816019 0.46677795
0000b0 78 07 65 3e 5d 04 32 3e 8e ba d9 3e da a3 17 be
       0.2236613 0.17384477 0.42525142 -0.14808598
0000c0 6f 7c 12 3d d7 b9 80 be 76 46 6c bc 91 7d 79 3e
       0.0357632 -0.25141785 -0.014421096 0.24364306
0000d0 b6 b1 8f 3d 33 3a 57 3e 6b 45 00 3e b6 40 08 bc
       0.070163175 0.21018295 0.12526481 -0.00831621
0000e0 07 0e 2a 3e 51 02 08 3e d8 60 03 bb c8 11 26 3e
       0.16606914 0.13282134 -0.0020046737 0.1621772
0000f0 95 c1 72 3e 4f c7 a6 3e 66 40 cf bd e7 81 de 3e
       0.23706658 0.32573935 -0.10119705 0.43458483
000100 a0 58 a4 bd 4c c8 22 3e a8 b8 f4 bd 22 0f c8 3e
       -0.080247164 0.1589672 -0.11949283 0.39074045
000110 67 dc 0b bd 47 d2 a7 3e 00 a4 96 3d 3a a6 2f 3e
       -0.03414574 0.32777616 0.07355499 0.17153254
000120 4f 04 69 3e fb 8c a7 3d c9 4c c9 3e 0b 82 6d 3e
       0.2275555 0.08181187 0.39316395 0.23194139
000130 a8 19 32 be 33 bb 42 be e7 4d 24 be 23 61 3a 3e
       -0.173926 -0.19016723 -0.16045342 0.18201117
000140 b3 02 ca bd 8d 33 b3 3e e9 08 af 3b 45 85 b2 3d
       -0.09863796 0.35000268 0.0053416383 0.087168254
000150 a9 32 34 bd f9 d5 0e 3e 2e 95 b4 3e be b1 85 bd
       -0.043993626 0.13948812 0.35270065 -0.06528042
000160 87 9a 6d bd 91 e1 35 be b2 a3 a0 3d 3b e2 a3 3d
       -0.058008697 -0.17761828 0.078437224 0.080021344
000170 a8 ed 20 3e ec 82 90 3e 5a c2 49 be 9d 5a ab ba
       0.15715659 0.28224885 -0.19703045 -0.001307327
000180 a9 a1 70 3d e0 09 d1 bd b6 a6 83 3e 12 0c 7a 3d
       0.05874792 -0.10206962 0.25713128 0.061046667
000190 15 1a 0d 3e 8f a5 ea 3e 56 87 80 3d ce e3 fa 3d
       0.13779481 0.45829436 0.06275813 0.122504815
0001a0 22 15 77 3e 14 17 2d 3e 11 23 e3 3d 80 3c d2 bd
       0.24129155 0.16903335 0.11090673 -0.10265446
0001b0 39 48 c9 bd b1 fc bc 3e 32 b0 a0 3e ab dd dc 3e
       -0.098282285 0.36911538 0.31384426 0.4313787
0001c0 14 05 bf 3e 16 ce 7f 3e 9f 30 12 3e 86 fe b6 3e
       0.37308562 0.2498096 0.1427636 0.3574106
0001d0 84 29 e3 bd 65 82 d8 3e fc 35 b0 3e db ca f0 3e
       -0.11091903 0.42286983 0.34416187 0.47029766
0001e0 fe f4 8c 3d 73 63 9f 3e 52 27 ee 3e 0e d2 89 3d
       0.06882666 0.3113056 0.46514374 0.06729518
0001f0 7d bc e4 bd ca 32 13 be b9 36 1b 3e 48 b9 8a be
       -0.11168764 -0.14374843 0.15157594 -0.27094483

fc2.weight f4 [128, 128]
000000 12 e8 5f bd 80 85 5f bc 67 56 af 3d db a1 a6 bd
       -0.05466468 -0.013642669 0.08561402 -0.0813634
000010 00 83 14 bd db 0a a5 3c c0 b8 7a 3d 4a bb 42 bd
       -0.036257744 0.020146778 0.061211348 -0.047541894
000020 44 90 0b 3e 68 d2 29 bd 4d aa 23 3e f8 9a c4 bd
       0.13629252 -0.041460425 0.15982933 -0.095998704
000030 1c 59 ab 3d 7c a1 1b 3c 27 c1 43 3d 83 ad 8c 3d
       0.08366606 0.00949895 0.047791626 0.06869032
000040 16 c7 8f bd e9 32 a0 3d f1 8c b6 3c eb cd f5 3d
       -0.070203945 0.0782221 0.022284003 0.12002166
000050 db 61 3a 3e 1c 11 7e 3d 10 ef 02 3d 14 82 e2 bb
       0.18201391 0.062028036 0.03196627 -0.006912479
000060 49 7b 03 3e 48 00 cd 3d f6 25 23 3e 2f ac f9 3c
       0.12839998 0.10009819 0.1593245 0.030477611
000070 89 ae 77 bd 5d e8 b4 bb 50 98 e5 bd 89 b5 45 3e
       -0.060469184 -0.005520864 -0.11210692 0.19307531
000080 68 ce c2 3d e8 54 6c bd bb 47 9a bd eb 91 90 3d
       0.09512025 -0.05769816 -0.07533213 0.07059082
000090 47 2c b8 3d 02 2f 49 3e 11 93 cf 3d 03 cf 05 bc
       0.0899282 0.19646838 0.101354726 -0.008167031
0000a0 63 14 d5 bd fa f7 2b bd 45 30 bc bb 87 31 9f 3d
       -0.10404279 -0.041984536 -0.005743059 0.077731185
0000b0 90 da 9c bc f9 6b f2 3d d7 e6 58 bc f5 a8 53 3e
       -0.019147187 0.118370004 -0.01323863 0.2066992
0000c0 cb 57 c9 3d 24 da d9 3d fe 37 b4 bd 3b c3 8b 3d
       0.09831198 0.1063731 -0.08799742 0.06824347
0000d0 9e ec 8e bd 11 d1 8a 3c b1 5a 49 bd 44 67 2d 3d
       -0.06978725 0.016945394 -0.049158756 0.04233481
0000e0 66 19 94 3d b7 85 89 3d 8b c1 2f 3e 8e ec 69 3d
       0.07231407 0.06714957 0.17163675 0.05711036
0000f0 d4 d6 06 bd cb 24 d9 3c 10 25 0f bd 32 e0 7d 3c
       -0.03291972 0.026506802 -0.034947455 0.015495347
000100 6e d8 06 3e 35 0f a0 3c 17 ad fa 3d 46 6b ef bd
       0.13168499 0.019538501 0.122400455 -0.11690383
000110 12 50 0a bd 43 8b 9d bc a1 44 e8 3d 0d 75 89 bd
       -0.033767767 -0.019231444 0.11341215 -0.06711779
000120 a8 23 b1 bd db 50 86 3d ea 10 8c bd 1c ab 7e 3d
       -0.08649379 0.06558391 -0.068391636 0.0621749
000130 5d c6 c5 3c 4e 9b 9d 3e a4 9a 4d 3e ff ca 88 3d
       0.024142439 0.3078255 0.20078522 0.066793434
000140 8a fa af 3d 97 3f 35 bd 5f 28 46 3d a0 10 6f be
       0.085927084 -0.044250097 0.048378345 -0.23346186
000150 07 01 c3 bd 18 4a a3 3d 96 fb d4 3c 0f 4b da 3d
       -0.0952168 0.07973117 0.025998872 0.106588475
000160 c4 9c b0 be 4c c5 25 3e 35 b4 7e bd 91 97 3e bd
       -0.34494603 0.16188544 -0.062183578 -0.046531264
000170 73 13 da bc fe 57 9d bc ff 18 09 3e 1b 5d 59 be
       -0.026620602 -0.019206997 0.13388442 -0.21226923
000180 7b b0 8b 3b ff ab 71 3e 15 19 18 bd cf 43 84 bd
       0.0042629815 0.23600768 -0.037133295 -0.06458246
000190 cb c1 7a bd 49 b1 a7 3c 6f 3f dd bd ac 59 22 3b
       -0.06121997 0.020470278 -0.108031146 0.0024772687
0001a0 ea 21 c1 3c f8 33 d2 3c e2 7a a8 bd 6d d7 0e 3d
       0.023575742 0.025659546 -0.08226563 0.034873415
0001b0 8e 0b f7 bd 09 92 38 3d 17 1b a5 bd e8 2f 0e 3c
       -0.12062751 0.045061145 -0.080618076 0.008678414
0001c0 25 2c 56 bd 46 8d 35 3b c9 0b 1d bd b2 52 6d bd
       -0.052288193 0.0027702614 -0.038341317 -0.057940193
0001d0 08 1c ff 3d 98 a9 27 bd 42 a9 b4 bc 05 fd 94 3d
       0.124565184 -0.04093322 -0.022053365 0.07274822
0001e0 62 2e 08 bd f2 99 e3 bb 14 b4 f9 bd 3b 7f ff 3b
       -0.03324736 -0.006945842 -0.1219255 0.0077971495
0001f0 04 eb ba 3d 07 56 04 be a5 60 d4 3d b3 31 2d 3e
       0.09126857 -0.12923442 0.10369996 0.1691349
000200 f8 20 0a 3e d6 58 bb bc d3 08 10 bd 6c f2 02 3d
       0.13489139 -0.022869509 -0.035164665 0.031969473
000210 44 66 04 3c dc ab 12 3e 97 74 3a 3b ab 6c 15 3d
       0.008081023 0.14323372 0.002845084 0.036480587
000220 97 1e 85 3d 19 35 e4 ba 37 91 31 3e a6 b4 be be
       0.06499975 -0.0017410844 0.17340551 -0.372472
000230 f4 d7 25 3d 28 71 76 bd 72 84 a4 bc 60 37 09 3d
       0.040489152 -0.060166508 -0.020082686 0.033500075
000240 03 2c 0c be 34 ff 01 bc 13 88 98 3c ef 1c b0 bd
       -0.13688664 -0.00793438 0.018619573 -0.08599269
000250 85 fc ef 3d bd d8 86 3d a9 fd 0c be f8 90 31 bd
       0.11718086 0.06584308 -0.13768639 -0.043351144
000260 5e 0e c4 3d cf 25 9e 3d 73 9c 65 be bd 8d 0e 3e
       0.09573053 0.07722055 -0.22422962 0.13921256
000270 44 3e 17 3d cb 7a 22 be bb ed 13 bd 72 1f f6 3d
       0.036924616 -0.15867154 -0.03611539 0.120177165
000280 a7 ed ec 3d 18 93 00 3d fb fa a2 3a 18 7e 05 3c
       0.11568766 0.03139028 0.0012434417 0.008147739
000290 32 37 8e bd 80 d7 78 3c 78 a7 a4 be 4d be cd bd
       -0.069441214 0.015188098 -0.3215902 -0.100460626
0002a0 95 48 d0 be d1 74 10 3b 49 b2 57 bc 1e 99 b4 bd
       -0.40680376 0.0022042284 -0.013165065 -0.08818267
0002b0 4b c7 a3 bc 10 55 69 bd ce 5c 82 3d a3 3d 6d 3d
       -0.019992491 -0.056965888 0.06365357 0.05792011
0002c0 30 34 6e bc e1 be 05 3e f0 2e a2 bc 2d d9 09 be
       -0.01453881 0.13061096 -0.019797772 -0.13461752
0002d0 6c f1 d1 bd 3e 98 d8 bc 99 09 bb 3b 6d 0c 26 bc
       -0.10251126 -0.026439782 0.0057079312 -0.0101347985
0002e0 64 60 93 be 0a 2c ca 3d 85 5c 04 3e 51 00 49 bb
       -0.28784478 0.09871681 0.12925918 -0.0030670355
0002f0 79 27 ba be 25 f9 55 3d 2c bc bc 3d 9b 2a bd 3d
       -0.3635824 0.052239556 0.092155784 0.09236642
000300 3f 2b 5e 3d 14 6a 97 bc 7b 61 ae 3d 42 b7 9a 3d
       0.05424046 -0.0184832 0.08514687 0.07554485
000310 01 5d 1c be 36 0e bc bc 95 e0 5a 3d 60 66 79 bd
       -0.15269853 -0.022955995 0.053436834 -0.060888648
000320 8b df 5b bd c9 0f 66 3d 5f 76 93 bb 74 85 5b bd
       -0.053679984 0.056167398 -0.004500195 -0.053594068
000330 fd b1 4a 3e f5 cc 31 3e c2 f5 c9 bd ad 89 89 bb
       0.1979446 0.17363341 -0.09861328 -0.0041973204
000340 b6 f1 c0 3c 02 b6 9e 3d 7e b1 91 3e e0 8d 0a 3e
       0.023552757 0.07749559 0.28455728 0.13530684
000350 bd 42 2a 3e d8 12 db 3c de 57 39 bc 6a 9c 8a 3c
       0.16627021 0.026742384 -0.011312453 0.016920287
000360 a6 39 5a 3d 85 77 01 3e 74 bc 42 bd 8e 22 ac 3c
       0.053277634 0.1264325 -0.047543004 0.02101257
000370 c2 b8 20 be ea 79 e6 be d5 24 06 3e 5b 9c 69 bc
       -0.1569548 -0.45014888 0.13099988 -0.014258469
000380 1d 65 1a 3e 66 1a c8 bd 1b 1e 9f bd 5f e7 0d be
       0.15077634 -0.0977066 -0.07769414 -0.13857792
000390 f2 b1 44 be 70 4b 20 3d e5 de 8c bd 4b 17 cd 3d
       -0.19208506 0.039134443 -0.06878451 0.100142084
0003a0 68 94 04 be 2a 0c 8b 3c c5 59 ce bd 41 f5 16 3d
       -0.12947237 0.016973574 -0.10075716 0.036854986
0003b0 b3 4d 20 be 9d a1 d5 3d e6 f4 c2 bd b5 e4 6e bd
       -0.1565464 0.10431216 -0.09519367 -0.05832358
0003c0 9c 37 a4 3b 92 5d ff 3d f9 04 83 be c4 1a ac 3d
       0.005011512 0.12469019 -0.2558973 0.08403543
0003d0 cc 97 1c 3d 44 fb 4c 3b 5e 66 5e 3d a6 91 89 3c
       0.038230702 0.0031277696 0.054296844 0.016793083
0003e0 48 01 7b 3a 41 bb a7 3c db 92 42 bb 61 be 83 3c
       0.0009575081 0.020475032 -0.0029689583 0.01608199
0003f0 42 4c 6a 3e 32 23 91 3d f7 19 39 3d 05 f7 a5 3e
       0.22880653 0.07086791 0.045190778 0.32415023

fc2.bias f4 [128]
000000 f1 70 06 be bf 53 73 3d 45 f2 4a 3e 70 b2 12 bc
       -0.13129021 0.05940604 0.19818981 -0.008953676
000010 bb f8 7e 3e 03 93 1c 3e 75 2b 16 3e 1c 8e 69 3e
       0.2489957 0.15290456 0.14665015 0.22808117
000020 91 4a 2d 3e 66 f1 5e 3e 27 8f 57 3d 0d 6e cd 3c
       0.16922976 0.21771774 0.052626755 0.02507689
000030 6c 57 c2 3d b5 10 2f 3e 08 f3 cd bc 8e 79 c3 3d
       0.09489331 0.17096217 -0.0251403 0.09544669
000040 56 72 4c 3c 61 e3 0e 3e 7b e0 6a 3e 0b 9f c8 3d
       0.012478432 0.13953926 0.22937195 0.0979596
000050 39 27 f1 3d 6d d6 ea bd f1 f4 34 3e 45 35 59 3e
       0.11775059 -0.1146668 0.17671563 0.21211727
000060 b2 9a 5d 3e f2 f5 58 bc 05 cc 7b 3e 07 b4 42 3e
       0.21641043 -0.013242232 0.24589546 0.19013987
000070 1c 65 95 3d 9a 07 0e be ba 2b 88 bc d8 25 3b 3e
       0.07294676 -0.13870087 -0.016622413 0.18276155
000080 b5 df 92 3d 88 1e 87 3e e8 59 f4 3d 20 9b e3 bd
       0.07171575 0.2639048 0.11931211 -0.11113572
000090 1d 13 0d 3e 0c 73 3f 3e b2 a1 7d bd fb f9 22 3e
       0.13776822 0.1869623 -0.061921783 0.15915672
0000a0 8a 84 64 3e 84 15 f9 bd c7 d9 a9 bd f6 59 64 3e
       0.22316185 -0.12162307 -0.08293491 0.22299942
0000b0 48 fd 3d 3e 93 09 a0 3d 74 60 c0 bd fc 53 02 3e
       0.1855365 0.07814326 -0.09393397 0.1272735
0000c0 49 74 05 be 7e 61 01 3e a4 bd 59 3e 60 1c e9 3d
       -0.1303264 0.12634847 0.21263748 0.11382365
0000d0 60 0c e4 3d 36 23 76 3e 0a f1 c1 3b d7 b2 a7 3b
       0.11135173 0.2403687 0.0059186267 0.005117755
0000e0 44 9d 9b bd 59 99 82 bd 86 dc 19 bd 5f 8b c1 bd
       -0.075983554 -0.06376905 -0.037563823 -0.09450411
0000f0 27 1a 5c bc 78 3d c9 bd 06 77 88 3e d5 30 09 3e
       -0.01343397 -0.09826177 0.26653308 0.13397534
000100 ed ed e4 3c ff 7f 01 3c 9e 5f 55 3e 58 bd d3 bd
       0.027945483 0.007904052 0.20837256 -0.10338849
000110 ab 81 0a 3e 74 c3 39 3e 47 9e a8 bd aa 34 93 bd
       0.13526027 0.18140966 -0.08233314 -0.07187779
000120 70 f2 ce bc d7 a6 b6 3d b5 64 eb 3d a4 49 4d 3e
       -0.025262088 0.08918541 0.11493818 0.20047623
000130 3b 02 a0 3c 84 fe 5c 3e bf 53 db 3d 6b 19 58 3d
       0.019532314 0.21581465 0.10709333 0.052758615
000140 6c 72 05 3e a1 d6 f6 3d d3 99 26 3e dc 37 3e 3e
       0.1303193 0.12052656 0.16269617 0.18575996
000150 1c 0f 37 3e a3 b7 b9 3d ba 55 b0 bd 2d be 74 3e
       0.17876858 0.09068229 -0.08610101 0.23900671
000160 8b 10 d7 bc d4 be 08 3e 0f 11 7c 3e ff bd 6e 3c
       -0.026253005 0.13354045 0.24615882 0.014571666
000170 bc ec 63 3e 2d 9b 85 3c 3b d1 5d bb f0 13 27 3e
       0.22258276 0.016309345 -0.0033846635 0.163162
000180 08 d6 0e bd 48 e5 e9 3d e3 16 2d 3d 86 6b ce 3d
       -0.034872085 0.11420685 0.042258155 0.10079102
000190 24 64 07 bd e5 bf 53 3e 09 b6 be bd 59 a1 88 3e
       -0.033054486 0.2067867 -0.09312064 0.26685598
0001a0 d9 6c 05 3c e3 a7 8a bd af 24 88 3c d5 91 0b bd
       0.008143627 -0.06770303 0.016619055 -0.034074623
0001b0 3f 31 dd bd ea 50 39 3e 80 ac cc bb 13 9f cd 3d
       -0.108004086 0.18097273 -0.0062461495 0.100401066
0001c0 02 86 17 be f5 43 bb bd aa 46 57 bd ae 80 9a bd
       -0.14797214 -0.09143821 -0.052557625 -0.07544075
0001d0 88 79 6a 3e f1 44 5d 3d e0 32 21 3e 56 5c 52 3e
       0.22897923 0.054020826 0.15742064 0.20543036
0001e0 d5 eb 9b bd 82 be b5 bc 3d 42 5b 3e 10 7d 6a 3e
       -0.07613341 -0.022185568 0.21411987 0.2289927
0001f0 fa a1 db 3c b0 53 79 3d cf f5 0f 3e 13 40 82 3e
       0.026810635 0.060870826 0.14058612 0.2543951

q1.weight f4 [1, 128]
000000 ee 8d 89 be a0 14 ad be 3a c6 5d 3e 59 8a c0 be
       -0.26866096 -0.33804798 0.21657649 -0.3760555
000010 f3 49 86 3e 43 c5 73 3e ce ad 78 3e 5b 99 73 3e
       0.26228294 0.23805718 0.24285051 0.23788969
000020 01 37 75 3e 6a 3c 95 3e 53 db 69 bd 54 48 87 be
       0.23946764 0.29147655 -0.05709393 -0.2642237
000030 c9 61 11 bf 55 83 64 3e 2c d5 f2 bd bb c0 04 bf
       -0.56789833 0.22315724 -0.118570656 -0.51856583
000040 52 f4 bf bc 28 df 38 3e 76 38 5b 3e ea d2 54 3e
       -0.02343193 0.18053877 0.21408257 0.20783582
000050 49 5a 42 3e 44 01 d8 be d3 6e 58 3e 76 6f 8f 3e
       0.18979754 -0.42188466 0.21136026 0.28014725
000060 32 da 4c 3e c1 e5 bb ba 96 54 80 3e 66 84 7e 3e
       0.2000511 -0.001433544 0.25064534 0.24855193
000070 17 d9 f7 be 3f dd 8b be 0d 2b c5 be 9c 17 67 3e
       -0.48407814 -0.27317235 -0.38509408 0.225676
000080 76 85 d2 be 28 fa 7a 3e af 54 77 3e c2 16 aa be
       -0.41117448 0.2450949 0.24153398 -0.33220488
000090 da c9 91 3e 9b 43 72 3e 38 fd 6e be 19 74 61 3e
       0.28474313 0.23658602 -0.23338783 0.22016944
0000a0 6b e3 5f 3e 40 d4 0a be b2 27 88 3d 9b b3 1d 3e
       0.21864097 -0.1355753 0.06648196 0.15400545
0000b0 76 e5 30 3e 3f b3 d3 be 8b 13 89 be 32 e5 4e 3e
       0.17275032 -0.4134769 -0.26772723 0.20204619
0000c0 30 e2 af be 61 64 5b 3e b6 00 64 3e 18 6b 54 3e
       -0.34352255 0.2142501 0.22265896 0.20743978
0000d0 ec 68 58 3e 79 d2 52 3e cd 94 13 bf 84 25 17 bf
       0.21133775 0.20588101 -0.57648927 -0.5904162
0000e0 36 d2 a5 be 82 17 13 bf da 44 aa be 94 a9 02 bf
       -0.3238694 -0.57457745 -0.33255655 -0.51040006
0000f0 3f cc 08 bf cd 55 a6 be 4c 16 65 3e 78 c8 8d 3e
       -0.53436655 -0.32487336 0.22371787 0.27692008
000100 be e8 82 be 37 fd dc be 79 aa 47 3e 09 38 4d be
       -0.25568193 -0.43161938 0.19498624 -0.20040907
000110 6a cd 73 3e ef 8c 34 3e a2 99 89 be e4 43 c7 be
       0.23808828 0.17631887 -0.26875025 -0.38918984
000120 be 14 bd be 05 73 d0 be 50 b1 31 3e 82 26 38 3e
       -0.36929888 -0.40712753 0.17352796 0.1798344
000130 ef 9c 91 bd b0 9b 38 3e e7 52 52 3e e7 a7 ee be
       -0.07110011 0.1802814 0.20539437 -0.46612474
000140 be fc 5f 3e 5e 41 8b 3e 3a 81 5d 3e db ef 49 3e
       0.21873757 0.2719831 0.21631327 0.19720404
000150 39 f0 42 3e af d4 55 3e 3b b3 53 be d9 61 6e 3e
       0.1903695 0.20881914 -0.2067384 0.23279513
000160 cb ac 95 be 76 bc 3b 3e 9c 7b 7e 3e 94 a6 81 be
       -0.29233393 0.18333611 0.2485184 -0.25322402
000170 a4 fa 73 3e 00 af fa be 8a 95 c0 be ec 7e 49 3e
       0.2382608 -0.4896164 -0.3761409 0.19677323
000180 36 e1 b6 be c0 3d 54 3e b3 a4 99 bd dc 16 5a 3e
       -0.35718697 0.20726681 -0.07502117 0.21297783
000190 f2 af ff be 84 dd 28 3e cc a2 d1 be c9 6a 74 3e
       -0.49938923 0.16490752 -0.40944517 0.2386886
0001a0 07 cc e0 be 76 88 f1 be 61 b6 af 3e ae 94 c3 be
       -0.4390566 -0.47174424 0.34318832 -0.3819937
0001b0 a1 f2 f0 be 75 68 87 3e 3a 3e 8e bd 1a 2c 44 3e
       -0.4706011 0.26446882 -0.069454625 0.19157448
0001c0 b1 eb bf be 9d e2 0f be 6d 3b d1 be 10 10 5a be
       -0.37484506 -0.1405129 -0.4086565 -0.2129519
0001d0 03 86 69 3e 76 97 97 be 0a b2 a6 3e 8a 1c 71 3e
       0.22805028 -0.29607743 0.32557708 0.23546043
0001e0 6d 4d fb be aa 4c 36 bc 6c 27 5f 3e 94 f1 57 3e
       -0.4908251 -0.011126677 0.21792382 0.21088248
0001f0 d0 0b bf be 20 7f b4 be 92 a8 52 3e 2d a4 7c 3e
       -0.373137 -0.3525324 0.20572117 0.24672003

fc3.weight f4 [128, 17]
000000 3d 53 98 3c d5 b0 b6 be b0 d0 1c 3d 55 f5 54 be
       0.018594379 -0.35681787 0.038284957 -0.20796712
000010 7b cf 69 be 98 7f 0f be 9a 0e 3f 3e 51 8f 8a be
       -0.22833054 -0.14013517 0.18657914 -0.27062467
000020 80 e8 57 3e 7e 21 2e 3d a9 e6 7f bd e4 40 b2 bd
       0.21084785 0.04251241 -0.062475834 -0.08703783
000030 b2 98 42 bd 09 0b a0 3c 9d a5 b8 3b b8 e5 f7 bd
       -0.047508903 0.019536512 0.005634977 -0.12104362
000040 68 03 e7 3d 58 63 00 3b f8 5a 5b bd 06 57 39 be
       0.112799466 0.0019590463 -0.05355355 -0.18099603
000050 89 92 a2 3d fe c9 32 3e c1 07 98 3c 64 4e 3b 3d
       0.079381056 0.17459866 0.018558385 0.045729056
000060 5d 01 4f 3e 92 d4 4a bc 7b bb 7a bd e9 cc a2 be
       0.20215364 -0.012379782 -0.06121395 -0.3179696
000070 c2 28 ef bd bc ca e3 be ed 85 b4 bd ed b7 a5 3e
       -0.11677696 -0.44490612 -0.08814607 0.32366887
000080 76 13 ad 3d 1c b0 a4 be eb 99 49 be e3 44 74 be
       0.084509775 -0.3216561 -0.19687621 -0.23854403
000090 3a 83 6f 3c 36 4c e1 3d e6 a8 8e be 41 86 ab bd
       0.014618689 0.11000864 -0.27863234 -0.08375216
0000a0 e0 33 37 be 37 00 17 be 67 57 bc bd f5 f2 cb 3d
       -0.17890882 -0.14746176 -0.09196358 0.0995845
0000b0 d0 ff 8b 3e f7 af 67 3e f6 ba 22 bd d7 83 b3 bd
       0.27343607 0.22625719 -0.03972908 -0.08765381
0000c0 60 7e 03 bd aa 2e b4 bc de 0f c0 3d ab 94 b4 3d
       -0.032102942 -0.021994907 0.093780264 0.08817419
0000d0 79 9d a5 bd f3 bf 9b 3d 41 ee 2c be 08 9d 51 3e
       -0.08086676 0.07604971 -0.16887762 0.20470059
0000e0 3b 43 60 3e e6 61 0c 3e df b8 91 bd 73 03 53 3e
       0.21900646 0.1370922 -0.071153395 0.20606785
0000f0 0e 4d e4 bd 68 d9 98 3d 00 dd e7 bc 1f ef 45 bd
       -0.111475095 0.07463342 -0.028303623 -0.048323747
000100 fb 76 9a 3e 97 c9 3f be 98 7a b5 3d d7 5f 21 be
       0.301689 -0.18729244 0.088612735 -0.15759216
000110 f2 56 c7 bd 60 86 76 bc 32 5d 2b be bf 94 87 be
       -0.097333804 -0.015046686 -0.1673477 -0.26480672
000120 06 cd 64 3e 5a 17 c0 bd 76 8d 96 bd b6 0e a5 be
       0.22343835 -0.09379454 -0.073512 -0.32237786
000130 c0 f4 d1 3d 7f 7d 3d 3e c6 81 eb bd c1 43 80 bd
       0.102517605 0.18504904 -0.11499362 -0.06262923
000140 db dc 31 3e ba 52 65 3d 74 86 2f 3e 29 b8 1d be
       0.17369406 0.055987097 0.17141134 -0.15402283
000150 09 b6 81 bd 4f 27 3a be d9 b3 d1 3d d9 30 89 be
       -0.063335486 -0.18179058 0.10239381 -0.2679508
000160 43 2f 75 bc 7f 41 01 3e e9 76 48 be f5 f6 fd bd
       -0.014964881 0.12622641 -0.1957661 -0.12400619
000170 b6 2d 4d 3e 0f 16 48 3e cc 57 84 bd c1 71 32 be
       0.20036969 0.19539665 -0.064620584 -0.17426206
000180 a1 67 ae 3d cc 4a cf 3d 6e 01 86 be 8c ac 00 3e
       0.085158594 0.10121688 -0.26172966 0.12565821
000190 3a 86 5c 3e fb e8 97 be 31 f2 80 3d 50 5e 56 be
       0.21535578 -0.29669937 0.06296194 -0.20934415
0001a0 81 51 f5 bc 1f 51 e5 3d bc 47 3c be 3b f1 05 be
       -0.02994609 0.11197113 -0.1838674 -0.13080303
0001b0 9f a9 ed 3d 88 f1 47 be a5 b4 37 be 96 c0 62 3e
       0.11604618 -0.1952573 -0.17940004 0.22143778
0001c0 1b ff b3 bb fd ea 06 3e dc bf 72 3d f6 9d a2 3e
       -0.0054930574 0.13175578 0.059265003 0.3176114
0001d0 78 e5 bf 3d c5 c8 c4 bd e2 5a 08 be 38 ed 0e 3e
       0.093699396 -0.09608606 -0.13315919 0.1395768
0001e0 4d 14 6a bd 8f 1e 2d 3e 6e dd 82 3d 23 6e d5 3d
       -0.057148267 0.16906188 0.063898906 0.104213975
0001f0 cc 9a 0c 3e 34 c7 8c 3e 81 09 50 be b2 e8 43 3e
       0.13730925 0.2749573 -0.20316125 0.19131735
000200 09 5a 84 3e 2b c1 62 be 06 8a 7f be 5d 48 67 be
       0.2584994 -0.22144 -0.24954996 -0.22586198
000210 0e 2b 2a 3e c8 a8 36 bd e4 a1 b4 bd d5 ed 63 3e
       0.16617987 -0.044594556 -0.08819941 0.22258694
000220 65 8b 3b be 60 5c 27 be e0 4d 8d be f1 b7 af bd
       -0.18314894 -0.16343832 -0.27598476 -0.08580006
000230 61 5c 22 3e f2 94 13 3e 2c c9 2a 3e 62 08 b4 3d
       0.15855552 0.14412287 0.16678303 0.087906614
000240 09 8e f8 bd fa f7 29 3e 8d c6 03 be bf 58 2a be
       -0.12136466 0.16598502 -0.1286871 -0.16635416
000250 94 6a 23 3e 7e 87 44 be 01 bc 09 3d 2e d3 16 3e
       0.15958625 -0.19192311 0.03362656 0.14728996
000260 8f c7 b7 bd ff 18 ae 3d 64 8b b5 3d 6b 13 58 3e
       -0.0897361 0.085008614 0.08864477 0.21101157
000270 b1 51 0e bd 4a 82 2b be c9 49 7c be 61 33 b3 bd
       -0.034745876 -0.1674892 -0.24637522 -0.08750034
000280 ba e3 1c 3e 35 01 44 be 58 7b cc bd 02 8e 7e be
       0.15321246 -0.19141085 -0.099844635 -0.24858859
000290 07 8d c3 3d 95 67 29 3e 79 bf fe bd 7d b7 4b be
       0.09548383 0.1654342 -0.12438864 -0.19894214
0002a0 32 f2 38 3d 4d 94 a0 3e b1 14 c0 bc ed f0 5a 3e
       0.04515285 0.31363145 -0.023447366 0.21380968
0002b0 dd 83 a2 3b c6 31 05 3e a1 fc 1c be a4 ab 82 bd
       0.004959567 0.13007268 -0.15330745 -0.06380394
0002c0 70 3c 4e 3c f1 dd 03 be 2c e2 a3 3e c4 a3 cb bd
       0.012587652 -0.12877633 0.32008493 -0.09943345
0002d0 fe ad 2a 3e 85 1a db 3d 83 94 24 be 59 87 00 3c
       0.16667935 0.106984176 -0.16072278 0.007844769
0002e0 c9 ea b1 be 11 72 6b be f3 43 f2 bd eb 33 b6 bb
       -0.3474944 -0.22992732 -0.118293665 -0.0055603883
0002f0 bc 1a 0b 3d 23 0e 8b 3e fb 6e 11 3e a8 e7 63 3e
       0.033961043 0.27159223 0.14202492 0.22256339
000300 97 98 16 3d 8e ba ac bc ac 72 42 3e 60 f3 de bb
       0.036766615 -0.02108505 0.18989056 -0.006803915
000310 07 0c d9 3d 7a f1 20 3e 65 e3 0b 3e fb 5d ec bd
       0.10597997 0.15717116 0.13660963 -0.11541363
000320 a9 2c d1 be ab 86 58 be a6 4d 80 bd ba 4e 1e 3e
       -0.40854385 -0.21145122 -0.0626481 0.1545972
000330 3b 0e 11 be 8f a6 eb bd aa c9 25 3e 8a 6c 72 be
       -0.14165585 -0.11506378 0.1619021 -0.23674217
000340 4d 8c e6 3d c4 69 12 be 9e 9f 20 3e 44 ba b1 be
       0.11257229 -0.14298159 0.15685889 -0.34712422
000350 a0 44 73 3e 7e 96 5f 3e ba f2 17 3e 04 75 23 3e
       0.23756647 0.21834752 0.14838687 0.15962607
000360 a1 b4 ce 39 48 41 f4 3d 10 13 69 be 93 26 1b 3e
       0.0003942596 0.11926514 -0.22761178 0.15151434
000370 1c 6d e5 bd 28 d5 39 3e 9a 20 1e 3e 02 27 08 bc
       -0.112024516 0.18147719 0.15442124 -0.008310081
000380 92 75 58 be 6f 57 98 bc 9a 52 03 3e 35 81 86 bd
       -0.211386 -0.01859638 0.12824479 -0.06567613
000390 5f 0f 84 be 14 3c f4 3d c3 f3 50 3e 3e 23 86 3e
       -0.25792977 0.119255215 0.20405488 0.26198763
0003a0 09 2c 33 3e 82 64 51 3e 0f 21 de 3e 05 be 45 be
       0.17497267 0.20448497 0.43384597 -0.19310768
0003b0 89 bb fd bd a5 9b a5 3d f4 38 08 3e ff 51 33 be
       -0.12389285 0.080863275 0.13302976 -0.17511748
0003c0 d1 06 78 3e cb 81 a3 bd 48 5f 0a bc 89 47 00 3e
       0.2422135 -0.079837404 -0.008445568 0.12527288
0003d0 01 c1 e1 3d 43 40 07 3d 61 59 70 3e d6 83 7a 3e
       0.11023141 0.03302027 0.23471595 0.24464354
0003e0 6c cb 87 3d 5b a5 6b 3e 76 3e 97 be f6 5b 99 be
       0.066305965 0.23012297 -0.2953984 -0.29952973
0003f0 ab 48 b1 3e dd a3 cd bd 48 97 9c 3e b7 67 47 3e
       0.34625754 -0.1004102 0.30584168 0.19473158

fc3.bias f4 [128]
000000 8a f6 03 3f d0 20 8b bd e8 99 d3 3e c0 59 1e 3e
       0.51548064 -0.06793368 0.4132836 0.15463924
000010 ec a7 89 3e 6c 2e e2 bc 9f 38 cf 3e 8d e8 25 3e
       0.26885927 -0.027610026 0.40472886 0.16201992
000020 7e f9 52 3e ef 71 45 be 06 6d 34 be 1f 47 77 be
       0.20602986 -0.19281743 -0.17619714 -0.24148224
000030 a0 cb aa 3e 8b f5 79 3d 60 e0 5a 3e 98 1e cf 3e
       0.3335848 0.061025184 0.21374655 0.4045303
000040 6d 54 ba 3e ad 00 ba 3e 4e 99 f2 bc 16 fa 2a 3e
       0.36392537 0.3632864 -0.029614117 0.16696963
000050 98 7f 89 3e 41 2c d1 3e fa 60 4f 3e 44 d4 6b 3e
       0.2685516 0.40854076 0.20251837 0.23030192
000060 eb 6f b6 3d b3 63 2e be 66 43 57 be 99 e3 45 be
       0.089080654 -0.1703022 -0.21021804 -0.19325103
000070 81 62 9d 3e 6e cf ae 3e 1e 40 bc 3e 3f 9a c3 bd
       0.30739215 0.3414263 0.36767668 -0.095509045
000080 ff 10 8d bb c5 fe 6d 3e f1 06 f6 3d e5 9e ae 3d
       -0.0043050046 0.23241718 0.12013043 0.085264005
000090 f9 0c 07 be 03 4e 64 bd e9 a0 2f 3d 55 af f1 bd
       -0.13188542 -0.05573846 0.042878065 -0.1180102
0000a0 a7 5e a9 3e 0f 4e 7c 3e ec 54 93 3e de 14 ec 3e
       0.33080027 0.24639152 0.28775728 0.4610967
0000b0 4e 76 90 3e 7f dd f0 3e 34 36 91 3e ad 9f 87 bd
       0.2821526 0.47043988 0.28361666 -0.066222526
0000c0 53 07 58 be 4b 04 74 3d 8c ad 8b be 43 2d 8e 3e
       -0.21096544 0.059574407 -0.27280843 0.27768907
0000d0 75 17 7f 3e 9f 20 e4 3d df ff 20 bc 47 af 03 be
       0.24911292 0.111390345 -0.009826629 -0.12859832
0000e0 1d 7b 34 bd e1 64 77 3d 20 4c 72 be cd c0 33 be
       -0.044062722 0.06039894 -0.23661852 -0.17554016
0000f0 93 07 c7 bc 05 72 44 3e c9 53 19 bd c4 26 29 3e
       -0.024295604 0.1918412 -0.03743342 0.16518694
000100 f8 35 5a be 98 46 8c 3e e8 d4 d1 3e 5a 87 14 3d
       -0.2130965 0.2739761 0.40982747 0.036261894
000110 a8 4e c4 3e eb 2e db 3d 00 7a a9 3e 60 6b a7 bd
       0.3834126 0.10702308 0.3310089 -0.08174777
000120 97 41 fa 3e cc 89 e2 3e 54 1d d4 3e cd d2 73 bd
       0.48878166 0.44245756 0.41428626 -0.059527207
000130 76 c4 71 be 46 a5 78 3e 1c ec 8f bd 4f 64 c4 3e
       -0.236101 0.24281797 -0.07027456 0.3835778
000140 c9 05 d8 bd 09 dd 50 3e ad aa a4 3e 8e a3 99 3e
       -0.105479784 0.20396818 0.32161465 0.30007595
000150 06 45 fe 3d ee f6 93 3b 88 c0 c1 bd d0 5b c6 3d
       0.12415509 0.0045155203 -0.094605505 0.096854806
000160 08 9d a9 3e 65 18 1d 3c 6a a7 6a 3e 88 02 a2 3e
       0.33127618 0.009588336 0.22915426 0.31642556
000170 c2 ca c2 3e b1 82 f1 3e 77 92 bf 3d d0 da c7 3d
       0.38045317 0.47170022 0.09354108 0.09758532
000180 e7 c1 71 be 63 90 1d 3e 8c 50 db 3e 32 9c d9 3e
       -0.23609124 0.1538711 0.4283489 0.4250198
000190 57 07 52 3e 53 99 be 3e 21 50 ba 3e 37 0f ef 3e
       0.20510612 0.37226352 0.36389259 0.46691296
0001a0 a7 51 30 be f0 0b 32 bd 7f f1 c9 bd d0 e4 e6 3e
       -0.17218648 -0.043468416 -0.09860515 0.45096445
0001b0 4f 6c b7 3d 39 4b a9 3e 7f 77 59 be 4e 12 7f be
       0.08956205 0.33065203 -0.2123699 -0.24909326
0001c0 80 e3 93 bd d1 9f 20 be ee 79 27 3e a1 fe 94 3e
       -0.072211266 -0.15685965 0.16355106 0.29100516
0001d0 62 ce 0b be b6 43 83 3e 1b 19 ce bd 6e 31 1f 3c
       -0.13652948 0.25637597 -0.10063382 0.009716375
0001e0 13 d0 11 be 55 55 b3 bb eb 00 48 be b6 26 fa 3c
       -0.1423953 -0.005472819 -0.195316 0.030536037
0001f0 aa 49 13 be aa 5e 45 3e 2d 49 18 3e 5f 32 75 3e
       -0.1438357 0.19274393 0.14871664 0.23944996

fc4.weight f4 [128, 128]
000000 98 b8 5b bc 37 e8 f5 3d e4 67 2b bd ba b0 33 3d
       -0.01341071 0.12007182 -0.041847125 0.04386971
000010 4a 7f 3c be 37 a9 9c 3c a7 98 f0 bd c3 a7 68 bc
       -0.18407932 0.019123657 -0.11747866 -0.014200154
000020 74 29 05 bd 88 4e f5 be c8 de 4d 3e b4 0c a9 bc
       -0.032510236 -0.47911477 0.20104516 -0.02063594
000030 d3 9f 71 bd bb 2c b5 bd 3a ad fa 3d 40 d6 c0 bd
       -0.05899031 -0.08846422 0.122400716 -0.09415865
000040 f2 78 e9 bd 43 c1 a3 bb 86 d4 ae bd 02 90 5e bd
       -0.114000216 -0.004997404 -0.085366294 -0.054336555
000050 64 55 af 3d 95 2e a4 3b 97 e8 23 bd 83 18 bd bd
       0.08561209 0.005010436 -0.040016737 -0.09233191
000060 a0 4d 73 bd cf f6 dc be 1d 2e 3c 3e f6 a5 9d 3c
       -0.0594002 -0.4315705 0.18376966 0.019244175
000070 27 bc 44 3d 4f 75 8c bd 11 2d 30 3d e9 a9 e5 3d
       0.048031 -0.06858312 0.04301173 0.112140484
000080 c8 37 4c 3e b3 24 f6 3d f6 0a 33 be cb ee 19 be
       0.19943154 0.120187186 -0.1748465 -0.15032499
000090 f6 a1 68 3d 3f bf ca 3d c4 6e 36 be 2d 4d 63 bd
       0.056795083 0.098997585 -0.17815691 -0.055493522
0000a0 12 59 0b 3d e1 8c bf 3d 9c a9 1d 3d cf ea fd 3b
       0.03402049 0.093530424 0.03849183 0.0077489386
0000b0 59 71 8e bd 95 b6 34 3d 98 f6 f7 bd ec 81 ab 3d
       -0.06955213 0.044119436 -0.12107581 0.0837439
0000c0 18 e5 28 be 26 06 12 3d 5a 5f 2f bf 9f ac f6 3d
       -0.16493642 0.035650395 -0.6850487 0.120446436
0000d0 5c a1 48 bd 32 2f 31 bd eb 77 44 bd 15 17 8f 3d
       -0.04898201 -0.0432579 -0.047965925 0.069868244
0000e0 f9 6e 0f 3c 1f be 0a bc d5 94 62 3e e9 97 64 3e
       0.008754485 -0.00846818 0.22127087 0.22323574
0000f0 65 ec 73 3e c6 7e 81 3d 20 7f 75 3d 28 49 12 3e
       0.23820646 0.06323008 0.05993569 0.1428572
000100 35 13 93 be 5f 27 ec bd ea 68 8d bd 3c 6b 61 be
       -0.2872559 -0.11530947 -0.069047764 -0.22013563
000110 f4 6e 63 3d eb 62 e1 bd cf 80 27 bd 6c 73 45 3d
       0.055525735 -0.11005195 -0.040894326 0.048205778
000120 b5 6d 2c bd 90 16 70 bd 2b 6b 81 3c cd b3 a5 3d
       -0.042096812 -0.058615267 0.015798172 0.08090935
000130 58 b1 77 3e 7d be c4 bd 28 0e 57 3e 26 b1 45 3c
       0.24188745 -0.09606645 0.21001494 0.012066161
000140 b8 05 73 bd 8b 0f 08 bd ed 35 14 be 23 b2 34 bd
       -0.059331626 -0.033217948 -0.14473696 -0.044115197
000150 ea 6e bf 3d f1 3c 3e 3d 80 e1 5e 3e 1e 64 bc bb
       0.09347327 0.046444837 0.21765709 -0.0057492396
000160 a2 e5 7c 3d 96 35 fa 3d eb 49 e1 bd a9 a0 a5 be
       0.061742432 0.12217252 -0.11000427 -0.32349136
000170 58 26 ee bb 07 85 70 bd 5f 97 75 be 5a e2 f9 3d
       -0.0072677545 -0.058720615 -0.23983525 0.12201376
000180 67 e8 59 3d 6d 38 e0 3d 19 f4 92 3d 48 47 94 3c
       0.05320015 0.10948262 0.07175464 0.018100396
000190 f7 94 55 bd f5 0a 4c bd 63 3d 68 3d 24 fe 1e 3d
       -0.052144017 -0.049815137 0.056699168 0.038816586
0001a0 b3 24 a7 3d cc fb 24 be f0 84 5e 3e de 44 aa bb
       0.08161297 -0.16111678 0.21730399 -0.005196198
0001b0 c6 1a 7d 3d f6 86 61 bd 2a 49 64 3c a2 d8 a4 bb
       0.06179311 -0.05506035 0.013933459 -0.0050307075
0001c0 2f 45 9d bf dc 87 7b 3c f7 88 15 bd 82 92 15 3d
       -1.2286738 0.015352216 -0.036507573 0.036516674
0001d0 b1 0f 88 3c a4 bc 91 3d 13 01 4d 3d 2e 1a 1c be
       0.016609045 0.071160585 0.050049853 -0.15244362
0001e0 24 9d f3 bb a8 bb 87 be 12 91 68 3e 7e d4 36 3c
       -0.007434504 -0.26510358 0.2271159 0.0111590605
0001f0 16 9a 4d 3e f0 f1 11 3e aa 81 01 be 04 8d 6c bd
       0.2007831 0.14252448 -0.12647119 -0.05775167
000200 bf f4 79 3d e3 4b 10 bc be df 34 bd e7 50 17 3d
       0.061024424 -0.008807155 -0.04415869 0.03694239
000210 b4 99 91 3d 7b 03 14 be a4 ae 0f 3e e9 da 2e 3d
       0.07109395 -0.14454453 0.14031464 0.042689238
000220 8b 7b 0e be 59 a6 4f bd f5 74 96 3d ab 77 08 bc
       -0.13914315 -0.05069575 0.073465265 -0.008329312
000230 ef 74 0a bd 2f 37 6c 3d ff f4 97 3c 63 c5 bc bd
       -0.033802923 0.057669815 0.01854944 -0.09217336
000240 4d 6b 79 bc df fe 47 3d f9 8f 8e 3c d5 d0 16 bd
       -0.015223336 0.04882705 0.017402636 -0.03682025
000250 ae a9 e5 bc 9c 7e 5c 3b 66 e3 76 3c bf d4 d3 3d
       -0.028035011 0.00336448 0.015068864 0.103433125
000260 1e cb a5 bc cd d4 c7 bd 88 1d f0 3d 2f 9e 8e bb
       -0.020238455 -0.097573854 0.11724383 -0.004352353
000270 7e 65 7e be 7a f0 37 3d 36 2d f0 3d e6 bd e7 3b
       -0.24843404 0.04490707 0.11727373 0.007072198
000280 91 87 de 3d 98 a3 8f be df 8a b1 bd 5f a5 11 3d
       0.10865701 -0.280545 -0.08669066 0.0355581
000290 0e 85 00 3e 65 cd 46 be 49 3f 95 bd 79 24 08 3e
       0.12550756 -0.1941429 -0.07287461 0.13295163
0002a0 66 01 dd 3d 46 50 11 be 4b da 0c be 97 87 c5 3d
       0.10791282 -0.14190778 -0.13755147 0.09645002
0002b0 a8 29 0a 3d fa 8e c7 3d 48 78 55 37 a6 54 44 bc
       0.033731133 0.097440675 1.27237945e-05 -0.011983072
0002c0 b2 bd 50 bd 49 37 bb 3c 11 f1 f2 bc 6c ae 22 3d
       -0.050962158 0.02285351 -0.029655965 0.039717123
0002d0 37 c0 e5 bd e8 a2 d3 be c0 33 3f be 0b 08 b9 3d
       -0.11218303 -0.41335225 -0.18672085 0.09034737
0002e0 dd 29 70 3d b8 21 23 bd a7 56 83 3d f8 5b 1b 3e
       0.058633674 -0.03982708 0.06413012 0.15171802
0002f0 92 e8 dd be 1e a2 21 be 58 b0 cb bb 48 18 18 3d
       -0.433415 -0.15784499 -0.00621609 0.03713253
000300 72 0c b3 ba 7d 65 41 be 55 3b 83 3d 59 f6 d8 3d
       -0.0013660325 -0.18886371 0.06407801 0.10593862
000310 23 b3 a8 bc 8f 55 b4 3d 1b c8 1b bd ac 59 31 be
       -0.020593232 0.088053815 -0.038032632 -0.17319363
000320 92 19 50 3d 28 7b 31 bd 27 d6 0b 3e 4e a0 f1 3d
       0.050805636 -0.04333034 0.13655911 0.11798154
000330 03 e4 77 3e e6 b6 3e be 78 8d de bd a0 d8 ea bd
       0.24208073 -0.18624458 -0.10866827 -0.11467099
000340 a1 3e 88 3d 45 c3 d1 bc 93 f5 0f 3d ba 52 8e 3d
       0.066525705 -0.025605807 0.035146307 0.069493726
000350 54 cb fa 3c 7c ee 65 3c 98 25 f7 3d 83 c6 17 be
       0.030614533 0.01403391 0.12067717 -0.1482182
000360 9d 8f 82 bc a5 8a 1f 3e 62 79 0a 3e 36 97 92 3c
       -0.01593762 0.15580232 0.13522866 0.017894369
000370 34 e2 2f bd 18 07 bc 3d b8 9d b6 3d f7 ea 82 be
       -0.042940333 0.091810405 0.08916801 -0.2556989
000380 ac bb 0f bd f7 77 43 3d 3b 14 8b bc 7b b7 b1 3b
       -0.035091087 0.04772183 -0.01697742 0.005423484
000390 33 d4 72 3d 6c 4c 7a 3c b7 ff 72 3d 0c d2 9c bb
       0.0592844 0.015277009 0.0593259 -0.0047857817
0003a0 56 1f 15 3c ac 8e e7 3d 30 62 b7 3d 49 eb 85 bc
       0.009101709 0.113065094 0.08954275 -0.016347544
0003b0 5e 1e c1 bc 34 68 e4 bc e2 a4 e1 bd ca 81 70 3e
       -0.02357405 -0.02788172 -0.11017777 0.2348701
0003c0 91 46 30 bf c1 5c 5e 3e c6 5b b2 bd b4 05 51 be
       -0.68857676 0.2171507 -0.08708911 -0.20412332
0003d0 dd 58 1c bd c7 87 50 bd ca f6 20 be 97 dd d6 bd
       -0.038170684 -0.050910737 -0.15719143 -0.10491484
0003e0 77 ac 0c 3e f0 68 a7 3d a6 bd 60 bf 5a f0 16 3e
       0.13737665 0.08174312 -0.8778938 0.14740124
0003f0 86 dc f4 bc c3 5c 83 be 2b ca 19 be 30 e0 4b bd
       -0.02989031 -0.2565671 -0.15018527 -0.04977435

fc4.bias f4 [128]
000000 e7 3f 64 bc c3 53 81 3c 1b ab 81 3e 24 09 0b bd
       -0.013931251 0.015787011 0.25325856 -0.033944264
000010 cb 09 31 3e 9d dd f2 3d b7 ac e4 bd 0e 6c 40 3e
       0.17288892 0.11858676 -0.11165755 0.1879122
000020 a3 b9 a4 bd a5 9d a1 bd 54 bd 26 bb c7 fb f4 3d
       -0.0804322 -0.078913964 -0.0025442438 0.11962085
000030 ec c0 e0 bd 08 12 c9 3c 63 36 0d bd 71 be 67 3e
       -0.10974297 0.02454473 -0.034475695 0.22631241
000040 45 7d e9 3d d9 b8 ec bd e0 c5 52 3e f4 6e 87 3e
       0.114008464 -0.115586944 0.20583296 0.26451838
000050 c2 48 87 3d 8c 07 dc bd f6 cc 53 3e cd 32 27 3e
       0.06605674 -0.10743627 0.20683655 0.16327973
000060 fb ff 96 bd c9 0a 0d 3d b9 0a 37 3e 92 42 d6 3d
       -0.07373043 0.034434114 0.17875184 0.10461916
000070 7b 48 8b bd 58 d8 4c bd 0f 7b 5d 3d 1e f8 11 3e
       -0.06800934 -0.05001101 0.054072436 0.14254805
000080 47 85 a6 3e 70 63 a2 3d 27 07 69 3e 12 32 44 3e
       0.32523558 0.079291224 0.22756635 0.19159725
000090 d6 f6 7f 3e 21 43 6e 3e ff d2 d6 3d 74 70 58 bc
       0.24996504 0.23267795 0.10489463 -0.013210405
0000a0 4d 07 73 bd 61 34 7a 3e c3 f8 55 3e 99 6e 5b 3d
       -0.059333134 0.24434043 0.20895676 0.05357227
0000b0 b2 da 7f 3d d9 c7 16 3e 67 f0 9b 3d 8e 50 cc 3c
       0.062464423 0.14724673 0.076142125 0.024940755
0000c0 b8 46 c2 bc c8 b3 51 3e 05 b0 49 3e f2 59 8e bd
       -0.023715362 0.20478737 0.19696052 -0.069507495
0000d0 3a 1c 0e bc 20 2b 14 bd 7a d8 3f 3e e5 4f 8a 3d
       -0.008673722 -0.03617394 0.18734923 0.0675352
0000e0 aa f8 0f 3e 22 39 81 3e 1a 40 9f 3d d5 42 51 3d
       0.14059702 0.252389 0.07775898 0.051089127
0000f0 0e bc a6 3d e9 1d a8 bd a2 68 87 3e 56 28 1a 3d
       0.08141337 -0.0820883 0.26447016 0.037636124
000100 1a c2 9a 3e 20 a5 f6 bd bc 0d 05 3d 7a 74 24 3e
       0.30226213 -0.12043214 0.0324838 0.16060057
000110 c7 22 83 3e 5d 5b 7d 3e 50 94 91 3d 6a 7e b8 3d
       0.2561247 0.24741884 0.071083665 0.090084866
000120 15 1b 40 3e c6 3d 3a 3e 04 66 30 3d af 3c f2 bb
       0.18760331 0.18187627 0.04306604 -0.007392488
000130 f0 db 06 3e 51 5d c0 3d a1 db ae bd cc 63 f9 3c
       0.13169837 0.09392799 -0.08537985 0.030443095
000140 3f 24 db 3d d7 8e 25 3e 23 b7 a3 bd 5b 96 7b 3d
       0.10700273 0.1616777 -0.07993915 0.061422687
000150 f6 24 41 3e ab c8 6f 3e d4 dc c0 bd ec f9 6e 3e
       0.18861756 0.23416393 -0.094171196 0.23337525
000160 1f bc 83 3e 0d 90 6e 3d 61 12 1d bd ef a4 71 bd
       0.25729463 0.058242846 -0.038347606 -0.058995184
000170 1e 38 ca 3c 4f 8c d0 ba ae 7c 1f 3e 5a c8 46 bd
       0.024684962 -0.0015910956 0.15574905 -0.048530914
000180 85 6b 94 3d 1d 81 dc 3d 87 78 18 3e 1c 0f c8 3d
       0.0724707 0.10766814 0.14889728 0.09768507
000190 d7 c9 54 3e 1d a2 be bc 56 05 e8 bd 6c 74 93 38
       0.20780121 -0.023270661 -0.11329143 7.0311915e-05
0001a0 3a 6a 2b 3e 08 1d 17 3d 26 c2 2b 3e 72 cf 29 bd
       0.16739741 0.03689292 0.1677328 -0.0414576
0001b0 9a cd ec 3d 2d 0d 77 ba 6b 70 36 bd 9e 9a 03 3e
       0.11562653 -0.00094242656 -0.044540804 0.1285195
0001c0 a1 53 6e 3e 1b bb 1e 3e 12 ff e3 3d 69 f3 51 3d
       0.2327409 0.15501063 0.11132635 0.051257525
0001d0 12 e2 33 3e 1b 7d 73 3e ce 18 6f 3e 66 03 4b 3e
       0.17566708 0.23778193 0.23349306 0.19825515
0001e0 d3 90 d8 bc 5c 3c 89 3e 9a 0f 16 3e 8a 15 2a 3c
       -0.026436245 0.26803863 0.14654389 0.010381112
0001f0 c8 84 99 bd f5 05 e7 bd 64 c7 e1 3d 40 14 d1 bd
       -0.07496029 -0.11280433 0.11024359 -0.102089405

q2.weight f4 [1, 128]
000000 77 ae ca be 7f 16 a3 be 08 18 82 3e 8d 52 e5 be
       -0.3958623 -0.318531 0.2540896 -0.44789544
000010 25 0d 2e 3e 56 fd 2f 3e 2f 72 92 be ed b5 91 3e
       0.16997202 0.17186484 -0.2860274 0.2845911
000020 8a 0a 07 bf 3a 31 b3 be 5e 4b b7 be 24 93 3d 3e
       -0.52750456 -0.34998494 -0.35799688 0.18513161
000030 79 96 22 be 5a 18 f9 be aa f0 22 bf 3c c9 68 3e
       -0.15877713 -0.4865139 -0.63648474 0.22733015
000040 3e 18 70 3e 42 a6 79 be cb 06 82 3e eb 15 6f 3e
       0.23446748 -0.24379829 0.25395808 0.23348205
000050 1a 57 e3 be 55 a8 8f be d0 0b 50 3e fc 3b 67 3e
       -0.4440239 -0.28058115 0.20317006 0.22581476
000060 55 01 fa be 27 7d d3 be 0b 30 4f 3e 68 9f 89 3e
       -0.4882914 -0.4130642 0.2023317 0.2687943
000070 91 bb da be ee 61 b2 b9 a7 7b 57 be 3f 9d 53 3e
       -0.42721227 -0.0003402377 -0.21043263 0.20665453
000080 47 c8 84 3e 7d f4 d6 be 34 68 59 3e ab 93 80 3e
       0.2593405 -0.41983405 0.21231157 0.25112662
000090 e5 06 51 3e 71 d7 6b 3e 30 0c 5e 3e 5a 70 77 be
       0.20412786 0.23031403 0.21684337 -0.24163952
0000a0 e5 ab 02 bf 76 7a 3e 3e 37 6d 75 3e 3f 0d 86 be
       -0.5104354 0.18601403 0.23967443 -0.2618198
0000b0 5e da bb be b9 cf 48 3e 7d d3 91 be ee 26 6b bd
       -0.36690038 0.1961049 -0.28481665 -0.057410173
0000c0 32 62 b2 be 29 44 69 3e 07 58 6d 3e 2e 65 08 bf
       -0.34840542 0.22779907 0.23178111 -0.5327939
0000d0 3c e4 ed be 89 8d 59 be 67 b1 88 3e b1 6f 06 bf
       -0.46463192 -0.21245398 0.26697847 -0.5251418
0000e0 bb c8 48 3e 9e 77 3a 3e b6 2a 87 3e 17 a2 06 bf
       0.19607823 0.18209693 0.26399773 -0.5259108
0000f0 58 f2 03 bf 21 d6 bb be f5 21 97 3e 9c 6b 8d bd
       -0.5154166 -0.36686805 0.29518095 -0.069052905
000100 10 84 83 3e 43 a2 af be 4c 9f 6f be f4 f2 6b 3e
       0.25686693 -0.34303483 -0.2340061 0.23041898
000110 c2 f2 64 3e 8c 9a 3c 3e 5d 8e 16 bf 30 23 85 3e
       0.2235823 0.1841833 -0.5881098 0.26003408
000120 92 a5 53 3e ed c6 43 3e 82 90 ec be ef 93 aa be
       0.20668629 0.19118853 -0.46204 -0.3331599
000130 0b 48 93 3e 78 37 6d 3e 37 cb 0c be ad 3b b4 be
       0.28765902 0.23165691 -0.13749395 -0.3520178
000140 2a 9d 7c 3e 79 5d 54 3e 78 15 81 3c 1e 74 c3 bc
       0.24669328 0.20738782 0.015757307 -0.02385908
000150 e2 e1 62 3e ce 49 4d 3e 61 8f ab be 8c ce 50 3e
       0.2215648 0.20047686 -0.33507827 0.20391291
000160 bf 1b 6c 3e 07 6b c3 be 0a 5f 09 bf 01 70 a9 be
       0.2305746 -0.38167593 -0.53660643 -0.33093265
000170 9a ac 36 bd 4c df b0 be 18 42 63 3e d1 7a 00 bf
       -0.0445982 -0.34545362 0.22193182 -0.501874
000180 b7 98 aa be 8a d0 89 3e 76 dc 4c 3e 47 2a 55 3e
       -0.33319637 0.26916915 0.20005974 0.20816909
000190 41 2d 4a 3e 2c 35 bb be a5 dc 52 be 05 83 13 bf
       0.19743825 -0.36564004 -0.20591982 -0.57621795
0001a0 1b db 3c 3e 63 bc bc be a9 af 81 3e 81 7a dd bc
       0.18442957 -0.36862478 0.2532933 -0.027035953
0001b0 e9 c1 75 3e be f8 1e bf dd d8 09 bf b2 57 60 3e
       0.23999752 -0.620983 -0.5384653 0.21908453
0001c0 af 79 51 3e a7 79 c9 3e d6 7b 50 3e ea 08 65 3e
       0.20456575 0.39350626 0.2035974 0.22366682
0001d0 f8 2c 4c 3e 68 31 81 3e 76 1b 1f 3e 47 54 57 3e
       0.19939029 0.25233006 0.1553782 0.21028243
0001e0 69 7f c9 be 49 a7 81 3e 50 a5 3e 3e 3f a3 f0 ba
       -0.3935502 0.2532294 0.18617749 -0.0018359198
0001f0 39 50 46 be 17 0a df be ec 66 74 3e 92 98 81 be
       -0.1936654 -0.43562385 0.23867387 -0.25311714
