resource/train_valid_split_60/sac_critic_10000.pth (torch, 155391 bytes, 10 tensors)

fc1.weight f4 [128, 17]
0	0xbd8927d8	-0.06697053
1	0xbb412360	-0.0029470548
2	0x3e42d7eb	0.19027679
3	0xbe9b87d7	-0.30377075
4	0xbe1e0a07	-0.15433513
5	0xbe07f569	-0.1327721
6	0x3d850614	0.064953
7	0xbe95ec3c	-0.29281795
8	0x3dafb387	0.08579164
9	0xbe03a363	-0.12855296
10	0xbdbe9149	-0.09305055
11	0x3d60dd72	0.054898687
12	0xbcf49ced	-0.029859984
13	0x3db67a63	0.08910062
14	0x3e04b427	0.12959348
15	0xbe225711	-0.15853526
16	0xbdfb3694	-0.12266269
17	0x3e541265	0.20710142
18	0x3e36de92	0.17858341
19	0xbe500e50	-0.2031796
20	0x3c445c0d	0.011984837
21	0x3dfa0471	0.122078784
22	0x3e458a32	0.19290999
23	0x3e7ab5cb	0.24483411
24	0x3e0089fc	0.12552637
25	0xbe251ff3	-0.16125469
26	0x3db61f25	0.08892659
27	0x3e0ffd48	0.14061463
28	0x3da2342d	0.07920108
29	0xbe34cb7d	-0.1765575
30	0xbe005eba	-0.12536135
31	0x3e2ad66c	0.16683358
32	0xbcc89673	-0.024485802
33	0xbe92d09a	-0.28674775
34	0x3e38b174	0.18036443
35	0x3e58e0c4	0.21179491
36	0xbe4b65b5	-0.19863017
37	0xbe58da12	-0.21176937
38	0xbe1cfa27	-0.153298
39	0xbd706d14	-0.058697775
40	0x3e0051a1	0.12531139
41	0xbe3d92eb	-0.18513076
42	0xbd84bafe	-0.064809784
43	0xbd9d29e5	-0.076740064
44	0x3db94969	0.09047205
45	0xbe569f62	-0.20959237
46	0x3dd7e07c	0.10540864
47	0x3d2353af	0.03987473
48	0x3dbecdef	0.093166225
49	0xbdb8bf52	-0.090208665
50	0x3e7a5f79	0.24450482
51	0x3e2e98e9	0.17050518
52	0xbb6defa8	-0.0036306176
53	0x3e2ae132	0.16687468
54	0xbe1dca06	-0.15409097
55	0x3dacf6e8	0.08445531
56	0xbd685c0d	-0.05672841
57	0xbc957b60	-0.018247306
58	0x3db80469	0.08985216
59	0xbe554221	-0.20826007
60	0x3e124e37	0.14287649
61	0x3d9d0dc1	0.07668639
62	0x3d504cec	0.05085461
63	0x3de276df	0.11057829
64	0x3e851ba3	0.25997648
65	0x3c59c611	0.013291852
66	0xbe1783af	-0.14796327
67	0xbe1353ef	-0.14387487
68	0xbe27fe4a	-0.16405597
69	0x3e0a2251	0.13489653
70	0xbd98d726	-0.07462911
71	0x3d85620b	0.06512841
72	0x3e0b4cc3	0.13603501
73	0x3e5db01d	0.21649213
74	0xbe280154	-0.16406757
75	0xbce7cf9c	-0.028297238
76	0x3e1ac7fd	0.15115352
77	0xbd65d2d5	-0.05610927
78	0x3d607372	0.054797597
79	0x3e11f127	0.14252149
80	0x3ccc4558	0.02493541
81	0x3de2ed81	0.110804565
82	0x3e29455c	0.16530365
83	0x3dbe84f0	0.093026996
84	0x3e470b3f	0.19437884
85	0x3c8d3cb0	0.017240852
86	0x3e275f2f	0.16344903
87	0xbba0dedd	-0.00490938
88	0xbd2ab921	-0.04168046
89	0x3d5d2b32	0.053996272
90	0x3e4b377e	0.19845387
91	0x3d21e4d7	0.03952488
92	0x3e37fd75	0.1796778
93	0xbd71a8d0	-0.058998883
94	0x3e5d6d24	0.21623665
95	0x3d991db0	0.074763656
96	0x3e53eb2f	0.20695184
97	0x3e2f724d	0.17133446
98	0x3dab49bb	0.08363672
99	0x3e9ca7fd	0.30596915
100	0x3e724721	0.23659946
101	0xbe778338	-0.2417115
102	0xbd4635b1	-0.048391048
103	0x3e64f8ca	0.2236053
104	0xbe68cfb1	-0.22735478
105	0x3e012965	0.12613447
106	0xbc989961	-0.018627824
107	0xbeb2ed1b	-0.34946522
108	0xbde7c3a3	-0.113166116
109	0xbde6c165	-0.11267356
110	0x3e6177d5	0.22018369
111	0xbe3a144b	-0.18171804
112	0x3e11e565	0.14247663
113	0x3de9dff0	0.11419666
114	0x3e843634	0.25822604
115	0xbe52437a	-0.20533553
116	0xbe4b3a2f	-0.19846414
117	0x3e13b56c	0.14424676
118	0xbe4f1f29	-0.2022673
119	0xbc8a2e7d	-0.01686787
120	0xbe6393eb	-0.22224395
121	0xbb9123f0	-0.004429333
122	0x3ce93dfb	0.028471937
123	0x3cc64541	0.024202945
124	0x3e4442d9	0.19166125
125	0xbdbde2df	-0.09271788
126	0x3e4b801b	0.19873087
127	0x3e8b9d9a	0.27268678
128	0x3e8f8672	0.2803226
129	0x3d4d7509	0.05016044
130	0xbd4bd514	-0.049763754
131	0xbdfe6da7	-0.12423258
132	0x3e7415ff	0.23836516
133	0xbe816e17	-0.25279304
134	0xbd22cc89	-0.03974584
135	0xbe898f59	-0.26867178
136	0xbe3f1136	-0.18658909
137	0x3e267cb9	0.16258515
138	0x3e44bb08	0.19211972
139	0xbe4b4d17	-0.19853626
140	0xbe7599d1	-0.23984458
141	0x3e122002	0.14270023
142	0x3dcc5960	0.099779844
143	0x3cc3dceb	0.023909053
144	0xbe70af0c	-0.23504275
145	0x3e31b5ab	0.17354457
146	0xbe0786be	-0.13234994
147	0xbc81301b	-0.015770009
148	0x3e5a9d26	0.2134901
149	0x3dcf32df	0.10117125
150	0xbe84ae84	-0.25914395
151	0xbe44015d	-0.19141145
152	0xbe8c8f5e	-0.2745313
153	0x3dde9a3b	0.10869261
154	0xbe698f34	-0.22808534
155	0x3d5ed731	0.05440444
156	0x3cad11c8	0.021126643
157	0x3e4fcb59	0.20292415
158	0x3a147656	0.00056633854
159	0xbdc084cc	-0.09400329
160	0xbe2c3080	-0.16815376
161	0x3e0f6239	0.14002313
162	0x3e49e054	0.1971448
163	0x3dfedc63	0.12444379
164	0x3dacc124	0.08435276
165	0xbda1acb2	-0.07894267
166	0x3e139e0a	0.14415756
167	0xbdedc9e8	-0.11610776
168	0x3d4c3aeb	0.049860876
169	0xbd545690	-0.051840365
170	0xbe5406a2	-0.20705655
171	0x3e4714b5	0.19441493
172	0x3e2130a8	0.15741217
173	0xbd2efcc3	-0.04272152
174	0xbdd133a4	-0.10214928
175	0x3c1a4e9d	0.009418157
176	0xbd5e3163	-0.054246318
177	0x3e1b4614	0.15163451
178	0xbd650e65	-0.05592193
179	0xbe8ec945	-0.2788793
180	0xbe50522e	-0.20343849
181	0xbcea76c4	-0.028621085
182	0xbd4c41c1	-0.049867395
183	0xbb4f18de	-0.0031600515
184	0xbd9c5957	-0.07634228
185	0xbe7490fa	-0.23883429
186	0x3d4057c7	0.04695871
187	0x3b814f7f	0.0039462443
188	0x3d3e5807	0.04647067
189	0x3d67a847	0.056556966
190	0x3e45329d	0.19257589
191	0xbe71758b	-0.23579995
192	0xbe9459bc	-0.28974712
193	0x3de33ac1	0.11095191
194	0x3cd76630	0.026293844
195	0xbe9d92df	-0.30776116
196	0x3ddf394e	0.10899602
197	0x3e87c686	0.2651865
198	0x3c8f5aa6	0.01749928
199	0xbd69c338	-0.05707094
200	0x3d5bf793	0.053702902
201	0x3a2ab907	0.00065125566
202	0xbd370ba0	-0.04468882
203	0x3dea4afc	0.114400834
204	0x3d927da9	0.07152874
205	0xbe008bde	-0.12553355
206	0xbddcc6fc	-0.10780141
207	0xbdd4aabb	-0.10384127
208	0x3d80395c	0.062609404
209	0x3e7427fd	0.2384338
210	0xbe12d80b	-0.14340226
211	0x3e46145e	0.19343707
212	0xbd971efe	-0.07378958
213	0x3e24be06	0.16088113
214	0x3e88bafd	0.2670516
215	0x3e385dc0	0.18004513
216	0x3e3fe4a3	0.18739562
217	0x3db5010c	0.0883809
218	0xbe34bcdc	-0.17650169
219	0x3e9b9394	0.3038603
220	0xbe659dae	-0.22423431
221	0xbd4818bb	-0.04885171
222	0xbdb78668	-0.08961183
223	0xbdae5580	-0.085124016
224	0xbe8f6d87	-0.2801325
225	0x3e0cc629	0.13747467
226	0x3d871397	0.06595533
227	0xbca2ac0a	-0.019857425
228	0xbe667435	-0.22505267
229	0x3d86760b	0.06565484
230	0x3afe884e	0.0019419284
231	0x3d77cd0a	0.060498275
232	0x3da07cee	0.078363284
233	0xbe335d7c	-0.1751613
234	0x3d78ba92	0.060724802
235	0x3aac7a8f	0.0013159084
236	0xbd69a822	-0.05704511
237	0x3ddd6bcf	0.108115785
238	0x3e852a76	0.26008958
239	0x3e47420c	0.19458789
240	0x3e32aa32	0.17447737
241	0x3e8cfc01	0.27536014
242	0x3e720715	0.23635514
243	0xbe099ee6	-0.13439521
244	0x3d350055	0.04418977
245	0x3e045345	0.1292239
246	0x3d2560fe	0.040375702
247	0xbe3387fc	-0.17532343
248	0x3dd3a7d4	0.10334745
249	0x3de6b622	0.11265208
250	0xbe515185	-0.20441253
251	0xbe040db1	-0.12895848
252	0x3e165ceb	0.14683883
253	0x3e371308	0.17878354
254	0xbe5340f5	-0.20630248
255	0xbdfe4409	-0.124153204

fc1.bias f4 [128]
0	0x3ee66e87	0.450062
1	0x3e151ad7	0.1456102
2	0x3ed2dec5	0.41185585
3	0x3e98a474	0.29812968
4	0x3e5f8bb3	0.21830635
5	0x3c0632fd	0.0081908675
6	0x3e30b2c9	0.17255701
7	0x3e144448	0.14479172
8	0xbd7b9299	-0.061419103
9	0x3ec7c2c8	0.39015794
10	0xbd80a8ad	-0.06282172
11	0x3ebb40ad	0.3657278
12	0x3e7b66fa	0.24551001
13	0x3ec7e48c	0.39041555
14	0x3ea13f96	0.31493825
15	0x3d2cc484	0.0421796
16	0x3e924812	0.2857061
17	0x3eb7ff83	0.35937127
18	0x3d8ddb53	0.069265984
19	0xbd85d819	-0.06535358
20	0xbe1b94a6	-0.15193424
21	0x3e470e1b	0.19438975
22	0x3ed02010	0.40649462
23	0x3eb00d2c	0.3438505
24	0xbe31ddfc	-0.17369837
25	0x3e98143a	0.29702932
26	0xbe246901	-0.16055681
27	0xbbb3442c	-0.005470773
28	0x3e467a4c	0.1938259
29	0xbdeeccb6	-0.11660139
30	0x3ec40e71	0.38292268
31	0xbe330e21	-0.17485859
32	0xbd968176	-0.073489115
33	0xbb9c4a66	-0.004769611
34	0x3e9ca669	0.3059571
35	0x3e0b1880	0.13583565
36	0x3e815038	0.25256515
37	0xbe357023	-0.17718558
38	0x3e67f281	0.22651102
39	0x3eac78a7	0.336858
40	0xbdce27cc	-0.100661844
41	0x3e8ea75f	0.2786207
42	0xbe2c70ce	-0.16839907
43	0x3eeff14f	0.4686379
44	0x3e406d76	0.18791756
45	0x3e6f4ccd	0.23369141
46	0x3ed8c3c9	0.42336872
47	0xbe6a2745	-0.22866543
48	0x3d30734e	0.043078713
49	0xbe6c40fd	-0.23071666
50	0x3da27b05	0.0793362
51	0x3e84e919	0.2595909
52	0x3da4b3ea	0.080421284
53	0x3e179dac	0.14806241
54	0x3db3c706	0.08778195
55	0xbd979527	-0.074014954
56	0x3df06356	0.11737697
57	0x3cb5ee5c	0.022208385
58	0x3e17cda2	0.14824536
59	0x3e6f5679	0.2337283
60	0x3e412f42	0.18865684
61	0x3ea5df2d	0.32396832
62	0xbd4a5369	-0.049395952
63	0x3ed53b11	0.41646627
64	0xbdb45ccf	-0.08806764
65	0x3d1e5486	0.038654827
66	0xbdd805fb	-0.10548016
67	0x3ecba860	0.39776897
68	0x3cc1c0a4	0.023651429
69	0x3e7863a4	0.2425676
70	0x3dcc6c95	0.09981648
71	0x3dfee612	0.12446226
72	0x3e486601	0.19570161
73	0x3e0299ba	0.12753955
74	0x3ec14d33	0.3775421
75	0x3e563cb0	0.20921588
76	0xbe29c62b	-0.16579501
77	0xbe4e5e0f	-0.20153068
78	0xbe359794	-0.17733604
79	0x3e5e756b	0.21724479
80	0xbde9e81a	-0.11421223
81	0x3eb6b808	0.3568728
82	0xbda3e733	-0.08003082
83	0x3df6bd7e	0.120478615
84	0xbd23d8aa	-0.04000155
85	0x3ea9b1d9	0.331435
86	0x3ea56ad3	0.32308063
87	0xbe066cc3	-0.13127427
88	0xbdb0e4e4	-0.086374074
89	0xbe6e415b	-0.23267119
90	0x3d927639	0.071514554
91	0x3de74646	0.112927005
92	0x3de7ad67	0.11312371
93	0x3e34fe99	0.17675246
94	0xbe804b67	-0.25057527
95	0xbd924615	-0.07142273
96	0x3db795c9	0.08964116
97	0xbdcf3f63	-0.10119512
98	0x3e742d5c	0.23845428
99	0x3d0d9573	0.034566354
100	0x3e1dea9e	0.1542153
101	0x3eea5fe2	0.45776278
102	0x3d8739ef	0.06602847
103	0x3db5763b	0.08860441
104	0xbca74414	-0.020418204
105	0x3dc78d4e	0.097437486
106	0x3dae7020	0.0851748
107	0xbe1058ee	-0.14096424
108	0xbe21890d	-0.15774937
109	0x3eb3344e	0.35000843
110	0x3e77eb19	0.24210776
111	0x3ecba186	0.3977167
112	0x3ec9b2b7	0.3939416
113	0x3ed6754b	0.41886362
114	0x3d411fcd	0.04714947
115	0x3e93c93c	0.28864467
116	0xbda9c6a5	-0.082898416
117	0x3eb8bf85	0.36083618
118	0x3ea89c4a	0.3293174
119	0x3ee9d0c4	0.45667088
120	0xbb924f86	-0.0044650463
121	0x3e60f3ab	0.21967952
122	0x3ee683af	0.45022342
123	0xbb5e38fe	-0.0033908482
124	0xbda8c436	-0.08240549
125	0xbd5ff2a8	-0.054674774
126	0x3d706e84	0.058699146
127	0xbe2a8d3e	-0.16655442

fc2.weight f4 [128, 128]
0	0xbc88292c	-0.016621195
1	0x3d6742e4	0.056460276
2	0x3ce1678f	0.0275152
3	0xbd1f3a21	-0.038873795
4	0xbd708e65	-0.058729548
5	0x3ce68278	0.028138384
6	0x3bdb12b0	0.0066855773
7	0xbd69076f	-0.056891855
8	0xbd21f33e	-0.039538614
9	0xbd47ae88	-0.04875043
10	0x3d389917	0.045067873
11	0xbdc219f6	-0.09477608
12	0x3da6876a	0.08131297
13	0xbd4c04cb	-0.04980926
14	0x3d92aea8	0.07162219
15	0x3e227ea8	0.15868628
16	0xbdcf4382	-0.10120298
17	0x3d9f082d	0.07765231
18	0x3a703342	0.00091629114
19	0x3d3f2911	0.046670023
20	0x3d7b0c4d	0.061291028
21	0x3d2f8c59	0.042858455
22	0x3d77f2ec	0.060534403
23	0x3bf16f5c	0.0073680114
24	0x3ddc489e	0.10756038
25	0x3d216145	0.039399404
26	0x3e3ee340	0.18641376
27	0x3cbc9dd3	0.023024475
28	0xbd13dcbe	-0.036099188
29	0x3bb1ba5d	0.0054238276
30	0xbcfb45b8	-0.030672893
31	0x3e227897	0.15866314
32	0x3de0c898	0.1097576
33	0xbba0ab76	-0.0049032522
34	0xbd726137	-0.059174743
35	0x3dd526c9	0.10407788
36	0x3da88077	0.08227628
37	0x3d58ca87	0.05292752
38	0x3d13b02a	0.036056675
39	0xbd0baad5	-0.034098465
40	0xbc987960	-0.018612564
41	0xbd7669e9	-0.060159598
42	0x3d3de54d	0.046361256
43	0x3d7d373e	0.06182026
44	0x3c1a9e18	0.009437107
45	0xbbc122d1	-0.005894043
46	0x3d56088a	0.052254237
47	0x3e869f0a	0.26293212
48	0x3dc4b77e	0.09605311
49	0x3e015d80	0.12633324
50	0xbc67e537	-0.01415377
51	0x3bf262ae	0.0073970174
52	0xbd6dec91	-0.058086935
53	0xbcc68fb9	-0.024238454
54	0xbc3edcc7	-0.011649317
55	0xbc0338fc	-0.008009192
56	0x3da29a46	0.079395816
57	0x3ddb5ca5	0.1071103
58	0x3dce5484	0.10074714
59	0x3c8965b1	0.016772123
60	0xbd0e3894	-0.034721926
61	0xbcaa74cc	-0.020807646
62	0xbcf7416f	-0.030182568
63	0x3d4fae61	0.05070341
64	0x3dd10e0e	0.10207759
65	0x3d9a6ca3	0.07540252
66	0xbbad7d86	-0.0052945046
67	0xbda31084	-0.079621345
68	0x3c0a1f3a	0.008430297
69	0xbdada570	-0.0847882
70	0x3db8b95f	0.09019732
71	0xbdb5f857	-0.08885258
72	0xbe010d3a	-0.12602702
73	0x3db68f62	0.08914067
74	0xbd0cb76e	-0.03435462
75	0x3d1420ad	0.036163975
76	0xbd45bc3e	-0.048275225
77	0x3e227273	0.15863971
78	0x3e3f9fea	0.18713346
79	0x3dbe919a	0.09305115
80	0x3e0b1068	0.13580477
81	0xbcfe4c8e	-0.031042363
82	0xbd2813f4	-0.041034654
83	0xbd93ecd8	-0.07222909
84	0xbe14467b	-0.14480011
85	0x3cf8c19a	0.030365754
86	0x3c2c1234	0.010502387
87	0x3dbb253e	0.09137963
88	0xbd953702	-0.072858825
89	0x3e1de0f9	0.15417852
90	0xbdd71309	-0.105016775
91	0x3cdd8142	0.027039174
92	0x3cab5c01	0.020917894
93	0xbdb78ca0	-0.08962369
94	0x3e10d5d7	0.14144073
95	0xbdd70ddd	-0.10500691
96	0x3d04b518	0.032399267
97	0x3e4f9589	0.20271887
98	0x3c874a53	0.016514933
99	0xbc12b04d	-0.008953166
100	0xbc80244d	-0.01564231
101	0x3cdeef35	0.027213672
102	0xbd7b8ca1	-0.06141341
103	0xbbe0f2f0	-0.006864898
104	0x3ddaf165	0.106905736
105	0x3dc8cfd4	0.09805265
106	0xbd4f7eda	-0.050658084
107	0xbc88d349	-0.016702311
108	0x3e4bd111	0.19903971
109	0x3d6d0e43	0.05787493
110	0xbdf49657	-0.119427375
111	0xbb8d7f0b	-0.004318123
112	0xbd552541	-0.05203748
113	0x3d66c1e1	0.05633724
114	0xbcd4c91f	-0.025974808
115	0xbdecd9f8	-0.11565012
116	0x3e19fd68	0.15038073
117	0xbd358c8e	-0.044323497
118	0x3b17001f	0.0023040844
119	0x3d61542a	0.055011906
120	0x3cf51632	0.02991781
121	0xbcc9846b	-0.024599275
122	0xbdbb6bb1	-0.091514
123	0x3d8310a8	0.06399661
124	0x3db70dba	0.08938165
125	0x3db35c77	0.08757871
126	0x3d22320c	0.03959851
127	0x3e8526d0	0.26006174
128	0x3c921a04	0.01783467
129	0xbcafb165	-0.021446893
130	0xbc518d47	-0.012790031
131	0x3cebbb08	0.028775707
132	0x3d8ad355	0.0677859
133	0x3e188b89	0.14896978
134	0xbcce1050	-0.025154263
135	0xbcdb136f	-0.026742665
136	0xbe9bcace	-0.30428165
137	0xbcc6cd18	-0.024267718
138	0x3d80eca0	0.06295133
139	0xbdc315c7	-0.09525638
140	0x3d49b3fa	0.049243905
141	0xbd743f40	-0.059630632
142	0xbd6f10c2	-0.05836559
143	0x3de3e772	0.11128129
144	0xbdb23582	-0.08701612
145	0xbcf6d8d2	-0.030132685
146	0x3d666267	0.056246188
147	0xbbf6e979	-0.0075351563
148	0xbdde4895	-0.10853688
149	0x3c411850	0.011785582
150	0xbd367ac0	-0.044550657
151	0xbd25c312	-0.040469237
152	0x3e098029	0.13427795
153	0x3c90f965	0.017697046
154	0xbdbf93c8	-0.09354359
155	0x3e032c6c	0.12809914
156	0xbc8cdd96	-0.017195504
157	0xbdfc152d	-0.123087265
158	0xbe43ba0b	-0.19113939
159	0xbd4f46a9	-0.050604496
160	0x3db330e8	0.087495625
161	0xbd89d26b	-0.06729587
162	0x3bf67f7d	0.007522522
163	0xbd362d3f	-0.044476744
164	0xbd42fe40	-0.047605753
165	0x3cb369e4	0.021901079
166	0xbe001608	-0.12508404
167	0xbd1778a1	-0.036980275
168	0xbe02b42b	-0.12764041
169	0xbd184663	-0.0371765
170	0xbdaf7cef	-0.08568751
171	0xbb9e8413	-0.004837522
172	0xbd986c9a	-0.07442589
173	0x3d8cb5e4	0.068706304
174	0xbd8baf90	-0.06820595
175	0xbe1ab9e9	-0.15109982
176	0xbd40fc76	-0.047115766
177	0x3e034951	0.12820937
178	0xbda4f613	-0.080547474
179	0xbe78a492	-0.24281529
180	0xbd533353	-0.05156262
181	0xbd52298f	-0.051309165
182	0x3d82e467	0.063912205
183	0xbdfbb87a	-0.122910455
184	0xbde00a4e	-0.109394655
185	0x3b887807	0.004164699
186	0x3c80c791	0.01572016
187	0xbe39f9db	-0.18161719
188	0xbe4e1fa1	-0.20129253
189	0x3d84cb24	0.064840585
190	0x3df6f118	0.12057704
191	0x3d511960	0.05104959
192	0x3d197179	0.03746173
193	0x3d58853e	0.052861445
194	0xbdac83cc	-0.08423576
195	0x3cb32aae	0.021870937
196	0xbdd4197b	-0.103564225
197	0xbcd9422b	-0.02652081
198	0x3cf77160	0.030205429
199	0xbd933b2e	-0.07189022
200	0xbdba09a1	-0.09083868
201	0xba5dfcb1	-0.0008468135
202	0xbc9a363f	-0.018824695
203	0xbd891f3d	-0.06695411
204	0x3dcfb133	0.1014122
205	0x3ddd23d0	0.10797846
206	0x3d2bfeb3	0.041990947
207	0x3d6d5eee	0.05795186
208	0xbe5a5cc1	-0.21324445
209	0x3d80e43e	0.06293534
210	0xbdf554f8	-0.11979097
211	0x3c1a5cb0	0.0094215125
212	0x3ded76f9	0.11594958
213	0x3d0bde62	0.034147628
214	0xbd332f41	-0.043746237
215	0xbd2de22c	-0.042452022
216	0x3d572029	0.052520905
217	0x3db2ec44	0.0873647
218	0x3d59a157	0.05313238
219	0x3da38ea3	0.0798619
220	0xbd2dbaa7	-0.042414334
221	0xbe1722e2	-0.147594
222	0x3dc9b9df	0.09849905
223	0x3a1da56e	0.00060137257
224	0x3e0cedae	0.13762543
225	0xbe06f151	-0.13177992
226	0xbd55389d	-0.052055944
227	0xbc92d80b	-0.017925283
228	0xbd2acee0	-0.041701198
229	0xba1cbfe5	-0.0005979522
230	0xbce3e1ad	-0.027817572
231	0x3d8c9a37	0.06865352
232	0x3cf83f50	0.030303627
233	0xbd4eee47	-0.050520208
234	0xbdde5d36	-0.10857622
235	0x3b7ae8e4	0.0038285786
236	0x3e3ab0fc	0.18231577
237	0x3d8126ea	0.063062504
238	0xbe094d66	-0.13408431
239	0xbd9983d3	-0.074958466
240	0xbc77c32d	-0.015122217
241	0x3ccc85b9	0.024966108
242	0x3c6b3d99	0.014357948
243	0x3d5b989b	0.053612333
244	0x3b85f5b3	0.0040881275
245	0x3d1127d5	0.035438377
246	0x3ca1dc32	0.019758318
247	0x3b43e67d	0.002989202
248	0xbea00e63	-0.31260976
249	0x3bc5e9db	0.0060398406
250	0xbd0b5b66	-0.03402271
251	0xbde923f7	-0.11383813
252	0x3ddaf6ad	0.10691581
253	0x3e07bcb4	0.13255578
254	0xbee8657d	-0.4538993
255	0x3e21cb6e	0.15800259

fc2.bias f4 [128]
0	0xbdfd045f	-0.12354349
1	0x3d87c4ac	0.06629309
2	0x3e239dd2	0.15978172
3	0x3c08c1ef	0.008347019
4	0x3e6a64a1	0.2288995
5	0x3df491f1	0.119418986
6	0x3de6458d	0.112437345
7	0x3e45bd42	0.19310477
8	0x3e0fb72e	0.14034721
9	0x3e7c4146	0.24634275
10	0x3d5aef58	0.053450912
11	0x3cb239a8	0.021756008
12	0x3d85aa5f	0.06526636
13	0x3e0bf8d7	0.13669144
14	0xbb92ef16	-0.0044840677
15	0x3d8a65e7	0.067577176
16	0x3c4e2359	0.01258167
17	0x3dd8230f	0.10553562
18	0x3e46b90b	0.19406526
19	0x3d844712	0.06458868
20	0x3db33f6c	0.08752331
21	0xbdd8d56f	-0.10587584
22	0x3e10ce85	0.14141281
23	0x3e366495	0.17811806
24	0x3e39b11d	0.1813397
25	0xbc4296b9	-0.011876755
26	0x3e58c784	0.21169859
27	0x3e1ae15c	0.1512503
28	0x3d43c455	0.04779466
29	0xbe113c1f	-0.1418309
30	0xbc236f66	-0.00997529
31	0x3e16db87	0.1473218
32	0x3d834031	0.06408728
33	0x3e6f114e	0.23346445
34	0x3da9e81b	0.08296224
35	0xbdedfa9a	-0.11620064
36	0x3ddf6972	0.10908784
37	0x3e1bb19e	0.15204474
38	0xbccf375f	-0.025294958
39	0x3dfdf51f	0.12400269
40	0x3e407b6e	0.18797085
41	0xbdf6874c	-0.120375246
42	0xbd9ff236	-0.0780987
43	0x3e413034	0.18866044
44	0x3e1b9626	0.15193996
45	0x3d87e830	0.06636083
46	0xbdb8dd08	-0.09026533
47	0x3dbd2ef8	0.09237474
48	0xbdad9cef	-0.08477198
49	0x3dbc3e36	0.09191553
50	0x3e3708ea	0.17874494
51	0x3d9cd222	0.07657267
52	0x3d9b9d0c	0.07598314
53	0x3e5491fb	0.20758812
54	0x3cad3256	0.021142166
55	0x3cd83bfa	0.026395787
56	0xbd4ed782	-0.050498493
57	0xbd99b875	-0.075058855
58	0xbb91b845	-0.0044470155
59	0xbda4b64f	-0.08042585
60	0xbd2c1e50	-0.042021096
61	0xbdc14fa9	-0.09439022
62	0x3e6d586c	0.23178262
63	0x3dbb1228	0.091343224
64	0x3d66333f	0.056201216
65	0x3cdadfee	0.026718106
66	0x3e30a5c1	0.1725073
67	0xbd9aaefb	-0.07552906
68	0x3dd016c6	0.10160594
69	0x3e183d52	0.14867142
70	0xbda43057	-0.080170326
71	0xbdbea5c6	-0.093089625
72	0xbcc7008f	-0.024292259
73	0x3daab30d	0.083349325
74	0x3da2acaf	0.07943093
75	0x3e29a927	0.16568433
76	0x3b99e9c7	0.004697058
77	0x3e384efe	0.17998883
78	0x3d8b9039	0.06814618
79	0x3d8e5b72	0.069510356
80	0x3dc04152	0.09387459
81	0x3e084a8e	0.1330969
82	0x3e034f8a	0.1282331
83	0x3e1c25e2	0.15248826
84	0x3e1ab51d	0.15108152
85	0x3d5e4416	0.05426415
86	0xbd9ef4d4	-0.07761541
87	0x3e507269	0.20356144
88	0xbcffc685	-0.031222591
89	0x3dc9a7c9	0.098464556
90	0x3e56dadd	0.20981927
91	0x3cbef41c	0.02330976
92	0x3e3ff070	0.18744063
93	0x3c821aed	0.01588198
94	0x3bb5c078	0.0055466257
95	0x3e025567	0.12727891
96	0xbbe6d72f	-0.007044695
97	0x3d9db77b	0.07701012
98	0x3d452afd	0.0481367
99	0x3d837390	0.06418526
100	0xbd0d5588	-0.034505397
101	0x3e32d56c	0.17464226
102	0xbdabfc87	-0.08397775
103	0x3e6d53f8	0.23176563
104	0xbc508b46	-0.012728518
105	0xbd99b5f1	-0.07505406
106	0xbbda0d02	-0.0066543827
107	0xbc955bda	-0.018232275
108	0xbdd2fc18	-0.10301989
109	0x3e0f2330	0.13978267
110	0xbbcc7415	-0.006239424
111	0x3d8ca561	0.06867481
112	0xbdc38f82	-0.09548856
113	0xbdd0740a	-0.10178383
114	0xbc1bb3a8	-0.009503283
115	0xbd3a6bff	-0.04551315
116	0x3e466453	0.19374208
117	0x3d51bb6e	0.051204138
118	0xbdb065b9	-0.08613152
119	0x3e2e607c	0.17028993
120	0xbd5723c8	-0.052524358
121	0xbd112fcb	-0.03544597
122	0x3e3c2c42	0.18376258
123	0x3e466ac5	0.19376667
124	0x3cb0f317	0.02160029
125	0x3cd73ca8	0.02627404
126	0x3dd5aaa1	0.104329355
127	0x3e60895c	0.21927398

q1.weight f4 [1, 128]
0	0xbe4fa70d	-0.20278569
1	0xbe2731ff	-0.16327666
2	0x3e3ab7c5	0.18234165
3	0xbe8c0e45	-0.27354637
4	0x3e5ac589	0.21364416
5	0x3e54518f	0.20734237
6	0x3e5a15fe	0.21297452
7	0x3e50be23	0.20385031
8	0x3e56fa3c	0.20993894
9	0x3e672823	0.22573905
10	0xbd6b8b3a	-0.057505824
11	0xbe4552aa	-0.19269815
12	0xbe8ec2a9	-0.2788289
13	0x3e48c586	0.19606599
14	0xbe458a3d	-0.19291015
15	0xbe75f083	-0.24017529
16	0xbcc32b62	-0.023824397
17	0x3e1d62dc	0.15369743
18	0x3e3c0f15	0.18365128
19	0x3e3dacf7	0.18523012
20	0x3e264c4c	0.16240042
21	0xbea78218	-0.3271644
22	0x3e40be55	0.18822606
23	0x3e8297e0	0.25506496
24	0x3e26a313	0.16273145
25	0xbd835ef3	-0.064145945
26	0x3e5b57bb	0.21420185
27	0x3e5b2cf6	0.2140387
28	0xbe9f70a8	-0.31140637
29	0xbec3709e	-0.38171858
30	0xbeadfaf3	-0.33980522
31	0x3e473adf	0.19456051
32	0xbe671103	-0.22565083
33	0x3e623dd1	0.22093894
34	0x3e564093	0.2092307
35	0xbe49f638	-0.19722831
36	0x3e838de7	0.256942
37	0x3e545ba5	0.20738085
38	0xbe7f8ab1	-0.2495525
39	0x3e42b91a	0.19015923
40	0x3e3b336f	0.18281339
41	0xbe0bd3d6	-0.13655028
42	0x3d910e1f	0.070827715
43	0x3df9761b	0.1218073
44	0x3e12d31c	0.14338344
45	0xbe81173e	-0.25213045
46	0xbe37b767	-0.17941056
47	0x3e36409e	0.17798087
48	0xbecdc509	-0.40189388
49	0x3e3e52c4	0.1858626
50	0x3e462b5b	0.19352476
51	0x3e302b75	0.17204078
52	0x3e36ab57	0.17838798
53	0x3e370e68	0.1787659
54	0xbecd87d6	-0.40142697
55	0xbea3d710	-0.32000017
56	0xbe81935a	-0.25307733
57	0xbed7515b	-0.42054257
58	0xbe8077b6	-0.25091332
59	0xbe5f2faf	-0.21795534
60	0xbe871d5e	-0.26389593
61	0xbd5af86f	-0.05345958
62	0x3e43ec21	0.19133045
63	0x3e768b51	0.24076582
64	0xbe31d27c	-0.1736545
65	0xbeb4941d	-0.3526925
66	0x3e24b5a5	0.16084917
67	0xbebaad8b	-0.36460528
68	0x3e5b22d0	0.21399999
69	0x3e146bf2	0.14494303
70	0xbe4a07d3	-0.19729547
71	0xbeada104	-0.33911908
72	0xbe732f7e	-0.23748586
73	0xbea23e8a	-0.3168834
74	0x3e122054	0.14270145
75	0x3e14ffaa	0.14550653
76	0xbedd55fd	-0.43229666
77	0x3e19cb52	0.15018967
78	0x3e3070a3	0.17230467
79	0xbe7d8c82	-0.2476063
80	0x3e3c4be8	0.18388331
81	0x3e08805d	0.13330217
82	0x3e37bec0	0.17943859
83	0x3e27a40b	0.16371171
84	0x3e2d22c6	0.16907796
85	0x3e3770c4	0.1791411
86	0xbe8e454f	-0.27787253
87	0x3e4d4597	0.20046078
88	0xbe80e196	-0.25172108
89	0x3e21520d	0.15753956
90	0x3e5c2003	0.21496587
91	0xbe5893ee	-0.2115018
92	0x3e513cda	0.2043337
93	0xbc2b5325	-0.010456835
94	0xbe8a0e00	-0.26963806
95	0x3e209f60	0.15685797
96	0xbe388bb6	-0.18022045
97	0x3e32e813	0.17471342
98	0xbe279458	-0.16365182
99	0x3e3b2513	0.18275861
100	0xbe747478	-0.23872554
101	0x3e07fac5	0.13279255
102	0xbe9ed82d	-0.31024304
103	0x3e571fe8	0.21008265
104	0xbe624f86	-0.22100648
105	0xbe68c2eb	-0.22730605
106	0xbe1f0345	-0.15528591
107	0xbeaf4994	-0.34235823
108	0xbe635b55	-0.22202809
109	0x3e60e7eb	0.2196347
110	0xbd8ec649	-0.06971414
111	0x3e27f786	0.16403016
112	0xbe5ca333	-0.2154663
113	0xbe2a7303	-0.16645436
114	0xbe9c8cb1	-0.3057609
115	0xbe8dcb4e	-0.27694172
116	0x3e4b03c3	0.19825654
117	0xbe7ed864	-0.24887234
118	0x3d66209c	0.056183442
119	0x3e537134	0.20648652
120	0xbead0323	-0.33791456
121	0xbe4c3c3e	-0.19944856
122	0x3e3e617a	0.18591872
123	0x3e3eb800	0.18624878
124	0xbe76e71e	-0.24111602
125	0xbe73c12d	-0.2380416
126	0x3e2fad9c	0.1715607
127	0x3e59512d	0.21222372

fc3.weight f4 [128, 17]
0	0x3cc93e3a	0.024565805
1	0xbe82a6e9	-0.25517967
2	0xbcc09f9d	-0.02351361
3	0xbe195a35	-0.14975818
4	0xbe751c7b	-0.23936646
5	0xbe3277f6	-0.17428574
6	0x3e53db98	0.20689237
7	0xbe76fae0	-0.24119139
8	0x3e51491c	0.20438045
9	0xbdf30795	-0.118666805
10	0xbc6b1dec	-0.014350396
11	0xbc1102cb	-0.008850764
12	0xbe03c474	-0.1286791
13	0x3d86740f	0.06565105
14	0xbd83aa4c	-0.06428966
15	0xbe1fb7a5	-0.15597399
16	0x3d8338b3	0.06407299
17	0xbcba195f	-0.022717176
18	0x3cbe7b81	0.02325225
19	0xbe4ab131	-0.19794156
20	0x3e0414f1	0.12898614
21	0x3e1dba43	0.15403084
22	0x3c9d6ba7	0.019216372
23	0xbce5a2b1	-0.028031679
24	0x3e81e179	0.25367334
25	0xbc438221	-0.011932881
26	0xbcd89e2f	-0.026442615
27	0xbe77bf44	-0.24194056
28	0xbdd426f7	-0.103589945
29	0xbecaf4f2	-0.39640003
30	0xbdd14ed9	-0.10220117
31	0x3e2c9f5b	0.16857664
32	0x3bcc0b5b	0.0062269396
33	0xbeac149b	-0.3360947
34	0xbd0aa222	-0.03384603
35	0xbe383e7f	-0.1799259
36	0xbc8297a0	-0.015941441
37	0x3d8f7d6e	0.07006346
38	0xbecf7952	-0.40522248
39	0xbca33bed	-0.019926036
40	0xbe59c2eb	-0.21265762
41	0xbe810ac1	-0.25203517
42	0xbe49497d	-0.1965694
43	0x3e0df213	0.13861875
44	0x3ea3888d	0.31940117
45	0x3e3ddb55	0.185407
46	0x3d5af74c	0.053458497
47	0xbdeae466	-0.11469345
48	0xbd4ff7e7	-0.050773527
49	0xbd463af0	-0.04839605
50	0x3cfa069f	0.030520735
51	0x3db4e0e9	0.08831961
52	0xbdb5abe2	-0.08870675
53	0xbbd372a8	-0.006452877
54	0xbe4da044	-0.20080668
55	0x3e599712	0.21249035
56	0x3e7fa502	0.24965289
57	0x3d5bedb3	0.053693485
58	0xbcef2bee	-0.029195752
59	0x3e34988a	0.17636314
60	0xbd8f835f	-0.07007479
61	0x3e377d45	0.1791888
62	0xbcd6346d	-0.026148045
63	0xbd7a4461	-0.061100367
64	0x3e1a4b76	0.15067849
65	0xbe49a9b7	-0.19693647
66	0xbce0a9a3	-0.02742464
67	0xbe6c1f88	-0.23058903
68	0xbe0eb133	-0.13934784
69	0x3d58c321	0.052920464
70	0xbdcfef56	-0.101530716
71	0xbe0a21ee	-0.13489506
72	0x3e5e043c	0.21681303
73	0xbd23132e	-0.039813213
74	0xbd0c503b	-0.0342562
75	0xbe9a26ac	-0.3010763
76	0x3d857ce3	0.06517961
77	0x3e624a3e	0.22098634
78	0xbd625d5f	-0.055264827
79	0xbbd526c5	-0.006504866
80	0x3dfffc1b	0.12499257
81	0xbd4f81a3	-0.05066074
82	0x3e2c5769	0.1683022
83	0xbe86c6e8	-0.26323628
84	0x3d3fe8f5	0.046853025
85	0xbddc15da	-0.10746355
86	0xbd58dbb6	-0.052943908
87	0xbe485f68	-0.19567645
88	0xbbbfe786	-0.005856457
89	0x3e49d61d	0.19710584
90	0xbe3bf5f4	-0.18355542
91	0xbdc6a682	-0.096997276
92	0x3e050d0a	0.12993255
93	0x3e8239b8	0.2543466
94	0x3cb2d41c	0.021829657
95	0xbe26148c	-0.16218776
96	0xbca15202	-0.019692425
97	0x3dba4f4a	0.090971544
98	0xbdc600c6	-0.09668116
99	0x3d8f2f2d	0.0699142
100	0x3e1940c1	0.14966108
101	0xbe9f3733	-0.310968
102	0x3d980357	0.07422512
103	0xbdb117e0	-0.08647132
104	0xbd8c3993	-0.06846919
105	0x3e01f846	0.12692365
106	0xbe196d7e	-0.14983174
107	0xbe7cadf7	-0.24675737
108	0x3e18dd59	0.14928187
109	0xbe368f0b	-0.17828004
110	0xbe7269d7	-0.23673187
111	0x3e315a4a	0.17319599
112	0xbd1a795c	-0.037713394
113	0x3d1e99fe	0.038721077
114	0x3b0decff	0.0021656153
115	0x3e2e8ada	0.17045155
116	0x3df5366c	0.11973271
117	0xbdceda46	-0.10100226
118	0xbdad34bd	-0.08457325
119	0x3e185b8f	0.14878677
120	0xbd1dc181	-0.038514618
121	0x3e581d32	0.21104887
122	0x3db8b2df	0.09018492
123	0x3df36d17	0.118860416
124	0x3dd0089e	0.101578936
125	0x3e91671e	0.28398985
126	0xbdf9496b	-0.121722065
127	0x3e5cd48a	0.21565452
128	0xbbc906cd	-0.006134844
129	0xbe6e0f45	-0.23248012
130	0xbe76c76f	-0.24099515
131	0xbdadc7a4	-0.08485344
132	0x3e8007b1	0.25005868
133	0xbdcd2d7e	-0.100184426
134	0xbdcb0b52	-0.099142686
135	0x3e5ae5fc	0.21376795
136	0xbe0b3191	-0.13593127
137	0xbe2c18c3	-0.16806321
138	0xbe904c1d	-0.2818307
139	0xbe056fb1	-0.13030888
140	0x3e4c3459	0.19941844
141	0x3e7aba60	0.24485159
142	0x3e2c48cc	0.16824645
143	0xbbb2254a	-0.005436574
144	0xbddba424	-0.10724667
145	0x3cdfadcb	0.02730455
146	0xbe402dbb	-0.18767445
147	0xbe5801de	-0.21094462
148	0x3d65bbca	0.056087293
149	0xbd1b1460	-0.037861228
150	0xbd4af94e	-0.04955416
151	0x3de3ccc3	0.111230396
152	0xbd6cab32	-0.057780452
153	0xbd0f15c0	-0.03493285
154	0x3db78679	0.089611955
155	0x3da96c5a	0.082726195
156	0x3dcb46ca	0.09925611
157	0xbe82d127	-0.25550196
158	0xbe8a0367	-0.2695572
159	0xbe1154f4	-0.14192563
160	0x3df5a357	0.11994045
161	0xbeb0c556	-0.34525555
162	0xbddeb6b1	-0.10874689
163	0xbe0a6e09	-0.13518538
164	0x3e2b28e1	0.16714813
165	0x3e44fa52	0.19236115
166	0x3b9a5368	0.00470965
167	0xbe0b4a8c	-0.13602656
168	0x3e10136b	0.14069907
169	0x3e80b17d	0.25135413
170	0xbd9eecee	-0.077600345
171	0x3e58cc60	0.21171713
172	0xbe27dee8	-0.16393626
173	0x3d941761	0.07231022
174	0xbde25402	-0.110511795
175	0x3d660ee1	0.056166533
176	0x3c58beb9	0.013229066
177	0xbde66c51	-0.112511285
178	0x3e83ab5f	0.25716683
179	0xbdffc743	-0.12489178
180	0x3eb76917	0.35822365
181	0x3bb3b15f	0.0054837908
182	0x3d6ad338	0.05733034
183	0x3e387267	0.18012391
184	0xbe8192d3	-0.2530733
185	0xbe7493eb	-0.23884551
186	0xbe8d0346	-0.2754156
187	0xbd52066a	-0.05127565
188	0x3e0ec4b7	0.13942228
189	0x3de03306	0.10947232
190	0x3ddaf5ba	0.106914
191	0x3e708c0a	0.2349092
192	0x3dce1005	0.10061649
193	0xbe32f2f1	-0.17475487
194	0x3e0ef61f	0.13961075
195	0xbda2956e	-0.07938658
196	0x3e32daf2	0.17466334
197	0x3eaa19f3	0.33222923
198	0x3de19acc	0.11015853
199	0xbdfc3cd9	-0.12316293
200	0xbe917fcb	-0.2841781
201	0xbe977368	-0.29580235
202	0x3d58c392	0.052920885
203	0x3d7cd5d7	0.06172737
204	0xbe27ca77	-0.16385828
205	0xbdb16f6a	-0.08663829
206	0x3e4f2def	0.20232366
207	0xbe637503	-0.22212605
208	0x3e008659	0.1255125
209	0xbdb7591d	-0.08952544
210	0x3e8a97f1	0.27069047
211	0xbe730ebf	-0.23736094
212	0x3e388eeb	0.18023269
213	0x3e8ef506	0.27921313
214	0x3d447771	0.04796547
215	0x3e20a68b	0.15688531
216	0x3cb779d3	0.022396958
217	0x3dedc3c0	0.11609602
218	0xbe6c1590	-0.230551
219	0x3e551d82	0.20812038
220	0xbdd6e630	-0.104931235
221	0x3e542968	0.2071892
222	0x3e65946c	0.224199
223	0x3db5f092	0.08883776
224	0xbe6e57fb	-0.2327575
225	0x3cdb0b6b	0.026738843
226	0x3ddb139e	0.10697101
227	0xbe5fda11	-0.2186053
228	0xbe97d8c6	-0.29657573
229	0x3dd1afac	0.10238585
230	0x39673e4e	0.00022053087
231	0x3d67ae56	0.056562744
232	0x3dfa761e	0.1222956
233	0xbcd426b3	-0.02589736
234	0x3ea66015	0.3249518
235	0xbe77d8b7	-0.24203764
236	0xbe4de4e9	-0.20106854
237	0x3d06becc	0.0328968
238	0x3de1d043	0.11026051
239	0xbe6fd9fe	-0.23423001
240	0x3e6fc406	0.23414621
241	0xbe09eda4	-0.13469559
242	0xbd42d5a2	-0.047567017
243	0x3dc95585	0.09830765
244	0x3d370c75	0.044689614
245	0xbd1a20d0	-0.03762895
246	0x3e5d8268	0.21631777
247	0x3da59ebe	0.08086918
248	0x3da0d7fe	0.07853697
249	0x3e450cdb	0.19243185
250	0xbe4c2cf2	-0.1993902
251	0xbe781aab	-0.24228923
252	0x3e4941bf	0.19653986
253	0xbe617e93	-0.2202094
254	0x3ebb3576	0.36564225
255	0x3e9454fa	0.28971082

fc3.bias f4 [128]
0	0x3eff53d7	0.49868652
1	0x3dc17034	0.09445229
2	0x3ebe6784	0.3718835
3	0x3e0554cc	0.13020629
4	0x3e687994	0.22702628
5	0x3c71a065	0.014747714
6	0x3ed87f42	0.4228459
7	0x3dcd2f39	0.10018773
8	0x3e7498a0	0.23886347
9	0xbe0661e2	-0.13123277
10	0xbe42f80c	-0.19039935
11	0xbe5e05ca	-0.21681896
12	0x3ea1a58a	0.3157161
13	0xbc00bf7f	-0.007858156
14	0xbc31f2c5	-0.010861103
15	0x3ebe57c7	0.37176344
16	0x3eb2192f	0.3478484
17	0x3eb2ff79	0.34960535
18	0xbdb63a5c	-0.0889785
19	0x3da5ef10	0.08102238
20	0x3e905499	0.28189543
21	0x3ec3857c	0.38187778
22	0x3e297c15	0.1655124
23	0x3e0e4fa0	0.13897562
24	0x3d70c0e7	0.058777716
25	0xbd1c2878	-0.03812453
26	0xbe33a0a4	-0.17541748
27	0xbe56a6f0	-0.20962119
28	0x3e83facc	0.2577728
29	0x3e8c9307	0.27455923
30	0x3ec260e7	0.37964556
31	0xbde5484b	-0.111954294
32	0xbca442be	-0.020051356
33	0x3e52b6a6	0.20577487
34	0xbbbe2572	-0.0058028037
35	0x3e0f6209	0.14002241
36	0xbe45c0f8	-0.19311893
37	0xbde29c83	-0.110650085
38	0xbb7e5791	-0.0038809518
39	0xbd03412d	-0.03204458
40	0x3eafdc63	0.3434783
41	0x3e769e6d	0.24083872
42	0x3e866ef5	0.26256528
43	0x3ee1bfb7	0.4409158
44	0x3e6b1d38	0.22960365
45	0x3eeae872	0.45880467
46	0x3ea2ee08	0.31822228
47	0xbde9db3a	-0.11418767
48	0xbe257782	-0.1615887
49	0x3db14c6b	0.08657154
50	0xbe5a3091	-0.21307589
51	0x3e719abb	0.23594181
52	0x3e521be8	0.20518458
53	0x3c31d793	0.01085462
54	0x3c5265cd	0.012841654
55	0x3e4a5957	0.19760643
56	0xbdf4bf35	-0.11950532
57	0x3d5ee888	0.054420978
58	0xbe8041a5	-0.25050083
59	0xbe24e3b8	-0.16102493
60	0xbe04fbdc	-0.12986702
61	0x3e32b798	0.17452848
62	0xbdb3ef37	-0.08785861
63	0x3de67e59	0.11254568
64	0xbe453667	-0.19259034
65	0x3e9e5345	0.30922905
66	0x3ec5bb9a	0.3861969
67	0x3d9d25f3	0.07673254
68	0x3eb04436	0.3442704
69	0x3d02c52d	0.031926323
70	0x3e9e71ad	0.30946103
71	0xbdf71596	-0.12064664
72	0x3efaf447	0.49014494
73	0x3ec863cb	0.39138636
74	0x3ec043bc	0.37551677
75	0xbcbc775b	-0.023006132
76	0xbe8142a0	-0.25246143
77	0x3e4205b6	0.18947491
78	0xbe3f2d67	-0.18669663
79	0x3ec84680	0.39116287
80	0xbe0a77c0	-0.13522243
81	0x3e2bbe72	0.16771868
82	0x3e76ced5	0.24102338
83	0x3e823da7	0.25437662
84	0x3da881f9	0.08227915
85	0xbb9ff312	-0.004881271
86	0xbe238304	-0.15967947
87	0x3dce8293	0.10083499
88	0x3ea5d099	0.3238571
89	0x3e66bddb	0.22533362
90	0x3e220ce2	0.15825227
91	0x3e9a9a22	0.3019572
92	0x3eb68a49	0.35652378
93	0x3edf393b	0.4359835
94	0x3df54bba	0.11977334
95	0xbe102afe	-0.140789
96	0xbe2e87df	-0.17044018
97	0x3e74686f	0.23867963
98	0x3ec637a4	0.38714325
99	0x3ed8c043	0.42334184
100	0x3e256c85	0.16154678
101	0x3ec01e25	0.37522998
102	0x3e4bad56	0.19890341
103	0x3ee9df88	0.45678353
104	0xbde2eb9a	-0.11080094
105	0xbd288c7e	-0.04114961
106	0xbe35f370	-0.17768645
107	0x3ecf19d1	0.40449384
108	0x3e0ca986	0.13736543
109	0x3e9586b6	0.2920434
110	0xbe3632e3	-0.17792849
111	0xbe7b333d	-0.24531265
112	0xbe24978b	-0.16073434
113	0xbdc9f72b	-0.09861597
114	0x3e46b64f	0.19405483
115	0x3e910cfe	0.28330225
116	0xbda39ad8	-0.079885185
117	0x3e7e0183	0.24805264
118	0x3bcec14e	0.006309665
119	0x3c83697b	0.016041508
120	0xbdc75c59	-0.09734411
121	0xbd2fbc89	-0.04290441
122	0xbd74ff64	-0.059813872
123	0x3dc3cc10	0.09560406
124	0xbce38738	-0.027774438
125	0x3e2b5568	0.16731799
126	0x3e02f775	0.1278971
127	0x3e456fff	0.19281004

fc4.weight f4 [128, 128]
0	0xbd82e234	-0.06390801
1	0x3c5eccce	0.013598634
2	0xbdfe4598	-0.12415618
3	0x3cc453c6	0.023965728
4	0xbd602e6b	-0.054731768
5	0x3d162ae9	0.036662016
6	0xbe267d40	-0.16258717
7	0xbd1b5b7d	-0.037929047
8	0x3cebfaab	0.028806051
9	0xbdfe8035	-0.12426797
10	0x3e1075c8	0.1410743
11	0xbdb5085f	-0.08839487
12	0xbdbb8aac	-0.09157309
13	0xbe0e00bd	-0.13867469
14	0x3dd0d33b	0.10196539
15	0xbd93393d	-0.07188652
16	0xbd65f7ef	-0.05614465
17	0x3dc1bbb6	0.09459631
18	0xbd013cd7	-0.031552162
19	0x3df40420	0.11914849
20	0x3d5e69e6	0.05430021
21	0x3d5c81f8	0.053834885
22	0xbd640346	-0.055667184
23	0x3c29cf74	0.010364402
24	0x3e02d88e	0.12777922
25	0xbcc2f809	-0.023799913
26	0x3dd5091c	0.10402128
27	0xbd2d752e	-0.04234808
28	0xbbfcd8a6	-0.007716256
29	0xbdd75df1	-0.10515965
30	0x3d14681c	0.0362321
31	0x3e4ddd80	0.20104027
32	0x3db59b9a	0.08867569
33	0x3d9a82bc	0.07544467
34	0xbe4e1e5d	-0.2012877
35	0xbd7b3371	-0.061328355
36	0x3e11aca4	0.14226013
37	0x3cf19305	0.02948905
38	0xbda6a31f	-0.08136582
39	0xbe75fffe	-0.24023435
40	0x3d67753d	0.05650829
41	0x3d0a37d5	0.03374465
42	0x3af28dcb	0.0018505392
43	0x3add7a30	0.0016897377
44	0xbd43d024	-0.04780592
45	0xbc399db5	-0.011329104
46	0xbdbbcbba	-0.09169717
47	0x3d82446d	0.063607074
48	0xbd468844	-0.048469797
49	0x3cde9e6c	0.02717515
50	0xbe50ead2	-0.20402077
51	0x3d24315f	0.040086146
52	0xbc816578	-0.015795454
53	0xbdefddbd	-0.11712215
54	0x3d743a2f	0.0596258
55	0x3de7fff7	0.11328118
56	0x3dc3e06c	0.095642895
57	0xbd72c1d3	-0.059266876
58	0x3db80f44	0.08987287
59	0xbb9ca694	-0.0047806
60	0x3e34647e	0.1761646
61	0x3cb517f0	0.02210614
62	0x3cbc80b3	0.023010587
63	0x3de9e108	0.114198744
64	0xbe859097	-0.26086876
65	0xbd391938	-0.045190066
66	0xbdd443d6	-0.10364501
67	0xbe19e730	-0.15029597
68	0x3c81b5c4	0.015833743
69	0xbdad7051	-0.08468688
70	0xbba97b21	-0.005172149
71	0x3c975eaa	0.018477757
72	0x3cd1f1c0	0.02562797
73	0xbc89f480	-0.01684022
74	0x3d3772c1	0.044787172
75	0x3daef71f	0.08543228
76	0x3e825f12	0.25463158
77	0xbd2f2d77	-0.042767968
78	0x3e592f78	0.21209514
79	0xbd895982	-0.067065254
80	0x3e208957	0.15677391
81	0x3dc769f5	0.097370066
82	0xbdb6657c	-0.08906075
83	0x3b88f786	0.0041798977
84	0x3dfc3c98	0.12316245
85	0x3e1060fa	0.14099494
86	0x3e1ce616	0.15322146
87	0xbbd80f06	-0.006593588
88	0x3d9bf5b0	0.076152205
89	0xbd57cb38	-0.05268404
90	0xbca11743	-0.019664412
91	0xbe23b2b6	-0.15986142
92	0x3b472f19	0.0030393063
93	0xbdb02bbe	-0.08602093
94	0xbe2781ef	-0.1635816
95	0x3da9d463	0.08292463
96	0x3e037d12	0.1284068
97	0x3cb16b47	0.0216576
98	0x3dcabc92	0.09899248
99	0x3d513749	0.051078115
100	0xb9ac04bd	-0.00032809927
101	0xbd9524a9	-0.07282383
102	0x3c713a8d	0.014723432
103	0x3c19485c	0.009355631
104	0xbdb3f492	-0.087868825
105	0x3c6ca416	0.014443418
106	0x3e57eb10	0.21085763
107	0xbde763d2	-0.11298336
108	0xbd9733a1	-0.07382894
109	0xbd652455	-0.055942852
110	0xbcd131d2	-0.025536451
111	0x3d686465	0.05673637
112	0xbf0453b4	-0.5169022
113	0x3d0df0e7	0.03465357
114	0xbdf8412d	-0.12121806
115	0xbd4c425a	-0.049867965
116	0xbc10ed89	-0.008845695
117	0xbd86856e	-0.065684184
118	0xbe06501a	-0.13116494
119	0xbca9aec6	-0.020713221
120	0xbce5e547	-0.02806343
121	0x3d3322da	0.04373441
122	0x3ceac29d	0.028657252
123	0xbda0f5f1	-0.078594096
124	0xbb8eff6a	-0.004363944
125	0x3d8dbebb	0.069211446
126	0xbe45779a	-0.19283906
127	0xbd2e7b4e	-0.04259806
128	0x3d826232	0.063663855
129	0x3bda0ec4	0.006654592
130	0xbd7aadb1	-0.0612008
131	0xbeb421ce	-0.3518204
132	0x3dcdfbf7	0.10057824
133	0xb9fb5b8b	-0.00047942656
134	0x3d94226a	0.072331265
135	0xbd315dfa	-0.043302514
136	0xbde29782	-0.11064054
137	0xbd55d0fc	-0.052201256
138	0xbe91b251	-0.28456357
139	0xbdfc22d1	-0.12311328
140	0xbe7d4abc	-0.2473554
141	0xbe397a9b	-0.18113177
142	0x3c3c7139	0.011501604
143	0xbc6906ae	-0.014222784
144	0x3cf88b48	0.030339852
145	0x3d8ed762	0.06974675
146	0xbd467c50	-0.048458397
147	0xbd1c2311	-0.03811938
148	0xbd835b4c	-0.06413898
149	0x3d846b22	0.064657465
150	0x3d29caf7	0.041453328
151	0x3dadcef1	0.084867366
152	0x3dd03208	0.10165793
153	0x3de97db1	0.11400927
154	0x3e037818	0.12838781
155	0xbe3a9f66	-0.18224868
156	0xbe06b66f	-0.1315553
157	0x3c25a877	0.010110966
158	0x3e242682	0.16030315
159	0x3d7ecfda	0.06220994
160	0xbd58d2c8	-0.05293539
161	0xbd96abbf	-0.07356977
162	0xbe8a07ae	-0.26958984
163	0xbe037474	-0.12837392
164	0x3d5184ec	0.051152155
165	0xbe8f76b1	-0.28020242
166	0x3d8cdc3d	0.068779446
167	0xbbc22234	-0.0059244875
168	0x3cd6d340	0.026223779
169	0xbde68fda	-0.11257906
170	0xbd252b67	-0.040324595
171	0x3d9adf79	0.07562155
172	0xbd1826da	-0.037146427
173	0xbc58cb12	-0.0132320095
174	0xbcd6f59b	-0.02624016
175	0x3d6b155a	0.05739341
176	0xbcefb955	-0.029263178
177	0xbd01aae4	-0.031657115
178	0x3d9c419d	0.07629702
179	0x3dc63011	0.09677137
180	0xbd3d5049	-0.046219144
181	0xbe1e083d	-0.1543283
182	0xbecfdd07	-0.40598318
183	0x3dd71acc	0.10503158
184	0xbc9b889e	-0.018986043
185	0xbc0f5ef5	-0.008750667
186	0xbcbfaf8e	-0.02339914
187	0x3ce1b6c9	0.027552979
188	0xbe1848a8	-0.14871466
189	0xbe305b90	-0.17222428
190	0xbe4a2238	-0.19739616
191	0xbdb17358	-0.08664578
192	0xbec53dcc	-0.3852371
193	0x3dd0a93e	0.101885304
194	0xbc5003dd	-0.012696234
195	0xbe62e66c	-0.22158211
196	0xbc156eb2	-0.00912063
197	0xbd297f96	-0.04138144
198	0x3c5e4e9b	0.013568546
199	0xbe707c29	-0.23484863
200	0x3d475d0d	0.048672725
201	0x3c0d3b30	0.008620068
202	0x3db06e08	0.08614737
203	0xbe1f0bd1	-0.15531851
204	0x3dfb70d8	0.122773826
205	0x3915e160	0.00014293706
206	0xbdcec013	-0.10095229
207	0xbe3f0b6b	-0.186567
208	0xbe702009	-0.2344972
209	0xbd856fe9	-0.06515486
210	0xbd24f8cb	-0.04027633
211	0x3d93bd1d	0.07213805
212	0xbd3e879d	-0.04651605
213	0xbc80be8f	-0.015715865
214	0x3dd97e3c	0.106197804
215	0xbd210819	-0.039314363
216	0x3d95012e	0.07275616
217	0xbca5cf1e	-0.020240363
218	0xbdcbd58f	-0.099528424
219	0x3dbff8c4	0.0937362
220	0xbcd085fa	-0.02545451
221	0x3c44c83f	0.012010633
222	0x3d9eb3d8	0.07749146
223	0x3d42aac6	0.047526143
224	0x3e079f2e	0.13244316
225	0x3c6fc603	0.014634612
226	0x3ca7d0f4	0.020485379
227	0xbd6a9b33	-0.057276916
228	0xbc25705f	-0.010097592
229	0xbd0a872b	-0.033820312
230	0xbd58f388	-0.052966624
231	0xbc8232fb	-0.01589345
232	0x3b867b32	0.0041040415
233	0x3ceebed2	0.029143725
234	0xbe05208c	-0.13000697
235	0xbe1a7420	-0.1508336
236	0xbe12df56	-0.14343008
237	0xbae8906a	-0.0017743234
238	0xbe53df92	-0.20690754
239	0xbe9e3d60	-0.309062
240	0x3e7ddd5d	0.24791475
241	0x3de0fa2f	0.10985219
242	0xbd0c0f6d	-0.0341944
243	0xbe3aa516	-0.18227038
244	0xbd75b97c	-0.059991345
245	0xbcd48340	-0.025941491
246	0xbdfd6c68	-0.123741925
247	0xbda56d43	-0.08077481
248	0x3cb22c97	0.021749778
249	0xbdf2f935	-0.11863939
250	0xbdc81e84	-0.097714454
251	0x3e0bd6c6	0.13656148
252	0xbe21817c	-0.1577205
253	0x3b6bd119	0.0035982786
254	0xbcea8132	-0.028626058
255	0xbe0ad9f9	-0.13559712

fc4.bias f4 [128]
0	0xbc58c6b5	-0.013230969
1	0x3ce5c013	0.02804569
2	0x3e6314a9	0.2217585
3	0xbd2bab60	-0.041911483
4	0x3e0dfaa6	0.13865146
5	0x3daf180e	0.0854951
6	0xbdd3c325	-0.10339955
7	0x3e2472eb	0.16059463
8	0xbd5312e9	-0.051531706
9	0xbda4badb	-0.08043452
10	0xbcdc0c5d	-0.026861364
11	0x3dadd5f4	0.08488074
12	0xbdc5f7d6	-0.096664116
13	0x3c86c05f	0.016449152
14	0xbd30da4f	-0.043176945
15	0x3e44aed8	0.19207323
16	0x3da50935	0.08058397
17	0xbdfbfd6e	-0.12304197
18	0x3e319cd9	0.17344989
19	0x3e6cbf15	0.23119767
20	0x3d4b675f	0.04965913
21	0xbded71b0	-0.1159395
22	0x3e333836	0.17501912
23	0x3e05ce8f	0.13067077
24	0xbda68e71	-0.08132637
25	0x3d3f3570	0.04668182
26	0x3e14bf94	0.14526206
27	0x3d959f78	0.07305807
28	0xbd8883d2	-0.06665768
29	0xbd733ed4	-0.05938609
30	0x3d8b5d67	0.068049245
31	0x3ddeb8bb	0.10875078
32	0x3e9d124a	0.30678016
33	0x3d8ddbe0	0.069267035
34	0x3e49d5c3	0.1971045
35	0x3e260120	0.16211367
36	0x3e62ca7e	0.22147557
37	0x3e4d2d56	0.20036826
38	0x3d917023	0.071014665
39	0xbc9a02b9	-0.018800126
40	0xbd70cb5c	-0.05878769
41	0x3e594d35	0.21220858
42	0x3e32845c	0.17433304
43	0x3d1f2fbc	0.038863882
44	0x3cf83d6f	0.030302731
45	0x3de3a278	0.11114973
46	0x3d7e5d4b	0.06210069
47	0x3cca266b	0.024676522
48	0xbd4904f0	-0.049076974
49	0x3e2e689c	0.17032093
50	0x3e27f368	0.16401446
51	0xbdbeb905	-0.093126334
52	0xbc3054c2	-0.010762395
53	0xbcf4d6fd	-0.02988767
54	0x3e1ae62b	0.15126865
55	0x3d9741ab	0.07385572
56	0x3de2911a	0.11062832
57	0x3e614f60	0.22002935
58	0x3d5bea3d	0.053690184
59	0x3d3ad985	0.0456176
60	0x3d88575a	0.06657286
61	0xbd906bcd	-0.07051811
62	0x3e80b8dd	0.2514104
63	0x3cea1e1f	0.028578816
64	0x3e9044ec	0.28177583
65	0xbdcb56c5	-0.09928659
66	0x3c9070a5	0.017631838
67	0x3e03c3aa	0.12867609
68	0x3e64388a	0.22287193
69	0x3e5d351f	0.21602295
70	0x3d62db4b	0.055384915
71	0x3d636be7	0.055522826
72	0x3e20a807	0.15689097
73	0x3e189949	0.14902224
74	0x3d279ed9	0.040922973
75	0xbbb97dd7	-0.005660753
76	0x3ddb95a5	0.10721902
77	0x3d77ba1e	0.06048023
78	0xbdbe71b1	-0.09299029
79	0x3e02f561	0.12788917
80	0x3d95796b	0.07298549
81	0x3e038302	0.12842944
82	0xbda3b723	-0.07993915
83	0x3d8af752	0.06785454
84	0x3e20e415	0.15712006
85	0x3e4e1567	0.20125352
86	0xbda6b3fa	-0.081397966
87	0x3e4cfb5e	0.20017764
88	0x3e66a704	0.22524649
89	0x3d4b70ab	0.049667995
90	0xbd38ce13	-0.045118403
91	0xbd42995b	-0.047509532
92	0x3c26ad16	0.010173103
93	0xbc28242c	-0.01026253
94	0x3df38a69	0.11891634
95	0xbd89ead9	-0.06734247
96	0x3d91a423	0.07111385
97	0x3d8f2e9e	0.069913134
98	0x3def4c31	0.11684454
99	0x3d7d5dbf	0.06185698
100	0x3e359d41	0.17735769
101	0xbc831699	-0.016001986
102	0xbde88a56	-0.113545105
103	0x3d1e69ce	0.038675122
104	0x3e094197	0.13403927
105	0x3d5b3991	0.053521696
106	0x3e09e24e	0.13465235
107	0xbd07aea1	-0.033125523
108	0x3da07c43	0.07836201
109	0xbc958608	-0.018252388
110	0xbd6c57a6	-0.057700776
111	0x3dd6f8d1	0.10496677
112	0x3e4c57e9	0.1995541
113	0x3dbcb26a	0.09213717
114	0x3d5d3b92	0.05401189
115	0x3d088179	0.0333266
116	0x3e1240e5	0.14282568
117	0x3e65ca85	0.22440536
118	0x3e4d3d63	0.20042948
119	0x3e4318a0	0.19052362
120	0xbd0dc8de	-0.03461539
121	0x3e7772b3	0.24164848
122	0x3de7bb50	0.11315024
123	0x3c3777ff	0.011198043
124	0xbd8dacea	-0.06917746
125	0xbdafaba0	-0.08577657
126	0x3da5ce2d	0.080959655
127	0xbdd5cd16	-0.10439508

q2.weight f4 [1, 128]
0	0xbe97ca10	-0.2964635
1	0xbe8c91bd	-0.2745494
2	0x3e62a9c7	0.22135077
3	0xbeb2362a	-0.3480695
4	0x3e06a4bb	0.13148777
5	0x3e09d2f9	0.13459386
6	0xbe81af6b	-0.25329146
7	0x3e795d70	0.2435205
8	0xbec3268a	-0.3811534
9	0xbe46ac13	-0.19401579
10	0xbe42da64	-0.19028622
11	0x3e17cf0f	0.1482508
12	0xbe79a16f	-0.24377988
13	0xbe8aef30	-0.2713561
14	0xbeb000c3	-0.3437558
15	0x3e4543a6	0.19264087
16	0x3e4deed3	0.20110635
17	0xbe8d9542	-0.27652937
18	0x3e58ad9f	0.21159981
19	0x3e4acdeb	0.19805114
20	0xbe6c0ac6	-0.23050985
21	0xbe368773	-0.17825107
22	0x3e2dde24	0.16979271
23	0x3e46efe3	0.19427447
24	0xbeadf92d	-0.3397917
25	0xbea833cf	-0.32852027
26	0x3e279733	0.16366272
27	0x3e72d733	0.23714904
28	0xbe4e83cc	-0.20167464
29	0xbc1fd3cb	-0.009755085
30	0xbe9ba8a6	-0.30402106
31	0x3e2db28c	0.16962641
32	0x3e6439d7	0.22287689
33	0xbe336045	-0.17517193
34	0x3e40a145	0.1881152
35	0x3e666028	0.22497618
36	0x3e338bb4	0.17533761
37	0x3e4d7808	0.2006532
38	0x3e360663	0.17775874
39	0xbe3e0b20	-0.18558931
40	0xbe608578	-0.21925914
41	0x3e1f76f4	0.15572721
42	0x3e4ee438	0.20204246
43	0xbe59eb1b	-0.21281092
44	0xbe5bfc92	-0.21483067
45	0x3e27f63e	0.16402528
46	0xbe453887	-0.19259845
47	0xbd6a8d1e	-0.057263486
48	0xbe86ae4d	-0.26304856
49	0x3e427e5f	0.18993519
50	0x3e4c8b85	0.19975097
51	0xbe968b33	-0.29403076
52	0xbe5834b4	-0.21113855
53	0xbebd8366	-0.37014312
54	0x3e634ab8	0.22196472
55	0xbe895f6e	-0.2683062
56	0x3e2dbb3d	0.16965957
57	0x3e17d0cc	0.14825743
58	0x3e6722f0	0.22571921
59	0xbe6b1a7f	-0.22959326
60	0xbe44c395	-0.19215234
61	0xbe8548fe	-0.2603225
62	0x3e89f726	0.26946372
63	0xbeb41345	-0.3517095
64	0x3e6ef6b9	0.23336305
65	0xbe960936	-0.29303902
66	0xbe44a6b3	-0.19204216
67	0x3e4a49a1	0.1975465
68	0x3e386c87	0.1801015
69	0x3e1d5ba3	0.15366988
70	0xbe95c2a7	-0.2925007
71	0x3e68ef83	0.22747616
72	0x3e3410ca	0.1758453
73	0x3e225e84	0.15856367
74	0xbe96e346	-0.2947027
75	0xbe5ad8cd	-0.21371765
76	0x3e88fd51	0.26755765
77	0x3e488a2f	0.19583963
78	0xbe23096b	-0.15921561
79	0x3e09306d	0.13397379
80	0x3e478df1	0.1948774
81	0x3e35420a	0.17700973
82	0x3c811578	0.015757307
83	0xbe72b657	-0.2370237
84	0x3e45f47f	0.19331549
85	0x3e2766ce	0.1634781
86	0xbe8120c9	-0.25220326
87	0x3e2d7b0f	0.16941474
88	0x3e44a63a	0.19204035
89	0xbe69e4b4	-0.2284115
90	0xbeac374a	-0.33635932
91	0xbe956b6e	-0.29183525
92	0xbec3dfe9	-0.38256767
93	0xbe850a17	-0.2598426
94	0x3e41f652	0.1894162
95	0xbe8bb35a	-0.27285272
96	0xbe90c177	-0.28272602
97	0x3e6aa873	0.22915821
98	0x3e32d5cf	0.17464374
99	0x3e31a77c	0.17349046
100	0x3e2b5a2a	0.16733614
101	0xbe753c71	-0.23948838
102	0xbe24aaee	-0.1608083
103	0xbe9e13cd	-0.30874482
104	0x3e1d3efc	0.15356058
105	0xbe26e597	-0.16298519
106	0x3e5b3f97	0.21410976
107	0xbcfceb3c	-0.030873887
108	0x3e4977fe	0.1967468
109	0xbe3d44a5	-0.18483217
110	0xbe505e80	-0.20348549
111	0x3e496de2	0.19670823
112	0x3e30a17b	0.172491
113	0x3eadc122	0.3393641
114	0xbe828480	-0.25491714
115	0x3e4085ca	0.18801036
116	0x3e2d0301	0.16895677
117	0x3e459286	0.19294176
118	0x3dfcb975	0.123400606
119	0x3e53a4e9	0.20668377
120	0xbe6a2577	-0.22865854
121	0x3e65d2fa	0.22443762
122	0x3e1e9085	0.15484817
123	0xb9cac96d	-0.00038678516
124	0xbe4e6bae	-0.20158264
125	0xbda6e334	-0.08148804
126	0x3e5d2fab	0.21600215
127	0xbe5c0d29	-0.21489395
