resource/multi_run_experiment_20250319_111011/run_4/sac_critic_35000.pth (torch, 155391 bytes, 10 tensors)

fc1.weight f4 [128, 17]
0.0062794248 0.12168777 0.05414172 -0.24315037 0.32918867 -0.048241585 -0.17381246 0.09451501
-0.041731883 -0.30982754 -0.048114024 -0.14909434 0.31846315 -0.21442442 -0.06150624 -0.09177973
0.0010024947 -0.040785123 -0.22081903 -0.20302859 0.11910597 0.14206575 -0.10011388 -0.20206624
0.078407764 -0.13841793 -0.23304388 0.1891525 -0.010700785 -0.16988257 0.18450528 0.042798385
0.20405532 0.12303839 0.18479913 0.1651767 0.23233674 -0.12850374 0.26729825 0.068206586
0.13475747 -0.2992682 -0.09511978 0.11356684 0.28939143 -0.0078107724 -0.23664911 -0.006435004
-0.51754445 -0.3530532 0.5120529 -0.16290782 -0.021756781 0.5043819 -0.01142974 0.146645
-0.22103335 -0.030477028 -0.058609094 -0.11008542 0.065335214 0.12319858 -0.1613209 0.7508429
-0.23332806 0.37860027 -0.4741545 0.500892 -0.0041829366 0.111878514 -0.15754251 -0.07887369
-0.061868995 0.13757795 0.18414932 0.15983786 0.01767592 0.016785948 -0.40729567 0.20228112
0.25509238 0.15617847 0.29563817 0.32266286 0.11011723 -0.29536974 -0.27901992 0.12397292
0.04510969 -0.23803645 -0.10878767 0.17800258 0.25676265 -0.18567005 0.09532014 0.32752618
0.27985585 -0.0968868 0.30629048 0.17997181 -0.048293784 -0.29319474 0.21627222 0.060634367
0.060934026 0.23493424 0.04796664 0.15309171 -0.105924115 0.26940373 -0.09438489 0.13986036
-0.0105937235 0.07772886 -0.2266855 -0.2314173 0.20431477 0.11542984 0.24452701 0.19952106
-0.17649883 -0.14447105 0.24317494 0.23490675 -0.12079677 -0.045392226 -0.08919038 0.17222255
-0.1303574 -0.0999863 0.09599409 -0.21019033 -0.15930542 -0.31383115 -0.06724009 -0.31753206
0.056588035 0.16677426 -0.21790372 0.0074577993 0.09850052 0.06643107 -0.09592827 0.10442813
0.046167225 -0.1825174 -0.2531708 0.17899159 0.05794837 -0.014886859 -0.24557066 0.1898158
0.06601699 -0.2074554 0.2755725 0.18279937 0.0762507 0.05154433 -0.34549582 0.01875692
0.022099257 0.19078872 -0.3204006 -0.19000846 0.2935848 0.36554703 -0.39337632 0.28860968
-0.31048372 -0.20472264 -0.21004057 -0.22020365 -0.41110134 -0.096714355 -0.20926356 -0.15172033
0.013401495 -0.037833508 0.017508956 0.32675576 -0.2222832 -0.35770327 -0.12017718 0.36294383
0.08305601 0.2968002 -0.018772492 -0.30181363 -0.10272645 0.21578248 -0.07089371 -0.28137925
-0.4138451 -0.18749501 0.18801437 -0.16840623 0.14659983 0.07498518 -0.10047934 0.060895626
-0.19178319 -0.2746856 0.16770738 -0.17204683 -0.2054398 -0.21804892 0.08208016 0.16355461
-0.16134734 -0.2677485 -0.23681743 -0.13359882 -0.20318557 0.27385777 -0.07972756 0.1822698
-0.35185257 0.38625413 -0.028547028 0.27441022 -0.087786764 0.1492437 -0.10817562 -0.30265245
-0.21270092 0.11262025 -0.0858047 0.09689343 0.09603034 0.07885196 0.056384172 -0.18288736
0.23321928 -0.07245008 -0.15202641 -0.1479225 0.21935762 0.27571467 0.031325724 -0.25456876
0.1465432 -0.09119918 0.21969163 -0.057773374 0.20168822 -0.17299189 -0.042872373 0.19941838
-0.10715144 0.09190712 0.4181964 0.024335217 -0.2873619 0.12028134 0.42490563 0.047282536
00000000: a2c3 cd3b 7037 f93d b5c3 5d3d 69fc 78be
00000010: 6b8b a83e f898 45bd e5fb 31be 1691 c13d
00000020: 0def 2abd b7a1 9ebe 3613 45bd 30ac 18be
00000030: 9a0d a33e 1392 5bbe f8ed 7bbd 03f7 bbbd
00000040: 2466 833a 4d0e 27bd 621e 62be bae6 4fbe
00000050: d5ed f33d af79 113e 8208 cdbd 74ea 4ebe
00000060: 4094 a03d 6ebd 0dbe 0ea3 6ebe 31b1 413e
00000070: 5852 2fbc b2f5 2dbe f4ee 3c3e 5c4d 2f3d
00000080: e1f3 503e 8dfb fb3d fc3b 3d3e 1524 293e
00000090: afe9 6d3e 7c96 03be 51db 883e e5af 8b3d
000000a0: ddfd 093e ae39 99be 29ce c2bd bb95 e83d
000000b0: 1d2b 943e 82f1 ffbb 2554 72be badc d2bb
000000c0: cb7d 04bf 64c3 b4be e615 033f 4fd1 26be
000000d0: 473b b2bc 2c1f 013f ce43 3bbc 1b2a 163e
000000e0: 9156 62be f6aa f9bc 1710 70bd 7774 e1bd
000000f0: 78ce 853d 8a4f fc3d 4e31 25be 3e37 403f
00000100: 8ded 6ebe e5d7 c13e 61c4 f2be 753a 003f
00000110: 0411 89bb 9020 e53d d352 21be 8788 a1bd
00000120: 586a 7dbd 3ce1 0c3e a491 3c3e 89ac 233e
00000130: 17cd 903c af82 893c 0f89 d0be c822 4f3e
00000140: 789b 823e 40ed 1f3e e35d 973e 1134 a53e
00000150: 2485 e13d b43a 97be b3db 8ebe 84e5 fd3d
00000160: f0c4 383d d4bf 73be 12cc debd 4f46 363e
00000170: 6576 833e 4a20 3ebe 3537 c33d 83b1 a73e
00000180: 4449 8f3e 966c c6bd 1bd2 9c3e 884a 383e
00000190: b4cf 45bd 9f1d 96be 7776 5d3e be5b 783d
000001a0: f595 793d 9a92 703e ab78 443d 13c4 1c3e
000001b0: beee d8bd 49ef 893e dd4c c1bd 8e37 0f3e
000001c0: 4c91 2dbc 4f30 9f3d 3e20 68be a8f8 6cbe
000001d0: e437 513e 7b66 ec3d 4a65 7a3e 404f 4c3e
000001e0: 1cbc 34be 38f0 13be da02 793e 658b 703e
000001f0: 4c64 f7bd 33ed 39bd 72a9 b6bd 1c5b 303e
00000200: 697c 05be 9ec5 ccbd 8d98 c43d 223c 57be
00000210: f620 23be 7aae a0be 2cb5 89bd 9093 a2be
00000220: dbc8 673d dfc6 2a3e 2722 5fbe 8e60 f43b
00000230: a4ba c93d 030d 883d 0a76 c4bd 6ade d53d
00000240: d819 3d3d d7e5 3abe 9a9f 81be 9249 373e
00000250: 455b 6d3d 03e8 73bc e076 7bbe 135f 423e
00000260: ea33 873d 306f 54be d717 8d3e c22f 3b3e
00000270: 5429 9c3d 2620 533d d4e4 b0be 1da8 993c
00000280: 8009 b53c 1e5e 433e 8c0b a4be 9491 42be
00000290: bf50 963e fb28 bb3e 9f68 c9be a6c4 933e
000002a0: b9f7 9ebe d0a2 51be e014 57be 117d 61be
000002b0: e07b d2be 2d12 c6bd 3049 56be 935c 1bbe
000002c0: f291 5b3c 4ff7 1abd f16e 8f3c 884c a73e
000002d0: 359e 63be e224 b7be 741f f6bd c6d3 b93e
000002e0: 4519 aa3d 32f6 973e c5c8 99bc 5187 9abe
000002f0: 3f62 d2bd 15f6 5c3e b930 91bd f110 90be
00000300: 81e3 d3be b1fe 3fbe d786 403e af72 2cbe
00000310: 441e 163e d491 993d 1dc8 cdbd b16d 793d
00000320: d062 44be 97a3 8cbe 7cbb 2b3e 0b2d 30be
00000330: d05e 52be 3748 5fbe a519 a83d dc7a 273e
00000340: 3d38 25be 5516 89be 4580 72be 21ce 08be
00000350: e10f 50be 1637 8c3e 3448 a3bd efa4 3a3e
00000360: 0526 b4be 1ac3 c53e 75db e9bc 7f7f 8c3e
00000370: 8cc9 b3bd 57d3 183e 2e8b ddbd 43f5 9abe
00000380: 45ce 59be 72a5 e63d 60ba afbd 1070 c63d
00000390: 8eab c43d 237d a13d 17f3 663d d346 3bbe
000003a0: 09d1 6e3e b560 94bd d0ac 1bbe ff78 17be
000003b0: 499f 603e 792a 8d3e 674f 003d d656 82be
000003c0: 6c0f 163e a3c6 babd d8f6 603e c6a3 6cbd
000003d0: 5b87 4e3e c924 31be f19a 2fbd 5534 4c3e
000003e0: 3772 dbbd cd39 bc3d d71d d63e a65a c73c
000003f0: 1921 93be 1056 f63d 3b8d d93e 55ab 413d

fc1.bias f4 [128]
-0.0112429345 0.47358787 0.021328406 0.3012931 0.15429378 0.21381761 0.3434831 -0.0047922693
0.3658375 -0.23263314 0.0025825477 0.27467182 0.15071493 0.15512834 -0.095934056 -0.24598664
-0.057742123 0.16046284 -0.005876706 0.1911766 0.29019076 -0.04716619 0.31034723 -0.17764172
0.3806959 0.22437528 -0.15572742 0.49076173 0.2425259 -0.1716708 0.25831413 -0.10941479
-0.1025895 0.24436653 0.035229605 0.42139614 0.3299229 -0.23482771 -0.15537935 -0.30305704
-0.08795506 0.22866331 -0.15115467 0.01746879 0.2272639 -0.024370825 0.18801965 0.34348086
0.48498547 0.40167138 0.32052076 0.26617444 0.30580154 0.46770072 0.3455606 0.49193653
0.008720062 0.09117369 0.20954974 -0.15379208 0.46026424 0.32007152 -0.122670636 0.35027462
0.014829949 -0.1284312 0.3114015 -0.2622494 -0.0006959811 0.31646535 0.32505867 -0.07291962
-0.1251819 0.37702078 0.39562753 0.35448724 0.24900137 0.116406985 0.11048206 0.14366128
-0.053162698 0.011225348 0.47242156 0.022756714 0.16434087 0.36394095 0.41339192 -0.039881837
0.25836858 0.3048037 -0.109239504 0.30497652 0.2835462 0.31143063 0.16104464 0.33723095
0.32811317 0.15847939 0.13916819 -0.24821821 0.28095737 -0.029437523 0.41385588 0.21443489
0.35653234 0.48008502 0.4103986 0.36625773 -0.13889791 0.08015431 -0.0025658223 0.4459542
-0.1292729 0.2376939 0.3755224 0.49024695 0.261473 0.33975264 -0.17341994 0.28037524
-0.35947004 0.4274422 0.44233423 -0.05715406 -0.12591243 0.29991725 0.056557436 -0.11759328
00000000: 4934 38bc 1c7a f23e e9b8 ae3c 1743 9a3e
00000010: 30ff 1d3e 01f3 5a3e 04dd af3e 7808 9dbb
00000020: 0e4f bb3e 6237 6ebe f63f 293b c9a1 8c3e
00000030: 0455 1a3e f7d9 1e3e 1379 c4bd ece3 7bbe
00000040: 0183 6cbd 5f50 243e 6291 c0bb ccc3 433e
00000050: e293 943e 5631 41bd d5e5 9e3e b6e7 35be
00000060: 93ea c23e a2c2 653e 0277 1fbe 1f45 fb3e
00000070: b658 783e 78ca 2fbe c041 843e dd14 e0bd
00000080: 721a d2bd 383b 7a3e eb4c 103d 3cc1 d73e
00000090: a8eb a83e ad76 70be c41b 1fbe 4b2a 9bbe
000000a0: c821 b4bd b726 6a3e 4ac8 1abe b51a 8f3c
000000b0: deb7 683e 53a5 c7bc 3988 403e b9dc af3e
000000c0: 0450 f83e dfa7 cd3e 4c1b a43e 0448 883e
000000d0: 0592 9c3e 7876 ef3e 52ed b03e 1bdf fb3e
000000e0: 97de 0e3c 46b9 ba3d 3594 563e ac7b 1dbe
000000f0: c1a7 eb3e 6ae0 a33e be3a fbbd 3257 b33e
00000100: 50f9 723c 7883 03be 0470 9f3e 8e45 86be
00000110: 8072 36ba bf07 a23e 176e a63e e256 95bd
00000120: af2f 00be de08 c13e b18f ca3e 5a7f b53e
00000130: 37fa 7e3e c966 ee3d 6b44 e23d f11b 133e
00000140: 21c1 59bd 86ea 373c 3de1 f13e 4a6c ba3c
00000150: f948 283e 7856 ba3e 1ba8 d33e 235b 23bd
00000160: e348 843e 3b0f 9c3e f6b8 dfbd e225 9c3e
00000170: f82c 913e d673 9f3e e3e8 243e 89a9 ac3e
00000180: 73fe a73e 6c48 223e 1b82 0e3e ea2c 7ebe
00000190: a5d9 8f3e f626 f1bc ebe4 d33e d294 5b3e
000001a0: 688b b63e b4cd f53e c41f d23e 2286 bb3e
000001b0: 413b 0ebe f127 a43d 5b27 28bb 1c54 e43e
000001c0: 1d60 04be 0866 733e 7944 c03e a601 fb3e
000001d0: cadf 853e 0ff4 ad3e ff94 31be 588d 8f3e
000001e0: 750c b8be b4d9 da3e a279 e23e 601a 6abd
000001f0: 30ef 00be c18e 993e c5a8 673d bfd4 f0bd

fc2.weight f4 [128, 128]
-0.14267142 0.27171364 0.06316175 0.055867758 -0.053304754 0.16228087 0.09623142 -0.06117296
0.06842764 0.011885194 -0.31551263 0.18980113 0.17964862 0.09508425 -0.17667623 -0.17684521
-0.03688069 0.23290825 0.013554664 0.11790448 0.072075434 -0.04869116 0.09727577 -0.08302805
0.13549756 0.0355831 -0.26661593 0.23876292 0.11915552 -0.086084895 0.0066522076 -0.05270682
-0.06446042 0.14737968 0.1543699 0.19438727 0.05991701 -0.04724824 -0.08442957 -0.13743196
0.04133893 0.119003005 -0.1123364 -0.24958302 0.1265369 -0.23079808 0.019922309 0.119047225
0.19285199 0.1488529 0.19465336 0.26318136 0.106963076 0.26469338 0.19914304 0.15144697
-0.1670821 0.095718935 0.307198 0.1285252 0.18681626 0.17962027 0.0051276186 0.26361996
0.07968403 0.16144118 0.02078024 0.11098987 -0.021994436 0.32676166 0.26595813 0.12070943
-0.14620093 -0.002387475 0.21915746 0.090390384 0.16729958 0.09584718 0.045845546 0.16113411
-0.04831311 0.109742545 0.18110383 -0.027278755 -0.005334552 0.07183935 0.22208807 0.06878274
0.20890108 0.08638814 -0.17800485 0.04277833 0.07994366 0.1659314 0.034626983 0.30070534
0.116020106 0.0021727132 0.0644556 0.13163695 0.06910148 -0.0063024075 0.22107428 0.042110275
0.25067267 0.21618871 0.21226116 0.10818678 -0.120294265 0.11557259 -0.15979308 0.11194705
0.21128039 0.094052896 0.16606043 0.37905926 0.1050668 0.05579144 0.06150641 0.18425862
-0.046867613 0.108800486 0.22914895 -0.043614145 -0.03610013 0.091836065 0.12602544 -0.14322694
-0.0053397715 0.24668916 0.1352527 0.13641384 0.008067665 0.043352604 0.15647359 0.058415428
0.19774534 0.20763254 -0.18740962 0.21147077 0.19606617 -0.0020609465 -0.13281375 -0.24647346
0.124848045 0.26001784 0.09951431 0.09296247 0.17540208 0.0032606341 0.13985218 0.006865586
0.0794488 0.10658838 -0.12382582 0.17432098 0.087913394 -0.13588078 0.05995202 -0.08142296
0.045421436 0.13681538 0.17355844 0.18497758 0.11914447 0.09340817 -0.0493625 -0.095187485
0.09861811 0.2152147 -0.19276844 -0.14799131 0.09778823 -0.14961343 0.02509293 0.1409182
0.18594022 0.17144093 0.2354925 0.24798486 0.27039745 0.22637883 0.16181034 0.27424258
-0.11760354 0.016177516 0.26581734 0.09646504 0.13802317 0.22714217 0.11049209 0.14627609
-0.010773152 0.1876279 0.07362431 -0.021631053 0.043320913 0.16126826 0.3008885 0.06132354
-0.098993406 0.031951077 0.18466464 0.14927424 0.108612955 0.13404131 0.021422805 0.17572899
-0.15360731 0.07565216 0.23374952 0.08997933 0.15060994 0.07047913 0.2907046 0.04191513
0.18214236 0.042935286 -0.085543476 0.14841656 0.03742665 0.17888848 0.16425993 0.22104523
0.1254725 -0.021165539 0.11697036 0.26326704 0.15023303 0.09592196 0.19027476 0.16362947
0.26242945 0.22757392 0.17999901 0.05963953 -0.17103206 0.18761021 -0.011847773 0.18059342
0.28531957 0.17202014 0.15483575 0.33200815 0.14610809 0.16032915 0.08061515 0.2637433
-0.110519595 0.15686573 0.19443175 0.13033393 -0.021510707 0.16035661 0.14796609 -0.1807155
00000000: 7518 12be 0d1e 8b3e f35a 813d 97d5 643d
00000010: 1656 5abd f52c 263e fb14 c53d 7f90 7abd
00000020: ca23 8c3d 1eba 423c df8a a1be 3a5b 423e
00000030: cff5 373e 88bb c23d 9dea 34be e916 35be
00000040: 3510 17bd 807f 6e3e 6214 5e3c e777 f13d
00000050: 499c 933d 6270 47bd 8538 c73d 9c0a aabd
00000060: dfbf 0a3e 96bf 113d e281 88be 447e 743e
00000070: cf07 f43d 474d b0bd c3fa d93b 1be3 57bd
00000080: d303 84bd b3ea 163e 2513 1e3e 750d 473e
00000090: 8a6b 753d 5f87 41bd 69e9 acbd f7ba 0cbe
000000a0: 0353 293d d9b7 f33d a010 e6bd b192 7fbe
000000b0: e492 013e 5556 6cbe 1c34 a33c 08cf f33d
000000c0: fe7a 453e e56c 183e 3653 473e b5bf 863e
000000d0: 750f db3d e485 873e 27ec 4b3e ea14 1b3e
000000e0: 9217 2bbe 4a08 c43d 0e49 9d3e 1c9c 033e
000000f0: c34c 3f3e 60ee 373e 9505 a83b 32f9 863e
00000100: 6131 a33d d650 253e 523b aa3c a84e e33d
00000110: ad2d b4bc 4e4d a73e aa2b 883e 8136 f73d
00000120: b2b5 15be 2f77 1cbb d06a 603e 981e b93d
00000130: 9550 2b3e 874b c43d 8ac8 3b3d 5700 253e
00000140: f8e3 45bd b3c0 e03d 4873 393e b277 dfbc
00000150: 77cd aebb 8220 933d 0e6b 633e f7dd 8c3d
00000160: 2aea 553e 44ec b03d e746 36be 5538 2f3d
00000170: 80b9 a33d ece9 293e 06d5 0d3d 0df6 993e
00000180: f39b ed3d 1464 0e3b 4c01 843d d6cb 063e
00000190: 1485 8d3d 6d84 cebb 4c61 623e d37b 2c3d
000001a0: 2b58 803e 9360 5d3e fd5a 593e 0891 dd3d
000001b0: d75c f6bd 52b1 ec3d cca0 23be 7f44 e53d
000001c0: e359 583e ce9e c03d bf0b 2a3e 0e14 c23e
000001d0: 432d d73d 9185 643d 25ee 7b3d 4bae 3c3e
000001e0: 41f8 3fbd cad2 de3d 06a6 6a3e bfa4 32bd
000001f0: bbdd 13bd 8c14 bc3d d00c 013e 15aa 12be
00000200: 40f9 aebb 159c 7c3e af7f 0a3e 12b0 0b3e
00000210: 3d2e 043c 8092 313d 9d3a 203e 0445 6f3d
00000220: c17d 4a3e a09d 543e 4fe8 3fbe cb8b 583e
00000230: 92c5 483e f210 07bb 5400 08be 8a63 7cbe
00000240: 55b0 ff3d 0f21 853e 29ce cb3d 1c63 be3d
00000250: 9a9c 333e 5db0 553b 6935 0f3e b6f8 e03b
00000260: 0db6 a23d 024b da3d 6498 fdbd 3381 323e
00000270: f00b b43d 5524 0bbe 4090 753d 15c1 a6bd
00000280: d40b 3a3d 5519 0c3e 4eb9 313e c36a 3d3e
00000290: 0402 f43d c84c bf3d 5530 4abd a8f1 c2bd
000002a0: 4bf8 c93d 3e61 5c3e 1765 45be 098b 17be
000002b0: 3245 c83d 4334 19be b08f cd3c dc4c 103e
000002c0: 1d67 3e3e 368e 2f3e f224 713e beef 7d3e
000002d0: 8971 8a3e dacf 673e 9cb1 253e 8669 8c3e
000002e0: 20da f0bd b686 843c 3619 883e 778f c53d
000002f0: f255 0d3e f597 683e ad49 e23d 66c9 153e
00000300: e081 30bc 8721 403e 58c8 963d 9b33 b1bc
00000310: 4571 313d 8223 253e 0f0e 9a3e 642e 7b3d
00000320: 0ebd cabd 22df 023d ba18 3d3e 59db 183e
00000330: 7870 de3d 2042 093e e17e af3c 4df2 333e
00000340: 3c4b 1dbe 85ef 9a3d 095c 6f3e 1547 b83d
00000350: 7e39 1a3e 5d57 903d 3cd7 943e 33af 2b3d
00000360: 8783 3a3e e9dc 2f3d 6b31 afbd 83fa 173e
00000370: b04c 193d 8b2e 373e c133 283e ae59 623e
00000380: dd7b 003e 5a63 adbc 288e ef3d f0ca 863e
00000390: b0d6 193e bc72 c43d 63d7 423e 7c8e 273e
000003a0: 275d 863e 2309 693e a951 383e 9448 743d
000003b0: 0723 2fbe e41c 403e 291d 42bc 7bed 383e
000003c0: 6815 923e 0c26 303e 438d 1e3e f9fc a93e
000003d0: 5c9d 153e 532d 243e 8e19 a53d 5d09 873e
000003e0: 1958 e2bd 69a1 203e 1e19 473e 4276 053e
000003f0: 3937 b0bc 8634 243e 6c84 173e 7c0d 39be

fc2.bias f4 [128]
0.19974813 0.22478446 0.2557988 -0.10061165 -0.07378853 0.20599455 0.054494064 0.20737788
0.13097699 -0.031159861 -0.09741907 0.07427593 0.18899196 0.25219405 0.11294947 0.24135439
0.01897797 0.116004676 -0.10588258 0.2031074 -0.0710503 0.23168382 0.24150544 0.12674011
-0.03132629 -0.06439131 0.21484205 0.076654226 0.23654361 0.019730855 -0.101272434 0.1752543
-0.016920356 0.013505947 0.20624956 0.08272434 -0.06764418 -0.061315402 0.008318335 0.19598955
0.08041801 0.08272792 -0.11225687 -0.08220189 0.16989844 0.2548618 -0.08989581 0.23087741
-0.025016656 0.19315761 0.13984537 0.21308829 0.1408321 0.022345684 0.124849804 0.0017266141
0.051811337 0.13187423 0.20830505 0.12555988 0.12829551 0.060407307 0.24779835 0.19923575
0.012228181 0.036239248 0.16852167 0.0028768585 -0.124289386 0.24013452 0.096828744 -0.10307958
0.18496668 0.1662573 0.031730402 0.12531897 0.055938035 -0.066321366 -0.08784047 0.23024054
-0.018507618 -0.034417443 -0.02588341 0.024034062 0.18438286 -0.07229699 0.04518418 0.2582947
0.1590229 0.24311776 0.13515161 0.040003743 -0.11186837 -0.09973175 0.024164187 -0.017718252
0.24392533 0.10060668 0.21448828 -0.0008610893 0.23791395 -0.048917767 0.22668694 0.05040823
-0.081969306 -0.078306414 0.2971385 0.13668317 0.23843445 0.19848542 0.20926213 0.025026664
0.23793136 -0.039640427 0.108686425 -0.06460129 -0.11928233 0.09931454 -0.07894467 0.05378465
0.21696976 -0.002878014 -0.049970172 0.13360457 0.21330091 -0.047511816 0.25197995 0.23340507
00000000: c68a 4c3e e62d 663e 0ff8 823e 7b0d cebd
00000010: 711e 97bd 3cf0 523e 2b35 5f3d de5a 543e
00000020: d51e 063e f742 ffbc a683 c7bd fb1d 983d
00000030: 1c87 413e 941f 813e 0d52 e73d 9b25 773e
00000040: b077 9b3c dc93 ed3d f7d8 d8bd 63fb 4f3e
00000050: d282 91bd 863e 6d3e 344d 773e 29c8 013e
00000060: ff4f 00bd 97df 83bd 8eff 5b3e e4fc 9c3d
00000070: 7d38 723e 9aa2 a13c ec67 cfbd dd75 333e
00000080: 8f9c 8abc 0c48 5d3c 1633 533e 616b a93d
00000090: 0889 8abd dc25 7bbd a049 083c 7cb1 483e
000000a0: 33b2 a43d 416d a93d eee6 e5bd 7759 a8bd
000000b0: dbf9 2d3e 3f7d 823e 4b1b b8bd 216b 6c3e
000000c0: bbef ccbc 1ccb 453e a033 0f3e d133 5a3e
000000d0: 4a36 103e 4c0e b73c 41b1 ff3d 8e4f e23a
000000e0: 2038 543d 0a0a 073e eb4d 553e c592 003e
000000f0: e65f 033e a76d 773d dabe 7d3e 7504 4c3e
00000100: b558 483c 9b6f 143d f290 2c3e ad89 3c3b
00000110: 6f8b febd d3e5 753e 264e c63d 631b d3bd
00000120: e867 3d3e 5b3f 2a3e bdf7 013d 9e53 003e
00000130: 481f 653d 7fd3 87bd b4e5 b3bd 2dc4 6b3e
00000140: 4a9d 97bc 4ef9 0cbd 7209 d4bc 15e3 c43c
00000150: dcce 3c3e 7210 94bd 0c13 393d 343f 843e
00000160: e6d6 223e ddf3 783e 2f65 0a3e f7da 233d
00000170: 3e1b e5bd 2940 ccbd f9f3 c53c de25 91bc
00000180: 90c7 793e e00a ce3d d1a2 5b3e baba 61ba
00000190: b79f 733e ff5d 48bd 9f20 683e dc78 4e3d
000001a0: 86df a7bd 1d5f a0bd 8a22 983e acf6 0b3e
000001b0: 2928 743e c33f 4b3e d048 563e b804 cd3c
000001c0: 47a4 733e 005e 22bd fd96 de3d ae4d 84bd
000001d0: 4b4a f4bd 6c65 cb3d bead a1bd 4b4d 5c3d
000001e0: 522d 5e3e 109d 3cbb 86ad 4cbd a3cf 083e
000001f0: 8e6b 5a3e c09b 42bd 8403 813e bd01 6f3e

q1.weight f4 [1, 128]
0.36949316 0.19684647 0.21820256 -0.6769749 -0.52423316 0.25474858 -0.4139171 0.2483866
0.17821221 -0.37015975 -0.24763237 -0.8325378 0.21602213 0.21253246 0.23270363 0.23725495
-0.06082347 0.2651653 -0.7942991 0.18857327 -0.2767845 0.19393538 0.1988993 0.2812433
-0.71852845 -0.47698438 0.36469457 0.19118738 0.17790125 -0.5576122 -0.8829891 0.17217761
-0.6059725 -0.013826104 0.2291895 -0.9846836 -0.38075325 -0.3079613 -0.7332136 0.1781735
0.23207657 -0.95863533 -0.2458073 -0.41520697 0.23039971 0.2302361 -1.2704283 0.25563154
-0.04636783 0.17339188 0.19598278 0.30322757 0.22468863 -1.0173358 0.20801051 -0.8139174
-0.062251158 0.2644725 0.1921864 0.2336377 0.25329298 -0.40676194 0.32904398 0.19443524
-1.157951 -0.6203587 0.18355727 -0.07678622 -0.5201533 0.32037523 0.2600653 -0.5647062
0.27830318 0.2551987 -0.8360317 0.20568898 -0.612476 -0.44135204 -0.6877591 0.20386256
-0.022857748 -0.72781384 -0.55508584 -0.9488946 0.17625898 -0.30209634 -1.0675015 0.22229375
0.20874004 0.2064101 0.22585556 -1.1017858 -0.41996682 -0.6929576 -0.61430717 -0.5361085
0.25538054 0.19807753 0.25267377 -0.908003 0.23934597 -0.40840438 0.18853849 -0.85986865
-0.7331278 -0.34899694 0.21632658 0.19156489 0.24746957 0.25045443 0.20606683 -0.67678094
0.19974196 -0.49760902 0.24746467 -0.581242 -0.21401282 0.2251457 -0.33564198 -0.95462555
0.19117753 -0.28497088 -0.40930828 0.24457128 0.2075485 -0.23047608 0.18149701 0.2022845
00000000: 352e bd3e 1f92 493e 7e70 5f3e 3a4e 2dbf
00000010: 2534 06bf 686e 823e f1ec d3be 0f59 7e3e
00000020: 437d 363e 9485 bdbe 5793 7dbe 3221 55bf
00000030: e834 5d3e 1ca2 593e dc49 6e3e f6f2 723e
00000040: 0822 79bd bfc3 873e 3057 4bbf 5a19 413e
00000050: b3b6 8dbe ff96 463e 42ac 4b3e 1fff 8f3e
00000060: 7bf1 37bf 4c37 f4be 3fb9 ba3e a0c6 433e
00000070: bf2b 363e acbf 0ebf 930b 62bf 544f 303e
00000080: 0421 1bbf e286 62bc a7b0 6a3e 3914 7cbf
00000090: 17f2 c2be 1aad 9dbe e3b3 3bbf 1d73 363e
000000a0: 7ba5 6d3e 2069 75bf e9b4 7bbe 0296 d4be
000000b0: e7ed 6b3e 03c3 6b3e 659d a2bf 23e2 823e
000000c0: 32ec 3dbd a48d 313e b6af 483e a540 9b3e
000000d0: c714 663e 0f38 82bf b500 553e e45c 50bf
000000e0: 12fb 7ebd f168 873e 83cc 443e b93e 6f3e
000000f0: 9eaf 813e 1a43 d0be 7478 a83e 081a 473e
00000100: bd37 94bf d4cf 1ebf 70f6 3b3e 1842 9dbd
00000110: c428 05bf 3908 a43e 4727 853e 9690 10bf
00000120: c17d 8e3e 67a9 823e 2c06 56bf 22a0 523e
00000130: 3acb 1cbf e5f8 e1be fb10 30bf 59c1 503e
00000140: 2c40 bbbc 0252 3abf 1b1a 0ebf c2ea 72bf
00000150: 3c7d 343e 5fac 9abe e4a3 88bf f9a0 633e
00000160: f3bf 553e 2b5d 533e ae46 673e 5107 8dbf
00000170: e405 d7be ab65 31bf 3c43 1dbf 683e 09bf
00000180: 3dc1 823e d6d4 4a3e 755e 813e e272 68bf
00000190: 1c17 753e 611a d1be 3c10 413e 5a20 5cbf
000001a0: 43ae 3bbf baaf b2be b784 5d3e 9629 443e
000001b0: aa68 7d3e 903b 803e 2f03 533e 8441 2dbf
000001c0: 2889 4c3e 9cc6 febe 6167 7d3e 47cc 14bf
000001d0: 2d26 5bbe 988c 663e 44d9 abbe 5762 74bf
000001e0: 0bc4 433e b4e7 91be db90 d1be e570 7a3e
000001f0: 9887 543e ec01 6cbe 5ada 393e ab23 4f3e

fc3.weight f4 [128, 17]
0.08406261 -0.23744443 0.12182334 -0.025982784 -0.0715723 -0.2275638 -0.10171752 0.08122276
-0.030632762 0.069594406 0.19596747 -0.1592871 0.3042992 -0.3659785 0.12774277 0.21153001
0.10474116 0.031036103 0.022979237 -0.2408609 0.014455859 -0.12153506 0.24063233 -0.09077624
-0.010275463 0.121696346 -0.06312713 -0.08648577 -0.036127917 0.040332712 0.051941562 -0.047034264
0.09508995 0.13961586 -0.08233933 -0.07559505 0.06764857 -0.17503427 -0.1728934 0.03404609
-0.07193451 0.019855017 0.2268041 0.01390807 0.0023271984 0.22429173 0.04198164 -0.054007933
0.27160436 0.07203906 0.043958455 0.045650348 -0.26820183 -0.22954154 0.15765685 0.26041865
0.19744094 -0.21195003 0.09188707 0.17317247 -0.12820312 -0.084842056 0.2490455 -0.13146777
-0.23458812 -0.1242422 0.13139172 0.28333122 0.108244315 0.08561727 0.2953463 0.13337797
-0.24171889 -0.2540126 -0.07035743 0.102764025 -0.01384139 -0.1757701 0.02267921 0.24611004
0.16588427 0.23192996 -0.19254744 0.11556951 -0.32667443 -0.41351268 0.078166544 -0.0039422167
-0.2309588 -0.049872056 -0.21632282 0.10694674 0.22710538 -0.18543537 -0.18610045 0.031230625
-0.100680016 0.18325944 -0.05549777 -0.07842695 -0.40737936 0.07438793 -0.17629872 -0.04680629
0.28729135 -0.03697248 0.13128355 -0.38415968 0.24502721 0.11477378 0.10086601 -0.088183254
-0.010509468 -0.23672068 -0.033428192 -0.3540358 0.37592378 -0.12793477 -0.017067915 0.21878733
-0.056092132 -0.08747249 -0.13840659 0.06696274 0.1860624 0.23584937 -0.12049418 0.06390906
0.10338812 -0.25715804 -0.30229282 -0.22112116 0.084218234 0.20693812 -0.01354034 0.07271905
-0.25160143 -0.088183016 -0.16812381 0.11739319 0.06452696 -0.20179142 -0.010901639 -0.1301615
-0.1102835 -0.019617397 0.354839 0.21592899 0.26686722 -0.115063764 0.24602322 0.07618258
0.11621675 0.035230044 0.029934578 -0.0040920554 0.23266268 0.10578645 0.26555878 0.048057027
0.108517006 0.014038285 -0.10281703 -0.1231494 0.021015208 -0.2602239 -0.1443403 0.13356674
0.3469834 -0.1755333 -0.011526565 -0.18020064 -0.21043058 -0.013988189 -0.0034106502 0.27761346
-0.29776385 0.18695004 0.15139721 0.12243628 -0.120159544 0.03280498 0.15690027 -0.12826091
-0.12325941 0.13501069 -0.2540804 -0.096612096 -0.0057688975 0.061664116 -0.11273317 0.07842537
0.03098047 -0.12448303 -0.075378045 0.1427839 0.033443797 0.21323605 0.12347671 0.07347694
-0.012704871 0.24913453 -0.22500892 -0.27008313 0.17453112 0.003562712 0.06932502 -0.00073492504
0.13630314 0.23558214 -0.50659394 0.21573257 0.10374247 0.01856807 0.057328723 0.11127888
-0.21028337 -0.03132635 0.091829605 0.3261898 0.13674316 0.16756265 -0.0737918 0.034644675
0.057404265 0.09472064 0.08079088 0.008241972 -0.19524135 0.20041014 -0.23072107 -0.27545297
-0.034310907 -0.08459021 0.110777885 0.055331428 0.3757328 0.18878679 0.22452469 0.11433474
0.2102683 -0.029245058 0.17166513 -0.17170233 -0.0649398 0.019511629 0.17214136 0.24808587
0.033498347 0.104881205 -0.0051183337 -0.17474523 -0.27334055 0.23962335 -0.1529434 0.15240419
00000000: 0529 ac3d a224 73be 847e f93d d9d9 d4bc
00000010: 7f94 92bd 7c06 69be 4651 d0bd 1e58 a63d
00000020: 8ff1 fabc 8387 8e3d b2ab 483e 281c 23be
00000030: 1bcd 9b3e 8961 bbbe 00cf 023e 539b 583e
00000040: 8982 d63d 6d3f fe3c f43e bc3c 3da4 76be
00000050: 44d8 6c3c 60e7 f8bd 5268 763e e5e8 b9bd
00000060: 6a5a 28bc ef3b f93d cc48 81bd 741f b1bd
00000070: defa 13bd ea33 253d adc0 543d 00a7 40bd
00000080: 85be c23d 76f7 0e3e 86a1 a8bd 94d1 9abd
00000090: 558b 8a3d 2f3c 33be f80a 31be ea73 0b3d
000000a0: 6652 93bd fda6 a23c 563f 683e acde 633c
000000b0: e983 183b bbac 653e f1f4 2b3d 6c37 5dbd
000000c0: ba0f 8b3e 3789 933d c80d 343d dcfb 3a3d
000000d0: c051 89be f00c 6bbe cc70 213e 9855 853e
000000e0: f52d 4a3e 6e09 59be 4a2f bc3d 2054 313e
000000f0: ae47 03be acc1 adbd c905 7f3e 7d9f 06be
00000100: de37 70be b272 febd 8d8b 063e ca10 913e
00000110: 32af dd3d 1b58 af3d a137 973e 3c94 083e
00000120: 2885 77be f10d 82be 8e17 90bd f275 d23d
00000130: ffc6 62bc 14fd 33be c0c9 b93c 4504 7c3e
00000140: 91dd 293e 0c7f 6d3e 282b 45be b5af ec3d
00000150: df41 a7be efb7 d3be c815 a03d b62d 81bb
00000160: 7780 6cbe a446 4cbd bb83 5dbe e406 db3d
00000170: 508e 683e c5e2 3dbe 1e91 3ebe 5ed7 ff3c
00000180: 5331 cebd 5da8 3b3e a151 63bd 4f9e a0bd
00000190: 0794 d0be b358 983d a787 34be f4b7 3fbd
000001a0: da17 933e 7570 17bd 326f 063e 94b0 c4be
000001b0: 6ae8 7a3e 840e eb3d d792 ce3d 6c99 b4bd
000001c0: e72f 2cbc e866 72be 00ec 08bd 2e44 b5be
000001d0: 1579 c03e 5501 03be 03d2 8bbc c909 603e
000001e0: ddc0 65bd c724 b3bd 75ba 0dbe c323 893d
000001f0: 2487 3e3e 7f82 713e a7c5 f6bd c1e2 823d
00000200: 27bd d33d 38aa 83be 20c6 9abe 966d 62be
00000210: 9c7a ac3d 96e7 533e 4dd8 5dbc baed 943d
00000220: e7d1 80be 4c99 b4bd a628 2cbe d76b f03d
00000230: b626 843d 69a2 4ebe ca9c 32bc 0e49 05be
00000240: 51dc e1bd aab4 a0bc 75ad b53e 7d1c 5d3e
00000250: d2a2 883e 8da6 ebbd 83ed 7b3e 9d05 9c3d
00000260: 0c03 ee3d 614d 103d 5c39 f53c a616 86bb
00000270: 203f 6e3e 91a6 d83d 52f7 873e 72d7 443d
00000280: 2a3e de3d d600 663c bc91 d2bd c135 fcbd
00000290: 1628 ac3c 113c 85be f2cd 13be b8c5 083e
000002a0: cfa7 b13e 00bf 33be ebd9 3cbc 8486 38be
000002b0: 1d7b 57be b82e 65bc 3785 5fbb 5a23 8e3e
000002c0: 8174 98be d56f 3f3e df07 1b3e dfbf fa3d
000002d0: 3516 f6bd 845e 063d 77aa 203e d456 03be
000002e0: 6e6f fcbd 3e40 0a3e d416 82be 90dc c5bd
000002f0: 0509 bdbb 8393 7c3d a6e0 e6bd 7b9d a03d
00000300: c1ca fd3c f5f0 febd ce5f 9abd f135 123e
00000310: 5dfc 083d 8d5a 5a3e 5be1 fc3d 147b 963d
00000320: 1728 50bc 1f1d 7f3e bd68 66be 5648 8abe
00000330: 49b8 323e 647c 693b 47fa 8d3d fca7 40ba
00000340: 0d93 0b3e 723c 713e 24b0 01bf 00e9 5c3e
00000350: ef76 d43d 111c 983c 86d1 6a3d 2ee6 e33d
00000360: 8654 57be 0f50 00bd 2911 bc3d 5902 a73e
00000370: 6606 0c3e 8b95 2b3e 2820 97bd 93e7 0d3d
00000380: bc20 6b3d e5fc c13d b075 a53d 5609 073c
00000390: 59ed 47be 5138 4d3e 2542 6cbe 2c08 8dbe
000003a0: 9889 0cbd a23d adbd 84df e23d 35a3 623d
000003b0: 0d60 c03e 5351 413e cde9 653e 5528 ea3d
000003c0: 9350 573e 5593 efbc fcc8 2f3e bcd2 2fbe
000003d0: 28ff 84bd dad6 9f3c d345 303e 390a 7e3e
000003e0: 9035 093d f5cb d63d b2b7 a7bb 6af0 32be
000003f0: 4bf3 8bbe d35f 753e 329d 1cbe d80f 1c3e

fc3.bias f4 [128]
-0.21235853 0.43573475 0.39881265 0.20597306 -0.3076648 -0.31745103 0.121357076 0.32003775
0.14526634 0.2512282 0.23677932 0.19937688 -0.15941505 -0.17683274 0.24689345 -0.27594417
-0.031905305 0.2814244 0.36109057 0.14027372 0.38737255 -0.13895491 -0.118174985 0.4480667
0.3935006 0.2754769 -0.106102295 0.24926981 0.020395344 0.3980397 0.077360794 -0.017715972
0.38340575 0.08763525 0.26911664 -0.11915669 -0.16702586 -0.17530325 0.3784985 -0.18549705
-0.20198475 0.4018462 -0.30049074 0.43051043 0.3583348 0.034781195 0.095772065 0.22160904
0.25715187 -0.12867117 0.28280145 -0.20855233 -0.20975561 -0.32252294 0.012630618 -0.060887262
-0.2966514 -0.037162695 0.37148306 -0.23087023 0.15869434 0.3665334 0.39888564 0.30895135
0.018357566 0.30852082 0.47537053 -0.12587789 -0.07531023 0.098014824 0.20948297 -0.25635242
0.20932586 0.12871158 0.3972443 -0.22194973 0.380644 0.06061353 -0.06589412 0.23192288
0.28347832 -0.12274603 0.31156248 -0.1451678 0.4524171 0.03890834 -0.20983127 -0.039998565
0.42009297 -0.21645263 0.29139724 0.2651309 -0.083254695 0.20465675 0.36157623 0.25400633
0.3697038 -0.083427906 -0.2260872 -0.018333951 -0.14973205 -0.23238628 0.30601013 0.03275128
0.2724528 0.060575698 0.13510907 0.45566344 0.07276978 0.3985152 -0.14161365 -0.13286503
0.20593673 0.36614355 -0.11996594 -0.06374438 -0.0120951105 0.2948594 -0.019515596 0.43762398
0.3121403 0.40466246 0.39525694 0.18191114 0.46689433 0.45949608 0.20136449 -0.056850657
00000000: 8474 59be a018 df3e 2c31 cc3e 9aea 523e
00000010: 3e86 9dbe f188 a2be 0f8a f83d fddb a33e
00000020: b3c0 143e fca0 803e 4776 723e 7429 4c3e
00000030: b33d 23be a413 35be a3d1 7c3e 8e48 8dbe
00000040: 23af 02bd dc16 903e dde0 b83e eaa3 0f3e
00000050: b255 c63e 324a 0ebe ba05 f2bd 0069 e53e
00000060: e978 c93e 4f0b 8d3e 294c d9bd 9640 7f3e
00000070: 2314 a73c dccb cb3e 566f 9e3d 1621 91bc
00000080: c24d c43e 1c7a b33d a8c9 893e 6c08 f4bd
00000090: d408 2bbe b282 33be 8eca c13e f0f2 3dbe
000000a0: 17d5 4ebe c9be cd3e ecd9 99be dd6b dc3e
000000b0: a977 b73e ba76 0e3d 2524 c43d 7bed 623e
000000c0: 69a9 833e 60c2 03be 5acb 903e be8e 55be
000000d0: 2dca 56be ba21 a5be a7f0 4e3c ec64 79bd
000000e0: b1e2 97be e937 18bd 0733 be3e 3f69 6cbe
000000f0: c580 223e 44aa bb3e bd3a cc3e df2e 9e3e
00000100: 9b62 963c 71f6 9d3e c463 f33e 22e6 00be
00000110: 403c 9abd ffbb c83d b482 563e a040 83be
00000120: 8559 563e f8cc 033e 9b63 cb3e ca46 63be
00000130: c5e3 c23e e545 783d 7ff3 86bd 317d 6d3e
00000140: 1224 913e 4562 fbbd 1e85 9f3e dea6 14be
00000150: 37a3 e73e 5a5e 1f3d 02de 56be 89d5 23bd
00000160: 6d16 d73e c2a5 5dbe 0532 953e 3dbf 873e
00000170: 7081 aabd 8a91 513e 8520 b93e 1e0d 823e
00000180: d149 bd3e 40dc aabd 6783 67be 1531 96bc
00000190: 5c53 19be abf6 6dbe 5cad 9c3e 3526 063d
000001a0: ef7e 8b3e 391e 783d 085a 0a3e b84c e93e
000001b0: 5308 953d 2f0a cc3e 2b03 11be c50d 08be
000001c0: 14e1 523e 2b77 bb3e b4b0 f5bd 6a8c 82bd
000001d0: 922a 46bc d0f7 963e 2cdf 9fbc 4010 e03e
000001e0: dad0 9f3e eb2f cf3e 1e5f ca3e ea46 3a3e
000001f0: c60c ef3e 1243 eb3e 7e32 4e3e 3cdc 68bd

fc4.weight f4 [128, 128]
-0.27125877 0.17661373 0.1607028 0.038045984 0.120940335 -0.19055298 0.027577227 0.14884138
0.26949084 0.15450908 0.15764707 0.02978352 -0.00025137747 -0.032882623 0.1412055 -0.17735143
-0.012232999 0.13722688 0.19115147 0.13952993 0.15580763 -0.0923411 -0.12085214 0.16829483
0.17865951 0.20905465 -0.09398566 0.1343045 0.053187475 0.23150176 0.25048542 -0.0115655605
0.24526581 0.1533348 0.15193498 -0.13609196 -0.23763117 0.10339814 0.23585872 -0.1821982
-0.056297716 0.10061384 0.050059862 0.1472812 0.20170629 0.08386487 0.06306173 0.12651661
0.18967558 0.20502408 0.1328182 -0.25441414 -0.100381576 0.04955762 0.08601677 0.101811364
-0.13218535 -0.03651 0.2708424 -0.2584011 0.07212617 0.19762199 0.19384028 0.2656624
0.16852884 0.083664745 0.20676655 0.0058566723 -0.06572637 0.21316586 0.1408532 -0.19483002
-0.007918814 0.048563607 0.28758094 0.16285416 0.13499805 0.052079584 0.03493104 0.26263067
0.13782853 0.03754615 0.19346994 -0.12734625 0.27927387 0.12750828 -0.15595493 -0.120902166
0.17156638 -0.018148584 0.043386802 0.19210705 0.19905284 0.06988748 0.04226411 0.067323245
0.117598996 -0.008989921 0.037546504 0.12523757 -0.14434436 0.13194352 0.1467661 0.17691316
0.2014602 0.0052783834 0.16894299 0.1801041 0.08241477 0.07068962 -0.03662237 -0.08106336
0.057399396 0.5059995 -0.12332619 -0.041434612 0.21043399 0.24857707 -0.051320855 0.16810821
0.14836419 0.19953726 0.13109764 0.037882768 0.20423907 0.1627165 0.23521902 -0.008257845
-0.21628572 0.17585741 0.10091165 0.07763944 0.12150181 -0.32305372 0.065410934 0.12708345
0.19675328 0.019387124 0.16627394 -0.018147346 0.012694421 -0.13284588 0.014882267 -0.16264671
0.13306338 0.14721741 0.19421025 0.08890313 0.091164626 0.029444393 -0.012470462 0.1468557
0.08494088 0.11810138 -0.2651325 0.108651645 0.06298264 0.17044893 0.27163982 0.03091982
0.07629641 0.14798997 0.07978121 0.014812134 -0.3308148 0.1235395 0.26188016 -0.09237833
-0.06643816 0.077486224 0.12163299 0.110184446 0.114505574 0.16740681 -0.00193878 0.07720027
0.11441406 0.13304028 0.0070540546 -0.14893183 -0.12798071 0.07988871 0.12540627 0.10910566
-0.10345488 -0.028012367 0.21725434 -0.2312989 0.10969695 0.1372832 0.2016386 0.18540679
0.07889595 0.1146925 0.17363323 0.14899227 -0.055443123 0.11437024 0.0243381 -0.09730536
0.0903155 0.07696065 0.28425428 0.12674893 0.0912185 -0.002085195 0.019688347 0.10950292
0.037121173 0.0669237 0.2724177 -0.24214624 0.22032109 0.091553375 -0.069324516 -0.013054642
0.13288897 -0.07777388 0.1733717 0.24348292 0.21820556 0.18948196 0.19113258 0.17881319
0.07833559 -0.074628904 0.16987163 0.16742831 -0.0924492 0.04915682 0.18402484 0.040818002
0.110261716 -0.004683818 0.08008929 0.21030201 0.12878731 0.05386658 -0.13706112 -0.15949193
0.042879075 0.38879982 -0.16853094 -0.1620401 0.14689064 0.14155129 -0.0868297 0.1662576
0.23814648 0.19037603 0.064470515 0.09600679 0.2547185 0.07403907 0.18581952 -0.121942766
00000000: 6ee2 8abe 3bda 343e 468f 243e 1bd6 1b3d
00000010: 91af f73d 5220 43be a3e9 e13c e069 183e
00000020: b4fa 893e a137 1e3e 3c6e 213e 92fc f33c
00000030: 50cb 83b9 eeaf 06bd 2d98 103e 9d9b 35be
00000040: eb6c 48bc 3485 0c3e 36bd 433e efe0 0e3e
00000050: 098c 1f3e 551d bdbd 5481 f7bd 7b55 2c3e
00000060: 85f2 363e 6c12 563e 8e7b c0bd 1e87 093e
00000070: 1cdb 593d cc0e 6d3e a03f 803e 7a7d 3dbc
00000080: f626 7b3e cc03 1d3e d894 1b3e b15b 0bbe
00000090: 9655 73be 67c2 d33d f384 713e 2a92 3abe
000000a0: 6f98 66bd a10e ce3d 920b 4d3d e2d0 163e
000000b0: 188c 4e3e 58c1 ab3d 8226 813d 928d 013e
000000c0: 513a 423e d5f1 513e 7f01 083e 9242 82be
000000d0: db94 cdbd eefc 4a3d 8f29 b03d 7a82 d03d
000000e0: 995b 07be 828b 15bd dbab 8a3e 264d 84be
000000f0: e3b6 933d 6b5d 4a3e 117e 463e e704 883e
00000100: d392 2c3e 6c58 ab3d 9cba 533e 54e9 bf3b
00000110: 8c9b 86bd 2748 5a3e d23b 103e 8581 47be
00000120: eabd 01bc a2ea 463d cf3d 933e 3ec3 263e
00000130: ee3c 0a3e 6751 553d da13 0f3d 8777 863e
00000140: ec22 0d3e fec9 193d fc1c 463e 0e67 02be
00000150: fcfc 8e3e 8891 023e a6b2 1fbe 8e9b f7bd
00000160: 19af 2f3e 57ac 94bc 5cb6 313d b6b7 443e
00000170: 82d4 4b3e 2b21 8f3d 221d 2d3d c5e0 893d
00000180: bed7 f03d 764a 13bc 5dca 193d 473e 003e
00000190: 02cf 13be 341c 073e da49 163e b928 353e
000001a0: 954b 4e3e 4af6 ac3b 64ff 2c3e 366d 383e
000001b0: 13c9 a83d b8c5 903d 5701 16bd 8c04 a6bd
000001c0: a11b 6b3d 2f89 013f 7192 fcbd 57b7 29bd
000001d0: 027c 573e fd8a 7e3e d135 52bd 8f24 2c3e
000001e0: c8ec 173e 7f53 4c3e 763e 063e f62a 1b3d
000001f0: 0c24 513e 279f 263e 41dd 703e ea4b 07bc
00000200: 017a 5dbe f713 343e c4aa ce3d 6d01 9f3d
00000210: f1d5 f83d 4c67 a5be 2bf6 853d 2a22 023e
00000220: b179 493e bfd1 9e3c b743 2a3e bea9 94bc
00000230: 43fc 4f3c c008 08be c1d4 733c dc8c 26be
00000240: c441 083e 29c0 163e 0ddf 463e d812 b63d
00000250: 85b4 ba3d 5e35 f13c e950 4cbc 5761 163e
00000260: 7cf5 ad3d 23df f13d 72bf 87be c184 de3d
00000270: 0bfd 803d 2a8a 2e3e 6014 8b3e 904b fd3c
00000280: 4b41 9c3d af8a 173e 5564 a33d 98ae 723c
00000290: 8f60 a9be 4702 fd3d 2815 863e da30 bdbd
000002a0: bb10 88bd 19b1 9e3d b81a f93d 62a8 e13d
000002b0: e681 ea3d b16c 2b3e a91e feba 2d1b 9e3d
000002c0: eb51 ea3d b63b 083e b325 e73b 9681 18be
000002d0: 600d 03be b19c a33d 806a 003e ca72 df3d
000002e0: 27e0 d3bd 317a e5bc ec77 5e3e 9ed9 6cbe
000002f0: cba8 e03d f893 0c3e 597a 4e3e 47db 3d3e
00000300: 3394 a13d e7e3 ea3d e9cc 313e 6e91 183e
00000310: 5418 63bd f23a ea3d b260 c73c 0848 c7bd
00000320: 55f7 b83d 8c9d 9d3d c789 913e 79ca 013e
00000330: c4d0 ba3d c4a7 08bb 7549 a13c 1143 e03d
00000340: 5f0c 183d 4b0f 893d 557a 8b3e 2ff5 77be
00000350: da9b 613e 5680 bb3d 03fa 8dbd 23e3 55bc
00000360: 0c14 083e e947 9fbd 5a88 313e 9653 793e
00000370: 4771 5f3e 8f07 423e 42b8 433e ce1a 373e
00000380: 696e a03d 0ad7 98bd d4f2 2d3e 5472 2b3e
00000390: 0256 bdbd a958 493d 0271 3c3e c730 273d
000003a0: e5d0 e13d b77a 99bb db05 a43d 6959 573e
000003b0: d2e0 033e 34a3 5c3d c059 0cbe da51 23be
000003c0: f8a1 2f3d c510 c73e 6093 2cbe d7ed 25be
000003d0: 806a 163e d2f2 103e c5d3 b1bd 6f3f 2a3e
000003e0: acdc 733e eff1 423e 1e09 843d 359f c43d
000003f0: 776a 823e cca1 973d 7947 3e3e 21bd f9bd

fc4.bias f4 [128]
0.14995322 0.15203685 0.12523022 0.19768292 -0.013311634 0.13125499 0.13904786 0.14382836
0.20436528 0.24141233 -0.042502407 0.18644863 0.20508361 0.15087974 0.15954062 0.22398682
-0.075732715 0.19004755 -0.08077499 0.27218762 0.13730007 0.14873219 -0.066134274 -0.089935794
-0.0697549 0.19529009 0.059640676 -0.06867832 0.17406055 0.11167743 0.2240909 0.12421678
0.11223837 0.2368346 0.2652 0.19321634 -0.025352847 0.30367693 -0.0318771 0.005952574
-0.05363986 -0.0034499643 0.005668519 -0.07091262 0.2408903 0.23795523 0.18912832 -0.011859927
-0.11666915 0.08270612 0.2182244 0.18970086 0.09250735 0.056940407 0.04756737 -0.04034671
0.184867 0.24122986 0.13713598 0.08800467 -0.10545524 -0.07042344 0.2540401 -0.038041644
0.16414231 0.1841703 -0.024659943 0.14948086 -0.015272041 0.12381256 -0.013503487 0.14858726
0.17577338 0.19839132 -0.07671985 0.19440779 0.21509297 0.15078607 0.1293415 0.03275847
-0.107849866 -0.033181906 0.10067254 0.06020015 0.12428723 0.18901086 0.11254904 -0.10463083
-0.008879669 0.13772932 -0.05902247 0.032137077 0.035640415 0.0049859653 0.173096 0.07041732
-0.09124622 0.1972588 0.07535416 0.2061015 0.14660007 -0.10055546 -0.091695756 0.115961775
0.21671765 0.16564126 0.23980355 0.049374763 -0.049757298 0.11411801 0.1892248 0.13863978
0.11951434 0.070323125 -0.068326265 0.24210131 -0.056078196 -0.05021531 0.07101379 0.2374571
-0.120830365 -0.09947044 0.038523696 -0.00028706595 0.22960691 0.20850876 0.10307266 0.10478133
00000000: 568d 193e 8caf 1b3e 5a3c 003e 646d 4a3e
00000010: 0a19 5abc b567 063e 9062 0e3e be47 133e
00000020: 2245 513e cb34 773e 0117 2ebd 64ec 3e3e
00000030: 7001 523e 3880 1a3e 9e5e 233e cd5c 653e
00000040: c119 9bbd d39b 423e 5c6d a5bd 2d5c 8b3e
00000050: 6498 0c3e 404d 183e 6871 87bd 4230 b8bd
00000060: a8db 8ebd 20fa 473e c849 743d 38a7 8cbd
00000070: ee3c 323e 23b7 e43d 1678 653e 5e65 fe3d
00000080: 3bdd e53d c584 723e 4bc8 873e 81da 453e
00000090: c6b0 cfbc 8b7b 9b3e 9091 02bd cf0d c33b
000000a0: 78b5 5bbd cc18 62bb fcbe b93b a33a 91bd
000000b0: f2ab 763e 89aa 733e dbaa 413e 2450 42bc
000000c0: 3cf0 eebd d461 a93d 3876 5f3e f140 423e
000000d0: 7e74 bd3d 583a 693d 01d6 423d 9742 25bd
000000e0: c64d 3d3e f604 773e 606d 0c3e cb3b b43d
000000f0: ebf8 d7bd 2a3a 90bd 8b11 823e 8ed1 1bbd
00000100: ec14 283e 2497 3c3e a603 cabc 8311 193e
00000110: 9537 7abc 7191 fd3d bb3d 5dbc 4227 183e
00000120: f0fd 333e 1827 4b3e 4c1f 9dbd d612 473e
00000130: 5541 5c3e aa67 1a3e 1972 043e bf2d 063d
00000140: 64e0 dcbd c0e9 07bd 682d ce3d 6f94 763d
00000150: 4e8a fe3d 108c 413e 1c80 e63d b048 d6bd
00000160: 087c 11bc ea08 0d3e 8cc1 71bd 2ba2 033d
00000170: affb 113d 4f61 a33b 1440 313e f536 903d
00000180: 4cdf babd 36fe 493e 4853 9a3d 460c 533e
00000190: 541e 163e 05f0 cdbd fcca bbbd 5e7d ed3d
000001a0: 3beb 5d3e dd9d 293e 108f 753e 313d 4a3d
000001b0: 4fce 4bbd b4b6 e93d 25c4 413e 96f7 0d3e
000001c0: efc3 f43d 9205 903d a4ee 8bbd 68e9 773e
000001d0: 40b2 65bd 92ae 4dbd ae6f 913d f427 733e
000001e0: e975 f7bd 28b7 cbbd 06cb 1d3d 5781 96b9
000001f0: 131e 6b3e 5283 553e c217 d33d 9897 d63d

q2.weight f4 [1, 128]
0.21023034 0.25859118 0.2829113 0.27849013 -1.3308845 0.18081723 0.24814689 0.30351013
0.1775696 0.20978309 -0.58249694 0.23943448 0.22153626 0.19105867 0.15351315 0.23895328
-0.6479185 0.30376646 -0.7027297 0.23251796 0.24709103 0.26613623 -0.43266338 -0.5556225
-0.65008813 0.20361367 -0.5376196 -0.2738734 0.1935289 0.17626007 0.25722256 0.23591942
0.26002404 0.26704496 0.22304939 0.19184703 -0.41755542 0.28291383 -0.66921085 -0.82178056
0.7161139 -0.5746271 0.6108932 -0.49651366 0.20353563 0.24559192 0.21615459 -0.5407168
-0.57182676 -0.5019246 0.17516716 0.19022973 -0.7913117 -0.56804234 -0.48921573 -0.5543874
0.22702669 0.31483158 0.17429085 0.21837988 -0.5442224 -0.6882418 0.20943424 -0.07451289
0.22953151 0.24748152 -0.5884573 0.21452872 -0.48231426 0.28004003 -0.58325434 0.20348425
0.21362855 0.24594723 -0.6822978 0.25343412 0.22711124 0.25398976 0.27890128 0.6720994
-0.45900565 -0.7528025 0.18294841 -0.841258 0.20613243 0.22824779 0.21373886 -0.5008299
-0.65565306 0.23046951 -0.47090045 -0.5342812 -0.787522 -0.44178614 0.321692 -0.79713374
-1.2258646 0.24552573 -0.99655443 0.25952095 0.20779586 -0.6410823 -0.55917925 0.30461946
0.17517027 0.25939876 0.23126705 -0.8239771 -0.55163956 0.18372446 0.25180367 0.22707014
0.17121744 -0.045625918 -0.48699355 0.21684399 -0.41078502 -0.8808442 -0.7575111 0.2205001
-0.34399804 -0.5123908 -0.456626 -0.50992334 0.19396208 0.21065295 0.26535493 0.23843272
00000000: 9f46 573e 1066 843e c0d9 903e 4296 8e3e
00000010: 6c5a aabf 2728 393e 381a 7e3e ae65 9b3e
00000020: ced4 353e 61d1 563e 851e 15bf 502e 753e
00000030: 67da 623e e2a4 433e 8d32 1d3e 2bb0 743e
00000040: fddd 25bf 4787 9b3e 18e6 33bf 3019 6e3e
00000050: 6e05 7d3e 0243 883e 0e86 ddbe 473d 0ebf
00000060: 2d6c 26bf 1a80 503e 70a1 09bf 2239 8cbe
00000070: 712c 463e 857d 343e adb2 833e dc94 713e
00000080: df21 853e 1eba 883e 0f67 643e 8c73 443e
00000090: d3c9 d5be 15da 903e 6751 2bbf 3660 52bf
000000a0: 3e53 373f c31a 13bf 7f63 1c3f 0a37 febe
000000b0: a56b 503e 737c 7b3e a157 5d3e 6b6c 0abf
000000c0: 3d63 12bf 217e 00bf 055f 333e 95cb 423e
000000d0: 6793 4abf 396b 11bf 7c7a fabe 55ec 0dbf
000000e0: af79 683e 9b31 a13e 4d79 323e fa9e 5f3e
000000f0: 2952 0bbf 9d30 30bf ee75 563e 379a 98bd
00000100: 4f0a 6b3e cc6b 7d3e 23a5 16bf 6bad 5b3e
00000110: e5f1 f6be 6861 8f3e 2850 15bf 2d5e 503e
00000120: 71c1 5a3e 97d9 7b3e 12ab 2ebf 1ec2 813e
00000130: d98f 683e f20a 823e 26cc 8e3e b50e 2c3f
00000140: ca02 ebbe aab7 40bf d456 3b3e af5c 57bf
00000150: 6114 533e cab9 693e 5cde 5a3e 6336 00bf
00000160: e1d8 27bf 3300 6c3e dd19 f1be a7c6 08bf
00000170: 0b9b 49bf cb31 e2be d0b4 a43e f510 4cbf
00000180: 22e9 9cbf 196b 7b3e 311e 7fbf eedf 843e
00000190: 70c8 543e f81d 24bf 5f26 0fbf 15f7 9b3e
000001a0: d65f 333e eacf 843e 45d1 6c3e 2af0 52bf
000001b0: 4038 0dbf 4422 3c3e 69ec 803e 1385 683e
000001c0: a053 2f3e 3ee2 3abd 3857 f9be 5a0c 5e3e
000001d0: 6a52 d2be 017f 61bf 3fec 41bf c7ca 613e
000001e0: 8320 b0be 0b2c 03bf e2ca e9be 568a 02bf
000001f0: ff9d 463e 68b5 573e 9adc 873e b527 743e
