resource/multi_run_experiment_20250319_111011/run_4/sac_actor_45000.pth (torch, 80607 bytes, 8 tensors)

fc1.weight f4 [128, 12]
00000000: e43b 6d3e c312 c6bd 7a13 b8bd 8ceb 2c3e
00000010: c403 01bf f39d 69be 6b9c b13d fdf6 5cbe
00000020: dfbd a2be bcc6 17be 8de4 b4be 46a3 09be
00000030: 9a4a b1bd 7e3e 5b3e 884e 053d 1a51 91bd
00000040: 5180 55be fcda fbbd 237c 86be f0ee e2be
00000050: 04f8 8bbe 6fc1 7ebe b3dc 693d ce13 62bd
00000060: 3ade 47ba 6d42 d13d e6e4 463e 3596 2a3e
00000070: 7afe 393e 94fc 02bf 73e5 6d3e cc3e 0cbe
00000080: 2986 90be 3da9 85bd 5c18 78be a598 1b3d
00000090: 0681 0cbe 1400 e5be f506 0fbd 6cfa 203e
000000a0: f2e6 e8bd ec9c 033e 4aca 98be 31a9 bdbc
000000b0: 26ef 9d3d 4c96 35be b2dd b93e e855 fc3d
000000c0: 39f5 5dbe ced7 27bf 90f6 0d3e d4c9 a03e
000000d0: 13a7 523b 7edb 94bc b93d 62be b4ea 98ba
000000e0: 120e ffbd 3bff a93d 4cf4 3dbe e02d b2bc
000000f0: 105a b6bd e644 9d3e 3b13 4d3e c2d7 dbbd
00000100: 2a9c a13c 5f8e cabe 4492 81be e52d 6b3e
00000110: 6356 3d3e 6219 97be 7bd7 7d3e 58c5 09bc
00000120: 3650 f73d f599 ccbc 5332 bfbe 5113 40bf
00000130: dddd c4bb 8761 86bd b022 a83e 0621 043e
00000140: 6591 f33d d9e6 d33d d508 83be c5bd 6cbe
00000150: 6e6a f23b bc34 4e3e 0368 b4bd d355 2f3e
00000160: 5d90 643c 917f 9c3e e84c a2be d5fb b9bc
00000170: 6f8f 24bc 2afd 493d 0085 903e f034 163d
00000180: 0359 4abd 8c0d 8cbe 1c8d ab3d 19f7 c9be
00000190: 4b91 4c3e edee 49be 684e 5dbe 5d31 17be
000001a0: f522 1b3e 1c0d 993d 8f4c 893e c6a6 2d3d
000001b0: d939 46be 3f1e 993d 4edb a7be 7243 f0bd
000001c0: 4c0f b4be cefd ff3d 5f7f bcbe acbc 13bf
000001d0: 774f 1f3d 78a9 b2bd ac3d eb3d 908d 833c
000001e0: faab 843e ec3e 20bb 46f2 a2be e853 0f3e
000001f0: 3617 6f3e 6ee8 cbbd 2b7b 27bf 445b 953e
00000200: 6c07 19be 3d21 973d eba7 863e 9899 9c3e
00000210: df6c a03e 5984 863e 7896 18be a8c8 0a3e
00000220: 8d8e 16be 1504 0f3e 911b 233d 3bc7 ba3d
00000230: cc0a a2be 6487 c13e b7a8 34bc 4744 653d
00000240: 0cb3 593e 99e6 aabd 0567 10bf 38da 723e
00000250: b271 333e 55de 093e a29e 87be f84f ef3e
00000260: 329b 2bbd 080b d7bc 0e2e c43e 85cc 4dbe
00000270: b5f9 c83d f44d d1be 637e dc3e cb40 143e
00000280: cfde 97be a4db 3a3d 5d49 263e 9ef4 5d3e
00000290: c9c2 42be dd91 9cbd 7d88 cbbe cec0 b1bc
000002a0: 85cb 44be f7fa 4c3e d672 e1be 016b 703c
000002b0: 450b 34be 42c8 c33e 45a9 86be b615 d63c
000002c0: 3c0c e3be 4fb3 813e b873 5fbc 0332 e03d
000002d0: c81c 783d c407 56bd faa1 903e 8403 58bd
000002e0: eebd 89be c89b 76be bc40 65be 94c6 06be
000002f0: d02f 883d ac13 52be 7d98 04be 0029 e23b
00000300: a1a6 b5bd b85e 26be 2bd9 b53d f6a5 143e
00000310: 5bf2 493d 35d2 53be 60e0 233d b12e debd
00000320: 9cc1 373e 1c5b b33e 0208 b93e f059 7e3e
00000330: 832d b3be 631f 19be fce1 01bc 81d9 e1bd
00000340: 57ea 5ebe f027 83be b538 babe 7f1d 393e
00000350: 757b cdbb a11b 64be 7f06 063e 91f5 483e
00000360: 2ddb a63d 7fdb a1be ae24 78bd 2ebc cbbe
00000370: 8fd4 f0bd f7e2 90be 6f51 a0be 8ad1 26be
00000380: 4784 a33d 634d d7bd a199 173e 9adf fc3b
00000390: d904 96be f778 a5be 0450 733e 94be 02be
000003a0: 9ec0 f13c 3c23 a13e 78c6 a8bb 98f2 d6ba
000003b0: 79f3 1cbe ec9b 60be 151d ae3e 0d33 213d
000003c0: 1a28 c4bd 78e1 28be ea6e 813e ab1c 07be
000003d0: d250 86be 9c9f 4bbe 381c 26be 2071 70bc
000003e0: 48e9 aabd 1069 c23c e058 f63d 107d 9dbc
000003f0: 0c6b 41be a8ce c63e 201a f03c 8584 b73b
0.23167378 -0.09671547 -0.0898809 0.16886729 -0.5039637 -0.22814159 0.086724125 -0.21578594
-0.31785485 -0.14821905 -0.3533062 -0.1344119 -0.08656807 0.21410558 0.032545596 -0.07095547
-0.2084973 -0.12297627 -0.26266584 -0.4432292 -0.27337658 -0.24878477 0.05709524 -0.05519467
-0.0007624362 0.10217748 0.19423255 0.16658862 0.18163481 -0.51166654 0.23232059 -0.1369583
-0.28227356 -0.0652642 -0.24228042 0.03798737 -0.13721094 -0.44726622 -0.034918744 0.15720528
-0.11372174 0.1285283 -0.29841834 -0.023151966 0.077116296 -0.17733115 0.36301953 0.12321073
-0.21675576 -0.65563667 0.13863587 0.31403983 0.003214304 -0.018171068 -0.22093858 -0.0011666627
-0.124538556 0.083006345 -0.18550223 -0.02175039 -0.08903897 0.30716628 0.20026867 -0.10734512
0.019727785 -0.39561746 -0.25306904 0.22966726 0.18489985 -0.29511553 0.2478923 -0.008408867
0.12075846 -0.024975756 -0.37343082 -0.75029474 -0.0060078935 -0.065615706 0.32838964 0.12903222
0.11892966 0.10346765 -0.25592676 -0.23119266 0.0073979413 0.20137304 -0.08808901 0.17122583
0.0139504345 0.30566075 -0.316993 -0.02270309 -0.010043963 0.0493137 0.2822647 0.03667158
-0.049401294 -0.27354085 0.08376524 -0.39446333 0.199773 -0.19720049 -0.21611941 -0.14764924
0.15150054 0.074732035 0.26816222 0.042395376 -0.19358005 0.07476472 -0.32784504 -0.11731614
-0.3516792 0.12499581 -0.36815926 -0.57709765 0.038894143 -0.0872373 0.11486372 0.016058713
0.25912458 -0.0024451567 -0.31825465 0.13996851 0.23348698 -0.09956442 -0.65422314 0.29171193
-0.14944237 0.073793866 0.26299986 0.30585933 0.31333062 0.26272848 -0.1490115 0.13553107
-0.14702816 0.13966401 0.03982121 0.091200314 -0.31648862 0.37798607 -0.011026553 0.055973317
0.21259707 -0.08344764 -0.56407195 0.23716056 0.1752384 0.13463719 -0.26488215 0.467407
-0.041896053 -0.026250377 0.38316387 -0.2009755 0.09813253 -0.40879786 0.43065175 0.14477842
-0.29662177 0.045619622 0.16238923 0.21675345 -0.19019617 -0.07645009 -0.3975257 -0.021698382
-0.19218262 0.2001761 -0.44032925 0.014673949 -0.17582424 0.38238722 -0.26301017 0.0261334
-0.44345272 0.25332114 -0.013638429 0.10947039 0.060574323 -0.0522535 0.28248578 -0.052737728
-0.26902717 -0.24082863 -0.22387975 -0.13161689 0.066497445 -0.20515317 -0.12948795 0.0069018602
-0.088696726 -0.1624707 0.08879312 0.14516434 0.049303394 -0.20685656 0.040008903 -0.108487494
0.1794495 0.35030448 0.36138922 0.24838996 -0.3499566 -0.1495338 -0.007927414 -0.11027814
-0.21769081 -0.25616407 -0.3637139 0.18077658 -0.0062708207 -0.22276165 0.13088416 0.19624926
0.08147273 -0.31612775 -0.060581855 -0.39792007 -0.11759292 -0.2829816 -0.3131213 -0.1629087
0.07984214 -0.10512807 0.14804699 0.007717085 -0.29300573 -0.3231885 0.23760992 -0.12768012
0.029510792 0.31472194 -0.0051506124 -0.0016399203 -0.15327252 -0.2193448 0.34006563 0.039355326
-0.09577961 -0.1649226 0.25279933 -0.1319453 -0.26233536 -0.19885105 -0.16221702 -0.014675409
-0.08345276 0.023731738 0.1202867 -0.019224674 -0.18888491 0.3882954 0.029309332 0.0056005144

fc1.bias f4 [128]
00000000: e16a b83c 0ae3 d73d de5c 1b3d 544a 91bd
00000010: f166 883e 0a9a bd3d 7f1f 8b3c 65ca 193e
00000020: a6d8 363d bd82 413e e2f0 97be 1848 b8bd
00000030: 77ca 52be 62fa 1abe bdc4 6abe fa1e 5fbe
00000040: c93e 23be 83b5 22be 69e4 58bd 11fc 393e
00000050: c86f 5cbe ba35 87bd cb1a 903d 0378 603d
00000060: e540 9bbd 3adb 34be 1de3 3a3d bd39 bdbd
00000070: 32c0 8dbd 6971 0b3e 6d4a 043b 9501 e13e
00000080: fe5d 8fbe 0ab5 79be 11df 123d d0b0 a93d
00000090: 83ea 8cbe 8c68 df3d 6817 353e d3c4 8e3e
000000a0: 47dd 3abe 2a32 fe3b e233 5e3c 06e3 bdbd
000000b0: 734b f43d a97d bf3d 4e01 773d 4834 153e
000000c0: 1bd3 ebbd 6361 e63c a717 2a3e b4f3 b0bd
000000d0: f9b6 d3bd 4152 2b3e 0f26 4abe c029 e6bc
000000e0: 30c9 5ebd d270 103e 45f6 e03d 576a bc3d
000000f0: b315 863e 15fa be3c cac3 d93c 20db ebbc
00000100: 54bd 383e db62 053e bc60 823e 17cd 623e
00000110: 0773 4e3e 5809 48bc 3ed7 643a ae51 4cbe
00000120: c60e d13d 5df7 993e 79d3 3abe e84f 663e
00000130: 2706 913d 2770 f3bd e066 edbd 867e 61be
00000140: 6d2c 7f3e 6a00 ebbd 2e61 7d3e 9785 e03d
00000150: 66c5 dcbd 9fdf e83d a758 29be cb55 80be
00000160: 9d86 c7bd 3e02 06be 5834 76bd 0f29 98bd
00000170: 7e87 f03d 7ff7 893d 13df ad3b 62db 74be
00000180: a8be 693d 65ec fb3c e8ce f7bc 7f6b 0dbe
00000190: 486c febb 1062 71be 5457 2e3e fdb2 9d3e
000001a0: 9f40 dd3d 1c3d 19bd 7d44 0f3d 7b06 21be
000001b0: 03ba 843d 2d71 563c 2836 3f3e 925d 0c3e
000001c0: 2b96 aa3e 41bc 5cbd 7a59 983d 337c 033e
000001d0: 8ef7 f9bd 4238 423e 3216 813e 7a11 453e
000001e0: b10a 07be f4d3 373e a1ba eebd dd8f 82be
000001f0: 4955 b63d 82b0 61bc 340f 04be 9526 6f3d
0.022511901 0.10541351 0.037930362 -0.07094255 0.26641038 0.09257896 0.016982792 0.15018614
0.044640206 0.18897529 -0.29675967 -0.08998126 -0.20585047 -0.15134576 -0.22926612 -0.2178916
-0.1594192 -0.15889554 -0.052952204 0.18162562 -0.21527016 -0.066020444 0.0703636 0.054801952
-0.07580737 -0.17661753 0.04562675 -0.09239528 -0.06921424 0.13617481 0.0020185963 0.4394652
-0.28001398 -0.24385467 0.035857264 0.082856774 -0.27522668 0.109086126 0.1768471 0.2788454
-0.18248473 0.007757445 0.0135621745 -0.09271817 0.11928453 0.0935014 0.06030398 0.14570725
-0.115148745 0.02812261 0.16610585 -0.08640233 -0.10337634 0.16730596 -0.1974108 -0.02809608
-0.054391086 0.14105538 0.10984472 0.0919997 0.2618843 0.023312608 0.026582617 -0.02879101
0.18040973 0.13025992 0.25464427 0.22148548 0.20161067 -0.012209259 0.00087295834 -0.19953033
0.10207896 0.30071536 -0.18244733 0.2249142 0.070812516 -0.11886626 -0.115918875 -0.22020921
0.24919291 -0.11474688 0.24744102 0.1096298 -0.10779838 0.11370777 -0.16537724 -0.25065455
-0.09742472 -0.13086793 -0.060108513 -0.07429706 0.11744593 0.06736659 0.0053061335 -0.23911813
0.05706659 0.03075237 -0.030250028 -0.13810538 -0.007764373 -0.23572564 0.170255 0.3080062
0.10803341 -0.037411794 0.034977425 -0.15725128 0.064807914 0.013088507 0.18673003 0.13707569
0.33317694 -0.05389047 0.07438941 0.12840347 -0.122054204 0.18966773 0.25212246 0.19244948
-0.13187672 0.17951947 -0.116566904 -0.25500384 0.089029856 -0.013774993 -0.12896425 0.058386404

fc2.weight f4 [128, 128]
00000000: 56a3 ecbd 5fe9 ff3c 2b27 94be 6b34 9dbd
00000010: 8a9f e839 e719 a1bd eba7 53bd 521a 2ebe
00000020: 159a babd 1ce2 24bb 6920 d4bd 3826 94bc
00000030: afc5 16be 4b0b 983c 1ae5 9c3d 608b 523b
00000040: af22 95bd a327 a6bc 4d91 353d b7ae 00bd
00000050: 7fa6 8abd f90d 36bd 8b22 0cbd 21cd 70bd
00000060: 5b7d 85bd 0046 82bd e987 fc3c 56f7 013d
00000070: d370 4ebe 5879 59be 914d f5bd 6019 50bc
00000080: 0998 bbbd 11d2 87bd 7c2c 04be 0bc8 c1bc
00000090: 3a80 43bc c450 d3bc 03c2 773b 1a93 833d
000000a0: 1f31 88bd 9f21 2f3c 9734 073d 8b52 a3bd
000000b0: 7dc1 00be 51cf 2a3d 1e72 27be bb3f 58bd
000000c0: dd4a 0abe 32cf ef3c ad1e c3bc 4454 72bd
000000d0: 2c2d 233d 1a21 eebd 727a 1b3d a3c5 9f3d
000000e0: 98af edbd f860 56bd 3678 87bd d901 903d
000000f0: dfed 8ebc dec6 d93c ad20 1abe 5368 e4bd
00000100: b8fa 2fbd ba5a 04be 9687 cebc ff25 8fbd
00000110: a5ef a6bd 1137 513d c4c5 81bd e308 3fbd
00000120: 96f0 85bc 4962 113d 07a5 b6bd dd93 bfbd
00000130: 19db 9dbd a5d4 83bd 51b7 bfbd d551 c1bd
00000140: faef aabd b4bf 28be ac92 05bd ee35 a1bd
00000150: a438 f4bd 468c 503e 0895 0cbe 5031 18bc
00000160: bb2f 5fbe b1be 103e b48c a2bd 547d f03b
00000170: 22c3 90bb d3e5 86bd f797 933d 3285 893d
00000180: 0d2a 923d 10f8 70bc 168e e8bd b1f0 9bbd
00000190: 5f17 863c 863f 993d 6b42 443d 6db0 2fbd
000001a0: 2562 e63d 6265 d7bc 4994 0cbd 21f8 09be
000001b0: 2550 72bd 6923 c8bc 2216 74be 1c49 c3bd
000001c0: a502 b53d cd39 eebd 4d1a c0bd 780f d03d
000001d0: bd6b 1cbe b2f0 4bbe 84f4 263d b8aa 42be
000001e0: ac11 803c 4bcf 5dbd 3558 893d 90a3 26be
000001f0: cfb4 f9bc f071 0ebe a61f 72be cac9 0f3d
00000200: 38e3 cfbd e978 b83d bc8f 07be 478e 733c
00000210: a65f b3be 440c 48bd e2ca 9d3e b3d4 043e
00000220: f10a 07bd e216 efbd 1b4e 64bd cec9 9f3d
00000230: 0586 f5bc 90a8 f5bd 9c45 23bf b045 97bb
00000240: 53d8 ecbd 6a18 d23c 58b4 df3d f425 1ebe
00000250: 20f8 aabc a5f3 b1bd b008 d9bd 6ef4 ee3d
00000260: d8fc 8f3e 6c7a 3cbe f047 7dbd e40b 153e
00000270: ce07 a3bd 209d 1cbe 4573 95be e434 4fbd
00000280: b7ba 22bd 026c 7abd ca4d 703d 8dcb 7fbe
00000290: 2d39 59bd 6a8a 523e b5c0 bb3b 2459 21be
000002a0: 2c68 b1bd eac2 fd3d 48cf 7f3c d1da b8bd
000002b0: e1b0 013e 06e8 76bb 1d95 46bd d532 103b
000002c0: cef3 82bd a08a fcbd f447 eebd e459 f4bd
000002d0: 86c4 c33d f260 a53b ceca 29be 9758 6ebe
000002e0: c09f e8bd b579 39bd c4e2 c13c 6b5d 0cbb
000002f0: e4a7 90be 695c 12be d751 793e 7876 8d3c
00000300: e90e 0bbc 0fdc c33c 7dd9 e53d 5744 8bbe
00000310: aa80 eb3c ef13 3dbe fcab 863d 9b9c 883d
00000320: fca6 be3d 899b c63d 068a 44be 4dd1 ddbd
00000330: 68ea 84be 264f eb3d 1d4c 603c dd26 09bd
00000340: f64a 1cbe 9199 4ebd a41e b53d dc32 b1bc
00000350: 225e 2cbe 7b40 51be 72bc 55be 6e68 8dbd
00000360: a145 21be 00dc c3bd 61da 4bbc ddf9 6cbe
00000370: b7a3 15bd 11c1 9c3d dcc3 a5bd 1ed7 8bbe
00000380: 6e2c 123e 88a9 cb3d 7814 24be cdda 7fbe
00000390: 048c 94bd 902f 45be 0a89 febd 2d55 2bbe
000003a0: d9a8 75be 66b3 b1bd 2a7c 69be ddbd 843d
000003b0: bda1 b2bd 39ee ba3e 9bd1 d7bd 249c 313e
000003c0: 6af0 9fbe 654d c63e df85 08be cccd 8c3d
000003d0: 2f80 833d 45dc 32bd 1cb4 4ebe 5eb1 acbd
000003e0: fec7 eebd 35f6 ccbb 9913 513e 3623 24bd
000003f0: d8b1 ad3c 56cc f0bd 65c1 fdbd 39ac acbc
-0.11554591 0.03123921 -0.28936133 -0.076760136 0.00044369354 -0.078662686 -0.05167381 -0.17002228
-0.0911142 -0.0025159186 -0.10357744 -0.01808463 -0.14723848 0.018560072 0.07660885 0.003212653
-0.07282006 -0.020282572 0.044328023 -0.03141662 -0.06770038 -0.04444692 -0.03421263 -0.058789376
-0.0651805 -0.06361008 0.030826526 0.03173002 -0.20160227 -0.21237695 -0.11977685 -0.012701362
-0.09159858 -0.06631864 -0.12907594 -0.023654958 -0.011932427 -0.025795348 0.003780485 0.06424542
-0.06649994 0.010689168 0.033009138 -0.07974728 -0.1257381 0.04170162 -0.16352126 -0.052795153
-0.1350512 0.029273603 -0.023818338 -0.059162393 0.039838 -0.11627407 0.03795857 0.07801368
-0.116057575 -0.05233857 -0.06614725 0.070316024 -0.01744741 0.026584085 -0.15051527 -0.11152711
-0.042963713 -0.12925234 -0.025211137 -0.06989669 -0.08151177 0.051077906 -0.06336549 -0.046639334
-0.016350072 0.035494123 -0.08918195 -0.093543746 -0.07707805 -0.06437043 -0.09361137 -0.09439436
-0.08346553 -0.16479379 -0.03261058 -0.078716144 -0.11924866 0.2036601 -0.13728726 -0.009289101
-0.21795551 0.14135243 -0.07936993 0.007339159 -0.004417793 -0.06586804 0.07206719 0.06714858
0.07136927 -0.01470758 -0.11355226 -0.076142676 0.016368566 0.07482819 0.047914904 -0.042892862
0.11249188 -0.02629346 -0.034321103 -0.1347356 -0.059158463 -0.024430947 -0.23836568 -0.09535429
0.08838395 -0.116321184 -0.093800165 0.101592004 -0.15275474 -0.19916037 0.040760532 -0.19010437
0.015633427 -0.054152768 0.06706277 -0.16273332 -0.030481724 -0.13910651 -0.23644885 0.03510455
-0.101507604 0.09007437 -0.13238424 0.0148654645 -0.3503391 -0.048839822 0.3081885 0.12971763
-0.03296942 -0.116742864 -0.05573855 0.07802163 -0.029971132 -0.11995041 -0.6377809 -0.0046164617
-0.11564698 0.025646407 0.1092307 -0.15444165 -0.020870268 -0.0868905 -0.1059736 0.11667715
0.28122592 -0.18406075 -0.061836183 0.14555317 -0.07960473 -0.15294313 -0.29189506 -0.05058755
-0.039728846 -0.06113816 0.058667935 -0.24979992 -0.053033043 0.20560613 0.0057297596 -0.1575666
-0.08662447 0.123906925 0.015613385 -0.09026111 0.1266513 -0.0037674918 -0.04848205 0.0022002955
-0.06394158 -0.12331128 -0.11634818 -0.11931208 0.09558968 0.005046957 -0.1658127 -0.23275982
-0.11358595 -0.045282084 0.0236677 -0.0021417986 -0.2825309 -0.14293064 0.24347626 0.017268404
-0.008487442 0.023908643 0.11223123 -0.27200577 0.028747875 -0.18464635 0.06575772 0.06670495
0.093091935 0.09697635 -0.19193277 -0.108309366 -0.25960088 0.11489706 0.013690022 -0.03348433
-0.1526297 -0.05043942 0.08843735 -0.021630697 -0.16832784 -0.20434754 -0.20872667 -0.06904684
-0.15749218 -0.09563446 -0.012442202 -0.2314219 -0.036533084 0.07654012 -0.08093998 -0.2731256
0.14274761 0.09944445 -0.16023433 -0.2498581 -0.07253268 -0.19256425 -0.12428482 -0.1673171
-0.23990192 -0.08676796 -0.22801271 0.06481526 -0.087222554 0.36509874 -0.10538026 0.17344719
-0.3123811 0.38730922 -0.13332318 0.0687519 0.064209335 -0.043667097 -0.20185894 -0.084322676
-0.11659239 -0.006254936 0.20417632 -0.040072642 0.021202967 -0.11757724 -0.12390403 -0.021078216

fc2.bias f4 [128]
00000000: 15d6 c9bd b699 963c 005b 3abd 0b41 283c
00000010: d6f6 84bd e428 1a3d f49a e4bd fc76 edbc
00000020: ca1f 543d 2cdf 82bd 4ea9 b8bc f582 78bd
00000030: b006 35bd 3bc5 3c3d c9f3 483b d22f 3fbc
00000040: fa74 d8bd 889c 8fbd 80bc f83c 3989 81bd
00000050: 963c 71bd e074 78bd 3e12 59bd 4aa9 57bd
00000060: f8a7 03bd b303 acbd 8893 97bd b438 b3bd
00000070: cb0c 133d d5a6 fdbd b9f6 493d 6688 903d
00000080: fd9c 66bd 1729 c1bd 56de 9bbd e712 853d
00000090: 83fc 373d 2026 84bd fd1a cebd a3cf bfbd
000000a0: 6dcd 96bc d4de cbbd 5859 2c3e 8c4b 5f3d
000000b0: 2d9d 38be 6889 d23d da00 bbbc e632 303d
000000c0: 1eac 19be e44b 313c 9b39 413d 2e6f aabc
000000d0: 5ce7 b0bd f286 773d 10aa e0bd 09ad f23c
000000e0: 98a2 ad3b c3f7 eebc d94e 09bd 8fd2 4e3d
000000f0: f258 fe3c 9fb3 b0bd 0127 e7bd 6aa6 3839
00000100: 3a0b 97bd 454b 4e3d 15dd 86bd 3268 de3c
00000110: c541 0bbe 851a 96bc ae31 43bd 5006 d93c
00000120: 2a6a e9bc 3aad cb3c 983b b4bc 91cd d7bb
00000130: 5732 83bd fe45 6f3d caee 9038 6f1b a73d
00000140: 1423 87bb 2c08 c03d d129 803d c3c4 18b9
00000150: 1275 8cbd 3a30 973d 0cbc 6ebd 0a13 17be
00000160: 4200 21bd fe55 58bc 0c5b 55bd 4246 1bbe
00000170: eaab 413a e62d 0cbe ee3b 3b3c 481f 053d
00000180: f15e 06bd 2025 d23c c384 343d f4b7 593d
00000190: a125 11be 8e6c 10be 66d4 8f3c 06ba af3d
000001a0: 6093 42bd 77cf a4bd 7fc2 02bd 2cb8 17bc
000001b0: d932 753d 7052 98bd 4682 55bd 9f57 c63c
000001c0: c7b8 d9bb 5adf afbd 92f0 c93d 2490 babd
000001d0: ff4f 20bd 2299 97bc 0fc0 c43d e7f2 013d
000001e0: 8426 09bc 95c1 a6bd 616d 77bc d3f0 ac3d
000001f0: 090f 7abd 3ad2 b53c 0c2a ffbc 2ba2 8bbd
-0.09855286 0.018383842 -0.04549694 0.010269414 -0.06492393 0.037636653 -0.111623675 -0.0289874
0.05178813 -0.06390223 -0.022541668 -0.060671765 -0.04419583 0.04608653 0.0030662885 -0.011669116
-0.105691865 -0.07012278 0.030363321 -0.06325001 -0.05889567 -0.060658336 -0.052995913 -0.05265168
-0.03214261 -0.08399143 -0.07401186 -0.0875105 0.035900872 -0.12385336 0.04930756 0.07057266
-0.05630206 -0.094316654 -0.076107666 0.06497746 0.04491855 -0.06452584 -0.10063741 -0.093657754
-0.018408502 -0.099546105 0.16830957 0.054515406 -0.18028708 0.102801144 -0.022827554 0.04301729
-0.15007064 0.010821316 0.047174077 -0.020804968 -0.08637878 0.06043143 -0.10969937 0.029623525
0.0052989237 -0.029170876 -0.03352246 0.050493773 0.031048272 -0.0862801 -0.11286736 0.00017609601
-0.07375188 0.05036475 -0.06585137 0.027149294 -0.13599308 -0.018323192 -0.0476548 0.026492268
-0.028493006 0.024862874 -0.022001073 -0.0065857847 -0.06406086 0.05841636 6.910933e-05 0.081595294
-0.0041240547 0.09376559 0.06257976 -0.00014569149 -0.06858267 0.07382245 -0.058284804 -0.14753357
-0.039306886 -0.013204096 -0.052088782 -0.1516352 0.0007387983 -0.13689384 0.011427863 0.032500535
-0.032805387 0.025652468 0.044071924 0.053153947 -0.1417451 -0.1410391 0.017557334 0.08580403
-0.04750383 -0.08047383 -0.031923767 -0.009260219 0.059862945 -0.07437599 -0.05212619 0.024211703
-0.0066443416 -0.08587523 0.09860338 -0.09109524 -0.03913879 -0.018505637 0.09606945 0.03172579
-0.008370999 -0.081423916 -0.015101762 0.08444371 -0.061049495 0.02219497 -0.03114798 -0.068180405

mu.weight f4 [5, 128]
00000000: 9d0a 99bc c0b4 9abe 78e2 2dbd 5cdc 1a3d
00000010: 2178 ecbc 8597 b9be 6728 243e 6a87 5cbd
00000020: 069e 28be 311a 87bd 68e5 03be 39f8 243d
00000030: 29d3 263a c8fc bdbd 96e5 73bb b902 843e
00000040: 4434 72bd 42d8 833e d10d 6f3c 6d2e 683b
00000050: 3221 fdbd 78fb babc 1ed4 16be e352 163e
00000060: ac34 cd3d aa02 8fbe 24ee 253e c70c 053d
00000070: 2d29 6b3e 1448 25be 0ea2 8fbd a28d 6f3b
00000080: 312e 08bd 096e dfbc 6710 373e 8c6d 06bd
00000090: 7f48 1dba 06ee 01bd 4d3c 2fbd 6c3e bfbd
000000a0: 8a77 913e fa06 f63d 0de3 51bb b0f5 fabc
000000b0: 659c 963d bf02 98bd c95b 58be 78a1 fabd
000000c0: 44a9 99be 0eaa bbbd ccb2 48be 2af3 8f3c
000000d0: 2132 2d3e e3b8 36be f1b6 65be e142 2b3e
000000e0: ea0a 133e 8932 9c3c 2599 08be 2057 3bbd
000000f0: ff91 6b3e aa22 5bbe 47cf bebe 9906 68be
00000100: 01ab 04be 5a0b 3dbe 0a1a 563c e199 0d3e
00000110: 653d 9a3c 6422 97be 72a9 583e 0ea5 803d
00000120: 7f79 a43e cc4d 5f3d 901c aabd 6c7a 7b3a
00000130: a3f3 2e3b 3591 d03c 700f 3fbd 75cc a3bd
00000140: a624 ae3d 516b 0b3d bbf0 2cbe dbfe 05bd
00000150: 8b31 543d 2ddc 903e 93d9 57bc 6891 223e
00000160: fd7e a83b 36cc 303e 8186 ed3c e57d 083e
00000170: 14cb 79bc 52d6 60be 1abf 073d 6250 ac3d
00000180: 3a92 f13d 2506 b73b 45a1 893e 264f 523d
00000190: 8489 37bd 1d17 b23e f35f 3a3e 0888 81bd
000001a0: 2611 27be 37df c63d 5cee b7bd f119 29be
000001b0: da13 2b3d c738 dabc 541d 8fbd 784c 473e
000001c0: ab82 293e 96c5 8bbc 016e 663e e757 413d
000001d0: daf2 953d 3fbf 7bbb bb27 283e 386d 7e3d
000001e0: a2b4 37bd 8253 26bc 2810 9d3d f8f1 c03d
000001f0: e118 413d ea1e c73d ef5d b3bd 73b8 b6bc
00000200: 6586 643d bcf0 e9bc e6cf 893d a542 0dbc
00000210: 7540 27bd 1675 663d b95e ebbd e694 2c3e
00000220: 8a0d b6bd 3460 a03e 9e37 843e 1719 83be
00000230: 8ea6 1abd 93af 463e e559 f63d 8b59 aebe
00000240: aa16 f13d 2901 293c 2098 2cbd 9e8b 193c
00000250: fc36 bcbb 2769 55bd 69ce 473c f220 033e
00000260: 795b 77be 2836 8c3e cd16 893d 084f 823d
00000270: b648 813e 7e69 503e 7781 27be e46d 35be
00000280: 5bbe 17be 57b5 71bd 8916 9fbe bbd8 083e
00000290: 53da 11bb f3c5 68bd c5c4 40bc e903 84bd
000002a0: c400 1fbe ad4a ff3d 4087 ef3d 6fbb e2bd
000002b0: c4bf 18be cffc e23d 8833 693e a8e5 bcbd
000002c0: 9550 9f3d bd12 85bd 60ac 423c 4223 043e
000002d0: 9127 cebd 36e5 afbd a3d1 9b3d 3297 a13c
000002e0: 5f97 613e c4d7 3cbe fe61 ab3e 1b37 803e
000002f0: 3c8d a43e 8546 4d3e aa76 59be d7b0 8f3d
00000300: a4a3 60be 32f5 b1bd b5c5 043c 2829 523e
00000310: a90a 76be a104 873e 59d4 bcbe fd89 13be
00000320: 9662 c43d 938a 903c ea85 a63d 8a74 8a3d
00000330: 2651 613e 2ae2 1a3c b279 eb3c f01a 363e
00000340: 22a7 533d 2bf7 d83d f057 c7bc 0464 d5bd
00000350: 84b7 033d 9d69 cebd c922 d33d a36d 5abe
00000360: c079 0abe 896f 223c af2d f53c 9830 d0bd
00000370: e1d1 df3b 4c6f 95be 4915 653c abc7 793e
00000380: 11de a3bb ebe6 3d3c 3500 a93d 3579 8f3c
00000390: ed99 f7bd 62cb 343e 2e41 07be 9331 88bc
000003a0: 310a 743d 6071 d33c 87ab ce3d e0b8 1d3e
000003b0: 10a9 0f3e 32c6 a23e 2711 933c c6b6 97bd
000003c0: 045a 6fbd 99d4 2ebd ef37 203d 8a99 3ebd
000003d0: 59c0 d13b 08fb 85bd 059b c2bd 25fe 2b3e
000003e0: e602 023d 7cae d03c f6fe 40be 56e0 1a3d
000003f0: 83c8 d5bc 7013 f4bc e67b a0be b4f5 80be
-0.018681819 -0.30216026 -0.042452306 0.037807807 -0.028865876 -0.36248413 0.16031037 -0.05384008
-0.16466531 -0.065967925 -0.1288048 0.040275786 0.0006363863 -0.0927673 -0.0037215701 0.25783327
-0.059131876 0.2575093 0.014590696 0.0035428063 -0.12359847 -0.022824988 -0.14729354 0.14680056
0.10019812 -0.2793172 0.16204125 0.03248289 0.22964926 -0.16140777 -0.07013331 0.0036552926
-0.033247177 -0.027274149 0.17877351 -0.032819316 -0.00059998775 -0.031721137 -0.042782117 -0.09338078
0.28411514 0.120130494 -0.0032026202 -0.030634731 0.07354049 -0.07422399 -0.21128763 -0.12237829
-0.30011952 -0.09163295 -0.19599456 0.017572004 0.16913654 -0.17843966 -0.22433068 0.16724731
0.14359632 0.019067066 -0.1333967 -0.045737386 0.23004912 -0.21399942 -0.37267515 -0.22658767
-0.12955858 -0.18461362 0.013067732 0.13828231 0.018828103 -0.29518425 0.21158388 0.06281482
0.32123944 0.054517552 -0.08306229 0.00095931324 0.0026695512 0.025459865 -0.04664558 -0.079979815
0.08503084 0.03403789 -0.16888706 -0.032713752 0.05180506 0.2829298 -0.013174432 0.1587578
0.0051420913 0.172654 0.0289948 0.13329275 -0.0152461715 -0.21956757 0.033141233 0.08413769
0.11795469 0.0055854493 0.2688085 0.051345013 -0.04480888 0.3478326 0.18200664 -0.06324774
-0.16315135 0.097105436 -0.0898101 -0.16513802 0.04176698 -0.026638402 -0.06988016 0.19462764
0.16553752 -0.01706199 0.225029 0.04720297 0.07321711 -0.0038413552 0.16421406 0.062115878
-0.04485 -0.010151746 0.07669097 0.09421152 0.047142867 0.09722693 -0.08758151 -0.02230475
0.05579223 -0.028557174 0.067291066 -0.008621846 -0.040832955 0.056264006 -0.11492676 0.16853675
-0.08889301 0.31323397 0.25823683 -0.2560508 -0.037756495 0.19402914 0.12028865 -0.3405269
0.11771901 0.010315218 -0.042137265 0.009371666 -0.0057438593 -0.052102234 0.012195208 0.12805536
-0.24155988 0.27385068 0.06693802 0.0636273 0.25250787 0.20352742 -0.1635798 -0.17717701
-0.14818709 -0.05901083 -0.3107188 0.13363926 -0.0022255376 -0.056829404 -0.0117656635 -0.06446058
-0.15527636 0.12465415 0.11695719 -0.11070906 -0.14916903 0.11083376 0.22773564 -0.09223491
0.07779042 -0.06497715 0.011881918 0.12904075 -0.100661404 -0.085886404 0.076083444 0.019725416
0.220304 -0.18441683 0.334732 0.25042042 0.32139003 0.20046432 -0.21236673 0.070161514
-0.21937424 -0.086893454 0.008103778 0.20523512 -0.24027504 0.2637072 -0.36880758 -0.14408107
0.09589116 0.017644202 0.08131011 0.06760509 0.22003612 0.009453336 0.028744552 0.17783713
0.051673062 0.105940185 -0.024333924 -0.10419467 0.032157436 -0.10078738 0.10309369 -0.21330886
-0.13523006 0.009914287 0.02992901 -0.101655185 0.0068304394 -0.29186475 0.013982126 0.24392574
-0.0050008376 0.0115907 0.082519926 0.01751385 -0.12089906 0.1765571 -0.13208458 -0.016625201
0.05958003 0.025810897 0.1009131 0.15402555 0.14029336 0.31791836 0.017952515 -0.07407908
-0.058435455 -0.042683218 0.039115842 -0.046533145 0.0064011035 -0.06542021 -0.09502224 0.16796167
0.031741045 0.025473826 -0.1884726 0.0378116 -0.026096588 -0.029794425 -0.31344527 -0.25187457

mu.bias f4 [5]
00000000: 52e6 afbd cd8d ef3d c5b6 afba cebd a73d
00000010: b951 84bd
-0.08588852 0.11696968 -0.001340591 0.08190499 -0.064609

log_std.weight f4 [5, 128]
00000000: e798 1ebd 574b 8a3d 9207 3a3b f9ce 41be
00000010: 59f3 16bd 5be6 20bd 1f97 82bc 6850 a1bd
00000020: 93d7 ed3b 47f3 743c dcc7 17be da66 143e
00000030: 4681 9fbd b00b f03c 40e5 4f3e ce29 31bd
00000040: 2ccb 533e a4c5 c3bd c6ca 8ebe 4ac9 aabe
00000050: 63a4 433d 0cd8 833d 8063 1f3e 52c1 1dbe
00000060: 265c 0e3e 0907 b0bd 8e88 41bd 9b91 433d
00000070: f434 d83d e0b5 06bd 736b 1fbe 99d3 56be
00000080: 1622 8f3a 3e84 1a3a 4c90 c13d 4283 cf3b
00000090: 3ca6 6abe 93cc d53c bbb2 223e a64c 193d
000000a0: 8dee 2b3d 0b02 173d 3865 ee3d 17e7 8bbe
000000b0: e0b1 b5bd 2da3 96bd 8028 1bbe 7d4a 0abe
000000c0: c368 89bd 645b 1abe 7d5a 43be f6a9 e73d
000000d0: 7919 33be d7d1 a2bd 7cac acbd 681a f9bd
000000e0: 1eb1 da3c 434c 8cbd 70db 6dbd 4322 10bd
000000f0: 75a3 833d 396c 303d 2bbb a33b 3de7 f33d
00000100: ab72 0fbd 19a3 85be bc06 14bd 0052 c43d
00000110: 0e30 6fbd 27a7 e53d f229 d53d 39a2 12be
00000120: a398 aa3d 4a1b 023e cc28 f8bd 26df 05bb
00000130: b9dc 053e e05b d5bd 7980 65bd 605c b23c
00000140: 8e64 a8be eecc 9cbe b0b0 e6bd 57b4 e8bd
00000150: efb9 823c a748 a3bd 8876 2ebe 4334 97bd
00000160: 270f 2cbe 4da7 923c d71c 63b7 fbfd f73c
00000170: 1a2b 2c3d 845f a73d c400 9bbe 1615 56be
00000180: f894 0a3e a7f6 373d 7760 a63d b06c b33d
00000190: 17a8 e43c f92e 243e 9ca2 08be 3a90 9c3c
000001a0: 6ac0 41be e608 cebd 8702 433d 9a4c a1bd
000001b0: 6de2 46bd cfce 3b3d 71c0 2e3c 06c8 bd3c
000001c0: fa1d f0bd 0b7d 8a3d 316b 0bbd 7747 eebd
000001d0: 67ce c6bd 45ef fdbb 42e7 2cbe c611 2d3e
000001e0: 8306 333d 90bc 70bd 72ff 9fbc fb4c a7be
000001f0: 3b6a c1bd 5b4c a6bc 0497 27bd 2cf0 07be
00000200: 3384 0abe 9196 60bd 0948 583d f9a5 f2bd
00000210: 19dd 53bd f9f1 e3bd 57f9 233e 1734 d63d
00000220: 83d2 053b 14f9 733e 6128 5ebd 3ab8 b13d
00000230: 96f1 1fbc 7a81 12bd 4ca3 dbbb e409 c8bd
00000240: 52df 1f3e 0a88 18bd bd26 acbe 2af6 aabe
00000250: e156 0fbd 48c1 e53c f530 46be 20bf 743e
00000260: 1e10 c43d bfbf cd3c 8c9b a43e 507c 283d
00000270: 7fd5 133e 0031 30be b092 00be c367 66bd
00000280: 3c0c 6fbe 490a e5bd e852 b9ba dccc a7bc
00000290: 32cc 2abe 1479 a4bc 3bab 41be cf4f 6abd
000002a0: f352 a03d 3a82 56bd 09a0 e6bd a6e2 9cbe
000002b0: 67c1 23be 0910 98be 3616 23bd eec1 bbbd
000002c0: 5ccd 753e c0d1 b33c 2096 b7bd e52c 523c
000002d0: 97e2 cc3d 6f00 0a3e 5cf3 6f3e 52cd db3b
000002e0: 621d 9cbc d66e cbbd 3e5f f63d 290d dd3d
000002f0: b632 f53d 1880 133e 32b0 8abb 490d aabe
00000300: 7e8d 34be 9c4f efbd 53a2 05bd 1959 9a3d
00000310: b130 1b3c e19d 55be 121e e8bc e632 d13b
00000320: cc7a 4cbe 89cc a4bd c2c1 19be de6c 933e
00000330: 4eac c03d 1764 a73c 6965 b73d ea2e 233e
00000340: 8931 9ebd 5426 d6bd 1439 e9bd 34ce 4cbe
00000350: 5bda 07bd 42b8 423c 07bb d33d 96ff ca3c
00000360: 0e55 ccbe 2f53 77bd 3a7b 8ebd 630e e03d
00000370: 9892 e0bc c4de 0b3d e690 95be ea1a 2d3e
00000380: f73c aebe b7a0 74bd 0a4a 5dbe f76d 8ebc
00000390: 0192 fc3d 8222 b03d 64d0 06bd 0f5f 6abe
000003a0: db84 6bbd 2855 51be e038 e63c f802 1a3b
000003b0: 3fe5 26be 7cd0 9c3d 9b06 943d 0eb9 323d
000003c0: d56c d3bd 25b6 c53c 2264 76be 4720 b53d
000003d0: 2bdd febd 1c64 9f3d 632b bcbe 506b e0bd
000003e0: 0f01 5d3c dcb1 4d3d 906c 363d 8175 0fbe
000003f0: b49e 38be 63a1 01be 2c96 63be 8852 13bd
-0.038720038 0.06752651 0.002838586 -0.1892661 -0.03685317 -0.039282184 -0.0159412 -0.078766644
0.0072583645 0.01495058 -0.14822334 0.1449236 -0.07788329 0.029302448 0.20302296 -0.04325276
0.20682973 -0.09559181 -0.2788908 -0.33356696 0.047764193 0.06437692 0.155653 -0.15405777
0.1390234 -0.08595092 -0.04724937 0.047746282 0.10556975 -0.032888293 -0.15568332 -0.20979156
0.0010920193 0.00058943394 0.094513506 0.006332786 -0.22914976 0.026098525 0.15888493 0.037426613
0.041975547 0.036867183 0.116404 -0.27324745 -0.088718176 -0.07355342 -0.15152168 -0.13504978
-0.06709435 -0.15073925 -0.19077487 0.11311714 -0.17490186 -0.0795018 -0.08431336 -0.1216324
0.026695784 -0.06850483 -0.0580706 -0.035188925 0.06427661 0.04307196 0.0049966774 0.119093396
-0.035021465 -0.26100996 -0.036139235 0.09585953 -0.058395438 0.112135224 0.10408391 -0.14319696
0.083298944 0.12705722 -0.121171564 -0.0020427196 0.1307248 -0.104179144 -0.056030724 0.021772563
-0.32889217 -0.306251 -0.11264169 -0.11362522 0.0159578 -0.07972842 -0.17037404 -0.07383015
-0.16802655 0.01790204 -1.3536969e-05 0.030272475 0.042033292 0.08172515 -0.30274022 -0.20906481
0.1353339 0.04491296 0.08123868 0.08760965 0.027912183 0.16033544 -0.1334328 0.019111741
-0.18921056 -0.10060291 0.047609832 -0.07875939 -0.04855578 0.045851525 0.010665999 0.023166668
-0.117244676 0.06762131 -0.034037773 -0.116347246 -0.09707337 -0.0077494704 -0.16885093 0.16901311
0.043707382 -0.058773577 -0.019530986 -0.3267592 -0.0944409 -0.020300081 -0.040915504 -0.13275212
-0.13526992 -0.05483109 0.052803073 -0.11848063 -0.051724527 -0.11130137 0.16013084 0.10459154
0.0020419664 0.23825485 -0.054237727 0.086777166 -0.009762188 -0.03576801 -0.006702816 -0.097675115
0.15612534 -0.037239112 -0.33623305 -0.33390933 -0.034994964 0.028046265 -0.19354613 0.23901033
0.095733866 0.025115846 0.32149923 0.04113418 0.14436911 -0.17206192 -0.12555957 -0.0562513
-0.23344511 -0.11183602 -0.0014139088 -0.020483427 -0.16679457 -0.020077266 -0.18912975 -0.057205018
0.07828321 -0.052370287 -0.11260993 -0.3064167 -0.15991746 -0.29699734 -0.039816104 -0.091678485
0.2400412 0.021950603 -0.08964181 0.0128280865 0.10004156 0.13476728 0.23432678 0.0067078257
-0.01905698 -0.0993325 0.12029885 0.10793526 0.11972563 0.14404333 -0.00423243 -0.3321326
-0.176321 -0.11685106 -0.032625508 0.07536525 0.009472058 -0.20861007 -0.028334651 0.0063842414
-0.19968718 -0.080468245 -0.15015319 0.28793997 0.094078645 0.020433469 0.08954889 0.15935865
-0.07724292 -0.10456529 -0.1138784 -0.20000535 -0.033167224 0.011884751 0.10338407 0.024780076
-0.39908642 -0.060382064 -0.06957097 0.10940244 -0.027413651 0.034147993 -0.2921211 0.16904798
-0.34030887 -0.059723582 -0.21610275 -0.01738642 0.123325355 0.08600332 -0.03291358 -0.22887824
-0.057499748 -0.20442641 0.028103292 0.0023500305 -0.16298388 0.07656953 0.072278224 0.043633513
-0.103234924 0.024134705 -0.24061635 0.08844047 -0.12444528 0.07782766 -0.3675185 -0.10957968
0.013489022 0.050218448 0.044537127 -0.14009668 -0.1802929 -0.1265922 -0.22225255 -0.03596738

log_std.bias f4 [5]
00000000: 097b 55be b7ac e1bd 810d b5be 9fab 2ebe
00000010: a330 a9be
-0.20847715 -0.11019271 -0.35361865 -0.17057656 -0.3304492
