resource/multi_run_experiment_20250319_111011/run_4/sac_actor_30000.pth (torch, 80607 bytes, 8 tensors)

fc1.weight f4 [128, 12]
0	0x3e15759f	0.1459565
1	0xbd1a2120	-0.037629247
2	0xbdb8137a	-0.0898809
3	0x3e02c046	0.12768659
4	0xbeed996e	-0.4640612
5	0xbe82649f	-0.25467393
6	0x3d80fcdb	0.06298228
7	0xbe56af36	-0.20965275
8	0xbe8a92ac	-0.27065027
9	0xbe4c58fc	-0.1995582
10	0xbea8bcc4	-0.32956517
11	0xbdbbdaa3	-0.09172561
12	0xbbb37302	-0.0054763565
13	0x3e506aa5	0.20353182
14	0x3d054e88	0.032545596
15	0xbca1bd55	-0.0197436
16	0xbe5ce0f6	-0.21570191
17	0xbd342e5a	-0.043989517
18	0xbe5154ee	-0.20442554
19	0xbecadf77	-0.39623615
20	0xbe93a96e	-0.28840202
21	0xbe942b91	-0.2893949
22	0xba95ec62	-0.0011438245
23	0xbc9c402d	-0.01907357
24	0x3c856af5	0.016286353
25	0x3da4d642	0.08048679
26	0x3e604988	0.2190305
27	0x3e4e4ef5	0.20147307
28	0x3e3d2e2f	0.18474649
29	0xbeb87f71	-0.3603473
30	0x3e8d2f69	0.27575234
31	0xbdc465ea	-0.09589751
32	0xbe844540	-0.25834084
33	0xbd9f85b1	-0.077891715
34	0xbe94b5df	-0.29045007
35	0x3dadbcf0	0.084833026
36	0xbd9ba7e1	-0.0760038
37	0xbeceb7b0	-0.40374517
38	0xbc21b3a1	-0.009869487
39	0x3e50c13e	0.20386216
40	0xbd5867b0	-0.05283326
41	0x3c60308f	0.013683452
42	0xbe98ca4a	-0.29841834
43	0x3cde1b8e	0.027112748
44	0x3e0de03b	0.13855068
45	0xbda4d8b4	-0.08049145
46	0x3ead0a71	0.3379703
47	0x3e2a6294	0.16639167
48	0xbe5d3f6c	-0.21606225
49	0xbf0798b3	-0.52967376
50	0x3eb1c19c	0.34718025
51	0x3df0db68	0.117605984
52	0xbb630ab2	-0.0034643826
53	0x3e0f8bec	0.1401822
54	0xbe11759f	-0.14205025
55	0xbe2e92f8	-0.17048252
56	0xbdffeae9	-0.124959774
57	0xbcccb08f	-0.024986533
58	0xbe92b7ec	-0.28655946
59	0xbe5becdd	-0.21477075
60	0xbe224091	-0.15844943
61	0x3e5b8a48	0.21439469
62	0x3e5449dc	0.207313
63	0xbe01040f	-0.12599204
64	0xbdc4248b	-0.095772825
65	0xbeb1127a	-0.3458441
66	0xbe4c17a5	-0.19930895
67	0x3e5e4004	0.21704108
68	0x3dfe458a	0.12415607
69	0xbe578a86	-0.21048936
70	0x3e573e6b	0.21019904
71	0xbd7b8886	-0.061409496
72	0x3e475e51	0.19469573
73	0x3ca5646c	0.020189486
74	0xbebc8a42	-0.36824232
75	0xbf397cfa	-0.72456324
76	0x3d8b1e1b	0.067928515
77	0xbcddbf2e	-0.0270687
78	0x3e5e490f	0.21707557
79	0x3dda2a8e	0.10652648
80	0x3e457ee3	0.19286685
81	0x3e1da62f	0.15395425
82	0xbe1096c4	-0.14120013
83	0xbe5be415	-0.21473725
84	0xbc464180	-0.012100577
85	0x3e828c1e	0.25497526
86	0x3ad0e536	0.0015937451
87	0x3e204a8f	0.15653442
88	0xbc0769d9	-0.008264982
89	0x3ebfbab9	0.37447146
90	0xbe716169	-0.23572315
91	0xbcc5045a	-0.024049927
92	0xbd356dab	-0.04429404
93	0x3d8270fb	0.063692056
94	0x3eb30f78	0.3497274
95	0x3b785401	0.0037891867
96	0xbc2c441b	-0.0105142845
97	0xbe674efc	-0.22588724
98	0x3dcbc4a5	0.09949616
99	0xbebfc86c	-0.37457597
100	0x3e74633a	0.23865977
101	0xbe1922a2	-0.14954618
102	0xbe4b7c51	-0.19871642
103	0xbe00e25d	-0.1258635
104	0x3e42f4e4	0.19038731
105	0x3dfaa5be	0.12238644
106	0x3e902ed1	0.28160718
107	0x3d85f703	0.06541254
108	0xbe268c99	-0.16264571
109	0x3d63c751	0.055610005
110	0xbea7db4e	-0.32784504
111	0xbd6aecf8	-0.057354897
112	0xbeaaba93	-0.3334547
113	0x3e49bec5	0.19701679
114	0xbeb3a92e	-0.3509001
115	0xbf13bcac	-0.57709765
116	0x3a381253	0.00070217735
117	0xbd6e4440	-0.058170557
118	0x3dc7e4f3	0.097604655
119	0xbd33c594	-0.043889597
120	0x3e7f6a60	0.24942923
121	0x3e2abb5d	0.16673036
122	0xbec9245b	-0.3928555
123	0x3db4ffcc	0.08837852
124	0x3e5c0d27	0.21489392
125	0x3e13ce97	0.14434277
126	0xbefa664b	-0.48906168
127	0x3e6e97fa	0.23300162
128	0xbe1fb60b	-0.15596788
129	0x3dcaa480	0.09894657
130	0x3e28107d	0.1641254
131	0x3e762f84	0.24041563
132	0x3e86455f	0.262248
133	0x3e94c31e	0.29055113
134	0xbdc0987c	-0.09404084
135	0x3df3b0ea	0.11898978
136	0xbe1bbade	-0.15208003
137	0x3e4105a4	0.18849808
138	0x3dc1470e	0.09437381
139	0x3da8983e	0.08232163
140	0xbeaea78e	-0.3411221
141	0x3ecfd105	0.40589157
142	0xbcc3f62a	-0.023921091
143	0x3d5fbc21	0.054622773
144	0x3e3b84c5	0.18312366
145	0x3db21ab3	0.08696499
146	0xbef05902	-0.46942908
147	0x3e0ca8ee	0.13736317
148	0x3e1e9743	0.1548739
149	0x3e93eb9a	0.28890687
150	0xbde321ab	-0.11090406
151	0x3eb8be87	0.3608286
152	0xbd71de99	-0.059050176
153	0xbd7640cd	-0.060120393
154	0x3e4b9a4f	0.19883083
155	0xbe9ec2d7	-0.31008026
156	0x3dbda210	0.092594266
157	0xbec28b06	-0.3799669
158	0x3ebf4df4	0.3736416
159	0x3e0e2ed6	0.13885054
160	0xbebaa9b3	-0.36457595
161	0x3d1cd847	0.038292196
162	0x3e35da7b	0.17759125
163	0x3e66063c	0.22463316
164	0xbe1ccf29	-0.153134
165	0xbdaec105	-0.08532909
166	0xbecff278	-0.40614676
167	0xbca42870	-0.020038813
168	0xbe1344e3	-0.14381747
169	0x3e25415e	0.16138217
170	0xbedac60d	-0.42729226
171	0xbdb2c2ed	-0.087285854
172	0xbe825e94	-0.25462782
173	0x3e9e5567	0.30924532
174	0xbe7ff8f7	-0.24997316
175	0xbd9b4ade	-0.07582639
176	0xbe9806b9	-0.2969263
177	0x3e78317b	0.24237625
178	0xba1d9fdf	-0.00060128974
179	0x3bf61d2a	0.007510801
180	0x3d781cc8	0.060574323
181	0xbd5607c4	-0.0522535
182	0x3e90a1fa	0.28248578
183	0xbd580384	-0.052737728
184	0xbe89bdee	-0.26902717
185	0xbe769bc8	-0.24082863
186	0xbe6540bc	-0.22387975
187	0xbe06c694	-0.13161689
188	0x3d882fd0	0.066497445
189	0xbe5213ac	-0.20515317
190	0xbe04987d	-0.12948795
191	0x3be22900	0.0069018602
192	0xbdb442c8	-0.088018
193	0x3c1fa82f	0.009744688
194	0x3d7ca639	0.06168196
195	0x3e099334	0.1343506
196	0x3d3ad855	0.045616467
197	0xbd816857	-0.06318729
198	0x3d436a74	0.047708943
199	0xbe0071b0	-0.12543368
200	0x3e3c3918	0.18381155
201	0x3e91e333	0.28493652
202	0x3e95bf1c	0.29247367
203	0x3e669220	0.2251668
204	0xbeb32d83	-0.3499566
205	0xbdd07fe2	-0.10180642
206	0xbc01e1fc	-0.007927414
207	0xbd8cceef	-0.06875407
208	0xbe163f0f	-0.14672492
209	0xbe5206e6	-0.20510444
210	0xbeba38b5	-0.3637139
211	0x3e63a4de	0.2223086
212	0xbd9e2b56	-0.077231094
213	0xbe8fe933	-0.28107604
214	0x3e06067f	0.13088416
215	0x3e738194	0.23779899
216	0x3e01dbaa	0.12681451
217	0xbea1db7f	-0.31612775
218	0xbd7824ae	-0.060581855
219	0xbecbbc2e	-0.39792007
220	0xbd93f868	-0.07225114
221	0xbe90e2f7	-0.2829816
222	0xbea0516f	-0.3131213
223	0xbe26d18a	-0.1629087
224	0x3e003039	0.12518395
225	0xbdd74d63	-0.10512807
226	0x3e1799a1	0.14804699
227	0x3bfcdf9a	0.007717085
228	0xbebbe099	-0.36694792
229	0xbeb70062	-0.3574248
230	0x3e76eee7	0.24114572
231	0xbdf52aae	-0.11971031
232	0xbb354989	-0.0027662239
233	0x3e8bb3c6	0.27285594
234	0x3c753778	0.014966838
235	0x3b107f06	0.0022048368
236	0xbe2f7c6c	-0.17137307
237	0xbe286417	-0.16444431
238	0x3ea25fd2	0.3171373
239	0x3d3a2306	0.045443557
240	0xbdc4281a	-0.09577961
241	0xbe28e178	-0.1649226
242	0x3e816eea	0.25279933
243	0xbe071cab	-0.1319453
244	0xbe8650d2	-0.26233536
245	0xbe4b9f9c	-0.19885105
246	0xbe261c38	-0.16221702
247	0xbc707120	-0.014675409
248	0xbdaae948	-0.08345276
249	0x3cc26910	0.023731738
250	0x3df658e0	0.1202867
251	0xbc9d7d10	-0.019224674
252	0xbe08f588	-0.13374913
253	0x3ec7e7a8	0.39043927
254	0x3cf01a20	0.029309332
255	0x3d87de8f	0.066342466

fc1.bias f4 [128]
0	0x3dcee9f0	0.10103214
1	0x3d95188b	0.07280072
2	0x3dad28f5	0.084550776
3	0xbda12a63	-0.07869413
4	0x3e6568a9	0.22403206
5	0x3e03bcfe	0.12865064
6	0x3d799525	0.06093325
7	0x3e27c875	0.16385062
8	0x3d84cf0c	0.064848036
9	0x3e632bcb	0.22184674
10	0xbea954f7	-0.33072636
11	0xbdaa0c4d	-0.083031274
12	0xbe79a980	-0.24381065
13	0xbe073c5d	-0.1320662
14	0xbe73e3e9	-0.2381741
15	0xbe5f1efa	-0.2178916
16	0xbe298dfd	-0.1655807
17	0xbda536ec	-0.08067116
18	0xbc07041d	-0.008240727
19	0x3e563e51	0.2092221
20	0xbe5c6fc8	-0.21527016
21	0x3c4a49c4	0.012346689
22	0x3e1a5e59	0.15075053
23	0x3d5b8593	0.053594183
24	0xbde19925	-0.11015538
25	0xbe3b52c5	-0.18293293
26	0x3d72cf6a	0.059279837
27	0xbd46597a	-0.048425175
28	0xbd7fc02b	-0.062439125
29	0x3e0991e3	0.13434558
30	0x3d5f4e5d	0.054518092
31	0x3ef49d60	0.47776318
32	0xbe8bafc5	-0.2728254
33	0xbe4c6be2	-0.19963029
34	0x3dd64956	0.104632065
35	0x3dabae8d	0.08382902
36	0xbe8935a5	-0.2679874
37	0x3e4e1c85	0.20128067
38	0x3e3d576a	0.18490377
39	0x3ebf35c5	0.3734571
40	0xbde55af3	-0.11198988
41	0x3d1dba4e	0.038507752
42	0x3d047704	0.032340065
43	0xbd4b45f7	-0.04962727
44	0x3e1c3405	0.15254219
45	0x3e5d8cb1	0.21635701
46	0xbd19a73f	-0.037513014
47	0x3e21e687	0.15810595
48	0xbd430393	-0.04761083
49	0xbcf9e025	-0.030502388
50	0x3e2472b2	0.16059378
51	0xbe0795f3	-0.13240795
52	0xbe13b308	-0.14423764
53	0x3d93f530	0.072245
54	0xbe5cca69	-0.21561588
55	0x3c81cf40	0.015845895
56	0x3d2a8e26	0.04163947
57	0x3dcfbe0c	0.101436704
58	0x3e0a7aa2	0.13523343
59	0x3e237f7d	0.15966602
60	0x3e6bbecd	0.23022003
61	0xbbeb1e18	-0.0071752183
62	0x3b2aac52	0.0026042652
63	0xbd6c91c1	-0.05775619
64	0x3e60d779	0.21957196
65	0x3e246fb5	0.16058238
66	0x3ea7a3af	0.32742068
67	0x3e8a0293	0.2695509
68	0x3e62149c	0.22078174
69	0x3d3bdb14	0.045863226
70	0x3c1fee7d	0.00976145
71	0xbe560f0d	-0.20904179
72	0x3e1c0afe	0.15238568
73	0x3e828abc	0.2549647
74	0xbe4a3ced	-0.19749804
75	0x3e8ad1fe	0.27113336
76	0x3cd3beaa	0.025847752
77	0xbe05abfe	-0.13053891
78	0xbd473e3d	-0.04864334
79	0xbe27a60b	-0.16371934
80	0x3eab9d01	0.33518222
81	0xbdd76f86	-0.10519318
82	0x3e99fa4d	0.30073777
83	0x3e07ddd6	0.13268217
84	0xbe279e88	-0.16369069
85	0x3df281d8	0.11841172
86	0xbdd68f80	-0.10476589
87	0xbe8055cb	-0.25065455
88	0xbc930ce9	-0.017950492
89	0xbde80460	-0.113289595
90	0xbc2535d0	-0.010083631
91	0xbd79595a	-0.060876228
92	0x3db5bbb5	0.08873693
93	0x3e06855c	0.1313681
94	0xbdafcbf9	-0.085838266
95	0xbe864b26	-0.2622921
96	0x3ddbb4e1	0.10727859
97	0x3d967b22	0.073477045
98	0xbcbcb871	-0.023037167
99	0xbdad828c	-0.084721655
100	0x3db4a841	0.088211544
101	0xbe902e56	-0.28160352
102	0x3e83a388	0.25710702
103	0x3eac703b	0.33679375
104	0x3e06f706	0.1318017
105	0x3d594aac	0.05304973
106	0x3dab2377	0.08356374
107	0xbe2d8fdf	-0.16949414
108	0x3e0a7759	0.1352209
109	0xbaf6e133	-0.0018835425
110	0x3e0d8474	0.13820058
111	0x3e4225a9	0.18959679
112	0x3e969859	0.29413107
113	0xbd20b9b1	-0.03923959
114	0x3e25cab1	0.16190602
115	0x3e45ff41	0.19335653
116	0xbe124989	-0.14285864
117	0x3e28c3f9	0.16481008
118	0x3ea8a93d	0.3294162
119	0x3e5b4caf	0.21415971
120	0xbe16547b	-0.14680664
121	0x3e5a80ae	0.2133815
122	0xbe0cbe99	-0.13744582
123	0xbe31c1de	-0.1735911
124	0x3e554428	0.20826781
125	0x3cc5e5cc	0.024157427
126	0xbd5163bb	-0.0511205
127	0x3dc39e89	0.095517226

fc2.weight f4 [128, 128]
0	0xbdeca356	-0.11554591
1	0x3cffe95f	0.03123921
2	0xbe94272b	-0.28936133
3	0xbd9d346b	-0.076760136
4	0x39e89f8a	0.00044369354
5	0xbda119e7	-0.078662686
6	0xbd53a7eb	-0.05167381
7	0xbe2e1a52	-0.17002228
8	0xbdba9a15	-0.0911142
9	0xbb24e21c	-0.0025159186
10	0xbdd42069	-0.10357744
11	0xbc942638	-0.01808463
12	0xbe16c5af	-0.14723848
13	0x3c980b4b	0.018560072
14	0x3d9ce51a	0.07660885
15	0x3b528b60	0.003212653
16	0xbd9522af	-0.07282006
17	0xbca627a3	-0.020282572
18	0x3d35914d	0.044328023
19	0xbd00aeb7	-0.03141662
20	0xbd8aa67f	-0.06770038
21	0xbd360df9	-0.04444692
22	0xbd0c228b	-0.03421263
23	0xbd70cd21	-0.058789376
24	0xbd857d5b	-0.0651805
25	0xbd824600	-0.06361008
26	0x3cfc87e9	0.030826526
27	0x3d01f756	0.03173002
28	0xbe4e70d3	-0.20160227
29	0xbe597958	-0.21237695
30	0xbdf54d91	-0.11977685
31	0xbc501960	-0.012701362
32	0xbdbb9809	-0.09159858
33	0xbd87d211	-0.06631864
34	0xbe042c7c	-0.12907594
35	0xbcc1c80b	-0.023654958
36	0xbc43803a	-0.011932427
37	0xbcd350c4	-0.025795348
38	0x3b77c203	0.003780485
39	0x3d83931a	0.06424542
40	0xbd88311f	-0.06649994
41	0x3c2f219f	0.010689168
42	0x3d073497	0.033009138
43	0xbda3528b	-0.07974728
44	0xbe00c17d	-0.1257381
45	0x3d2acf51	0.04170162
46	0xbe27721e	-0.16352126
47	0xbd583fbb	-0.052795153
48	0xbe0a4add	-0.1350512
49	0x3cefcf32	0.029273603
50	0xbcc31ead	-0.023818338
51	0xbd725444	-0.059162393
52	0x3d232d2c	0.039838
53	0xbdee211a	-0.11627407
54	0x3d1b7a72	0.03795857
55	0x3d9fc5a3	0.07801368
56	0xbdedaf98	-0.116057575
57	0xbd5660f8	-0.05233857
58	0xbd877836	-0.06614725
59	0x3d9001d9	0.070316024
60	0xbc8eeddf	-0.01744741
61	0x3cd9c6de	0.026584085
62	0xbe1a20ad	-0.15051527
63	0xbde46853	-0.11152711
64	0xbd2ffab8	-0.042963713
65	0xbe045aba	-0.12925234
66	0xbcce8796	-0.025211137
67	0xbd8f25ff	-0.06989669
68	0xbda6efa5	-0.08151177
69	0x3d513711	0.051077906
70	0xbd81c5c4	-0.06336549
71	0xbd3f08e3	-0.046639334
72	0xbc85f096	-0.016350072
73	0x3d116249	0.035494123
74	0xbdb6a507	-0.08918195
75	0xbdbf93dd	-0.093543746
76	0xbd9ddb19	-0.07707805
77	0xbd83d4a5	-0.06437043
78	0xbdbfb751	-0.09361137
79	0xbdc151d5	-0.09439436
80	0xbdaaeffa	-0.08346553
81	0xbe28bfb4	-0.16479379
82	0xbd0592ac	-0.03261058
83	0xbda135ee	-0.078716144
84	0xbdf438a4	-0.11924866
85	0x3e508c46	0.2036601
86	0xbe0c9508	-0.13728726
87	0xbc183150	-0.009289101
88	0xbe5f2fbb	-0.21795551
89	0x3e10beb1	0.14135243
90	0xbda28cb4	-0.07936993
91	0x3bf07d54	0.007339159
92	0xbb90c322	-0.004417793
93	0xbd86e5d3	-0.06586804
94	0x3d9397f7	0.07206719
95	0x3d898532	0.06714858
96	0x3d922a0d	0.07136927
97	0xbc70f810	-0.01470758
98	0xbde88e16	-0.11355226
99	0xbd9bf0b1	-0.076142676
100	0x3c86175f	0.016368566
101	0x3d993f86	0.07482819
102	0x3d44426b	0.047914904
103	0xbd2fb06d	-0.042892862
104	0x3de66225	0.11249188
105	0xbcd76562	-0.02629346
106	0xbd0c9449	-0.034321103
107	0xbe09f821	-0.1347356
108	0xbd725025	-0.059158463
109	0xbcc82369	-0.024430947
110	0xbe741622	-0.23836568
111	0xbdc3491c	-0.09535429
112	0x3db502a5	0.08838395
113	0xbdee39cd	-0.116321184
114	0xbdc01a4d	-0.093800165
115	0x3dd00f78	0.101592004
116	0xbe1c6bbd	-0.15275474
117	0xbe4bf0b2	-0.19916037
118	0x3d26f484	0.040760532
119	0xbe42aab8	-0.19010437
120	0x3c8011ac	0.015633427
121	0xbd5dcf4b	-0.054152768
122	0x3d895835	0.06706277
123	0xbe26a390	-0.16273332
124	0xbcf9b4cf	-0.030481724
125	0xbe0e71f0	-0.13910651
126	0xbe721fa6	-0.23644885
127	0x3d0fc9ca	0.03510455
128	0xbd893335	-0.0669922
129	0x3dfd9abc	0.12383029
130	0x3d11fa65	0.035639185
131	0x3d3d2ea4	0.046187058
132	0xbe134e61	-0.14385368
133	0x3c57fd99	0.013183021
134	0x3e833167	0.25623628
135	0x3de0cc45	0.10976461
136	0x3b9b919c	0.0047475826
137	0x3d512a6e	0.051065855
138	0x3dd10d9d	0.10207675
139	0x3dc59f16	0.09649484
140	0x3dae7401	0.0851822
141	0xbc0d2a37	-0.008616022
142	0xbef512f9	-0.47866037
143	0xbb9745b0	-0.0046164617
144	0x3dab2cfd	0.0835819
145	0x3d0326da	0.032019474
146	0x3de99da3	0.1140702
147	0xbdda0c1d	-0.10646842
148	0xbcaaf820	-0.020870268
149	0xba4b9325	-0.00077657617
150	0xbe059c3f	-0.13047884
151	0x3dbcbe41	0.092159756
152	0x3e193328	0.14960921
153	0x3d746b40	0.059672594
154	0x3c8a7dd9	0.016905712
155	0x3e192021	0.14953662
156	0x3d536d2d	0.05161779
157	0xbd0f7359	-0.035022113
158	0xbe71f041	-0.23626806
159	0xbdf095c1	-0.11747313
160	0x3e13623e	0.14392945
161	0xbbd636ce	-0.006537295
162	0x3d5f8859	0.05457339
163	0xbd97d9af	-0.07414567
164	0x3c95260d	0.01820662
165	0x3e69bbc0	0.22825527
166	0x3d03a60e	0.032140784
167	0xbcca8c4a	-0.024725098
168	0x3d939086	0.072053
169	0x3e0de24f	0.13855861
170	0x3d86001d	0.0654299
171	0xbc7e4202	-0.015518667
172	0x3e01b0e1	0.1266513
173	0x3d04ee85	0.032454032
174	0x3dea843b	0.11451002
175	0x3cc88655	0.024478117
176	0xbd5c7e23	-0.05383123
177	0xbe2f8cf5	-0.17143615
178	0xbe24935f	-0.16071843
179	0x3df28f25	0.11843709
180	0x3e68dd8a	0.2274076
181	0xbce17352	-0.02752081
182	0xbc5a8d15	-0.013339301
183	0xbca385ec	-0.01996132
184	0xbdc76e29	-0.09737808
185	0xbc9d8288	-0.019227281
186	0x3d3be462	0.0458721
187	0x3d369362	0.04457415
188	0xbe421455	-0.18953069
189	0xbd93110d	-0.071809866
190	0x3dd4d358	0.10391873
191	0x3d1413db	0.03615175
192	0x3c36ae4a	0.011149952
193	0x3d63ba3a	0.05559752
194	0x3cd6d9b6	0.02622686
195	0xbdc47d42	-0.095942035
196	0x3de1ab4b	0.11019
197	0xbd1ee8f5	-0.038796384
198	0x3cec9e81	0.028884174
199	0x3dbe34ba	0.092874005
200	0xbc9184c0	-0.017763495
201	0xbd8f06c8	-0.06983715
202	0xb87bc29e	-6.0024315e-05
203	0x3d525feb	0.051361006
204	0xbd1d8d0f	-0.038464602
205	0x3dade81a	0.084915355
206	0x3db05020	0.08609033
207	0xbcb97451	-0.022638472
208	0xbd8568f3	-0.06514158
209	0x3c353e42	0.011062207
210	0x3b6b2af6	0.003588376
211	0xbb27e85e	-0.002562068
212	0xbcc8dd38	-0.024519548
213	0xbdd91901	-0.10600472
214	0x3b9f7f9c	0.004867507
215	0xbd8d686e	-0.06904684
216	0xbd191176	-0.037370168
217	0xbd23ecfa	-0.04002092
218	0x3c55b87c	0.013044473
219	0xbdb47485	-0.08811287
220	0x3c7b34fc	0.015332457
221	0x3e1bacb8	0.15202606
222	0x3db16ec4	0.08663705
223	0xbe10a8a9	-0.14126839
224	0x3e27080a	0.1631166
225	0x3d764f3e	0.060134165
226	0xbd972255	-0.07379595
227	0xbad6e4ad	-0.0016395055
228	0x3c17e08b	0.009269844
229	0xbd70c454	-0.058780983
230	0x3d0f7b0a	0.03502945
231	0xbe061d2e	-0.13097069
232	0xbd441f37	-0.04788133
233	0xbc8939d0	-0.0167512
234	0xbdca62d2	-0.0988213
235	0xba44c441	-0.0007506051
236	0xbd94e83d	-0.072708584
237	0x3e6a473d	0.22878738
238	0xbcdd811b	-0.027039101
239	0x3e02448e	0.12721464
240	0xbe24fe0e	-0.16112539
241	0x3e4afe91	0.19823672
242	0xbe0885df	-0.13332318
243	0x3c01ea95	0.007929464
244	0xbdc43940	-0.09581232
245	0xbc9ca5ab	-0.019121965
246	0xbdea85f7	-0.11451333
247	0x3ceddcbe	0.029035922
248	0xbd9fe607	-0.07807546
249	0x3cc53372	0.024072383
250	0x3e2a5ac7	0.16636191
251	0xbc8792d3	-0.016549503
252	0x3d382226	0.04495444
253	0xbd9573b6	-0.07297461
254	0xbda3fc2f	-0.080070846
255	0x3c41965f	0.011815636

fc2.bias f4 [128]
0	0xbdc9d615	-0.09855286
1	0x3d838924	0.06422642
2	0xbd3a5b00	-0.04549694
3	0x3c963c61	0.018339338
4	0xbd84f6d6	-0.06492393
5	0xbc34198f	-0.010992422
6	0xbd8b3727	-0.06797629
7	0xbd09276a	-0.033484854
8	0x3b939f12	0.0045050466
9	0xbd154a30	-0.036447704
10	0xbd1684a0	-0.036747575
11	0xbd88c8c9	-0.06678922
12	0xbd2afa2e	-0.041742496
13	0x3d38db09	0.045130763
14	0x3cff5f4c	0.03117337
15	0xbd8e3ef0	-0.06945598
16	0xbddebd52	-0.10875954
17	0xbd848272	-0.06470193
18	0x3bf73c0b	0.0075449995
19	0xbd4342d3	-0.04767115
20	0xbd9b12ad	-0.075719215
21	0xbd7874e0	-0.060658336
22	0xbd3b1f05	-0.04568388
23	0xbd0d82bc	-0.034548506
24	0x3ce24024	0.027618475
25	0xbc195377	-0.0093582785
26	0x3c0bac69	0.0085249925
27	0xbdb338b4	-0.0875105
28	0x3d235374	0.03987451
29	0xbd6884cc	-0.05676727
30	0x3de5fb95	0.11229626
31	0x3d9fafff	0.077972405
32	0xbd88ae02	-0.06673814
33	0xbdadad2d	-0.08480296
34	0xbde1e3fb	-0.11029812
35	0x3d8512e7	0.06497746
36	0x3d11ec1f	0.035625573
37	0xbd842620	-0.06452584
38	0xbde5a51c	-0.11213133
39	0xbdbfcfa3	-0.093657754
40	0xbcb2540a	-0.021768589
41	0xbdcbded4	-0.099546105
42	0x3e154cec	0.14580125
43	0x3c313708	0.010816343
44	0xbde52e79	-0.111905046
45	0x3cd7d9b0	0.026348919
46	0x3d828268	0.06372529
47	0x3d94974d	0.07255421
48	0xbdc8f649	-0.098126
49	0x3c314be4	0.010821316
50	0x3d41399b	0.047174077
51	0x3d41cccc	0.04731445
52	0xbdab47d1	-0.08363307
53	0x3dd24268	0.10266572
54	0xbe05d866	-0.1307083
55	0x3ddef039	0.108856626
56	0xbce3da9c	-0.027814202
57	0x3c0dcc82	0.0086547155
58	0xbc396314	-0.011315126
59	0xbb25d2e9	-0.0025302714
60	0x3da33f3b	0.07971045
61	0xbdb0b39f	-0.0862801
62	0xbe1c13e6	-0.15241966
63	0xbcc7feaa	-0.024413425
64	0xbcf98cbb	-0.030462613
65	0x3dd944e7	0.10608845
66	0xbd86dd15	-0.06585137
67	0x3d69a5e3	0.057042968
68	0xbdcbcc5f	-0.0995109
69	0x3abb1d6b	0.0014275735
70	0xbd699d3d	-0.05703472
71	0x3d55c863	0.052193057
72	0x3d0bf8df	0.03417289
73	0x3d014589	0.031560455
74	0xbb9ac4be	-0.0047231605
75	0x3c030025	0.00799564
76	0xbd8a2cdd	-0.06746838
77	0x3d3d231c	0.04617606
78	0x3890eeca	6.910933e-05
79	0x3d6fe00c	0.058563277
80	0xbd34bfda	-0.044128276
81	0x3ddb4bc8	0.107078135
82	0x3d5ec4d2	0.05438692
83	0xbba5cace	-0.0050595766
84	0xbd8c7512	-0.06858267
85	0x3d0bcb87	0.034129646
86	0xbd109191	-0.035295073
87	0xbe12ac67	-0.14323579
88	0xbc506995	-0.012720485
89	0x3ccd5383	0.025064236
90	0xbd555b0c	-0.052088782
91	0xbe03b494	-0.12861854
92	0x3a41abea	0.0007387983
93	0xbe09b3a7	-0.13447438
94	0xbc07a5c3	-0.008279267
95	0x3d6493f4	0.05580516
96	0x3bb36363	0.0054744943
97	0x3cf99aca	0.030469317
98	0x3d8525ec	0.06501374
99	0x3d59b7f4	0.053153947
100	0xbe101b3f	-0.14072894
101	0xbe07c35c	-0.13258117
102	0xbc859e8e	-0.016310956
103	0x3e0cf201	0.13764192
104	0xbc8599cf	-0.016308693
105	0xbd915b90	-0.07097542
106	0xbcb7848f	-0.022402076
107	0xbc17b82c	-0.009260219
108	0x3d071759	0.03298125
109	0xbe00a947	-0.12564574
110	0xbd558246	-0.05212619
111	0xbc9a325a	-0.018822838
112	0x3cdd64b2	0.027025554
113	0xbdafdf5a	-0.08587523
114	0x3deb249c	0.11481592
115	0xbccfdbbe	-0.025373336
116	0xbcf562c3	-0.02995432
117	0xbc979922	-0.018505637
118	0x3da1e9b6	0.07905905
119	0x3d3f0041	0.0466311
120	0x3a97d5c0	0.0011584088
121	0xbda6c195	-0.081423916
122	0x3b44f88c	0.0030055372
123	0x3d154816	0.0364457
124	0xbd7a0f09	-0.061049495
125	0x3ccd02da	0.025025774
126	0xbd0c971b	-0.034323793
127	0xbd867a7e	-0.06566332

mu.weight f4 [5, 128]
0	0xbc990a9d	-0.018681819
1	0xbd1b782e	-0.03795641
2	0xbd2de278	-0.042452306
3	0x3d6bcd45	0.057568807
4	0xbcec7821	-0.028865876
5	0xbe9483c9	-0.29006794
6	0x3dea5439	0.114418454
7	0xbd844380	-0.06458187
8	0xbe05ea4b	-0.13077657
9	0xbd3abd37	-0.045590606
10	0xbe4237b6	-0.18966565
11	0xbce53f47	-0.027984275
12	0x3b34b6ae	0.0027574706
13	0xbd186027	-0.037201073
14	0x3c8531a8	0.01625903
15	0x3e65443c	0.2238931
16	0x3d4f04b3	0.05054159
17	0x3e86f012	0.26355034
18	0xbcd88a96	-0.02643327
19	0x3bafc2bc	0.0053637903
20	0xbdd2a038	-0.102844656
21	0xbcbafb78	-0.022824988
22	0xbdec583f	-0.11540269
23	0x3e3d2217	0.18470035
24	0x3e2c405a	0.16821423
25	0xbea6b58a	-0.32560378
26	0x3e5c475d	0.21511598
27	0x3d050cc7	0.03248289
28	0x3e466c11	0.19377162
29	0xbe24409d	-0.16040273
30	0xbd9cf382	-0.07663633
31	0xbe06de6e	-0.13170788
32	0xbcb98fb4	-0.02265153
33	0xbcc9c18e	-0.024628427
34	0x3e042679	0.12905301
35	0xbd066d8c	-0.032819316
36	0x3d211f4b	0.039336484
37	0xbd01ee06	-0.031721137
38	0xbd6bd1b3	-0.05757303
39	0xbdbf3e6c	-0.09338078
40	0x3e7b7393	0.24555807
41	0x3df606fa	0.120130494
42	0x3e086925	0.1332136
43	0xbd7ef2e2	-0.06224335
44	0x3da47249	0.08029611
45	0xbcaa14d3	-0.020761883
46	0xbe4f15b3	-0.20223121
47	0xbdb52b70	-0.08846176
48	0xbe729d4d	-0.23692818
49	0xbdbbaa0e	-0.09163295
50	0xbe48b2cc	-0.19599456
51	0x3d8e18a4	0.069382936
52	0x3e2d0b7a	0.16898909
53	0xbe1b1f73	-0.15148716
54	0xbe922810	-0.2854619
55	0x3e7e92f7	0.2486075
56	0x3dedf3f9	0.116188
57	0x3d0e3c07	0.034725215
58	0xbe2ad853	-0.16684084
59	0xbd91f953	-0.07127633
60	0x3e7bdad5	0.24595197
61	0xbe5b22aa	-0.21399942
62	0xbec1ea31	-0.37873986
63	0xbe151e90	-0.1456244
64	0xbe2812bf	-0.16413401
65	0xbd6b79fb	-0.057489377
66	0x3c561a0a	0.013067732
67	0x3e359e7b	0.17736237
68	0xbd6cf4bd	-0.057850588
69	0xbe762061	-0.24035789
70	0x3e19f832	0.15036085
71	0x3e25bf96	0.16186365
72	0x3e9dc323	0.3081294
73	0x3d5f69be	0.054544203
74	0xbdb65013	-0.08901992
75	0x3b32bad1	0.0027271996
76	0x3dbf4474	0.09339228
77	0xbb3585cf	-0.0027698164
78	0xbd3f0f70	-0.04664558
79	0x3d9134db	0.070901595
80	0x3e0a64c4	0.13515002
81	0x3d8d0a93	0.068867825
82	0xbe440993	-0.19144277
83	0xbe06f52e	-0.13179466
84	0x3d54318b	0.05180506
85	0x3e803143	0.25037584
86	0xbd2ab366	-0.041674994
87	0x3e2295ed	0.15877505
88	0x3d0a7649	0.03380421
89	0x3e381519	0.17976798
90	0x3ced8681	0.0289948
91	0x3d5efcfc	0.054440483
92	0xbc79cb14	-0.0152461715
93	0xbe989da6	-0.29807776
94	0x3c7b602b	0.015342752
95	0x3e137869	0.14401402
96	0x3da4e85c	0.080521315
97	0x3bdedca2	0.006801204
98	0x3d94d94e	0.0726801
99	0x3d524f26	0.051345013
100	0xbcbf887c	-0.02338051
101	0x3e968417	0.29397652
102	0x3ea2c329	0.3178952
103	0xbd6e3e97	-0.05816516
104	0xbdd57e1d	-0.10424445
105	0x3e0243b6	0.12721142
106	0xbdb07a37	-0.08617061
107	0xbe2919f1	-0.16513802
108	0x3d3071ae	0.043077163
109	0xbd44cc45	-0.04804637
110	0xbd8f1d54	-0.06988016
111	0x3d72fbd6	0.0593222
112	0x3db8aded	0.09017549
113	0xbc8bc596	-0.01706199
114	0x3e509ec7	0.20373069
115	0x3da63d3f	0.081171505
116	0x3dc417d4	0.09574857
117	0xbb7bbf3f	-0.0038413552
118	0x3e10d4d9	0.14143695
119	0x3e061234	0.13092881
120	0xbd14c014	-0.036315992
121	0xbc265382	-0.010151746
122	0xbac0d206	-0.0014711029
123	0x3d9f7a20	0.07786965
124	0x3d4118e1	0.047142867
125	0x3dc71ea9	0.09722645
126	0xbd8e8577	-0.0695905
127	0xbcea2907	-0.028584016
128	0x3d648665	0.05579223
129	0xbe2fc17f	-0.17163657
130	0x3d89cfe6	0.067291066
131	0xbcf9ffe2	-0.030517522
132	0xbd274075	-0.040832955
133	0x3e11b4cc	0.14229125
134	0xbe05521a	-0.130196
135	0x3e3ca898	0.18423688
136	0xbd3792a1	-0.04481757
137	0x3eb23162	0.348033
138	0x3e859fcf	0.26098487
139	0xbe8c6983	-0.2742425
140	0xbd1c34ed	-0.03813641
141	0x3e64a637	0.22329031
142	0x3e490239	0.19629754
143	0xbe183690	-0.14864564
144	0x3df21ec3	0.118222736
145	0x3b13982d	0.0022521124
146	0xbd48864b	-0.048956197
147	0x3b4b2d43	0.003100232
148	0x3d94a6c9	0.07258374
149	0xbd556927	-0.052102234
150	0x3c5f4052	0.013626175
151	0x3d52fb94	0.051509455
152	0xbe1a2fa1	-0.15057231
153	0x3e93bd36	0.28855294
154	0x3c3dbdc1	0.011580885
155	0x3d824f08	0.0636273
156	0x3e8228ae	0.2542166
157	0x3e636e06	0.2220994
158	0xbe598340	-0.21241474
159	0xbe704ecd	-0.2346756
160	0xbdb6c41b	-0.08924123
161	0xbd7674ed	-0.060170103
162	0xbdd55e91	-0.10418428
163	0x3e08d8bb	0.13363926
164	0xbe0f0881	-0.13968088
165	0xbd68c5f3	-0.056829404
166	0xbd95799f	-0.07298588
167	0xbd8403e9	-0.06446058
168	0xbde13bc8	-0.109977305
169	0x3dff4aad	0.12465415
170	0x3e0070cb	0.12543027
171	0xbd7d512e	-0.061844997
172	0xbe17501f	-0.14776658
173	0x3dc70454	0.097176224
174	0xbc3faabf	-0.011698424
175	0xbd90b715	-0.0706617
176	0x3e6040bc	0.21899694
177	0xbd8512bd	-0.06497715
178	0x3c42ac60	0.011881918
179	0x3e4b4fc1	0.19854642
180	0xbdd31639	-0.10306973
181	0xbd8e9653	-0.06962266
182	0x3e1a11cb	0.1504585
183	0x3d2a8f33	0.04164047
184	0x3cfd25cf	0.030901818
185	0xbe2aae62	-0.16668084
186	0x3eb5c29a	0.35500032
187	0xbdc89236	-0.097935125
188	0x3e9e6c51	0.30942014
189	0x3e4d4685	0.20046432
190	0xbe279d3d	-0.16368575
191	0x3dee5a50	0.116383195
192	0xbe86ecbb	-0.26352486
193	0xbe155e15	-0.1458667
194	0x3c04c5b5	0.008103778
195	0x3e27a035	0.16369708
196	0xbe6e6b26	-0.23283061
197	0x3e9a948f	0.30191466
198	0xbe823c12	-0.25436455
199	0xbdc6d2ee	-0.097082004
200	0x3da74f65	0.0816944
201	0x3ccbae9b	0.024863532
202	0x3e05c0e7	0.13061868
203	0x3da8df63	0.08245733
204	0x3e52a886	0.20572099
205	0x3c2b4fdc	0.010456052
206	0x3ceb79b2	0.028744552
207	0x3e54b8d7	0.20773636
208	0x3d87710a	0.06613357
209	0xbd444d89	-0.047925506
210	0xbcbae6fd	-0.022815222
211	0xbdb3c0b0	-0.087769866
212	0x3d03b784	0.032157436
213	0xbd65538b	-0.055987876
214	0x3d91a45e	0.07111429
215	0xbe5a956a	-0.2134606
216	0xbdd5293f	-0.10408258
217	0x3cef54c9	0.029215233
218	0x3cf52daf	0.02992901
219	0xbe29836f	-0.16554044
220	0x3bdfd1e1	0.0068304394
221	0xbe37bc38	-0.17942894
222	0xbdc21d96	-0.09478299
223	0x3e5f22a4	0.21790558
224	0x39b99096	0.00035393675
225	0x3d2cc499	0.042179678
226	0x3e2c4cdd	0.16826196
227	0x3c8f7935	0.01751385
228	0xbdc92682	-0.09821798
229	0x3dc65b43	0.096853755
230	0xbdbc440b	-0.09192666
231	0xbd13a69f	-0.036047574
232	0x3da6d3b0	0.08145845
233	0x3d063d22	0.032773145
234	0x3dca3a50	0.098744035
235	0x3e1db8e0	0.15402555
236	0x3dec61c3	0.11542084
237	0x3c77d394	0.015126128
238	0x3c931127	0.017952515
239	0xbe5e7cbb	-0.21727268
240	0xbca96b27	-0.020680977
241	0xbd2ed499	-0.042683218
242	0x3ca4d4c5	0.020120988
243	0xbdd5dfac	-0.10443053
244	0xbc7df615	-0.015500565
245	0xbd85fb08	-0.06542021
246	0xbdadc264	-0.08484343
247	0x3e2e1bef	0.17002843
248	0x3cbe5d7d	0.023237938
249	0x3cd0ae7c	0.025473826
250	0xbe5be576	-0.21474251
251	0x3d34a30d	0.04410081
252	0xbcd5c883	-0.026096588
253	0xbcf4193f	-0.029797195
254	0xbe99a090	-0.30005312
255	0xbe7294ed	-0.23689623

mu.bias f4 [5]
0	0xbdb8931a	-0.090124324
1	0x3d9815fb	0.074260674
2	0xbb9058d7	-0.004405122
3	0x3d6afcbf	0.057369944
4	0xbd86a694	-0.06574741

log_std.weight f4 [5, 128]
0	0xbd1e98e7	-0.038720038
1	0xbe14b87c	-0.145235
2	0x3b3a0792	0.002838586
3	0xbe72b821	-0.23703052
4	0xbd16f359	-0.03685317
5	0xb94cf430	-0.00019545923
6	0xbd411c16	-0.047145925
7	0xbd64f71d	-0.055899728
8	0xbcb461e5	-0.022019336
9	0xbd88500c	-0.06655893
10	0xbe069007	-0.1314088
11	0x3da14178	0.07873815
12	0xbd9d6997	-0.07686155
13	0xbcaaade4	-0.02083487
14	0x3e3e3e28	0.18578398
15	0xbd71175b	-0.058860164
16	0x3e776e2c	0.24163121
17	0xbdb3f94a	-0.087877825
18	0xbe7e023a	-0.24805537
19	0xbe4f69b0	-0.2025516
20	0x3db774a0	0.08957791
21	0x3d83d80c	0.06437692
22	0x3e163f6c	0.14672631
23	0xbe622aa0	-0.22086573
24	0x3e152b34	0.14567262
25	0x3c6217ef	0.0137996515
26	0x3d4e8dfc	0.050428376
27	0x3d43919b	0.047746282
28	0x3c95e299	0.018296527
29	0xbcee5838	-0.0290948
30	0xbe1dffb0	-0.15429568
31	0xbd841ceb	-0.06450828
32	0x3c4733f7	0.0121583855
33	0x3a8ae4f4	0.0010596798
34	0x3d9bd1a4	0.07608345
35	0x3bcf8342	0.006332786
36	0xbe81cad2	-0.25350052
37	0x3cd5cc93	0.026098525
38	0x3e230ea1	0.15923549
39	0x3d194ca6	0.037426613
40	0x3d528abb	0.051401835
41	0x3d17020b	0.036867183
42	0x3dd8656c	0.1056622
43	0xbe3adb13	-0.18247633
44	0xbda5c101	-0.08093453
45	0xbc0acd19	-0.008471751
46	0xbe90a7ee	-0.2825312
47	0xbe4422e7	-0.19153939
48	0xbda4d3e1	-0.08048225
49	0xbe1a5b64	-0.15073925
50	0xbe435a7d	-0.19077487
51	0x3d3eec41	0.046612028
52	0xbe3484a1	-0.17628719
53	0xbdb66e99	-0.089078136
54	0xbd5f072a	-0.05445019
55	0xbe3dfef8	-0.18554294
56	0xbda0afaf	-0.07846009
57	0xbdfaa571	-0.12238587
58	0x3c969818	0.01838307
59	0xbda7cfe5	-0.081939496
60	0x3cd55589	0.026041763
61	0x3d306c39	0.04307196
62	0x3cecbac5	0.028897652
63	0x3e3cd076	0.18438897
64	0xbdd50cc5	-0.10402826
65	0xbe92b3fd	-0.28652945
66	0xbd1406bc	-0.036139235
67	0x3d535c81	0.05160189
68	0xbd857b6a	-0.0651768
69	0x3ddb7b20	0.107168436
70	0x3c1c2aec	0.009531718
71	0xbe5b91d3	-0.21442346
72	0x3cfacc8e	0.030615117
73	0x3e0ea0d1	0.13928534
74	0xbe053dd5	-0.13011868
75	0xbd41bb48	-0.047297746
76	0x3dd26791	0.1027366
77	0xbe1fd170	-0.15607238
78	0xbd658079	-0.056030724
79	0x3bceaada	0.006306988
80	0xbdc079d6	-0.09398238
81	0xbe5f3650	-0.21798062
82	0xbe1338a3	-0.14377074
83	0xbd9a54bf	-0.07535695
84	0x3c82b9ef	0.0159578
85	0x3ce5d275	0.028054455
86	0xbde18d47	-0.11013275
87	0xbd973139	-0.07382435
88	0xbe0c764c	-0.13717002
89	0xbd0b32a0	-0.033983827
90	0xb7631cd7	-1.3536969e-05
91	0xbe0653cc	-0.13117903
92	0x3d2c2b1a	0.042033292
93	0x3d48d84b	0.049034398
94	0xbe4fac2e	-0.20280525
95	0xbe2b87fc	-0.16751093
96	0x3e1681f4	0.1469801
97	0x3d7a96d8	0.061179012
98	0x3e62fdae	0.22167084
99	0x3db36cb0	0.08760965
100	0x3d28c38e	0.04120212
101	0x3e3d2fb8	0.18475235
102	0xbdc63882	-0.09678747
103	0x3c86e515	0.016466657
104	0xbe85e11b	-0.26148304
105	0xbce46d22	-0.02788407
106	0x3d385901	0.045006756
107	0xbda14c9a	-0.07875939
108	0x3e004610	0.12526727
109	0xbd611de9	-0.054960165
110	0x3c2ec071	0.010665999
111	0xba01f2de	-0.00049571495
112	0xbd3eabe1	-0.046550635
113	0x3d8a7d0b	0.06762131
114	0xbd6d4f5e	-0.05793702
115	0xbe111130	-0.14166713
116	0xbdcf732d	-0.1012939
117	0xbbfdef45	-0.0077494704
118	0xbc6cf11b	-0.014461781
119	0x3e449f3b	0.19201367
120	0x3d24485b	0.040108066
121	0xbd70bc90	-0.058773577
122	0xbd98b762	-0.074568525
123	0xbda5ceb9	-0.0809607
124	0xbdc16a3b	-0.0944409
125	0xbca64783	-0.020297771
126	0xbdf96acc	-0.12178573
127	0xbd87eca3	-0.06636932
128	0xbe0a8433	-0.13526992
129	0xbde7b32f	-0.113134734
130	0x3d584809	0.052803073
131	0xbd2c1c23	-0.04201902
132	0xbd53dd19	-0.051724527
133	0xbe079745	-0.13241298
134	0x3e07adda	0.13249913
135	0x3d6afc0e	0.057369284
136	0x3d904533	0.07044449
137	0x3e2ec242	0.17066291
138	0xbd770083	-0.060303222
139	0x3dbcc7a8	0.09217769
140	0xbc37d103	-0.011219266
141	0xbdef97fa	-0.11698909
142	0x3d0a1bac	0.033717796
143	0xbc91b5d9	-0.017786907
144	0x3d9d3db3	0.07677784
145	0xbd2115da	-0.03932748
146	0xbe74990d	-0.23886509
147	0xbe7f9fbe	-0.2496328
148	0x3de22464	0.11042097
149	0x3ce5c148	0.028046265
150	0xbe4626a2	-0.19350675
151	0x3e4a1699	0.19735183
152	0x3d486ba8	0.048930794
153	0xbd39e217	-0.04538163
154	0x3e8e69b9	0.27815035
155	0x3d287c50	0.04113418
156	0x3d873c09	0.06603248
157	0xbe083e45	-0.13305004
158	0xbd8db1b3	-0.06918659
159	0xbc8addab	-0.016951403
160	0xbe843688	-0.25822854
161	0xbde58e98	-0.11208838
162	0x3db668b8	0.08906692
163	0xbca7ccdc	-0.020483427
164	0xbdb4a176	-0.08819859
165	0xbca47914	-0.020077266
166	0xbd8c5657	-0.068524055
167	0xbd6a4fcf	-0.057205018
168	0x3da48ffc	0.08035275
169	0xbd56823a	-0.052370287
170	0xbe068fcf	-0.13140796
171	0xbe0c53d2	-0.1370385
172	0xbd134e1e	-0.03596317
173	0xbe40a20b	-0.18811814
174	0xbe572610	-0.21010613
175	0xbd421654	-0.047384575
176	0x3d9e10b6	0.07718031
177	0x3cb3d1c0	0.021950603
178	0xbdb79620	-0.08964181
179	0xbd02ba22	-0.03191579
180	0x3dd20fb6	0.10256903
181	0x3dfcfc99	0.12352867
182	0x3eb3ae25	0.350938
183	0x3d5190b3	0.051163387
184	0xbd4a30b7	-0.049362864
185	0x3cc7e184	0.024399526
186	0xbd09f6d2	-0.03368265
187	0xbdbf7f05	-0.09350399
188	0x3dca154f	0.098673455
189	0x3e138018	0.14404333
190	0x3d9fca06	0.07802205
191	0xbdb0bb44	-0.08629468
192	0xbdf6d485	-0.12052254
193	0xbdcd163f	-0.10014009
194	0xbd05a253	-0.032625508
195	0x3cfd1fb9	0.030898916
196	0x3d94270d	0.07234011
197	0xbde56cb5	-0.11202375
198	0x3d83153f	0.06400537
199	0x3dac6369	0.084173985
200	0xbd6a0e47	-0.057142522
201	0xbd8a535b	-0.0675418
202	0xbdbc0c5b	-0.09182044
203	0x3d4f4e73	0.050611924
204	0xbce72259	-0.02821462
205	0xbabf5a84	-0.0014599119
206	0x3db76569	0.08954889
207	0xbdee12b9	-0.11624665
208	0xbdc3077a	-0.095229104
209	0xbe125645	-0.14290722
210	0xbe0067e7	-0.12539636
211	0xbd9b1bc3	-0.075736545
212	0xbd07da5b	-0.033167224
213	0x3be9d702	0.0071362266
214	0x3ad7cdc6	0.0016464524
215	0x3ccb0ec9	0.024787324
216	0xbe58e529	-0.21181168
217	0xbd2f277d	-0.04276227
218	0xbd8e7b3a	-0.06957097
219	0x3e307beb	0.17234771
220	0xbce09298	-0.027413651
221	0xbbab6201	-0.005230189
222	0xbe27eb0d	-0.16398259
223	0x3d94eab7	0.07271331
224	0xbe98c611	-0.29838613
225	0xbdadee44	-0.08492711
226	0xbe886dfa	-0.26646405
227	0xbc8e6df7	-0.01738642
228	0x3dd06fa6	0.10177545
229	0x3d092764	0.03348483
230	0x3cdc4c65	0.026891897
231	0xbe279ef2	-0.16369227
232	0xbae7be07	-0.0017680534
233	0xbe211c4b	-0.15733449
234	0x3cd2705b	0.02568834
235	0x3b1a02f8	0.0023500305
236	0xbe1dd2f5	-0.15412505
237	0x3c913cc0	0.017729163
238	0x3d94069b	0.072278224
239	0xbd1947c6	-0.037421964
240	0xbe322fe4	-0.17401081
241	0x3cc5b625	0.024134705
242	0xbe50d36c	-0.20393151
243	0x3d0229cd	0.031778146
244	0xbdfd06ef	-0.12354838
245	0x3d9f641c	0.07782766
246	0xbe85e3a8	-0.2615025
247	0xbc189cd7	-0.009314737
248	0x3bac1664	0.0052516926
249	0x3d4db1dc	0.050218448
250	0xbdbf3df7	-0.09337991
251	0xbe304e63	-0.17217402
252	0xbe389eb4	-0.1802929
253	0xbe01a189	-0.12659277
254	0xbdf011dd	-0.11722157
255	0xbccbc926	-0.024876188

log_std.bias f4 [5]
0	0xbde65f57	-0.112486534
1	0xbdd71db0	-0.10503709
2	0xbe830571	-0.2559009
3	0xbdfaf4e9	-0.12253744
4	0xbe5c69da	-0.21524754
