resource/train_valid_split_20/sac_actor_final.pth (torch, 80607 bytes, 8 tensors)

fc1.weight f4 [128, 12]
0.12340695 -0.3749387 0.16853401 -0.1499692 -0.1051641 -0.16598625 0.0069413483 -0.32379735
-0.20733878 -0.12134179 0.09285727 -0.0021776985 -0.14248028 0.048231825 -0.098680064 0.096210845
-0.01208366 -0.23433723 0.13179186 0.030429274 -0.0460215 -0.27141157 0.23359892 0.12517518
-0.008803349 -0.28122255 0.25349665 0.040215284 0.08672166 -0.05067937 -0.27503932 -0.06127688
0.14190778 -0.17111434 -0.043095563 0.04040154 -0.019126862 -0.04043551 0.06043175 0.008667441
-0.015908062 -0.20131108 -0.14771588 0.05323801 -0.2754 0.03480125 0.10676062 -0.18711215
0.20382558 -0.31307843 0.005454123 0.05922775 0.22472219 8.818961e-05 -0.12575237 -0.21512067
-0.23721103 0.22806507 0.046187818 0.2525613 -0.13167118 -0.10482809 0.10481003 0.30377182
0.20723811 0.112763084 -0.055129066 -0.19230478 0.2899619 -0.29121408 -0.11764662 -0.21983995
-0.08001862 0.2171331 0.07120824 -0.29520255 0.3282799 0.2858339 0.030114233 -0.46579677
-0.14376068 0.18220758 -0.25629857 -0.11302382 0.11582237 -0.32158232 0.101211905 0.15558909
0.23752874 -0.23595205 0.31702513 0.23249923 0.30212778 -0.13369718 -0.16350135 -0.30949986
0.017953964 -0.34789196 0.19878402 0.024871016 0.20268574 -0.24599138 0.05379966 0.17554195
0.0086070765 -0.059421055 -0.3092269 0.033383653 0.23681895 -0.13359144 0.11148769 -0.080002576
-0.07985888 0.2925985 0.21203494 -0.18896869 -0.023746131 -0.27218053 -0.22089651 0.09968289
0.14575656 -0.25331944 0.00397107 -0.19932316 -0.09158043 0.14441793 -0.22597745 -0.24169731
-0.0018072638 -0.25044268 -0.07269193 0.05983136 0.28547263 0.23023967 0.18995437 0.1270451
0.18752308 -0.09151895 -0.0046901223 0.06578463 -0.05603444 0.024895698 -0.06685587 0.008253281
-0.1984573 0.118140236 0.21700692 -0.25160152 0.250439 0.15603815 -0.115933895 -0.0058403537
-0.16130288 -0.2728449 -0.23494206 0.23461974 0.15403214 -0.06339646 -0.11495097 0.085817486
-0.08445579 -0.04496096 -0.2828151 0.29282308 -0.0492795 0.015697341 0.17369643 -0.3339806
0.0504036 0.048654195 0.07330051 -0.22552352 -0.13354962 -0.10548687 -0.12616418 -0.36292383
0.0043000733 -0.32728037 0.018202811 -0.08733731 -0.17158319 0.11523901 0.10309574 0.28781813
0.14649521 -0.23865186 -0.15251075 0.20939681 -0.29848886 -0.2659228 0.27310547 0.17688634
0.0021380782 -0.20337392 0.17179012 -0.15955262 -0.03496957 -0.2722876 0.3242185 0.3318838
0.018665522 0.18775824 -0.09209257 -0.16869251 0.034601748 0.077287406 0.2801515 -0.2417064
-0.1571516 -0.09560116 0.27284974 -0.09671076 0.113363 -0.12150295 0.030869663 0.056281984
0.14298156 -0.39319384 -0.2168388 -0.23793909 -0.019512944 0.1093603 -0.22897784 0.022090849
0.097079016 -0.21311891 0.11348882 0.2473391 0.15357402 -0.2629594 0.107191205 -0.37120357
0.25156 0.1564075 -0.25002512 -0.08132948 -0.072885305 0.19476402 0.20177138 -0.010342565
-0.18000469 -0.26047537 -0.27003804 0.24960616 -0.012468301 -0.13096845 -0.13177232 0.13508372
-0.022687702 0.085785545 0.23810658 -0.33630243 -0.056228977 -0.08611028 -0.11632872 0.14413433
00000000: c8bc fc3d f7f7 bfbe 2e94 2c3e 8791 19be
00000010: 4760 d7bd 4df8 29be 4074 e33b c4c8 a5be
00000020: 9e50 54be 0b82 f8bd f42b be3d b8b7 0ebb
00000030: 5ae6 11be bc8e 453d c618 cabd 310a c53d
00000040: 8bfa 45bc 19f6 6fbe 72f4 063e d046 f93c
00000050: 0a81 3cbd 75f6 8abe 8e34 6f3e ec2d 003e
00000060: ec3b 10bc 67fc 8fbe 50ca 813e c8b8 243d
00000070: 209b b13d 2c95 4fbd f4d1 8cbe 77fd 7abd
00000080: 4650 113e 9938 2fbe f984 30bd 167c 253d
00000090: f0af 9cbc b59f 25bd 4887 773d e201 0e3c
000000a0: a051 82bc 7e24 4ebe d542 17be 1910 5a3d
000000b0: 3b01 8dbe c18b 0e3d 50a5 da3d 549a 3fbe
000000c0: a7b7 503e d14b a0be 80b8 b23b cc98 723d
000000d0: 931d 663e 70f2 b838 3bc5 00be 9848 5cbe
000000e0: 73e7 72be e489 693e 702f 3d3d b74f 813e
000000f0: cfd4 06be 1cb0 d6bd a4a6 d63d fb87 9b3e
00000100: 3a36 543e 55f0 e63d 04cf 61bd 8beb 44be
00000110: e375 943e 031a 95be b6f0 f0bd b91d 61be
00000120: cde0 a3bd 2458 5e3e a0d5 913d ca24 97be
00000130: 4e14 a83e d258 923e 20b2 f63c ea7c eebe
00000140: 0036 13be a094 3a3e 9139 83be 0879 e7bd
00000150: 4734 ed3d 70a6 a4be 3048 cf3d bf52 1f3e
00000160: bc3a 733e 6a9d 71be 1e51 a23e 4714 6e3e
00000170: 7eb0 9a3e eae7 08be e66c 27be c476 9ebe
00000180: 3114 933c e51e b2be 0a8e 4b3e 4dbe cb3c
00000190: da8c 4f3e 2ae5 7bbe 085d 5c3d 45c1 333e
000001a0: b204 0d3c 7e63 73bd fd52 9ebe 4cbd 083d
000001b0: ab80 723e 32cc 08be a853 e43d 64d8 a3bd
000001c0: 0d8d a3bd 78cf 953e b01f 593e 0281 41be
000001d0: 3f87 c2bc 3f5b 8bbe b232 62be 8b26 cc3d
000001e0: 3541 153e 16b3 81be c01f 823b 5f1b 4cbe
000001f0: 858e bbbd 4be2 133e a266 67be 807f 77be
00000200: b6e1 ecba 063a 80be 82df 94bd ba11 753d
00000210: 7829 923e f3c3 6b3e 6683 423e 1c18 023e
00000220: 0d06 403e 4a6e bbbd 99af 99bb 18ba 863d
00000230: 5e84 65bd 10f2 cb3c bbeb 88bd c538 073c
00000240: 6438 4bbe 82f3 f13d 1037 5e3e ead1 80be
00000250: 8a39 803e 77c8 1f3e c06e edbd 7060 bfbb
00000260: 952c 25be 54b2 8bbe a794 70be 2840 703e
00000270: 9aba 1d3e 01d6 81bd 6a6b ebbd 14c1 af3d
00000280: 28f7 acbd fc28 38bd 24cd 90be e8ec 953e
00000290: 4dd9 49bd b697 803c 7add 313e 81ff aabe
000002a0: 0174 4e3d 9f49 473d 941e 963d a3ef 66be
000002b0: 3bc1 08be 8009 d8bd 2f31 01be 27d1 b9be
000002c0: a1e7 8c3b 4b91 a7be 101e 953c e7dd b2bd
000002d0: 81b3 2fbe 6e02 ec3d dc23 d33d e65c 933e
000002e0: d702 163e 2761 74be c72b 1cbe 1e6c 563e
000002f0: 88d3 98be 0927 88be 7bd4 8b3e b121 353e
00000300: 001f 0c3b 4141 50be c0e9 2f3e c361 23be
00000310: 403c 0fbd 4869 8bbe f8ff a53e acec a93e
00000320: 70e8 983c b243 403e 089b bcbd bbbd 2cbe
00000330: 90ba 0d3d dc48 9e3d 0470 8f3e e281 77be
00000340: 59ec 20be 8aca c3bd f6b2 8b3e 4a10 c6bd
00000350: dc2a e83d 8ad6 f8bd 60e2 fc3c f087 663d
00000360: c269 123e b450 c9be fe0a 5ebe 4ea6 73be
00000370: 9cd9 9fbc 4bf8 df3d 2b79 6abe def7 b43c
00000380: 5dd1 c63d d83b 5abe d46c e83d 7646 7d3e
00000390: 8242 1d3e 9da2 86be 1087 db3d 650e bebe
000003a0: 79cc 803e 4a29 203e 4b03 80be 1290 a6bd
000003b0: e444 95bd 3870 473e 289d 4e3e dd73 29bc
000003c0: 2653 38be 075d 85be 6d42 8abe c298 7f3e
000003d0: d847 4cbc 981c 06be 53ef 06be 6353 0a3e
000003e0: 8fdb b9bc 55b0 af3d 36d2 733e d52f acbe
000003f0: 5b50 66bd 965a b0bd c03d eebd f397 133e

fc1.bias f4 [128]
0.26977232 0.07231655 0.107671715 0.26133835 -0.11484694 -0.06862771 0.04104491 -0.12291682
0.08754369 0.08593138 -0.0819496 -0.17363878 0.19985718 -0.1467044 0.23040456 -0.22756062
-0.016500708 -0.21683279 0.050344784 -0.008136432 0.18523775 -0.010462991 0.23629658 -0.23099326
0.06737906 0.3293878 -0.22470069 0.28763902 -0.039783664 0.156585 -0.07444951 0.13626389
-0.0026253057 -0.23256867 -0.14857896 -0.08824591 -0.07794284 -0.24022344 0.20063187 0.05375656
-0.02121242 0.21835907 -0.19879137 -0.1656195 0.23613776 0.038098007 0.10182447 0.19018522
0.072588116 -0.13413307 -0.005459811 -0.0012908637 0.17456943 0.24188587 0.13967042 -0.16797668
-0.076467566 -0.049378697 -0.3015558 0.20256323 -0.21552627 -0.10629987 -0.058293886 0.16524991
0.12514189 0.022541013 -0.05635298 0.12604451 -0.059522904 0.25295055 -0.15483251 -0.2593291
0.06336403 -0.069025904 -0.21451405 -0.14120775 -0.25593653 0.15709795 0.08618267 0.0040619755
-0.050680075 -0.07790654 -0.31201196 0.030410826 0.018211018 0.18808728 0.09315938 0.045140184
-0.12378087 0.006507561 -0.09637813 -0.10226715 0.05691956 0.22513549 0.04952071 -0.036682867
-0.21570265 0.26881346 -0.20061556 -0.015333498 0.036289033 -0.09055986 -0.1533877 -0.25531793
0.06287983 0.16278593 -0.27675426 0.29251015 -0.2684359 0.12211323 0.23100439 -0.28063634
-0.2024057 0.08184368 -0.16358258 -0.09204298 -0.028429091 -0.15083352 0.16761383 0.09785057
-0.13608816 -0.14312348 -0.12701315 -0.10900422 -0.039007697 0.15518181 -0.020015836 0.29591033
00000000: 991f 8a3e b31a 943d fd82 dc3d 24ce 853e
00000010: df34 ebbd af8c 8cbd b51e 283d d0bb fbbd
00000020: 1b4a b33d cbfc af3d 31d5 a7bd 5dce 31be
00000030: 5ca7 4c3e ae39 16be 2cef 6b3e a705 69be
00000040: 7e2c 87bc 6a09 5ebe 5536 4e3d ab4e 05bc
00000050: f7ae 3d3e f76c 2bbc bbf7 713e 7f89 6cbe
00000060: 08fe 893d 85a5 a83e f017 66be 6c45 933e
00000070: 32f4 22bd d157 203e fc78 98bd c388 0b3e
00000080: 520d 2cbb 7b26 6ebe 1525 18be 46ba b4bd
00000090: 7fa0 9fbd 22fd 75be 7172 4d3e d72f 5c3d
000000a0: abc5 adbc 8599 5f3e f78f 4bbe 2998 29be
000000b0: 19ce 713e a80c 1c3d 5989 d03d eabf 423e
000000c0: 14a9 943d 2e5a 09be 37e8 b2bb 3332 a9ba
000000d0: 54c2 323e eeb0 773e c305 0f3e 1402 2cbe
000000e0: 079b 9cbd 5141 4abd 8665 9abe bc6c 4f3e
000000f0: ebb2 5cbe bfb3 d9bd 92c5 6ebd 4637 293e
00000100: 3225 003e eea7 b83c 62d2 66bd d011 013e
00000110: 4ace 73bd bc82 813e 6a8c 1ebe c9c6 84be
00000120: 00c5 813d 745d 8dbd 92a9 5bbe c498 10be
00000130: 1d0a 83be 49de 203e 8a80 b03d 521a 853b
00000140: e995 4fbd 778d 9fbd 08c0 9fbe 2020 f93c
00000150: 462f 953c f499 403e 58ca be3d eae4 383d
00000160: d380 fdbd 613d d53b e661 c5bd 7171 d1bd
00000170: 7c24 693d eb89 663e 3ad6 4a3d c640 16bd
00000180: 28e1 5cbe eba1 893e 2a6e 4dbe 5a39 7bbc
00000190: cfa3 143d 7377 b9bd aa11 1dbe 08b9 82be
000001a0: 24c7 803d 5bb1 263e bcb2 8dbe e4c3 953e
000001b0: 6e70 89be 8016 fa3d 6a8c 6c3e 91af 8fbe
000001c0: 7143 4fbe a99d a73d 3182 27be 0881 bcbd
000001d0: 20e4 e8bc 1a74 1abe f6a2 2b3e e165 c83d
000001e0: b25a 0bbe f68e 12be bc0f 02be 9b3d dfbd
000001f0: 89c6 1fbd fbe7 1e3e 40f8 a3bc 8f81 973e

fc2.weight f4 [128, 128]
0.049229972 0.041760515 -0.08536772 -0.01726276 0.075572036 -0.014487379 0.013906479 -0.060455155
-0.06502839 0.074400514 -0.023482613 0.080030575 0.025808066 -0.011585805 -0.0824771 0.030811168
-0.051854424 0.0013517365 -0.00026492774 0.0024341792 0.0018886096 -0.013567992 -0.050744176 0.017200276
0.044493966 -0.031960454 -0.053978965 -0.085697964 -0.095153704 0.06572833 -0.0154509945 0.069723815
0.057155915 -0.07383707 -0.03584616 -0.03704097 -0.04018565 -0.03419044 0.013698809 -0.026235547
-0.019521028 -0.09221752 0.06508633 -0.09168012 -0.0856847 -0.002269917 -0.04496083 0.032396525
-0.051421713 -0.05863205 0.035876606 -0.08477508 -0.053940315 -0.010889097 -0.027210087 -0.033158265
-0.04473455 0.007070067 0.0030856133 0.023349643 -0.058218155 0.056246467 -0.062058933 0.039562706
0.08641059 -0.0016664236 -0.049262986 0.0635363 0.08423381 -0.049253017 0.05665334 0.028110608
-0.041345067 -0.012228026 0.042530708 -0.02224172 0.066474475 -0.08510253 0.01796469 -0.020389423
-0.06231574 -0.020581909 0.025882982 -0.0141295595 -0.08428458 -0.032644074 0.04787913 -0.06725687
-0.082723364 0.0050729993 0.057091706 -0.078904614 -0.04018193 0.03012757 -0.05959953 -0.08964374
-0.052889258 0.025161617 0.028711446 -0.05420448 -0.056784287 0.018980775 0.04162122 0.019223481
-0.022549622 0.0065385043 0.034860514 0.063901804 0.046981357 0.0034846067 -0.068787605 0.03783738
-0.008175068 0.048247013 -0.09008528 -0.03954585 -0.031848013 0.030479304 0.005480854 -0.08209108
0.061329562 0.009524502 -0.02565147 0.06708608 -0.07275525 -0.04243655 0.03398785 -0.07364465
0.03215839 -0.034753233 -0.02470351 0.0045316587 -0.11128413 -0.070208445 -0.13537253 0.039255757
0.02344324 -0.026507182 0.08146622 -0.15512878 -0.08593109 -0.00014157518 0.111357965 -0.12911025
0.043819573 0.023164213 -0.0035503353 -0.023369139 0.051134236 -0.057366103 -0.021534413 -0.12871815
0.09724477 0.18115248 -0.07163589 -0.01634236 -0.07161371 0.1810171 -0.026239669 -0.0035815253
0.14150016 -0.119511686 -0.046106294 -0.010923586 0.007845753 -0.03829742 0.0457312 -0.12668338
-0.059207115 0.05477677 0.091584526 -0.15153864 0.004870241 0.058343895 0.0018287379 0.11531211
0.07527037 0.045869596 -0.058176268 -0.10782651 -0.054654617 0.060179174 0.048870113 0.021598922
-0.0033361712 0.02276086 -0.10051865 0.030903222 -0.1432194 0.108892724 -0.0039549195 0.17801069
-0.07229424 0.023727871 0.011688355 0.08418034 -0.05062385 -0.0054126526 0.015101779 -0.029475283
-0.079925574 -0.129264 -0.031417444 -0.051336154 -0.11174234 0.107266344 -0.0055716434 -0.015617321
0.0143824695 -0.0027810645 -0.0976504 -0.054528654 -0.11733748 0.0829106 0.073715426 -0.11059694
-0.027388966 -0.1510243 0.12037794 -0.03322745 -0.09143286 0.05062757 -0.008451484 0.10643436
0.0871306 0.13018842 0.057393108 -0.016801003 0.030791508 -0.120816275 0.081998914 -0.0128051005
0.09830205 -0.012779451 -0.12303142 0.16307165 -0.013129312 0.015027158 -0.056522373 -0.034148935
-0.08901685 0.033957947 -0.110698365 0.095131315 0.07463567 -0.14574702 0.050805304 0.08014743
0.010413554 0.059072815 -0.092784375 -0.12822759 0.08037968 0.06299756 0.06173961 0.1280353
00000000: 5ea5 493d 130d 2b3d 45d5 aebd a26a 8dbc
00000010: 83c5 9a3d 795c 6dbc 00d8 633c d39f 77bd
00000020: 9b2d 85bd 4c5f 983d 9c5e c0bc 12e7 a33d
00000030: 706b d33c 63d2 3dbc c1e9 a8bd b467 fc3c
00000040: 4e65 54bd c02c b13a 00e6 8ab9 c086 1f3b
00000050: 398b f73a 484c 5ebc 20d9 4fbd 98e7 8c3c
00000060: 4e3f 363d f7e8 02bd 0c19 5dbd 6a82 afbd
00000070: f2df c2bd 939c 863d 2b26 7dbc 5ccb 8e3d
00000080: 521c 6a3d e437 97bd 6cd3 12bd 46b8 17bd
00000090: b599 24bd 460b 0cbd f870 603c eeeb d6bc
000000a0: 90ea 9fbc 8adc bcbd fb4b 853d c9c2 bbbd
000000b0: 767b afbd e3c2 14bb d928 38bd 38b2 043d
000000c0: 939f 52bd 2928 70bd 59f3 123d 8f9e adbd
000000d0: 85f0 5cbd 2f68 32bc b0e7 debc f6d0 07bd
000000e0: 933b 37bd 05ac e73b 0038 4a3b c047 bf3c
000000f0: 2976 6ebd b262 663d 8231 7ebd 810c 223d
00000100: 09f8 b03d e66b daba fcc7 49bd 521f 823d
00000110: c782 ac3d 88bd 49bd 550d 683d 3848 e63c
00000120: 7259 29bd 0f58 48bc ae34 2e3d 4534 b6bc
00000130: c523 883d 3c4a aebd b02a 933c b807 a7bc
00000140: ca3e 7fbd 649b a8bc 8c08 d43c ab7f 67bc
00000150: 659d acbd cbb5 05bd e81c 443d f8bd 89bd
00000160: de6a a9bd 673b a63b fed8 693d be98 a1bd
00000170: cf95 24bd 18ce f63c a31e 74bd 2397 b7bd
00000180: 68a2 58bd bc1f ce3c 4434 eb3c 8405 5ebd
00000190: a496 68bd 927d 9b3c 037b 2a3d 907a 9d3c
000001a0: fcb9 b8bc f340 d63b e6c9 0e3d f3de 823d
000001b0: 866f 403d 005e 643b 84e0 8cbd 5efb 1a3d
000001c0: b8f0 05bc a99e 453d a27e b8bd d4fa 21bd
000001d0: 1073 02bd bcaf f93c bc98 b33b 5e1f a8bd
000001e0: b534 7b3d a80c 1c3c 0823 d2bc 6d64 893d
000001f0: b400 95bd f3d1 2dbd d836 0b3d 02d3 96bd
00000200: 84b8 033d 6859 0ebd 045f cabc 4f7e 943b
00000210: efe8 e3bd 72c9 8fbd 199f 0abe a5ca 203d
00000220: 0a0c c03c 9725 d9bc c3d7 a63d 14da 1ebe
00000230: a4fc afbd cc73 14b9 a50f e43d 7a35 04be
00000240: 277c 333d e0c2 bd3c beac 68bb a370 bfbc
00000250: 2272 513d b8f8 6abd f068 b0bc b1ce 03be
00000260: 4428 c73d 0980 393e d6b5 92bd 6ae0 85bc
00000270: 35aa 92bd 8c5c 393e 93f4 d6bc 06b8 6abb
00000280: 6be5 103e 8bc2 f4bd f4d9 3cbd d7f8 32bc
00000290: 798b 003c c1dd 1cbd a450 3b3d 4ab9 01be
000002a0: 2983 72bd 9b5d 603d ab90 bb3d f22c 1bbe
000002b0: 8b96 9f3b 02fa 6e3d 43b2 ef3a c128 ec3d
000002c0: 5a27 9a3d c2e1 3b3d 3d4a 6ebd 25d4 dcbd
000002d0: 85dd 5fbd 707e 763d 072c 483d 39f0 b03c
000002e0: aaa3 5abb fc74 ba3c b9dc cdbd c128 fd3c
000002f0: 1ba8 12be 2603 df3d 4598 81bb 6f48 363e
00000300: 010f 94bd f460 c23c 8480 3f3c be66 ac3d
00000310: f45a 4fbd 9f5c b1bb 746d 773c 2676 f1bc
00000320: 05b0 a3bd c85d 04be 94af 00bd dc45 52bd
00000330: 2bd9 e4bd 75ae db3d 5592 b6bb cbdf 7fbc
00000340: 73a4 6b3c 8542 36bb effc c7bd 7059 5fbd
00000350: a24e f0bd 08cd a93d 1df8 963d a680 e2bd
00000360: d35e e0bc 1da6 1abe b688 f63d 8219 08bd
00000370: 2741 bbbd db5e 4f3d 1878 0abc 42fa d93d
00000380: 8771 b23d 1d50 053e 0915 6b3d 42a2 89bc
00000390: 793e fc3c 866e f7bd 0cef a73d 7ccc 51bc
000003a0: 9652 c93d e760 51bc e6f7 fbbd 41fc 263e
000003b0: 531c 57bc 7834 763c 0184 67bd c1df 0bbd
000003c0: 774e b6bd 7d17 0b3d d3b5 e2bd 35d4 c23d
000003d0: 96da 983d b53e 15be 3919 503d 5624 a43d
000003e0: 9c9d 2a3c 56f6 713d bc05 bebd 184e 03be
000003f0: 1a9e a43d dd04 813d ace2 7c3d b01b 033e

fc2.bias f4 [128]
-0.023848848 0.01138931 0.097807884 0.032165598 0.036192052 0.055974532 0.11872526 -0.016225785
0.04320033 0.02087114 0.062363256 0.08966856 -0.09582502 0.034254335 -0.07685342 0.0787883
0.019815547 0.030878227 -0.03263134 0.022277392 0.026572589 -0.023352817 0.0646138 0.09195024
0.03936126 0.036999434 -0.023980537 0.018147223 -0.07763597 -0.026812043 -0.04334031 -0.016257413
-0.056110572 -0.07279145 -0.015086226 -0.06589167 0.029612271 -0.05271895 0.056866106 -0.02903073
0.008035656 -0.036440335 -0.0210559 -0.04929178 -0.040084723 0.052620873 -0.021037906 0.014579334
0.12954922 0.0008075344 0.06851435 0.0074093947 -0.003506657 0.007924597 0.041052725 0.046254568
0.059304334 0.070033066 -0.036677126 0.06792215 -0.015991561 -0.09601137 0.022440989 0.039297458
-0.053046837 0.037585944 -0.0802693 0.029450892 -0.005686698 0.08203602 -0.068203405 -0.06518254
-0.086668596 -0.038730994 0.07708177 -0.08379945 -0.06776648 0.013831956 0.06729084 0.024184125
0.10364595 0.09228494 -0.027799666 -0.02759031 -0.051655464 -0.004640267 -0.029530205 -0.058649514
0.017804377 -0.028904336 0.030499123 0.02639406 -0.06269909 -0.05320101 0.08000457 -0.08551279
0.028892081 -0.08128294 0.05213552 -0.011386527 0.030814266 -0.06105816 0.088848434 -0.061930884
-0.0079342285 0.058123324 0.018165212 -0.047884196 -0.049200594 -0.055174824 0.08452172 0.048543062
-0.09974504 0.0052710907 -0.003746867 0.0005583312 0.021135712 0.05408043 0.0024424351 0.04414528
-0.076373674 0.058693793 0.010565055 -0.09914092 0.03266521 -0.0047122785 -0.00080658006 0.082620166
00000000: a95e c3bc 3a9a 3a3c 804f c83d 13c0 033d
00000010: 1e3e 143d 8d45 653d 3b26 f33d f0eb 84bc
00000020: d4f2 303d f4f9 aa3c 9d70 7f3d 26a4 b73d
00000030: e83f c4bd 464e 0c3d 5365 9dbd c35b a13d
00000040: 3754 a23c 56f4 fc3c 71a8 05bd 147f b63c
00000050: c2ae d93c 684e bfbc 3d54 843d 6850 bc3d
00000060: 4639 213d b88c 173d d572 c4bc 7ca9 943c
00000070: 9cff 9ebd eea4 dbbc 9c85 31bd 442e 85bc
00000080: 33d4 65bd af13 95bd 382c 77bc 36f2 86bd
00000090: 6f95 f23c d3ef 57bd 6fec 683d dad1 edbc
000000a0: fca7 033c 7642 15bd 6c7d acbc 2de6 49bd
000000b0: e12f 24bd fc88 573d b057 acbc 29de 6e3c
000000c0: 8da8 043e b7b0 533a 4051 8c3d 82ca f23b
000000d0: f1cf 65bb 2bd6 013c e726 283d 6e75 3d3d
000000e0: 1ae9 723d 7f6d 8f3d c13a 16bd c51a 8b3d
000000f0: bc00 83bc 9ca1 c4bd 2ad6 b73c 5ff6 203d
00000100: a447 59bd b8f3 193d 3b64 a4bd ff42 f13c
00000110: 7b57 babb 8002 a83d 3aae 8bbd 6c7e 85bd
00000120: 4e7f b1bd 64a4 1ebd 0cdd 9d3d 0c9f abbd
00000130: 27c9 8abd 6e9f 623c c8cf 893d c91d c63c
00000140: 5444 d43d e3ff bc3d 20bc e3bc 1305 e2bc
00000150: ae94 53bd 620d 98bb 54e9 f1bc 793a 70bd
00000160: 7cda 913c c9c8 ecbc 4cd9 f93c 5b38 d83c
00000170: 6168 80bd 4de9 59bd 70d9 a33d 5421 afbd
00000180: 16af ec3c ac77 a6bd 0e8c 553d 8e8e 3abc
00000190: 336e fc3c 1f18 7abd 2bf6 b53d 3dab 7dbd
000001a0: 91fe 01bc b912 6e3d 36cf 943c 3822 44bd
000001b0: 9086 49bd fffe 61bd b919 ad3d 17d5 463d
000001c0: 2147 ccbd 1db9 ac3b ff8d 75bb f95c 123a
000001d0: cd24 ad3c 7183 5d3d 4311 203b aed1 343d
000001e0: cd69 9cbd e768 703d 0d19 2d3c 650a cbbd
000001f0: f5cb 053d 7569 9abb ac70 53ba c334 a93d

mu.weight f4 [5, 128]
0.0027926909 0.13582459 0.06955801 0.024025649 -0.025518129 -0.01744464 0.2019074 0.03744002
-0.11397695 0.1233622 0.10579523 0.1678249 -0.0557063 -0.049807232 -0.007699771 0.10604032
-0.05170495 -0.06879544 0.08107227 0.019739142 0.06492924 -0.001059227 0.15963204 0.13889359
0.1046348 0.043701548 0.03033088 -0.021418603 0.07734634 -0.005143337 -0.07620542 -0.03535593
-0.0022048934 0.036581986 -0.018408308 -0.20950098 -0.07184033 -0.08569617 0.06896546 0.06723345
-0.17949553 -0.088130206 -0.067912385 0.116584755 0.057384476 0.010792653 -0.035410967 -0.03482764
0.11345445 0.076737285 -0.23609428 0.0056644673 -0.0635015 -0.0275271 -0.020729944 0.01914619
0.18241894 0.037930936 -0.0999784 -0.113367535 -0.04214223 0.04729153 0.01977122 0.031540763
-0.10535901 -0.004725895 -0.013000252 0.047957167 -0.010108746 0.06943039 0.03715343 0.036336377
-0.07224034 0.110944405 0.065300345 0.030864283 0.025259193 0.052026812 -0.15270141 -0.022602938
0.13630477 0.13495292 -0.013203909 0.016453404 -0.03605155 -0.085205436 -0.05202273 -0.008654023
0.034388207 -0.0011013541 -0.12407347 -0.12074531 -0.08413225 -0.05439102 0.0481505 0.04594041
0.047929157 -0.09709431 -0.18544045 -0.020763706 -0.03723297 -0.08657371 0.272762 0.05422706
-0.061597895 0.16371089 -0.08092458 -0.062518 0.08899367 -0.09907374 0.06388106 0.06353954
-0.051326863 0.01806753 0.028598286 0.27032834 -0.12576519 0.075021714 -0.04430563 0.025582504
0.046510022 0.15056346 0.13584635 -0.053526543 -0.072175756 -0.014805407 0.16308683 -0.02783039
0.037973218 0.0030295737 -0.05963763 0.020257983 0.100854196 0.012770209 -0.11958371 -0.05933246
0.036716778 -0.00026526052 0.025922675 -0.019361999 -0.04457717 0.010687726 -0.038858563 0.1013621
0.13584839 0.014774205 -0.19847566 0.010282446 -0.0051055355 0.06010291 -0.060235452 -0.07226589
-0.025963029 -0.0033222388 0.116776206 0.15764879 -0.011974841 0.038708247 -0.05065392 0.032816622
-0.080812275 0.025549196 -0.010137275 0.1481566 0.12875059 -0.012088281 -0.12193403 -0.07807049
0.025327103 -0.061727364 0.00051195954 0.03726891 0.067644686 0.062200025 -0.11392019 -0.09077021
0.11511745 -0.08611204 0.054220684 0.049436867 -0.013862481 -0.10499367 -0.0027687296 0.09711344
-0.044328257 0.047806405 0.12526374 -0.09358265 -0.08861161 -0.008466162 -0.027536472 -0.091235556
-0.06560437 -0.05291075 0.1464454 0.04988137 -0.058795687 0.008640693 -0.11506036 0.03224416
0.015928052 -0.0023770516 0.061901078 0.028043248 0.06268551 0.08384264 0.039157983 -0.08647288
-0.09335168 -0.063329 0.050317053 0.059383538 -0.06433874 -0.038935874 0.04910499 0.08351627
-0.013598177 -0.0133750755 0.060887873 0.013954381 0.022060161 -0.03900138 0.08305231 0.054392662
0.071075454 -0.011815836 0.020038683 0.0043819374 0.06750709 0.027068898 0.031378508 0.014098403
0.11997715 0.025055109 -0.020158026 0.12257361 -0.01062742 -0.0137831345 0.075521074 -0.1234546
-0.05238854 -0.047466617 -0.048285186 0.04374572 0.03799133 -0.055681217 -0.020330934 -0.13492408
0.06398273 -0.08162883 -0.046073034 -0.015659198 0.013555705 -0.055628385 0.10173662 0.13071652
00000000: 9405 373b 9a15 0b3e 6e74 8e3d 70d1 c43c
00000010: 650b d1bc 10e8 8ebc d0c0 4e3e b55a 193d
00000020: bf6c e9bd 52a5 fc3d 2bab d83d 4ada 2b3e
00000030: 4a2c 64bd ab02 4cbd 5c4e fcbb ab2b d93d
00000040: 92c8 53bd a0e4 8cbd 3809 a63d fbb3 a13c
00000050: 9ff9 843d c3d5 8aba 9576 233e 1f3a 0e3e
00000060: c54a d63d 6500 333d 7778 f83c 1176 afbc
00000070: c267 9e3d 7089 a8bb 9611 9cbd 61d1 10bd
00000080: f97f 10bb fed6 153d 05cd 96bc 6d87 56be
00000090: 0621 93bd 7981 afbd c33d 8d3d b1b1 893d
000000a0: adcd 37be 9c7d b4bd a615 8bbd fdc3 ee3d
000000b0: fc0b 6b3d abd3 303c 170b 11bd 6da7 0ebd
000000c0: cf5a e83d 7028 9d3d b3c2 71be ff9c b93b
000000d0: 130d 82bd 8380 e1bc d8d1 a9bc 78d8 9c3c
000000e0: 08cc 3a3e 785d 1b3d 7ac1 ccbd 3d2d e8bd
000000f0: 559d 2cbd c3b4 413d 41f7 a13c e330 013d
00000100: 77c6 d7bd aedb 9abb 02ff 54bc bc6e 443d
00000110: 279f 25bc 8531 8e3d 322e 183d 74d5 143d
00000120: bef2 93bd d236 e33d 30bc 853d 18d7 fc3c
00000130: 5eec ce3c 111a 553d c25d 1cbe cc29 b9bc
00000140: 7a93 0b3e 1931 0a3e 3555 58bc 4ac9 863c
00000150: caaa 13bd 3080 aebd c915 55bd 9ac9 0dbc
00000160: a6da 0c3d 505b 90ba 3b1a febd 5149 f7bd
00000170: 874d acbd 1ec9 5ebd 7539 453d 032c 3c3d
00000180: 5d51 443d 62d9 c6bd 1ae4 3dbe a618 aabc
00000190: 9981 18bd 8f4d b1bd 76a7 8b3e 321d 5e3d
000001a0: 134e 7cbd d4a3 273e c9bb a5bd 7009 80bd
000001b0: 5042 b63d 2ce7 cabd 13d4 823d 0521 823d
000001c0: 1e3c 52bd 5b02 943c f446 ea3c 7a68 8a3e
000001d0: 97c8 00be fca4 993d d279 35bd 6692 d13c
000001e0: 4b81 3e3d 4f2d 1a3e 4e1b 0b3e a63e 5bbd
000001f0: e2d0 93bd 6192 72bc 3c00 273e 8ffc e3bc
00000200: ce89 1b3d d08b 463b 9646 74bd 12f4 a53c
00000210: a58c ce3d 243a 513c 4ee8 f4bd 9806 73bd
00000220: 5564 163d aa12 8bb9 ca5b d43c 0e9d 9ebc
00000230: 8d96 36bd 921b 2f3c 282a 1fbd ef96 cf3d
00000240: d71b 0b3e 820f 723c 343d 4bbe b477 283c
00000250: 564c a7bb 782e 763d 73b9 76bd 2400 94bd
00000260: 6bb0 d4bc ebb9 59bb 5d28 ef3d af6e 213e
00000270: 2032 44bc 8a8c 1e3d 7c7a 4fbd b96a 063d
00000280: e880 a5bd 8c4c d13c d016 26bc 5db6 173e
00000290: 32d7 033e ed0d 46bc 8cb8 f9bd 6ce3 9fbd
000002a0: c97a cf3c d5d5 7cbd 0635 063a 49a7 183d
000002b0: 4c89 8a3d 74c5 7e3d fd4e e9bd bbe5 b9bd
000002c0: b3c2 eb3d 825b b0bd 8216 5e3d 507e 4a3d
000002d0: 761f 63bc ec06 d7bd 9373 35bb 69e3 c63d
000002e0: 8c91 35bd a6d0 433d 2345 003e 43a8 bfbd
000002f0: 017a b5bd a8b5 0abc 2b94 e1bc b5d9 babd
00000300: 955b 86bd f1b8 58bd c8f5 153e 6850 4c3d
00000310: bfd3 70bd b191 0d3c c4a4 ebbd 7412 043d
00000320: 8c7b 823c 4fc8 1bbb fc8b 7d3d f4ba e53c
00000330: 4361 803d b1b5 ab3d 1f64 203d b118 b1bd
00000340: 2a2f bfbd a2b2 81bd 4119 4e3d 273c 733d
00000350: 08c4 83bd 397b 1fbd 5022 493d 940a ab3d
00000360: e3ca 5ebc 2223 5bbc 9065 793d eba0 643c
00000370: 83b7 b43c e9bf 1fbd 5417 aa3d d7ca 5e3d
00000380: 0290 913d 3597 41bc 2a28 a43c 5b96 8f3b
00000390: 2841 8a3d 98bf dd3c c086 003d fdfc 663c
000003a0: 94b6 f53d 5f40 cd3c 7222 a5bc df07 fb3d
000003b0: a11e 2ebc a8d2 61bc cbaa 9a3d c4d5 fcbd
000003c0: 5e95 56bd 5b6c 42bd b0c6 45bd b62e 333d
000003d0: cc9c 1b3d fd11 64bd 0f8d a6bc 8a29 0abe
000003e0: 6109 833d 042d a7bd 14b7 3cbd b847 80bc
000003f0: bf18 5e3c 97da 63bd 4a5b d03d 8dda 053e

mu.bias f4 [5]
-0.027386058 -0.119496904 -0.031942915 0.057161044 -0.016581673
00000000: ba58 e0bc cbba f4bd 93d6 02bd b321 6a3d
00000010: 4ad6 87bc

log_std.weight f4 [5, 128]
-0.08403821 -0.04409177 -0.061134983 2.3152854e-05 -0.025161643 -0.02112049 -0.00961922 -0.044695154
-0.091931 -0.15069078 0.016178112 -0.023183465 -0.07425225 -0.054771695 -0.054746136 -0.0532275
0.07941742 -0.042472087 -0.020925429 -0.07115824 -0.07661578 -0.018078502 -0.08254868 -0.18307893
-0.1277844 -0.017343849 0.070684366 0.06813812 0.06534631 0.062252022 0.063450284 -0.029375773
0.03134655 0.08446195 -0.024665967 0.08022156 0.07556128 -0.019427478 0.03286962 0.08689869
-0.08241792 -0.039410204 -0.030504301 -0.065667 -0.0027461166 -0.024468027 -0.05133334 0.020087315
0.035001967 0.04618991 0.015289755 0.013263054 0.022507465 0.012957692 -0.022708433 0.03968343
0.00083700847 0.002740777 0.124025986 -0.014178233 -0.005504902 0.029894892 0.024858667 -0.14775777
0.001729276 0.0181957 0.039903324 0.05203091 -0.011233468 -0.073292024 0.07378374 -0.062315896
-0.032847345 0.015219388 0.06760273 0.07017075 0.09091502 -0.083194636 -0.017223788 -0.092357166
-0.04531594 -0.05611742 0.04898519 0.086561196 0.08298802 0.017159047 -0.01777686 -0.06883878
-0.029986195 -0.008744342 -0.030199097 0.054247297 0.1369852 -0.049443513 0.04664882 -0.019827077
0.023920272 0.0062145116 -0.09294756 -0.068048835 0.04606264 -0.049384724 -0.032850068 0.009505224
-0.06925614 0.016577207 0.06390147 -0.0045041037 -0.0631166 0.004379389 0.020636152 -0.055417303
-0.051357895 0.016188348 -0.03469591 -0.013603796 -0.0067388737 -0.046278752 -0.06680709 0.032109883
0.048644952 0.004010598 -0.04501476 -0.088179596 -0.049258947 -0.014502787 -0.056730516 -0.026902512
-0.012529058 -0.0140650775 -0.052285206 0.06915184 -0.07110261 0.07440425 0.099787295 0.003369973
-0.036870178 -0.05415438 0.10382496 0.015828084 0.08783129 0.025137797 0.024141926 0.037452795
0.008832052 -0.040740166 -0.078159206 -0.07771531 -0.060860388 0.1203626 -0.033612628 -0.032961585
-0.0067215837 0.08972889 0.0017467873 -0.06527061 0.013032328 0.03213661 0.032398667 0.09114096
0.057011317 -0.061648227 -0.022842046 0.010939632 0.027618835 0.016893776 -0.02308842 0.08683818
-0.0454234 -0.0011570051 0.06501407 -0.00040753672 0.06215332 0.0526652 -0.08264309 0.02353258
0.10854125 -0.03067648 -0.032416567 0.06391227 0.06876515 0.00010382886 0.03303916 -0.053934585
0.043843545 0.046688624 0.047648035 -0.08966685 -0.018447345 -0.06486672 -0.040207364 -0.098497525
0.002062707 -0.05055034 0.0202884 -0.058603298 0.018079123 0.026260672 -0.07528072 0.053209193
0.05410341 0.032311045 -0.02874261 0.041121967 0.06544902 -0.019590704 0.015351148 -0.09505529
-0.017336305 -0.019059801 -0.044998605 -0.016380241 -0.062070698 0.035118826 0.075753555 0.06285417
-0.0017051764 -0.030423207 0.09027374 0.053962097 -0.047522657 0.036079604 0.072193846 -0.008459265
0.057635333 0.02712707 -0.048904035 -0.05536304 0.08138235 0.07335097 0.005252555 0.011042917
-0.01155524 0.13176589 0.06623935 -0.09580715 -0.01047362 0.08162624 0.050359737 0.009628282
-0.054564614 0.042351197 0.030505894 0.08667882 -0.07056203 0.007490953 -0.06741447 0.060708918
0.076249026 -0.10183193 0.009642725 -0.100835375 -0.10409548 -0.004446646 0.046210553 -0.051940877
00000000: 3a1c acbd 9299 34bd ad68 7abd 6038 c237
00000010: ca1f cebc e104 adbc ef99 1dbc 4412 37bd
00000020: 5246 bcbd af4e 1abe f687 843c 40eb bdbc
00000030: 9011 98bd 4958 60bd 7c3d 60bd 1405 5abd
00000040: 9aa5 a23d 36f7 2dbd ce6b abbc 69bb 91bd
00000050: bce8 9cbd 5e19 94bc 480f a9bd 0b79 3bbe
00000060: ead9 02be b014 8ebc f7c2 903d 008c 8b3d
00000070: 49d4 853d fafb 7e3d 39f2 813d 76a5 f0bc
00000080: 3d65 003d 63fa ac3d 4810 cabc 344b a43d
00000090: dfbf 9a3d 6026 9fbc 4ba2 063d f1f7 b13d
000000a0: baca a8bd 986c 21bd 28e4 f9bc 6c7c 86bd
000000b0: 31f8 33bb 2c71 c8bc e942 52bd 278e a43c
000000c0: 395e 0f3d a231 3d3d e181 7a3c 484d 593c
000000d0: 9361 b83c 804c 543c 0907 babc 188b 223d
000000e0: b06a 5b3a 9c9e 333b 5601 fe3d d24b 68bc
000000f0: 7762 b4bb 22e6 f43c 67a4 cb3c d04d 17be
00000100: e0a8 e23a 260f 953c ab71 233d 5d1e 553d
00000110: 940c 38bc 211a 96bd ee1b 973d f43e 7fbd
00000120: f08a 06bd bd5a 793c 4d73 8a3d afb5 8f3d
00000130: a731 ba3d f361 aabd e718 8dbc c125 bdbd
00000140: 359d 39bd 61db 65bd b2a4 483d ff46 b13d
00000150: 9ff5 a93d 2191 8c3c c7a0 91bc 59fb 8cbd
00000160: 9ca5 f5bc 6e44 0fbc 1964 f7bc 6a32 5e3d
00000170: d945 0c3e 4885 4abd d512 3f3d 656c a2bc
00000180: 72f4 c33c 1aa3 cb3b 4a5b bebd 305d 8bbd
00000190: 2eac 3c3d a347 4abd cb8d 06bd cdbb 1b3c
000001a0: 2ad6 8dbd eccc 873c c6de 823d 2997 93bb
000001b0: 4743 81bd fa80 8f3b 260d a93c 41fd 62bd
000001c0: a85c 52bd 6d9d 843c 4c1d 0ebd 75e2 5ebc
000001d0: c5d1 dcbb ca8e 3dbd 28d2 88bd a785 033d
000001e0: ee3f 473d 566b 833b 6661 38bd 8197 b4bd
000001f0: c0c3 49bd 199d 6dbc 425e 68bd a862 dcbc
00000200: ae46 4dbc 3671 66bc 0329 56bd 7b9f 8d3d
00000210: 3f9e 91bd 4161 983d 485d cc3d c4da 5c3b
00000220: 2f05 17bd fcd0 5dbd 2ea2 d43d e6a9 813c
00000230: e4e0 b33d c8ed cd3c 4ac5 c53c 1a68 193d
00000240: 50b4 103c 29df 26bd ef11 a0bd 3429 9fbd
00000250: be48 79bd ab80 f63d 65ad 09bd ba02 07bd
00000260: bb40 dcbb c8c3 b73d 75f4 e43a 99ac 85bd
00000270: 8c85 553c aea1 033d 77b4 043d 1da8 ba3d
00000280: b384 693d da82 7cbd 3e1f bbbc 243c 333c
00000290: e540 e23c d164 8a3c ed23 bdbc 37d8 b13d
000002a0: e30d 3abd a6a6 97ba 1926 853d a7aa d5b9
000002b0: 7b94 7e3d 77b7 573d c840 a9bd 66c7 c03c
000002c0: e04a de3d 3e4d fbbc 3cc7 04bd 70e4 823d
000002d0: bed4 8c3d b2be d938 1254 073d 83ea 5cbd
000002e0: 4a95 333d 923c 3f3d 962a 433d 41a3 b7bd
000002f0: e31e 97bc d8d8 84bd 7ab0 24bd 12b9 c9bd
00000300: 7b2e 073b e00d 4fbd dc33 a63c 030a 70bd
00000310: ab1a 943c 9f20 d73c c72c 9abd e2f1 593d
00000320: 8a9b 5d3d 9658 043d 9f75 ebbc 826f 283d
00000330: 230a 863d af7c a0bc 6283 7b3c 59ac c2bd
00000340: de04 8ebc 4d23 9cbc 7550 38bd db2f 86bc
00000350: d83d 7ebd c2d8 0f3d ae24 9b3d b0b9 803d
00000360: 3a80 dfba 173a f9bc 70e1 b83d 5c07 5d3d
00000370: 1ea7 42bd 35c8 133d 5eda 933d bb98 0abc
00000380: 0713 6c3d 9739 de3c 994f 48bd 5bc4 62bd
00000390: caab a63d 0939 963d a01d ac3b 5aed 343c
000003a0: 3052 3dbc a3ed 063e 7fa8 873d 8a36 c4bd
000003b0: 8c99 2bbc a82b a73d 0346 4e3d f1bf 1d3c
000003c0: 257f 5fbd 7378 2d3d 7fe7 f93c aa84 b13d
000003d0: d382 90bd ab76 f53b 9910 8abd eaa9 783d
000003e0: 7328 9c3d 428d d0bd 85fc 1d3c c782 cebd
000003f0: 0330 d5bd 2cb5 91bb 4747 3d3d f5bf 54bd

log_std.bias f4 [5]
0.0066256193 0.014243778 -0.04876987 -0.06391426 -0.031443667
00000000: b91b d93b bc5e 693c eac2 47bd 7be5 82bd
00000010: 13cb 00bd
