resource/multi_run_experiment_20250319_111011/run_1/sac_critic_45000.pth (torch, 155391 bytes, 10 tensors)

fc1.weight f4 [128, 17]
0.12725852 0.050792992 0.29597148 -0.019342255 -0.034362663 -0.1757228 0.10650887 -0.0078086494
0.11988221 -0.14281607 -0.12773061 -0.22127669 0.20889986 -0.26088864 -0.28960407 0.09902191
-0.20869158 -0.16195771 0.15925828 0.2598585 0.19824173 0.16551603 0.076079614 -0.24414885
0.07394475 0.2553908 0.3098073 0.15123326 -0.17331144 0.18883161 -0.21611544 0.20292854
-0.32885954 0.12807699 -0.10373173 0.23686501 -0.2401189 0.034728874 0.06859356 0.11734009
0.19403008 -0.17475675 0.2285787 -0.17412935 -0.2057166 0.12045689 -0.009587023 0.033876996
0.22189309 -0.042743586 -0.16930427 -0.25770977 -0.16099514 0.20032926 -0.113233544 -0.33462596
-0.025238149 0.022639185 -0.23155259 -0.14656115 -0.13930357 0.12766482 0.0606262 0.21501587
-0.2561835 0.2570279 -0.14434841 -0.3114162 0.29002628 -0.16645229 -0.31146413 0.08789026
0.09414036 -0.31216982 -0.01958696 0.15140599 -0.086373806 -0.11898946 -0.04970828 0.13661218
-0.13405958 0.10846363 -0.079642326 0.22783071 -0.08320322 -0.13997822 -0.020703115 -0.11990712
0.19704074 -0.2734096 -0.079672165 -0.04479924 0.23589924 -0.11518188 0.29795814 -0.32375437
-0.1990331 -0.1618239 -0.13806917 -0.05666677 -0.31076565 -0.03248166 -0.1894614 -0.25572675
-0.2891469 0.041568656 0.27117538 0.26414436 -0.25730047 -0.15910636 -0.13529855 -0.30309904
-0.104577266 0.17815092 0.20686334 -0.22342946 -0.08942272 -0.18242955 -0.08376118 -0.19500145
0.064816356 0.037148982 -0.020131184 -0.35132715 0.16916388 -0.1617443 0.22589825 0.08161671
-0.17903037 0.0021224497 0.24963796 -0.1287739 0.2056917 -0.2197722 0.049168997 -0.060388245
0.08253581 -0.27152473 -0.022029951 0.24358104 -0.26064247 -0.02356374 0.033097263 0.067301884
0.101560615 0.08299006 -0.29077742 0.21581393 0.008424015 0.19187993 -0.222469 0.17888638
0.054226045 0.02902333 0.007936083 0.25822067 -0.21016522 0.13058126 -0.09476995 0.33779842
-0.26331007 -0.15877682 0.06995055 -0.3040917 0.08286776 -0.05031253 0.12232917 0.22740114
-0.34419718 0.13276483 0.12745054 -0.19568704 -0.25313848 -0.3006997 0.062530965 0.025715064
0.1046945 -0.26066843 0.15288125 -0.012786958 -0.22965682 0.12226175 -0.21490204 -0.26659346
0.058175687 0.0124989515 0.06474152 -0.23665418 0.17930856 0.23381291 0.16696219 0.083097905
0.13796917 0.09515014 -0.0706739 0.19075221 0.12115634 -0.116713464 -0.098522924 -0.019070588
-0.07621979 0.07272304 0.07376508 -0.041409332 0.19419844 0.19692706 -0.117110945 -0.012765406
0.15940914 0.049756736 -0.15437192 0.23378962 0.2258507 -0.19976631 0.27311558 -0.2450107
-0.052725587 -0.14773217 0.18406343 0.149436 -0.18447626 -0.09634986 -0.106000505 -0.07940265
0.1396617 -0.0022735104 -0.2754747 -0.3070047 -0.04953011 0.22998114 -0.02783656 -0.12558277
0.20476083 0.06576069 -0.21427082 -0.02103538 -0.29420012 0.2808053 0.19573542 -0.02969893
-0.1528234 -0.21288824 -0.06316307 -0.15004236 -0.23298676 -0.2500154 -0.062616065 0.18431036
0.09469297 -0.17082547 -0.38014013 -0.40928784 -0.14805777 0.2634342 0.33073854 -0.068697274
00000000: 0f50 023e 500c 503d 9389 973e a673 9ebc
00000010: ddbf 0cbd adf0 33be 5321 da3d b3df ffbb
00000020: ce84 f53d 603e 12be d0cb 02be 5b96 62be
00000030: d8e9 553e 3293 85be fc46 94be 00cc ca3d
00000040: 3fb3 55be 3ed8 25be 9a14 233e 2c0c 853e
00000050: e1ff 4a3e 097d 293e a1cf 9b3d 2802 7abe
00000060: 5870 973d 95c2 823e 109f 9e3e e4dc 1a3e
00000070: 8e78 31be 135d 413e 5e4d 5dbe 80cc 4f3e
00000080: 4760 a8be 9d26 033e 4d71 d4bd be8c 723e
00000090: bbe1 75be dd3f 0e3d c87a 8c3d 0050 f03d
000000a0: d2af 463e 6ff3 32be 8910 6a3e f74e 32be
000000b0: 5fa7 52be 1ab2 f63d e412 1dbc 9bc2 0a3d
000000c0: f137 633e e613 2fbd 195e 2dbe 89f2 83be
000000d0: e9db 24be 1d23 4d3e fde6 e7bd 1854 abbe
000000e0: 3cc0 cebc d075 b93c 1f1c 6dbe 2014 16be
000000f0: 98a5 0ebe 91ba 023e 2e53 783d 1f2d 5c3e
00000100: 7c2a 83be 2999 833e 12d0 13be f271 9fbe
00000110: 537e 943e 7872 2abe 3a78 9fbe cfff b33d
00000120: a9cc c03d b9d4 9fbe d574 a0bc 2c0a 1b3e
00000130: c0e4 b0bd bfb0 f3bd e99a 4bbd 10e4 0b3e
00000140: ea46 09be 2e22 de3d 841b a3bd 744c 693e
00000150: 7366 aabd 7356 0fbe 9499 a9bc dd91 f5bd
00000160: 0cc5 493e 58fc 8bbe 292b a3bd 687f 37bd
00000170: 928f 713e 7ae4 ebbd f88d 983e 22c3 a5be
00000180: 55cf 4bbe 2ab5 25be 0162 0dbe 6a1b 68bd
00000190: ad1c 9fbe 7d0b 05bd 2b02 42be 9eee 82be
000001a0: 100b 94be e543 2a3d 80d7 8a3e ee3d 873e
000001b0: e3bc 83be c7ec 22be b48b 0abe cc2f 9bbe
000001c0: 9b2c d6bd 326d 363e fcd3 533e b1ca 64be
000001d0: 4223 b7bd d0ce 3abe fb8a abbd 76ae 47be
000001e0: 70be 843d 8829 183d 27ea a4bc 27e1 b3be
000001f0: 4c39 2d3e 4ca0 25be df51 673e a926 a73d
00000200: bd53 37be cc18 0b3b 18a1 7f3e 4edd 03be
00000210: d8a0 523e f70b 61be 6e65 493d aa59 77bd
00000220: 8908 a93d 4a05 8bbe 2878 b4bc 4f6d 793e
00000230: ee72 85be bf08 c1bc ff90 073d 92d5 893d
00000240: 03ff cf3d b1f6 a93d c7e0 94be 54fe 5c3e
00000250: e104 0a3c 2c7c 443e eace 63be fe2d 373e
00000260: 211c 5e3d 56c2 ed3c 5806 023c 8035 843e
00000270: 8d35 57be 18b7 053e bf16 c2bd eaf3 ac3e
00000280: 94d0 86be 6496 22be 3c42 8f3d e8b1 9bbe
00000290: 92b6 a93d 8314 4ebd b787 fa3d d8db 683e
000002a0: 9d3a b0be 81f3 073e 6582 023e 2f62 48be
000002b0: 5e9b 81be 50f5 99be 3c10 803d 66a8 d23c
000002c0: 126a d63d 5576 85be e78c 1c3e 6480 51bc
000002d0: 282b 6bbe 5e64 fa3d 480f 5cbe f07e 88be
000002e0: a149 6e3d 67c8 4c3c 3497 843d 7955 72be
000002f0: aa9c 373e a76c 6f3e 23f8 2a3e 3c2f aa3d
00000300: ca47 0d3e 14de c23d 7abd 90bd 8c54 433e
00000310: d120 f83d 7807 efbd 63c6 c9bd ec39 9cbc
00000320: 1f19 9cbd d1ef 943d 2512 973d d59c 29bd
00000330: f5db 463e 3fa7 493e ddd7 efbd fe25 51bc
00000340: 263c 233e b8cd 4b3d ac13 1ebe 8c66 6f3e
00000350: 6845 673e 8a8f 4cbe ced5 8b3e 16e4 7abe
00000360: c9f6 57bd 1a47 17be 207b 3c3e c005 193e
00000370: 58e7 3cbe 1353 c5bd cb16 d9bd db9d a2bd
00000380: 7a03 0f3e 2dff 14bb 050b 8dbe b82f 9dbe
00000390: 16e0 4abd 2d80 6b3e 7f09 e4bc c598 00be
000003a0: d3ac 513e 8aad 863d cf69 5bbe 6452 acbc
000003b0: 66a1 96be b6c5 8f3e de6e 483e 2c4b f3bc
000003c0: bd7d 1cbe 60ff 59be a45b 81bd b4a4 19be
000003d0: 1594 6ebe 0502 80be da3c 80bd dbbb 3c3e
000003e0: 63ee c13d dfec 2ebe baa1 c2be 2d8e d1be
000003f0: 759c 17be d9e0 863e 9056 a93e 28b1 8cbd

fc1.bias f4 [128]
0.27574414 -0.18163228 0.35575858 0.25193352 0.3692394 -0.07168599 0.15738933 0.31265467
0.25212437 -0.12224945 -0.15129346 0.3602008 0.24068281 0.28018293 -0.10346739 0.33328116
0.35247448 0.3663844 0.1199621 0.084325776 0.05124993 0.044422768 -0.2518416 -0.015651874
0.047582544 -0.002187918 -0.074023254 0.091878906 -0.097403936 0.00491948 0.34148374 -0.13902934
0.42779878 0.4260954 0.34113538 0.3503998 -0.116418526 -0.05543166 0.2526216 0.17104216
0.21565418 -0.1479489 -0.20579635 0.49599934 0.28861722 -0.19117336 0.251325 0.26882023
-0.22643194 0.22196162 0.010749634 0.042746753 -0.18670668 0.33376 0.14905617 -0.2663314
0.05183953 0.2682495 0.2556992 -0.1317566 0.3280692 0.03130412 0.3943098 0.45967546
-0.20653655 0.16327742 0.14993139 0.42808738 0.011910584 0.19487317 0.27219695 -0.17358342
0.40624273 0.048067674 0.43874183 -0.18878536 0.12636481 0.46229848 0.29372668 -0.081511244
-0.0741143 -0.16190451 -0.111226335 0.23881845 -0.00085741625 0.28575692 0.24751341 0.38386288
-0.15561646 0.34786054 0.1842942 0.01897078 0.3984076 -0.063644804 -0.1779782 -0.046149302
0.0893254 0.17744943 0.4017291 -0.17422143 0.07782045 0.04242705 0.34100905 -0.085105546
0.06608804 -0.18635602 -0.033097528 0.21750821 0.2967355 0.1074696 0.35685053 -0.061800875
0.3999701 0.33238623 0.040204782 -0.3159839 -0.07233356 0.32459798 -0.047844153 0.35587028
-0.325712 -0.043395255 0.17021626 -0.2910453 -0.021865765 0.04516957 0.3673964 0.13620436
00000000: 562e 8d3e d0fd 39be fd25 b63e 6efd 803e
00000010: f20c bd3e 1bd0 92bd ab2a 213e 4614 a03e
00000020: 7216 813e eb5d fabd acec 1abe 3d6c b83e
00000030: 8e75 763e 2374 8f3e b6e6 d3bd d4a3 aa3e
00000040: 8977 b43e bc96 bb3e b1ae f53d feb2 ac3d
00000050: 72eb 513d a6f4 353d 62f1 80be 5c38 80bc
00000060: eae5 423d 2c63 0fbb 8199 97bd 022b bc3d
00000070: b77b c7bd 9733 a13b f5d6 ae3e b55d 0ebe
00000080: 7108 db3e 2d29 da3e 4ca9 ae3e 9a67 b33e
00000090: d66c eebd 4f0c 63bd 9e57 813e ad25 2f3e
000000a0: 73d4 5c3e eb7f 17be 47bc 52be a0f3 fd3e
000000b0: a3c5 933e f3c2 43be acad 803e cea2 893e
000000c0: c6dd 67be e849 633e 3c1f 303c 3817 2f3d
000000d0: 0930 3fbe 97e2 aa3e 2ea2 183e 975c 88be
000000e0: b055 543d 0058 893e 01eb 823e 34eb 06be
000000f0: b0f8 a73e c038 003d f9e2 c93e 955a eb3e
00000100: 517e 53be 3232 273e 9d87 193e 452e db3e
00000110: 9c24 433c d58c 473e 665d 8b3e dabf 31be
00000120: 0cff cf3e 9ce2 443d c5a2 e03e f350 41be
00000130: c765 013e 63b2 ec3e 5863 963e 5eef a6bd
00000140: 3dc9 97bd 4cca 25be a2ca e3bd d38c 743e
00000150: 3bc4 60ba bb4e 923e 2874 7d3e ad89 c43e
00000160: ec59 1fbe c71a b23e 9eb7 3c3e 9c68 9b3c
00000170: 15fc cb3e 3558 82bd eb3f 36be 0d07 3dbd
00000180: 3cf0 b63d 4eb5 353e 70af cd3e 1a67 32be
00000190: 5460 9f3d fdc7 2d3d bd98 ae3e d14b aebd
000001a0: 2b59 873d 1dd4 3ebe 4691 07bd 79ba 5e3e
000001b0: b7ed 973e 0619 dc3d 1db5 b63e ea22 7dbd
000001c0: e2c8 cc3e 872e aa3e c5ad 243d a4c8 a1be
000001d0: 9e23 94bd b531 a63e 3bf8 43bd a134 b63e
000001e0: b9c3 a6be 39bf 31bd 2c4d 2e3e e403 95be
000001f0: d51f b3bc ba03 393d 621b bc3e 2879 0b3e

fc2.weight f4 [128, 128]
0.16020615 0.048062712 0.05618605 0.22113647 0.1048506 -0.09704788 0.12785898 0.14117904
0.14356466 -0.12691723 -0.21146634 0.18058702 -0.026100667 0.068846874 0.24631305 0.2978429
0.22261794 0.2053747 0.14386818 0.14216591 0.09838886 -0.1633068 -0.20998038 0.16585723
-0.06306486 -0.0052458835 -0.124012865 0.046219684 0.19550797 0.0712521 0.15451351 0.08657443
0.180993 0.1327931 0.19221395 0.22100507 -0.16009718 -0.20435469 0.14135775 0.23192167
0.12420647 -0.12078956 -0.13883248 0.26192784 0.2077156 -0.07112769 0.13870937 0.16609983
-0.11051137 0.14214338 -0.07525837 -0.22310963 0.09295266 0.20115992 0.14286184 -0.16285846
0.109804325 0.2947187 0.13394879 -0.12892012 0.0951504 0.042412423 0.066553585 0.20377845
-0.1797612 0.16763465 0.19369921 0.11347211 -0.015379274 0.07785774 0.044899136 -0.057975076
0.10339341 0.043882042 0.27478212 -0.19182551 0.07114109 0.11058265 0.23096853 -0.07818639
-0.07192699 -0.1637182 -0.1699495 0.1640973 -0.16324155 0.18107328 0.099312335 0.21093145
-0.07321786 0.008118848 0.11859784 0.09107387 0.13166948 -0.12113915 0.06279885 0.2064981
0.21606381 0.158274 0.10462422 -0.11702055 0.1447034 -0.16280974 0.25218377 0.07363955
0.09738956 0.21377753 0.055828873 0.11185569 0.09323116 0.18559673 0.19662978 -0.039294623
0.097976245 0.0085670445 -0.23123273 -0.10324192 -0.041067027 -0.014554109 0.14255077 0.15116906
-0.16146618 -0.1253471 0.19820979 -0.18840045 0.13785863 0.07496325 0.09449226 0.11403406
0.17239596 0.10873949 0.11569475 0.287206 0.17087106 -0.17397699 0.14132461 0.21904144
0.11351141 -0.13824758 -0.058930814 0.106952794 0.078231126 0.17384887 0.2731369 0.14128807
0.14043757 0.14867316 0.10081973 0.09167912 0.10131613 -0.121973455 -0.087042965 0.14449121
-0.0540927 0.041987643 -0.08568404 0.14958988 0.12758845 0.082898825 0.050640877 -0.009576199
0.20627359 0.13862926 0.091394074 0.16488793 -0.04278315 -0.17207837 0.22051355 0.20878789
0.13316761 -0.058034442 -0.12205431 0.22574393 0.2838994 -0.14972761 0.19061232 0.10026015
-0.08743215 -0.010941288 -0.09781091 -0.0671703 0.0039873086 0.2111971 -0.017089043 0.0044591483
0.2033468 0.2680059 0.0947255 -0.14978717 0.08218365 0.18262117 0.15540117 0.27999565
-0.13977824 0.121474914 0.10792208 0.114698164 0.09774053 0.1266634 0.13486804 -0.08667474
0.16019379 0.10058991 0.16349842 -0.25383067 0.20594198 0.09685648 0.072220206 -0.054278772
0.013288214 -0.037887942 -0.095025286 0.13906786 -0.14192045 0.13882647 0.15019406 0.055354964
-0.17942026 0.026706595 0.18892156 0.08793827 0.035918225 -0.13517514 0.038167674 0.18143563
0.109343074 0.035343572 0.114810295 -0.12135631 0.08660003 -0.08501165 0.10245385 -0.00819654
0.11289501 0.1293311 0.046068236 0.07782117 0.013719614 0.16837385 0.08168641 0.059289448
0.15490092 0.09687002 -0.19597705 -0.14872523 -0.013315527 -0.003345346 0.07083307 0.03067689
-0.28172657 -0.12072965 0.19580115 -0.17458652 0.20404825 0.064573966 0.077188015 0.06419538
00000000: 150d 243e 68dd 443d 5823 663d 9971 623e
00000010: e9bb d63d 0ac1 c6bd 77ed 023e 3d91 103e
00000020: 9d02 133e 97f6 01be a28a 58be ceeb 383e
00000030: 11d1 d5bc 97ff 8c3d 7d39 7c3e dd7e 983e
00000040: f5f5 633e bf4d 523e 2e52 133e f193 113e
00000050: 1980 c93d e639 27be 1905 57be 7ad6 293e
00000060: 2628 81bd a9e5 abbb 75fa fdbd da50 3d3d
00000070: 3e33 483e 9fec 913d ca38 1e3e ef4d b13d
00000080: 3b56 393e eafa 073e bcd3 443e 274f 623e
00000090: 84f0 23be 5b42 51be 16c0 103e e07c 6d3e
000000a0: f65f fe3d 8460 f7bd 1a2a 0ebe 681b 863e
000000b0: 66b3 543e 65ab 91bd d409 0e3e 1316 2a3e
000000c0: c953 e2bd 098e 113e 0f21 9abd da76 64be
000000d0: f75d be3d defc 4d3e 604a 123e 5ec4 26be
000000e0: 17e1 e03d 5fe5 963e df29 093e a303 04be
000000f0: 37de c23d a6b8 2d3d 3f4d 883d 4cab 503e
00000100: 5213 38be 6ba8 2b3e 1659 463e 1164 e83d
00000110: 5af9 7bbc e173 9f3d 28e8 373d 4677 6dbd
00000120: edbf d33d a8bd 333d 3eb0 8c3e e86d 44be
00000130: 6bb2 913d 2879 e23d 0483 6c3e 3020 a0bd
00000140: 754e 93bd bea5 27be 3e07 2ebe 1f09 283e
00000150: cb28 27be 466b 393e 4464 cb3d 6afe 573e
00000160: 3ff3 95bd eb04 053c 6de3 f23d f084 ba3d
00000170: 5dd4 063e cd17 f8bd af9c 803d 3d74 533e
00000180: d53f 5d3e 9412 223e 3945 d63d 78a8 efbd
00000190: 212d 143e 99b7 26be 3b1e 813e 55d0 963d
000001a0: 2d74 c73d 7fe8 5a3e d1ac 643d 9914 e53d
000001b0: faef be3d 120d 3e3e 5159 493e 66f3 20bd
000001c0: c5a7 c83d ca5c 0c3c 46c8 6cbe 8070 d3bd
000001d0: e635 28bd 5c74 6ebc d4f8 113e 10cc 1a3e
000001e0: 6457 25be fd5a 00be 82f7 4a3e 0cec 40be
000001f0: d02a 0d3e 5586 993d 2885 c13d b08a e93d
00000200: 9188 303e cfb2 de3d 5ef1 ec3d aa0c 933e
00000210: d3f8 2e3e 0627 32be 66b7 103e 664c 603e
00000220: ac78 e83d c690 0dbe 7061 71bd 110a db3d
00000230: a437 a03d 7005 323e 9ad8 8b3e d2ad 103e
00000240: dece 0f3e c73d 183e 937a ce3d 43c2 bb3d
00000250: d57e cf3d 38cd f9bd 9543 b2bd 81f5 133e
00000260: 4f90 5dbd 3cfb 2b3d 1d7b afbd 172e 193e
00000270: 8ca6 023e dcc6 a93d cf6c 4f3d 7de5 1cbc
00000280: 6239 533e d4f4 0d3e d12c bb3d 62d8 283e
00000290: 623d 2fbd 5035 30be 4ece 613e 7ecc 553e
000002a0: 175d 083e 86b5 6dbd 9cf7 f9bd 6b29 673e
000002b0: 435b 913e 3252 19be e02f 433e 3255 cd3d
000002c0: a10f b3bd 1743 33bc 1651 c8bd 9590 89bd
000002d0: f8a7 823b 0d44 583e 52fe 8bbc 0c1e 923b
000002e0: 253a 503e 1238 893e 71ff c13d cf61 19be
000002f0: e74f a83d 0b01 3b3e 7c21 1f3e 975b 8f3e
00000300: 0722 0fbe d7c7 f83d 4006 dd3d dfe6 ea3d
00000310: 302c c83d 0db4 013e d91a 0a3e 8782 b1bd
00000320: d709 243e 1502 ce3d 216c 273e 18f6 81be
00000330: 74e2 523e b15c c63d 30e8 933d 6b53 5ebd
00000340: cfb6 593c 6330 1bbd 9e9c c2bd ce67 0e3e
00000350: 9853 11be 8728 0e3e 79cc 193e e3bb 623d
00000360: f2b9 37be cac7 da3c a774 413e fb18 b43d
00000370: fd1e 133d 5a6b 0abe b555 1c3d 43ca 393e
00000380: 43ef df3d 6cc4 103d a921 eb3d a889 f8bd
00000390: 5b5b b13d 971a aebd 53d3 d13d c84a 06bc
000003a0: 8035 e73d 5f6f 043e 0cb2 3c3d b560 9f3d
000003b0: 3bc8 603c 326a 2c3e 344b a73d 7ed9 723d
000003c0: 599e 1e3e ca63 c63d 35ae 48be 6d4b 18be
000003d0: 5e29 5abc 983d 5bbb ee10 913d 1a4e fb3c
000003e0: 773e 90be 1b41 f7bd 1980 483e cfc6 32be
000003f0: 06f2 503e 5b3f 843d c014 9e3d de78 833d

fc2.bias f4 [128]
0.2813388 0.21178964 0.18683578 0.14269356 0.04450583 0.1021785 0.22291376 0.14528875
0.09278767 0.111153506 0.123556845 0.14559293 0.14066912 0.16891073 0.14848363 0.1970279
0.23278716 0.25135264 -0.014604795 0.15671434 0.116074465 -0.11765274 0.1753492 0.09659501
0.13758282 -0.06743416 0.0034002275 0.02565832 -0.059788108 0.052240565 -0.11140404 0.0015387274
0.13849992 -0.05196452 0.20181482 0.1084714 -0.05957079 0.22445877 0.07058638 0.18211627
0.12757778 0.27578714 -0.07040983 0.06802197 -0.088956 0.23228642 0.14587648 0.24466527
0.20434766 0.21173094 0.15317437 0.08681604 -0.0217605 -0.004270164 0.093682796 0.0630317
0.117184535 0.21801308 0.20209631 0.20404832 0.017515361 0.20354103 0.21434587 0.031204654
0.22830223 -0.08462908 0.15700349 0.019112397 -0.08065328 -0.057257127 0.16480482 -0.029024357
0.1681 0.20377758 -0.054604944 0.08463909 0.18434241 0.14161618 -0.006302515 0.1326167
0.178661 -0.055371165 0.048579182 0.14808588 0.20301986 -0.005623648 0.061354324 -0.02784995
0.15184309 0.09654976 0.034405455 0.22376281 -0.08055127 0.12306804 -0.042479433 0.092529185
0.15702425 -0.08971138 0.19294518 0.21150811 0.25458544 0.092280656 -0.10752593 0.057494633
0.0053839684 0.11561594 0.019877458 0.07647686 0.2444747 0.05347371 0.10266531 -0.04504158
0.17650183 0.059509706 0.13827956 0.14900959 -0.008190636 -0.03346893 -0.10391213 -0.12379736
0.110750414 0.08738289 0.11743042 -0.09396394 -0.059973568 0.19064961 0.16233274 0.060189214
00000000: a40b 903e 62df 583e e151 3f3e 431e 123e
00000010: bf4b 363d f642 d13d 8143 643e 93c6 143e
00000020: 7607 be3d 73a4 e33d 5f0b fd3d 5016 153e
00000030: 910b 103e eff6 2c3e 180c 183e afc1 493e
00000040: c25f 6e3e 4bb1 803e f348 6fbc b979 203e
00000050: 73b8 ed3d ebf3 f0bd be8e 333e 9bd3 c53d
00000060: 83e2 0c3e ec1a 8abd 5ad6 5e3b 6631 d23c
00000070: 60e4 74bd 34fa 553d cd27 e4bd 20af c93a
00000080: ecd2 0d3e c0d8 54bd 8ba8 4e3e 4126 de3d
00000090: 8000 74bd 85d8 653e 988f 903d b07c 3a3e
000000a0: c0a3 023e f933 8d3e 0733 90bd 1a4f 8b3d
000000b0: 902e b6bd 7edc 6d3e a560 153e 8889 7a3e
000000c0: 8340 513e ffcf 583e bed9 1c3e 9ccc b13d
000000d0: 1343 b2bc bbec 8bbb c4dc bf3d c416 813d
000000e0: 72fe ef3d d23e 5f3e 56f2 4e3e 0bf2 503e
000000f0: 607c 8f3c 0f6d 503e 7c7d 5b3e e7a0 ff3c
00000100: 0fc8 693e 0352 adbd 86c5 203e 9a91 9c3c
00000110: 8c2d a5bd 7386 6abd 98c2 283e 7dc4 edbc
00000120: 6822 2c3e 12ab 503e 6fa9 5fbd 4257 ad3d
00000130: 42c4 3c3e d503 113e 5485 cebb accc 073e
00000140: e9f2 363e e0cc 62bd f7fa 463d d3a3 173e
00000150: 70e4 4f3e 9446 b8bb ac4e 7b3d 9425 e4bc
00000160: c17c 1b3e e1bb c53d bcec 0c3d 1422 653e
00000170: 10f8 a4bd 190b fc3d eafe 2dbd f17f bd3d
00000180: f7ca 203e 9aba b7bd 6c93 453e 9595 583e
00000190: 0659 823e a4fd bc3d 8e36 dcbd 7e7f 6b3d
000001a0: 006c b03b 0dc8 ec3d 0dd6 a23c e69f 9c3d
000001b0: 9357 7a3e 4007 5b3d 3142 d23d 857d 38bd
000001c0: e5bc 343e 73c0 733d 2899 0d3e f895 183e
000001d0: 0432 06bc b716 09bd e2cf d4bd 7889 fdbd
000001e0: 1dd1 e23d cdf5 b23d 5c7f f03d 2b70 c0bd
000001f0: d8a6 75bd a739 433e 8e3a 263e f788 763d

q1.weight f4 [1, 128]
0.2193377 0.20532708 0.23177314 0.17196742 -0.9117669 0.30771464 0.18313883 0.24975243
0.18851328 0.24867615 0.24622026 0.3296411 0.2533679 0.1871272 0.20322895 0.21030572
0.18916552 0.19083874 -0.38360924 0.1931278 0.23099056 -0.92816585 0.15480682 0.25809327
0.2053107 -0.69461125 -0.8172368 -0.99850667 -0.31158683 -0.5373149 -0.6226482 -1.1859096
0.24135748 -0.014057897 0.3023251 0.17037494 -0.98737293 0.20769607 0.24319942 0.24617954
0.16816427 0.17597082 -0.8889759 0.21536018 -0.5453455 0.2021106 0.19041617 0.20507737
0.18907413 0.22029544 0.22627948 0.19816694 -0.04680491 -0.91442066 0.19592248 0.16551863
0.16327263 0.31673634 0.1874434 0.25759813 -0.8899747 0.21792859 0.26061484 -0.7509765
0.2416928 -0.5875433 0.17160977 -0.42278576 -0.057564348 -0.5649082 0.15245174 -0.41001466
0.23596701 0.21719164 -0.048248574 0.2129333 0.23988411 0.2612058 -0.6116486 0.27612206
0.16174099 -0.818257 -0.9112418 0.18169722 0.26219693 -0.69548565 -0.6568002 -0.50381196
0.23328876 0.21610995 -0.8242666 0.26042697 -0.7188941 0.19961254 0.8064504 0.19587778
0.24479114 -0.51272887 0.23931241 0.2732367 0.2721348 0.1623816 -0.2625933 -1.0534829
0.059790112 0.21934432 -1.0201327 -0.049713753 0.2506409 -1.208428 0.21978879 -0.5503801
0.21327545 -0.341053 0.2454125 0.21141805 -0.38958782 -0.82783026 -0.5763346 -0.50409853
0.24971937 0.21824479 0.24204503 -0.043528058 -0.5202472 0.22971801 0.2252837 -0.47388956
00000000: 109a 603e 4341 523e f055 6d3e 3a18 303e
00000010: 8e69 69bf c68c 9d3e bf88 3b3e 1abf 7f3e
00000020: a009 413e f6a4 7e3e 2a21 7c3e b8c6 a83e
00000030: 70b9 813e 469e 3f3e 401b 503e 625a 573e
00000040: 9bb4 413e 3b6b 433e 6e68 c4be 4bc3 453e
00000050: ca88 6c3e 479c 6dbf ae85 1e3e cd24 843e
00000060: f83c 523e 0bd2 31bf 6e36 51bf 229e 7fbf
00000070: 4f88 9fbe 788d 09bf df65 1fbf e3cb 97bf
00000080: 6a26 773e 1853 66bc 5bca 9a3e c576 2e3e
00000090: 79c4 7cbf 47ae 543e 4509 793e 7d16 7c3e
000000a0: 4133 2c3e b231 343e ed93 63bf 6187 5c3e
000000b0: c39b 0bbf 15f6 4e3e 75fc 423e cdff 513e
000000c0: a69c 413e 2195 613e cfb5 673e 46ec 4a3e
000000d0: 81b6 3fbd 7917 6abf e79f 483e b77d 293e
000000e0: f130 273e 442b a23e 2af1 3f3e e7e3 833e
000000f0: 62d5 63bf ac28 5f3e 4f6f 853e ff3f 40bf
00000100: 517e 773e 3d69 16bf 79ba 2f3e 6077 d8be
00000110: 98c8 6bbd d39d 10bf 4f1c 1c3e 71ed d1be
00000120: 56a1 713e 7c67 5e3e 4ca0 45bd 300b 5a3e
00000130: 2ea4 753e c4bc 853e 0195 1cbf df5f 8d3e
00000140: 6e9f 253e 4a79 51bf 2547 69bf d60e 3a3e
00000150: ad3e 863e 590b 32bf 0f24 28bf d2f9 00bf
00000160: 40e3 6e3e ed4b 5d3e 2303 53bf af56 853e
00000170: 7209 38bf 3b67 4c3e 8973 4e3f 2f94 483e
00000180: 87aa 7a3e 3342 03bf 500e 753e aee5 8b3e
00000190: 4155 8b3e 5d47 263e a172 86be 87d8 86bf
000001a0: 7ae6 743d cc9b 603e b593 82bf a6a0 4bbd
000001b0: 0154 803e c5ad 9abf 5010 613e b6e5 0cbf
000001c0: e164 5a3e 809e aebe 6a4d 7b3e f97d 583e
000001d0: 0e78 c7be afec 53bf aa8a 13bf 9a0c 01bf
000001e0: 6fb6 7f3e 907b 5f3e a7da 773e 7a4a 32bd
000001f0: ec2e 05bf 333b 6b3e c5b0 663e a7a1 f2be

fc3.weight f4 [128, 17]
0.17305964 -0.2699696 -0.060174026 0.11098044 -0.0764098 -0.08653958 -0.3401175 -0.1605165
0.028246418 0.30895093 -0.074802905 0.28776965 -0.042288605 -0.09374202 -0.011401539 -0.09187334
0.26226062 -0.053786248 -0.12348233 0.1874668 0.20778017 -0.17682748 0.07349202 0.078136034
0.051550698 -0.1617738 -0.113021754 0.05461188 -0.18589209 0.26675534 -0.43024358 -0.1645433
0.01616787 -0.06803798 0.11171272 -0.13770576 0.25227326 -0.16838108 0.24855825 -0.2985325
0.21632919 -0.21673913 -0.27563375 -0.26325163 -0.15415429 0.091746904 -0.26266092 0.28839168
0.19299786 0.04533349 0.26692227 0.11560364 0.038104642 -0.2212441 0.07447072 -0.08985133
-0.0063961395 0.043341152 0.12235758 0.22711504 0.27123988 -0.2212094 -0.14427656 -0.095569
0.32263923 -0.033894558 -0.10466611 0.2367481 0.12962168 0.10277548 -0.2416156 0.1362464
-0.058788758 0.28824255 0.12496798 0.18130916 -0.22873771 0.015108481 -0.066219345 -0.2766733
0.37432083 0.4142575 0.23215893 0.059593987 0.16276938 -0.07420987 0.24332274 0.14305751
0.09506731 -0.12966633 0.252009 -0.25984174 -0.19953877 -0.033289112 0.32634178 0.12316209
-0.19998893 0.13559814 0.34877333 -0.106220044 0.16813563 0.12632345 -0.290655 0.30099964
0.1323143 0.06395723 -0.045939934 0.1000956 0.112101845 -0.24135192 -0.11102921 0.12714909
-0.0059335087 0.18901744 -0.3346255 0.15722194 0.34760442 -0.38239574 -0.002191188 -0.18219046
0.079093896 -0.30596337 0.22089091 -0.099467866 0.025798565 -0.13869186 0.33854812 0.013745068
-0.22294892 0.050084844 0.06416276 -0.25206923 0.34925684 -0.16222255 0.09950038 -0.3521549
-0.10064073 0.16753343 0.1364573 -0.0779237 0.24412039 -0.10356952 0.21171057 0.099686034
0.12425173 -0.103450865 -0.18361057 -0.10210803 0.074457064 -0.17937961 0.1561395 -0.11806844
-0.20122457 0.0787457 -0.16286263 0.3188479 0.15730152 0.012486666 -0.23013677 -0.009092905
-0.16577663 0.25311524 -0.22365779 -0.09702546 0.19979241 -0.21414061 0.056930825 0.3522592
-0.06329776 0.2902895 0.2978159 -0.18711023 0.11268649 0.01689443 0.19669345 0.11780639
-0.3520705 -0.16878958 -0.14988807 -0.3514983 -0.020675508 -0.1527262 0.18654881 -0.21079698
-0.1389489 0.17868628 0.04229416 0.08314199 0.022813916 0.044169854 0.1933918 -0.15682806
0.1723368 -0.27952743 -0.044563916 -0.06220083 0.12142393 0.26566932 -0.054879546 -0.13384978
-0.17503086 0.29560673 0.1445575 -0.23178634 0.21753961 0.17926253 -0.064699695 -0.04664694
-0.07191966 -0.13115564 0.13580658 0.20795621 -0.14335328 -0.015140679 -0.22033666 0.23466018
0.28115442 -0.13579507 -0.27394626 -0.14743903 0.03384932 0.24637863 -0.08386359 -0.08179902
-0.15007819 0.05535126 0.036965374 -0.45937064 0.23317088 -0.0004513263 -0.16617335 0.32487938
-0.10970567 -0.07578218 0.46055514 -0.13780732 0.23032528 -0.18263507 0.03791132 0.07792889
-0.023779383 0.07176085 0.09151906 0.22063258 0.041107535 0.21031125 0.15110986 -0.21770442
-0.17577426 0.06280097 0.22285457 0.04100648 -0.29042208 -0.11183029 -0.08046869 -0.13915132
00000000: 8c36 313e 7539 8abe 0a79 76bd b749 e33d
00000010: be7c 9cbd aa3b b1bd e223 aebe 705e 24be
00000020: 0865 e73c d12e 9e3e 4432 99bd 8b56 933e
00000030: d136 2dbd d1fb bfbd 85cd 3abc 1728 bcbd
00000040: 0647 863e f84e 5cbd 4ee4 fcbd 4cf7 3f3e
00000050: 53c4 543e 4312 35be fc82 963d c905 a03d
00000060: d326 533d 08a8 25be f377 e7bd b5b0 5f3d
00000070: 7f5a 3ebe 2894 883e e348 dcbe 0a7e 28be
00000080: 7b72 843c 7f57 8bbd a3c9 e43d bd02 0dbe
00000090: f629 813e 176c 2cbe 0e86 7e3e 40d9 98be
000000a0: 6685 5d3e ddf0 5dbe de1f 8dbe ebc8 86be
000000b0: 9fda 1dbe cde5 bb3d 7e7b 86be 13a8 933e
000000c0: 3ba1 453e 9caf 393d 09aa 883e 9ac1 ec3d
000000d0: 9d13 1c3d d08d 62be 1b84 983d f903 b8bd
000000e0: b596 d1bb 7e86 313d 9c96 fa3d d890 683e
000000f0: f4df 8a3e b884 62be 3cbd 13be aeb9 c3bd
00000100: f830 a53e 05d5 0abd 2f5b d6bd 186e 723e
00000110: 8cbb 043e f37b d23d 146a 77be 2d84 0b3e
00000120: 7bcc 70bd 8794 933e 36ef ff3d 1ca9 393e
00000130: 383a 6abe 9089 773c 029e 87bd 1fa8 8dbe
00000140: fba6 bf3e 8f19 d43e 12bb 6d3e d318 743d
00000150: 04ad 263e 58fb 97bd 9929 793e ab7d 123e
00000160: a6b2 c23d 40c7 04be 5307 813e fa09 85be
00000170: e453 4cbe 2a5a 08bd 4516 a73e 683c fc3d
00000180: e6c9 4cbe 3dda 0a3e 6b92 b23e e589 d9bd
00000190: bf2b 2c3e ef5a 013e bbd0 94be a01c 9a3e
000001a0: 667d 073e 02fc 823d 832b 3cbd ecfe cc3d
000001b0: a795 e53d f524 77be 4863 e3bd 5f33 023e
000001c0: e16d c2bb ca8d 413e 0954 abbe cafe 203e
000001d0: 35f9 b13e 60c9 c3be 099a 0fbb 2390 3abe
000001e0: fbfb a13d 3ba7 9cbe 3a31 623e cfb5 cbbd
000001f0: 8357 d33c 3d05 0ebe 2e56 ad3e fe32 613c
00000200: b94c 64be c425 4d3d c467 833d 380f 81be
00000210: cbd1 b23e ab1d 26be dbc6 cb3d a64d b4be
00000220: ba1c cebd e28d 2b3e 76bb 0b3e 7696 9fbd
00000230: b2fa 793e 421c d4bd a8ca 583e 3128 cc3d
00000240: b177 fe3d 0cde d3bd 6904 3cbe 041e d1bd
00000250: f27c 983d 4aaf 37be 08e3 1f3e decd f1bd
00000260: d00d 4ebe 6d45 a13d 76c5 26be 0840 a33e
00000270: a613 213e e094 4c3c f9a8 6bbe 68fa 14bc
00000280: 59c1 29be 5298 813e 8c06 65be 49b5 c6bd
00000290: 6296 4c3e ad47 5bbe 4c30 693d 515b b43e
000002a0: 42a2 81bd d3a0 943e 537b 983e d399 3fbe
000002b0: 2dc8 e63d 3066 8a3c 026a 493e 7a44 f13d
000002c0: 9642 b4be 2dd7 2cbe 427c 19be 96f7 b3be
000002d0: af5f a9bc 4264 1cbe a706 3f3e 2adb 57be
000002e0: 9f48 0ebe 89f9 363e a43c 2d3d 5946 aa3d
000002f0: 40e4 ba3c 73eb 343d 8008 463e 8997 20be
00000300: 0f79 303e 381e 8fbe a788 36bd 4cc6 7ebd
00000310: 1cad f83d cf05 883e 60c9 60bd eb0f 09be
00000320: 4a3b 33be c459 973e e206 143e 6659 6dbe
00000330: b4c2 5e3e 9990 373e 4681 84bd dd10 3fbd
00000340: 9d4a 93bd aa4d 06be e110 0b3e 79f2 543e
00000350: 34cb 12be 9c10 78bc ef9f 61be c24a 703e
00000360: 79f3 8f3e dd0d 0bbe af42 8cbe 42fa 16be
00000370: 96a5 0a3d ae4a 7c3e adc0 abbd 3f86 a7bd
00000380: 19ae 19be 01b8 623d 0169 173d a132 ebbe
00000390: 59c4 6e3e fe9f ecb9 5929 2abe 9756 a63e
000003a0: 5ead e0bd b033 9bbd e2cd eb3e 5d1d 0dbe
000003b0: 64da 6b3e b004 3bbe e648 1b3d 2f99 9f3d
000003c0: fbcc c2bc 5af7 923d 586e bb3d 82ed 613e
000003d0: 6060 283d d55b 573e 8bbc 1a3e e8ed 5ebe
000003e0: 2bfe 33be cc9d 803d fd33 643e 69f6 273d
000003f0: 34b2 94be 4707 e5bd c5cc a4bd af7d 0ebe

fc3.bias f4 [128]
0.28113955 0.3584346 0.3406024 0.27454725 0.2698722 -0.21389933 -0.16817339 0.0645479
0.4550932 -0.0153961275 0.25640723 0.43753245 0.36308232 0.16290167 0.31770796 0.12631503
-0.2810412 -0.2747061 0.28970438 0.31979027 0.35672978 0.35797006 0.3707718 -0.08441868
-0.11563089 0.28070894 -0.0802282 0.1289431 -0.03346574 -0.14452003 0.43699744 0.43057624
-0.18854202 -0.22009243 0.2142654 0.31557748 -0.02761804 0.24900195 -0.012516334 0.11878737
-0.24076153 -0.19984204 -0.2801944 0.022907017 -0.14934582 0.19888261 0.32287088 -0.19737884
0.15401796 -0.13551609 0.40332013 -0.22596359 0.2904547 0.26448444 0.09393234 0.31270593
0.43563178 -0.20757678 0.262625 0.4092335 0.37721226 0.2158886 0.38930652 -0.06709438
-0.21867107 0.46649376 -0.16762531 0.14317836 0.346764 0.2862851 -0.013777414 0.30431828
0.3299071 0.12597832 -0.14282636 0.4216769 0.35405982 0.12457399 0.17005244 0.2789358
-0.08989111 0.2047696 0.015524327 0.2103902 0.40802014 0.4339372 -0.118520424 0.029886605
-0.058690898 0.059059188 -0.15477921 0.31242543 0.37818432 -0.1367634 0.24531612 0.25717345
0.379786 0.31783006 0.10937525 -0.04073593 -0.14894852 0.29792854 -0.22502013 -0.06091391
0.18885154 -0.16277428 0.22054584 0.3851466 0.3260852 0.11470032 -0.25311315 0.28172266
0.3255625 -0.04920725 0.42872772 -0.21878347 0.06708858 0.36627612 -0.08714119 -0.06615692
0.3250748 0.36479 0.3698598 0.4214755 0.39313436 -0.112637565 0.12237423 0.26347542
00000000: 86f1 8f3e bd84 b73e 7063 ae3e 7591 8c3e
00000010: b02c 8a3e 6d08 5bbe a535 2cbe b031 843d
00000020: fa01 e93e 0a40 7cbc cf47 833e 4104 e03e
00000030: ede5 b93e b2cf 263e 9eaa a23e ba58 013e
00000040: a2e4 8fbe 47a6 8cbe 2254 943e 8dbb a33e
00000050: 49a5 b63e da47 b73e cdd5 bd3e b3e3 acbd
00000060: e3cf ecbd 15b9 8f3e af4e a4bd a909 043e
00000070: 5f13 09bd 0ffd 13be 21be df3e 7d74 dc3e
00000080: 2911 41be e95f 61be 6468 5b3e 5f93 a13e
00000090: 3a3f e2bc 5efa 7e3e 4f11 4dbc cb46 f33d
000000a0: 318a 76be 64a3 4cbe a475 8fbe 7fa7 bb3c
000000b0: 1cee 18be e2a7 4b3e 554f a53e ae1d 4abe
000000c0: e2b6 1d3e bbc4 0abe fa7f ce3e 0063 67be
000000d0: 7ab6 943e 816a 873e 995f c03d fe1a a03e
000000e0: 210b df3e 028f 54be c976 863e 0e87 d13e
000000f0: f721 c13e e711 5d3e 2f53 c73e c768 89bd
00000100: 4feb 5fbe 45d8 ee3e f8a5 2bbe 599d 123e
00000110: 0d8b b13e f693 923e aaba 61bc 9bcf 9b3e
00000120: 95e9 a83e 7600 013e 1341 12be 09e6 d73e
00000130: 5447 b53e a620 ff3d 3a22 2e3e acd0 8e3e
00000140: d518 b8bd 1faf 513e bf59 7e3c 8770 573e
00000150: 04e8 d03e 042d de3e d6ba f2bd c1d4 f43c
00000160: de65 70bd 0ce8 713d 717e 1ebe 3af6 9f3e
00000170: 60a1 c13e b40b 0cbe 2634 7b3e 3dac 833e
00000180: 5073 c23e 9fba a23e 2200 e03d b8da 26bd
00000190: f685 18be 178a 983e ad6b 66be dd80 79bd
000001a0: 4c62 413e 4dae 26be c5d6 613e ef31 c53e
000001b0: a4f4 a63e 00e8 ea3d 0c98 81be f43d 903e
000001c0: 21b0 a63e 8b8d 49bd 3382 db3e c608 60be
000001d0: bd65 893d 8b88 bb3e 1577 b2bd 477d 87bd
000001e0: 3470 a63e c1c5 ba3e 445e bd3e a3cb d73e
000001f0: e848 c93e 86ae e6bd 579f fa3d 40e6 863e

fc4.weight f4 [128, 128]
-0.010807806 -0.054745156 0.048506316 -0.08498989 -0.032465138 -0.2738616 -0.25435796 -0.3820368
0.05292204 0.14482446 0.08455934 0.14436553 -0.09919673 -0.069319665 -0.10998277 -0.14097817
0.15188599 -0.109985955 -0.04204067 0.2030156 -0.00027409778 -0.25408006 -0.044475976 0.25442278
0.077287 0.020058835 -0.16390224 0.017402478 0.0059151086 -0.045436032 0.11838067 -0.018379724
-0.041975692 0.2779879 -0.116167 0.0881833 0.47055456 0.18006997 -0.15550417 -0.11145136
0.118373744 -0.120005414 0.18845436 0.1717518 0.13309684 -0.13830714 0.053213708 0.17613499
-0.0807552 0.015513878 -0.15127078 0.31772014 -0.21412514 -0.03883378 -0.2850256 -0.029505663
-0.035425358 0.32021612 0.022248901 -0.17786437 0.071463585 -0.05523596 0.08289391 0.44368088
-0.106678896 0.1004753 0.2427032 -1.8192533 -0.1506286 -0.261944 0.069582894 0.15742493
0.10274789 0.09124892 -0.008838954 0.01140855 0.06720635 -0.78135705 -0.14338373 -0.119032934
0.24116014 0.003739533 -0.43181327 -0.18915838 0.11960985 0.11848438 0.096626036 0.05303433
0.034543827 -0.12661639 -0.114962876 -0.0100249145 0.033735223 0.2684062 -0.20840642 -0.08175884
-0.03384907 0.21529293 0.57506275 -0.24696383 0.39373794 0.21051852 0.32147375 -0.085069254
0.17547779 0.0028982356 -0.1397377 -0.0033317728 0.05066487 -0.4674502 0.0043505263 0.20203802
0.0059905495 0.021718895 0.050453246 -0.22903787 -0.40403602 -0.21620785 -0.19329187 0.361773
0.16171952 0.13440606 0.03730619 0.053140838 -0.14778933 0.2204752 -0.2105859 -0.058575857
-0.11858564 0.054732785 0.019018037 0.062607124 -0.0092635285 0.22025138 -0.0798226 0.086637504
0.067502804 -0.18269327 0.033727936 0.05934734 -0.015243714 -0.010112175 0.06350144 -0.09107292
0.30625167 -0.011667431 -0.00090363895 0.059108503 -0.06734441 -0.019308932 0.047340814 -0.36911023
0.077040546 0.031328138 0.08386262 -0.041046847 0.17031598 0.10492558 -0.052540973 0.016414039
0.09028702 0.24570313 -0.044475734 0.06940302 -0.015155653 -0.14084508 -0.18363804 -0.469734
-0.3557864 0.22533633 0.0059244446 -0.10755263 0.10410475 -0.12781648 0.071853206 -0.07293913
0.14466745 -0.35765007 -0.09005522 0.12420156 0.02185249 0.057934653 0.058066234 -0.016370876
0.12994072 0.06803595 -0.05707738 -0.036554147 -0.010502311 -0.09072813 0.0136918025 0.12163989
-0.054785468 0.061746165 0.11891058 0.05101033 0.003046521 -0.064054295 0.031160362 -0.07154388
0.025372885 -0.14357081 0.1931801 0.0249146 0.07475129 0.1037026 0.002263628 0.028713139
0.08775969 0.05236278 0.101616934 -0.08284161 -0.065568976 0.042388994 0.33609343 0.033569057
-0.2664056 -0.10377762 0.04720893 -0.0057896837 -0.055648196 -0.074806854 -0.01475775 0.046538822
0.11901825 -0.16534981 -0.07099449 0.13472368 0.10302398 0.0033439118 0.16605517 -0.661678
0.12564485 0.17524983 0.08020557 -0.038094614 0.0793915 -0.12511031 0.104379185 -0.18374772
-0.041969202 0.16977365 -0.087096006 -0.04947148 -0.006495436 0.0825141 -0.03180014 0.16396686
-0.09667199 0.057508837 -0.0076637887 -0.040145192 -0.011095677 -0.033274777 -0.0577245 0.015898494
00000000: 3913 31bc 753c 60bd 8fae 463d 2e0f aebd
00000010: 2afa 04bd 9637 8cbe 353b 82be 549a c3be
00000020: c8c4 583d dd4c 143e 722d ad3d 8fd4 133e
00000030: a827 cbbd 78f7 8dbd a63e e1bd 955c 10be
00000040: 0088 1b3e 5140 e1bd d632 2cbd 52e3 4f3e
00000050: c8b4 8fb9 c816 82be 712c 36bd b443 823e
00000060: a648 9e3d 6d52 a43c fdd5 27be a48f 8e3c
00000070: 87d3 c13b 221b 3abd 9171 f23d 1391 96bc
00000080: b4ee 2bbd 6e54 8e3e f7e8 edbd 7299 b43d
00000090: 87ec f03e 4364 383e 7c3c 1fbe 9c40 e4bd
000000a0: ef6d f23d 66c5 f5bd 2efa 403e b4df 2f3e
000000b0: 8a4a 083e 63a0 0dbe 9ef6 593d bb5c 343e
000000c0: fb62 a5bd ec2d 7e3c bae6 1abe 37ac a23e
000000d0: 9f43 5bbe 2b10 1fbd e0ee 91be dcb5 f1bc
000000e0: 2e1a 11bd 5ef3 a33e 5443 b63c 1422 36be
000000f0: 805b 923d 1a3f 62bd 48c4 a93d 242a e33e
00000100: 777a dabd fec5 cd3d 3087 783e 4bdd e8bf
00000110: 623e 1abe 861d 86be 7a81 8e3d 0034 213e
00000120: 7c6d d23d b7e0 ba3d 43d1 10bc edea 3a3c
00000130: 7ca3 893d 0407 48bf 2fd3 12be 8ac7 f3bd
00000140: aff2 763e f412 753b a116 ddbe bcb2 41be
00000150: 02f6 f43d f0a7 f23d dfe3 c53d 873a 593d
00000160: d47d 0d3d baa7 01be a871 ebbd 8a3f 24bc
00000170: f22d 0a3d 8a6c 893e 7e68 55be 2e71 a7bd
00000180: 53a5 0abd c075 5c3e 5037 133f 16e4 7cbe
00000190: 0598 c93e 2b92 573e 3598 a43e ca38 aebd
000001a0: 73b0 333e 53f0 3d3b 6617 0fbe df59 5abb
000001b0: f785 4f3d a255 efbe dc8e 8e3b 0ee3 4e3e
000001c0: 5f4c c43b d3eb b13c 10a8 4e3d e788 6abe
000001d0: cfdd cebe 9765 5dbe 4eee 45be 503a b93e
000001e0: cd99 253e bea1 093e 60ce 183d 35aa 593d
000001f0: 1656 17be 40c4 613e d5a3 57be 3ded 6fbd
00000200: 07dd f2bd 7c2f 603d b7cb 9b3c 2a38 803d
00000210: 0ec6 17bc 9489 613e 087a a3bd 016f b13d
00000220: e93e 8a3d f213 3bbe 4e26 0a3d 3216 733d
00000230: c5c0 79bc 89ad 25bc 0b0d 823d 7084 babd
00000240: 05cd 9c3e c128 3fbc 2fe2 6cba c21b 723d
00000250: deeb 89bd c42d 9ebc 71e8 413d 04fc bcbe
00000260: 6fc7 9d3d ef51 003d 2ac0 ab3d bd20 28bd
00000270: 5067 2e3e 39e3 d63d 3435 57bd bc76 863c
00000280: 67e8 b83d 9a99 7b3e 302c 36bd 2c23 8e3d
00000290: 6a4f 78bc b139 10be 9c0b 3cbe fa80 f0be
000002a0: a329 b6be 91be 663e d821 c23b 8e44 dcbd
000002b0: df34 d53d 53e2 02be c627 933d 1c61 95bd
000002c0: b423 143e e91d b7be df6e b8bd 635d fe3d
000002d0: fe03 b33c e34c 6d3d dcd6 6d3d 371c 86bc
000002e0: 2e0f 053e 6f56 8b3d f9c9 69bd cdb9 15bd
000002f0: e311 2cbc abcf b9bd 9553 603c 561e f93d
00000300: ba66 60bd 8ce9 7c3d 6487 f33d 35f0 503d
00000310: 24a8 473b e62e 83bd 0444 ff3c 9985 92bd
00000320: ccda cf3c 3a04 13be 01d1 453e b419 cc3c
00000330: 3417 993d 0762 d43d 6059 143b d137 eb3c
00000340: 5abb b33d 5b7a 563d 8a1c d03d dda8 a9bd
00000350: 0749 86bd 15a0 2d3d 7014 ac3e b57f 093d
00000360: 5166 88be 5c89 d4bd 275e 413d 63b7 bdbb
00000370: 5def 63bd 5634 99bd 7dca 71bc 7e9f 3e3d
00000380: d7bf f33d 7651 29be 8f65 91bd 01f5 093e
00000390: 3dfe d23d 8825 5b3b 5e0a 2a3e bb63 29bf
000003a0: 0ba9 003e b174 333e d142 a43d 1909 1cbd
000003b0: 0398 a23d eb1c 00be c1c4 d53d 5d28 3cbe
000003c0: e6e7 2bbd 25d9 2d3e 645f b2bd 9ba2 4abd
000003d0: abd7 d4bb 27fd a83d dd40 02bd eee6 273e
000003e0: f7fb c5bd 638e 6b3d 8520 fbbb 496f 24bd
000003f0: a4ca 35bc 224b 08bd 8670 6cbd 8f3d 823c

fc4.bias f4 [128]
0.06102697 -0.0008625307 -0.015750706 0.04828615 0.17908877 0.124330185 0.12953478 0.21778162
0.19357686 0.06316186 0.24265637 -0.053771652 0.016035868 0.22002439 0.122543275 0.1071798
0.122041285 -0.026922338 0.21619843 0.18480527 0.1689168 0.15581785 0.11678937 0.15993385
0.2244311 0.034438908 0.14332348 0.26057264 0.038983162 0.18536599 0.27402985 0.248581
-0.06015644 0.17733906 0.055614192 0.22377513 0.12820713 0.04057812 -0.08122463 0.04465306
-0.06479593 -0.11676508 0.037194274 -0.03257796 -0.08416561 -0.0008140105 0.12445731 -0.042611416
0.039733786 0.21590175 0.06751931 0.066672914 0.1996117 -0.04147643 -0.06461571 0.18563488
0.07042216 0.1987185 0.098019265 -0.07589669 -0.08890958 0.14519133 0.16584663 -0.070997454
0.13269906 0.27807584 0.07766925 -0.062272396 0.117027946 0.24001215 0.25621188 0.13553669
0.2799044 0.061799187 0.09495893 -0.056408852 0.15893054 -0.076090574 0.15983635 0.047502052
0.24056119 -0.0963156 0.11272454 0.020200318 -0.014504932 -0.036644932 0.1237282 0.22453128
0.03552805 -0.074156635 -0.0545291 0.07210354 0.20899327 -0.03633347 0.1564558 -0.084184326
0.18098556 -0.02084598 0.09392828 -0.07649848 0.14941925 -0.09817484 -0.08877965 -0.069664806
0.026517019 0.09772675 0.12396423 0.055786684 -0.082332455 -0.006200004 0.13636546 0.035733946
0.20419474 0.13057958 0.09842115 0.10607126 0.12126411 -0.025270592 0.24075097 0.08647886
0.23394983 0.0017888799 -0.11447712 0.17233306 0.22405028 -0.086500384 -0.022630986 0.12107427
00000000: 6bf7 793d 751b 62ba a007 81bc b3c7 453d
00000010: 0c63 373e d3a0 fe3d c4a4 043e 2502 5f3e
00000020: 0339 463e 015b 813d e97a 783e aa3f 5cbd
00000030: a75d 833c 134e 613e f8f7 fa3d 1581 db3d
00000040: c8f0 f93d 3c8c dcbc 1f63 5d3e 983d 3d3e
00000050: 87f8 2c3e b78e 1f3e 442f ef3d b3c5 233e
00000060: 44d1 653e d00f 0d3d 64c3 123e c769 853e
00000070: cfac 1f3d 95d0 3d3e a44d 8c3e 058c 7e3e
00000080: 9966 76bd 5f98 353e b5cb 633d 4f25 653e
00000090: bb48 033e 3e35 263d 1959 a6bd 21e6 363d
000000a0: bbb3 84bd 8822 efbd 0659 183d 7870 05bd
000000b0: 055f acbd 5263 55ba 79e3 fe3d 4f89 2ebd
000000c0: e5bf 223d 5915 5d3e 9047 8a3d cf8b 883d
000000d0: 0267 4c3e 30e3 29bd 3e55 84bd 1217 3e3e
000000e0: 7e39 903d dd7c 4b3e 53be c83d b96f 9bbd
000000f0: 3a16 b6bd 09ad 143e b3d3 293e 1d67 91bd
00000100: 43e2 073e f55f 8e3e 0e11 9f3d 5711 7fbd
00000110: 59ac ef3d bfc5 753e 342e 833e 21ca 0a3e
00000120: a14f 8f3e 2521 7d3d d479 c23d f80c 67bd
00000130: b0be 223e 60d5 9bbd 24ac 233e 8391 423d
00000140: ac55 763e 1d41 c5bd 20dc e63d 237b a53c
00000150: 18a6 6dbc ff18 16bd 3665 fd3d 87eb 653e
00000160: dc85 113d 6fdf 97bd e859 5fbd 05ab 933d
00000170: 5502 563e 68d2 14bd f335 203e d568 acbd
00000180: 4754 393e 30c5 aabc 785d c03d 3cab 9cbd
00000190: 5c01 193e e40f c9bd 1bd2 b5bd 6cac 8ebd
000001a0: 383a d93c f624 c83d f5e0 fd3d 9480 643d
000001b0: eb9d a8bd 6729 cbbb 63a3 0b3e c25d 123d
000001c0: 6d18 513e a7b6 053e 0791 c93d e43b d93d
000001d0: 5159 f83d 4604 cfbc 6c87 763e d41b b13d
000001e0: 8b90 6f3e d978 ea3a fb72 eabd 1478 303e
000001f0: 706d 653e 1d27 b1bd 9e64 b9bc c9f5 f73d

q2.weight f4 [1, 128]
-1.0514047 -0.2532495 -0.28440168 -0.41076636 0.2617275 0.28604725 0.19628474 0.2465114
0.17488083 -0.86898035 0.18814212 -0.21095783 -0.20316173 0.21413368 0.2304072 0.22916158
0.27124602 -0.29399508 0.23120856 0.21059018 0.24338605 0.21407409 0.23381405 0.26043943
0.19744943 -0.9533912 0.2630571 0.17373914 0.3548976 0.18926995 0.18060015 0.23690736
-0.33018023 0.2615698 -0.60248953 0.18370892 0.20131868 -0.8702977 -0.079244815 -0.77392775
-0.5403269 -0.6308633 -0.37317583 -0.030949557 -0.36110532 -0.0087201465 0.1918203 -0.72777694
-0.6985701 0.25720185 0.00709133 -0.6867264 0.23316766 -1.2487724 -0.2962441 0.24717835
-0.75118846 0.2333161 -0.67416775 -0.06670241 -0.86401933 -1.000704 0.2762133 -0.4499047
0.231043 0.27464262 -1.15788 -0.20966199 0.23958218 0.24738051 0.24048254 0.2044309
0.18193193 -0.712768 0.2655457 -0.89219356 0.24986704 -0.30496442 0.1999744 -0.46115085
0.2290957 -0.40771827 0.20805207 -0.7213136 -0.3426597 -0.74045223 -0.9071827 0.24639101
-0.6869601 -0.658174 -0.70747936 0.2109644 0.25133574 -0.3931412 0.4202075 -0.41482776
0.25129598 -1.1287936 -0.8694601 -0.5831846 0.2139861 -0.6440281 -0.2507313 -0.6526315
-0.8400403 0.24403852 0.21914224 -1.2009802 -0.72227466 -0.7888454 0.23348746 -0.49093992
0.29890358 -0.90562665 0.24488845 0.2802249 0.20190467 -0.421125 0.23154062 -0.82056427
0.23987962 0.049735494 -0.72538877 0.25959215 0.20951237 -0.03849728 -0.3686033 -1.1128479
00000000: 6e94 86bf eba9 81be 199d 91be f84f d2be
00000010: 2601 863e c974 923e defe 483e 7c6d 7c3e
00000020: f613 333e 7f75 5ebf 54a8 403e 5405 58be
00000030: a109 50be dc45 5b3e ddef 6b3e 55a9 6a3e
00000040: c2e0 8a3e 8686 96be f0c1 6c3e f4a4 573e
00000050: 313a 793e 3d36 5b3e f36c 6f3e 5158 853e
00000060: 2f30 4a3e 7211 74bf 6caf 863e ace8 313e
00000070: 23b5 b53e fbcf 413e 3fef 383e d897 723e
00000080: 620d a9be 7aec 853e c13c 1abf 311e 3c3e
00000090: 7c26 4e3e d4cb 5ebf 1b4b a2bd 2120 46bf
000000a0: dd52 0abf 4280 21bf e710 bfbe ed89 fdbc
000000b0: cce2 b8be f2de 0ebc 8a6c 443e 974f 3abf
000000c0: 7dd5 32bf f6af 833e 635e e83b 4dcd 2fbf
000000d0: 81c3 6e3e c6d7 9fbf 4fad 97be 521c 7d3e
000000e0: e34d 40bf 6aea 6e3e 4296 2cbf 469b 88bd
000000f0: 5f30 5dbf 1217 80bf d46b 8d3e e959 e6be
00000100: 8996 6c3e f59d 8c3e 6935 94bf a2b1 56be
00000110: 0855 753e 5151 7d3e 0e41 763e 5556 513e
00000120: 5d4c 3a3e f777 36bf 9bf5 873e cc66 64bf
00000130: 25dd 7f3e 4c24 9cbe 17c6 4c3e f71b ecbe
00000140: 1098 6a3e 73c0 d0be 9a0b 553e 02a8 38bf
00000150: 1871 afbe 478e 3dbf 203d 68bf ed4d 7c3e
00000160: 9edc 2fbf 177e 28bf 5e1d 35bf 0d07 583e
00000170: 14af 803e ce49 c9be 7025 d73e 4e64 d4be
00000180: dea9 803e 4f7c 90bf f094 5ebf 964b 15bf
00000190: 2c1f 5b3e 07df 24bf da5f 80be dc12 27bf
000001a0: e20c 57bf 3ce5 793e d366 603e b8b9 99bf
000001b0: fee6 38bf c6f1 49bf 5617 6f3e 7a5c fbbe
000001c0: e409 993e 26d7 67bf 0ac4 7a3e a379 8f3e
000001d0: 19c0 4e3e b29d d7be fc18 6d3e 8010 52bf
000001e0: 01a3 753e 72b7 4b3d 14b3 39bf 43e9 843e
000001f0: 698a 563e 53af 1dbd 92b9 bcbe cd71 8ebf
