resource/train_valid_split/sac_actor_5000.pth (torch, 80597 bytes, 8 tensors)

fc1.weight f4 [128, 12]
00000000: 64b1 613e faa8 753e 9be3 89bd 06ed 873e
00000010: 5f26 82bd 15d4 6f3d da9b 0fbe f0e8 2d3e
00000020: d223 823e 5f8e 58be 4c9f 803e 4787 5e3d
00000030: 99b3 5a3e 03e8 1e3d 5289 0e3e c62c 28bd
00000040: 012f 643e e08a 2d3d 38b1 09be 4b15 963d
00000050: 59e3 07be af6f 09bd e4bc f0bd 98c9 433e
00000060: cca5 69be b546 08be 1cf1 a6bd f7bc 31be
00000070: ffbd dc3c 0afb 91be d253 853e 0b1b 7bbe
00000080: 1ce8 633e b8c6 443d 645a bfbd 06ab 363e
00000090: 4182 393d d424 6f3e db79 023d ab10 bbbd
000000a0: 4476 9f3d 72b5 9fbd 0e33 f83d 98ce 833e
000000b0: fc2e 2b3e 27ec 00be d3f2 2a3e 0656 523d
000000c0: 241e 163e f62b 34be 644f 92be 3e6b e4bd
000000d0: 09bc 62be 77dc 723e 3c49 aa3d 0c80 f53d
000000e0: c8f9 ba3d 2462 aebb 7457 673e 5e56 52be
000000f0: cf70 923c 5474 49be fee9 b63d 99fc cabd
00000100: 0bc5 b53d f31d 75bd 6c7a 753e bfe5 2ebe
00000110: bc9a 30be 759d 30be 1ac9 843e 79a2 c53d
00000120: 9411 8e3e b0a5 73be d799 92be 4ff6 66be
00000130: 0328 47be ac13 f03d 1f15 d33d 65ee 753e
00000140: d9f6 18be cfd2 49be d825 1d3e 9f5a eebd
00000150: 44b7 333e e9ad 8bbd e867 293e fc5d 65be
00000160: 74de 14be 00dc b43d 1dbe 783d 711e 96bd
00000170: de81 303e d442 493e 750e 56be 8a81 1dbe
00000180: ca2e 873e 521b c8bd aa97 d1bd 6b2a 8fbe
00000190: f4f9 28be 3d12 933d 974c 1dbd 6d44 56be
000001a0: aeb6 e73b 2e9d 49be 507b 7abe 7578 22be
000001b0: 4734 81be 2aea 3bbe 6ebe 933e 968e 603d
000001c0: e9cc b63d 8101 8abe 5cd6 41be 372c c4bd
000001d0: a0aa 373d 1a35 82be 7259 ffbd 8f46 31be
000001e0: 542c 903a b09a dcbd 60df a3bc 424f 48be
000001f0: f197 4abe 40c3 2cbe 585e cabd 6650 69be
00000200: 6329 783e 1070 69bd 0c56 7e3e 9c35 b83d
00000210: 8a9f 7abe be42 4c3e deaa a2bd 433d e3bd
00000220: 8010 75be 48f0 92be 8826 a93d 86c2 81bd
00000230: e8c8 e63d 9e48 72be ec76 5b3e 7bae 58be
00000240: 4ef1 4abd f832 783d 129b 183e 67f3 6e3e
00000250: 7ecb 863e f363 6abe 90c9 943d 184b febd
00000260: a8cd 02bd 3890 5dbe 5ea0 863e f143 59be
00000270: f24a 1e3e 4963 d03d b81d c03d bf1f 20be
00000280: 867f 863e 4488 823d a055 193d 8f67 82be
00000290: cfcb f83d 5728 30bd f2ba 07be ac99 7d3e
000002a0: 2632 833d 88db 23be c99d 15be 92c5 66bc
000002b0: 0cbf 243e c412 97bd f1a9 28be 16d7 c9bd
000002c0: d787 5cbe 3875 d33d 14cf 643e cf4c 8bbe
000002d0: 9bb1 883d 2a66 183e 772d 553d 5928 d3bd
000002e0: 0bfb 193e 4809 1b3e 3374 dc3d eb8b 4ebd
000002f0: ab2a 9dbd a188 fa3c 3ea6 4fbd dc90 afbd
00000300: 4642 3d3e f4bb 7d3e ad91 ecbc d5fb 84bd
00000310: fbdc 933b 43a8 8fbc b484 8d3d c30f a53d
00000320: 9916 86be 3790 d9bd 0da1 783e 6fb1 e53d
00000330: 0e28 70bc 3487 32be 04da 34be 033e 84be
00000340: c718 c0bd 6c44 c83d ccc9 3c3e 57c9 083e
00000350: 50cd 82be 6a12 32be 41d3 3bbd 2421 8f3e
00000360: eed0 293d 39b8 99bd 23fb f33d bb90 e0bd
00000370: 5ca3 3fbe 2e73 573e 69b7 06be 47ce 6bbd
00000380: f42f 93be 0c88 453e 7ea7 5f3e 1d14 d83d
00000390: 34cf 4dbe c0b7 91be 3315 70be 18bd 5c3e
000003a0: 623a 0e3e 020f 793e 342a 1b3e 813e 963d
000003b0: 6b9a 25bb 851d 61be 6892 7dbe ae17 8abe
000003c0: 7c04 f23d bc21 11be b8f6 6dbd 0c1f 2abe
000003d0: ac76 57bd 520e 50be e026 41be 4fb9 c43d
000003e0: 5ab4 afbd 1c7d 363e 0eaa bdbd ec26 59be
000003f0: 3dda 51bd ff4a 0fbe ecdf b4bd e0b4 8cbe
0.22040325 0.2399024 -0.067328654 0.26548022 -0.06354975 0.058551867 -0.14024296 0.1698339
0.25417954 -0.2114806 0.25121534 0.05432823 0.21357574 0.038795482 0.13919571 -0.041058324
0.22283556 0.04236877 -0.1344651 0.0732828 -0.1327032 -0.033553775 -0.11754778 0.1911987
-0.22817153 -0.13308223 -0.08151457 -0.1735724 0.026946066 -0.2851184 0.26040512 -0.24522035
0.22256511 0.048041075 -0.093434125 0.17838678 0.045290235 0.23353893 0.03185449 -0.091340385
0.07786229 -0.0779828 0.12119113 0.25743556 0.16717142 -0.12590085 0.16694193 0.05135157
0.14659935 -0.17594895 -0.28576195 -0.11153267 -0.22142042 0.23716913 0.083147496 0.11987314
0.09129673 -0.005321758 0.22591954 -0.20540759 0.017876057 -0.19673282 0.08931349 -0.099114604
0.088754736 -0.059843015 0.23972481 -0.17079829 -0.17246526 -0.17247565 0.25934678 0.0965013
0.27747786 -0.23793674 -0.28632995 -0.22554897 -0.19448857 0.11722502 0.10306763 0.24016722
-0.14937915 -0.19709323 0.15346467 -0.11638378 0.17550379 -0.0682028 0.16543543 -0.22399133
-0.14537984 0.08831024 0.06072818 -0.07330025 0.1723704 0.19654399 -0.20903952 -0.15381446
0.26402885 -0.09770836 -0.10234006 -0.2796205 -0.165016 0.07181213 -0.03840312 -0.2092454
0.0070713377 -0.19688866 -0.24461102 -0.15866263 -0.25235197 -0.18351045 0.28856224 0.05482348
0.08925802 -0.26954272 -0.18929428 -0.09578746 0.044840455 -0.25431138 -0.12468232 -0.17312072
0.0010999539 -0.10771692 -0.020003974 -0.19561484 -0.19784524 -0.16871357 -0.09881276 -0.22784576
0.24234538 -0.056991637 0.24837512 0.089946 -0.24474922 0.19947335 -0.079427466 -0.11095669
-0.23932076 -0.28698945 0.082593024 -0.063359305 0.112687886 -0.23660514 0.21432084 -0.21160309
-0.049546532 0.060595483 0.14902905 0.23335038 0.26327127 -0.2288969 0.072650075 -0.12416667
-0.03193441 -0.21637046 0.26294225 -0.21217324 0.15458277 0.10175187 0.093806684 -0.1563711
0.26269168 0.06373647 0.037435174 -0.25469634 0.121482484 -0.04300722 -0.13254908 0.24765652
0.064060494 -0.16001713 -0.14610972 -0.01408519 0.16088504 -0.07376626 -0.16471078 -0.098554775
-0.21536194 0.10325092 0.22344619 -0.27207038 0.066745006 0.14882722 0.05204531 -0.1031043
0.15037172 0.1514026 0.10764351 -0.050426405 -0.07674154 0.030582728 -0.05069565 -0.085725516
0.18482313 0.2477873 -0.028878057 -0.06493346 0.004512427 -0.017536288 0.06910077 0.08059647
-0.26189116 -0.1062321 0.24280186 0.112154834 -0.014657987 -0.17434388 -0.17661291 -0.2582856
-0.09379726 0.097786754 0.18436354 0.13358055 -0.25547266 -0.17389837 -0.045855764 0.27954972
0.041459017 -0.07505841 0.11913135 -0.10965105 -0.1871466 0.21040031 -0.13155903 -0.05756977
-0.28747523 0.19290179 0.21841237 0.10550711 -0.20098573 -0.28460503 -0.23445587 0.21556509
0.13889459 0.24322131 0.15152818 0.073361404 -0.0025269042 -0.21983917 -0.24762881 -0.2697119
0.118172616 -0.14173025 -0.058096617 -0.16613406 -0.05260341 -0.20317963 -0.18862486 0.09605657
-0.08579321 0.17821163 -0.09260951 -0.21206254 -0.05123352 -0.13993452 -0.08831772 -0.27481747

fc1.bias f4 [128]
00000000: 663b 2b3d c1e1 b4bd 72ea 18be 817c bdbd
00000010: f42d d2bd ec8b 8d3e 7d62 e33d 709b 913e
00000020: eb7d a13d 697b 863d 476d f23d 36b6 493d
00000030: 82ac 67be b77f 2ebe dfd9 8fbd ad5f 843b
00000040: 0b1a de3d ed41 e43d eb32 6a3e 9aef 713d
00000050: 1b29 c9bd d29b 5ebe 2332 58be d4e1 30be
00000060: a8ec b23d 2766 1f3e 9677 813e b69e bbbd
00000070: 8200 bdbc cff3 aebd 1b94 b1ba ef29 bd3d
00000080: bf01 c6bb eade 5f3c 5e91 143d 61ca dc3d
00000090: bcfc b3bd 2393 30be 3918 8c3d b13b 0dbd
000000a0: 4839 06be a8ab f73d 1a3c 3f3b 663a 2dbd
000000b0: 6a67 0fbe 2656 1abd 87aa 7bbe b11b 873d
000000c0: 2d1f 843b a8b0 333e 7d3d 963c 9d9d ba3c
000000d0: 1f70 a03d 2d3e 613e 30ff 0bbe 672b 303e
000000e0: d8f8 8f3d 11e5 44be 6b3c cd3d 2497 31be
000000f0: 05b7 babd 0399 0cbe 0b69 49be ad1d 693e
00000100: 62f4 83be b77f 133e f405 85be b722 11bd
00000110: 0996 8a3c 6774 523e 5991 d6bd 178d a93d
00000120: 20ef 353d 0f9f 2d3e 9c22 8a3c 7fc2 dc3d
00000130: 9a43 32be a6b9 4dbe 968c 833e d616 57be
00000140: b985 4abd ba28 10bd 98af 903e d761 80bd
00000150: ea59 61be 107c 96bd 1fc9 183e d0ac e93d
00000160: 3b3e 743e cbd4 70bd 77ef 0a3e 0def 8abe
00000170: 2f60 e53d 0583 073e f861 3e3e 91d1 29be
00000180: 2274 9ebd 876a 8e3d 035e 52be f2d6 6abe
00000190: 0831 8ebe 1478 863c 91df 373e c178 983d
000001a0: 13a1 923c 299b ce3d 8073 39be 4ddb f63c
000001b0: e97b 93bd 5fac 12be f89c 7e3e 1a63 64be
000001c0: 460d 2c3d bab8 81be ee8b 1bbc 7fa9 03be
000001d0: d3fa c13d 70af 25be 00e4 3c3e ad90 6fbe
000001e0: 213e 313e bc5b 5ebe 8203 1e3e ac52 f8bd
000001f0: 8f4c c3b9 d690 56bd 5c8c 3f3e 7d5e c23d
0.041804694 -0.08832122 -0.14933184 -0.09252263 -0.10262671 0.27645814 0.111027695 0.28438902
0.07885345 0.06566507 0.11837249 0.049246036 -0.226244 -0.17040907 -0.070239775 0.0040397258
0.10844811 0.11145387 0.22870986 0.059066392 -0.09822293 -0.21739128 -0.21112876 -0.17273647
0.08736545 0.15566312 0.2528655 -0.09161131 -0.023071531 -0.085425965 -0.0013548167 0.09236514
-0.0060426886 0.013663987 0.036271445 0.10780788 -0.0878844 -0.17243628 0.068405576 -0.034480754
-0.13107789 0.12093288 0.002918011 -0.04229202 -0.14004293 -0.037679814 -0.2457677 0.065970786
0.0040320368 0.17547858 0.018339867 0.022780234 0.078338854 0.21996374 -0.13671565 0.17204057
0.07029885 -0.19228007 0.100212894 -0.17342812 -0.091169395 -0.13730244 -0.19668977 0.22765227
-0.25772387 0.14404188 -0.25981104 -0.035433497 0.016917245 0.20552216 -0.104769416 0.08278864
0.0444175 0.16955207 0.016862206 0.10779285 -0.174086 -0.2009035 0.25693196 -0.21004805
-0.049443934 -0.03519509 0.28258967 -0.062686615 -0.22006956 -0.07347882 0.14920472 0.114099145
0.23851864 -0.058796685 0.13567911 -0.27135506 0.11199986 0.13233574 0.1859206 -0.1658385
-0.07736994 0.06953912 -0.20543675 -0.22933558 -0.27771783 0.01641468 0.17956378 0.07444907
0.017899072 0.10088188 -0.18110466 0.030133868 -0.07201368 -0.14323567 0.24864566 -0.22303429
0.042004846 -0.25336248 -0.009493811 -0.12857626 0.09471669 -0.16180205 0.1844635 -0.23395033
0.17308857 -0.21714681 0.15431026 -0.121251434 -0.0003725034 -0.05238422 0.18705887 0.094906785

fc2.weight f4 [128, 128]
00000000: 2221 a0bd 9c3a 003c 3187 78bd 6db5 863d
00000010: 5904 693c 25ad bcbc 08ee 39bd ec14 fd3c
00000020: 5b98 57bd fa78 2a3d 8dc0 463d edfd 5c3d
00000030: eeb2 ba3c 24d8 9dbd 9d98 813d 132b debc
00000040: 5285 d8bc d480 20bc 34bc 833d 12ce 8b3d
00000050: 7c73 643c b3f9 2d3d 5a18 a8bd b25b 053a
00000060: cc87 9fbd 58fb f33c de94 81bd a89b ffbc
00000070: fad8 7b3d 9262 ac3d f496 5abd f0b4 47bd
00000080: 6843 383c f08b 0f3d fbf2 66bc 6694 e4bc
00000090: 1608 6fbd 2151 193d 60f8 b13d f17b 30bd
000000a0: 3cfd 2b3d c496 2f3d ff1d 923d 07cb 29bc
000000b0: 3f1d 4a3b 5d61 843d 1414 663d d467 b33d
000000c0: 9f0a cdbc 6a06 0e3d 1608 7e3d 83fc 76bd
000000d0: 3663 8d3c c878 a4bc 9d7f 673d 88d4 23bd
000000e0: 1c50 c13b 0262 573d 0473 a6bd 463b 98bd
000000f0: c0a8 3abd 30fd 663d 9a87 713d 867d 78bd
00000100: bb9d 873c e910 41bd 8e0a 28bd f97f 9b3d
00000110: a1a3 2d3d f47a c8bc b02b 553c 60d6 893c
00000120: aa26 a73c f54a fabc 79f8 53bd c476 6e3d
00000130: eead 3d3c 8ac2 183d e1e2 07bd ba21 2e3d
00000140: 1320 833d 1cf4 5a3d 7c6a c23c c97c b13d
00000150: 00b2 4ab9 58b2 973c a360 ab3d 5951 af3d
00000160: b716 1abd cd72 a23d 9e62 043d a404 27bc
00000170: 2671 9d3d 80c6 3cbd 8076 6c3d 8dfe b33d
00000180: 7aed 7abd 7fdd 56bd a8c2 b2bd a3c3 84bc
00000190: 0467 a4bd 84f7 f4bc 715e d93c ab92 803d
000001a0: 9770 483d 60bb 473d cdf7 143d f7c6 61bd
000001b0: bb1f 8fbd 9be4 813b 4947 ab3d 1de8 ac3b
000001c0: 415a efbb 24f5 76bd cebd 34bd d327 8cbd
000001d0: 7352 903d 0ddc 70bc 4787 a0bd 706f 163c
000001e0: 7c02 dc3b fad4 37bc 53d3 023d d777 413d
000001f0: c8d8 aabd 2210 8abd fef7 94bb 2a37 a7bd
00000200: 8a0b a5bd a035 9f3d b04a dcbb 9b37 34bd
00000210: e85e f8bc b5f0 8dbd 9da5 8c3d 3477 9fbc
00000220: d8c7 4cbd d5e6 89bd 1661 523d 4418 4dbc
00000230: d40d 1dbc 1b2d bfbc 24fe 2fbd 92b2 7c3c
00000240: 12a8 8a3d 210f 53bd 97f0 803b 2b48 8abd
00000250: 46c2 29bd 6a47 9e3d 984d 243a fac3 ad3d
00000260: 7d51 81bc 4b8e 46bd eb8a 59bd a970 a03d
00000270: ddd0 8bbd 5ec4 3c3d 1a89 b13c 1339 d33c
00000280: 440c 4b3d 82e4 bfbc 9dc9 5e3d 2ad6 90bd
00000290: da9a 00bd 35e6 833d 166f d43c ffc4 45bc
000002a0: 3d8d abbc 7c4b 5ebd 89ec 5a3d d7dd 4bbb
000002b0: 88a5 57bb 32c8 a83c f1f7 843d c3b4 38bd
000002c0: f0d3 fbbc 9319 743d a03d 4b3d 2954 33bd
000002d0: 85b0 b3bd fbdd 833c 4d2a 3d3d 567e aa3c
000002e0: 0892 7f3d 9b3f 90bd a057 353d f54c 62bd
000002f0: 6e87 4a3d 2903 863d 95de e23c 01d8 913d
00000300: e2dd 6fbd 7c83 a2bd 100d aebd 0e12 623d
00000310: a431 fb3c 332b 85bd 9219 2e3d c48c a43d
00000320: 541d b3bd 6ab3 823d 6131 593c 21cb 013c
00000330: fe43 a23d a750 a33d 1251 173d 546a 8e3d
00000340: 6663 153d b50c 673c 7dbb 9fbd a8c9 843c
00000350: 5366 81bd 4b76 dc3c f496 7a3c 54f3 dc3a
00000360: a6c3 78bd 14b2 5cbd 102f 853d 4b17 2f3d
00000370: 05a7 3d3d 3f37 dabc 2e48 7ebc aa05 bcbc
00000380: 28be 773d 3684 1dbd 8bce 623d 0865 783d
00000390: 658d a5bd 4068 7b39 545c 8cbc 2e5f 49bd
000003a0: da11 1b3d d8db 34bc 9ade 9d3d 8ad4 63bd
000003b0: 6bfc 263d c72a 9bbd bab0 36bd 5bbc bb3b
000003c0: ab05 8f3d ea81 3d3d 2a3f 95bd 8c7d 1b3c
000003d0: 9aa5 56bd 20fe 7a3b b16a 97bd cde1 d6bc
000003e0: df14 773d c7b4 a6bd cc33 adbd e76d 813c
000003f0: c39a 413c 7fe1 86bc 3274 9d3d 4e35 5bbd
-0.078188196 0.007826474 -0.060675804 0.06577573 0.014222228 -0.02303178 -0.04539302 0.030893765
-0.052635532 0.04161928 0.048523474 0.0539531 0.022790398 -0.07707241 0.06327937 -0.027120149
-0.02643076 -0.00979634 0.06432381 0.06826414 0.013943549 0.04247446 -0.0820777 0.0005087211
-0.07789573 0.029782936 -0.06327222 -0.031202152 0.06148622 0.08417238 -0.053366616 -0.04875654
0.01124654 0.035045564 -0.014096017 -0.027902793 -0.05835732 0.037430886 0.08689952 -0.04308695
0.04198955 0.04286839 0.071346276 -0.010363347 0.0030840186 0.06463883 0.05617149 0.08760038
-0.025029479 0.034674086 0.06201943 -0.060299408 0.017259222 -0.020077124 0.056518186 -0.039997607
0.0058994424 0.052583702 -0.08127406 -0.074331805 -0.04557109 0.056393802 0.05896721 -0.060666583
0.016554704 -0.047135267 -0.04102569 0.07592768 0.042392377 -0.024472691 0.013010904 0.016825855
0.020404179 -0.03055332 -0.051750634 0.058218732 0.011577113 0.037294902 -0.033175353 0.042512633
0.06402602 0.053455457 0.023732416 0.08666379 -0.00019330531 0.018517658 0.08368041 0.08560438
-0.03761932 0.07932053 0.03232061 -0.0101939775 0.07687597 -0.04608774 0.057730198 0.08788786
-0.06126163 -0.05245733 -0.08728534 -0.016206568 -0.08027461 -0.02990318 0.026534291 0.06277975
0.0489355 0.04876268 0.036369134 -0.05512139 -0.06988474 0.0039640195 0.08363206 0.0052766935
-0.0073044603 -0.060292378 -0.044126324 -0.06843533 0.07046976 -0.014700902 -0.07838302 0.009181842
0.0067141633 -0.011220211 0.031939816 0.04723343 -0.08342129 -0.06741358 -0.0045461645 -0.081648186
-0.080588415 0.077739 -0.0067227706 -0.043998342 -0.030318692 -0.06930677 0.06867526 -0.01946602
-0.049995273 -0.06733481 0.05136212 -0.012517992 -0.009585816 -0.023336938 -0.042966977 0.015423434
0.06770338 -0.0515281 0.0039349305 -0.06752046 -0.04144504 0.07728465 0.0006267666 0.08484645
-0.015785927 -0.048475545 -0.053110998 0.07833988 -0.06826947 0.046085708 0.02167182 0.025784051
0.049572244 -0.02342439 0.054391492 -0.070720986 -0.031397678 0.06440393 0.025931876 -0.012070893
-0.020941371 -0.054271206 0.053448234 -0.0031107569 -0.003290506 0.020603273 0.064926036 -0.045094263
-0.030740708 0.059594702 0.049619317 -0.043781433 -0.08773903 0.01609706 0.04618292 0.020812195
0.062395126 -0.07043382 0.04427302 -0.055249173 0.049445562 0.065435715 0.027694026 0.071212776
-0.058561213 -0.07935235 -0.08498585 0.055193 0.030663319 -0.0650238 0.042504855 0.080346614
-0.08745828 0.06381877 0.013256402 0.007921965 0.07923125 0.079743676 0.03694255 0.06953874
0.036471747 0.014102151 -0.077994324 0.016209438 -0.06318345 0.026911875 0.015294779 0.0016857185
-0.06073346 -0.053880766 0.06503117 0.042746823 0.04630186 -0.026637672 -0.015520139 -0.02295192
0.06048408 -0.038456164 0.055372756 0.060643226 -0.080836095 0.00023976061 -0.01713387 -0.049163036
0.03785882 -0.011038743 0.077084735 -0.055622615 0.04076807 -0.075765185 -0.044602133 0.005729241
0.06983503 0.046266474 -0.07287438 0.009490382 -0.052404024 0.0038298443 -0.07393397 -0.026230717
0.06032264 -0.08139949 -0.08457145 0.015799476 0.011816683 -0.016464947 0.07688178 -0.053517632

fc2.bias f4 [128]
00000000: 00ae 203b cdc1 b1bc c0e0 4c3d fa1c a43d
00000010: 60ab d7bb 3cd9 763d 32ce 00bd ffc8 44bd
00000020: 9495 42bd 9a27 adbd 12bf a03d 07db b03c
00000030: a756 7ebd 10f5 9cbd 5063 643d 81db 933b
00000040: faae 78bd 506d 15bc 6564 02bd 2697 413c
00000050: 3ce4 16bd 4964 29bd 98f5 52bd d2b3 16bd
00000060: 0239 e13a 94f0 2e3d 77c9 973c b020 683d
00000070: fbbc dfbc 394b f7bc 84d1 5abd 7b70 9bbd
00000080: 765c 5fbd f0b5 96bc 24d9 a93d 9f0b b1bd
00000090: 46d0 863d 989e 383d 35fb 323d f08e 413d
000000a0: c7b0 433d 54ed 9b3d 8ada 043d 7a2c 94bc
000000b0: 8d86 083d 8207 cebb 8a82 30bd ce5f 033d
000000c0: 505e b43d 382c 873d 3952 1dbd aa35 05bc
000000d0: 0c6a 093d ec9f 473d cb37 9ebd 372a 403c
000000e0: aee7 2fbc 484f ae3d ab59 cb3c 1744 21bd
000000f0: 692f e9bc 6e0d 933d 3db4 d8bc 7f22 843c
00000100: 1ebb 9d3d 3b5f 9fbd 4375 e3bb b09b a2bd
00000110: 1c68 debc c308 063d 425b 83b9 2745 323d
00000120: c329 75bd 5888 223d 2b76 1dbd 38f1 6b3d
00000130: c07c bebc e785 933d cdf8 de3b 392c fa3c
00000140: 03a9 89bd b1ee 583c 6ef3 843d f9c4 8abd
00000150: 264f 853d dc2c 083d c9de 18bd 3060 6dbd
00000160: af25 5d3d 24e5 d9bc 3882 313d 3ff0 2b3c
00000170: 3e6f a83d 7204 78bd a298 4fbc 15ba 1f3d
00000180: 1720 33bd c377 c4bc 810a a1bc 262c b23d
00000190: c751 203d 677e a8bd 1bc5 c73c a093 993d
000001a0: 00a3 373d d8d0 a33d 38e5 8cbc 31c2 143c
000001b0: ce81 b13d 913f a63d be42 d2bc d9fb 9a3c
000001c0: 8802 7f3b 1622 9f3d 72c1 1dbd 5cff 2dbc
000001d0: 0148 033d 2015 5cbc 749c 2bbd 82bf 9a3d
000001e0: 218b 07bd 40a8 5f3d 2980 a5bc 4e89 b2bd
000001f0: 1b46 7abd 4b15 bc3c 8007 813d 437c 50bc
0.0024517775 -0.021698857 0.050019026 0.08013339 -0.006581709 0.060265765 -0.031446643 -0.048043247
-0.04750593 -0.08454819 0.07848944 0.021588815 -0.062094357 -0.076639295 0.055758774 0.004512251
-0.060713746 -0.0091203 -0.031834025 0.011815822 -0.036838755 -0.041355405 -0.051503748 -0.036792584
0.0017183127 0.042709902 0.018528683 0.0566718 -0.027311793 -0.030187236 -0.053422466 -0.07589813
-0.054531537 -0.018397301 0.082933694 -0.08644795 0.06582694 0.04507312 0.0436966 0.047255456
0.04777601 0.07613626 0.032434978 -0.018087614 0.033331443 -0.006287516 -0.04309324 0.03207379
0.08807051 0.06600231 -0.03840849 -0.00813047 0.0335484 0.048736498 -0.077254854 0.011728815
-0.010736389 0.085112154 0.02482303 -0.039371576 -0.02846499 0.07180296 -0.026453132 0.01612973
0.077017054 -0.07781836 -0.006941469 -0.07939851 -0.027149253 0.0327232 -0.0002505426 0.04352298
-0.05985428 0.03968081 -0.038442772 0.05760309 -0.023252845 0.07203274 0.0068045617 0.030538665
-0.067216896 0.013240502 0.06491743 -0.06775851 0.06509237 0.033245906 -0.03732184 -0.05795306
0.053991016 -0.02659852 0.043337077 0.010494291 0.08224343 -0.060551114 -0.012670668 0.03899582
-0.043731775 -0.023982888 -0.019658329 0.08699827 0.03914049 -0.08227234 0.02438598 0.0749886
0.044833183 0.07998818 -0.017199144 0.009079502 0.086673364 0.08117593 -0.02566659 0.018918918
0.003891142 0.07770173 -0.038514562 -0.010619964 0.03205109 -0.013432771 -0.041897252 0.075560585
-0.033091668 0.054603815 -0.020202713 -0.08717595 -0.061102014 0.022959372 0.06300259 -0.012724939

mu.weight f4 [5, 128]
00000000: f18f 6a3d 288b 823c f4b8 183d 20a1 b23d
00000010: 9c36 783d ca9d 8b3d 7a46 67bd 2124 86bd
00000020: dce6 8e3d 6d56 a63d 67bc 363d f36a 0e3d
00000030: cf12 a5bc 68a0 fd3c e89e 2fbd 674c 61bb
00000040: 5ec6 a83d fe4f 65bd 58bf 98bd 92c9 d7bb
00000050: bc9b 3b3d c05a a8bd 39ad 673d 678b 6e3b
00000060: b658 283c fcf2 5e3d b0d1 353d a41c aebb
00000070: 44d6 acbd 72f2 9b3d cde1 ecbc f153 4abd
00000080: d8b5 ef3c be54 733d 874b 493c b93b 4fbd
00000090: 1202 a5bd 2362 1c3d 6300 fb3c 78f7 553d
000000a0: 2ac1 b33d ab70 46bd b574 de3c e4f6 b23d
000000b0: 2082 48bb 16a6 07bd dcb1 8cbd 3f4f 923a
000000c0: e913 38bd 07b4 77bd ddba acbd a62c 143d
000000d0: 58cf 55bc 54dc 1a3d 2d0e 433d a682 b4bd
000000e0: 9c7b 04bd 66b3 a03d 5a74 7ebc 05ad 723d
000000f0: 351d 9dbd b6d6 a43d 66aa 173d 0077 7fbd
00000100: 6a94 a73c c479 653d f849 443d 131f 8a3c
00000110: 08e2 0dbd 7c1d e5bc dac6 82bd 9650 b13d
00000120: 2ab0 873c 2e72 9a3c 371e 51bd 26bc 8cbd
00000130: a120 2fbc 28af 393d dcee 873d 46e5 12bc
00000140: f8d4 163d 01f4 81bc 666d d9bc b449 b43d
00000150: e9e0 ad3c 8217 b13d 092f b2bd 00de db3b
00000160: 6365 fabc 8bce 8c3d e83e 343d 94ac 6c3c
00000170: 9036 603d 4715 58bd b44e c0bc 0b84 363d
00000180: 13b8 53bd 93a3 ab3c 421e e93c 721c 97bd
00000190: afff 55bd 225c 85bd e12d a6bd 8eaf 01bd
000001a0: c525 e13c f437 053d 14f4 4b3d c69b 303c
000001b0: 41f5 68bd 204b abbd 611f 9d3d 4690 7c3c
000001c0: e044 8a3d 5662 aabd 6aa9 43bd 4d1e 05bb
000001d0: 382c 953d 3a13 95bd fb54 3fbd 60f1 89bd
000001e0: 04ef 363d 82e1 d53b 9fb9 0abd 826e 713d
000001f0: 0a93 86bd 3df1 13bc 20c5 26bd b431 a4bc
00000200: 0ce1 9e3a cf31 13bb 9af0 b33d 0f2b 9fbd
00000210: e364 16bd 4dcb d2bb d546 16bd 3d89 a73d
00000220: 6089 3b3d 3c8a 893d 5c8e 853d 8ef3 90bb
00000230: 9bc7 6f3d 5043 f4bb a8a6 823d 66d6 573c
00000240: 1866 113d 5667 163d c4a7 0abd c75e 9b3d
00000250: f623 943d c0fd aebc 7ce1 d3bc e300 a0bd
00000260: 0fb1 3f3d f922 8abd 479d a6bd 5e92 953d
00000270: 29ec a23c ce08 9d3d 8dd0 96bd 95b6 4abd
00000280: fbc0 bebc a2d0 5f3d d1cf 88bd ca5b 9bbd
00000290: 89c4 d2bc e598 3abd b604 b03d d1ea 393d
000002a0: 4824 73bd 76d1 1abd cfdd 68bb e457 61bd
000002b0: 6529 88bd 5cd4 a23d 858a 6fbd 45df 4f3d
000002c0: d3fc cdbc f3e5 88bd 89ce 22bd 54a8 24bd
000002d0: 6aa9 74bd e68a 5cbd 6270 73bb 1767 3dbd
000002e0: 3ad4 933d b053 acbd 9e02 67bc b88f 6f3d
000002f0: 5cb9 6dbd aff2 a2bc 5dfd 92bd 3d05 aebd
00000300: 6ebf 2c3d be81 b63c 4fdc 113c 07c3 8f3d
00000310: 9c28 18bb 136e 96bd c4bc b0bd 21e9 563c
00000320: 2a4c 55bd 0230 a93d 502e 35bc 4e52 9c3d
00000330: 96c6 64bc 7d52 26bd a9b5 b2bd 443c ad3d
00000340: 15d7 9bbd aa9c 803d 3657 0bbd a3ff 84bd
00000350: 417a f6bc 3482 303d f6c1 8a3d 1dca 96bd
00000360: d75c 86bd f74a f83c ee0b 2e3d 02ba 69bd
00000370: 38ec 173d 06e8 45bc 1656 9dbd 5404 4c3d
00000380: 1d02 97bd 5c2b 9abb 4d15 9abc fc2b 25bd
00000390: cf10 6fbc aff5 a0bd 93da a03d 8702 88bd
000003a0: c2b3 603d a806 5c3b 7acb 6ebb d906 c9bb
000003b0: 1342 19bd ccbf 80bc 8be2 823d 21ba 2abd
000003c0: 455f 263d 726e 91bd 31c8 31bd e795 7b3d
000003d0: 56b1 053d d6c6 a3bd 3256 7cbd cd8a 6b3d
000003e0: dcba bcbb e4ca a83d 24ec b1bd a80f c03c
000003f0: 3f06 b3bd 10e8 173d 2bc4 f2bc 66b5 14bc
0.05726618 0.015935495 0.03728576 0.087221384 0.060598955 0.06817205 -0.056463696 -0.0654986
0.06977627 0.08121953 0.04461327 0.034769963 -0.02015057 0.030960277 -0.042876154 -0.0034377815
0.082409605 -0.05598449 -0.07458371 -0.0065853084 0.045802817 -0.08220434 0.056561682 0.0036399008
0.010275057 0.054430947 0.044389427 -0.005313473 -0.084393054 0.07614602 -0.028916264 -0.04939646
0.029261515 0.05940699 0.0122860735 -0.050594065 -0.080570355 0.038179528 0.030639833 0.052237958
0.087770775 -0.048447292 0.02715526 0.08738497 -0.0030595139 -0.033117376 -0.068698615 0.0011162533
-0.044940863 -0.06047442 -0.08434079 0.036175393 -0.013049923 0.037807778 0.04762094 -0.08813982
-0.032344446 0.078467175 -0.01553067 0.059247036 -0.076715864 0.08048765 0.03702774 -0.062369347
0.020456512 0.056024328 0.047922105 0.01686052 -0.03463939 -0.02796816 -0.06385584 0.08657949
0.016563494 0.018853273 -0.051054206 -0.06871824 -0.010688932 0.045333058 0.06637356 -0.008965796
0.036824197 -0.01586342 -0.026541423 0.0880312 0.02122541 0.08647062 -0.087003775 0.006709814
-0.030565923 0.068753324 0.044005305 0.014445443 0.054739535 -0.052754667 -0.023475029 0.04455952
-0.05168922 0.020952022 0.02845681 -0.073784724 -0.052245792 -0.065117136 -0.081142195 -0.031661563
0.02748383 0.032524064 0.049793318 0.010779327 -0.056874517 -0.08363938 0.07672001 0.015415257
0.06751418 -0.08319537 -0.047768988 -0.002031225 0.07283825 -0.07279058 -0.046711903 -0.06735492
0.044661537 0.0065271268 -0.03386843 0.05894328 -0.06571014 -0.009029684 -0.040715337 -0.020043232
0.0012121513 -0.0022460108 0.087861255 -0.07771885 -0.036717307 -0.0064329267 -0.036688644 0.08180473
0.045785308 0.06715819 0.065212935 -0.004423565 0.058539968 -0.0074543133 0.063794434 0.013173675
0.035497755 0.036719643 -0.0338514 0.07586437 0.072334215 -0.021361232 -0.025864355 -0.07812669
0.046799716 -0.06744952 -0.08135467 0.07303308 0.019888 0.07667695 -0.07363997 -0.04949053
-0.02328538 0.054642327 -0.06680263 -0.07585867 -0.02572848 -0.045555968 0.085946485 0.045389954
-0.059360772 -0.037797414 -0.00355326 -0.05501546 -0.066485204 0.079506606 -0.058481712 0.050750036
-0.02514497 -0.06684484 -0.03974775 -0.040199593 -0.05973188 -0.0538434 -0.0037145843 -0.046240892
0.072182134 -0.084143996 -0.014099745 0.05848667 -0.0580381 -0.019891111 -0.071772315 -0.08497093
0.04217475 0.022278663 0.008902623 0.070196204 -0.0023217564 -0.07345214 -0.08629754 0.013117106
-0.05207459 0.0826111 -0.011058405 0.07632886 -0.013963362 -0.04060601 -0.08726055 0.084587604
-0.07609383 0.06279881 -0.034018718 -0.06494071 -0.030087592 0.04309292 0.06775276 -0.07362769
-0.065606765 0.030309184 0.042491846 -0.057062156 0.03709051 -0.0120792445 -0.07682435 0.049808815
-0.0737345 -0.004704876 -0.018808985 -0.04032515 -0.01459141 -0.078593604 0.0785419 -0.06641107
0.05485893 0.0033573303 -0.00364372 -0.0061348495 -0.03741653 -0.015716456 0.06390866 -0.041681413
0.0406182 -0.07101144 -0.043403808 0.061422255 0.032639824 -0.07996909 -0.06160564 0.057505418
-0.00575958 0.08241823 -0.086876184 0.023444965 -0.08741426 0.037086546 -0.029634556 -0.009076452

mu.bias f4 [5]
00000000: 183d 903d 0523 2d3d f9cc 7abd c045 3dbd
00000010: e314 1abd
0.07042903 0.042269725 -0.061230633 -0.046209097 -0.037617575

log_std.weight f4 [5, 128]
00000000: 2c63 c63c f8ed 413d 22a6 92bb 53b8 b2bd
00000010: 76b4 66bd 9f56 2ebd 89ee 74bd 4c29 393d
00000020: bcd1 6e3b 48ce 81bd bedc 5cbd 8cdd 84bd
00000030: ac95 79bd e0c3 073d 166a 3fbd 9563 9abd
00000040: b857 c73b 917f b7bb abb3 96bd 7ea0 c03c
00000050: 2e69 ed3b 1824 3d3c 7ccd 1d3d 31fa 37bd
00000060: b4cb 9ebd e0ca 683d a092 a33d 5882 a73d
00000070: 3bfd 3f3d 2801 a73d 67ec c93c 548d 9ebd
00000080: 40eb d43c 826c 8abd 5323 abbd b6db 0a3d
00000090: b7f9 40bd 1363 83bd 4856 aa3d 574c e43c
000000a0: 4b78 193d c191 dabc 0628 063d 0da9 ddba
000000b0: 9c92 abbc fd9c 8cbc dcb9 853d 00c6 78bd
000000c0: e3b1 e1bc 8e91 833d 1fc5 90bb bc82 303d
000000d0: adad 1abd ebac 713d 954a 81bd 925b 43bd
000000e0: fed8 9fbd 3d33 91bd c4ba 623d 84dc 683d
000000f0: fbd3 403d 77f9 313d 2858 743d a8fb 5a3d
00000100: f6d3 533d 3cf7 32bd 9906 873d 1e2e 6f3d
00000110: 86df dd3c 89e4 84bc 84a2 9d3d e14d cabb
00000120: 2558 a9bd 7940 09bd 00f9 13bb 00df 2a3d
00000130: a74e c03c b69b 753c 1069 993d 3477 6b3d
00000140: 02e0 4ebd c185 04bd e9f0 0ebc 6de3 aebb
00000150: eaa1 8abd 5576 c4bc 2680 883d 671c b0bd
00000160: 8eb9 4b3c 0f2f 903c 3dbf e9bc b2c2 f8bc
00000170: 53b0 36bd 7420 a5bd 17da a3bd 2b43 3f3d
00000180: 0869 41bb a4dc 87bb d06a 72bc 22d4 abbd
00000190: fa2d 71bc 958c a7bd 9829 313d 304a 00bd
000001a0: fb84 f8bc 1792 fc3c e362 79bd 78d2 6cbd
000001b0: de22 4abd 18c1 a5bc 00fa 65bd 12f5 b4bd
000001c0: dbaa 203d b79c 433d a2a2 16bd 1c96 8abd
000001d0: 8bd6 733d 5e12 5dbd 88f9 8cbd d6e0 a3bd
000001e0: 43e1 b03c deba a13c b6b1 ab3d 8a54 0ebd
000001f0: ea2f 62bd 4b3d b03d 27a0 773d dfd5 a0bd
00000200: be29 aabd df8c 053d 8791 35bd 2678 773c
00000210: c94a b4bb 02b6 e3bc 74e9 993d f0f9 ea3c
00000220: e372 d73c 987b 88bd a250 00bd 8eff 273d
00000230: 70c6 453d a0ff 193c 42e9 b1bd 28fb 43bd
00000240: a8c2 b13d d25f 923d 746a 3d3d 389a 54bd
00000250: 3117 42bd 4cf6 023d a02b 98bd 2c02 2ebc
00000260: ce70 093d 947b 0d3d e0d9 303d 7c6a a33b
00000270: f0bd 713d b7a0 b1bd 5a0b 3cbd b9ae e1bc
00000280: 7873 523d cf4f 8dbd 16e1 843d 3f83 50bd
00000290: 5f31 ddbc 9856 853d 3c96 b03d 4bb6 d63c
000002a0: d928 9dbc 5ce5 7e3d ac0a 96bb 9766 5b3d
000002b0: b9db 133d 8f4a d5ba 9d35 aa3d 844e 2d3d
000002c0: 8a61 a93d 5e56 aa3d 1085 893c 53a0 2abd
000002d0: d7e6 f5bc 6154 6bbc 5fc2 eebc 872e 123c
000002e0: 175d af3d 533e 6d3d bfd0 c33c 276a 3d3d
000002f0: 18a2 4dbd b550 103d acf3 9d3d 54ba e73c
00000300: 34fa 8a3a 3291 913d 5478 95bd e89b 4d3d
00000310: 96a5 8ebc 0d79 a7bd f0be 493d d641 93bc
00000320: 1c1f a5bc 91bb 26bd 2016 efbc 8785 63bc
00000330: 935c b2bd d0d5 2e3d e70f 363c 1138 053d
00000340: 3082 b33d 4109 a4bc 8081 5abd be51 6cbd
00000350: bd7d 4cbc 2c69 8fbc 865e ff3c 0f19 c43b
00000360: 27cc ee3c 62b8 39bd 4579 9cbd bc58 443b
00000370: c7b2 963c 4768 2ebd b06d 02bd d925 82bc
00000380: 1a7a a2bd 8457 a83d 69cd 813d a5c6 84bd
00000390: e01b adbd 2600 9d3d 3aae 953d a42d a3bd
000003a0: 5008 973c 6635 67bd 1cdc 85bd 7513 7dbd
000003b0: 77ed 213b f58f a63d 26ff 293d 9ec7 a7bd
000003c0: b4fa 413d d2ae a33d f443 7e3d 13db a73d
000003d0: b2bd 53bd 0a79 39bd 42f2 473d 6935 8fbd
000003e0: 813a cfbc 1053 813d 65fa db3c 0cb8 c1bc
000003f0: 38ce 103d ec80 2abd 83b0 38bd 7acc d63c
0.02421721 0.047346085 -0.004475371 -0.08726563 -0.056324445 -0.042563077 -0.059797797 0.0452054
0.003644093 -0.06338173 -0.053921454 -0.06487569 -0.060933754 0.033145785 -0.04673203 -0.07538525
0.006083455 -0.005599924 -0.07358488 0.023514029 0.0072452044 0.01154425 0.038526043 -0.044916335
-0.07753697 0.0568341 0.07986951 0.08179158 0.04687236 0.081545174 0.024648858 -0.077418
0.025991082 -0.067589775 -0.08356347 0.03390094 -0.047113147 -0.06415381 0.08317238 0.027868433
0.037468236 -0.026680829 0.032753013 -0.0016911343 -0.020943932 -0.017164702 0.065295905 -0.060735703
-0.027550643 0.06424247 -0.00441803 0.043093428 -0.037763286 0.059002798 -0.063130535 -0.04769475
-0.0780506 -0.07089851 0.055353895 0.056850925 0.04707716 0.0434508 0.059654385 0.053462654
0.051715814 -0.043692812 0.06593055 0.05839359 0.027084123 -0.016222255 0.07697013 -0.0061738347
-0.08268765 -0.03350875 -0.0022578835 0.041716576 0.023475004 0.014990738 0.07490742 0.057486728
-0.0505066 -0.03235412 -0.00872443 -0.00533717 -0.06769164 -0.023982206 0.066650674 -0.08599167
0.012434376 0.017600564 -0.028533572 -0.030366275 -0.04460175 -0.080628306 -0.08000582 0.046694916
-0.0029512066 -0.0041461755 -0.014795974 -0.083900705 -0.014720434 -0.08181111 0.043252558 -0.03132075
-0.030336848 0.03083138 -0.06088532 -0.057817906 -0.04934966 -0.020233676 -0.05614662 -0.08835806
0.03922544 0.047756877 -0.036776192 -0.06766912 0.059530776 -0.053972594 -0.06883532 -0.080018684
0.021591788 0.019742426 0.08383505 -0.03474859 -0.055221476 0.08605441 0.060455468 -0.07853293
-0.08308743 0.03260505 -0.04432824 0.015104329 -0.005502079 -0.027796749 0.07515231 0.028683633
0.0262999 -0.06664199 -0.031326897 0.0410152 0.048284948 0.009399325 -0.086870685 -0.047846943
0.08679706 0.071471825 0.0462441 -0.051904887 -0.0473854 0.03197317 -0.07430196 -0.010620635
0.033554845 0.03454168 0.04317653 0.004987059 0.05901903 -0.08673232 -0.045909263 -0.027549135
0.05137965 -0.06899988 0.06488244 -0.050906416 -0.027001081 0.06510657 0.08622405 0.026209971
-0.019184517 0.062230453 -0.004578909 0.053564634 0.036098216 -0.001627283 0.08311007 0.042311206
0.08270557 0.083172545 0.016787082 -0.041656803 -0.0300173 -0.014363379 -0.029145418 0.008922226
0.08562677 0.057920765 0.023903249 0.046243813 -0.050203413 0.03523322 0.07712492 0.02828709
0.0010603131 0.07107772 -0.072983414 0.050197512 -0.017412942 -0.081773855 0.049254358 -0.017975729
-0.020156436 -0.04070622 -0.029185355 -0.013886816 -0.087090634 0.042684376 0.01111219 0.032524172
0.08765066 -0.020023944 -0.053346157 -0.057695143 -0.01248115 -0.017506205 0.031173002 0.0059844325
0.029150082 -0.045341857 -0.07640318 0.0029960116 0.018395795 -0.042579915 -0.031842887 -0.015887188
-0.07933445 0.08219817 0.06338007 -0.06483201 -0.08452582 0.07666044 0.07308622 -0.0796769
0.01843658 -0.05644741 -0.06536123 -0.061786134 0.002470819 0.081329264 0.041503094 -0.08192371
0.04735823 0.07992329 0.062076524 0.08196082 -0.05169458 -0.045281447 0.04881502 -0.06992609
-0.025296452 0.06314671 0.026852796 -0.02364733 0.035352916 -0.041626856 -0.04509021 0.026220549

log_std.bias f4 [5]
00000000: 9f47 013d 3b95 a03b eda6 233c 7e31 41bd
00000010: 06fa 23bd
0.031562444 0.004900602 0.009988529 -0.04716634 -0.040033363
