resource/train_valid_split/sac_actor_7000.pth (torch, 80597 bytes, 8 tensors)

fc1.weight f4 [128, 12]
00000000: ae00 783e 3d3a 6d3e 7ba2 f4bc 309c 783e
00000010: 5b7e 76bd fc2f 383d 7c3f 4dbe cdc8 1a3e
00000020: bbd0 943e b89e 61be eb94 ab3e a321 103d
00000030: c2a5 523e 4f20 823c 5289 0e3e f23f 39bd
00000040: d8cb 533e e8ac 943d 7597 1abe 5558 773d
00000050: 1228 25be 5aa5 c33c 27f0 cebd 940d 2e3e
00000060: b1f3 3cbe 40c4 34be 1cf1 a6bd 94da 05be
00000070: 9e93 903d eb35 b8be 1db5 b83e a638 4fbe
00000080: 204d 883e 3066 023e ed6f 46be 6a8d 623e
00000090: 4a87 c13b 650f 953e d906 223d 4c77 0dbe
000000a0: 88f4 153d 027d c9bd b4fc 043e 7af1 733e
000000b0: e1f8 183e 4bb6 f7bd 12ae 233e 3b3d e2ba
000000c0: d91f f63d 017a 47be 6d94 96be 897b c7bd
000000d0: 1bee 69be aa02 713e 0d40 2b3d 1fa5 3d3e
000000e0: ec4d d43d a9be 0bbc 8973 803e 20ee 92be
000000f0: bf29 72bc f049 edbd 1862 c63d f16b 16be
00000100: 0017 a33d e5d6 e0bd 32cd 863e 5dd9 5ebe
00000110: f54a 43be b6c9 4bbe 5767 753e b3f1 953d
00000120: 731c 953e c219 7abe d799 92be 8456 82be
00000130: f9da 36be 05fa ec3d 3fc3 cd3d 8de1 863e
00000140: abaf d9bd d301 49be d5ce 1f3e 5e44 2fbe
00000150: 0e8d 3f3e 4c66 6abd b233 f53d 884d 5fbe
00000160: f8ae 06be 8d8e 9b3d 84b7 a13d b275 70bd
00000170: 58f9 403e 25ad 5b3e 2098 7abe 11d9 15be
00000180: f2b3 913e 468f dfbd aa97 d1bd 2c14 acbe
00000190: f657 0bbe 4942 453d ede8 3e3d 8fb3 73be
000001a0: c19c 353d d5e7 4fbe 5bc4 a8be c21c 21be
000001b0: 254b 9ebe 266a 16be 6ebe 933e 7d97 dc3c
000001c0: a5eb 0d3e 69c3 9ebe 255e fabd 84a9 17bd
000001d0: 2805 933d 78b7 85be fc53 44be b061 51be
000001e0: b5ba 91bc 20fd 20be 60df a3bc 424f 48be
000001f0: 91ef 5dbe 51af 3dbe 585e cabd 6650 69be
00000200: c3d1 643e b1c9 0fbc 0c56 7e3e 9c35 b83d
00000210: e985 8cbe 7894 a23e 756a ccbd 712b 0ebd
00000220: bb9a 77be 72b2 9fbe a670 ca3d a80d 523d
00000230: 6cb8 283e 6362 a8be 6804 353e 4451 26be
00000240: 79da eabc 8bc5 a93d 129b 183e 4470 8d3e
00000250: a01f 883e f363 6abe e484 273d a228 b2bd
00000260: 1838 8fbd 4966 74be 24e2 963e 5cd8 70be
00000270: cd69 283e 7bf0 1e3e 2c6f 113e bbe0 f8bd
00000280: 918c 903e df75 0c3e 861f ca3c b81f 61be
00000290: e27d f83d 6100 69bb 98a4 adbd 83a4 903e
000002a0: 49d0 a53d 6ab7 2abe c99d 15be 5b95 d03c
000002b0: 548b 023e c412 97bd f1a9 28be da33 c7bd
000002c0: f4ab 55be c92c e13d 14cf 643e a01c 9bbe
000002d0: 2c5f 8a3d 5d39 103e 3704 653d d82c 03be
000002e0: 964f 253e 1bec 133e fbcb 143e 3e1b b9bd
000002f0: 4c71 a8bd ae52 cf3c 6eab aebd 7e56 b9bd
00000300: b242 153e 2b16 7c3e b9f8 07bd 9c01 d5bd
00000310: 2719 3cbd 05f2 16bd 5024 693d 1770 403d
00000320: aea2 85be 6d5d 40be ec07 793e 8f84 b33d
00000330: d86f 68bc 2744 dfbd 04da 34be eef6 89be
00000340: f408 d6bd cb4d af3d 72d8 803e f29c ee3d
00000350: 9068 80be 3aff 39be 2fb8 e7bd 1e9f 8c3e
00000360: 8dd8 e3bc d7b1 9cbd e88a cc3d f8c1 f5bd
00000370: b7b3 78be 79e4 483e 7a6f 1abe 0e59 7cbd
00000380: 95d4 a4be 7ccf 703e 5def 4b3e ea83 d83d
00000390: cff2 51be a47a 82be 3315 70be 0661 3b3e
000003a0: 93ee 113e 2e66 823e a99f 5a3e 9ed3 393d
000003b0: 5b0e 8f3c 52a0 7dbe e683 9ebe 05b5 93be
000003c0: 3f29 e03d 530f 1abe b8f6 6dbd 58ff 26be
000003d0: ac76 57bd 5e01 89be e026 41be e735 743e
000003e0: 1dd9 9dbd d7a4 783e 0eaa bdbd e8ee b3be
000003f0: 3e16 a73c 9573 40be ecdf b4bd 7dc4 a5be
0.2421901 0.23166747 -0.029862633 0.24278331 -0.060179096 0.044967636 -0.20043749 0.15115662
0.290655 -0.22033203 0.33512053 0.03518833 0.20571044 0.015884547 0.13919571 -0.045227
0.20683229 0.07259542 -0.15096839 0.060386974 -0.16128567 0.023882557 -0.10104399 0.16997367
-0.18452336 -0.17652988 -0.08151457 -0.13071662 0.07059406 -0.35978636 0.36075678 -0.20236453
0.26621342 0.12734294 -0.19378634 0.22124258 0.0059060203 0.29113308 0.03955731 -0.1381504
0.036610156 -0.098382965 0.12987024 0.23822585 0.1493869 -0.120953165 0.15984371 -0.001726068
0.12017793 -0.19480135 -0.29410115 -0.09740359 -0.22844736 0.23536173 0.04180913 0.1852002
0.10366425 -0.008529344 0.25088146 -0.286973 -0.014780461 -0.11586368 0.09686679 -0.14689614
0.07963371 -0.10978488 0.26328427 -0.21762605 -0.19071563 -0.19901165 0.23965202 0.07321491
0.29123268 -0.24423888 -0.28632995 -0.2545663 -0.17856969 0.11571125 0.10047006 0.26343957
-0.10629209 -0.19629602 0.15606244 -0.17115924 0.18706152 -0.057226464 0.11972751 -0.2180692
-0.13152683 0.07595549 0.07896331 -0.058705993 0.18845117 0.21452768 -0.24472094 -0.14633586
0.284576 -0.10915999 -0.10234006 -0.3360914 -0.13607773 0.048158918 0.046608854 -0.23798965
0.044338945 -0.2030328 -0.32962307 -0.15733626 -0.30916706 -0.1468893 0.28856224 0.026927704
0.13859423 -0.3100846 -0.12224988 -0.037026897 0.07178718 -0.26116538 -0.19172662 -0.20447421
-0.017789224 -0.1572156 -0.020003974 -0.19561484 -0.21673419 -0.18523909 -0.09881276 -0.22784576
0.22345643 -0.008776114 0.24837512 0.089946 -0.27445915 0.31753898 -0.099812426 -0.034709398
-0.24180119 -0.3119083 0.09884767 0.051282555 0.16476601 -0.32887563 0.17677462 -0.16241938
-0.028668629 0.082896315 0.14902905 0.27624714 0.26586628 -0.2288969 0.04089822 -0.08699156
-0.06993121 -0.23867144 0.29469407 -0.23520035 0.1644661 0.15521424 0.14202565 -0.12152239
0.28232244 0.13716839 0.024673235 -0.21984756 0.12133385 -0.0035553204 -0.084786594 0.28250512
0.08096368 -0.1667153 -0.14610972 0.025461843 0.12748462 -0.07376626 -0.16471078 -0.09726687
-0.20866376 0.1099487 0.22344619 -0.30295277 0.06756434 0.14084382 0.055912223 -0.12810075
0.16143641 0.14445536 0.14530937 -0.09038399 -0.08224735 0.02530798 -0.08528791 -0.090497
0.14576223 0.24617831 -0.033196185 -0.104006976 -0.045922425 -0.0368519 0.056919396 0.046981897
-0.26100677 -0.18785639 0.24319428 0.08765518 -0.014186822 -0.10901671 -0.17661291 -0.26946205
-0.104509264 0.0855976 0.25165135 0.11651029 -0.25079775 -0.18163767 -0.11314427 0.27465147
-0.02781322 -0.07651108 0.09987432 -0.11999887 -0.24287306 0.19618405 -0.15081587 -0.061608367
-0.32193437 0.23516649 0.19915529 0.105720356 -0.2050278 -0.25484192 -0.23445587 0.1829873
0.14251165 0.25468582 0.21349968 0.04536783 0.0174629 -0.24768189 -0.30960006 -0.28849044
0.10945367 -0.15044908 -0.058096617 -0.16308343 -0.05260341 -0.26758856 -0.18862486 0.23848687
-0.07707427 0.24281631 -0.09260951 -0.35143209 0.020396348 -0.18794091 -0.08831772 -0.3237647

fc1.bias f4 [128]
00000000: ba74 213d a7c5 e1bd d46c 8bbd b5f0 ffbd
00000010: a374 28bd 48e0 843e 3f75 f23d bf7d 9c3e
00000020: 2b82 9d3d 6d7a a33d c55c 123e a1fd 053e
00000030: 71d3 4ebe f996 2ebe 26ff 70bd 113c f8bb
00000040: 0a7e c43d b9f3 0e3e 5281 953e eac9 803d
00000050: a835 99ba 0668 23be f68a 18be a0fd 00be
00000060: aec5 173e c5ea 0d3e e533 883e df23 39bb
00000070: 4107 283d 5f4d a4bd cbdc 0fbb 16df be3d
00000080: fbed b93c 501d 493d 7e1f 383d 8bed 0a3e
00000090: 732b c3bd b91e fbbd ee17 5f3d cc5b 8bbd
000000a0: b02b cdbd ea87 aa3d 1c44 75bb aa2c 90bc
000000b0: 4b94 dfbd ad6f 49bd f31f 5fbe 1153 0e3e
000000c0: e1ab 38ba 3238 483e 061b d43d f741 3c3d
000000d0: 93f3 283e fe93 6c3e 460c 0abe 951b 0d3e
000000e0: be48 073d beca 38be 3117 973d 9189 2abe
000000f0: dd86 10bd 74f7 27be f989 fabd bd09 7d3e
00000100: ce13 4abe b822 123e f405 85be 712c 4a3b
00000110: 7f78 c93a c959 5d3e edc4 e4bd 43b8 073d
00000120: 8a5d 783d 80c9 1b3e 1f27 143d a312 c23d
00000130: a436 e7bd 6837 13be b1f7 913e 0abc dbbd
00000140: 2801 463c 4d9f e2bc 4e5f 823e 055d 67bb
00000150: 794d 2ebe 4cf9 d93c c273 4c3e b270 ac3d
00000160: 03bb 643e 5403 adbd 22f8 f83d cceb 86be
00000170: 05e1 0a3e 5ab6 ea3d be97 2a3e b91b 08be
00000180: cffa 78bd cf8a a03d 9b12 25be 6bc8 22be
00000190: 382b 6bbe 2bf4 16bb 6c11 2c3e 8285 6b3d
000001a0: bae8 f53d 5112 be3d 544f 46be 00a5 7ebb
000001b0: 8449 2bbb 35d8 09be 6a35 863e 181a 5fbe
000001c0: 811e 0f3e 2bb6 3ebe f38f f8bc a821 c2bd
000001d0: 26ca d73d a8b3 1cbe 60b6 373e 43a7 83be
000001e0: 8514 703e 1765 27be 5903 1b3e 049d 61bd
000001f0: 6cf3 a73c 38fb d2bd c388 4e3e f27a b63d
0.03941796 -0.11024027 -0.06807867 -0.12497083 -0.04112686 0.25952363 0.11838769 0.30564687
0.07690843 0.07982335 0.14293201 0.13085033 -0.20197846 -0.17049779 -0.05883708 -0.00757552
0.095943525 0.1396016 0.29200226 0.06288512 -0.0011688964 -0.1595765 -0.1489676 -0.1259675
0.14821503 0.13859089 0.26602092 -0.002825014 0.041022543 -0.0802257 -0.0021951671 0.09319894
0.022696486 0.04910022 0.04495191 0.13567178 -0.09529772 -0.12261719 0.05446618 -0.06804618
-0.10018098 0.08326705 -0.003742463 -0.017599422 -0.109169565 -0.049178768 -0.21789531 0.13898875
-0.0007044655 0.19552687 0.10356717 0.045961346 0.16499166 0.2310333 -0.13481244 0.13780053
0.033028357 -0.1804609 0.0737747 -0.1665404 -0.035284866 -0.1640299 -0.122333474 0.24710746
-0.19734117 0.14271057 -0.25981104 0.0030849243 0.0015370994 0.21616282 -0.11170373 0.03313471
0.06063608 0.15213585 0.03617012 0.09476211 -0.11289719 -0.14376605 0.28509286 -0.10729225
0.012085237 -0.027663851 0.25463337 -0.0035303247 -0.17021741 0.026608132 0.19966033 0.084199324
0.22336964 -0.084479004 0.121567026 -0.26351774 0.135624 0.11460562 0.16659448 -0.13291825
-0.060786065 0.07838976 -0.16120379 -0.15896766 -0.22965705 -0.002303372 0.16803521 0.05750037
0.1200728 0.09280837 -0.19366199 -0.0038855672 -0.0026136348 -0.13461383 0.26212627 -0.21787298
0.1397648 -0.18624179 -0.030342078 -0.09479076 0.10536604 -0.15302908 0.17940664 -0.25713548
0.23445328 -0.16347156 0.15137996 -0.055081382 0.020501815 -0.103018224 0.20169358 0.08910169

fc2.weight f4 [128, 128]
00000000: 37bc bdbd 8703 90bc 0754 85bd 13e4 863b
00000010: 4c0a 813d 541b e5bc f03e 8b3c fc43 953c
00000020: f2c8 80bd 3dfd 413c de83 223d 99aa 04bd
00000030: 8f89 4abd 0ef4 00be 1ccf 943b 8bdb 4bbd
00000040: c50b 00bd f47a ca3c 4ee0 fd3d 4280 f13d
00000050: 8d8d 20bd 0b22 d23c b1b3 e1bd 7be7 61bd
00000060: 0669 e6bd 2b70 ec3d 898d eabc 8db2 643c
00000070: 4502 a73d 6b5e c03d 5d6d 783c 377c 92bc
00000080: 56c2 3c3b 6936 a93d 454c 2fbd 8d6a f2bc
00000090: 5a4e 1ebc 0439 c5bc ecc8 663d 8040 97bd
000000a0: aef1 12bc 760c 983d ba18 263d 9d9c e43b
000000b0: 4bd4 6f3d 7cb4 573d 1c1c 863d c6ec 993d
000000c0: 4778 8ebd db9f 233d 7e49 923d b47f c5bd
000000d0: 1f2c 503d 6a77 1bbd cd11 8c3d a00a 1ebd
000000e0: ffb4 13bd c49d fd3d 7578 0dbe 4ed8 dfbd
000000f0: 8d2e 4ebd caf0 873d b5e4 2b3d 9070 33bd
00000100: 8cbc 6f3d f62b 07bd 8e0a 28bd 8af9 ab3c
00000110: 08a8 8a3d c214 37bd 9107 433c 75e7 013d
00000120: 117f 74bb c91c 26bd 6ba7 30bd d5bb 5b3d
00000130: b064 1b3d f6e0 f53b d020 30bd cce6 e83c
00000140: 5dd5 2a3e 9be8 a13d eed2 043d 351d 6b3d
00000150: 0522 1dbd b37e 9e3d 0f35 b33d 0070 6e3d
00000160: 1ccd e23b bb68 ba3d 391d 993d da2d 7a3d
00000170: 791b 023e 731f 93bd 6df7 523d 6bc0 5a3c
00000180: d9db 84bd b607 ebbc c7c1 d8bd 5575 19be
00000190: 20f2 cfbd fb77 4dbd 20f1 22bc d488 933d
000001a0: 88e4 983d 5811 503d c7bc aa3d 32cd 4cbd
000001b0: b5b4 04be fa53 ea3b b464 b53d 69fd 65bd
000001c0: 33ca 7ebd 5d54 76bd dea1 9fbd 563f fcbc
000001d0: b5d6 de3d 21dd 953d c593 2cbd 90ad f33c
000001e0: 5b73 d4bc 6195 9bbc 1947 683d 116b ef3d
000001f0: 739d d5bd e07f c0bd 21ad 2abc 957a b4bd
00000200: e4b4 eabd f3d4 053d 4cc4 43bc e205 aebd
00000210: 9b85 823c 5a43 dbbd e3cb 9e3d 8f6c a5bc
00000220: c2d1 85bd a289 52bd c7db fc3c 4aed 3abc
00000230: e500 cabc 1633 7bbd 1a0e 28bd c70f 623c
00000240: ab2c 883d 5c49 9abd 1583 5b3d 2697 5abd
00000250: cf60 69bc 13a6 913d 6a7d a7bc cc4d 933d
00000260: 988b e8bc 181b 8e3c f07d 37bd 7fc9 b63d
00000270: 5e0b a5bd dd8a 8f3c 487b 143c 561b 183b
00000280: f21d 4a3d 2845 60bc 2c83 9c3d 15e6 9fbd
00000290: 965d 83b9 a191 413d 63b1 6c3d 37ac 34bd
000002a0: 6b4a febc 84ae 86bd df9f 9d3c 6d92 fdbb
000002b0: b2ee 9d3c efbc 793b 574a 713d 4d56 8ebd
000002c0: 3d96 22bd fb36 223d d429 cb3d 7be0 febc
000002d0: e951 543c f89e ae3c 9e20 2b3d db46 10bc
000002e0: 2c8b 063d 01f1 20bd 6a32 ea3b fcc8 71bd
000002f0: 28b3 323d 4996 963c b4a5 b23b 849a fb3d
00000300: 0257 13bd 1278 14be 100d aebd ca76 433d
00000310: 648f db3c b410 80bd 1519 073d 517f 783d
00000320: f887 bdbd 09b8 473d 3380 543b 0940 9dbc
00000330: 6511 cb3d addc 8f3d 62cd e73d e8fb a83d
00000340: 9b4b c33d a029 d0bc 198c 96bd 68a3 a93c
00000350: 3b06 dabd 3a2a f43c 9573 dbbc 00dc d1bc
00000360: d135 33bc f04b 7ebd 8b72 5f3d 4133 873d
00000370: 074d ab3d e1be 74bd cb81 1ebc fe3b f6bc
00000380: 29af 0e3d bb5d b8ba 7b50 ce3b 8db1 2e3d
00000390: 2d1b 87bd 901a 09bc 6605 13bd 430b 0ebd
000003a0: 2258 0e3e 707b f8bc e902 8d3d 8a7d 9abd
000003b0: a5fc ad3c 7ee0 f0bd c393 dabc 02bf e3bc
000003c0: 6ed5 b63d ec68 483d b988 fabd ceb2 773b
000003d0: de1b 89bd 2f96 023d 8708 82bd 965b 32bd
000003e0: 7a85 8b3d aa3e 5bbd 222a b1bd be62 d93c
000003f0: 0a40 af3d a21e 04bd 2da7 5c3d a09c 5cbd
-0.09264415 -0.017579807 -0.065101676 0.004116544 0.06300792 -0.027967133 0.016997784 0.018220894
-0.06288327 0.011840162 0.03967654 -0.032389257 -0.049447592 -0.125931 0.004541291 -0.04976992
-0.031261224 0.024716832 0.12396298 0.11792041 -0.039197493 0.025650999 -0.110206015 -0.055152398
-0.112505004 0.11544832 -0.028631942 0.013958585 0.0815473 0.09393009 0.015162793 -0.017881496
0.0028802357 0.08262331 -0.042797346 -0.029591823 -0.009662235 -0.024075039 0.056343958 -0.07385349
-0.008968754 0.07424252 0.040550925 0.0069766776 0.058552068 0.052662358 0.0654833 0.07515864
-0.06956535 0.039947372 0.07142924 -0.09643498 0.050823327 -0.03795568 0.06839333 -0.03858435
-0.036061283 0.12383607 -0.13815482 -0.10929929 -0.050337363 0.06637724 0.04196616 -0.04380852
0.05852942 -0.03300091 -0.04102569 0.020993013 0.06770331 -0.04469753 0.011903659 0.031714875
-0.0037307183 -0.040554795 -0.043128412 0.053645927 0.03793782 0.007503624 -0.043000042 0.028430365
0.16682954 0.07905694 0.03242772 0.0574009 -0.03836252 0.0773901 0.087503545 0.05821228
0.0069214236 0.09102007 0.07476277 0.061078884 0.12705792 -0.07183733 0.051505495 0.01335154
-0.06487245 -0.0286902 -0.10583835 -0.14986165 -0.101536036 -0.05016325 -0.009945184 0.07203832
0.07465464 0.05079779 0.08336788 -0.050000377 -0.1295956 0.007151124 0.08857098 -0.056149874
-0.06220455 -0.06013905 -0.077945456 -0.03079192 0.10880796 0.073175676 -0.04213311 0.029745847
-0.025933912 -0.018992128 0.05670843 0.11690343 -0.10430422 -0.0939939 -0.010417254 -0.08812443
-0.114602834 0.032673787 -0.011948656 -0.08497216 0.015932849 -0.10706206 0.07753732 -0.020193366
-0.06534149 -0.051400788 0.030866517 -0.011409113 -0.02465863 -0.061328016 -0.041029073 0.013797707
0.06649145 -0.075335234 0.053591806 -0.053366803 -0.014244272 0.07111754 -0.020445544 0.07192573
-0.028386876 0.017346904 -0.044797838 0.08925151 -0.08058809 0.01752227 0.009062596 0.0023209653
0.049344964 -0.013688363 0.076422065 -0.078075565 -0.00025055994 0.047258023 0.057786357 -0.04410955
-0.031041345 -0.06576255 0.019241272 -0.0077384026 0.019278858 0.0038106998 0.058908787 -0.06950054
-0.03969406 0.039603215 0.099200875 -0.0311129 0.012958982 0.021316037 0.041779153 -0.008805956
0.03284757 -0.03929234 0.007147123 -0.059029564 0.043627888 0.018382208 0.0054518823 0.12285331
-0.03597165 -0.14498928 -0.08498585 0.047720708 0.026801772 -0.06253186 0.032982904 0.060668293
-0.092544496 0.048759494 0.0032425046 -0.019195573 0.09915427 0.070245124 0.113184705 0.08251172
0.09535905 -0.025410473 -0.0735094 0.020707801 -0.106457196 0.029805291 -0.026788512 -0.0256176
-0.010938124 -0.06208414 0.054552596 0.06601573 0.08364301 -0.05975235 -0.0096745 -0.030057903
0.034835014 -0.001406602 0.006296215 0.042649794 -0.0659698 -0.008368149 -0.03589382 -0.03467871
0.13900807 -0.030332297 0.06885321 -0.07543476 0.021238634 -0.117615685 -0.026681786 -0.02780104
0.08927427 0.048928186 -0.12233109 0.0037795785 -0.06694768 0.031881507 -0.06349283 -0.043544374
0.06812568 -0.053526558 -0.08650614 0.026536342 0.08557136 -0.032255776 0.05387037 -0.053860307

fc2.bias f4 [128]
00000000: c78e 973b 27bf c4bc 2df7 783d dfa8 683d
00000010: c065 2abc eefa 433d 0b53 b6bc 330a 62bc
00000020: 8c83 0cbd cd52 95bd 1b44 703d 204b b83b
00000030: f2ed 86bd 10f5 9cbd b673 933d 2f69 4b3b
00000040: edc3 11bd 2969 bdbc d403 07bd e26c 123d
00000050: b61c 26bd 4964 29bd 4a21 2dbd 06dd 53bd
00000060: 7713 363d f192 153d e2a3 1a3c 2e50 ac3d
00000070: f03b abbc 3624 fbbc e36a 65bd bc6b b0bd
00000080: 772b 6dbd d319 b0bc 4f4c af3d efaf 92bd
00000090: 61d8 923d a5fd fd3c e792 573d 167e 683d
000000a0: 1de5 5b3d 694d c13d 38a5 fa3c 3310 afbc
000000b0: 581b 163d 6676 73bc 0005 4cbd c335 1c3d
000000c0: 86e5 c83d 050b 923d ab4e f0bc 7442 1f39
000000d0: a307 293d 2680 603d 64a3 9bbd 58f0 da3c
000000e0: 1e1c 8bbc dd19 843d 2342 dc3c b5ec 57bd
000000f0: 9f97 dbbc 66c2 8d3d 7441 d4bc a0cc 2d3c
00000100: 8d63 943d 0238 82bd c9a0 bdbc d4a8 29bd
00000110: dcc6 ddbb 62a7 1e3d 36b9 203c bedf 123d
00000120: b7a6 5ebd b397 123d ce8e 41bd c9c7 de3d
00000130: a43f 8fbc af1c 273d 7431 41bb 69d0 633d
00000140: aba2 8dbd b1cb 773b 8e25 693d 85da 9dbd
00000150: efab ae3d 4f13 073d bd40 5bbd 4d21 7dbd
00000160: 4b08 393d 6854 dbbc 6589 733d 0096 d03c
00000170: 8213 e33d 57a1 89bd 3e42 93bc 9fa1 953c
00000180: 06dc 10bd 66f1 15bd fbfe cfbc 835e 7b3d
00000190: ef0e 8e3d 58d7 8abd 6ba0 693d f9ec 773d
000001a0: 1437 843d 5024 903d ce58 18bd 3034 6f3b
000001b0: 7af6 ab3d 9659 0d3e 8555 01bd c2db 8eba
000001c0: eb9c 05bb 0023 953d 6cdb 83bc be3e a0bc
000001d0: cb12 263c dd2d 5bbc 1612 15bd f474 e43d
000001e0: 659b 19bd a8a0 a43d ccc2 f6bc 4e89 b2bd
000001f0: 1b46 7abd 8b35 633c c2d4 9c3d 042b e1bb
0.0046251747 -0.02401693 0.0607826 0.056801673 -0.010400236 0.047846727 -0.022256395 -0.013796377
-0.03430514 -0.072911836 0.0586587 0.00562419 -0.06588353 -0.076639295 0.071998045 0.0031038036
-0.03558724 -0.023121433 -0.032962635 0.03574837 -0.040554725 -0.041355405 -0.042268075 -0.051724456
0.044452157 0.036517087 0.009438487 0.084137306 -0.020902604 -0.030656915 -0.05601014 -0.08614299
-0.05790278 -0.021496689 0.085594766 -0.07162463 0.07170177 0.031004736 0.05263033 0.05676087
0.053685296 0.09438593 0.03059636 -0.02137003 0.03664717 -0.014859771 -0.049809456 0.03813721
0.09809403 0.07131008 -0.029334387 0.00015188177 0.04126705 0.054809712 -0.07599524 0.026725933
-0.01698118 0.064502455 0.026887005 -0.052715976 -0.026805697 0.06921844 -0.025910117 0.010607868
0.0724555 -0.06358339 -0.023147957 -0.041420773 -0.0067680907 0.038733847 0.009809783 0.03585791
-0.05435821 0.035789203 -0.04725533 0.1087795 -0.0174864 0.04079884 -0.002947894 0.055618677
-0.06915792 0.0037810619 0.05692058 -0.07707695 0.085288875 0.0329774 -0.053528536 -0.061799336
0.045173924 -0.026773646 0.0594572 0.02546215 0.11087705 -0.06720226 -0.017975923 0.018265544
-0.03536608 -0.03660717 -0.025390139 0.06136943 0.06936442 -0.06779355 0.057037752 0.06052873
0.06455818 0.07038176 -0.037194066 0.0036499612 0.08396621 0.13803706 -0.0315757 -0.0010899233
-0.002038772 0.07282066 -0.01609584 -0.019561168 0.0101363165 -0.013377634 -0.0363942 0.111551195
-0.03750171 0.08038455 -0.030122183 -0.08717595 -0.061102014 0.013867746 0.07657768 -0.006871583

mu.weight f4 [5, 128]
00000000: d54a fc3d 8600 48bd b141 77bd 9281 ef3d
00000010: 8e9a 453d b1f4 7a3d bcb5 a6bd 93db fdbd
00000020: 860e 2f3d af04 a33d aa8b f6bb 9b82 f7bb
00000030: fa08 bdbc 68a0 fd3c b4bd e7bd a54a cc3b
00000040: 18a0 c13c 19a5 57bd 99d0 02be 2286 aebc
00000050: 344e 173d c05a a8bd 7fb4 923d 6a26 e93c
00000060: a0ac 91ba dccb 523d 538f d13c 6bb4 18bd
00000070: 6d48 07be cafb fa3d 6f6f e9bb 3b4c 7cbd
00000080: 18c1 bd3c d11d 7e3d 8d19 1b3d 45aa e63c
00000090: 2fdd 12be 5a8b 6b3d 7d4b 03bd ac3a fb3c
000000a0: a165 8f3d 46eb 31bd ce13 843d 026d a53d
000000b0: 1f57 823c 507e 65bd ad41 7cbd 49d0 cabd
000000c0: dc7f 1fbe c738 babd 63d2 6cbd 7dfd 193e
000000d0: c250 77bd dc53 c73c 9065 cf3d 3817 d6bd
000000e0: 7b17 29bd 4910 e23d 050a cb3c 66d4 913d
000000f0: 6919 1ebd f0f5 dc3d 2e72 093e df15 05be
00000100: 2a29 9a3c c257 ed39 7cdb a23c a5e6 e13d
00000110: 67a6 a5bd 9f8f 94bd aff9 0cbe aaa1 9c3d
00000120: dba1 e13d 2873 f0bc 5801 67bd def6 d2bd
00000130: 5975 4abc d2ab bb3d a5d4 143e f196 7e3b
00000140: 5a93 a03d d10d 55bd 9672 c7bc f287 a53d
00000150: cdce ff3d 448d 9b3d aea8 f93c 733b ac3d
00000160: 1e47 81bc 4302 853c 7a0e 1abb d144 76bd
00000170: 27d2 c33c 5d7d c5bd 6c3b e93a 42e8 c53c
00000180: 74ef b0bd a8c6 cc3b 1066 c63c 8800 5dbd
00000190: 7597 9e3d 64d7 823c e915 5cbe 992a 01bd
000001a0: 46fe c23d b4eb 873c de50 fa3d 9420 d23c
000001b0: 1a9d 8fbd 7359 76be bfb1 f03d f163 803d
000001c0: 8656 4f3d bb87 ecbd 1302 e7bc d8a5 07bc
000001d0: 8099 b03d 5c5e bb3c 0697 b7bb e06d 0bbe
000001e0: 5ce5 2e3d 0776 28bd 53fc 6c3d 826e 713d
000001f0: 0a93 86bd bbaa ba3c adf8 d3bd f3f7 273c
00000200: 18cd 27bc 3305 6dbb 5cce 3a3e d600 98bd
00000210: ab76 e3bc e84d 3cbc 9b7e 6439 c61d 063e
00000220: 7338 f53d 670a d03d 2375 be3d 4098 03bd
00000230: 0cab 6d3d 5043 f4bb 3205 bd3d f328 a83c
00000240: 874e 403e 24a5 0a3d ea30 93bd ba3a 073e
00000250: b9e7 ad3d c0fd aebc 4fb6 65bd 2aea 17be
00000260: 2e98 ec3d 4981 b4bd eb47 babd 588f dc3d
00000270: 0e57 c13c 85e6 143e f28d e8bd fc5a 6abd
00000280: 9092 cabd 552d 563d 3b60 d6bd b89c 9cbd
00000290: a949 3d3c 0305 7fbd cb83 d93d ea37 ac3d
000002a0: 3dae 07bd d315 a4bc a71b c63c 3036 50bd
000002b0: 74bb 17bd 4f9c ab3d 0620 50bd b940 af3d
000002c0: 1438 293d c738 d0bd 0a27 11bd ee9c 3abb
000002d0: 7e81 04bd 187e 6dbd 5a55 6abd 33b6 85bd
000002e0: 2067 a83d 820b 8fbd 99ec 82bc 5a61 513c
000002f0: dc3b c0bd 7f2f a9bc 9cdf e8bd a21e 9ebd
00000300: a9ee 343d 10f1 473d 4391 6b3a a416 0b3e
00000310: d709 9bbd 0cdb b8bd 9bb1 8ebc 8df0 a73c
00000320: d1b9 24be 3190 023e 54e2 7bbb 9288 053e
00000330: d523 d0bc 81eb 22bd e143 183d 6aa7 e63d
00000340: 73f3 a2bd 3f20 cf3d 5504 67bd b448 7ebd
00000350: 1ad9 143a 2eb1 863d 24e1 2e3e 56bc e1bd
00000360: 940b bfbd 18bd b23d 8202 a63d 387f b8bd
00000370: 7adf db3d 34a4 94bc a8df efbd 1961 8a3d
00000380: a301 b3bd c0c2 17bc 526e 83bc e111 62bd
00000390: 3c6f fb3c 9769 32be 4327 f43d 1b40 77bd
000003a0: 9020 9b3d 89b5 063d c14f bb3a 6b72 69bc
000003b0: a434 55bd 8fbe ca3d 5fee 383d 8ca8 a5bd
000003c0: 23f1 1f3d 8411 88bd 841c e8bb 3e0b 783d
000003d0: 10db 4c3d 385b 4fbe 17b5 78bd 8aaf d43d
000003e0: 30e8 55bb 0d3e 623e 5643 3dbe a80f c03c
000003f0: 3f06 b3bd 66c1 5a3d bcee 0fbb b197 68bd
0.123189606 -0.048828624 -0.060365383 0.116946355 0.048243098 0.061268512 -0.08140132 -0.12395396
0.04273846 0.07959878 -0.0075239735 -0.007553411 -0.02307557 0.030960277 -0.1131548 0.0062344843
0.023635909 -0.052647684 -0.12774886 -0.021304194 0.036939815 -0.08220434 0.07163333 0.0284607
-0.0011114068 0.051463947 0.025581038 -0.037281435 -0.13211222 0.12255056 -0.0071238796 -0.061596137
0.023163363 0.062040154 0.037866164 0.028157363 -0.14342187 0.057505943 -0.032054413 0.030667625
0.07001806 -0.043437265 0.0644909 0.08077432 0.015910683 -0.056028664 -0.06158607 -0.099030085
-0.15576118 -0.09092861 -0.057817828 0.15038104 -0.06037975 0.02433198 0.101267934 -0.104536474
-0.04128216 0.110382624 0.024785051 0.0712059 -0.03859845 0.10789096 0.13422462 -0.12996624
0.018818457 0.00045269547 0.019880049 0.1103032 -0.08088379 -0.07253956 -0.13767122 0.076480225
0.110171996 -0.029351786 -0.056397766 -0.103009924 -0.012357079 0.091636315 0.14534242 0.0038847292
0.07840605 -0.05201513 -0.024346631 0.0808257 0.12490616 0.07595304 0.03047594 0.084097765
-0.015780982 0.01623643 -0.0023507164 -0.060124222 0.02390392 -0.09643052 0.0017794198 0.0241586
-0.08639422 0.0062492676 0.024218589 -0.053955585 0.07743732 0.015971847 -0.21492733 -0.031534765
0.09521155 0.016591884 0.122224554 0.0256503 -0.070123866 -0.2405756 0.117526524 0.06269062
0.050619625 -0.11549326 -0.028199231 -0.008279286 0.08623028 0.022872142 -0.00560272 -0.13616133
0.042699203 -0.041128185 0.057857823 0.05894328 -0.06571014 0.022786489 -0.103501655 0.010251987
-0.010241769 -0.003616643 0.18242782 -0.074220344 -0.027766546 -0.011493184 0.00021790939 0.13097295
0.119736575 0.10158234 0.09299686 -0.03212762 0.05802445 -0.0074543133 0.092295066 0.020527339
0.18779956 0.033848897 -0.07187064 0.13205996 0.08491463 -0.021361232 -0.056082066 -0.1483542
0.115524635 -0.08813722 -0.090957485 0.10769528 0.023601081 0.14541061 -0.11355199 -0.057215676
-0.09891236 0.052289326 -0.10467573 -0.07647079 0.0115532065 -0.06226064 0.10620841 0.08409102
-0.03312515 -0.020029938 0.024183108 -0.050832927 -0.037044004 0.08379423 -0.05081179 0.08557267
0.041313246 -0.101670794 -0.03543762 -0.0028474885 -0.032350056 -0.05798158 -0.057210304 -0.06528892
0.082227945 -0.06984617 -0.01598196 0.012779558 -0.09386417 -0.02065253 -0.11370775 -0.077206865
0.044172917 0.04881388 0.0008986184 0.13582855 -0.07570236 -0.09026155 -0.017418673 0.020500446
-0.16086508 0.12750317 -0.0038434463 0.13040379 -0.025407711 -0.039775375 0.03717411 0.112624004
-0.079565905 0.10113572 -0.056400616 -0.062081054 0.00056781026 0.06576763 0.17078072 -0.1102225
-0.0932838 0.08727473 0.08105947 -0.0900864 0.10735984 -0.018144704 -0.11712581 0.06756801
-0.087405466 -0.009262741 -0.016043816 -0.055192832 0.03069269 -0.17423092 0.11921551 -0.06036387
0.0757457 0.03288797 0.0014290736 -0.014248471 -0.052052155 0.098996274 0.045149203 -0.080887884
0.039048325 -0.06643966 -0.0070834775 0.060557596 0.0500136 -0.20249641 -0.060719576 0.10385044
-0.0032639615 0.22093983 -0.18482718 0.023444965 -0.08741426 0.053407095 -0.0021962365 -0.05678529

mu.bias f4 [5]
00000000: 576e 193d 25d3 8c3d 3fad 75bd 9c22 3fbd
00000010: 9527 2c3b
0.037458744 0.0687621 -0.059979673 -0.046663865 0.002626871

log_std.weight f4 [5, 128]
00000000: 0f62 013d 5c73 5e3c 612d 49bc ae8f a9bd
00000010: 9090 76bd 18b6 1dbd ef5f 27bd 0f7b d63c
00000020: 4799 fd3a 5e54 8bbd a097 81bd 9eaf 6fbd
00000030: f510 75bd e0c3 073d 1bd7 16bc abba ddbd
00000040: d149 813c bcf6 f6bb 8d34 9dbd 137c 7c3c
00000050: 3ff1 843b 1824 3d3c 6513 f5bb 1d4e b9bc
00000060: 5cd3 b0bd 48cf 8d3d 339d a43d 6756 883d
00000070: 751e f83c de2f bd3d 3ea4 9f3b 2508 8abd
00000080: 4032 433d 3030 85bd 557d d7bd 7165 253d
00000090: 1b8e 81bd 2627 96bd 3556 473d 4a88 073d
000000a0: 5866 b33c 25bf 04bc 581f bc3c 9c81 bebb
000000b0: 7fb6 d63c e6be a83c dd6c 783d 6e2b a8bc
000000c0: 1548 8cbc 1471 453d 2693 2fba 4bdb 3e3d
000000d0: 66a9 efbc b3f4 0e3d 9b0b c3bc 0476 41bd
000000e0: f9d1 a6bd 113a adbd 7807 703d 923c 873d
000000f0: 31f7 073d 4a48 cb3c def2 793d 0496 583d
00000100: 901f 453d 4445 91bd 442e 923d 9f40 953d
00000110: 598e 103d f21e 23bd c15e b83d 7bdd e1bb
00000120: 62d8 9dbd 3718 64bd f45b 0fbc 9962 3e3d
00000130: 0a89 a93b 0b5b 273d b8e3 993d 83e2 2d3d
00000140: 179d 8bbd a000 d0bc c837 8cbc 74aa 1bbc
00000150: 8bf6 5cbd 8b51 debc 4479 e03d 5cc4 a3bd
00000160: 6a06 573c f801 17bb 82fa 4dbd a5ba f03c
00000170: 333e 0ebd 87b4 dbbd ac5a 74bd e511 3e3d
00000180: 551f ddb9 1b1e 5dbc 656d a5bc 91fd 87bd
00000190: bebd 1cbd 13e8 73bd b295 263d 8913 33bd
000001a0: c94c 3ebd 9e0f e13c d88d 5dbd f000 cfbb
000001b0: 4812 21bd 43f7 5a3b 9857 283c 4ea1 d5bd
000001c0: 45c6 1b3c 86db 973d ffa7 c2bb 9106 8abd
000001d0: b32f 4b3d 8d3e 78bd d5bd 1bbd ffe8 c6bd
000001e0: 8418 893c 8362 8a3b 0de6 d63d 8a54 0ebd
000001f0: ea2f 62bd c678 243e 00f7 983d f6b7 4ebd
00000200: 60af aebd 64c0 1ebc 290f 10bd 588d 8a3c
00000210: bfb8 4dbc a716 ebbc 1b34 963d fb7d bc3c
00000220: ea77 c33c f563 95bd 3c1c 1abd 3f6a 593d
00000230: 3d4a 2d3d a0ff 193c 64a0 9cbd 7d75 95bd
00000240: b5c4 c53d 0f75 8b3d a48e 0f3d 3265 4ebd
00000250: 64d7 dfbc 4cf6 023d 43d2 adbd 6454 34bd
00000260: af5e 143d 8271 2b3d d10a 363d 3988 d73b
00000270: 655a 7b3d 415c acbd 4d16 77bd 9000 cbbc
00000280: d991 85bc d64a 88bd e4d7 4d3d 2816 3bbd
00000290: a283 0abd 8a84 843d d467 b93d 4597 0d3d
000002a0: de6c 34bc 3939 9a3d b4cd c4bc eac1 623d
000002b0: 7f21 913d 1d18 0b3c b4d1 a53d 2be7 6d3d
000002c0: 6d6f 5f3d 5594 7d3d 997f b43c 10af 84bd
000002d0: 258a 8fbc cf0c 9dbc c0bf 28bd 584b b53c
000002e0: 62b4 a23d 46af 6d3d aa67 5e3c 3b32 e73c
000002f0: ab45 a7bd df19 ee3c 8a5a 7a3d a31a 963a
00000300: 543e c3ba 14c8 973d cc04 8dbd aed4 813d
00000310: 1525 82bd 8f3c cabd b83f 713d 266d 86bc
00000320: 1e36 aebd 58c6 a4bd ef7e 08bd 374f debc
00000330: 3b6b b9bd 5475 773d 8e23 40bd 4758 d03b
00000340: 7b2a b53d 2220 63bc 9a57 7ebd 0e05 80bd
00000350: fe47 d6bb ce6a 9ebc e8a1 ca3c 5bbe 12bc
00000360: ccc8 003c 9887 e3bc d1d0 a7bd 780a dbbb
00000370: 006d 333c 1e86 20bd f3b8 60bd 246e 1ebd
00000380: 96b1 b4bd d69c 843d 2547 6b3d 861d 31bd
00000390: 39b2 fdbd ba49 043d e822 92ba dcc3 94bd
000003a0: 3438 2a3c 1d25 72bd 2e3c 91bd 8347 a9bc
000003b0: 7ec9 68ba 4a0b c73d 8716 a23d d083 d7bd
000003c0: 429b 493d 1024 a63d 69ff 9a3d ab6a a03d
000003d0: bb1b 6dbd 64e9 e0bd eed7 373d 65a6 85bd
000003e0: a927 4fbc 048f 9d3d bd68 55bd 0cb8 c1bc
000003f0: 38ce 103d fc50 12bd ec1f 10bd 67b3 453d
0.031587657 0.0135773085 -0.012278886 -0.08279358 -0.06019646 -0.038503736 -0.040862974 0.026181726
0.0019348048 -0.06803201 -0.06327748 -0.05851709 -0.059830625 0.033145785 -0.009206559 -0.1082662
0.015782269 -0.0075367372 -0.07676039 0.015410441 0.004057079 0.01154425 -0.0074791186 -0.022620255
-0.086340636 0.069243014 0.08037796 0.06657105 0.03028796 0.092376456 0.004871874 -0.06739835
0.047655344 -0.06503332 -0.10521952 0.040379945 -0.063259326 -0.07331686 0.048666198 0.03308896
0.021899387 -0.008102213 0.022964165 -0.0058137905 0.026210068 0.02059884 0.060650695 -0.020528521
-0.017124215 0.048203543 -0.0006697647 0.046595853 -0.02925558 0.034901332 -0.023809245 -0.04723169
-0.08145518 -0.08458341 0.058600873 0.0660335 0.033194724 0.024814744 0.06102263 0.05287744
0.048125803 -0.070932895 0.07137731 0.07287716 0.035292003 -0.039824434 0.09002448 -0.0068928576
-0.07707287 -0.055687156 -0.008749951 0.04648075 0.005173807 0.04085831 0.07514137 0.042452347
-0.06817072 -0.025390923 -0.017116442 -0.009501088 -0.05394606 -0.027138492 0.109606296 -0.07996437
0.013124088 -0.0023041945 -0.05028773 0.029385874 -0.034727287 -0.10727792 -0.059656784 0.046403784
-0.0004217575 -0.013495947 -0.020193765 -0.06640161 -0.03826689 -0.059547495 0.040670104 -0.043719802
-0.046459947 0.027473267 -0.05409035 -0.0063172504 -0.039324075 0.003341154 0.01027479 -0.10431157
0.00950772 0.07414918 -0.005940437 -0.06739534 0.049606036 -0.060606528 -0.038022835 -0.09712409
0.016735323 0.0042231693 0.104930975 -0.03474859 -0.055221476 0.16061696 0.074689865 -0.050468408
-0.08529544 -0.009689424 -0.035170708 0.016913101 -0.012556254 -0.028697325 0.07334157 0.02300929
0.02386089 -0.07294456 -0.037624583 0.05307984 0.042307127 0.009399325 -0.076477796 -0.072978
0.096566595 0.068094365 0.035048142 -0.050389476 -0.027324386 0.03197317 -0.0848737 -0.044025794
0.03622311 0.041856296 0.04444391 0.0065775183 0.061365504 -0.084160335 -0.060324002 -0.024780542
-0.016304897 -0.06654899 0.050254717 -0.045675427 -0.03381694 0.06470592 0.09053007 0.03456809
-0.011012284 0.075304456 -0.024023868 0.055360712 0.07086467 0.008489636 0.08096638 0.058081787
0.054549623 0.06190904 0.0220335 -0.06478703 -0.017521927 -0.019171147 -0.041198492 0.022130653
0.079445615 0.058028482 0.01357452 0.028222194 -0.08167585 0.02906507 0.0611215 0.001145203
-0.0014895895 0.07411209 -0.068856806 0.063393936 -0.06354729 -0.09874832 0.058898658 -0.016409468
-0.08506416 -0.080456436 -0.03332418 -0.027137382 -0.09053656 0.060414627 -0.046908908 0.0063581797
0.08845993 -0.0138626415 -0.062095262 -0.06250964 -0.006539344 -0.019338038 0.024735406 -0.008956517
0.007860374 -0.027774617 -0.081941254 -0.0066845976 0.010951281 -0.039190404 -0.05486388 -0.038679257
-0.08822934 0.064752266 0.057440896 -0.043241046 -0.12387509 0.032296874 -0.0011149319 -0.0726392
0.010389376 -0.059117425 -0.070915565 -0.020663982 -0.00088801223 0.0971895 0.07914453 -0.10523188
0.04922033 0.08112347 0.07568247 0.07832845 -0.057887774 -0.10982016 0.04488366 -0.06525878
-0.012643733 0.07693294 -0.05210184 -0.02364733 0.035352916 -0.035721764 -0.035186693 0.048266795

log_std.bias f4 [5]
00000000: 9fb9 023d 8884 923b b14f b93b 9f36 03bd
00000010: 9805 23bd
0.031915303 0.0044713654 0.005655252 -0.032034513 -0.039800256
