resource/train_valid_split/sac_actor_8000.pth (torch, 80597 bytes, 8 tensors)

fc1.weight f4 [128, 12]
0.22017226 0.22368523 -0.02462374 0.244837 -0.09605106 0.012807337 -0.24022092 0.15252686
0.2847443 -0.19033858 0.3777044 0.040203694 0.20813806 -0.0022854912 0.13919571 -0.055011034
0.21504052 0.08943499 -0.13255672 0.048996314 -0.16847269 0.020498939 -0.11945574 0.15748885
-0.18544641 -0.15466514 -0.08151457 -0.14159392 0.069670826 -0.37509474 0.36210245 -0.21324183
0.26529014 0.114959605 -0.1951315 0.21036528 -0.0064178267 0.3171032 0.041136857 -0.119082846
0.02080773 -0.1250468 0.10278025 0.25325164 0.1460033 -0.103420995 0.18625511 0.025044123
0.16398706 -0.129147 -0.31959414 -0.087285355 -0.24377927 0.25354576 -0.011303093 0.16896474
0.050916936 -0.0029789596 0.2662963 -0.33834133 -0.049168963 -0.109169304 0.1175009 -0.17272027
0.06703848 -0.11256442 0.26817268 -0.23681131 -0.21763463 -0.18922776 0.24939036 0.08526501
0.29311076 -0.26164556 -0.28632995 -0.2568975 -0.18505391 0.12599523 0.11063497 0.23783824
-0.11888214 -0.19479442 0.14589772 -0.19609568 0.17361775 -0.06353342 0.109318756 -0.24493605
-0.14497194 0.055866882 0.051367663 -0.086879656 0.1750095 0.21140458 -0.22047836 -0.16642976
0.2662282 -0.15515846 -0.10234006 -0.40868214 -0.13472337 0.025787836 0.09729228 -0.2586166
0.064556785 -0.16333848 -0.38030666 -0.103102416 -0.31662014 -0.111539334 0.28856224 0.06258197
0.11858164 -0.31740117 -0.09314818 -0.034255132 0.04200637 -0.28305212 -0.22082873 -0.22191459
-0.005796059 -0.17134653 -0.020003974 -0.19561484 -0.20474099 -0.18299022 -0.09881276 -0.22784576
0.23544963 0.004097989 0.24837512 0.089946 -0.29411778 0.34196052 -0.099812426 -0.038644843
-0.2575991 -0.34802017 0.14153978 0.047741193 0.17693278 -0.32885164 0.13411888 -0.16175619
-0.028054116 0.09507457 0.14902905 0.2722123 0.27550247 -0.2288969 0.045843337 -0.07251238
-0.08380174 -0.25084972 0.2897489 -0.21511807 0.15692626 0.13566683 0.16003035 -0.13988946
0.2758216 0.13279776 0.070307516 -0.23821466 0.11298959 -0.01696472 -0.11305055 0.2641381
0.120124385 -0.15439007 -0.14610972 0.07184986 0.08491409 -0.08098677 -0.16471078 -0.111706816
-0.22098899 0.09798901 0.22344619 -0.3285846 0.04689838 0.13010353 0.07066484 -0.15892407
0.15134485 0.14870599 0.16780275 -0.103075944 -0.08521917 0.023915447 -0.10033794 -0.08168224
0.14225145 0.25302112 -0.034830164 -0.11488251 -0.06067618 -0.07355868 0.04665477 0.037086282
-0.24419987 -0.19975293 0.25246906 0.080882624 -0.023467459 -0.102542415 -0.17661291 -0.27976787
-0.09290912 0.08855088 0.24445459 0.09823575 -0.27791932 -0.19290958 -0.10594737 0.2728236
-0.030823441 -0.079838715 0.085195705 -0.12603833 -0.24740525 0.18283889 -0.16549437 -0.078391135
-0.34659773 0.2174088 0.1844768 0.09959695 -0.2150121 -0.26264998 -0.23445587 0.17003617
0.14835994 0.26997656 0.2134268 0.03649776 0.030397464 -0.25313178 -0.30952752 -0.2802302
0.19549426 -0.064408645 -0.058096617 -0.07801474 -0.05260341 -0.25655842 -0.18862486 0.24530177
-0.16311476 0.19028555 -0.09260951 -0.39285406 0.034257565 -0.17205593 -0.08831772 -0.34477437
00000000: d674 613e be0d 653e bab7 c9bc 8db6 7a3e
00000010: 6bb6 c4bd ddd5 513c 79fc 75be 0030 1c3e
00000020: 01ca 913e 1ee8 42be 7962 c13e a1ac 243d
00000030: 2522 553e 2ec8 15bb 5289 0e3e 4053 61bd
00000040: 9533 5c3e b129 b73d f3bc 07be 5cb0 483d
00000050: 1b84 2cbe 64ed a73c 36a5 f4bd c244 213e
00000060: aae5 3dbe 8a60 1ebe 1cf1 a6bd fffd 10be
00000070: 94af 8e3d 6b0c c0be 7e65 b93e 115c 5abe
00000080: 1cd4 873e f16f eb3d 8dd0 47be ff69 573e
00000090: a24c d2bb 5a5b a23e 1f7f 283d b5e1 f3bd
000000a0: f974 aa3c 450c 00be 747e d23d 33aa 813e
000000b0: e481 153e 63ce d3bd a9b9 3e3e 5529 cd3c
000000c0: 39ec 273e 1c3f 04be d8a1 a3be aac2 b2bd
000000d0: 46a1 79be c0d0 813e 9c30 39bc 1805 2d3e
000000e0: 478e 503d a63a 43bb fd57 883e 133b adbe
000000f0: 6565 49bd 2894 dfbd 50a4 f03d 95dd 30be
00000100: 784b 893d 2d88 e6bd ee4d 893e aa7e 72be
00000110: 9ddb 5ebe ecc4 41be 3060 7f3e 6c9f ae3d
00000120: 9d12 963e 68f6 85be d799 92be 1288 83be
00000130: c67e 3dbe e504 013e 9694 e23d de8b 733e
00000140: 7b78 f3bd 3078 47be 3666 153e 4ecd 48be
00000150: dac8 313e cf1d 82bd 83e2 df3d 84d0 7abe
00000160: 8673 14be acd4 643d e666 523d f6ed b1bd
00000170: b135 333e 717a 583e 14c5 61be 906c 2abe
00000180: 104f 883e dce1 1ebe aa97 d1bd c93e d1be
00000190: ecf4 09be 0341 d33c 2d41 c73d 6569 84be
000001a0: 5936 843d 3442 27be 8eb7 c2be 5c27 d3bd
000001b0: 091c a2be bc6e e4bd 6ebe 933e fa2a 803d
000001c0: eeda f23d 6882 a2be 79c4 bebd 1c4f 0cbd
000001d0: df0e 2c3d 35ec 90be ed20 62be 943d 63be
000001e0: deec bdbb 7775 2fbe 60df a3bc 424f 48be
000001f0: 9fa7 51be ca61 3bbe 585e cabd 6650 69be
00000200: b519 713e 6c48 863b 0c56 7e3e 9c35 b83d
00000210: 9b96 96be 7315 af3e 756a ccbd 0e4a 1ebd
00000220: 07e4 83be b32f b2be ceef 103e 458c 433d
00000230: de2d 353e 3e5f a8be 7656 093e 6aa3 25be
00000240: bfd1 e5bc 75b6 c23d 129b 183e 695f 8b3e
00000250: a90e 8d3e f363 6abe 39c6 3b3d 5f81 94bd
00000260: 3fa0 abbd 606f 80be f859 943e e947 5cbe
00000270: 47b1 203e 3fec 0a3e ffde 233e 2f3f 0fbe
00000280: 7d38 8d3e 23fc 073e 63fd 8f3d 8bee 73be
00000290: 1667 e73d 99f9 8abc 0c87 e7bd 1c3d 873e
000002a0: c603 f63d 6e18 1ebe c99d 15be 0526 933d
000002b0: 70e7 ad3d 64dc a5bd f1a9 28be 8bc6 e4bd
000002c0: f04a 62be 76ae c83d 14cf 643e 3e3c a8be
000002d0: 8418 403d dc39 053e bab8 903d febc 22be
000002e0: 25fa 1a3e 6246 183e 7cd4 2b3e 7b19 d3bd
000002f0: 6387 aebd 54ea c33c fa7d cdbd 0549 a7bd
00000300: 5daa 113e fc8b 813e 13aa 0ebd 8547 ebbd
00000310: 9687 78bd efa5 96bd 1219 3f3d c9e7 173d
00000320: 880f 7abe 088c 4cbe a043 813e caa5 a53d
00000330: d43e c0bc c201 d2bd 04da 34be bc3d 8fbe
00000340: 2347 bebd 2a5a b53d 4e52 7a3e d32f c93d
00000350: 714b 8ebe 178a 45be effa d8bd 89af 8b3e
00000360: 7181 fcbc 7b82 a3bd 167b ae3d 3110 01be
00000370: cd57 7dbe 1e3a 3b3e 5b77 29be 888b a0bd
00000380: 4275 b1be 6aa0 5e3e 7ce7 3c3e 7cf9 cb3d
00000390: 222c 5cbe 0f7a 86be 3315 70be f61d 2e3e
000003a0: abeb 173e 5e3a 8a3e 8e8c 5a3e ad7e 153d
000003b0: 1a04 f93c 7d9a 81be 647a 9ebe 557a 8fbe
000003c0: a62f 483e aee8 83bd b8f6 6dbd 31c6 9fbd
000003d0: ac76 57bd a05b 83be e026 41be 6330 7b3e
000003e0: 8e07 27be 37da 423e 0eaa bdbd 2b24 c9be
000003f0: a951 0c3d 6e2f 30be ecdf b4bd 4486 b0be

fc1.bias f4 [128]
0.026885996 -0.11956581 -0.07163101 -0.12806787 -0.0055640917 0.2600709 0.09529397 0.28370205
0.09002001 0.08741944 0.16730024 0.14002812 -0.20195073 -0.18403853 -0.05085341 -0.01614819
0.079990484 0.15643391 0.27278668 0.072316915 0.00081204786 -0.14653553 -0.14468905 -0.07617951
0.15631334 0.11522952 0.24086556 0.007169582 0.055549424 -0.088977605 -0.002298207 0.09972806
-0.0012362198 0.054487694 0.04551062 0.12434775 -0.088944025 -0.10330384 0.0569182 -0.08012322
-0.09590098 0.07560043 -0.0042040474 -0.01793648 -0.12532896 -0.053099655 -0.20570853 0.14124842
-0.0038551132 0.19044885 0.0823938 0.044238225 0.14956856 0.23100336 -0.13742037 0.12856486
0.031557117 -0.1967662 0.07625785 -0.16981396 -0.031474788 -0.16048965 -0.098863 0.23132394
-0.18898807 0.13490973 -0.25981104 0.010649812 0.00536775 0.19312112 -0.11170373 0.006516322
0.05833757 0.12732334 0.04715358 0.080180705 -0.09242594 -0.1432493 0.2733097 -0.059301212
0.007395887 -0.044629812 0.23021436 0.010715588 -0.17494857 0.032425184 0.19411817 0.103110954
0.19991462 -0.0842186 0.12807375 -0.28814268 0.12130672 0.11271449 0.17537254 -0.11749983
-0.06318888 0.07704408 -0.15783668 -0.15319474 -0.23458245 -0.007655664 0.15985009 0.054228775
0.10238002 0.08330148 -0.20546351 -0.01937959 0.014200438 -0.14800552 0.23976634 -0.23061128
0.14238437 -0.18882756 -0.041106325 -0.07543685 0.11417115 -0.12943362 0.18003702 -0.2582645
0.22058058 -0.14566158 0.13255654 -0.063842386 -0.0013098138 -0.11907175 0.18240176 0.084711544
00000000: 0540 dc3c ebde f4bd 47b3 92bd 3924 03be
00000010: fc52 b6bb 0328 853e 7c29 c33d 6541 913e
00000020: 695c b83d f708 b33d c150 2b3e 8863 0f3e
00000030: 2ccc 4ebe 9974 3cbe aa4b 50bd 3549 84bc
00000040: 0dd2 a33d 3630 203e b2aa 8b3e e41a 943d
00000050: 9cdf 543a 690d 16be 5e29 14be 0104 9cbd
00000060: 9b10 203e 74fd eb3d 76a5 763e d0ee ea3b
00000070: cb87 633d e439 b6bd 849d 16bb 3a3e cc3d
00000080: a708 a2ba 7d2e 5f3d 5869 3a3d 08aa fe3d
00000090: 4928 b6bd f790 d3bd 0f23 693d a517 a4bd
000000a0: bc67 c4bd 66d4 9a3d 1bc2 89bb 86ef 92bc
000000b0: 3c56 00be 067f 59bd 42a5 52be 6da3 103e
000000c0: 11a6 7cbb 0605 433e 15be a83d 2433 353d
000000d0: 8028 193e 258c 6c3e edb7 0cbe 82a6 033e
000000e0: 0942 013d 147d 49be 132d 9c3d b6e3 2dbe
000000f0: b5eb 00bd 6657 24be af78 cabd 2fe0 6c3e
00000100: 1786 41be c725 0a3e f405 85be 8d7c 2e3c
00000110: f3e3 af3b 8bc1 453e edc4 e4bd df86 d53b
00000120: 60f3 6e3d 0d61 023e 1d24 413d c835 a43d
00000130: d049 bdbd f2af 12be 40ef 8b3e d4e5 72bd
00000140: 3259 f23b c0cd 36bd 50bd 6b3e 6f90 2f3c
00000150: b825 33be 45d0 043d eac6 463e d62b d33d
00000160: 6bb6 4c3e cd7a acbd c425 033e 7087 93be
00000170: a86f f83d dbd6 e63d dc94 333e c0a3 f0bd
00000180: 2c69 81bd 49c9 9d3d f09f 21be 15df 1cbe
00000190: 6236 70be 5ddc fabb beaf 233e fe1e 5e3d
000001a0: 9eac d13d f799 aa3d 0765 52be f2c1 9ebc
000001b0: f4a8 683c c28e 17be 4f85 753e 5d25 6cbe
000001c0: 35cd 113e 035c 41be 1b5f 28bd a37e 9abd
000001d0: 90d2 e93d 3f8a 04be a05b 383e 3f3b 84be
000001e0: e0df 613e 4f28 15be e7bc 073e ccbf 82bd
000001f0: 0fae abba e4db f3bd 87c7 3a3e 3f7d ad3d

fc2.weight f4 [128, 128]
-0.11130784 -0.020662857 -0.07138035 -0.03416865 0.0696117 -0.03770565 0.019972088 -0.012263384
-0.08465393 -0.02446431 0.029733572 -0.06402652 -0.054679718 -0.15217198 -0.03332445 -0.0805241
-0.036009762 0.028694613 0.12923667 0.12780713 -0.0776414 0.0028824622 -0.13417058 -0.120378636
-0.14733402 0.13358633 -0.027076995 0.02744414 0.13690908 0.093951404 0.047951926 -0.008448277
-0.031891763 0.09426485 -0.09078001 -0.02358839 0.011829173 -0.01914821 0.022073433 -0.09228883
-0.022164937 0.08970448 0.036243618 0.005402321 0.07817791 0.041090112 0.05394346 0.069352545
-0.07881984 0.026953649 0.04103199 -0.10313526 0.050275546 -0.05881583 0.070613615 -0.039145123
-0.07443427 0.17034256 -0.16220765 -0.1108916 -0.042616986 0.07307936 0.021312576 -0.04787697
0.08515485 -0.024773646 -0.04102569 -0.006128434 0.077927515 -0.07030716 0.011903659 0.029877936
-0.014293624 -0.057115223 -0.041000113 0.05217708 0.035973668 -0.006103794 -0.072208 0.040849797
0.18634109 0.08489949 0.021592397 0.043105792 -0.05984211 0.12214205 0.08529621 0.043856326
0.010819066 0.09304974 0.078952245 0.0868493 0.13874522 -0.091907516 0.035645008 -0.043209877
-0.077462114 -0.032719642 -0.09394881 -0.18639182 -0.10465942 -0.06538871 -0.035920545 0.077701576
0.063086055 0.0478087 0.10241844 -0.050669026 -0.16453588 0.017818246 0.084001265 -0.061837964
-0.082003966 -0.055781003 -0.09922221 0.029482128 0.12679867 0.12516335 -0.03289677 0.039613407
-0.06221595 -0.04020561 0.060930897 0.1268881 -0.11692205 -0.08735119 -0.019214636 -0.09763149
-0.11806162 0.0012039207 -0.018606855 -0.09916198 0.04753739 -0.14262637 0.09654012 -0.011305941
-0.07355219 -0.042055108 -0.005097282 0.004966917 -0.011328752 -0.07688093 -0.005672783 0.022785695
0.06697616 -0.11913233 0.06980273 -0.03250468 0.008348063 0.08490289 -0.017912999 0.032449413
-0.020631662 0.042990424 -0.046023212 0.113919675 -0.07442159 -0.0049089273 -0.036354627 -0.03610513
0.06500633 -0.0068740738 0.096056744 -0.08590108 0.015108476 0.058765836 0.059133623 -0.048435163
-0.037947252 -0.09080731 0.020680254 -3.1843316e-05 0.019108275 0.004451762 0.074627444 -0.10284376
-0.045573775 0.042891257 0.13106921 -0.008600332 0.04613278 0.015534383 0.027737774 -0.03892358
0.031126354 -0.025711745 -0.0015993005 -0.048905548 0.069872275 -0.012652761 0.035090476 0.15674138
-0.01385205 -0.18796079 -0.08498585 0.06503858 0.041999932 -0.044155844 0.032982904 0.073156275
-0.08017234 0.05389977 0.007683943 -0.04102724 0.120467305 0.092431106 0.14714573 0.08270089
0.10913026 -0.042728864 -0.06626666 0.022167264 -0.11030293 0.019672506 -0.04500961 -0.02771668
-0.001653902 -0.046612535 0.037769444 0.0721297 0.10566622 -0.08368377 0.016262993 -0.037395358
0.02054362 0.008674993 0.003920632 0.043995336 -0.030261056 0.008828093 -0.024856377 -0.0179302
0.174544 -0.040442135 0.080405325 -0.07567182 0.048277583 -0.117085084 -0.023146272 -0.033080954
0.07845183 0.07825543 -0.14337717 -0.0030255786 -0.069871075 0.052095525 -0.06567977 -0.04334268
0.079431064 -0.027691923 -0.09081528 0.015967948 0.09870526 -0.035657343 0.038744677 -0.033420224
00000000: 5df5 e3bd 2745 a9bc dc2f 92bd 6df4 0bbd
00000010: 9490 8e3d 3d71 1abd 819c a33c 5cec 48bc
00000020: 0a5f adbd 6069 c8bc d293 f33c 5620 83bd
00000030: d7f7 5fbd f9d2 1bbe 387f 08bd d2e9 a4bd
00000040: f97e 13bd f710 eb3c 9e56 043e dfdf 023e
00000050: 7402 9fbd b1e7 3c3b 0364 09be 1389 f6bd
00000060: bbde 16be dbca 083e 93d0 ddbc 88d2 e03c
00000070: e531 0c3e 9869 c03d 3d69 443d a46a 0abc
00000080: f0a0 02bd ee0d c13d dfea b9bd 703c c1bc
00000090: 26cf 413c b5dc 9cbc 58d3 b43c ed01 bdbd
000000a0: 3e93 b5bc fbb6 b73d 3074 143d f405 b13b
000000b0: bd1b a03d 1b4e 283d d1f3 5c3d b508 8e3d
000000c0: 4c6c a1bd e6cd dc3c 2911 283d 9438 d3bd
000000d0: bbed 4d3d dee8 70bd df9d 903d a356 20bd
000000e0: ff70 98bd 486e 2e3e c319 26be 231b e3bd
000000f0: 268f 2ebd a2aa 953d b697 ae3c a41a 44bd
00000100: aa65 ae3d 1af2 cabc 8e0a 28bd 08d1 c8bb
00000110: 7698 9f3d 33fd 8fbd 9107 433c 93c2 f43c
00000120: ce2f 6abc a7f1 69bd bcef 27bd a2b7 553d
00000130: 2059 133d 5602 c8bb cae1 93bd 1e52 273d
00000140: 33d0 3e3e c9df ad3d 8ae2 b03c b38f 303d
00000150: 001d 75bd 9c25 fa3d c8af ae3d b1a2 333d
00000160: 7442 313c dd90 be3d b7b1 a13d 0cde b13d
00000170: 3a13 0e3e 023a bcbd 8000 123d d7fc 30bd
00000180: 75a4 9ebd 0805 06bd 3c68 c0bd 7fdd 3ebe
00000190: ae57 d6bd 84ea 85bd 6c21 13bd 0122 9f3d
000001a0: 4333 813d 0ed3 433d c2c0 d13d 538a 4fbd
000001b0: 187c 28be 92f7 913c db08 ac3d ce49 7dbd
000001c0: b2f1 a7bd 9f7a 64bd 0435 cbbd 8184 f13c
000001d0: 83d7 013e d22a 003e c3be 06bd ab41 223d
000001e0: 27d6 7ebd a3ae 24bd ad92 793d f4ee 013e
000001f0: d474 efbd 2ee5 b2bd 0368 9dbc 05f3 c7bd
00000200: 4aca f1bd e0cc 9d3a 676d 98bc 7015 cbbd
00000210: 91b6 423d a60c 12be d4b6 c53d 8e3c 39bc
00000220: 88a2 96bd fa41 2cbd 1a07 a7bb 85c1 a23b
00000230: 3b9c 39bc c073 9dbd c1e2 b9bb 11a9 ba3c
00000240: cc2a 893d a7fb f3bd bcf4 8e3d a123 05bd
00000250: 50c6 083c 91e1 ad3d 48be 92bc ade9 043d
00000260: bb03 a9bc ba16 303d d682 3cbd b84e e93d
00000270: 596a 98bd 11db a0bb 97e8 14bd f9e2 13bd
00000280: 0a22 853d e93f e1bb 66b9 c43d e8ec afbd
00000290: 8b89 773c 72b4 703d 1936 723d f363 46bd
000002a0: 946e 1bbd 2ff9 b9bd a369 a93c 808f 05b8
000002b0: f588 9c3c 16e0 913b 46d6 983d c09f d2bd
000002c0: 91ab 3abd beae 2f3d 0237 063e 68e8 0cbc
000002d0: baf5 3c3d ed83 7e3c 543a e33c 556e 1fbd
000002e0: b2fc fe3c 70a1 d2bc 9f9f d1ba 2f51 48bd
000002f0: 3219 8f3d 874d 4fbc 08bb 0f3d d080 203e
00000300: b5f3 62bc cb78 40be 100d aebd f232 853d
00000310: 1f08 2c3d c2dc 34bd 1519 073d f5d2 953d
00000320: 6531 a4bd 01c6 5c3d 96c9 fb3b 2e0c 28bd
00000330: 90b7 f63d 854c bd3d 5fad 163e 165f a93d
00000340: b07f df3d 7604 2fbd d1b6 87bd 1f98 b53c
00000350: 81e6 e1bd 3c28 a13c ff5b 38bd 170e e3bc
00000360: bec7 d8ba c9ec 3ebd 22b4 1a3d bcb8 933d
00000370: 8867 d83d 6562 abbd f839 853c e02b 19bd
00000380: 184b a83c 8f21 0e3c a578 803b 7434 343d
00000390: 09e6 f7bc b5a3 103c 9a9f cbbc 5be2 92bc
000003a0: aabb 323e a7a6 25bd 8cab a43d d4f9 9abd
000003b0: b7be 453d 4eca efbd 409d bdbc e57f 07bd
000003c0: 5aab a03d 6244 a03d 77d1 12be c948 46bb
000003d0: 9118 8fbd 1e62 553d 1e83 86bd 1888 31bd
000003e0: c1ac a23d 2cda e2bc 5dfd b9bd 37cf 823c
000003f0: fc25 ca3d 6f0d 12bd bdb2 1e3d a5e3 08bd

fc2.bias f4 [128]
-0.0067353644 -0.020955227 0.03996537 0.05083287 -0.014795701 0.047846727 -0.009470538 -0.017868375
-0.04312427 -0.07129736 0.047047704 -0.0014195521 -0.069573075 -0.076639295 0.074296035 0.005681154
-0.04070104 -0.023121433 -0.031848256 0.034553785 -0.031778656 -0.041355405 -0.039782494 -0.06085493
0.04128447 0.02117075 -0.0035297675 0.07644991 -0.0065752147 -0.036686804 -0.059124913 -0.08678802
-0.052726347 -0.021496689 0.07917129 -0.07360913 0.072804965 0.017584154 0.0651126 0.05160892
0.05750211 0.08577098 0.030372525 -0.02137003 0.044459652 0.0015340835 -0.050927345 0.044819202
0.10115563 0.07509713 -0.034098357 -0.002449457 0.032638047 0.058599163 -0.071754895 0.034188606
-0.017268699 0.06080326 0.028215606 -0.05271598 -0.028666122 0.07247505 -0.026331795 0.011874275
0.064620346 -0.05978327 -0.023147989 -0.041621957 -0.022705656 0.046675343 0.009484085 0.03223082
-0.05816325 0.023414776 -0.047266115 0.09434205 -0.012746692 0.030921565 -0.0057738917 0.058153633
-0.07475992 -0.00017484036 0.06201487 -0.07707695 0.0869642 0.038728777 -0.06124918 -0.06079641
0.04808796 -0.022967141 0.05830568 0.024404405 0.10874638 -0.05590948 -0.019404305 0.020933986
-0.036190953 -0.037786018 -0.0030992725 0.05954194 0.06389934 -0.06879409 0.047853526 0.05868184
0.07158862 0.076552995 -0.04241327 0.00673106 0.08483077 0.13700917 -0.041382466 -0.0073451553
-0.01279745 0.08277045 -0.009533471 -0.019561168 0.0048006484 -0.009066481 -0.03575002 0.11234044
-0.057056323 0.073704265 -0.030653311 -0.08717595 -0.0701445 0.0130118895 0.055390265 -0.015116832
00000000: 55b4 dcbb 4caa abbc bab2 233d 2136 503d
00000010: ab69 72bc eefa 433d 512a 1bbc b360 92bc
00000020: 13a3 30bd 5a04 92bd 18b5 403d 4410 baba
00000030: 547c 8ebd 10f5 9cbd 8528 983d f928 ba3b
00000040: 22b6 26bd 2969 bdbc 5173 02bd 4588 0d3d
00000050: 562a 02bd 4964 29bd f8f2 22bd 0543 79bd
00000060: e819 293d 486e ad3c ac53 67bb c591 9c3d
00000070: e674 d7bb e744 16bd f72c 72bd ebbd b1bd
00000080: 95f7 57bd d319 b0bc 8f24 a23d 62c0 96bd
00000090: c51a 953d a50c 903c c159 853d e063 533d
000000a0: 5587 6b3d b2a8 af3d cdcf f83c 3310 afbc
000000b0: 531b 363d 4d13 c93a 3199 50bd 5794 373d
000000c0: af2a cf3d 86cc 993d b8aa 0bbd 1287 20bb
000000d0: 79af 053d ad05 703d 3bf4 92bd 5a09 0c3d
000000e0: 1677 8dbc d70c 793d 6a24 e73c b6ec 57bd
000000f0: 37d5 eabc cd6d 943d c7b5 d7bc 528c 423c
00000100: ac57 843d 4ddf 74bd daa0 bdbc c97b 2abd
00000110: 3601 babc a52e 3f3d 2363 1b3c 7704 043d
00000120: 973c 6ebd 58d0 bf3c 1d9a 41bd 6836 c13d
00000130: 80d7 50bc 394f fd3c ea32 bdbb 8132 6e3d
00000140: bb1b 99bd 5a55 37b9 4e03 7e3d 85da 9dbd
00000150: 491a b23d 11a2 1e3d 6ce0 7abd a805 79bd
00000160: e1f7 443d 9625 bcbc f0d1 6e3d bfeb c73c
00000170: 6cb6 de3d 5701 65bd c7f5 9ebc c07d ab3c
00000180: f73c 14bd 83c5 1abd 2a1d 4bbb 40e2 733d
00000190: a8dd 823d eae3 8cbd 0f02 443d 5e5c 703d
000001a0: 0e9d 923d d1c7 9c3d 89b9 2dbd 3990 dc3b
000001b0: c1bb ad3d 224c 0c3e a980 29bd a1af f0bb
000001c0: 65ac 51bc 8e83 a93d 4732 1cbc be3e a0bc
000001d0: c24e 9d3b 948b 14bc 9d6e 12bd bf12 e63d
000001e0: e4b3 69bd 43f2 963d a71c fbbc 4e89 b2bd
000001f0: eba7 8fbd d22f 553c e7e0 623d 97ac 77bc

mu.weight f4 [5, 128]
0.12112004 -0.07627731 -0.05568367 0.12252858 0.0463135 0.061268512 -0.06812706 -0.13283248
0.037272103 0.059578024 -0.01677737 -0.0070490153 -0.023075178 0.030960277 -0.09108515 -0.004626972
0.03224577 -0.052647684 -0.14161138 -0.01164232 -0.005723427 -0.08220434 0.05265111 0.025628202
-0.0030234386 0.044522397 0.015005426 -0.038743798 -0.16338 0.13658854 -0.01560628 -0.061596137
-0.0088685695 0.062040154 0.019216586 0.016516 -0.14230995 0.058699373 -0.06583638 0.06559002
0.0682191 -0.034991205 0.057165567 0.08077432 0.019662704 -0.11467609 -0.061356224 -0.13205229
-0.14145449 -0.113454066 -0.087113015 0.17990857 -0.04866993 0.015635466 0.104701996 -0.119035
-0.0412813 0.12670279 0.016273914 0.0712059 -0.056846373 0.12536556 0.14671849 -0.1520579
0.018995654 -0.030162377 0.019880025 0.12400336 -0.08227581 -0.0886346 -0.16897753 0.07696857
0.101370044 -0.028305128 -0.056404196 -0.10265511 -0.02742495 0.09734579 0.1551904 0.0019579874
0.06529172 -0.046064563 -0.047493916 0.0808257 0.15738101 0.069343984 0.06579754 0.07835513
-0.01519234 -0.0036049704 -0.0017011797 -0.07202052 0.016852291 -0.11796597 -0.0115839485 0.020374315
-0.09418098 0.005301353 -0.033064567 -0.05214817 0.08748447 -8.3355175e-05 -0.20857163 -0.022160076
0.12872383 0.03187497 0.12410962 0.047695845 -0.06756957 -0.23702018 0.0710679 0.062208038
0.028831096 -0.11563524 -0.014418481 -0.008279286 0.104639605 0.018846938 -0.002946604 -0.14545313
0.03652761 -0.033708006 0.053079903 0.05894328 -0.07082547 0.007974949 -0.120107375 0.01904989
-0.0020134842 0.012547758 0.17437632 -0.059258156 -0.026878474 -0.011493184 -0.005439573 0.132923
0.13153632 0.13148364 0.09808153 -0.044940516 0.05802325 -0.0074543133 0.07748112 0.016343389
0.19775426 0.033848897 -0.09307873 0.120204285 0.13031623 -0.021361232 -0.067369916 -0.16204384
0.11933754 -0.10078521 -0.08665545 0.0972813 0.012204572 0.15574643 -0.12852247 -0.057215676
-0.10795967 0.052289326 -0.100420706 -0.07729402 0.015235715 -0.062264472 0.09955927 0.06879107
-0.035522114 -0.029331671 0.018168652 -0.050832927 -0.026143372 0.13958034 -0.053214423 0.10376989
0.017587634 -0.11297012 -0.0005753553 0.009091292 -0.046577934 -0.062233247 -0.063499555 -0.06863766
0.08222698 -0.057911314 -0.014985282 0.012779558 -0.105011895 -0.019023715 -0.11438834 -0.073728785
0.044384506 0.02358517 0.000898621 0.15681726 -0.08187295 -0.100795 0.0059597064 0.020573689
-0.16470768 0.124862686 -0.0038346676 0.11938848 -0.028980741 -0.030258846 0.043055058 0.11182427
-0.06328947 0.07431084 -0.065229185 -0.062081054 0.023074206 0.085288584 0.20393014 -0.10052614
-0.101866715 0.113142595 0.07555209 -0.07793593 0.11380443 -0.027758617 -0.13240163 0.059460185
-0.08674144 -0.009129309 -0.029988226 -0.05648145 0.042531293 -0.15615936 0.10267884 -0.06268495
0.08209005 0.0172794 0.0050468333 -0.016972829 -0.053343996 0.096911326 0.09656329 -0.07895557
0.038532358 -0.076901644 -0.0101681985 0.060557596 0.043799654 -0.21517459 -0.057662476 0.092236914
0.00817539 0.21791516 -0.20194274 0.023444965 -0.092129976 0.06977142 0.02258021 -0.0779707
00000000: c90d f83d 4737 9cbd 8f14 64bd 44f0 fa3d
00000010: 39b3 3d3d b1f4 7a3d 3386 8bbd 3d05 08be
00000020: a2aa 183d 1608 743d b270 89bc 6dfb e6bb
00000030: 2808 bdbc 68a0 fd3c da8a babd db9d 97bb
00000040: 2414 043d 19a5 57bd 9302 11be 6ebf 3ebc
00000050: 968b bbbb c05a a8bd b1a8 573d 3cf2 d13c
00000060: e224 46bb 1e5d 363d 51d9 753c d1b1 1ebd
00000070: 164d 27be dedd 0b3e 7cb1 7fbc 3b4c 7cbd
00000080: 7a4d 11bc d11d 7e3d 1a6c 9d3c 904c 873c
00000090: b3b9 11be c16e 703d 39d5 86bd 0f54 863d
000000a0: 75b6 8b3d f052 0fbd 7126 6a3d 026d a53d
000000b0: ae13 a13c 4cdb eabd aa50 7bbd b738 07be
000000c0: 72d9 10be 9b5a e8bd 4f68 b2bd f439 383e
000000d0: 1f5a 47bd f315 803c 006e d63d 9fc8 f3bd
000000e0: 9516 29bd 60be 013e df50 853c 66d4 913d
000000f0: bed7 68bd d45f 003e 5f3d 163e 11b5 1bbe
00000100: c69c 9b3c 1717 f7bc 6fdb a23c 79f5 fd3d
00000110: 3880 a8bd 0f86 b5bd 7208 2dbe b3a1 9d3d
00000120: 199b cf3d 28e0 e7bc 1608 67bd d83c d2bd
00000130: 4aaa e0bc 3b5d c73d 3bea 1e3e 9451 003b
00000140: aab7 853d 32ae 3cbd fb88 42bd f287 a53d
00000150: 7d28 213e 3804 8e3d dcc0 863d a878 a03d
00000160: 4be9 78bc 5e41 6cbb 1efa deba 7f7f 93bd
00000170: d10d 8a3c 2498 f1bd 9aca 3dbc 09e8 a63c
00000180: f5e1 c0bd f9b6 ad3b b66e 07bd 5299 55bd
00000190: 0f2b b33d f8ce aeb8 cd93 55be 0c89 b5bc
000001a0: 2ed0 033e 548f 023d 2f2d fe3d b85c 433d
000001b0: ea61 8abd 6bb5 72be 0c8c 913d dbcd 7e3d
000001c0: 312f ec3c 2bd2 ecbd 7e3b 6cbc d8a5 07bc
000001d0: 4a4d d63d e564 9a3c d01b 41bb aaf1 14be
000001e0: fa9d 153d 6811 0abd 506a 593d 826e 713d
000001f0: f20c 91bd 5ca9 023c dbfa f5bd 840e 9c3c
00000200: a9f4 03bb 1d95 4d3c b58f 323e aeb8 72bd
00000210: 3f30 dcbc e84d 3cbc 723e b2bb f81c 083e
00000220: 75b1 063e a6a3 063e f8de c83d 8c13 38bd
00000230: caa9 6d3d 5043 f4bb 6cae 9e3d 92e2 853c
00000240: 1880 4a3e 24a5 0a3d 10a0 bebd aa2d f63d
00000250: 9e71 053e c0fd aebc 3df9 89bd d2ee 25be
00000260: 3d67 f43d 7a68 cebd 6a78 b1bd 6b3b c73d
00000270: aff5 473c fe7b 1f3e 659b 03be fc5a 6abd
00000280: f619 ddbd 552d 563d 5fa9 cdbd 544c 9ebd
00000290: 389f 793c 0809 7fbd bbe5 cb3d 55e2 8c3d
000002a0: a37f 11bd f948 f0bc 6dd6 943c 3036 50bd
000002b0: a02a d6bc 26ee 0e3e 5ef7 59bd 4f85 d43d
000002c0: f113 903c e15c e7bd 71d3 16ba a4f3 143c
000002d0: 81c8 3ebd 4ae8 7ebd 0e0c 82bd e791 8cbd
000002e0: 9e66 a83d 6a34 6dbd d484 75bc 5a61 513c
000002f0: 7a10 d7bd 9fd7 9bbc 6f44 eabd 1eff 96bd
00000300: 87cc 353d b035 c13c 6f91 6b3a b494 203e
00000310: 01ad a7bd 9c6d cebd a449 c33b 278a a83c
00000320: 21a9 28be 02b8 ff3d 0c4f 7bbb f381 f43d
00000330: 0569 edbc 66e1 f7bc 805a 303d 1f04 e53d
00000340: e99d 81bd 4830 983d e196 85bd b448 7ebd
00000350: 1e06 bd3c c8ab ae3d 10d3 503e a6e0 cdbd
00000360: 7f9f d0bd 4eb7 e73d 0ebb 9a3d df9c 9fbd
00000370: 4c12 e93d 0a66 e3bc 4b94 07be 868c 733d
00000380: 7fa5 b1bd 1993 15bc dea9 f5bc 1859 67bd
00000390: 4b35 2e3d 3de8 1fbe 4949 d23d f860 80bd
000003a0: d41e a83d 878d 8d3c e85f a53b 9a0a 8bbc
000003b0: 3c7f 5abd 7279 c63d f9c2 c53d 75b3 a1bd
000003c0: 1bd4 1d3d 9c7e 9dbd 8498 26bc 3e0b 783d
000003d0: 4467 333d ba56 5cbe 7d2f 6cbd b5e6 bc3d
000003e0: 12f2 053c 2725 5f3e 14ca 4ebe a80f c03c
000003f0: a4ae bcbd 51e4 8e3d 22fa b83c 1aaf 9fbd

mu.bias f4 [5]
0.02958238 0.07320231 -0.05528793 -0.049199995 0.0036337024
00000000: bf56 f23c 18eb 953d 9975 62bd ef85 49bd
00000010: 6923 6e3b

log_std.weight f4 [5, 128]
0.045066614 0.0036017494 -0.012826265 -0.080959134 -0.060123082 -0.038503736 -0.0332065 0.015431132
0.0045330133 -0.07947883 -0.077797696 -0.057990775 -0.05983006 0.033145785 0.00035425148 -0.100763604
0.020335991 -0.0075367372 -0.08546249 0.029813442 -0.00017791317 0.01154425 -0.001302415 -0.016479136
-0.09131105 0.06526828 0.08183615 0.06758953 0.026824404 0.09039846 0.006890336 -0.06739835
0.046801627 -0.06503332 -0.09067469 0.03660731 -0.06474557 -0.085994564 0.041993465 0.03030647
0.028341299 -0.017663121 0.028200844 -0.0058137905 0.011820197 0.006974937 0.061150547 -0.024982385
-0.011066595 0.040050056 0.011070854 0.03994587 -0.025237579 0.048397366 -0.028657896 -0.046289828
-0.08145406 -0.0907848 0.06442761 0.0660335 0.03477855 0.020622471 0.053679608 0.028269934
0.048237316 -0.07244732 0.07137731 0.0604302 0.047831617 -0.04594241 0.093618624 -0.006354912
-0.08151826 -0.049824953 -0.00875782 0.049030367 -0.003825683 0.030619958 0.0754578 0.044855613
-0.06706285 -0.016284868 -0.008899572 -0.009501088 -0.05798099 -0.05383058 0.11513125 -0.09778361
0.015930656 0.0011684559 -0.042946536 0.03308838 -0.024845667 -0.12682076 -0.046933908 0.035548892
-0.0006369588 -0.0023089992 0.0037736245 -0.06643896 -0.022679271 -0.06456224 0.045756765 -0.022459393
-0.05722686 0.02413062 -0.055703424 -0.028410263 -0.03463517 0.009473075 -0.013519551 -0.11775042
0.0051314454 0.08555786 -0.007609509 -0.06739534 0.039301693 -0.05313935 -0.043990996 -0.10084873
0.02191153 0.008599286 0.12467013 -0.03474859 -0.050082896 0.1399051 0.06154984 -8.183182e-05
-0.08782911 0.01936761 -0.024624746 0.016822053 -0.012866788 -0.028697325 0.073509075 0.024407163
-0.0024093466 -0.07284556 -0.030703835 0.046827246 0.04230675 0.009399325 -0.067539856 -0.07024919
0.083804406 0.068094365 0.03807296 -0.04525094 -0.026624216 0.03197317 -0.08243721 -0.045086954
0.021594582 0.05140956 0.045454357 0.005236189 0.05640546 -0.07769581 -0.059982296 -0.024780525
-0.0432514 -0.06654899 0.05498837 -0.043950357 -0.044477873 0.06637111 0.0766149 0.039291393
-0.008780699 0.068539575 -0.0026314869 0.055360712 0.07250406 -0.023724051 0.08125899 0.040244497
0.07763372 0.05566162 0.0036455903 -0.059091635 -0.012940042 -0.01406035 -0.039847214 0.015346837
0.0794464 0.06052572 0.014027535 0.028222194 -0.08291922 0.035869405 0.06486695 -0.00486523
-0.0014131592 0.08086064 -0.068856806 0.059835054 -0.06218428 -0.09658228 0.047138356 -0.0162376
-0.088251345 -0.06713382 -0.033329148 -0.03927516 -0.08761869 0.05670124 -0.039295126 0.0016526012
0.082493 -0.012451642 -0.05049437 -0.06250964 -0.0005875131 -0.024697307 -0.0012165334 -0.01096464
0.0123128 -0.0087870285 -0.07119058 -0.013967192 0.008439104 -0.030323232 -0.043758366 -0.010487022
-0.09559812 0.092776366 0.08509683 -0.041962415 -0.122561485 0.028140532 0.014748434 -0.084525704
0.023010675 -0.049316704 -0.06429703 -0.02086202 -0.003187078 0.08913889 0.062650025 -0.10661272
0.049089696 0.087137915 0.08756135 0.07832845 -0.04630434 -0.1128743 0.044717763 -0.06883004
-0.022871586 0.07814418 -0.05334409 -0.02364733 0.028783979 -0.06513646 -0.04388245 0.05254154
00000000: c597 383d 540b 6c3b 4125 52bc e7cd a5bd
00000010: 9f43 76bd 18b6 1dbd 8a03 08bd dcd2 7c3c
00000020: ac89 943b ccc5 a2bd 6654 9fbd bc87 6dbd
00000030: 5d10 75bd e0c3 073d d4ba b939 265d cebd
00000040: aa97 a63c bcf6 f6bb f506 afbd 523b f43c
00000050: 348e 3ab9 1824 3d3c ccb5 aaba 41ff 86bc
00000060: 4a01 bbbd 60ab 853d b699 a73d 616c 8a3d
00000070: dabe db3c d422 b93d 54c8 e13b 2508 8abd
00000080: 10b3 3f3d 3030 85bd a7b3 b9bd 8cf1 153d
00000090: 5399 84bd eb1d b0bd 5701 2c3d 4645 f83c
000000a0: 032c e83c 40b2 90bc 7505 e73c 9c81 bebb
000000b0: 80a9 413c 038e e43b ff78 7a3d dca7 ccbc
000000c0: aa50 35bc 870b 243d 8762 353c 489e 233d
000000d0: 0abf cebc 513c 463d f7c3 eabc 679a 3dbd
000000e0: 63d1 a6bd 62ed b9bd 9ff2 833d 923c 873d
000000f0: f473 0e3d 75f0 a83c 26df 5b3d 5996 e73c
00000100: 7e94 453d 435f 94bd 442e 923d a885 773d
00000110: 16eb 433d 1c2e 3cbd 1fbb bf3d de3c d0bb
00000120: 0cf3 a6bd 4015 4cbd f67c 0fbc 11d4 483d
00000130: 4fb8 7abb b5d6 fa3c 9e89 9a3d 85ba 373d
00000140: 3f58 89bd d867 85bc 83cf 11bc 74aa 1bbc
00000150: 797d 6dbd 747d 5cbd efc9 eb3d c642 c8bd
00000160: 0281 823c e026 993a b5e8 2fbd ae87 073d
00000170: 2489 cbbc 4ddd 01be c53d 40bd b79b 113d
00000180: 95f9 26ba 9452 17bb ea4e 773b 2611 88bd
00000190: e1c9 b9bc 3539 84bd 726b 3b3d c3fc b7bc
000001a0: b666 6abd 94ad c53c 4629 64bd a4bc e8bc
000001b0: 9cdd 0dbd f534 1b3c 1b81 5dbc 2227 f1bd
000001c0: af25 a83b f638 af3d 3059 f9bb 9106 8abd
000001d0: d0fa 203d a6a8 59bd e72f 34bd c789 cebd
000001e0: cf7f b33c 05e4 0c3c 0e53 ff3d 8a54 0ebd
000001f0: b923 4dbd 4843 0f3e af1b 7c3d 209d abb8
00000200: c0df b3bd d2a8 9e3c d6b9 c9bc 67ce 893c
00000210: 38cf 52bc a716 ebbc ed8b 963d 88f1 c73c
00000220: 21e6 1dbb 0e30 95bd 9c86 fbbc edcd 3f3d
00000230: d849 2d3d a0ff 193c 5652 8abd cfde 8fbd
00000240: a5a1 ab3d 0f75 8b3d 64f2 1b3d 0d59 39bd
00000250: 071b dabc 4cf6 023d d7d4 a8bd 19ad 38bd
00000260: 1fe7 b03c d592 523d 592e 3a3d 5694 ab3b
00000270: 6909 673d fb1e 9fbd ffaf 75bd 8700 cbbc
00000280: 6128 31bd d64a 88bd 7c3b 613d 4a05 34bd
00000290: 6e2e 36bd 94ed 873d 46e8 9c3d 03f0 203d
000002a0: ecdc 0fbc 7a5e 8c3d 0675 2cbb eac1 623d
000002b0: 027d 943d f158 c2bc 1d6b a63d 6ad7 243d
000002c0: 6efe 9e3d 70fd 633d dbea 6e3b 120a 72bd
000002d0: 7802 54bc 625d 66bc d536 23bd 4d71 7b3c
000002e0: cbb4 a23d d1e9 773d bfd3 653c 3b32 e73c
000002f0: 8dd1 a9bd cceb 123d f7d8 843d 826c 9fbb
00000300: c139 b9ba 439a a53d cc04 8dbd 9a15 753d
00000310: f2b4 7ebd eecc c5bd 2614 413d b704 85bc
00000320: 1fbd b4bd 757d 89bd 2584 08bd fdde 20bd
00000330: 6e71 b3bd 8f3f 683d edf3 20bd 189c d83a
00000340: 17f2 a83d f901 4cbc 2fd3 4ebd 0e05 80bd
00000350: 5603 1aba 0252 cabc 1674 9fba 09a5 33bc
00000360: a0bb 493c 78f7 0fbc 5ecc 91bd a6d6 64bc
00000370: 2b44 0a3c 6d68 f8bc f93b 33bd c2d1 2bbc
00000380: f2c8 c3bd 8901 be3d 3f47 ae3d c8e0 2bbd
00000390: 8401 fbbd f986 e63c 6aa3 713c d01b adbd
000003a0: e280 bc3c 5000 4abd 29ae 83bd d4e6 aabc
000003b0: 4cde 50bb 738e b63d a84e 803d c557 dabd
000003c0: 4712 493d 5d75 b23d 5d53 b33d ab6a a03d
000003d0: 9fa9 3dbd a42a e7bd f929 373d c4f6 8cbd
000003e0: 315d bbbc 0e0a a03d 557f 5abd 0cb8 c1bc
000003f0: 61cc eb3c 4466 85bd 15be 33bd cc35 573d

log_std.bias f4 [5]
0.0266522 -0.0012739426 -0.0051750294 -0.025455594 -0.037714913
00000000: b755 da3c 6cfa a6ba 4b93 a9bb 4088 d0bc
00000010: f47a 1abd
