resource/train_valid_split/sac_actor_50000.pth (torch, 80607 bytes, 8 tensors)

fc1.weight f4 [128, 12]
000000 b5 b7 1d 3c bc 33 9c be 22 99 30 3e f6 e6 5f bd
       0.009626319 -0.3050822 0.17245916 -0.05466362
000010 20 a6 9d bd 01 d7 04 be 62 ea d1 bd 56 da 91 be
       -0.076977015 -0.12972642 -0.10249783 -0.2848689
000020 74 57 d1 be e6 83 7e be 09 52 4e 3e 45 33 00 3e
       -0.40887034 -0.24855003 0.20148481 0.12519558
000030 31 6f 71 be de fd 34 be 7a ba 93 bd c2 38 bf 3d
       -0.23577572 -0.17674968 -0.07213302 0.093369976
000040 79 ea 83 be 44 6b c7 be c8 3f 52 3d 9e 50 1c be
       -0.25764826 -0.38949025 0.051330358 -0.15265128
000050 2b 83 9f bd 84 09 53 bd 55 53 b4 3e 8f 0e 4c bd
       -0.0778869 -0.051522747 0.35219827 -0.04981857
000060 cb b0 f0 bc 7d ad f7 bd cc 8b 36 3e ae 07 7c be
       -0.029381176 -0.12093637 0.17826766 -0.24612305
000070 ea 6e 74 3d b7 33 b8 bd 66 ea 01 bf 9b c7 56 be
       0.05967609 -0.08994239 -0.5074829 -0.20974581
000080 9d 61 b3 3d fa 06 50 be a1 1c e0 3d 72 1a 4c 3c
       0.08758853 -0.20315161 0.109429605 0.012457477
000090 e0 c3 16 3c 78 9a 27 be 09 fe eb bc 91 d4 ac bd
       0.009201974 -0.16367519 -0.028807657 -0.08438981
0000a0 89 2b f0 3d 70 bb 83 be e9 08 7b be 7c 69 40 3d
       0.11727054 -0.2572894 -0.24515118 0.046975598
0000b0 21 27 8e be 0f 3e 3a 3e bc be 66 3d 0d 74 57 be
       -0.27764228 0.18187736 0.056334242 -0.21040364
0000c0 08 2d 6c 3e f2 51 f8 be 95 5f 82 bc 20 cb 45 3e
       0.23064053 -0.4850002 -0.015914718 0.19315767
0000d0 7d 25 a4 3e fb 1e 85 be e9 cb 9d be 20 ac 8a bd
       0.3205985 -0.260002 -0.30819634 -0.067711115
0000e0 5b 30 96 be 89 30 8f 3e 4c a7 6f 3e 46 cc d3 3e
       -0.29333767 0.27966717 0.23403662 0.41366786
0000f0 03 4a cd bd 46 75 f3 3d 56 3f 4f 3e 65 8f f3 3e
       -0.10023882 0.118876025 0.20239004 0.4757034
000100 0c a9 60 3e 37 e6 09 bc 80 49 fc be 61 ae 2d be
       0.21939486 -0.008416704 -0.49274826 -0.16961052
000110 c7 10 42 3e 7e ea b5 be 05 45 fd 3d b0 67 2f bd
       0.18951713 -0.35530466 0.1236668 -0.042823493
000120 c5 19 c4 be 21 91 3e 3e 32 6e 58 bd 91 39 d4 bc
       -0.3830091 0.1861005 -0.052839465 -0.025906356
000130 ca e0 0f 3e 50 1c c0 3e a3 9e 5b be f2 64 6b be
       0.14050594 0.375216 -0.21447234 -0.22987726
000140 6e 5f af be bf e7 9c 3d 4d 44 c9 bc 7c f2 d7 3c
       -0.34252495 0.076613896 -0.024568701 0.026360743
000150 14 43 b0 b9 c7 0d 1b bf ad 39 11 be b5 8e 35 3e
       -0.00033619313 -0.605679 -0.14182158 0.1773022
000160 72 df c1 3d 8d 8a cf be 0b 8b 96 3e 74 82 96 3e
       0.09466447 -0.40535393 0.29402956 0.29396403
000170 9d 82 17 3e 82 c9 08 3e 1c e2 57 bd 82 2b 82 be
       0.14795919 0.13358119 -0.05270587 -0.2542382
000180 9d 4d 4a bc 28 48 2a bf 3e 3e f7 3e cd 7f 2a 3d
       -0.012347606 -0.6651635 0.48289675 0.041625787
000190 3b 34 30 3e af 68 96 be d3 8b 8e 3c ca 7d 84 3e
       0.17207424 -0.29376742 0.017400658 0.2587722
0001a0 38 e0 62 bc 2b 70 58 3e b7 21 bc be 59 b0 03 3e
       -0.013847403 0.21136539 -0.36744472 0.1286024
0001b0 a1 8b 88 3e 64 45 72 be d4 b0 17 3e c4 72 d2 bd
       0.26669028 -0.23659283 0.14813548 -0.10275796
0001c0 5d 80 00 be 2a 90 7f 3e 58 12 b4 3d 00 85 2f be
       -0.12548967 0.24957338 0.08792561 -0.17140579
0001d0 84 b8 65 bd 7c d3 e8 be aa 62 6e be 01 01 50 3e
       -0.05608417 -0.4547385 -0.23279825 0.20312883
0001e0 7d db 23 3d ae 19 5a be 49 15 96 3d 06 90 81 be
       0.040004242 -0.21298859 0.073282786 -0.25305194
0001f0 12 42 4e be b3 42 88 3e f4 0c 27 bf 6b 33 c2 be
       -0.20142391 0.26613387 -0.6525414 -0.37929854
000200 a6 00 1a bd 75 34 b8 be 01 4a 8e 3c 61 ef db 3d
       -0.037598275 -0.35977522 0.017369272 0.10739017
000210 fb a8 68 3e 72 2e 33 3d 97 55 7f bd e1 c2 be bd
       0.22720711 0.043745466 -0.062337484 -0.09314514
000220 25 f6 26 3e 78 ef 60 be 7b 91 40 be 67 6d af bd
       0.16304834 -0.2196635 -0.18805496 -0.08565789
000230 42 56 fa bd 2e 8f c8 3d f8 c8 55 3e 1c ee 88 bd
       -0.122234836 0.09792934 0.20877445 -0.06686041
000240 07 c9 6b be 5f de 6f 3d 6b 4d a5 3e 8d 6a b8 be
       -0.23025905 0.05856168 0.32285628 -0.36018792
000250 9a e2 8d 3e fe 26 83 bd ca b6 9e be 39 55 1b be
       0.27711946 -0.064039215 -0.30998832 -0.15169229
000260 10 90 86 be 6d a1 78 be 1a 57 57 be 11 c1 52 3e
       -0.26281786 -0.24280329 -0.2102932 0.20581461
000270 61 41 f7 3d 89 27 a3 be 6a 6b eb bd 13 78 5f 3e
       0.12073017 -0.318661 -0.11495097 0.21823148
000280 0a c1 57 bd cb c9 89 be 24 cd 90 be 42 07 90 3e
       -0.05267433 -0.26911768 -0.2828151 0.28130537
000290 fa e7 37 3d a4 c6 3b 3e 7a dd 31 3e fe ca b8 be
       0.044898964 0.18337494 0.17369643 -0.3609237
0002a0 30 1d b5 bd 9b b2 52 3e 94 1e 96 3d 69 cf e3 be
       -0.08843458 0.20575945 0.07330051 -0.4449418
0002b0 57 4e a9 be 47 bc 08 be ef 8d 1b be 78 b6 ce be
       -0.3306758 -0.13353072 -0.15190862 -0.40373588
0002c0 01 7b b0 bd 9c 6e cf be 18 01 34 3d 3e d5 df bd
       -0.08617211 -0.40514076 0.043946356 -0.109293446
0002d0 d1 dc 20 be 3b 01 e9 3e ee 79 bc bd ff 57 9a 3e
       -0.15709235 0.4550875 -0.09202944 0.3014526
0002e0 e0 09 84 3d bb 2e d0 3d 9d da f1 be ea 2e 45 3e
       0.06447196 0.10165163 -0.472371 0.19256178
0002f0 ca b8 80 be 3d 40 99 3b a2 d3 f5 3e 71 38 24 3e
       -0.25140983 0.0046768473 0.48013026 0.16037156
000300 c4 34 80 bd 75 63 a8 be 06 8e f2 3d d0 64 b3 be
       -0.06260064 -0.3288838 0.11843495 -0.3503785
000310 82 6a cf bd 17 c8 dd be ad 4e bb 3e 8c 36 9e 3e
       -0.10127737 -0.4331672 0.36583462 0.3090099
000320 c1 47 36 bd f0 9f 9b 3e ba 4d 30 be 60 8e ab be
       -0.044502024 0.3039546 -0.1721715 -0.3350706
000330 e5 33 17 3d 25 cf 3a 3e 7b f8 83 3c 02 61 19 bf
       0.036914725 0.18243082 0.016109696 -0.5991365
000340 49 02 00 be 80 80 39 bd f4 46 8c 3e f2 91 61 be
       -0.12500872 -0.045288563 0.27397883 -0.2202833
000350 79 30 54 3e 10 49 be be a6 4c 89 bd db a9 06 be
       0.20721616 -0.37165117 -0.06704073 -0.13150732
000360 d5 58 9b 3d d5 54 1a bf 13 0e d8 be ee e5 d0 be
       0.07585303 -0.60285693 -0.42198238 -0.40800422
000370 21 7e b2 bd 7b 0a 16 be 00 2e 95 be dd 74 b6 bd
       -0.087154634 -0.14652435 -0.29136658 -0.08909009
000380 00 b1 f4 3c c8 93 bd 3d 9b 9a 9a 3e 1a 9d 26 3e
       0.029869556 0.09256703 0.3019608 0.16270867
000390 68 8c 26 3e 18 12 eb be 74 38 06 bd 12 34 02 bf
       0.16264498 -0.45912242 -0.03276868 -0.50860703
0003a0 6c 88 84 3e 64 a2 87 bd 52 e2 a7 be 77 40 d8 bd
       0.25885332 -0.066227704 -0.32789856 -0.10559171
0003b0 8d b8 7e bd 29 f6 ca 3d d0 42 ae 3e 77 61 ae 3d
       -0.06218772 0.099102326 0.3403535 0.08514684
0003c0 e8 8a 59 be cc 37 af be 6d 42 8a be 8a 75 8d 3e
       -0.21244395 -0.34222257 -0.27003804 0.27628738
0003d0 b6 dc df bd b3 de 14 be d8 bd 11 be bd bd b4 3d
       -0.10930769 -0.14538078 -0.14232576 0.08825252
0003e0 ff fa bd 3d 0e 01 d9 3d b9 a0 7e 3e 6e 44 d7 be
       0.09276389 0.10595904 0.24865998 -0.42044395
0003f0 aa 26 34 be 85 78 17 be f4 79 42 be f6 2b 70 3e
       -0.17592874 -0.14792068 -0.18991834 0.2345427

fc1.bias f4 [128]
000000 09 37 a2 3e 25 73 a4 3d ae 83 59 3d 9f 59 00 3e
       0.31682613 0.080297746 0.053104095 0.12534188
000010 1d 3f be bd ff 5b 6e bd 08 74 9c 3e 0e fc 25 be
       -0.09289382 -0.058193203 0.30557275 -0.16209432
000020 59 da 85 bc 67 17 85 3c 94 71 4b bd dd 27 8f be
       -0.016339468 0.01624651 -0.049668863 -0.279601
000030 01 9f e2 3d 36 78 8f be f0 f7 57 3e b4 6f 7a be
       0.11065484 -0.280214 0.21090674 -0.24456674
000040 65 9f ab bc cb b8 c6 3d 06 58 f0 bc b0 29 ac bc
       -0.020950029 0.09703215 -0.029338848 -0.021015972
000050 ef 11 fd 3c c2 c4 0e 3d c2 76 54 3e f9 9c 91 be
       0.03089234 0.03485561 0.20748428 -0.28440073
000060 ed 44 c7 3d 4c be 71 3e 5d 2f 05 be 4c a6 7e 3e
       0.097299434 0.23607749 -0.13006349 0.24868125
000070 7d 85 77 3c 68 8a 65 3d de 1c 9d bd 04 71 b9 3d
       0.01510751 0.056040198 -0.076715216 0.09054759
000080 a7 33 da 3c b1 77 2a be 68 8d 72 bd d3 71 2d bd
       0.026635958 -0.16647221 -0.059216887 -0.04234488
000090 04 c9 e0 3d 11 cb 49 be d2 e3 96 3e da 9e 09 3e
       0.10975841 -0.1970637 0.29470688 0.13439503
0000a0 31 3d 5a bd 50 88 69 3e 5c 1a 66 be 9b 45 a4 be
       -0.053281013 0.22805905 -0.22470993 -0.32084355
0000b0 99 42 29 3e 65 1b a1 3d 96 c2 e2 3d 52 a0 a0 3e
       0.16529311 0.07866553 0.110722706 0.31372315
0000c0 27 08 2b 3e 01 98 05 3d 2c 0f b0 bd 2f 47 f5 bb
       0.16702329 0.032615665 -0.08596644 -0.0074852924
0000d0 e0 6a 75 3e b7 5b 1f 3e e1 dc 18 3e 6a f3 8b bd
       0.23966551 0.1556233 0.14928009 -0.06833537
0000e0 24 a3 18 be 97 2d 02 be 33 56 bc be e7 d7 99 3d
       -0.14905983 -0.12712704 -0.36784515 0.07511883
0000f0 1a 62 14 be 7f 12 29 be 27 65 0e bd cd 8b 03 3d
       -0.14490548 -0.16510962 -0.034764435 0.032115746
000100 3d 8a b3 3d 50 2e 49 bd e2 12 9a 3d eb 1f ac 3d
       0.08766601 -0.049116433 0.07523133 0.08404525
000110 75 5b d1 3d 8a f5 38 3e 3a e4 33 be b2 f9 4e be
       0.10222522 0.18062416 -0.1756753 -0.20212439
000120 82 0d 5b 3c 43 71 5b bd 98 4c 75 be 69 10 00 be
       0.01336992 -0.05357481 -0.23955 -0.1250626
000130 fb 33 84 be 58 18 c7 bc de 65 15 3e f3 b7 82 3d
       -0.25820908 -0.0243036 0.1458964 0.06382742
000140 5f a6 0b be b9 68 42 bd 84 0a c4 be ab 4f 76 3d
       -0.13637684 -0.047463153 -0.38289273 0.06013457
000150 b2 5b f2 3c 19 a5 3e 3e c6 9d f1 ba 2b 92 17 bd
       0.02958474 0.18617667 -0.0018433861 -0.03700463
000160 aa 9d 02 3e b3 49 32 3c 01 4e 1e 3c 87 36 63 bd
       0.12755457 0.010881829 0.009662152 -0.055471923
000170 8a f3 6b 3e ce 6d cf 3d 0a 05 83 3d a6 e2 f3 bd
       0.23042122 0.101283655 0.063974455 -0.11908464
000180 eb dd f3 bd 12 87 15 3e 02 9e 7e be 20 9f 94 3a
       -0.11907562 0.14602306 -0.24864963 0.0011338927
000190 ba fc 5a 3e e8 11 86 be 1b 70 02 be 56 bc 47 bd
       0.2138547 -0.26185536 -0.12738077 -0.048763596
0001a0 9c 7f 06 3e e7 32 d9 3d 02 dd cb be 3b 3e 7f 3d
       0.13134617 0.10605412 -0.39817053 0.062315207
0001b0 43 84 a6 be 38 6d 3b 3e 0f 22 df 3d 91 af 8f be
       -0.32522783 0.18303382 0.10895168 -0.28063634
0001c0 70 f2 a9 be 65 f0 9d 3d c6 bf 53 be d4 49 0b be
       -0.33192778 0.07711867 -0.20678625 -0.13602382
0001d0 45 b6 a0 bd b7 5b 1c be e8 ef 4d 3e 7c 00 4a 3d
       -0.07847265 -0.15269361 0.20111048 0.04931687
0001e0 dc 78 13 be f8 c8 6d bd 45 ac 92 be 34 9b 89 bd
       -0.14401573 -0.058052987 -0.28647056 -0.06719056
0001f0 6a db 18 be 0d ab 45 3e 82 e2 3a bc d6 14 b1 3d
       -0.1492745 0.19303532 -0.011406543 0.08646552

fc2.weight f4 [128, 128]
000000 14 e8 f6 3c 54 d8 81 bc 45 f2 01 be 5b 17 be bd
       0.03013996 -0.015850224 -0.12690075 -0.092817985
000010 00 36 e8 3d 8e 48 7c bc 79 e3 1f bc e5 84 ff bd
       0.11338425 -0.015398158 -0.009758824 -0.124765195
000020 fa e7 0c be b3 d7 90 bc ef f4 bb bc a6 25 fc 3d
       -0.13760367 -0.017680978 -0.022943942 0.12311868
000030 6e d1 0a 3c f4 ab 40 bd 6c 03 8f bd fa d0 5f 3c
       0.0084727835 -0.047038987 -0.069830745 0.013660664
000040 ad 96 26 be 47 ac e9 3b ac ec c3 bd b4 26 7e 3c
       -0.16268416 0.0071311328 -0.09566626 0.015512157
000050 b7 80 f1 bc 6c e6 50 bd 44 59 f6 bd cf 65 15 3d
       -0.029480321 -0.051000997 -0.12028745 0.036474045
000060 8c 6c c2 3d 37 28 c1 bd 2b 6d b6 bd 98 3b 8b bd
       0.0949336 -0.094314985 -0.08907541 -0.06798476
000070 0b df 2d be 8e 53 89 bd 1e 3e d5 bc fd 1e 2c bd
       -0.16979615 -0.0670539 -0.026030596 -0.04202174
000080 fa c1 0d bd de db b8 bd cb 20 49 3d 71 dc ae bd
       -0.03460882 -0.09026311 0.04910354 -0.085381396
000090 b8 35 d2 bc 94 7c 04 be dd f1 01 be 34 c3 80 bd
       -0.02566038 -0.12938148 -0.1268992 -0.06287232
0000a0 f5 e7 de bd e2 f9 d6 bd bf be b7 3d d2 a7 28 be
       -0.10884086 -0.1049688 0.08971929 -0.16470268
0000b0 b5 0c 94 bd e5 5f d5 bd 21 53 e7 bd 51 3c 38 3d
       -0.07228986 -0.10418681 -0.112951525 0.044979397
0000c0 84 52 6a bd 28 e0 68 be 92 0a 14 bd f6 80 53 be
       -0.0572076 -0.22741759 -0.036142893 -0.20654663
0000d0 3e a5 1d be c8 aa 4a bd ba 55 de b9 46 7d 8b bd
       -0.15395066 -0.049479276 -0.0004240701 -0.068110034
0000e0 2c cc 37 bd d2 48 bf bd a5 08 c3 3d 4b 27 dc bc
       -0.044872448 -0.09340061 0.09523133 -0.026874205
0000f0 36 15 01 be cb 61 ae bc 85 36 50 ba 5b 52 a1 bc
       -0.12605748 -0.021286866 -0.00079426944 -0.01969259
000100 c4 d7 81 3d 6b 9c 8e bd da 1d 0e be 13 85 dc 3d
       0.06339982 -0.06963428 -0.13878575 0.107675694
000110 2f ef 62 bd 36 db cd bd 89 aa 6c 3d 96 0a 48 bd
       -0.055403885 -0.10051577 0.057779822 -0.04883822
000120 9c 2d 31 be d0 e0 83 3d 78 fd 05 bc 0c e4 a4 3d
       -0.17302555 0.06439364 -0.008178107 0.08051309
000130 fa 1f 9c 3d fe ec 29 be 7d 28 fb bd df 4a b8 3c
       0.076232865 -0.16594312 -0.12263582 0.022496639
000140 60 ed 16 be fa ac 65 bd ad 0a 1b bc 98 d3 ab bd
       -0.14738989 -0.056073166 -0.0094629945 -0.08389968
000150 e9 53 51 be ad 10 c8 bd 31 da 87 bc 21 0e 0a be
       -0.20442165 -0.09768806 -0.016583534 -0.13481952
000160 a2 4e a6 be 4a d1 73 3c b0 53 ad bd b2 9d 38 be
       -0.32481867 0.014881441 -0.08463228 -0.18028906
000170 38 48 9f 3b d0 5f d7 bc 19 fe e8 bd 38 61 2c be
       0.004860904 -0.026290804 -0.1137659 -0.16833961
000180 27 92 13 ba 68 45 4f 3d 1f 09 79 be 0c a1 b8 bd
       -0.00056293834 0.0506033 -0.24319886 -0.09015092
000190 06 71 22 bb 2a a6 05 bd 62 ef 08 3e e3 d2 b4 bd
       -0.0024786605 -0.03262917 0.13372567 -0.08829286
0001a0 cb 57 d0 bc 7b 02 73 bc 5b 68 3a bd fb ef 68 bd
       -0.025432488 -0.014832134 -0.045509677 -0.05686949
0001b0 58 c9 08 3b bf b6 93 bd 47 b6 32 be 5e fb 1a 3d
       0.0020871963 -0.072125904 -0.17452346 0.03783738
0001c0 49 b1 18 be 58 22 f9 3d 58 30 ee bd 1c d2 99 bd
       -0.14911379 0.12164754 -0.116303146 -0.07510778
0001d0 61 4a 81 3d c1 39 73 bd af 3c 0d bd 8b 72 1e be
       0.06313015 -0.05938125 -0.0344817 -0.15473382
0001e0 eb 41 d0 3d cd ac 5d bd 0c 72 27 bd e0 a8 7d bc
       0.10168823 -0.054119874 -0.040880248 -0.0154821575
0001f0 6e 6f 97 bd df fc 61 be e0 e2 12 ba 7b 1c 0c be
       -0.073943004 -0.22069119 -0.0005603265 -0.1368274
000200 20 fe f2 3a 02 31 ce bd 39 5c 40 bd e7 fe a9 3d
       0.001853887 -0.10067941 -0.04696295 0.08300572
000210 6d 8c c0 bc bb 85 93 be 4b 83 d2 3d 50 f1 d9 3d
       -0.02350446 -0.28812966 0.102789484 0.1064173
000220 99 68 01 bd e1 0f 22 3e fb b1 6f 3e 1a 10 f0 bd
       -0.031593893 0.1582637 0.23407738 -0.11721821
000230 96 58 f9 bc 9b b4 d6 3d 92 8e 28 3e 8a ea 53 be
       -0.030437749 0.104836665 0.16460636 -0.20694938
000240 38 19 4b 3e 94 29 3a 3e 45 d5 2b bd 69 9e a8 bc
       0.19833839 0.18179923 -0.041951437 -0.020583348
000250 5d aa 0b 3d d7 7b 36 be f5 8e d1 bd 08 bd 2e bd
       0.034098018 -0.17820679 -0.10232345 -0.042660743
000260 8a 09 d0 bd 3b f5 82 3e c8 01 7b be 60 bd de bc
       -0.101580694 0.2557772 -0.24512398 -0.02718991
000270 be 77 9b be df ec 1b 3e eb ce 73 be 96 f5 57 bc
       -0.30364794 0.15227078 -0.23809402 -0.013181111
000280 55 35 12 3e fe 85 55 be 2c b3 f5 bd 23 b7 86 bd
       0.14278157 -0.20851895 -0.11997065 -0.06577899
000290 73 52 57 be cc a2 72 bd 5b 0c 35 b9 54 eb 5d 3e
       -0.21027546 -0.059237286 -0.00017266108 0.21671802
0002a0 8f 9c 15 3d 06 c4 79 3d d4 60 b7 3d 7e 70 81 3d
       0.03652626 0.06097796 0.089540154 0.06320284
0002b0 ea 4d 36 be 8e f8 4d 39 98 e8 28 bc 4c f6 d2 3d
       -0.1780316 0.00019642917 -0.010309361 0.10300884
0002c0 ca ed 85 3c 0a 96 87 3c 88 99 dc 3d 7c 80 b2 3b
       0.016348738 0.016551036 0.10771471 0.0054474454
0002d0 f9 6a 89 bd 90 b0 5c 3c 9d 5f 6f 3c b0 7f 15 3e
       -0.067098565 0.01346983 0.014610198 0.1459949
0002e0 28 41 5f be ae 10 20 be 34 fe 6c be f8 25 cd bc
       -0.21802199 -0.15631363 -0.23143846 -0.025042519
0002f0 93 23 e8 be bb c6 3f 3e fc de b2 bd 1d 83 44 3e
       -0.4533964 0.18728153 -0.08733937 0.19190641
000300 f8 bc cc bd 5f 4f dc bd cf 6a a5 3c 02 de 66 3d
       -0.099969804 -0.10757326 0.020192532 0.056364067
000310 ee 2f 3c be 19 7c cf bd 66 86 cb bd 43 c3 11 3d
       -0.18377659 -0.101310916 -0.09937744 0.035586607
000320 c7 55 4f be 60 9c 06 be d1 6f 71 be 6f dc d9 3c
       -0.20247565 -0.1314559 -0.23577811 0.026594369
000330 a5 6e 23 be f7 0c b2 3d 49 b1 30 be d7 f3 15 bd
       -0.15960176 0.08693879 -0.17255129 -0.036609497
000340 5c 6e 82 3d c5 4e b0 3c c0 fb 1d be 20 c7 ce bc
       0.06368706 0.021521935 -0.15428066 -0.025241435
000350 e6 5d 98 3d 51 de c7 3d 2c 1e b0 3d 31 eb f6 be
       0.07439785 0.097592 0.08599505 -0.48226312
000360 d9 60 d5 bd a3 89 69 be a4 a2 46 be 8f a7 bd bc
       -0.10418863 -0.2280641 -0.1939798 -0.023151187
000370 eb e1 ea bd 77 9b bf bb ee 4e 00 bf 2d db 00 3e
       -0.11468872 -0.0058473903 -0.5012044 0.12583609
000380 3e 92 9a bd 37 6f 05 3e 6e f9 e4 3d ec 61 ad 3d
       -0.07547425 0.13030706 0.111803874 0.08465943
000390 10 d5 1a bd 21 b9 10 3d 0f b5 02 bc af ca 26 3e
       -0.03780085 0.035332803 -0.007977738 0.16288255
0003a0 cc f5 46 3d 74 52 11 be f2 b3 d6 bd a6 bd ea 3d
       0.048574254 -0.1419161 -0.104835406 0.11461954
0003b0 3e 51 99 3c e5 19 77 3c c0 b8 ef bd c1 df 0b bd
       0.018715497 0.015081857 -0.1170516 -0.034148935
0003c0 4f fe 48 be 3c 15 3b 3e d5 71 8f be 87 28 ab 3d
       -0.19628261 0.18269819 -0.28016534 0.08357339
0003d0 b1 fa 9a 3d bb a5 25 3e 34 e7 47 bd 92 7b 15 bc
       0.07567347 0.16176502 -0.048804477 -0.0091237
0003e0 b2 b3 f1 3d 1f 05 89 3e 8b a9 48 be 30 68 54 be
       0.11801852 0.2676172 -0.19595926 -0.2074287
0003f0 72 f5 28 3e a8 fd 67 3c 44 5f 7a 3e 30 06 5f 3d
       0.1649988 0.014159597 0.24450403 0.05444926

fc2.bias f4 [128]
000000 70 db 2b bd 6b 6c 49 bd ca c7 b6 3d 31 a2 d0 3d
       -0.04195732 -0.04917566 0.089248255 0.101871856
000010 e1 de 32 3b f4 e8 c3 3c dd 78 29 3d 2a 93 08 bd
       0.002729349 0.023914792 0.04137503 -0.03334347
000020 78 48 1d 3e 73 3c 85 3d 13 08 b6 bd 23 e6 da 3d
       0.15359676 0.065056704 -0.08888259 0.10688426
000030 04 9b cf bd b3 0d 0f 3c 15 37 bb bd ea 70 f1 3b
       -0.10136989 0.0087312935 -0.091413654 0.0073681967
000040 0e 22 11 3d 9d 95 af 3c e1 34 06 bd c8 bf 25 bb
       0.035432868 0.021433646 -0.032765273 -0.0025291312
000050 d7 3f 2b 3d 10 cb 85 bd c0 8c 8d 3d 77 ff 46 3d
       0.04180893 -0.06532872 0.069116116 0.048583474
000060 f9 51 e1 3d 1f b8 d9 bb 4e 90 56 bd f1 11 8e 3c
       0.11001963 -0.0066442634 -0.052383713 0.01734254
000070 e4 df b1 bd 16 d8 14 bd e4 56 8c 3c 1b 86 a6 3d
       -0.08685282 -0.036338888 0.017131276 0.08131047
000080 fb 9b 88 bd 56 c5 bb bd 78 6d a5 bd e1 f1 d1 3b
       -0.06670376 -0.09168498 -0.0807752 0.006407008
000090 54 6a b5 bc 0e a0 c3 bd 6d ae de 3c d1 bb 54 bd
       -0.022145428 -0.095520124 0.027182782 -0.05193693
0000a0 e6 88 4c 3d 27 d9 3a bd 60 34 80 bd 4a 93 37 bd
       0.049935244 -0.04561725 -0.0625999 -0.0448182
0000b0 2e c6 c4 bd 06 d2 35 3d e9 02 dc 3d 7b 30 18 bd
       -0.09608112 0.044389747 0.107427426 -0.03715561
0000c0 ba 48 ab bc b0 b1 e6 3c 28 93 c5 3d 57 72 a8 bd
       -0.020908702 0.0281609 0.096472085 -0.082249336
0000d0 0d 1a c0 bd 92 8e 50 bd 7b 25 c1 b8 07 e9 be 3c
       -0.09379969 -0.050917216 -9.2099384e-05 0.023304475
0000e0 e5 f2 0e bb db cc fa 3d 61 4a f4 bd 77 dc 30 bd
       -0.0021812257 0.12246104 -0.11928249 -0.043179
0000f0 ff 16 09 3a b1 9c 88 bd f3 0c fd bc 23 cd 9c 3c
       0.0005229562 -0.066705115 -0.030889964 0.019140786
000100 37 9e ee bd 9a 6c 22 bc 97 66 3f be b2 ff 5e bb
       -0.11651271 -0.009913588 -0.18691479 -0.0034026918
000110 59 fb b2 bc ed 5f ac bb ce fc ea bd 22 07 40 be
       -0.021848368 -0.0052604587 -0.11474 -0.18752721
000120 51 6b bb bd 93 b2 84 3c 69 26 1c 3d 9b a7 fd bd
       -0.09151328 0.016198432 0.03812257 -0.12385484
000130 0e 55 1a bd 0c 95 b9 3d d2 ff 2b 3d 5a d5 ad 3c
       -0.03767877 0.090616316 0.041992016 0.021219898
000140 96 41 ba 3d 63 38 09 3d a8 a9 57 bd 89 f4 94 bd
       0.09094541 0.03350104 -0.05265203 -0.07273204
000150 1b fd f9 bc a3 f5 60 3d 89 17 0f 3e 46 ad 81 bd
       -0.030516198 0.054921757 0.13973822 -0.063318774
000160 ee ba 1d be 14 84 37 bd 49 df dc bc 94 9f 78 bd
       -0.1540334 -0.044803694 -0.02696194 -0.06069906
000170 8f e0 d7 bd 08 b7 17 be 52 2f af 3d 12 d5 b3 bd
       -0.10540878 -0.14815915 0.085539475 -0.08780874
000180 50 5c e1 ba d8 3c fe bd 39 58 2a 3d 35 8d 76 bd
       -0.0017193649 -0.12413949 0.041588042 -0.06019326
000190 61 7e e2 bc 1f 18 7a bd b0 e3 85 3c 0d 64 73 bd
       -0.027648153 -0.06105816 0.016343921 -0.059421588
0001a0 a3 85 62 3c 38 28 06 bd 3d 97 31 bc b3 b4 56 bc
       0.013825807 -0.0327532 -0.010839281 -0.0131046055
0001b0 a9 88 94 3c 54 13 29 bb eb fa 64 3d ba f6 95 bd
       0.01813157 -0.0025798874 0.055903357 -0.0732245
0001c0 4d 2a 91 bd e8 90 9b 3c 4b 52 8f 3c bf f2 5a bc
       -0.07088146 0.018989995 0.017495295 -0.013363539
0001d0 c7 38 19 3d d0 02 ec 3d 5c 05 85 bc c0 05 98 3c
       0.037407663 0.11523974 -0.016237907 0.01855743
0001e0 91 38 af bd 69 9e b0 3d b0 31 a2 bd d2 32 e6 bd
       -0.08555711 0.08623964 -0.079196334 -0.11240162
0001f0 89 a7 22 3d 14 1a 6c bc 34 12 1b be 33 5e 28 3d
       0.039710555 -0.014410514 -0.15143663 0.04110546

mu.weight f4 [5, 128]
000000 b1 0d fc 3d ff e4 17 3e 0b d2 21 bd 21 0a c5 bd
       0.12307299 0.14833449 -0.039506953 -0.096210726
000010 d7 d2 a8 bd 6b a2 c8 3c 03 d1 c8 3d a4 56 9f 3c
       -0.082433395 0.02449151 0.09805491 0.019450493
000020 16 fa c9 bc a7 ef ff 3d 4a 60 37 3d 6f 80 c1 be
       -0.024655383 0.12496882 0.044769563 -0.377933
000030 65 82 a1 be 18 66 9b bc d3 40 26 bd fa e8 7d 3e
       -0.31544796 -0.01896958 -0.040589165 0.24795905
000040 7e 92 89 3d 6d 4e 13 be cc d7 b1 3d ca c4 d6 3b
       0.06717394 -0.14385386 0.08683738 0.006554221
000050 f1 81 ea bd ec 55 f6 bc 99 b1 47 3d 2d ea f9 bb
       -0.114505656 -0.030070268 0.048753355 -0.007626793
000060 5b 3e 31 3e 5e f0 50 3e 7c bb 9a 3c d1 8e d1 3d
       0.17308943 0.20404193 0.018888228 0.10232318
000070 57 92 52 3d 7d 5d a5 bb 75 18 88 bd b7 59 61 bd
       0.05140909 -0.005046545 -0.0664529 -0.0550172
000080 7e 23 8d bc 96 4f fb 3c 72 65 4d bd 88 63 ef bd
       -0.017228838 0.030677598 -0.050145574 -0.11688906
000090 44 ce bc 3c 9b ab 90 bd f7 b1 f2 3c 92 96 52 3d
       0.023047574 -0.07063981 0.029625876 0.051413126
0000a0 e7 46 af be 6c a6 95 bd a8 f6 67 be 1b 54 7e 3d
       -0.34233782 -0.07307133 -0.22652686 0.062091928
0000b0 65 ce 64 3d 5c 35 28 3e d3 70 8c bd b0 cd 64 3e
       0.055860896 0.16426605 -0.06857457 0.22344089
0000c0 ec 7b ae 3d 30 12 8b 3d e7 d4 13 be 7e df 1a be
       0.0851973 0.06790578 -0.14436685 -0.15124318
0000d0 62 02 da be 09 3c 36 3e 96 2b 2e 3e 01 f3 bf bd
       -0.42579943 0.17796339 0.17008814 -0.09372521
0000e0 d2 91 71 3e e6 58 4f 3e 11 1c 9f bd 5d ab 80 be
       0.23590782 0.20248756 -0.07769025 -0.2513074
0000f0 52 8d 85 bd 16 3e 3d be 6c 77 d5 3d 5d 71 ba be
       -0.06521095 -0.18480715 0.104231685 -0.36414614
000100 44 6d 5b be cf 8e 04 bd c1 20 fa 3c ba 35 00 be
       -0.214284 -0.032362755 0.030533196 -0.12520495
000110 31 78 22 3d df ee b5 3d 89 e0 17 3e 08 77 0b 3e
       0.039665405 0.08883452 0.14831747 0.13619626
000120 b8 4e 6d be 59 a7 9a bd a0 7a 2a 3e 2c a7 34 be
       -0.2317456 -0.0755145 0.1664834 -0.17641896
000130 3c 1b ab 3e 0a b5 2c 3e 0e 83 b8 bd 57 ab 50 be
       0.33419216 0.16865936 -0.09009372 -0.20377861
000140 ba fa b4 3d 09 a9 e1 3c a9 98 bc bd 14 74 d2 3d
       0.08836885 0.027546423 -0.09208805 0.102760464
000150 8e 0d 4b 3c ee 9a 72 3d b1 b1 8f 3d 21 e1 02 bc
       0.012393368 0.059229784 0.07016314 -0.007988245
000160 1c a1 6f be 84 f1 96 bb 43 a7 b8 3c e2 64 fa bd
       -0.23401302 -0.0046064276 0.022540694 -0.12226273
000170 57 b5 24 3c aa aa 6c be 5a db 79 3e b6 d2 64 3d
       0.010053 -0.23111978 0.24400082 0.055865012
000180 83 78 c3 3d 03 8e 96 bd d0 9b c0 bd c3 ab b6 bc
       0.0954447 -0.07351305 -0.09404719 -0.0222987
000190 f6 8c 8b bd 8f 4d b1 bd d3 87 44 3d ce af 35 3d
       -0.068139955 -0.08657371 0.047981095 0.044357114
0001a0 ff d4 09 bd 7a 99 21 3e 8c 23 a5 bd 25 20 bb bd
       -0.033650395 0.15781203 -0.08063421 -0.091369905
0001b0 16 6f 98 3b 70 ff 72 3b e6 09 98 3b 07 0d 27 be
       0.0046519144 0.0037078522 0.004639852 -0.16313563
0001c0 fa 18 8a bd 50 51 cb 3d 07 e4 93 3d a6 e9 34 3e
       -0.06743045 0.099276185 0.07221227 0.17667255
0001d0 ce 43 27 3e 40 64 64 3e 61 aa bc 3a 23 c9 4f be
       0.16334459 0.22303867 0.0014394039 -0.20291571
0001e0 a0 8d 58 3d 68 3a c5 3d e7 9d c2 3c 33 91 87 bc
       0.05286944 0.09630281 0.023756934 -0.016548729
0001f0 37 21 b5 3c f2 4f 64 3e fd a2 e6 3d dc 91 76 bd
       0.022110565 0.22296122 0.11261556 -0.060197696
000200 c7 d8 af bd 93 fd 9d bd 2c 88 6b ba 78 9d dd 3d
       -0.08586269 -0.07714381 -0.000898483 0.108210504
000210 74 47 46 3e d3 4e 34 3e bc 22 71 bd 6e ed 94 bd
       0.19363195 0.17608194 -0.058871016 -0.072718486
000220 66 37 2f 3e 0d a6 34 3e a4 f5 aa 3d d3 5d 8e bd
       0.17110977 0.17641468 0.083476335 -0.06951489
000230 bc 36 a8 3c b0 32 1d 3c 43 cb 6c bd f6 5d 7a 3e
       0.020533912 0.009594604 -0.057811033 0.24449906
000240 2e e4 91 3e 2f 83 b3 3d 04 4f 3a be a6 97 f0 3b
       0.284944 0.08765256 -0.18194205 0.0073422967
000250 bd 65 a4 3e 6a 17 11 3e b1 a0 ff ba 9d 14 1f be
       0.3210887 0.14169088 -0.0019502846 -0.15535207
000260 ee 59 f3 bd 76 e2 0d 3e 9b c5 a1 bb f2 04 30 3e
       -0.11882387 0.13855919 -0.0049368865 0.17189386
000270 fe 57 5e bc 13 4b 28 3d fa 22 0d be bd ad 1a 3e
       -0.013570784 0.04108722 -0.13782874 0.15105338
000280 a6 2f ae bd 5b 0f e1 3c 8d 74 39 3d 85 9d d3 3c
       -0.08505182 0.027473142 0.045277167 0.025831947
000290 f1 89 5e 3e 37 42 18 bb 26 ca 8d bd ab 77 0c bd
       0.21732308 -0.0023232826 -0.069233224 -0.03429381
0002a0 ac 7a 3a be 2e cb 3c bd 9b 25 e6 3d 2a 51 01 3e
       -0.18210858 -0.046092205 0.112376414 0.12628618
0002b0 21 3e b6 3d 85 32 4d bd e9 0a 81 be 79 93 58 be
       0.08898569 -0.050097007 -0.25203636 -0.21150006
0002c0 12 cf 46 3e 91 26 50 bd 8e 41 17 bc 97 51 ee bb
       0.19414929 -0.05081803 -0.009231938 -0.00727291
0002d0 20 b0 27 be 57 22 a1 bd 5f b5 43 bd 80 96 2d bd
       -0.1637578 -0.07867878 -0.04778039 -0.042379856
0002e0 e4 33 14 3c 27 04 39 3e 20 5d f0 3c 5c 6e 31 3d
       0.009045575 0.1806799 0.02934128 0.043318138
0002f0 2e a3 b0 be 51 61 a0 bd b6 84 6b 3d e2 33 0a be
       -0.34499496 -0.07831062 0.05749961 -0.13496354
000300 19 94 0a be 12 e4 ce bc 07 80 2e 3c 67 b4 43 3e
       -0.13533057 -0.025255237 0.010650641 0.19111787
000310 29 2d 94 3c c1 b1 72 bd b3 c1 8c bb bb 82 a3 3d
       0.01808794 -0.05925155 -0.0042955517 0.07983919
000320 67 f6 4c 3e 8b 39 22 be 97 8f c4 3d 76 7f 2e bd
       0.2001587 -0.15842263 0.095977 -0.042602025
000330 3f 22 73 bd 2a af 3d bd 03 ec 29 bb 05 99 4b bb
       -0.05935883 -0.046309628 -0.0025928027 -0.0031066549
000340 e8 ea c9 3c 4c 44 bb 3b 3a 18 69 bd 1e f3 c1 3d
       0.024648145 0.0057149287 -0.05690787 0.09470199
000350 45 b8 fe 3b c2 c2 df bd e2 58 a6 ba 03 d7 98 3d
       0.0077734315 -0.10925819 -0.0012691284 0.07462885
000360 54 e6 ef 3d 46 9f c6 bc 74 d8 95 3e a0 fc 99 3d
       0.117138535 -0.02424587 0.29266703 0.075188875
000370 15 b4 64 3d 70 a7 05 3d d4 a4 df 3d 32 ef 4c 3d
       0.055835802 0.032630384 0.1092011 0.050032802
000380 83 26 98 3e 29 3a f7 bd c3 6c 90 3d 24 d8 8c bd
       0.29716882 -0.1207164 0.07051995 -0.06877163
000390 ca ad 68 bc 98 bf dd 3c e9 18 9e 3d ae 60 e7 3c
       -0.014201591 0.027068898 0.07719595 0.028244343
0003a0 0b e2 a5 3e cf e6 19 ba b1 f5 5f bd 7f 18 6b 3d
       0.3239902 -0.000587088 -0.05467767 0.05739641
0003b0 a8 d9 2a 3d ca 1f 98 3e e5 7b b8 3d 1c 13 6e be
       0.04171148 0.29711753 0.09008006 -0.23249477
0003c0 81 2b 1f be fb 34 c6 bc 93 69 93 be 1f 82 e4 3d
       -0.15543939 -0.024195185 -0.28791484 0.11157631
0003d0 78 aa 76 be 7f 9f 38 bd b3 2b 01 3d 63 97 0f be
       -0.24088466 -0.045073982 0.031535815 -0.14022593
0003e0 fa a5 90 3d e9 e1 f8 bd 09 56 b1 bb 98 dc 0d be
       0.070629075 -0.12152464 -0.0054118675 -0.13853681
0003f0 5b 6b 50 3e 9f f5 53 be bc 53 08 3e 3f 75 1d 3c
       0.20353453 -0.20699166 0.13313192 0.009610473

mu.bias f4 [5]
000000 8b 4e 97 3c bc 1c 84 bd ee 00 3c bd 00 d5 c7 3c
       0.01847007 -0.06450793 -0.045899324 0.024393559
000010 d0 69 d3 3c
       0.025807291

log_std.weight f4 [5, 128]
000000 5b 56 86 bc 7a e5 38 be 7e 09 1a bd 1b 07 6d be
       -0.0163986 -0.18056288 -0.03760671 -0.23147242
000010 74 86 94 be 2c 90 07 bd 0a bb 23 bd a2 12 8b 3b
       -0.2900883 -0.033096477 -0.039973296 0.0042441646
000020 ee 30 94 be 29 48 7f be d1 e5 f9 3b 40 50 56 3e
       -0.2894358 -0.2492987 0.007626273 0.2092905
000030 5a 6f 0e 3e 27 c7 b7 bc 73 a5 4d be 11 40 f5 bc
       0.13909665 -0.02243383 -0.20082645 -0.029937776
000040 69 d0 1a be d2 bf c7 3e f7 5d d3 bd c6 91 93 bd
       -0.15118565 0.39013535 -0.10320657 -0.072055385
000050 b0 b8 9e bd 90 0a ac bd 08 00 ae 3e 08 a7 93 be
       -0.0775007 -0.08400452 0.339844 -0.28838372
000060 9b 54 4b be e9 b9 18 3e a2 db a4 bd 04 20 19 3e
       -0.19856493 0.14914669 -0.08049704 0.14953619
000070 46 d1 01 3e b9 48 83 3d af 7c 90 bc d4 1a 81 be
       0.12677488 0.06410355 -0.017637579 -0.2521578
000080 4e e4 24 3d db 16 ae 3d 2c 2b 4f be a6 ea c9 bd
       0.04025679 0.08500453 -0.20231313 -0.09859209
000090 ba 44 f2 bd 3a 92 bd 3c d7 04 48 bd cf 77 ac 3d
       -0.11829515 0.023141015 -0.04883274 0.08421289
0000a0 0f 62 3c be b9 e8 62 bd 78 4f 39 3c 87 e2 19 be
       -0.18396781 -0.055397723 0.011310451 -0.1502782
0000b0 24 8b c5 3b d4 d5 30 be ee 66 be be d2 3c 1a 3e
       0.0060285497 -0.17269069 -0.37187904 0.15062264
0000c0 4f ae e8 3b c8 98 58 be a3 12 18 be 0e 87 f1 bc
       0.0071008573 -0.21152031 -0.1485086 -0.029483344
0000d0 35 f0 f4 bc 2f ce 04 be 94 e2 ce bd fa cc 20 be
       -0.029899696 -0.12969278 -0.1010181 -0.15703192
0000e0 3f ec 11 3e 4e 0f c9 3d 66 83 81 bd 46 66 13 bc
       0.14250277 0.09817372 -0.063238904 -0.008996552
0000f0 70 26 98 bd e0 c0 5c 3d 48 7d 03 be 93 0f a6 3c
       -0.07429206 0.053894877 -0.1284076 0.020271098
000100 eb 28 bc 3d 10 82 bb b8 c1 3c af bd f9 65 34 3c
       0.09187492 -8.941081e-05 -0.0855651 0.01101064
000110 30 6a 0a be 95 d9 a2 bd 0a 44 ff 3c f2 9c 29 3d
       -0.1351707 -0.07951657 0.031160373 0.04140944
000120 6e f8 76 bd 64 05 bf bd 23 a5 f4 3d 29 73 76 3e
       -0.060295515 -0.093272 0.1194556 0.24067368
000130 75 cd df bd 49 d2 72 be f4 f0 80 3c 5f f3 7b be
       -0.1092786 -0.2371303 0.015739895 -0.24604557
000140 c5 aa bc 3d e8 fc 20 bd 83 3f d0 bd 75 e5 68 3e
       0.09212259 -0.03930369 -0.10168364 0.22743781
000150 c2 c4 44 3c d2 3a ee bd 75 3f 55 bd f3 4b a3 bd
       0.012009801 -0.11632313 -0.05206247 -0.079734705
000160 88 22 40 3c 50 75 ce bb 05 95 3b 3d 6d a0 ba bb
       0.011726983 -0.006300606 0.045796413 -0.005695394
000170 9c 2c 03 3e 76 0f 0e 3b 3a 7e 13 3e 2b 0b 80 bc
       0.12809986 0.0021676696 0.1440362 -0.015630325
000180 e4 4b 8b bd e3 b6 11 be 75 b6 12 be 70 b4 3c be
       -0.06801584 -0.14229922 -0.14327414 -0.18428206
000190 0f 26 7b 3e a3 47 4a bd 9c 6a 8b 3d ae 36 08 3c
       0.24526237 -0.049384724 0.068074435 0.008313818
0001a0 4b c9 82 be 8f d0 f0 3c 34 df ac bd c8 09 36 bd
       -0.255442 0.029396323 -0.0844101 -0.044442922
0001b0 18 17 09 be f3 db 8d be ad 84 47 3d 75 3b 87 be
       -0.13387716 -0.2770687 0.048710514 -0.2641255
0001c0 bd 4e b2 bd 01 26 1a 3c af 61 59 3e f6 24 fe 3d
       -0.087064244 0.009408475 0.2122867 0.124093935
0001d0 03 65 c5 3b d1 7a 55 3e 9b 7f 41 bd c3 e2 6e 3c
       0.0060240044 0.20847632 -0.047240835 0.014580431
0001e0 6f 54 65 3d 51 b6 de 3d 92 19 62 3e c0 0c 01 be
       0.055988725 0.10874618 0.22080067 -0.1260252
0001f0 86 ad ee bc 5c 43 42 3d b9 5e fc 3c b2 14 6c bd
       -0.029135477 0.04742752 0.030806886 -0.057636924
000200 2f d2 f5 bc fd 61 3f bd b8 e6 57 be a8 75 69 be
       -0.03000745 -0.04672431 -0.21084106 -0.22798789
000210 72 94 11 be 8e 14 9d bc 9c 9b 0a 3e 82 bb 8f 3c
       -0.14216784 -0.01917484 0.13535923 0.017545465
000220 f5 0e 27 be a2 fa 78 bd c7 29 0c be 45 f7 f0 3c
       -0.163143 -0.060785897 -0.13687812 0.029414782
000230 50 4d 0e 3d d8 66 33 3d 43 cc 41 3d cf 5e 21 bc
       0.0347417 0.04379925 0.04731394 -0.009849264
000240 bf f2 15 be 71 13 f9 3c 5a 16 1e 3b 37 19 3f bd
       -0.14643382 0.030404778 0.002412221 -0.046654906
000250 b2 23 21 be 6e a2 8d bc a3 c0 b7 be af 56 d8 bd
       -0.15736273 -0.017289367 -0.35889158 -0.105634086
000260 2a 28 d8 3b eb 3f 92 be d1 63 0f 3e e6 8f 24 be
       0.006596585 -0.2856439 0.1400292 -0.16070518
000270 ea 44 1f 3d bb 43 06 3d 1a d1 20 bd e2 c2 74 3d
       0.03888408 0.032779437 -0.039261915 0.059756167
000280 9d 56 97 3d bb 6b 58 bd 39 e7 94 be ac 3d e7 bd
       0.07389567 -0.052837115 -0.2908266 -0.1129106
000290 dd bb f1 bd e0 c3 71 3c 48 3b 90 be 7a 32 90 3d
       -0.1180341 0.014756173 -0.28170228 0.07040878
0002a0 29 ef d4 3b 1e 09 9a ba a4 98 58 bd 25 25 d4 3d
       0.0064982367 -0.0011751985 -0.052879944 0.10358647
0002b0 38 40 52 3d 4d 7d 20 be 9f 57 4b be c3 b1 a6 3d
       0.051330775 -0.15672798 -0.19857644 0.08139374
0002c0 4b 56 c8 3d 4b 01 db bd 75 b4 43 be b5 1b 03 3e
       0.09782084 -0.10693606 -0.19111808 0.12803538
0002d0 30 7c 8a bd cb bf 83 3d 63 cb 12 be 4b f5 85 3b
       -0.06761968 0.06433066 -0.14335398 0.004088079
0002e0 77 14 11 3c 8d b0 8b 3d 01 cd d6 bd 2b f4 82 be
       0.008854977 0.06820784 -0.1048832 -0.2557691
0002f0 d8 83 45 bd 27 2f 01 be d1 e8 2c be 33 67 a4 bd
       -0.04822144 -0.12615643 -0.16885687 -0.08027496
000300 82 f2 23 3e a5 25 51 3d 8a 01 c3 3d fe 03 9e 3d
       0.16010478 0.05106129 0.09521778 0.07715605
000310 34 b8 e3 3d 01 83 9a bd ce 8c 80 be 79 0e 0c bc
       0.11119118 -0.07544518 -0.25107425 -0.008548372
000320 ca df 1c 3e 8c c9 6e bd ce 09 80 bd 09 f0 1a 3d
       0.15319744 -0.05829768 -0.0625187 0.03782657
000330 db e4 1d be de ea d4 bd da 51 40 3d 44 3d c1 bd
       -0.15419333 -0.1039636 0.04695306 -0.094355136
000340 c6 74 60 bd 34 e2 81 bc fd 17 b1 bd 07 e0 0e be
       -0.054798864 -0.015854932 -0.086471535 -0.13952647
000350 89 1e 6a 3c 04 29 1a be 51 26 f0 bd 0d 62 73 3d
       0.014289507 -0.15054709 -0.11726058 0.05941968
000360 2f d0 93 3d 88 d1 d8 bc e5 c0 0b 3d 42 a0 61 bd
       0.07217442 -0.0264671 0.034119505 -0.055084474
000370 9a b9 63 bd b5 ba 38 bd be 12 3a 3e b1 6f 41 3c
       -0.055596925 -0.045099933 0.18171212 0.011806414
000380 41 f5 0a be 6d 98 96 bd d7 05 09 be 6f 1a 78 be
       -0.1357012 -0.07353292 -0.13381134 -0.24228834
000390 74 b0 eb bd 09 39 96 3d ac 21 37 bd b7 f1 44 3c
       -0.11508265 0.07335097 -0.044709846 0.01202052
0003a0 3b 55 89 bd 75 05 4c be 34 b2 1a bd 59 a6 85 bd
       -0.067057095 -0.19923957 -0.037767604 -0.06525869
0003b0 82 56 60 be a9 39 e2 bd 17 ec 57 3c 95 42 9a 3e
       -0.21908 -0.11046154 0.013178847 0.30128923
0003c0 e1 f6 ec bd b4 1f 0a be 05 9b b5 3d 24 5c 1b 3e
       -0.11570526 -0.13488656 0.08867458 0.15171868
0003d0 b5 54 ae 3d 6b e9 d7 bd 73 76 3b bd 52 4f 80 3d
       0.0851225 -0.10542568 -0.04576726 0.06265129
0003e0 3a be 7e 3d 10 2b 07 be 0d 47 75 bd 33 c6 1d 3e
       0.062193133 -0.13200021 -0.059882212 0.15407638
0003f0 1b ff d6 bd 7a c9 7e 3d 2f 58 a3 bd 9c f7 0e bd
       -0.10497876 0.06220386 -0.07975804 -0.034904107

log_std.bias f4 [5]
000000 ab 76 6e be 58 6b 44 be 22 cb 6a be eb ad 93 be
       -0.23287456 -0.19181573 -0.22929052 -0.28843626
000010 97 dd 33 be
       -0.17564999
