resource/train_valid_split/sac_actor_10000.pth (torch, 80607 bytes, 8 tensors)

fc1.weight f4 [128, 12]
0.17672266 0.1964678 -0.034403935 0.26979953 -0.14224873 -0.06906429 -0.2562112 0.16911386
0.21588057 -0.1901789 0.38586769 0.05515065 0.20350392 0.009519035 0.14384437 -0.054993466
0.21062239 0.1485742 -0.1933497 0.051923223 -0.16452721 0.09052861 -0.05850429 0.16338064
-0.18707985 -0.17292736 -0.08151457 -0.14134791 0.06803726 -0.42049125 0.37320378 -0.21299595
0.26365623 0.15112668 -0.20623195 0.21061116 -0.005444837 0.35728735 0.021761943 -0.15480568
0.0035201586 -0.121326365 0.064545415 0.22624135 0.15933758 -0.08481582 0.20210093 -0.022601085
0.16256982 -0.14754555 -0.34363258 -0.07571223 -0.26294023 0.23188241 -0.03313298 0.1936438
0.023495356 -0.03887659 0.24393189 -0.3830363 -0.10327611 -0.08231318 0.1843326 -0.20693195
0.022491409 -0.09626939 0.32450396 -0.244623 -0.21435897 -0.1670224 0.24777442 0.113568395
0.26857767 -0.26359984 -0.28632995 -0.29008687 -0.21338774 0.16158155 0.100709505 0.19950542
-0.14924456 -0.21548994 0.15582287 -0.20230946 0.15809166 -0.05524591 0.077396445 -0.27080423
-0.16049847 0.01873885 0.015707564 -0.09866691 0.15948392 0.25905797 -0.19534832 -0.16972236
0.26012674 -0.18436962 -0.10234006 -0.44120908 -0.13917491 -0.06507565 0.13945176 -0.2885087
0.06123232 -0.096421696 -0.42246655 -0.12526627 -0.36946252 -0.110554226 0.28856224 0.002904345
0.061120063 -0.3493513 -0.078973666 -0.010008356 0.07763808 -0.26359665 -0.23500346 -0.24560992
-0.055606958 -0.17134658 -0.020003974 -0.19561484 -0.25455156 -0.18299022 -0.09881276 -0.22784576
0.18563905 0.0040980815 0.24837512 0.089946 -0.30112612 0.35559636 -0.099812426 -0.033016913
-0.272953 -0.41848117 0.127126 0.07589245 0.24441959 -0.3071254 0.14853188 -0.119794816
-0.065239616 0.11329996 0.14902905 0.27054814 0.29581863 -0.2288969 0.019329194 -0.05866497
-0.09030155 -0.26907513 0.31626254 -0.1955191 0.14412199 0.13553075 0.1369591 -0.21426089
0.26726094 0.17110677 0.053954914 -0.31258583 0.09646445 -0.006107364 -0.11909085 0.18976672
0.11371686 -0.17581266 -0.14610972 0.079346925 0.051817033 0.064801976 -0.16471078 -0.061565407
-0.1995664 0.07186247 0.22344619 -0.36960244 0.028453572 0.18665911 0.026458824 -0.24337485
0.1512956 0.15796174 0.1713728 -0.15957673 -0.0906152 0.054421186 -0.12836722 -0.12866558
0.11998544 0.22892363 -0.085434414 -0.09026563 -0.07242273 -0.17173803 0.021240648 0.046874344
-0.22824404 -0.21048667 0.23946653 0.1374758 -0.055655643 -0.113228604 -0.17661291 -0.3240331
-0.12745672 0.060041133 0.2500005 0.039054222 -0.2933553 -0.17336893 -0.11149352 0.24507457
-0.015345019 -0.074953124 0.08271956 -0.14914435 -0.20616175 0.17443244 -0.16797042 -0.1366173
-0.40064716 0.19811411 0.18200074 0.09026823 -0.25098154 -0.23484077 -0.23445587 0.16104652
0.11177802 0.27937326 0.22160684 0.028480154 0.028625619 -0.2769309 -0.31770653 -0.2714712
0.20381533 -0.05608768 -0.058096617 -0.07369269 -0.05260341 -0.14164943 -0.18862486 0.28124133
-0.17143582 0.113315955 -0.09260951 -0.42373118 0.044698432 -0.2236053 -0.08831772 -0.33622923
00000000: c9f6 343e db2e 493e 24eb 0cbd 2a23 8a3e
00000010: a7a9 11be 9471 8dbd 1d2e 83be 2f2c 2d3e
00000020: cc0f 5d3e 42be 42be 7390 c53e a6e5 613d
00000030: 5563 503e baf5 1b3c f04b 133e d440 61bd
00000040: 65ad 573e d623 183e 77fd 45be 72ad 543d
00000050: d279 28be 1067 b93d 32a2 6fbd 414d 273e
00000060: dc91 3fbe df13 31be 1cf1 a6bd 82bd 10be
00000070: 1e57 8b3d a14a d7be 9114 bf3e 9c1b 5abe
00000080: f3fd 863e f4c0 1a3e 782e 53be 74aa 573e
00000090: 9a6a b2bb 5eee b63e 1a46 b23c 6185 1ebe
000000a0: 76b2 663b f579 f8bd 6330 843d d0ab 673e
000000b0: 6429 233e ebb3 adbd 8cf3 4e3e e925 b9bc
000000c0: b478 263e 2e16 17be 9cf0 afbe 030f 9bbd
000000d0: 1aa0 86be 9572 6d3e 73b6 07bd 8f4a 463e
000000e0: 5579 c03c 0f3d 1fbd 48c9 793e 551d c4be
000000f0: 6d82 d3bd d093 a8bd afc1 3c3e f8e5 53be
00000100: e73f b83c e328 c5bd 6225 a63e 747e 7abe
00000110: eb80 5bbe ec07 2bbe 94b8 7d3e 8c96 e83d
00000120: 0383 893e 8ff6 86be d799 92be 4486 94be
00000130: 5182 5abe a275 253e c940 ce3d 264b 4c3e
00000140: 91d3 18be 65a9 5cbe 0890 1f3e 362a 4fbe
00000150: c8e2 213e 8949 62bd 0782 9e3d daa6 8abe
00000160: b659 24be 3782 993c 26ad 803c e011 cabd
00000170: c14f 233e 3fa3 843e 6409 48be b3cb 2dbe
00000180: 552f 853e 64cb 3cbe aa97 d1bd 28e6 e1be
00000190: de83 0ebe 6246 85bd 71cc 0e3e 6ab7 93be
000001a0: bece 7a3d bd78 c5bd 894d d8be cd45 00be
000001b0: 312a bdbe 416a e2bd 6ebe 933e d356 3e3b
000001c0: 0859 7a3d 2cde b2be f2bc a1bd 16fa 23bc
000001d0: b700 9f3d 24f6 86be bfa4 70be 2b81 7bbe
000001e0: 1fc4 63bd 7a75 2fbe 60df a3bc 424f 48be
000001f0: 9554 82be ca61 3bbe 585e cabd 6650 69be
00000200: 2a18 3e3e 3349 863b 0c56 7e3e 9c35 b83d
00000210: 342d 9abe ba10 b63e 756a ccbd be3c 07bd
00000220: 7fc0 8bbe 2a43 d6be 512d 023e 806d 9b3d
00000230: 2149 7a3e 8a3f 9dbe be18 183e fc56 f5bd
00000240: 599c 85bd cf09 e83d 129b 183e 4985 8a3e
00000250: 8a75 973e f363 6abe 4258 9e3c ae4a 70bd
00000260: 05f0 b8bd 37c4 89be 2aed a13e 2936 48be
00000270: b794 133e 93c8 0a3e 023f 0c3e 3567 5bbe
00000280: 6dd6 883e 9d36 2f3e d4ff 5c3d 400b a0be
00000290: 278f c53d 4820 c8bb e7e5 f3bd 3552 423e
000002a0: 63e4 e83d 3c08 34be c99d 15be a480 a23d
000002b0: 193e 543d e6b6 843d f1a9 28be 022c 7cbd
000002c0: 225b 4cbe a12c 933d 14cf 643e 883c bdbe
000002d0: 7717 e93c 9123 3f3e 2dc0 d83c 4237 79be
000002e0: 3ced 1a3e b9c0 213e 5a7c 2f3e 1568 23be
000002f0: 7694 b9bd c0e8 5e3d b272 03be e9c0 03be
00000300: edba f53d f56a 6a3e 3df8 aebd 30dd b8bd
00000310: 5e52 94bd 18dc 2fbe de00 ae3c 50ff 3f3d
00000320: ceb8 69be d189 57be b736 753e 75c6 0c3e
00000330: 2cf7 63bd 66e4 e7bd 04da 34be abe7 a5be
00000340: 0484 02be b1ed 753d 1100 803e 52f7 1f3d
00000350: aa32 96be a087 31be b756 e4bd d4f4 7a3e
00000360: ad69 7bbc 0681 99bd df68 a93d 4cb9 18be
00000370: 111c 53be 6b9e 323e 7000 2cbe 68e5 0bbe
00000380: a021 cdbe 6dde 4a3e 675e 3a3e 8dde b83d
00000390: a780 80be 197a 70be 3315 70be 61e9 243e
000003a0: e0eb e43d 030a 8f3e e7ec 623e 364f e93c
000003b0: 4680 ea3c e3c9 8dbe 6eaa a2be 46fe 8abe
000003c0: f7b4 503e 32bc 65bd b8f6 6dbd 31ec 96bd
000003d0: ac76 57bd 8c0c 11be e026 41be ddfe 8f3e
000003e0: df8c 2fbe 3212 e83d 0eaa bdbd 4bf3 d8be
000003f0: b415 373d caf8 64be ecdf b4bd 3d26 acbe

fc1.bias f4 [128]
0.035523694 -0.12965444 -0.05050057 -0.13117358 -0.019629885 0.21314882 0.11878381 0.24248798
0.06778277 0.07494494 0.10248642 0.15222627 -0.18236431 -0.18690445 -0.021992657 -0.010422869
0.078689456 0.107905366 0.25641507 0.078211956 -0.0019926087 -0.14685361 -0.112774864 -0.0071052345
0.14534037 0.13053912 0.18917178 0.031780988 0.041106656 -0.07794467 0.02360765 0.09927691
-0.010431355 0.067101344 0.05659902 0.105046354 -0.10833375 -0.08158913 0.053193703 -0.096825615
-0.10829759 0.046816643 0.007070122 -0.037718926 -0.121469826 -0.082797386 -0.18726428 0.10782522
0.0066615473 0.18788311 0.08236304 0.036646467 0.14926179 0.1863277 -0.12704079 0.08953715
0.038442962 -0.239759 0.05410475 -0.17565684 -0.01989898 -0.13999124 -0.103420444 0.23172937
-0.18490966 0.09825354 -0.25981104 0.010951757 0.034168176 0.21404265 -0.11170373 0.025468944
0.0649167 0.14333348 0.040780075 0.04437625 -0.09113334 -0.15718038 0.2696858 0.018257435
0.02289838 -0.0473429 0.23372422 0.017959936 -0.109293066 0.029748347 0.16766018 0.048840523
0.1764154 -0.09939464 0.12599556 -0.31832024 0.124159075 0.11213939 0.15892063 -0.10957891
-0.077386655 0.073593184 -0.11962684 -0.15580112 -0.16326687 -0.023438781 0.15729608 0.031493988
0.13112174 0.06252138 -0.18628968 -0.020604668 0.059562545 -0.1658033 0.2140986 -0.26596907
0.10188774 -0.19208609 -0.04532538 -0.06781677 0.10249879 -0.061520964 0.16688469 -0.27352315
0.21167359 -0.13793303 0.10496529 -0.051580988 0.037748456 -0.13774426 0.12928401 0.08880972
00000000: 4b81 113d 22c4 04be b0d9 4ebd 5e52 06be
00000010: dace a0bc af43 5a3e ed44 f33d c54e 783e
00000020: b1d1 8a3d bc7c 993d 66e4 d13d 34e1 1b3e
00000030: b6bd 3abe e163 3fbe f229 b4bc aec4 2abc
00000040: f027 a13d 7dfd dc3d d648 833e 972d a03d
00000050: 6d96 02bb cb60 16be 82f6 e6bd 07d3 e8bb
00000060: 1bd4 143e 0cac 053e 3fb6 413e c82c 023d
00000070: 745f 283d 75a1 9fbd d564 c13c b151 cb3d
00000080: 46e8 2abc 6e6c 893d 60d4 673d 8b22 d73d
00000090: 16de ddbd 3418 a7bd a4e1 593d 824c c6bd
000000a0: 20cb ddbd cfc2 3f3d 7bac e73b 297f 1abd
000000b0: 2cc5 f8bd ad91 a9bd 35c2 3fbe 78d3 dc3d
000000c0: 1c49 da3b 6e64 403e f4ad a83d 9b1a 163d
000000d0: 15d8 183e b0cc 3e3e fb16 02be 415f b73d
000000e0: 5e76 1d3d 6283 75be f19c 5d3d 63df 33be
000000f0: 3003 a3bc dd59 0fbe 19ce d3bd 774a 6d3e
00000100: f558 3dbe 2739 c93d f405 85be 006f 333c
00000110: eef3 0b3d ff2d 5b3e edc4 e4bd 3fa4 d03c
00000120: 0cf3 843d 03c6 123e 0209 273d dfc3 353d
00000130: 1ea4 babd e5f3 20be 4214 8a3e 9e90 953c
00000140: 6295 bb3c a1ea 41bd 6755 6f3e b720 933c
00000150: 0bd5 dfbd ceb2 f33c 1caf 2b3e 000d 483d
00000160: 3da6 343e 6b8f cbbd fb04 013e dffa a2be
00000170: 1d47 fe3d 56a9 e53d 17bc 223e e86a e0bd
00000180: e57c 9ebd 06b8 963d ebfe f4bd 548a 1fbe
00000190: 6e2f 27be b002 c0bc 3912 213e d7ff 003d
000001a0: c744 063e 360b 803d b9c2 3ebe 1fcb a8bc
000001b0: dbf7 733d 57c8 29be aa3c 5b3e 192d 88be
000001c0: 85aa d03d 37b2 44be 1ba7 39bd 85e3 8abd
000001d0: e3ea d13d 68fd 7bbd d2e3 2a3e 3a0b 8cbe
000001e0: f6c0 583e 513e 0dbe 0bf8 d63d 9646 53bd
000001f0: 209e 1a3d d50c 0dbe 0763 043e dfe1 b53d

fc2.weight f4 [128, 128]
-0.14219119 -0.024159657 -0.05605353 -0.038237702 0.09847431 -0.022546742 0.043479238 -0.021232942
-0.06990562 -0.04280238 0.022562474 -0.07191912 -0.05402886 -0.1591489 -0.04054736 -0.07429349
-0.0550195 0.037156813 0.1395892 0.1555937 -0.08654855 -0.02290623 -0.13782543 -0.1528829
-0.16772783 0.15227512 -0.030586945 0.06965481 0.21026622 0.08445517 0.09378783 0.026335524
-0.03530037 0.11672362 -0.1019503 -0.0036104731 0.03164263 -0.016615603 0.02468049 -0.12873308
-0.013490946 0.11763445 0.072252296 -0.011722393 0.11715178 0.0080967145 0.07355609 0.06176908
-0.0683879 0.0002877031 0.039653555 -0.08906265 0.059528667 -0.06585858 0.053048622 -0.040059436
-0.11916638 0.21151912 -0.1815422 -0.08673545 -0.025716757 0.068202555 0.0108700935 -0.03719412
0.11659569 -0.02595655 -0.04102569 -0.046497058 0.10956993 -0.099014536 0.011903659 0.016522335
-0.02149512 -0.054769635 -0.020544564 0.0386023 0.05435946 0.011808412 -0.07514397 0.091570795
0.19622007 0.07651239 0.006905143 0.030178629 -0.064555734 0.19206275 0.06542664 0.04263767
0.014874411 0.11494414 0.07963651 0.108317226 0.1616641 -0.12621048 0.03941479 -0.088826515
-0.10079655 -0.04494711 -0.026802126 -0.21730615 -0.09579868 -0.056083012 -0.073378645 0.099452145
0.0731232 0.044003222 0.11589723 -0.03490055 -0.20696196 0.05543498 0.078662075 -0.07274089
-0.11338459 -0.055022538 -0.12239888 0.10224519 0.163673 0.17984076 -0.0067910934 0.0714669
-0.083111316 -0.042111132 0.060123395 0.13822149 -0.11710498 -0.07404305 -0.03676042 -0.08511719
-0.14020245 0.005525896 -0.053106077 -0.1828147 0.009707436 -0.103314824 0.086565465 -0.016318243
-0.08682206 -0.091265 0.07434967 -0.025247125 0.025719473 -0.08492289 -0.017063506 0.025052913
0.09489022 -0.091778636 0.09931955 -0.06293979 -0.039526504 0.014596736 -0.03082104 -0.024471367
0.035566784 0.061032027 -0.03761385 0.0730669 -0.029800192 -0.02091901 -0.007394837 -0.06796902
0.05210434 -0.029680308 0.09681103 -0.02478403 -0.002158704 0.08846244 0.029977141 -0.02297241
-0.06975798 -0.06403886 0.01614896 -0.028252192 -0.018109312 -0.02971012 0.046905775 -0.020628694
-0.13142557 0.079441234 0.11676584 -0.05174199 0.040294304 0.016731823 0.045200232 -0.04548006
0.04035185 -0.044645928 0.021129176 -0.11087051 0.07940999 -0.060396772 -0.026298698 0.17700553
-0.0357812 -0.1642062 -0.08498585 -0.019863974 0.06572073 -0.036143925 0.032982904 0.02165831
-0.15160666 0.028261753 -0.03076715 -0.012491062 0.15835994 0.12073406 0.15584886 0.086648
0.08127823 -0.08651934 -0.07625582 -0.01933297 -0.1656802 0.010120056 0.0048637036 0.023178022
-0.014676924 -0.03657288 0.04164936 0.039333567 0.117687926 -0.11773919 0.033803686 -0.078310214
0.010289443 -0.01176694 0.031403672 0.08264952 -0.10271834 0.031827338 -0.05361644 -0.039637346
0.12868439 -0.034882378 0.10470647 -0.11954507 -0.0447531 -0.14702196 -0.041575156 0.003136459
0.12531547 -0.00011946856 -0.16669048 -0.037527792 -0.035814703 0.01642477 -0.045747414 -0.042228848
0.05135385 0.0018020736 -0.07588247 -0.024909502 0.08456395 -0.054890484 0.0400899 -0.04523642
00000000: 919a 11be 79ea c5bc 6398 65bd 239f 1cbd
00000010: e6ac c93d f2b3 b8bc 4917 323d b5f0 adbc
00000020: ad2a 8fbd 8c51 2fbd f0d4 b83c 554a 93bd
00000030: 5e4d 5dbd eef7 22be fd14 26bd 2f27 98bd
00000040: 215c 61bd be31 183d 79f0 0e3e f453 1f3e
00000050: 5e40 b1bd d9a5 bbbc 1c22 0dbe 568d 1cbe
00000060: d8c0 2bbe 02ee 1b3e 7991 fabc 2ea7 8e3d
00000070: 0750 573e d5f6 ac3d d513 c03d 99bd d73c
00000080: 1f97 10bd cb0c ef3d 52cb d0bd b09d 6cbb
00000090: b49b 013d 721d 88bc bd2e ca3c 9bd2 03be
000000a0: 2109 5dbc 55ea f03d 03f9 933d 480f 40bc
000000b0: 46ed ef3d 15a8 043c 93a4 963d 9301 7d3d
000000c0: f50e 8cbd dbd6 9639 c46b 223d 7b66 b6bd
000000d0: 55d4 733d dde0 86bd 8349 593d 5d15 24bd
000000e0: 810d f4bd 7898 583e 33e6 39be 5ba2 b1bd
000000f0: f3ab d2bc c8ad 8b3d 7a18 323c dd58 18bd
00000100: b9c9 ee3d d5a2 d4bc 8e0a 28bd b373 3ebd
00000110: 3366 e03d 22c8 cabd 9107 433c d959 873c
00000120: 8916 b0bc 2056 60bd 134d a8bc 721d 1e3d
00000130: 06a8 5e3d 1278 413c 15e5 99bd 7889 bb3d
00000140: eaed 483e 87b2 9c3d 8a44 e23b 2c39 f73c
00000150: cc35 84bd 19ac 443e 67fe 853d d6a4 2e3d
00000160: cdb3 733c d567 eb3d 7718 a33d 6cd5 dd3d
00000170: 468b 253e 523d 01be 6771 213d adea b5bd
00000180: 6c6e cebd 761a 38bd 2290 dbbc 8185 5ebe
00000190: 1932 c4bd 4db7 65bd 8b47 96bd 91ad cb3d
000001a0: 9ec1 953d b93c 343d 875b ed3d e1f3 0ebd
000001b0: d6ed 53be ca0f 633d 9519 a13d 2df9 94bd
000001c0: 2e36 e8bd 505f 61bd 44ac fabd ed65 d13d
000001d0: e599 273e 2d28 383e d287 debb 3d5d 923d
000001e0: 4436 aabd b97c 2cbd f343 763d ef89 0d3e
000001f0: bcd4 efbd e2a3 97bd 1892 16bd ec51 aebd
00000200: 3b91 0fbe 9312 b53b c285 59bd c733 3bbe
00000210: f00b 1f3c b996 d3bd 3c49 b13d d6ad 85bc
00000220: c4cf b1bd 25e9 babd a444 983d 0fd3 cebc
00000230: a5b1 d23c 0dec adbd c4c8 8bbc c43b cd3c
00000240: ce55 c23d 70f6 bbbd 0c68 cb3d 94e6 80bd
00000250: 8be6 21bd 2627 6f3c 687c fcbc 2d78 c8bc
00000260: 7aae 113d b8fc 793d fb10 1abd 19a4 953d
00000270: 881f f4bc 585e abbc 6450 f2bb 5733 8bbd
00000280: 5c6b 553d 1e24 f3bc dc44 c63d e107 cbbc
00000290: 0b79 0dbb cc2b b53d 9f92 f53c a330 bcbc
000002a0: 46dd 8ebd ce26 83bd d34a 843c 2471 e7bc
000002b0: fb59 94bc a362 f3bc 4520 403d 82fd a8bc
000002c0: 6d94 06be 16b2 a23d ee22 ef3d 69ef 53bd
000002d0: a40b 253d 2d11 893c e123 393d 4d49 3abd
000002e0: fb47 253d a6de 36bd 1817 ad3c 1410 e3bd
000002f0: b4a1 a23d 9b62 77bd 5e70 d7bc f040 353e
00000300: 4f8f 12bd ac25 28be 100d aebd c6b9 a2bc
00000310: 9798 863d a70b 14bd 1519 073d c56c b13c
00000320: c73e 1bbe 3185 e73c 640b fcbc 50a7 4cbc
00000330: 1c29 223e 6b43 f73d d896 1f3e 8274 b13d
00000340: 3375 a63d 0d31 b1bd 032c 9cbd 2d60 9ebc
00000350: 12a8 29be 97ce 253c b45f 9f3b d6df bd3c
00000360: 7b77 70bc 72cd 15bd 8598 2a3d 3c1c 213d
00000370: 5e06 f13d 3f21 f1bd bc75 0a3d 1b61 a0bd
00000380: 0d95 283c 20ca 40bc 23a1 003d 2744 a93d
00000390: fe5d d2bd 625d 023d ea9c 5bbd c55a 22bd
000003a0: d7c5 033e d3e0 0ebd 5970 d63d 0cd4 f4bd
000003b0: 074f 37bd ed8c 16be b64a 2abd 0d8d 4d3b
000003c0: b352 003e 328b fab8 e9b0 2abe beb6 19bd
000003d0: 70b2 12bd 3d8d 863c a461 3bbd 28f8 2cbd
000003e0: 6a58 523d 8e33 ec3a 4568 9bbd 030f ccbc
000003f0: dd2f ad3d d8d4 60bd 4f35 243d d349 39bd

fc2.bias f4 [128]
-0.011841944 -0.012617133 0.042873066 0.028846368 -0.012615486 0.08305664 -0.041384794 -0.015203033
-0.032376934 -0.05328891 0.06474205 0.008176638 -0.069573075 -0.08768556 0.030861245 0.025909081
-0.05665405 -0.028215073 -0.025515357 0.013696904 -0.03003991 -0.041355405 -0.018552609 -0.053337775
0.03588005 0.020464027 -0.009581296 0.072074 0.007434483 -0.049297057 -0.056644518 -0.08678802
-0.044001535 -0.030692592 0.075279206 -0.076098606 0.058217634 0.019773506 0.063652344 0.04697915
0.054361124 0.075125575 0.021233179 -0.026578095 0.04117351 0.000116326 -0.040626414 0.047208317
0.108474135 0.07991929 -0.053717874 0.010796223 0.033299852 0.05696719 -0.0880837 0.022455845
-0.02724138 0.068023585 0.013558659 -0.010303232 -0.029160773 0.070205055 -0.040901043 -0.0008080737
0.064620346 -0.053432662 -0.023147989 -0.04235074 -0.005683399 0.051928036 -0.022320813 0.028696606
-0.05265787 0.009315692 -0.047266115 0.077482715 -0.03002294 0.028527066 -0.0050823228 0.04983071
-0.07568607 0.033099823 0.06536047 -0.085509874 0.057080213 0.040078003 -0.061923254 -0.057378054
0.020587174 0.002182966 0.06815891 0.0063932594 0.09738177 -0.033293027 -0.016823424 0.027608868
-0.05238438 -0.05870657 0.0125884805 0.056966927 0.03956076 -0.069892086 0.052728806 0.05509655
0.07964528 0.059984885 -0.044443358 -0.003238467 0.06039294 0.13306664 -0.03652303 0.007993177
0.010963338 0.066965 -0.027465833 -0.02857471 0.018000929 -0.011003897 -0.043976713 0.11902582
-0.064791106 0.05567475 -0.036032636 -0.09648034 -0.0701445 0.015400246 0.042790525 -0.026192667
00000000: b704 42bc 17b8 4ebc ab9b 2f3d 384f ec3c
00000010: 2fb1 4ebc 9a19 aa3d 1a83 29bd 2416 79bc
00000020: ad9d 04bd 7945 5abd 7b97 843d 4ef7 053c
00000030: 547c 8ebd 7d94 b3bd b9d0 fc3c 483f d43c
00000040: 140e 68bd 4c23 e7bc 9505 d1bc fb68 603c
00000050: 4216 f6bc 4964 29bd a4fb 97bc b678 5abd
00000060: f6f6 123d 2da4 a73c defa 1cbc 899b 933d
00000070: f79c f33b b6eb 49bd 1504 68bd ebbd b1bd
00000080: f43a 34bd 086f fbbc fc2b 9a3d 96d9 9bbd
00000090: 9d75 6e3d 0cfc a13c 295c 823d 366d 403d
000000a0: c5a9 5e3d 70db 993d 34f1 ad3c 4eba d9bc
000000b0: 8ea5 283d 0cf4 f338 e267 26bd 825d 413d
000000c0: b027 de3d baac a33d 4607 5cbd a4e2 303c
000000d0: 6d65 083d 6e56 693d 3a65 b4bd 52f5 b73c
000000e0: 5129 dfbc f34f 8b3d 2325 5e3c e3ce 28bc
000000f0: 93e2 eebc abc7 8f3d da87 27bd e8d4 53ba
00000100: ac57 843d 35dc 5abd daa0 bdbc f877 2dbd
00000110: ce3b babb 7eb2 543d 23da b6bc 2515 eb3c
00000120: c7af 57bd d8a0 183c 1d9a 41bd 42af 9e3d
00000130: abf2 f5bc 98b1 e93c 9d89 a6bb 491b 4c3d
00000140: 4c01 9bbd ae93 073d b6db 853d cd1f afbd
00000150: f1cc 693d d528 243d 3da3 7dbd 4005 6bbd
00000160: 6fa6 a83c 1810 0f3b e696 8b3d 8c7e d13b
00000170: 1870 c73d 455e 08bd 47d1 89bc fe2b e23c
00000180: 0191 56bd 4d76 70bd ea3f 4e3c 2756 693d
00000190: 770a 223d 9523 8fbd 29fa 573d ecac 613d
000001a0: 111d a33d b6b2 753d 3d0a 36bd 763c 54bb
000001b0: 965e 773d 9f42 083e 2c99 15bd d0f5 023c
000001c0: 939f 333c f224 893d 0700 e1bc 8315 eabc
000001d0: af76 933c b049 34bc ed20 34bd cfc3 f33d
000001e0: 33b1 84bd 350b 643d f596 13bd 7c97 c5bd
000001f0: eba7 8fbd 5051 7c3c 1e45 2f3d 0192 d6bc

mu.weight f4 [5, 128]
0.12696041 -0.054674976 0.028205175 0.11888814 0.06925526 0.0035533602 -0.05221351 -0.10999803
0.061716754 0.09766368 0.048775192 0.01790522 -0.023075178 0.02208106 -0.096706696 -3.2589043e-05
0.058428943 -0.052642867 -0.15123768 0.013489216 0.041795246 -0.08220434 0.041213233 0.05228647
-0.015782347 0.05091701 0.036295306 -0.0656174 -0.17899288 0.18325046 -0.018259916 -0.061596137
-0.023422843 0.061985966 0.0055022873 0.049368355 -0.1144891 0.056113143 -0.07439151 0.034688
0.04217556 -0.054098286 0.0994776 0.07011194 0.05407796 -0.08109612 -0.09711789 -0.14675285
-0.12287823 -0.12710892 -0.07821738 0.15839477 -0.08340134 -0.004476975 0.13595438 -0.1282946
-0.07548248 0.11413199 0.029724654 0.18560307 -0.022502985 0.123815104 0.17691602 -0.13298029
0.018995654 -0.03861059 0.019880025 0.1583108 -0.03994628 -0.09035583 -0.121857144 0.07677796
0.10409912 0.0379337 -0.056404196 -0.097681805 -0.04429082 0.13769907 0.18283011 0.013792582
0.06531072 -0.10185211 -0.027580775 0.08076335 0.14527987 0.07464265 0.097325295 0.08275149
0.019370038 0.053162545 -0.018113742 -0.04061324 0.025847616 -0.10720407 0.018240103 0.08454858
-0.0883712 0.056477264 -0.026979337 -0.052152622 0.08071584 0.015051112 -0.16976465 -0.08095368
0.10299865 0.07956756 0.1383616 0.091015756 -0.049599875 -0.24272491 0.07919924 0.057091743
0.027102333 -0.07968797 -0.001493456 -0.027770063 0.060971748 0.030103877 0.03794893 -0.15649669
0.033734 0.0024810922 0.072890274 0.06543162 -0.07082547 0.074861534 -0.100572616 0.029536916
0.0064605097 -0.019555923 0.20430736 -0.031871114 0.015866732 0.019951003 -0.027452938 0.13755739
0.08293754 0.14955981 0.098780535 -0.05718257 0.05802325 -0.001366481 0.089645535 -0.007901955
0.23656741 0.033863608 -0.069761254 0.14157021 0.1669309 -0.021361232 -0.10675698 -0.19885048
0.11612146 -0.14802985 -0.10509309 0.1298442 0.06395896 0.20534943 -0.1192366 -0.057215676
-0.16121149 0.05460643 -0.110460185 -0.10128504 0.038651984 -0.04104063 0.13373151 0.1025539
-0.01801965 -0.02953375 0.010803485 -0.050491158 -0.016517518 0.1327536 -0.04083138 0.06508449
-0.039064266 -0.12285991 0.023456603 0.0010592651 -0.13137902 -0.0419598 -0.07995983 -0.0212808
0.07689071 -0.068775706 -0.03914976 0.13595839 -0.1519688 -0.028208263 -0.11262591 -0.06809872
0.044384506 0.09286741 0.000898621 0.20697187 -0.10244635 -0.055441022 0.051780302 0.020994227
-0.1623114 0.11603385 -0.0038346676 0.13168491 -0.03348813 0.008428347 0.018906016 0.10368547
-0.03741014 0.027649898 -0.106725685 -0.0620426 0.038828354 0.097989455 0.2527735 -0.08860311
-0.13338168 0.16166596 0.0999421 -0.053536512 0.118627265 0.048975144 -0.16451913 0.05928558
-0.11745093 0.015153667 -0.059346184 -0.0564865 -0.010630607 -0.14764798 0.105956346 -0.12994894
0.12915766 0.024060268 0.037260298 -0.0056107105 -0.056415994 0.075293206 0.084971175 -0.07898221
0.012799128 -0.10687581 -0.023078296 0.06878269 0.060425457 -0.25085458 -0.05389561 0.102751166
0.035623115 0.22434017 -0.21882866 0.029389197 -0.092129976 0.085393794 0.0020868229 -0.037706953
00000000: e901 023e def2 5fbd 8a0e e73c a07b f33d
00000010: b4d5 8d3d 7edf 683b d5dd 55bd a646 e1bd
00000020: b5ca 7c3d e503 c83d 7fc8 473d f8ad 923c
00000030: 2808 bdbc 57e3 b43c 290e c6bd 38b0 08b8
00000040: 3053 6f3d 0ca0 57bd 0dde 1abe df01 5d3c
00000050: 7e31 2b3d c05a a8bd 35cf 283d 562a 563d
00000060: fb49 81bc 5b8e 503d 63aa 143d 6a62 86bd
00000070: e949 37be 02a6 3b3e d295 95bc 3b4c 7cbd
00000080: 43e1 bfbc ffe4 7d3d 884c b43b 7936 4a3d
00000090: 4379 eabd e5d6 653d 935a 98bd 0115 0e3d
000000a0: 48c0 2c3d 2a96 5dbd e9ba cb3d d996 8f3d
000000b0: da80 5d3d b915 a6bd bfe5 c6bd 6146 16be
000000c0: 95a7 fbbd d728 02be 6f30 a0bd 3d32 223e
000000d0: 52ce aabd 97b3 92bb a037 0b3e a95f 03be
000000e0: 8f96 9abd 08be e93d 1e81 f33c bb0e 3e3e
000000f0: 2e58 b8bc c692 fd3d 7929 353e fc2b 08be
00000100: c69c 9b3c 2326 1ebd 6fdb a23c 3a1c 223e
00000110: b69e 23bd 7a0c b9bd 3d90 f9bd c33d 9d3d
00000120: eb31 d53d 5e60 1b3d 1608 67bd 660d c8bd
00000130: 4a6a 35bd fc00 0d3e d137 3b3e 48fa 613c
00000140: a0c1 853d d797 d0bd 14f1 e1bc 4167 a53d
00000150: 3fc4 143e 3fde 983d 7c52 c73d 9d79 a93d
00000160: eaad 9e3c f8c0 593d 4563 94bc 125a 26bd
00000170: 61be d33c cf8d dbbd 456c 953c ce27 ad3d
00000180: f6fb b4bd b454 673d c503 ddbc fd9d 55bd
00000190: 594e a53d f098 763c c9d6 2dbe 0bcb a5bd
000001a0: f5f0 d23d 51f4 a23d aaae 0d3e 7866 ba3d
000001b0: 3d29 4bbd e18c 78be 3633 a23d 08d9 693d
000001c0: b605 de3c 7233 a3bd 11c0 c3ba 0b7e e3bc
000001d0: 83bd 793d 689c f63c 5670 1b3d ab40 20be
000001e0: aa2c 0a3d d299 223b 7f47 953d 0301 863d
000001f0: f20c 91bd 0151 993d 04f9 cdbd 67f7 f13c
00000200: afb2 d33b be33 a0bc f335 513e 498b 02bd
00000210: f3fa 813c 4970 a33c fce4 e0bc d8db 0c3e
00000220: 28db a93d 3526 193e 734d ca3d 4538 6abd
00000230: caa9 6d3d 7e1b b3ba 1498 b73d 3477 01bc
00000240: ba3e 723e 91b4 0a3d fdde 8ebd c8f7 103e
00000250: efef 2a3e c0fd aebc 67a3 dabd 769f 4bbe
00000260: 17d1 ed3d 2395 17be 0c3b d7bd e1f5 043e
00000270: eafc 823d 1f47 523e 5232 f4bd fc5a 6abd
00000280: a014 25be feaa 5f3d f338 e2bd 886e cfbd
00000290: 8b51 1e3d 381a 28bd eaf0 083e c707 d23d
000002a0: f29d 93bc c3f0 f1bc 1a01 313c d1cf 4ebd
000002b0: bf4f 87bc 8ff0 073e ce3e 27bd 044b 853d
000002c0: da01 20bd fa9d fbbd 1028 c03c 0ad7 8a3a
000002d0: 3988 06be 0ade 2bbd fbc1 a3bd 1355 aebc
000002e0: e078 9d3d 47da 8cbd 805b 20bd ad38 0b3e
000002f0: b69d 1bbe 0415 e7bc 6aa8 e6bd 5777 8bbd
00000300: 87cc 353d 4531 be3d 6f91 6b3a 6ff0 533e
00000310: 64cf d1bd 2016 63bd 9517 543d 16fc ab3c
00000320: f634 26be 28a3 ed3d 0c4f 7bbb 69d8 063e
00000330: d92a 09bd 0d17 0a3c cae0 9a3c 0c59 d43d
00000340: 603b 19bd 0a82 e23c ff92 dabd 6220 7ebd
00000350: 7b0a 1f3d b2ae c83d 876b 813e 8c75 b5bd
00000360: 3595 08be c38b 253e 72ae cc3d 1a49 5bbd
00000370: daf2 f23d 299a 483d b477 28be 70d5 723d
00000380: 1d8a f0bd 1647 783c fc14 73bd 635e 67bd
00000390: ff2b 2ebc 0831 17be a4ff d83d 5611 05be
000003a0: e841 043e 0a1a c53c 419e 183d 0dda b7bb
000003b0: 7514 67bd 5333 9a3d 5e05 ae3d 6dc1 a1bd
000003c0: 6fb3 513c b4e1 dabd b20e bdbc f0dd 8c3d
000003d0: af80 773d 0370 80be a5c1 5cbd 346f d23d
000003e0: 8be9 113d 6eb9 653e 9f14 60be 9dc1 f03c
000003f0: a4ae bcbd f1e2 ae3d 14c3 083b 9b72 1abd

mu.bias f4 [5]
0.017878251 0.08723644 -0.040245797 -0.03632752 0.005642273
00000000: 6975 923c 05a9 b23d c7d8 24bd 2acc 14bd
00000010: d1e2 b83b

log_std.weight f4 [5, 128]
0.043968752 -0.008048741 0.014831257 -0.08314216 -0.050525498 -0.041128997 -0.027542194 0.0090830745
-0.009025288 -0.100832015 -0.08038688 -0.09488306 -0.05983006 0.025066605 -0.0059279343 -0.11004486
0.024649903 -0.007532761 -0.10440596 0.018683998 0.014422248 0.01154425 -0.029895717 -0.00877199
-0.10798402 0.016321471 0.08427875 0.05159341 0.007542623 0.08339572 -0.0010113604 -0.06739835
0.030644849 -0.062166046 -0.09134779 0.049008798 -0.061140593 -0.09981523 0.019577272 0.014897865
0.0041891057 -0.023247743 0.022799866 0.01015501 0.0059102336 0.028019933 0.036534633 -0.0035079492
-0.06542982 0.015151422 0.027137807 0.005432297 -0.051291637 0.026878184 -0.031251475 -0.05591243
-0.0947176 -0.11187825 0.052805386 0.11850345 0.035159755 0.0034005758 0.05069376 -0.0018578013
0.048237316 -0.10265271 0.07137731 0.053706218 0.040190008 -0.0887078 0.13076968 -0.006488589
-0.106852755 -0.045576807 -0.00875782 0.046474375 -0.0077910842 0.020486973 0.060090397 0.033082776
-0.063767046 -0.01512711 -0.016344953 -0.009503741 -0.060497094 -0.09142153 0.1367458 -0.14063798
0.02413434 0.014895217 -0.055723768 0.03985191 -0.03854227 -0.17722814 -0.04067906 0.010845533
-0.0113008125 0.012163216 -0.032075837 -0.06643457 -0.03208223 -0.08224202 0.014234645 -0.0047732526
-0.09889805 0.0073318137 -0.04808069 -0.04459017 -0.04368183 -0.022883242 -0.020411383 -0.1552912
-0.012724146 0.06587149 -0.030771889 -0.050404537 0.0026638827 -0.06288803 -0.04398022 -0.13585657
0.025541294 -0.0007262741 0.13537979 -0.03229791 -0.050082896 0.19373183 0.04997809 0.009458212
-0.08531247 0.026535723 -0.09199045 0.02599489 -0.0028827463 -0.03008141 0.07606676 -0.005463235
0.014305983 -0.10707478 -0.09060245 0.066583626 0.04230675 0.0007573102 -0.086227514 -0.076220185
0.0727038 0.06807972 0.02873959 -0.055098176 -0.064708956 0.03197317 -0.0635686 -0.044137444
-0.0021459744 0.0728419 0.0637908 -0.020629484 0.053578917 -0.07930836 -0.0614976 -0.024780525
0.0014908584 -0.0655896 0.086637765 -0.045596194 -0.07333536 0.06373258 0.06549566 0.013507542
-0.017569574 0.06030017 0.0006107136 0.036827505 0.0826087 -0.045002326 0.061269645 0.033530787
0.07116128 0.0929251 -0.006032804 -0.089595914 0.0076505365 -0.009691475 -0.030688686 0.003897026
0.064514644 0.059312627 0.013280537 0.051642053 -0.07573357 0.03964929 0.07760903 -0.018243728
-0.0014131592 0.06369478 -0.068856806 0.05752942 -0.05559058 -0.10182762 0.02775127 -0.016282028
-0.0890648 -0.09649682 -0.033329148 -0.063166976 -0.10373631 0.05850298 -0.02439233 -0.010102924
0.08283675 -0.005195443 -0.046391297 -0.06254308 0.009498551 -0.058943667 -0.03377212 -0.024725933
0.013878657 -0.04286279 -0.10712862 -0.023181358 -0.007378151 -0.051282145 -0.037721813 -0.023821924
-0.05664078 0.08814568 0.12228646 -0.04195823 -0.1349759 0.036504585 0.00757995 -0.060923684
-0.0009712009 -0.065012455 -0.08926931 -0.0058165337 -0.015904672 0.090768375 0.04181782 -0.12154526
0.058424126 0.091225155 0.08599093 0.058379237 -0.04196589 -0.100839384 0.039436713 -0.084955476
-0.028882325 0.055367544 -0.02956732 -0.016907234 0.028783979 -0.09993607 -0.06827987 0.08080881
00000000: 9418 343d dede 03bc cdfe 723c 7046 aabd
00000010: d3f3 4ebd e176 28bd 2ba0 e1bc 2dd1 143c
00000020: cdde 13bc 0481 cebd e0a1 a4bd 0d52 c2bd
00000030: 5d10 75bd 7b58 cd3c 1e3f c2bb 335f e1bd
00000040: 98ee c93c 61d5 f6bb cbd2 d5bd 2f0f 993c
00000050: 4b4b 6c3c 1824 3d3c dde7 f4bc 65b8 0fbc
00000060: ba26 ddbd 9bb4 853c 569a ac3d 9d53 533d
00000070: 1c28 f73b 60cb aa3d a08f 84ba 2508 8abd
00000080: e80a fb3c d3a1 7ebd 8d14 bbbd 73bd 483d
00000090: 8f6e 7abd ed6b ccbd 8460 a03c 2d16 743c
000000a0: c444 893b 0d72 bebc c9c6 ba3c 3361 263c
000000b0: a2aa c13b 0f8a e53c 57a5 153d 9fe5 65bb
000000c0: 1200 86bd ab3d 783c 1b50 de3c 6901 b23b
000000d0: 2e17 52bd a32f dc3c 8c01 00bd 6f04 65bd
000000e0: 4dfb c1bd 6d20 e5bd 764a 583d f0b1 f23d
000000f0: ad03 103d 32dc 5e3b 43a4 4f3d 7881 f3ba
00000100: 7e94 453d 963b d2bd 442e 923d 0dfb 5b3d
00000110: 479e 243d 6fac b5bd 7de8 053e 3b9e d4bb
00000120: 9ed5 dabd bfae 3abd f67c 0fbc ea5b 3e3d
00000130: 5a4c ffbb 4cd4 a73c 5921 763d ce81 073d
00000140: 4c98 82bd b3d7 77bc dae5 85bc 94b5 1bbc
00000150: cdcb 77bd 363b bbbd 1707 0c3e 6703 10be
00000160: 61b5 c53c 110b 743c 9b3e 64bd c23b 233d
00000170: 80de 1dbd 4b7b 35be 169f 26bd 76b1 313c
00000180: 0b27 39bc 3a48 473c f461 03bd d90e 88bd
00000190: a868 03bd 816e a8bd 6e38 693c f268 9cbb
000001a0: 108b cabd b63f f03b 42f0 44bd 2fa4 36bd
000001b0: b8eb 32bd a375 bbbc c635 a7bc a804 1fbe
000001c0: f078 50bc a2e7 863d 5415 fcbc fd74 4ebd
000001d0: 8994 2e3b 71cb 80bd 9a24 34bd fc1d 0bbe
000001e0: fa3b d13c 6e63 3eba 00a1 0a3e d04a 04bd
000001f0: b923 4dbd a361 463e d3b5 4c3d 9ef6 1a3c
00000200: 4eb8 aebd 7261 d93c 7d65 bcbd 3cf3 d43c
00000210: 75ec 3cbb 4a6d f6bc e4c8 9b3d f004 b3bb
00000220: a463 6a3c 064a dbbd c78d b9bd ff5c 883d
00000230: d849 2d3d 3a86 463a 0d98 b0bd 5419 9cbd
00000240: bbe5 943d 616d 8b3d 4a6f eb3c a0ae 61bd
00000250: 2186 84bd 4cf6 023d 4130 82bd 77c9 34bd
00000260: 7aa3 0cbb 222e 953d c0a4 823d 2aff a8bc
00000270: 9175 5b3d 6c6c a2bd e8e4 7bbd 8700 cbbc
00000280: e868 c33a d753 86bd 246f b13d 13c3 3abd
00000290: d930 96bd 3a86 823d 9722 863d bd4e 5d3c
000002a0: 11ee 8fbc 50fd 763d 4c18 203a 70d8 163d
000002b0: c02e a93d 5c54 38bd e1f5 7a3d 9457 093d
000002c0: 01bd 913d 844f be3d d4ae c5bb 107e b7bd
000002d0: 5ab1 fa3b fec8 1ebc d766 fbbc 3f65 7f3b
000002e0: 4120 843d ccf1 723d 9c96 593c 9e86 533d
000002f0: 341a 9bbd 4b67 223d 7cf1 9e3d df73 95bc
00000300: c139 b9ba 6972 823d cc04 8dbd f8a3 6b3d
00000310: f3b2 63bd 008b d0bd a256 e33c e361 85bc
00000320: 9b67 b6bd 20a0 c5bd 2584 08bd b05d 81bd
00000330: b473 d4bd d2a0 6f3d 6cd2 c7bc bc86 25bc
00000340: 50a6 a93d 893e aabb cd04 3ebd 9616 80bd
00000350: cf9f 1b3c ea6e 71bd a254 0abd 0a8e cabc
00000360: 4e63 633c e590 2fbd 4066 dbbd d5e6 bdbc
00000370: 6bc4 f1bb 3a0d 52bd 3082 1abd 3226 c3bc
00000380: 2a00 68bd b985 b43d 5371 fa3d 65dc 2bbd
00000390: 1f37 0abe d585 153d 3b61 f83b 1d8b 79bd
000003a0: 3098 7eba 4025 85bd d4d2 b6bd 9f98 bebb
000003b0: 844a 82bc c5e4 b93d 2a49 2b3d b9ec f8bd
000003c0: 234e 6f3d 41d4 ba3d 031c b03d 111f 6f3d
000003d0: 6de4 2bbd e184 cebd 6488 213d 23fd adbd
000003e0: a09a ecbc 14c9 623d 2a37 f2bc 0a81 8abc
000003f0: 61cc eb3c 48ab ccbd 51d6 8bbd 177f a53d

log_std.bias f4 [5]
-0.014072781 -0.020255473 -0.056942962 -0.06112984 -0.05566886
00000000: 8691 66bc ceee a5bc 063d 69bd 4863 7abd
00000010: 0805 64bd
