resource/train_valid_split_50/sac_critic_final.pth (torch, 155391 bytes, 10 tensors)

fc1.weight f4 [128, 17]
000000 31 3a 13 bd 98 bd 21 bd bb 7d c7 3d 9e 11 95 be
       -0.035944168 -0.03948745 0.09740778 -0.29115003
000010 fd f0 2e be 87 25 55 be 63 a7 37 3e 03 bc a9 be
       -0.17084117 -0.20815097 0.17934947 -0.33151254
000020 4f d0 93 3d eb 09 c6 bd 17 b2 1c be 8d 54 49 3c
       0.07217466 -0.096698605 -0.15302311 0.012288225
000030 1b 70 60 3b 6d ce 98 3d 0c 1f 0a 3e 13 37 ab bd
       0.0034246508 0.074612476 0.13488406 -0.08360114
000040 10 03 e2 bd 44 91 39 3e 2f d3 6e 3e 66 d2 69 be
       -0.110357404 0.1812182 0.23322748 -0.22834167
000050 2c d9 3b 3c aa 48 e9 3d 40 f9 23 3e df 23 66 3e
       0.011465352 0.11390813 0.1601305 0.22474621
000060 f5 87 06 3e 51 4f 67 be ff 1c b7 3d 41 b7 fd 3d
       0.13137801 -0.2258885 0.089410774 0.123884685
000070 f2 4c 87 3d f1 80 29 be 03 cb 90 bd d9 86 86 3e
       0.06606473 -0.16553093 -0.070699714 0.26274756
000080 54 4b e5 bb b3 a5 bd be 04 d6 65 3e 37 79 24 3e
       -0.006997505 -0.3704048 0.22444922 0.16061865
000090 88 d2 6e be 23 04 59 be bf 31 e2 bd 00 de ff bd
       -0.23322499 -0.21192984 -0.110446446 -0.12493515
0000a0 fa 2d 48 3d c0 01 3e be e1 ae 1d bd 4e 75 b8 bd
       0.04887197 -0.18555355 -0.038496856 -0.09006749
0000b0 e9 60 c8 3d f5 06 35 be 40 52 e2 3d 90 17 2d 3c
       0.09784109 -0.17678435 0.11050844 0.0105647
0000c0 9b 91 af 3d e6 9d 99 bd 92 fc 5f 3e fe 1e 25 3e
       0.08572694 -0.0750082 0.21873692 0.16125104
0000d0 c6 9c e1 bd f6 4e 9d 3e b8 af 4d be 3c b8 6b 3d
       -0.1101623 0.30724305 -0.20086563 0.057548746
0000e0 24 c0 f3 bd 45 ec 0f be fb 59 8a 3d 9a 7c 6d be
       -0.11901882 -0.14054973 0.06755444 -0.23192063
0000f0 b2 da b7 3b 8e 65 dc 3d 49 28 20 3c 84 7b 13 3d
       0.0056107873 0.107615575 0.00977523 0.036006466
000100 95 0e a0 3e 5b d3 92 3d fd fd 3b bd 70 24 31 be
       0.31261125 0.07169219 -0.04589652 -0.17299056
000110 80 f4 2b be ee 03 f3 3d fa 01 ad bd 46 53 56 3d
       -0.16792488 0.11865984 -0.084476426 0.05232551
000120 3a 5d 17 3e 0a f8 53 3e 2f a3 88 be ea d7 7d bd
       0.14781657 0.20700088 -0.26687 -0.06197349
000130 44 67 23 3e b2 3c 33 bd d9 23 c1 3d 5c 78 5b 3e
       0.15957361 -0.043759055 0.094306655 0.21432632
000140 86 f3 c5 3d 01 c7 97 3d f8 e4 21 3e 59 bb 80 3d
       0.09665589 0.07411004 0.15810001 0.06285734
000150 7c 30 e7 3d 36 e1 33 3d e0 2e ad 3d 1d 50 93 be
       0.112885445 0.04391595 0.08456206 -0.2877206
000160 36 28 0d bd f2 2e 3a 3d f8 cc 6a 3e ae c1 18 3e
       -0.034462176 0.045454927 0.22929752 0.14917633
000170 e0 c2 37 3e 7a 0c 16 bd d5 70 85 3e 1b e3 bc bb
       0.17945433 -0.036632992 0.26062647 -0.005764378
000180 af 82 50 3e 20 bc 5e 3e e9 c7 b8 3d 4a 21 87 3e
       0.20362352 0.21751451 0.09022505 0.26392585
000190 07 d3 81 3e de aa 8d be b8 15 73 bd 14 84 4d 3e
       0.25356314 -0.27669424 -0.059346884 0.20069915
0001a0 3f b2 0c be 49 3d bb 3d 1f ed 14 bd a5 05 6e be
       -0.1373987 0.091425486 -0.03635895 -0.2324434
0001b0 21 9e 29 be b5 94 dd bd 9b 50 5f 3e a6 70 9c be
       -0.16564228 -0.10819379 0.21808092 -0.30554694
0001c0 a5 f8 b7 3d 26 2e d6 3b c5 49 54 3e 66 62 36 be
       0.08982972 0.006536263 0.20731266 -0.17810974
0001d0 01 1f 9e be f2 f7 32 3e 4b 81 5a be b3 0e 9a bd
       -0.3088303 0.17477396 -0.21338384 -0.07522335
0001e0 89 3c 34 be 4d 5f b6 bd 38 d2 c0 bc df 0b d4 bc
       -0.17601217 -0.08904896 -0.02353774 -0.025884567
0001f0 ba 4b d8 3d e5 cb a2 bd 5e 9b 46 3e 65 1c 53 3e
       0.10561319 -0.07949046 0.19395205 0.206163
000200 a6 b6 9e 3e 54 14 0a 3d d0 4f e6 bc 1c 39 0d be
       0.30998725 0.033710793 -0.02811423 -0.13791317
000210 a6 d5 eb 3d be ee 75 be 1b 6d 0a be 50 a0 9e be
       0.115153596 -0.24016854 -0.13518183 -0.30981684
000220 1d e9 5f be 5b 2a 12 3e 93 54 65 3e fc df 0a be
       -0.2186627 0.1427397 0.22395544 -0.13562006
000230 b7 58 6b be 29 7b 34 3e b4 4a 1d 3e eb 7c e0 3d
       -0.22983061 0.17625107 0.15360528 0.10961326
000240 bc cd 7e be 3b 97 b6 3c 00 cf 45 be 48 51 dd bb
       -0.24883169 0.02228891 -0.19317245 -0.0067540742
000250 95 b6 85 3e 72 3c a0 3d 00 3d 84 be a2 aa 85 be
       0.26115862 0.07824029 -0.2582779 -0.26106745
000260 94 01 5d be f1 77 e7 3d 0f f9 3e be c1 6d 9c 3d
       -0.21582633 0.11302174 -0.18649696 0.076381214
000270 fc 9a 85 3d 2b af 68 3e 1e 4a a4 3c 9c 1c 13 be
       0.065237015 0.22723071 0.020054873 -0.14366382
000280 e6 91 1c be 75 a3 07 3e 42 d2 0f 3e 62 8a 06 3e
       -0.15290031 0.13245948 0.1404505 0.13138726
000290 88 47 3b 3e b0 51 ef bd 91 d3 60 3d 80 79 44 be
       0.18289006 -0.116855025 0.054889265 -0.19186974
0002a0 d6 2e 24 3d ce 65 d5 bc ac 6a 92 be a7 3e 3c 3e
       0.04008373 -0.02604952 -0.2859701 0.18383275
0002b0 26 0a e4 3d 52 a7 a6 bd 23 cf 50 be 6a d1 69 bd
       0.11134748 -0.081373826 -0.20391516 -0.05708448
0002c0 c2 fc 97 bd 4c 3f 28 3e b5 55 3c 3d 71 20 4e be
       -0.074212566 0.16430396 0.045980174 -0.20129563
0002d0 1d 59 37 be ae e1 12 bd 55 9a 2c be 1b e6 7b bd
       -0.17905088 -0.035859756 -0.16855748 -0.061498743
0002e0 27 74 1b 3d 55 e7 6c be 3c aa 44 bd e6 9e 91 3d
       0.03795257 -0.23135121 -0.04801391 0.071103856
0002f0 72 be 8e 3c 74 83 90 3d 3e 72 36 3e 39 0b 64 be
       0.017424796 0.07056323 0.17817017 -0.22269906
000300 00 48 91 be 78 36 1a 3e a4 11 75 3c 9d db a0 be
       -0.28375244 0.1505984 0.014957819 -0.31417552
000310 13 64 06 3e 10 98 74 3e e5 c8 08 bd 5d 6b cf bd
       0.13124113 0.23886132 -0.033394713 -0.101279
000320 bc 21 24 3e 7c 3b 97 bd bc 57 c3 bd 9c 0f 10 3e
       0.16028494 -0.073843926 -0.095382184 0.14068455
000330 07 de d9 3d 26 a6 c9 bd 76 b9 ad bd 12 7c d8 bd
       0.106380515 -0.098461434 -0.084826395 -0.105705395
000340 9e 7a e2 3d 65 f9 6d 3e 22 f7 1e be 5e e9 4e 3e
       0.110585436 0.23239668 -0.15523961 0.2020621
000350 85 16 1b bd 16 5b 17 3e 21 88 3d 3e 2c 35 65 3e
       -0.037863273 0.1478084 0.1850896 0.22383565
000360 34 08 3a 3e ff 31 06 3e 28 74 2e be 9d 3b 8e 3e
       0.18167192 0.1310501 -0.17036498 0.27779856
000370 d8 62 31 be 0e ee 4e bd 22 5e 2a be 19 b1 c0 bb
       -0.17322862 -0.050519995 -0.16637471 -0.0058804867
000380 d6 63 60 be e1 cd 0c 3e c8 27 82 3c 97 8c 8b 3c
       -0.21913084 0.13750412 0.01588811 0.017034812
000390 de 8f 6f be 22 f2 75 3d e4 e4 de 3d 1e f2 3f bd
       -0.23394725 0.06004537 0.10883501 -0.04686176
0003a0 9d 25 11 3e ef 0f df bd 31 dd c4 3d 03 c6 c7 bc
       0.14174505 -0.10891711 0.096125014 -0.024386412
0003b0 a1 32 1b bc b6 19 f8 3d fb a5 88 3e e6 fe 57 3e
       -0.00947252 0.12114279 0.26689133 0.2109333
0003c0 9e 0d 2b 3e 40 8d 8a 3e 1b a3 7b 3e 5d 9a c1 bd
       0.16704413 0.2706089 0.24573939 -0.094532706
0003d0 4e ac 87 3d 17 2e f6 3d 9d 87 3d 3d 93 67 2c be
       0.066246614 0.1202051 0.04627191 -0.16836385
0003e0 13 36 3e 3d fa ef e1 3d 38 93 49 be 6b cc e9 bd
       0.046438288 0.110321 -0.19685066 -0.11415943
0003f0 a6 bf cf 3d 75 01 19 3e 63 aa 51 be ab 6d 46 bd
       0.10143976 0.14941962 -0.20475154 -0.04844443

fc1.bias f4 [128]
000000 f5 ba ea 3e 65 44 d1 3d cd c7 d8 3e 55 67 8c 3e
       0.45845762 0.10218123 0.42339936 0.27422586
000010 3c 8a 49 3e 7d 82 ff 3c c3 2c 38 3e c1 7d b6 3d
       0.19681638 0.031190151 0.17985825 0.089107044
000020 60 6b fe bc a9 05 c7 3e d1 4a 82 bd 03 5f b3 3e
       -0.03105706 0.38871506 -0.06361926 0.35033426
000030 3e 8c 86 3e 17 a7 cf 3e db 85 ab 3e 42 61 b6 bb
       0.2627887 0.40557167 0.3350056 -0.0055657933
000040 86 78 a4 3e d6 58 c2 3e 87 ad 7c 3d be ac 23 bd
       0.32123202 0.379584 0.061688926 -0.03995966
000050 c2 f1 6b be 47 59 65 3e d1 60 d0 3e fe 1c bb 3e
       -0.23041442 0.22397338 0.40698865 0.36545557
000060 fd 9a 00 be 6d f7 41 3e 94 0e 13 3d d6 3a 9a 3d
       -0.12559123 0.18942042 0.035902575 0.07530753
000070 00 6d 5e 3e 30 4e 3c be 92 02 cd 3e 67 e1 0f be
       0.21721268 -0.18389201 0.40041023 -0.14050828
000080 c1 07 96 bd e7 51 df bc f0 4e 9f 3e c1 9b 0d 3e
       -0.07325698 -0.027260734 0.31114912 0.13828947
000090 30 a3 6f 3e b9 15 45 be 65 51 48 3d dc 62 aa 3e
       0.23402095 -0.19246568 0.04890575 0.3327855
0000a0 28 4c 47 be 91 1c 87 3e 2f 26 b8 bd a6 19 ee 3e
       -0.19462645 0.26388982 -0.08991658 0.46503943
0000b0 79 22 34 3e dc b8 6e 3e 0d 6e ec 3e 0d 01 4b be
       0.17591275 0.23312706 0.46177712 -0.1982462
0000c0 dc f7 2f 3c 29 ac 51 be ea 38 fa 3c b0 86 7d 3e
       0.010740247 -0.2047583 0.030544717 0.2475841
0000d0 28 fe 20 3e a1 97 2c 3e 05 66 e0 3d ab 71 34 bd
       0.15721953 0.16854717 0.10956959 -0.044053715
0000e0 1b d3 b8 3d fe 39 ea bd b5 d9 7f 3e b8 8e 57 3e
       0.0902464 -0.114368424 0.24985392 0.21050537
0000f0 80 b7 8d 3e 4a b4 ac 3e c6 07 98 bd a8 38 da 3e
       0.27679062 0.337313 -0.07423358 0.4262135
000100 2e 39 d6 bd b9 d7 03 3e 9d 9d cd bd 0f a6 ba 3e
       -0.10460125 0.1287526 -0.10039828 0.36454818
000110 e7 50 f3 bb 10 67 6a 3e a1 0c aa 3d 04 c9 29 3e
       -0.007425416 0.22890878 0.0830319 0.16580588
000120 67 35 4d 3e 98 38 b3 3d 71 66 d0 3e 61 a8 44 3e
       0.20039903 0.08751029 0.40703157 0.19204856
000130 9c 41 54 be 80 e7 56 be d4 38 1c be 40 f9 61 3e
       -0.20728153 -0.20986748 -0.15256053 0.22067738
000140 75 de 6e 3e 6c a8 c7 3e 3a 48 ff 3c f1 ee 11 3e
       0.23327048 0.38995683 0.03116237 0.14251305
000150 e8 0d 81 bd c5 3d 6c 3e 76 28 b3 3e 21 9a fa bd
       -0.063014805 0.23070438 0.34991807 -0.12236429
000160 73 a7 2b bd 73 34 83 be 99 49 6d 3d fa 6e ba 3d
       -0.04190774 -0.25625953 0.057931516 0.09103198
000170 a6 7a 24 3e 07 43 42 3e ca c3 73 be a4 3b 33 bd
       0.16062412 0.18970881 -0.23805156 -0.04375805
000180 cd 77 0e 3e 62 30 d0 bd 9b f6 8d 3e f0 e9 c4 3c
       0.13912888 -0.10165478 0.27727208 0.024037331
000190 f1 2c 0e 3e c8 81 e4 3e bd 9b 1a 3e 6a 51 e2 3d
       0.13884331 0.44630265 0.15098472 0.11050685
0001a0 c8 8e e2 3d cb 52 0a 3e 8c 83 6d 3c 2a 6b a0 bd
       0.110623896 0.13508146 0.014496695 -0.0783294
0001b0 8b 36 17 be ad ad af 3e be 3b 8c 3e e7 0c ca 3e
       -0.147669 0.34312192 0.2738933 0.3946297
0001c0 08 f9 b6 3e 1e 32 c6 3e 44 7c 89 3c 3e 4e 93 3e
       0.3573687 0.3871011 0.016782887 0.28770632
0001d0 89 5d ac bd a6 53 bc 3e 5d e9 ae 3e 6c a2 e3 3e
       -0.08416278 0.3678257 0.34162417 0.44459856
0001e0 3a 3e d2 bb 41 4d 85 3e eb 3a e7 3e 13 ff d5 b9
       -0.0064161094 0.26035503 0.45162138 -0.0004081657
0001f0 24 0c 90 bd 38 09 97 bd 2a c0 e4 3c 84 40 11 be
       -0.07033566 -0.07374805 0.027923662 -0.14184767

fc2.weight f4 [128, 128]
000000 97 a7 54 bd 49 3b 2f 3d a5 e8 10 3d 5d 29 72 bd
       -0.05191764 0.042781148 0.035378117 -0.05912148
000010 ca c3 80 bd 0a 2c e0 3c b9 6f cd 3c 7d 52 a9 ba
       -0.06287344 0.02736475 0.025077688 -0.001291826
000020 ee a1 e6 3b 56 0e 65 bd 71 82 0d 3e 2b d9 80 bd
       0.0070383465 -0.055921875 0.1381929 -0.062914215
000030 68 36 c1 3d 79 08 9f bd a1 cd 73 3d b4 dc f6 3d
       0.09434205 -0.07765288 0.059522275 0.120538145
000040 3f e8 5f bd 21 aa a1 3d 1f 61 3c 3d a2 7e 8b 3d
       -0.054664847 0.07893778 0.04599106 0.06811263
000050 70 e8 11 3e e1 a8 8e 3d 07 21 92 3d 4a 0f 80 bc
       0.14248824 0.06965805 0.07135206 -0.01563229
000060 85 c3 61 3d 98 46 fd 3d a7 e1 a0 3d c1 96 9a 3c
       0.055118103 0.1236698 0.0785554 0.018870713
000070 dc 2c 3c bc 93 a3 3f bd 71 32 73 bd 76 2d c6 3d
       -0.011485305 -0.046786856 -0.059374277 0.0967664
000080 2b 2a 94 3d 21 50 29 bd b3 84 97 bd b6 4b 9b 3d
       0.072346054 -0.041336183 -0.07398357 0.075828
000090 d7 04 b5 3d f9 97 c3 3d b9 69 04 3e b2 c7 2e 3c
       0.08838814 0.09550471 0.12930955 0.010667728
0000a0 2e 4b 27 3e 43 7d 7f bd 72 49 47 bd 09 b2 52 3d
       0.16337273 -0.06237532 -0.048654027 0.05143932
0000b0 71 0c a9 bc 43 43 0b bd 27 fd 7f 3d 90 82 77 3e
       -0.020635815 -0.033999693 0.062497284 0.241709
0000c0 61 8a c0 3d e6 ee 1e 3e c4 89 34 bd 97 f9 22 3d
       0.09401394 0.1552082 -0.044076696 0.03978881
0000d0 3c 06 15 bd 20 25 23 bd a0 ff 2b 3c c4 b8 73 3d
       -0.0363829 -0.039830327 0.0104979575 0.059502378
0000e0 5d 80 85 3d 80 51 08 3e 6d 84 af 3d 57 05 5f 3d
       0.06518624 0.1331234 0.0857018 0.05444845
0000f0 25 ed 8e bd a1 f3 48 3c 5e 9d f7 3b 8b 92 25 3d
       -0.069788255 0.012265117 0.0075566014 0.040422957
000100 19 72 1d 3e ff 37 2d 3c a5 63 10 3d bd 23 e5 bd
       0.15375556 0.010572433 0.03525128 -0.11188457
000110 5c f3 ff bb 2a 90 85 bd fe 2d 85 3d 02 a0 19 bd
       -0.007810993 -0.06521638 0.06502913 -0.03750611
000120 72 3c cb bd 22 8b 91 3d b8 d6 60 bd 6e ac c5 3c
       -0.099236384 0.071066156 -0.05489227 0.024130072
000130 a0 f0 1e bc 69 32 19 3e cc 28 53 3e 0a 80 82 3d
       -0.009700924 0.14960636 0.20621032 0.06372078
000140 05 b9 a0 3b cd ad e9 bc 4e a3 64 bb 7c 71 07 be
       0.0049048685 -0.028525257 -0.0034887376 -0.13226885
000150 58 3f e2 bd c7 ca c4 3c 77 73 3b bb b9 c5 0a 3e
       -0.11047238 0.024022473 -0.0028602758 0.13551988
000160 37 3a 6a be 58 a4 fc 3d e9 95 4d bd 1d 19 bd 3c
       -0.2287377 0.123360336 -0.050191794 0.023083264
000170 2f d4 f5 bc 24 d3 4d bc fe 06 f7 3d a7 f2 36 bd
       -0.030008404 -0.012562547 0.120618805 -0.044665005
000180 5c fd f8 3c 91 6e 4b 3e 0e 11 60 3c c7 20 fb bc
       0.030394249 0.19866396 0.013675941 -0.030655278
000190 50 9f 46 bc df 33 0e 3d 4a d2 44 bd 6f c4 a0 3b
       -0.012122944 0.034717437 -0.04805211 0.004906229
0001a0 90 dc b3 3d 3b 0b 40 3d 13 c8 66 bd 75 ce e5 bc
       0.08782303 0.04688571 -0.05634315 -0.028052548
0001b0 13 27 30 3e c4 10 86 3d fc 48 12 be 3b f1 03 bc
       0.17202406 0.065461665 -0.14285654 -0.008053119
0001c0 a7 38 75 bd a1 8f 1d 3d f2 b7 18 b8 9e 96 a9 bd
       -0.05986848 0.038467053 -3.6410936e-05 -0.08280681
0001d0 58 dd c6 3d 68 5c c9 bc 06 1f 2e ba 3e 6f 52 3d
       0.09710187 -0.024580196 -0.0006642196 0.05137562
0001e0 83 be 84 3d 9c a0 57 3b 2d a4 b8 bd f9 e7 a6 3d
       0.0648165 0.0032902127 -0.09015689 0.08149714
0001f0 81 b4 05 3e b3 83 13 3e ab 8d 9e 3d fa 27 ec 3d
       0.13057138 0.14405708 0.07741865 0.115310624
000200 0f d2 8a 3d 4b 5a d7 bc f4 bf f2 3c 93 e6 29 be
       0.06778347 -0.026288172 0.029632546 -0.16591863
000210 7e c5 00 3d f6 e6 b6 3d 6d bd 79 bd a5 f3 bd 3d
       0.031438343 0.08930771 -0.060971666 0.09274987
000220 fc e3 7d bc 79 e0 b7 bc f7 0c 26 3e f5 4d ba bd
       -0.01549625 -0.022445904 0.16215883 -0.090969004
000230 47 6e 4b 3a b1 bd c9 bb 4a 26 b6 bd 66 d6 8e bc
       0.0007760268 -0.006156646 -0.08894022 -0.017436218
000240 c5 20 28 bd d4 7c 78 bc cd 48 a0 3d d8 07 b5 3d
       -0.041046876 -0.01516648 0.07826386 0.08839387
000250 d6 22 39 3d 6b 1f bb 3d c2 02 99 bd e1 18 cf bc
       0.045199238 0.09136852 -0.07471229 -0.025280418
000260 12 5b da 3d 5b c2 3f 3d cd e5 1b bd 82 ce 9d 3d
       0.106619015 0.04681621 -0.038060952 0.07705404
000270 db b0 ac bc cb 49 8e be d0 f8 93 bd 47 ec 9c bd
       -0.021080425 -0.27790675 -0.072251916 -0.07662254
000280 ed 0c 94 3d 9d 20 d4 bd ce b7 bd bc ae 00 77 bb
       0.07229028 -0.10357783 -0.023158934 -0.0037689614
000290 0e 72 19 bd d2 49 df 3d fb 2b a0 bc bf a2 60 bd
       -0.037462287 0.10902752 -0.019552222 -0.054842707
0002a0 2b d5 c4 3d b3 0c 38 bd 89 7c 18 bd cb ca 15 bd
       0.09610971 -0.044933986 -0.03722814 -0.03657035
0002b0 96 7f 8a bc 8f d5 e9 3c 3a d4 a4 3d 3b 67 4e be
       -0.01690654 0.028544215 0.080482915 -0.20156567
0002c0 4b 7f 9c 3a 75 2b af 3d 77 09 d3 bd f4 1e 98 bc
       0.0011939792 0.08553211 -0.1030454 -0.018569447
0002d0 a9 c3 a3 bd b3 15 b6 bd 8f ab ce 3c 9c 87 a2 3b
       -0.079963036 -0.088908575 0.02522829 0.0049600136
0002e0 48 b9 8c bd 92 60 18 3c 9a bb 55 3c 40 17 87 bd
       -0.06871277 0.009300368 0.013045216 -0.065962315
0002f0 d3 23 24 be 3e 22 5d 3d 9e e1 dd 3d 6b c8 60 3d
       -0.16029291 0.053987734 0.10834049 0.054878633
000300 0a 99 d7 3d ba 76 a2 3d 7d b5 93 bc 5e 2d e3 3c
       0.10527237 0.079328015 -0.018030876 0.027731594
000310 eb 36 77 bc 4f 76 73 bd 57 29 23 3d 7a eb 5a bb
       -0.015088777 -0.059439 0.039834347 -0.0033404515
000320 27 2e 4a bd 74 c0 db 3b ef 61 6b bc 30 cb 13 bd
       -0.04936042 0.006706292 -0.014366611 -0.036082447
000330 45 a3 02 3e 16 20 18 3d da a0 76 bd 4d 26 75 3d
       0.12757595 0.037139975 -0.060211994 0.05985098
000340 34 ac eb bd 04 bc 38 3d ba bb 28 3e e2 5e 5a bd
       -0.115074545 0.04510118 0.16477862 -0.053313144
000350 f5 01 fa 3d b4 0f 83 3d 93 8c c3 3c b4 ae a4 3c
       0.122074045 0.063994795 0.023870742 0.020102836
000360 e9 80 30 be e2 be 77 3d ab de be 3c d0 f7 9c 3d
       -0.17236675 0.060484774 0.023299536 0.07664454
000370 07 e9 12 3d d7 ba 73 be c3 2b 76 3d e5 70 a2 bd
       0.035866763 -0.23801742 0.06010033 -0.07931689
000380 b8 4b 80 3d 8d 8c 61 bd 5a 97 e4 bd d0 de ed bd
       0.06264442 -0.05506568 -0.111616805 -0.11614764
000390 14 ad f4 bc b3 09 6d 3c 3f ea 10 3b 92 ae 32 3d
       -0.029867686 0.0144676445 0.0022112278 0.043623514
0003a0 a4 1c 59 bd 6a 89 de 3d 42 22 50 be 86 65 a3 3d
       -0.05300583 0.108660534 -0.20325568 0.079783484
0003b0 e0 5e 24 3e b1 b9 5e 3d f9 25 bd bd 12 b2 a3 bd
       0.16051817 0.054376308 -0.09235758 -0.079929486
0003c0 06 dd a8 bc b8 59 e3 3c a3 2f 56 bd 80 08 dd 3d
       -0.020613205 0.027752742 -0.052291524 0.10792637
0003d0 cc f4 3f bc ef 62 04 3d 29 3f 21 bd 2f f0 20 bc
       -0.011716079 0.032320913 -0.039366875 -0.009822889
0003e0 29 0c 28 3e 2f 01 3c bc f1 94 50 3d 34 5f 8a bd
       0.16410889 -0.011474892 0.05092329 -0.0675644
0003f0 d7 61 28 3e 06 fc b1 3d f4 15 95 bd 4a 1c 6a bd
       0.16443573 0.08690648 -0.07279578 -0.057155885

fc2.bias f4 [128]
000000 2d d8 00 be ea 33 61 3d 16 77 24 3e c0 73 96 3a
       -0.12582465 0.05498115 0.16061053 0.0011478588
000010 bb 11 60 3e 06 df f8 3d 2b 74 ea 3d 2b ea 48 3e
       0.21881764 0.12151913 0.114479385 0.19620578
000020 b2 74 14 3e 61 9c 75 3e d4 e9 4a 3d 0c 67 b1 3c
       0.1449764 0.23985435 0.049539402 0.021655582
000030 d3 9d 84 3d 65 ac 0d 3e d9 f6 a3 3a bd 1e 94 3d
       0.06475415 0.13835295 0.001250948 0.07232425
000040 cf 58 49 3c 03 7b d5 3d f3 56 48 3e b7 63 88 3d
       0.01228924 0.10423853 0.19564418 0.06659644
000050 8c b7 b7 3d 7a 93 d6 bd 32 95 11 3e ac 69 37 3e
       0.08970556 -0.10477348 0.1421707 0.17911404
000060 86 ce 39 3e d9 d8 56 bc 14 0e 5a 3e f7 c0 1a 3e
       0.18145189 -0.013113224 0.21294433 0.15112673
000070 38 8c 29 3d 9c d9 18 be b3 e0 8d bc 1f e6 18 3e
       0.04139349 -0.14926761 -0.017319059 0.14931534
000080 b2 de 94 3d 9a 3d 75 3e ba 9f ba 3d 19 1c f6 bd
       0.07269038 0.2394928 0.09112497 -0.12017078
000090 8b cd f6 3d de 46 1c 3e bc d6 1d bd b8 22 00 3e
       0.12050923 0.15261409 -0.038534865 0.12513244
0000a0 c1 cc 3f 3e d1 fe eb bd 1c c7 9a bd 43 94 42 3e
       0.18730451 -0.11523212 -0.07557508 0.1900187
0000b0 52 b5 1c 3e d6 c3 8e 3d 87 7c b5 bd cd 88 c0 3d
       0.15303543 0.069709465 -0.08861642 0.09401093
0000c0 ba 03 f8 bd e9 6a bf 3d bb 40 38 3e 4e 73 a1 3d
       -0.12110086 0.09346563 0.17993443 0.07883321
0000d0 60 a0 a0 3d c3 e3 54 3e 5c b7 b3 3c 77 c9 b8 3c
       0.07843089 0.20790009 0.021938019 0.022557003
0000e0 2d d6 51 bd 89 5f b3 bd 25 55 05 bb 00 e9 c0 bd
       -0.051229645 -0.08758456 -0.002034494 -0.09419441
0000f0 c9 cc 93 bc 32 69 db bd ed 54 70 3e 0a a3 c2 3d
       -0.018041985 -0.10713424 0.23469897 0.095037535
000100 40 f2 8f 3d c9 9c f0 3c b1 8a 32 3e 6d 74 9d bd
       0.070286274 0.029371636 0.17435719 -0.07688222
000110 1e 9a d2 3d 50 9d 15 3e 72 31 9b bd 7f a9 a8 bd
       0.10283302 0.14610791 -0.0757779 -0.08235454
000120 d5 27 8f bc 78 12 a9 3d a6 37 9d 3d 6c da 29 3e
       -0.017475048 0.08255476 0.0767663 0.16587228
000130 b3 f9 ef 3c 1f af 39 3e 21 36 8b 3d 87 aa 57 3d
       0.02929387 0.1813321 0.06797434 0.052652862
000140 29 e6 c2 3d 47 76 09 3e 52 a0 06 3e 67 4b 1e 3e
       0.09516556 0.13424025 0.13147095 0.15458451
000150 dd 09 1a 3e 83 81 63 3d 41 3c a9 bd 48 22 53 3e
       0.15042825 0.055543434 -0.08263446 0.20618546
000160 88 e6 d3 bc 98 ba cb 3d 13 52 59 3e 32 f6 81 3c
       -0.025866762 0.09947699 0.21222715 0.015864465
000170 09 33 42 3e 81 6e 83 3c 25 82 f3 3c 4f 06 01 3e
       0.18964781 0.016043903 0.029725144 0.12600063
000180 48 c0 34 3c 10 c0 9c 3d ef 2b 2b 3d e9 da 84 3d
       0.011032172 0.076538205 0.041789945 0.06487066
000190 1b 18 3f bd ba 9f 32 3e 1f 46 c1 bd 90 85 6f 3e
       -0.04665385 0.17443743 -0.09437203 0.23390794
0001a0 19 19 8d 3b 50 de ae bd 97 77 da 3b b2 bf c2 bb
       0.0043059704 -0.085384965 0.0066670883 -0.005943262
0001b0 fb 56 bc bd bf 2a 11 3e 5d f3 d6 bb e4 6f 92 3d
       -0.09196278 0.14176463 -0.006559773 0.07150248
0001c0 ec b1 ae bd 3d 5f bb bd f0 76 e3 bb 21 1e 9a bd
       -0.0853003 -0.09149025 -0.0069416687 -0.07525278
0001d0 14 57 47 3e 73 e0 46 3d 9f f5 b9 3d f6 4e 2f 3e
       0.19466811 0.048553895 0.09080052 0.17119965
0001e0 3c 40 83 bd 49 ac 08 bd 5c 3e 3c 3e 4b 68 44 3e
       -0.06408736 -0.03336743 0.18383163 0.1918041
0001f0 a5 63 75 3c f0 13 34 3d ce 93 d7 3d a0 8d 5f 3e
       0.01497737 0.043964326 0.105262384 0.2183137

q1.weight f4 [1, 128]
000000 ef 20 36 be c0 6f 1d be 87 85 35 3e 61 00 22 be
       -0.17786 -0.1537466 0.17726718 -0.15820457
000010 b2 9e 55 3e 30 ea 4f 3e cb 3f 58 3e 91 89 4b 3e
       0.20861319 0.20304179 0.21118085 0.19876696
000020 6f 73 52 3e 19 41 5d 3e 38 bd b1 be 0c 9e 6c be
       0.20551847 0.21606864 -0.34714675 -0.23107165
000030 e7 5d 8c be 79 fb 3f 3e e6 bd 34 be 2d 38 1f be
       -0.27415392 0.18748273 -0.17650566 -0.15548773
000040 e7 66 bf bc 37 b4 13 3e ca 03 38 3e b0 85 39 3e
       -0.023364497 0.14424215 0.17970195 0.18117404
000050 4a 94 23 3e 4c c1 ab be bd ea 37 3e 5d c1 7f 3e
       0.15974537 -0.3354591 0.1796064 0.24976106
000060 ea cd 21 3e 17 de 91 ba 54 76 59 3e fb d4 52 3e
       0.15801206 -0.001112881 0.21236545 0.20589058
000070 66 20 65 be 0c bb a3 be 4a d7 c3 be 60 d0 40 3e
       -0.2237564 -0.31978643 -0.3825019 0.18829489
000080 57 d7 3d be 91 0f 62 3e 12 4c 53 3e 61 fa 1f be
       -0.18539177 0.2207625 0.20634487 -0.15622856
000090 6f c3 80 3e 2e e8 4a 3e 6a c3 70 be 3b 49 3b 3e
       0.25149104 0.19815132 -0.23512045 0.18289654
0000a0 51 04 33 3e b5 a6 eb bd c9 b3 92 3d 75 e1 f7 3d
       0.17482115 -0.11506406 0.071631975 0.121035494
0000b0 4b 19 0d 3e c4 20 6f be a0 ef 2f be a8 9f 30 3e
       0.1377918 -0.23352343 -0.17181253 0.17248404
0000c0 28 8b 98 be d0 d5 3c 3e f2 94 41 3e 27 19 2f 3e
       -0.29793668 0.18440938 0.18904474 0.17099439
0000d0 5c f6 36 3e 51 9a 30 3e 1c 68 82 be 13 19 77 be
       0.17867416 0.17246367 -0.25470054 -0.24130659
0000e0 5b 2d 7e be 59 93 93 be 34 46 30 be 6d 38 77 be
       -0.24821989 -0.28823355 -0.1721428 -0.24142618
0000f0 38 4a 81 be 7f 07 91 be 88 b0 41 3e 63 ed 6e 3e
       -0.25251937 -0.28326032 0.18914998 0.23332743
000100 49 52 38 be a9 d3 76 be b6 68 25 3e 2a 74 85 be
       -0.1800014 -0.2410418 0.16153225 -0.2606519
000110 b6 40 56 3e 2e 52 0b 3e 4e 01 3c be f7 f0 bc be
       0.20923123 0.13605568 -0.18359873 -0.36902592
000120 d4 c6 3e be 10 18 5b be 39 62 0a 3e 6e be 0f 3e
       -0.18630534 -0.21395898 0.13514031 0.14037487
000130 16 7b b4 be 4f 06 14 3e b8 a9 2c 3e ff 70 74 be
       -0.35250157 0.14455532 0.16861618 -0.2387123
000140 0a 4d 36 3e 99 1b cd 3d 5b 39 36 3e f7 f6 26 3e
       0.17802826 0.100150295 0.17795317 0.16305147
000150 5c 53 20 3e 43 25 31 3e ec d7 8b be 19 59 44 3e
       0.15656799 0.1729937 -0.27313173 0.19174613
000160 2b d7 93 be 99 b5 1a 3e 58 67 59 3e 9e 92 55 be
       -0.28875098 0.15108337 0.21230829 -0.20856711
000170 4e 1d 4e 3e dc 3e ab be c8 8b 9e be 9f b3 18 3e
       0.20128366 -0.33446395 -0.3096602 0.1491227
000180 97 73 37 be 56 1e 2d 3e ff 59 85 be 33 4d 34 3e
       -0.17915188 0.16906103 -0.26045224 0.17607574
000190 79 86 12 bd 2f 91 02 3e 1b 82 9a be e8 78 52 3e
       -0.035772774 0.12750696 -0.30177388 0.20553935
0001a0 ca de 7c be 2f 20 c4 be 5d 42 55 be 29 5d 30 be
       -0.24694362 -0.38305804 -0.20826097 -0.17223038
0001b0 54 c8 45 be 53 08 5c 3e 82 10 8e bd 36 c2 26 3e
       -0.193147 0.2148755 -0.06936742 0.16285023
0001c0 64 80 48 be 4c 2e ee bd 4e c3 41 be 5a d2 34 be
       -0.19580227 -0.11629924 -0.18922159 -0.17658368
0001d0 92 e8 44 3e 76 74 41 be 7c 59 cd 3e 41 67 4c 3e
       0.19229344 -0.18892083 0.40107334 0.19961263
0001e0 f3 f1 78 be 19 47 77 be 34 a4 38 3e 9f 74 2e 3e
       -0.24311046 -0.24148215 0.18031389 0.17036675
0001f0 87 ad 15 be 31 a0 6f be ad 24 2a 3e 1b 12 4d 3e
       -0.14616977 -0.23400952 0.16615553 0.20026438

fc3.weight f4 [128, 17]
000000 d9 81 2c 3d b7 6e 82 be 38 69 25 3e 9d 3c 46 be
       0.04211602 -0.25475094 0.16153419 -0.1935906
000010 fe 47 53 be 76 a7 b5 bd a0 6b 5d 3e 5e 49 8f be
       -0.20632932 -0.08869831 0.21623087 -0.27985662
000020 7f 14 6e 3e 00 a6 b6 3c 70 02 a1 bd 4b 86 73 bc
       0.23250006 0.022295952 -0.07861793 -0.014863561
000030 d3 dc a0 bd b1 a8 a4 3d 10 94 6a bd c1 c0 24 be
       -0.07854619 0.08039988 -0.05727011 -0.16089155
000040 6e a1 a6 3d c0 b6 c6 bc f3 33 ac 3d 3a 5f a5 be
       0.08136259 -0.024257064 0.08408346 -0.32299215
000050 f4 61 03 3e 85 95 32 3e c0 ae 18 bd 70 27 b8 bd
       0.12830335 0.1743985 -0.03727603 -0.08991897
000060 ca 1f 72 3e d9 d5 4e bd d9 2f 45 bd c1 9b 2d be
       0.23644939 -0.05049691 -0.048141334 -0.16953947
000070 80 8c bd bd 4d 65 f3 be 0a 8e 00 be 26 01 08 3e
       -0.09255314 -0.47538224 -0.12554184 0.13281688
000080 96 80 42 3c 50 c4 95 be 84 0e a3 be 28 2d 50 be
       0.011871478 -0.29251337 -0.31847012 -0.20329726
000090 f4 a4 8a 3d 6a 86 a5 3d 39 cb b5 be d2 23 77 3c
       0.067697436 0.08082278 -0.3550661 0.015084224
0000a0 79 20 ef bd 8f 7f 37 be 7b f2 43 be 5d 86 18 3e
       -0.116761155 -0.17919753 -0.19135468 0.14895006
0000b0 6d ca 64 3e de 37 5a 3e 1c 2b 8e 3d 36 9f 15 be
       0.22342844 0.21310374 0.06941816 -0.14611515
0000c0 ad 31 65 bd 45 d7 d4 bd b5 4c dc 3d 70 a6 6d 3d
       -0.055955578 -0.10392622 0.10756818 0.058020055
0000d0 f6 1a 02 be 95 e1 06 3d b4 9a 1e be ab a7 3a 3e
       -0.12705597 0.032929976 -0.15488702 0.18228023
0000e0 48 ba 46 3e 14 57 10 3e 30 f0 fd 3b 0a 72 29 3e
       0.19406998 0.14095718 0.00774958 0.16547409
0000f0 4f 71 23 be 70 cf ce 3d 32 71 ab 3c 54 e5 47 bd
       -0.15961193 0.10098159 0.020928 -0.04880269
000100 38 31 31 3e ab 57 24 be 28 6f ea 3d cf cb 92 be
       0.17303932 -0.16049068 0.114469826 -0.2867112
000110 1a 01 e7 bd 53 60 a6 3c 1e bc 02 be f7 ac 56 be
       -0.11279507 0.020309603 -0.12767074 -0.20964418
000120 29 00 6e 3e 10 79 82 bd 49 2b 72 bb 5b 39 a2 be
       0.23242249 -0.06370747 -0.003695207 -0.31684384
000130 4f 9d 85 3d 42 07 54 3e 12 e3 0b be 11 fd 20 bd
       0.06524145 0.20705894 -0.13660839 -0.039303843
000140 9f 10 1d 3e a2 54 89 3c e8 31 19 3e fa a5 82 bc
       0.15338372 0.016763989 0.14960444 -0.015948284
000150 9a 0d 51 bd 7b b8 0a be 10 8f ab 3b a2 1d f2 bd
       -0.051038362 -0.13546936 0.0052355602 -0.11822058
000160 da 9f 07 be c9 fb 30 3e 30 70 58 be bf f5 39 be
       -0.13244572 0.17283548 -0.21136546 -0.18160151
000170 97 5d 88 3d a6 91 60 3e 86 39 0c 3d ac 9c 08 be
       0.06658476 0.2193056 0.034234546 -0.13341016
000180 0b c8 0f be 0e 02 2d 3e 09 cd 3a be 22 50 81 3d
       -0.14041154 0.16895315 -0.18242277 0.06314112
000190 4d d5 1d 3d ef 19 81 be bd 8e f5 3d c8 cc 00 be
       0.038533498 -0.25215098 0.11990116 -0.12578118
0001a0 20 1d 9b 3d 29 76 2b 3e 9c 2d 07 be 6e 3b 87 be
       0.075739145 0.16744293 -0.13200992 -0.2641253
0001b0 c0 c1 15 3e bf 68 12 be f7 f5 3f be 4c f5 f5 3d
       0.14624691 -0.1429777 -0.18746172 0.12009677
0001c0 13 fe 28 bd a7 32 97 3d d6 42 ef bd 0c f7 9b 3e
       -0.04125793 0.07382708 -0.1168267 0.3046192
0001d0 ed a3 09 3e 10 8e c6 bd 7f 0c 38 bd 03 04 25 3e
       0.13441439 -0.09695065 -0.044933792 0.16114812
0001e0 0b b6 9e bc a6 82 35 3e 98 3e e2 3d 9d aa 18 3e
       -0.019373914 0.1772562 0.11047095 0.14908834
0001f0 46 cb 03 3e 99 e9 88 3e 8c ff b5 bd 42 a4 66 3e
       0.12870511 0.2674072 -0.08886632 0.22523597
000200 6c 26 0f 3d cd dd 62 be c8 70 33 be 29 03 80 bb
       0.03494875 -0.22154923 -0.17523491 -0.0039066267
000210 54 86 52 3e 38 6f 90 bd 33 b7 10 be 08 97 21 3e
       0.20559055 -0.07052463 -0.14132385 0.1578027
000220 70 d9 19 be 2f 80 40 be 4b 31 b2 bd 74 30 11 be
       -0.15024352 -0.18798898 -0.08700808 -0.1417864
000230 6e d6 43 3e 9e 35 6e 3e d5 29 3d 3e 47 70 eb ba
       0.19124767 0.23262641 0.18472989 -0.0017962538
000240 2c e3 e5 bd a1 cb f5 3d b4 1f 31 be 7d df 54 be
       -0.1122497 0.1200173 -0.1729725 -0.20788379
000250 81 e2 5b 3d 65 3c c8 bd 8a ab 55 bd 98 27 9d 3d
       0.053682808 -0.09777144 -0.052165546 0.076735675
000260 85 46 2f bd 84 e9 89 bb 3d 8a b2 3d 0e 12 82 3e
       -0.042791862 -0.0042087454 0.08717773 0.254044
000270 00 03 45 3d fd 56 33 be 5e c5 a8 be 57 4c 47 be
       0.048098564 -0.17513652 -0.3296308 -0.19462715
000280 a4 e8 b2 3d fa 87 b1 be ed cb 0e be 23 79 1a be
       0.08735779 -0.34674054 -0.13944979 -0.15085272
000290 51 09 c4 3d c5 6b 44 3e aa 18 04 bd 92 d6 cc bd
       0.095720895 0.19181736 -0.032250084 -0.100018635
0002a0 27 0a fc 3d a5 e0 41 3e ce 61 b5 bd ec e9 7b 3e
       0.12306624 0.18933351 -0.088565454 0.24600953
0002b0 f3 29 7f bd b1 9e d9 3d e8 54 3c be c2 f9 db 3d
       -0.062295865 0.10625971 -0.18391764 0.10740997
0002c0 ad 82 05 3e 39 b1 ca bd 05 d3 90 3e 62 d1 b2 bd
       0.1303813 -0.09897084 0.28285995 -0.08731343
0002d0 e7 06 bf 3d 5a 94 15 bd ab 13 82 bd 76 39 60 3e
       0.093274884 -0.036518432 -0.063514076 0.2189692
0002e0 dc 63 60 be 28 d0 85 be cd f4 4b bd 72 77 2f bd
       -0.21913093 -0.26135373 -0.049794007 -0.04283852
0002f0 28 60 86 3d d9 75 88 3e 94 21 0d 3e b0 11 6f 3e
       0.06561309 0.2665241 0.1378234 0.23346591
000300 fa 2a a3 bc 80 26 3f bc d0 3c 17 3e 00 ec 5e bd
       -0.019917954 -0.011666894 0.14769292 -0.054424286
000310 8b c4 07 3e 9a 8f ec 3d 18 7a e0 3d 76 2e 53 be
       0.13258569 0.11550827 0.109607875 -0.20623192
000320 92 bc cd be 15 e3 a7 be d3 3f 90 3d f7 c8 8b 3d
       -0.4018293 -0.32790437 0.070434235 0.068254404
000330 dd c5 0c be e9 9a 73 bd 19 2d 75 3d 64 26 3e be
       -0.13747354 -0.059473906 0.05985746 -0.18569332
000340 49 02 15 3e e2 97 45 be a0 78 30 3e b9 c4 5e be
       0.14551653 -0.1929622 0.17233515 -0.21754731
000350 e3 60 5a 3e a9 f8 8e 3e ec 9d 28 3e de 77 13 3e
       0.21326022 0.27924088 0.16466492 0.14401194
000360 69 01 68 bc 1a df 2f 3d 3f d2 99 be f0 3e 54 3e
       -0.014160492 0.042937376 -0.30043218 0.20727134
000370 14 84 61 be d2 2d 03 3e e8 0a a6 3e 36 f4 5f be
       -0.2202304 0.12810448 0.32430196 -0.21870503
000380 e2 4b 84 be 8b 29 37 bd 30 8f 15 3e 47 c0 c0 bd
       -0.25839144 -0.044717353 0.14605403 -0.09411674
000390 8d 51 ac be d2 a0 3f 3d 71 af 32 3d e7 c0 81 3d
       -0.33655968 0.04678423 0.043624345 0.06335621
0003a0 b1 90 c2 3d 0e ca 8c bd 7a 3e a0 3e 80 a7 9a be
       0.09500254 -0.068744764 0.31297666 -0.30205917
0003b0 42 1f 7d be 4a 58 49 3d 1b d5 03 3e 49 31 44 be
       -0.24718955 0.049156465 0.12874262 -0.19159426
0003c0 52 c6 3e 3e 94 58 24 be 6d 69 01 bd 6e 0a 62 3e
       0.1863034 -0.16049415 -0.031594682 0.22074291
0003d0 bb c9 e4 3d 3e 20 69 bd 95 01 73 3e 06 70 ec 3d
       0.111712895 -0.056915514 0.23731072 0.11544804
0003e0 1e 77 b5 3d 27 c3 07 3e 4e d5 28 be 9d 29 53 be
       0.088606104 0.13258038 -0.1648762 -0.20621343
0003f0 f1 fa 35 3e 5b 26 7c bd 48 f7 7e 3e 6d 74 8d 3e
       0.17771508 -0.061560016 0.24899018 0.27627888

fc3.bias f4 [128]
000000 33 62 f8 3e 62 44 91 3d 30 62 d2 3e eb f4 d2 3d
       0.4851242 0.07093121 0.41090536 0.10300621
000010 6f aa 8d 3e c9 38 8e bd 37 36 de 3e 94 b7 12 3e
       0.27669093 -0.06944425 0.43400738 0.14327842
000020 f9 31 5d 3e f2 2d 5e be 5a ee 10 be 1a 0a 59 be
       0.21601094 -0.21697214 -0.14153424 -0.2119526
000030 c0 71 9f 3e da 98 0b bc c3 e2 4e 3d 6f 52 d2 3e
       0.31141472 -0.008520329 0.050509226 0.41078517
000040 15 fd b1 3e e3 90 9b 3e d4 8f c6 bd a3 f1 cd 3d
       0.347634 0.30383977 -0.09695402 0.10055854
000050 36 f4 6d 3e 1b 09 bc 3e 64 58 11 3e 97 3b 34 3e
       0.2323769 0.36725697 0.14193875 0.17600857
000060 27 9f e3 3d 1b ee 69 be fc ac 21 be 6e 3e 73 be
       0.1111434 -0.22844736 -0.15788645 -0.23754284
000070 08 60 80 3e 84 48 90 3e 7b f6 bd 3e ae 64 c7 bd
       0.25073266 0.28180325 0.37102112 -0.09736
000080 f7 b6 26 3a 8c f8 4c 3e e4 61 c0 3d 04 7d 9d 3d
       0.00063596613 0.20016688 0.09393671 0.076898605
000090 e4 8b 20 be 0f f7 59 3d 97 1a e8 3c 6e 0b c6 bd
       -0.15678364 0.05321413 0.028332992 -0.09670149
0000a0 56 73 91 3e bc 1b 6b 3e 06 d7 76 3e ca b3 de 3e
       0.28408307 0.22959799 0.24105462 0.43496543
0000b0 9c c7 55 3e 9f 0e e5 3e da af 94 3e 26 82 8a bd
       0.20876926 0.44737718 0.29040414 -0.06763105
0000c0 1b 98 1f be 0b 82 e2 3d 22 89 41 be 42 e5 84 3e
       -0.15585367 0.1105996 -0.18899968 0.2595616
0000d0 ad 8b 88 3e 3a ef eb 3b 16 66 a5 bc 10 aa 0e 3e
       0.26669064 0.007200149 -0.02019028 0.13932061
0000e0 11 d8 f9 bd a7 fa 89 3d 4c 5d 3d be 74 1c 48 be
       -0.121994145 0.06737261 -0.18492621 -0.19542104
0000f0 1f 72 59 be 99 98 08 3e dc da ac bd ae a7 d7 3d
       -0.2123494 0.13339461 -0.084401816 0.10530029
000100 5b fe d7 bd 02 df 9a 3e 88 01 e6 3e bb a3 a3 3d
       -0.10546561 0.30248266 0.44923043 0.079902135
000110 ec 26 b8 3e 13 81 69 3d 93 60 ac 3e 69 34 c4 bd
       0.35967195 0.05700786 0.3366743 -0.09580309
000120 04 df e2 3e ec 41 d1 3e ef 17 d6 3e 3f 46 49 bd
       0.44310772 0.40870607 0.41815135 -0.049139258
000130 c6 da 50 be ea 1e 2e 3e f4 9b 17 be 23 5c c8 3e
       -0.20395955 0.1700398 -0.14805585 0.39132795
000140 f5 d1 14 be 24 5d 3e 3e 10 84 9b 3e 6b ce 83 3e
       -0.14533217 0.18590218 0.30374193 0.25743422
000150 e3 6b d8 bd 86 fa 3b bb 8a 9c 21 be f0 91 c0 3d
       -0.10567453 -0.002868326 -0.15782371 0.09402835
000160 e0 52 a4 3e 0c 80 f5 ba a5 5b a0 bd 7a 1d 90 3e
       0.3209448 -0.0018730178 -0.0782998 0.2814749
000170 a8 29 b4 3e b9 3e c0 3e dd 38 d1 3d 7e 24 37 3d
       0.3518803 0.37547854 0.10215924 0.044712536
000180 94 07 83 be 85 00 88 3e f8 fd af 3e 46 5c c8 3e
       -0.2559172 0.26562896 0.3437345 0.391329
000190 39 e4 3b 3e 95 d6 b0 3e d0 9c 9d 3e f7 59 df 3e
       0.18348779 0.34538713 0.307837 0.43623325
0001a0 c8 0d 16 be 45 8a ba bd aa 53 12 be be f7 f3 3e
       -0.14653695 -0.09108404 -0.14289728 0.4764995
0001b0 71 35 6f 3e d5 b5 8d 3e 1b f0 1f be 7a 22 0f be
       0.2336023 0.2767779 -0.15618937 -0.13977996
0001c0 fd 61 d9 bd 52 f0 17 be 17 f8 4b 3e 47 9c 86 3e
       -0.10614393 -0.14837769 0.19918858 0.26291105
0001d0 24 ad fb bd fd f9 41 3e a7 db e5 bd ca f7 04 3d
       -0.12288883 0.18943019 -0.11223536 0.032462873
0001e0 94 17 b1 bd db 5d 3c 3d 8f f4 14 be 34 b4 ea 3d
       -0.08647075 0.045987945 -0.14546417 0.11460152
0001f0 e6 17 a9 3c 92 97 47 3e 3d 28 45 3e 61 45 3d 3e
       0.020641278 0.19491413 0.19253631 0.18483497

fc4.weight f4 [128, 128]
000000 f8 59 70 bc 5a ec 24 3d b4 17 91 bd b0 ba 53 3d
       -0.014669888 0.040264465 -0.07084599 0.05169171
000010 ee f5 15 bd ae b5 0f bc a1 41 7b bd 85 1e 54 bc
       -0.03661149 -0.008771343 -0.061341885 -0.01294673
000020 61 f6 19 bd 99 76 73 be 4c d6 cb 3d 62 15 f6 bd
       -0.03758848 -0.2377571 0.09952983 -0.12015797
000030 ec c6 d5 bd 0f 81 0c bd 01 71 b4 3d 48 79 8a bd
       -0.10438332 -0.034302767 0.08810616 -0.06761414
000040 5c b5 d2 bd d1 17 a0 3c 15 47 88 3b d3 49 c2 3d
       -0.10288498 0.019542607 0.0041588643 0.09486737
000050 00 24 8c 3d 8e 2f 10 3d 88 ae 18 bd da b7 c5 bc
       0.06842804 0.0352016 -0.03727582 -0.024135519
000060 ef 3e 01 bc 4c 61 2d 3d 96 4c ae 3d c7 ea 13 3d
       -0.00788854 0.042329118 0.08510701 0.036112573
000070 a8 52 4f 3d 32 a7 73 bd 80 24 d8 bb 62 cd e8 3d
       0.050615937 -0.05948562 -0.006596148 0.11367299
000080 63 1c 0c 3e ac 67 64 3b ff 74 a6 be e7 39 45 bc
       0.13682704 0.0034851832 -0.32511136 -0.012037731
000090 64 6d ba 3d 95 52 32 3d f4 90 3f bc 5f 16 18 bd
       0.09102896 0.043535788 -0.011692274 -0.03713071
0000a0 28 1f b3 3d 7b 3a 95 3c 30 b5 74 3b fb 58 02 3d
       0.08746177 0.018216362 0.0037339441 0.03182314
0000b0 03 7d 6d bd ac 25 8f 3d 94 07 d7 bc 6c 3a ff 3d
       -0.05798055 0.06989607 -0.02624873 0.12462315
0000c0 c8 dd ea 3a d2 8c 07 3d 64 68 59 be cd 29 76 3d
       0.0017918879 0.03309328 -0.21231228 0.060098458
0000d0 c9 05 1c 3a fe 22 4f be 91 0a 1c 3e eb 04 a5 3d
       0.000595179 -0.20228192 0.15238406 0.08057579
0000e0 94 35 b2 3d a2 97 44 3d 64 4e 1d 3e 7a 48 0a 3e
       0.087016255 0.04799617 0.15361935 0.1350421
0000f0 ca 14 26 3e 4e 9e 16 bd 05 3f 7d 3d 2e 5e 82 3d
       0.16218868 -0.036772065 0.06182768 0.063656196
000100 b2 4c a8 be 27 e8 c2 3c 95 1c e7 bc 27 b1 85 bd
       -0.32871014 0.02379234 -0.028211871 -0.0652793
000110 79 c3 41 3c e1 9d ba bd da 70 48 bd 59 7d 15 3d
       0.0118263895 -0.09112144 -0.04893575 0.036496494
000120 06 28 18 bd 70 fb 4a bd b5 e4 bc 3d f7 7b b1 3d
       -0.037147544 -0.049556196 0.0922331 0.086662225
000130 0e ce 2e 3e 42 65 64 bd 79 6c 4a 3e 4f 76 39 bd
       0.17070791 -0.05576063 0.19767942 -0.045278843
000140 5b 8a 25 3e 3a af 22 3d af e3 6d bd 2d 6c 8a bc
       0.1616606 0.03971789 -0.058078464 -0.016897285
000150 3a ab 32 3e 17 a5 fa 3d 5a 28 17 3e 7b 2a 63 bc
       0.1744813 0.1223852 0.14761487 -0.013865109
000160 ea db 9f 3d c3 0d 65 3d 54 32 f8 3d 67 18 75 bd
       0.07805617 0.055921327 0.12118974 -0.059837725
000170 ef 21 44 bc f9 83 7c bd 37 ee 93 bd 91 0b 8d bd
       -0.011970981 -0.061649296 -0.0722317 -0.06886972
000180 02 a6 72 3d 15 f2 0e bd ac 01 a2 3c 0a 3f 97 3d
       0.05924035 -0.034898836 0.019776188 0.073850706
000190 3c 6c d6 3a 36 91 2a 3c b0 b9 05 3d 5b e2 a5 3d
       0.0016359161 0.010410598 0.03264779 0.080998145
0001a0 3c 2b ac bc 76 7f f8 bc 22 91 35 3d c6 43 83 3d
       -0.02101671 -0.030334216 0.044327863 0.06409411
0001b0 68 a9 6b bb 86 28 b4 bd 6f 9f 9d bd 51 63 37 3e
       -0.0035959128 -0.08796792 -0.07696425 0.1790898
0001c0 09 84 9d be 15 11 c5 3d fd 1f 93 ba 67 67 76 3c
       -0.30764797 0.09622399 -0.0011224743 0.0150393015
0001d0 6b 9f 4a 3d 4c 62 55 3d 57 06 e9 bd 5d 1a 9a bc
       0.04946844 0.052095696 -0.11378162 -0.0188114
0001e0 36 62 9d bc f3 c9 92 3d d0 fa e0 3d 4c f6 78 bd
       -0.01921187 0.07167425 0.10985339 -0.060781762
0001f0 dc d9 89 3c 09 df b6 3d 60 62 a2 bd e0 95 cb bc
       0.016827516 0.08929259 -0.0792892 -0.02485174
000200 58 37 ee bb ec d2 3b bd b5 dd b0 bd 0d 81 a7 bd
       -0.007269781 -0.045855448 -0.08636037 -0.08178911
000210 21 22 ce 3d b9 ee 0f bd a1 06 e0 3d 19 e3 ef bc
       0.10065103 -0.035139773 0.10938764 -0.029283093
000220 d2 91 66 bd c3 05 b8 bc ad 96 8d bb a1 f5 b5 3c
       -0.05629141 -0.022463685 -0.0043209405 0.022211852
000230 7b 4c 8f be a6 f3 4c be e8 59 72 bc d1 c6 8f bd
       -0.27988037 -0.2001482 -0.014791943 -0.07020343
000240 6d ee 49 bc 86 96 d1 bc e2 e7 8e 3d 46 ca 1f be
       -0.012324912 -0.02558447 0.06977822 -0.15604505
000250 fb 4c 06 bd c8 05 fd 3c 47 67 7a 3d d8 cb 07 bd
       -0.032788258 0.030886546 0.06113365 -0.033153385
000260 8c 9d 47 3e fc f7 4e bd bf 23 df bc 8a ce 4e be
       0.19493693 -0.050529465 -0.027238725 -0.20195976
000270 91 ec 67 be 5d dd 81 3c e2 b1 ac 3c 99 74 ad bd
       -0.22648837 0.015852625 0.021080915 -0.08469505
000280 3a 13 de 3d 50 02 40 be 8f db 20 bd ef 02 40 3e
       0.10843511 -0.18750882 -0.039271887 0.18751119
000290 be b0 e0 bb c7 9b d9 3b d9 37 86 3c 4b 38 2f 3e
       -0.006857007 0.0066408846 0.016384052 0.17111318
0002a0 7a 29 a5 3d 91 d6 ba bd 0a 6f c3 bd 4c 72 27 3e
       0.08064552 -0.091229565 -0.095426634 0.16352195
0002b0 eb 3e 07 3d 1f 26 2b 3d 21 11 e7 bc 32 70 e9 3b
       0.033018988 0.041784402 -0.02820641 0.0071239704
0002c0 fd e7 17 bc 71 0d c0 3d 0d a7 19 3e d5 cc 68 3d
       -0.009271619 0.09377564 0.15005131 0.056835968
0002d0 64 8a 6b bd 9c 7e e0 be b4 f8 55 be f8 cf 46 be
       -0.057505026 -0.43846595 -0.20895654 -0.19415271
0002e0 68 0c 11 bd db 93 79 3c 01 c0 41 3e cd 6e 28 bd
       -0.035412222 0.015233005 0.189209 -0.041121293
0002f0 e8 6b 09 be fe 65 27 3d 7a b4 63 bd c9 93 10 3e
       -0.13420069 0.04086875 -0.055592038 0.14118876
000300 28 bb b8 be e1 ab fd bc 64 c6 73 3d ee 70 c6 3d
       -0.3608029 -0.030965747 0.059515372 0.096895084
000310 7a 1c 11 bd 5c 59 dc 3d 32 f5 54 bd 49 aa c0 3d
       -0.035427548 0.107592314 -0.05199165 0.09407479
000320 7a 33 0b bb 75 c1 88 bd c1 b7 84 3d 71 d1 97 3c
       -0.00212404 -0.06677524 0.06480361 0.018532487
000330 a8 17 0f 3e 19 1d 15 be a7 ca be 3c c7 6c 93 bd
       0.13973868 -0.14561881 0.023289992 -0.07198482
000340 96 85 8a 3d 83 dc 1e be 9c f9 37 ba cb 9d a6 3b
       0.06763761 -0.15513806 -0.00070180907 0.0050847284
000350 26 66 db 3c 89 04 f2 3c 45 1f 30 3e 26 99 30 be
       0.026782107 0.029543178 0.17199428 -0.17245921
000360 08 ce 30 3d af 0d b3 3d ea 4b 16 3c 8e b5 e5 3c
       0.043165237 0.08742844 0.009173373 0.028040674
000370 54 aa 91 bd b6 98 a1 3d e8 70 a3 3c 1e e0 1f be
       -0.07112566 0.078904554 0.019951299 -0.15612838
000380 fc aa ab bd f2 02 7c 3c 74 92 d1 bd 2c 56 6e bc
       -0.08382222 0.015381562 -0.10233012 -0.014546912
000390 7d 13 29 3c ce 8b 1c 3c 42 e4 81 3c e7 f1 78 3d
       0.010319588 0.009554816 0.015855912 0.06077757
0003a0 22 c5 02 3e 72 92 12 3e ec c8 91 bd 9f e7 96 3d
       0.12770513 0.14313677 -0.07118401 0.07368397
0003b0 d6 21 a3 bc 36 7e 1b bd 49 c3 03 3d f9 04 ea 3d
       -0.019913595 -0.03796216 0.03216866 0.1142673
0003c0 79 93 19 3e b6 3a 57 3e d3 20 11 bd 72 2f 0d bd
       0.14997663 0.2101849 -0.035431694 -0.034469076
0003d0 56 f8 95 bb 4c 2e 26 3d 87 62 a5 3d df c8 98 be
       -0.004576723 0.040571496 0.08075433 -0.29840752
0003e0 aa 08 80 bb a5 8f 20 3d 1d 53 f0 3c c7 0f 96 bc
       -0.003907283 0.03919949 0.029336507 -0.01831807
0003f0 30 e0 ff bd 9d fd c4 bd 94 73 af bd ac f1 66 bd
       -0.12493932 -0.096186854 -0.08566967 -0.05638282

fc4.bias f4 [128]
000000 ea 40 9a bc d3 21 0b 3c 27 c8 61 3e d1 6c 06 bd
       -0.018829782 0.008491951 0.22049008 -0.03281862
000010 57 ca 0a 3e 6b 92 a4 3d 7d b4 d7 bd a4 5f 34 3e
       0.13553749 0.080357395 -0.10532472 0.17614609
000020 4d 40 8c bd c6 af 89 bd 42 d5 78 bc 77 a5 a7 3d
       -0.06848202 -0.06722979 -0.015187563 0.08185857
000030 1f 47 9e bd 0c 3c fd 3c a0 59 2c bd 31 a0 41 3e
       -0.07728409 0.030912422 -0.04207766 0.18908764
000040 36 5b 9d 3d ac 28 db bd 0d 68 2e 3e 49 0a 6a 3e
       0.07683413 -0.10701117 0.1703188 0.22855486
000050 a4 cc 85 3d 37 0e d5 bd 7a e1 2f 3e cc a3 02 3e
       0.06533173 -0.10403102 0.17175856 0.12757796
000060 54 73 9a bd 38 ee 48 3d 27 7e 11 3e 3f 09 93 3d
       -0.07541528 0.049055308 0.1420828 0.07179498
000070 38 70 84 bd 5d 11 4e bd 4c 93 67 3d 7c 92 d7 3d
       -0.064667165 -0.050309528 0.056536958 0.105259866
000080 87 f3 92 3e e7 b3 7b 3d 4a 59 45 3e 46 1a 23 3e
       0.28701422 0.061450865 0.19272342 0.15927991
000090 0a 53 5d 3e 32 9f 4a 3e b9 4f 8c 3d f5 79 8e ba
       0.21613708 0.1978729 0.068511434 -0.0010870086
0000a0 5e 3c 6e bd 25 8a 55 3e ff 93 2f 3e 41 45 4d 3d
       -0.05816304 0.20853479 0.171463 0.050114874
0000b0 91 56 47 3d a1 c9 d5 3d 11 fd 65 3d b0 58 ca 3c
       0.04866654 0.10438848 0.056149546 0.024700493
0000c0 ec 0f 31 bd f9 ca 29 3e 2a c6 25 3e b1 e7 95 bd
       -0.043228075 0.16581334 0.16188875 -0.07319582
0000d0 b9 2d 25 bc 44 7e c4 bc 0d 21 17 3e 53 52 43 3d
       -0.010081702 -0.02398599 0.14758702 0.047685932
0000e0 14 29 d7 3d 7c d2 5c 3e 62 c9 4e 3d c6 d3 7e 3d
       0.10505882 0.21564668 0.050485022 0.06221368
0000f0 dd 9d 99 3d 44 ee 8a bd d8 8c 78 3e f5 80 6f 3d
       0.07500813 -0.06783727 0.24272478 0.058472592
000100 25 37 88 3e 62 23 cf bd c6 ef fd 3c ad c2 01 3e
       0.26604572 -0.101141706 0.030998122 0.12671919
000110 72 ea 60 3e 2e aa 59 3e a8 3d 92 3d 85 4d 55 3d
       0.21964434 0.21256325 0.07140666 0.05207588
000120 4f 11 1d 3e 7e 7f 15 3e ee 2d 25 3d aa 33 e6 bb
       0.15338634 0.14599416 0.040327005 -0.007025202
000130 0f ce e7 3d 2a 1b 6d 3d d9 5c 9c bd b4 6a a1 3d
       0.113185994 0.057887234 -0.07634897 0.0788168
000140 4b 17 2e 3d ce 76 fe 3d 23 b7 a3 bd 1c 20 76 3d
       0.042502683 0.12425004 -0.07993915 0.060089216
000150 24 ef 1c 3e 60 d9 4a 3e 01 57 8e bd 10 4e 49 3e
       0.153256 0.19809484 -0.069501884 0.19658685
000160 5c 71 63 3e 3e 74 50 3d 71 64 5d bd 2a 1c 44 bd
       0.22211212 0.050892107 -0.054050867 -0.04787842
000170 a0 49 da 3c b5 60 26 bc 26 2b ec 3d 41 c4 12 bd
       0.026646435 -0.010154893 0.115316674 -0.035831694
000180 b6 e3 92 3d b8 ff 8d 3d dd 0b e8 3d 69 47 65 3d
       0.07172339 0.0693354 0.11330388 0.055976305
000190 95 01 33 3e e8 0d 42 bc 2c 2d d8 bd 8e ce 9c 3c
       0.17481072 -0.011844136 -0.10555491 0.019141462
0001a0 68 d4 05 3e d5 a5 3c 3d 3d ac 05 3e 1e 16 25 bd
       0.13069308 0.046056587 0.13053985 -0.040304296
0001b0 15 8f 9a 3d eb 21 c6 bb 0b 99 05 bd a9 98 dc 3d
       0.07546822 -0.006046524 -0.032616656 0.10771305
0001c0 fe 16 49 3e 1d 04 20 3e cb eb 34 3e 15 a5 6e 3d
       0.19637677 0.15626569 0.17668073 0.058262903
0001d0 3b 29 0f 3e 9a ed 5c 3e df 4e 4a 3e 77 1f 37 3e
       0.13980572 0.21575013 0.1975665 0.17883097
0001e0 e8 40 38 bd a8 4a 75 3e 8b 52 e2 3d 14 49 25 3c
       -0.044983774 0.2395426 0.110509 0.010088224
0001f0 ea 51 82 bd a0 ab af bd a3 9a 9f 3d 97 ee d3 bd
       -0.0636328 -0.08577657 0.077931665 -0.10348242

q2.weight f4 [1, 128]
000000 0e e4 21 be 14 14 a3 be f0 5c 66 3e 73 15 b4 be
       -0.15809652 -0.31851256 0.2249639 -0.35172614
000010 1a db 03 3e 41 01 07 3e 56 ae 4c be d6 72 83 3e
       0.1287655 0.13184072 -0.19988379 0.2567355
000020 b1 3e b5 be 5a c1 59 be ec 68 ba be 3a 86 12 3e
       -0.35399392 -0.21265164 -0.36408174 0.14309016
000030 c2 40 a2 be ba cb 94 be 2a e4 85 be 18 97 3b 3e
       -0.3169003 -0.2906168 -0.26150638 0.18319356
000040 48 6e 49 3e af be 60 be ad 25 53 3e 18 df 47 3e
       0.19670975 -0.2194774 0.20619841 0.19518697
000050 74 b1 26 be 69 60 3f be 68 09 27 3e 62 96 3d 3e
       -0.1627863 -0.18689121 0.16312182 0.18514398
000060 b6 d0 39 be c3 ba 8d be 83 3a 29 3e 4e ad 71 3e
       -0.18146023 -0.2768155 0.16526227 0.23601267
000070 6b 61 2c be 2f 63 d1 b8 34 7a a3 be f2 d5 24 3e
       -0.16834037 -9.984371e-05 -0.3192917 0.16097239
000080 4f 59 63 3e 30 27 27 be 52 3e 35 3e e8 3d 65 3e
       0.22202037 -0.16323543 0.17699555 0.22386897
000090 75 9e 2d 3e 9f ff 4b 3e 07 96 32 3e 6e 1e 55 be
       0.16954978 0.1992173 0.17440043 -0.20812389
0000a0 25 42 a3 be cd b1 18 3e 5c d9 4a 3e da 61 79 be
       -0.31886402 0.14911576 0.19809479 -0.24353734
0000b0 e1 bc 6c be 32 54 1e 3e 33 38 3a be 0b 8e 6b bd
       -0.23118927 0.15461805 -0.18185501 -0.05750851
0000c0 8d 67 69 be ff b3 3f 3e 91 02 48 3e 3f f3 9f be
       -0.22793408 0.18721007 0.19532229 -0.3124027
0000d0 ad fa 1c be 09 58 a2 be cf 51 5e 3e d0 c8 8d be
       -0.1533 -0.3170779 0.21710895 -0.2769227
0000e0 ed ab 22 3e 80 47 15 3e f9 8d 64 3e 1f 77 1a be
       0.15885897 0.14578056 0.22319783 -0.15084504
0000f0 ed be 19 be 98 9b 85 be e8 6b 89 3e 49 3e 82 be
       -0.15014239 -0.2609527 0.26840138 -0.25438145
000100 fe 5e 5f 3e 29 f7 9f be 44 9a 0d be fc f7 46 3e
       0.2181358 -0.31243256 -0.13828379 0.19430536
000110 83 24 3a 3e 90 9c 17 3e 7e d9 79 be bf 7e 62 3e
       0.1817799 0.14805818 -0.24399373 0.22118662
000120 3a 70 31 3e d8 0f 1d 3e dd 41 40 be 75 fb 71 be
       0.17327967 0.15338075 -0.18775125 -0.2363108
000130 6c 74 89 3e 3f c7 46 3e 39 a4 00 be 4a 23 6f 3e
       0.26846635 0.19411944 -0.12562646 0.23353305
000140 64 78 9e 3e e5 aa 2e 3e 78 15 81 3c 2f 91 0f be
       0.30951226 0.17057379 0.015757307 -0.14020227
000150 9d cc 40 3e b2 d6 26 3e 09 72 43 be 4d ea 25 3e
       0.18828054 0.16292837 -0.1908647 0.1620266
000160 04 2e 44 3e 0a 7a 6a be 1b 38 a1 be 9e 9b d1 be
       0.19158179 -0.22898117 -0.31488118 -0.4093904
000170 26 9a b3 be 07 2a 86 be 24 25 3b 3e 18 7e 81 be
       -0.35078543 -0.2620394 0.18275887 -0.25291514
000180 c6 30 33 bd 72 6a 69 3e d6 43 2e 3e 6d 76 27 3e
       -0.043747686 0.22794512 0.17018065 0.1635377
000190 31 b6 27 3e 4c d9 5e be 52 3e 32 be 32 b0 75 be
       0.16378094 -0.2176258 -0.17406586 -0.23992994
0001a0 e3 fe 17 3e 15 85 5d be 50 2f 5b 3e 78 d8 e2 bc
       0.14843325 -0.21632798 0.21404767 -0.027691111
0001b0 f6 88 44 3e 4c 8f 36 bd c2 9d 5c be 64 1f 4a 3e
       0.19192871 -0.044570252 -0.21544555 0.19738537
0001c0 85 77 29 3e b2 be 8a 3e c2 5c 7a 3e c3 43 ff 3d
       0.165495 0.27098614 0.24449447 0.124640964
0001d0 1c 14 28 3e 78 af 34 3e 86 e3 f4 3d 86 9d 47 3e
       0.16413921 0.17645061 0.11957459 0.19493684
0001e0 ff 06 85 be dc d7 5f 3e 57 fb 17 3e 35 c8 e7 ba
       -0.259819 0.21859688 0.14841972 -0.0017683568
0001f0 17 c8 49 be 34 e3 a6 bd 7f 21 50 3e 13 6d 95 be
       -0.19705234 -0.08148804 0.20325278 -0.2918478
