resource/multi_run_experiment_20250319_111011/run_5/sac_critic_30000.pth (torch, 155391 bytes, 10 tensors)

fc1.weight f4 [128, 17]
00000000: 35e7 223d d83b 85be 3f38 b1be e00a 21be
00000010: 802d 613e 985b 613d 94ed f0be aaa8 563e
00000020: 676e 603e d30a 1fbd bbe0 9b3e 84cd 07be
00000030: 3c59 4b3e b01d eabe 1bbc 083e 20bf 85be
00000040: 1b65 fd3d 224e f9bb 793a e83d a317 abbe
00000050: 3585 1d3e 1e50 1aba 7cfb 27be d0d6 c5be
00000060: 2b9b 073e 6188 103d 22cc 1f3e c8e2 9e3d
00000070: 5eb9 6fbe cbcd 003f 63c6 22bd 5b4f a13e
00000080: 0e46 7f3e 5387 123e 3886 87bd d779 cdbd
00000090: cfdb 10be f56e a2be 438d 28be a3dc 9ebe
000000a0: 7bb4 c0be a888 90bd c327 283e fe4b 0abe
000000b0: ce82 533e 20ae b7be 5482 893e 31f1 afbd
000000c0: 86e4 01bf 2efb 9cbe 6a78 b6be 38b9 32be
000000d0: 2c64 813c 4718 e9be 7875 b13d 6c41 2b3e
000000e0: 4307 243e fa62 23be 63fa 463e 27b6 4c3e
000000f0: a725 7c3e 015c 023d fd87 36be 9de9 06bf
00000100: d125 e13c c95a 48bd 38be cabe 3b64 ccbe
00000110: 5160 443e 5027 be3c 9be6 183c 969d 973d
00000120: 3144 4bbe 2dfc b8bd f1b3 5e3d 2925 1e3e
00000130: 2b8e 3d3e d6a5 14be 37b1 9fbe 2794 043e
00000140: 5a16 92be efda cebd 940f 343e 468c 38be
00000150: a0d1 843e c1c4 6e3e ad5a 8dbe 111f e8bd
00000160: 4310 25bd 84cb 25be 3689 04be 6eb2 543e
00000170: 9139 aa3d 9fae 2cbe b5ca 9bbe 684a dcbc
00000180: faae 6dbe 8884 8cbe d26e 10be e673 2ebd
00000190: 50f2 b6be 1733 ffbd 3c04 973c c8f3 943e
000001a0: 528a 6f3d 678d 46be 1baf 303d 8368 eabd
000001b0: 299e fa3c e12c 563e 8963 813d 0808 163d
000001c0: 0e06 64be d6ec 44be 4049 933e 6a98 e23b
000001d0: f053 0abc 578f 2c3e b412 5d3e 05e1 2d3e
000001e0: 45b2 dfbd 6329 0f3e 05b1 fdbe aec0 86be
000001f0: cb0c 943e 2d13 123e 1392 a5bd 9d4f 72be
00000200: c341 b53e d20d cebc a8ad 4fbe 32ca e3bd
00000210: 08e7 a7be 6f75 09be 4546 9fbe 83b0 abbd
00000220: 090a e8bd eb49 b9bd e3eb f63d d4d0 493e
00000230: e331 2b3e 6cf4 ea3c 3155 503e fb4b 603e
00000240: 4238 4a3e 017c 993e 1f3a 2bbd 9c61 04bc
00000250: 07f5 25bd 2071 403e 2575 263e a684 043d
00000260: 7a78 7c3e 798d aabd b051 b33c 3c5a 33bf
00000270: 23f9 86bd deb5 d3bc 1767 783e bb30 aabe
00000280: c606 893e 4c2d 26bd ff13 0cbe 5593 f43d
00000290: bbf1 32bd 62f7 cfbe de3f 8dbe dbd8 873c
000002a0: e8d7 80be 0cae 573e 17cf 083e 18b5 5c3e
000002b0: 63eb 833e dce7 3ebe ce79 21be 44a9 68be
000002c0: 75a7 fc3d f367 23be f935 10bd 1156 5fbd
000002d0: 957a f7bd 0316 72be 6c96 5ebb 744a 0a3e
000002e0: 32d0 aa3e 76de 81be b12a 76be 0ad8 123d
000002f0: 69a6 3ebe 326f 6a3e 40db 8bbe 9cd4 fc3d
00000300: 863f 29be 88e1 39bc 486f 69bd 11a4 ddbd
00000310: 1e7f babe f340 73be f8f9 9bbd 82ab 02bb
00000320: a494 b6bd 2d6f 54be b402 02bd 48ed f63c
00000330: 2ca9 2e3e e534 5bbe 5190 2e3e 0518 99bd
00000340: d135 4fbe 5f7a f9bd 02f2 79bc fb23 4f3d
00000350: 4124 8c3e 36ed 51be 58e3 eebd 0984 8e3e
00000360: 906c 7d3e 52d2 7cbe 37b0 2e3e beaa b6bd
00000370: df60 19bc 8c43 9e3d 1205 0c3e 50e7 86bd
00000380: 28cc 023e c7a2 e63d c2aa 383e e599 acbe
00000390: cb59 1d3e 9490 bbbd c281 80bd 1ba5 803e
000003a0: 04d8 563e 6e9b c8be 60c6 c73c 1436 4d3b
000003b0: ebc3 db3d 3e8f 99be fd01 173d 5d09 803e
000003c0: 1ee1 02be fb5d 733e bb10 44bc b4ab 003d
000003d0: f59f b7bd ba05 f1bd 113d a03d 8455 873e
000003e0: 126c e9bd 5dce 0b3d ad18 3d3d 4180 f9bd
000003f0: 7a2e bdbd ec67 9cbe 9f8a 16be 5a8f 4c3e
0.039771277 -0.2602222 -0.34613225 -0.15726805 0.21990013 0.05501899 -0.47056258 0.20962778
0.21917115 -0.038828682 0.30444893 -0.13261992 0.19858259 -0.45725775 0.13353007 -0.2612238
0.123728 -0.007608191 0.11339278 -0.3341647 0.15382846 -0.0005886572 -0.16404527 -0.3864045
0.13242786 0.03528631 0.15605214 0.07758099 -0.23410556 0.50314015 -0.039739978 0.31505856
0.24929067 0.14309435 -0.06617397 -0.10033005 -0.1414635 -0.31725278 -0.16460137 -0.31027707
-0.37637696 -0.07057315 0.16421418 -0.13505551 0.20655367 -0.35875034 0.26857245 -0.085909255
-0.50739324 -0.30660385 -0.35638744 -0.17453468 0.015794836 -0.45526335 0.086649835 0.16724175
0.16018395 -0.15955725 0.19431452 0.1999136 0.24623738 0.031826023 -0.17825313 -0.52700216
0.027483853 -0.048914704 -0.3959825 -0.3992022 0.19177367 0.023212105 0.009332324 0.07403104
-0.19850232 -0.09032474 0.054370824 0.15443863 0.18511264 -0.14516386 -0.31189892 0.1294714
-0.28532678 -0.10100352 0.17584068 -0.1802226 0.2594118 0.23317243 -0.27608243 -0.113340504
-0.04029871 -0.16190916 -0.12942967 0.2077119 0.08311761 -0.16863488 -0.3042809 -0.026890948
-0.2321128 -0.27444863 -0.14104775 -0.042590998 -0.35731745 -0.124609165 0.018434636 0.2909224
0.058481522 -0.19389878 0.043135744 -0.11445715 0.030592995 0.20915557 0.06317813 0.036628753
-0.22267935 -0.1923097 0.28766823 0.006915142 -0.008442864 0.16851555 0.21589166 0.1698037
-0.10922674 0.13980632 -0.49549118 -0.26318878 0.2891601 0.14265127 -0.08084502 -0.23663183
0.35401735 -0.025153074 -0.20281088 -0.1112255 -0.3279345 -0.13423704 -0.311083 -0.08383276
-0.11330039 -0.09047302 0.120567106 0.19708568 0.16718249 0.028681003 0.20344998 0.21903984
0.19748023 0.2997742 -0.041803475 -0.0080799125 -0.04051688 0.18793154 0.16255625 0.032353066
0.24655333 -0.08327765 0.021889538 -0.7005956 -0.06590488 -0.025843557 0.24258076 -0.33240303
0.2676298 -0.040570542 -0.13679503 0.11942164 -0.043687563 -0.40618426 -0.2758779 0.016582897
-0.25164723 0.21062487 0.13360249 0.21553457 0.25765523 -0.18643135 -0.15769121 -0.2272082
0.123366274 -0.15957622 -0.035207722 -0.05452544 -0.120839275 -0.2364121 -0.003396417 0.13504964
0.33361965 -0.25365037 -0.24039723 0.035850562 -0.18618168 0.2289398 -0.27315712 0.123452395
-0.16528139 -0.011345275 -0.05699089 -0.10822309 -0.36425108 -0.23755245 -0.07616037 -0.0019938652
-0.0891507 -0.20745535 -0.03174086 0.030142441 0.17056721 -0.21406896 0.1704724 -0.074752845
-0.20235373 -0.121815436 -0.015255453 0.050571423 0.2737141 -0.20500645 -0.11664456 0.2783511
0.24748445 -0.24689606 0.17059408 -0.08919285 -0.009361475 0.07727727 0.13673809 -0.06587088
0.12773192 0.11261516 0.18033889 -0.33711162 0.15366285 -0.091584355 -0.06274749 0.25125965
0.20980841 -0.39181083 0.024386585 0.003131275 0.10730728 -0.29992098 0.03686713 0.25007144
-0.12781188 0.2376632 -0.0119668795 0.03141375 -0.08966056 -0.117686704 0.078241475 0.2643243
-0.11397566 0.03413235 0.04616611 -0.121826656 -0.0923738 -0.30548036 -0.14701317 0.1997656

fc1.bias f4 [128]
00000000: c643 2bbe 6160 1fbd 1e89 023e 539a 3dbe
00000010: 1634 79be 5619 ba3e db6d c13e 83ac 3f3e
00000020: 1ec9 cb3e f4f8 e03d 0ee2 283e b5bc c43e
00000030: 53cd 993e 600a 143e d947 a33e f83f 083d
00000040: 0b63 933e 5220 0e3f 5349 60be 0800 993e
00000050: a46f 123e 5863 163e 64f6 23bc 06c3 873e
00000060: 005e 223e f3fb 983e a386 143d f95b 9b3e
00000070: 57d2 7a3e bc58 d83e 3a90 e73d fd2b 5c3e
00000080: 7c9a 33be 7727 f23e ded1 f23e f168 cfbd
00000090: e1f0 ad3e e8df 0fbb f09f cf3e e46f d03e
000000a0: 0632 3abe 78e4 b53e 96a1 363d 04cf c23e
000000b0: e6c9 65bd 7c35 8b3e ab9a 8abe a153 56bd
000000c0: 3893 d93e 1367 8c3e 4063 18be b584 a93e
000000d0: 3f37 b1bb 5210 263e af43 4abe 45c6 363e
000000e0: 3eec da3e da94 9a3d 8470 863e 11e0 0ebe
000000f0: 7507 dfbd cf86 bc3e 5721 ca3e 1a89 b9bd
00000100: 2d92 923e b66e 8c3e ae1e 4cbd ca7a ba3e
00000110: 67cf c03c 1287 873d f645 ec3e a3ad 78be
00000120: a5b0 073e 7908 df3e 38c8 bd3e 210d 2e3e
00000130: ac8a 973e f67f e43e f651 a4be 6324 2d3e
00000140: 79ca dd3e 1d86 d33e e0bc 20be 5f4a c43e
00000150: 90a0 953e 550b 093e ea28 de3e c039 9fbc
00000160: 41e8 ba3e 0454 f1bd 0b60 9a3e 0aa3 e5bd
00000170: 9965 f13e 6b68 5d3e bf76 963e cacf 8a3e
00000180: 33bd 4dbe a688 d13e f9a8 9b3e de38 ef3e
00000190: d4dd bc3d 9f0b 29be 0800 93bd 3393 b23e
000001a0: 3139 a63d 5437 9cbd c25b 7f3e 41b7 a23e
000001b0: 80ed 6cbd 5fc9 d13e 9d9e 95be 9c54 fb3d
000001c0: 7e0c e13e bf0b 863c e5ef e53c 268c be3e
000001d0: 9448 87be 18f9 6ebe a479 19be 52a3 173e
000001e0: d64b 3bbb 189b d03e 9565 4d3d c120 01be
000001f0: 2064 2dbe 2566 eebd 8730 82bd d843 a03e
-0.16725072 -0.038910273 0.12747619 -0.18515901 -0.24336275 0.36347455 0.37779126 0.18718152
0.39801878 0.10984984 0.16492483 0.38425222 0.30039462 0.14457083 0.31890753 0.03326413
0.287865 0.55518067 -0.21902971 0.29882836 0.143004 0.14686334 -0.010007475 0.2651598
0.1585617 0.29879722 0.036261212 0.30343607 0.24494301 0.422552 0.11306806 0.21501155
-0.175394 0.47295734 0.4742574 -0.10127438 0.3397284 -0.0021953527 0.4055171 0.40710366
-0.18183145 0.3552587 0.044587694 0.38048565 -0.05610075 0.27189243 -0.27071127 -0.05232585
0.42495131 0.2742239 -0.14881611 0.3310906 -0.005408197 0.16217163 -0.19752382 0.17849071
0.42758363 0.075479224 0.26257718 -0.13952662 -0.10890094 0.368216 0.3947856 -0.09059353
0.28627148 0.27428216 -0.049833946 0.36421806 0.023536397 0.066175595 0.46147126 -0.24284987
0.13250978 0.43561152 0.37066817 0.16997196 0.29597986 0.44628876 -0.3209378 0.16908412
0.43318537 0.41313258 -0.1569705 0.3833799 0.29224062 0.13383229 0.4339059 -0.019436717
0.3650532 -0.11783603 0.301514 -0.11212738 0.47147825 0.21621864 0.2938747 0.27111655
-0.20091705 0.40924567 0.30402353 0.46723074 0.09221998 -0.1650834 -0.0717774 0.3487793
0.08116377 -0.076277405 0.24937347 0.31780437 -0.057843685 0.40973946 -0.29222575 0.12271997
0.43954843 0.016363023 0.028068492 0.372163 -0.2642256 -0.23337209 -0.14987808 0.14808396
-0.0028579137 0.40743327 0.050145704 -0.12610151 -0.16932726 -0.11640576 -0.06356912 0.3130176

fc2.weight f4 [128, 128]
00000000: 7234 51bc 4f86 c1bd 0d9a 203e 8e08 b3bd
00000010: cb09 dfbd 1ca9 713e adb1 803e c47c 623e
00000020: 82d9 e93d 8450 93bd 3275 583e 0942 b53e
00000030: 349f 883e 1330 553d cfe0 933d 7d7d b43d
00000040: 28d6 b83d fa32 a63e a814 2dbe 78f6 103e
00000050: 4e24 333e 3df5 583e 3109 eb3d c019 233e
00000060: dde4 7f3c 60a8 a93d 97b5 a33d 29ff 163e
00000070: 77ed a13e 89cc c23e 906f 1f3e 01e1 5c3e
00000080: c73d 47bd 9d5f a23e 2144 573e 4c47 a2bb
00000090: 530e b03e f8e8 863d e785 803e cf24 8d3d
000000a0: 8271 1dbe 8650 9c3e 341a e43c c7a8 8e3e
000000b0: 08df 95bd 7a70 703b 1e60 3ebd 795b 06bc
000000c0: 58cd 993e dad7 e73d 4e66 5abd ca60 543d
000000d0: 4839 523e 1992 163c 93c8 67bd 1452 023e
000000e0: 9eb2 413d 83c2 4238 55ab 083d 780d b53d
000000f0: bf90 793c 46d5 a63d 04d4 963e 8427 6a3e
00000100: 337d 943d f729 153d f45a 133e bf0a 603e
00000110: 132e 3f3d 0ab9 663d 264b 283e 1cc3 c23d
00000120: 7428 603d 1d94 e23d 5a37 113e 05c3 2d3e
00000130: 85c9 353e 9225 573e cc10 853d c69d b33d
00000140: cfeb ac3e 719b 7f3e f759 07be b173 513e
00000150: 8d8a 713e 2f2c 8f3d 1aae 8e3e dbff 173e
00000160: 2199 3a3d 2ff8 70be 32b6 813e ba2f 07be
00000170: 5554 9c3e dde6 d33d f9ca 5e3e 16ff b43e
00000180: 2c7e 78be 8c16 473e 9fd0 8b3d 93f5 843e
00000190: 5331 713e 2112 1bbd 5664 5c3e 8f42 df3d
000001a0: a263 553e f602 aa3d 609c 393a d716 b03d
000001b0: 4608 0d3d 2abf 543e 08fd d9bd 1019 283d
000001c0: 5887 8c3e 9b3e 0f3d 0b80 38be 59c8 de3d
000001d0: 3765 103e d405 cd3d abb3 ed3d 3ffb 373e
000001e0: ee98 1a3e efa3 1e3e aac1 c03d 4430 3a3d
000001f0: 20e0 0f3c 8181 c6bd b8c1 18be 03f1 1f3e
00000200: b1c4 c4bd 94b8 77bd 4f98 483e 419d 06be
00000210: 0d9c 95bd 1dd5 c23d 308b 4f3e d787 4d3e
00000220: 9649 1b3e 90a8 75bc 0085 d43d 36c7 ae3e
00000230: d2d6 a83d 9b0d e13d 7f12 c23c 9ee7 793d
00000240: 12aa 123e 8c9a 823e 6c05 d8bd d350 133e
00000250: e9f9 593e 9264 2f3e d8e4 3e3d 4c8c e03d
00000260: 4810 e1ba fc8c f73d 5dbc 333e 4944 1d3e
00000270: 3407 b03e 22a4 763e 9101 f83d 2346 3e3e
00000280: 7c0d 24be ef42 0e3e a68d 2e3e 851e 93bd
00000290: 2d92 7b3e 71b5 263c 3974 0f3e a670 233e
000002a0: 0ea5 18be 1c6b 313e 3dbb e13d cbc9 7e3e
000002b0: fc6e 1fbe e711 023e a665 1fbc 5194 7b3c
000002c0: 7e81 a63d 747c 373e 05ef 873d 6bb1 003e
000002d0: d56c 7b3c 971b 5a3d 791a bcbd 93e9 6d3c
000002e0: 478a 153e 44fd a53d 3f9d ea3d 10cc 013e
000002f0: b7ae 893c cabe 313e 839e 7f3e 8237 903d
00000300: 5f8c 0a3e 3e61 fe3d ec34 553e 542f 853e
00000310: e7fb 153e 6a4c 11bd fb36 fa3d 9ae7 e93d
00000320: 72af da3d bff3 1c3e f1a5 1b3d 3687 a63c
00000330: 670c 733d af3c e73d c492 a93d 4f2e 20bc
00000340: 6f3b 833e a953 c23d 23af 36be d4be d43d
00000350: ea0f 7d3e 83a8 0a3e 598b 2c3e 5a49 693e
00000360: d34b f63d 5946 57be 4d12 6a3e 02d4 5fbe
00000370: f4d3 7d3e df34 343e c395 c83d 1fd2 433e
00000380: 6eff 95be cfab 1f3e effa 213e 9f83 a63d
00000390: 2ffc 823e 4a13 deb9 6af7 623e e3d2 263e
000003a0: bad1 2d3e 7810 f73d 79e6 2fbc 83cb 1d3e
000003b0: 87af 52bd 969f f23d 0755 27be bf0c c83d
000003c0: 6ca2 213e 54a8 f33b 6193 cbbd d17a 863d
000003d0: aa7e 2e3e 049d ef3c c338 893b 5d04 003e
000003e0: 98bc b53d e31d 103e 6453 4c3e ac93 cd3d
000003f0: f0e0 e33c 2f64 49be dc57 40bc ffcb 293e
-0.012768852 -0.094494455 0.15683766 -0.08741866 -0.1089054 0.23599666 0.25135556 0.22117907
0.114184394 -0.071930915 0.21138456 0.35401943 0.26683962 0.0520478 0.07220613 0.088129975
0.09025222 0.32460767 -0.16902411 0.1415652 0.17494318 0.21187301 0.114763625 0.15927792
0.01561853 0.08284068 0.0799362 0.14745773 0.31626484 0.38046673 0.15569901 0.21570207
-0.0486429 0.31713572 0.21022083 -0.004952347 0.3438593 0.06587404 0.2510216 0.06891786
-0.15375331 0.30530185 0.027844526 0.27863142 -0.073179305 0.0036688135 -0.046478383 -0.00820052
0.30039477 0.11320467 -0.05332022 0.051850118 0.20529664 0.009190106 -0.056587767 0.12726623
0.047289483 4.6434358e-05 0.03336652 0.088404596 0.015232264 0.081461474 0.2945863 0.22866637
0.07250442 0.036416974 0.14390165 0.218791 0.0466748 0.05632881 0.16434917 0.095098704
0.05472608 0.110634066 0.14181271 0.16968925 0.17752655 0.21010426 0.064973444 0.08770327
0.33773658 0.2496164 -0.13217913 0.20454289 0.23588009 0.06990849 0.27867204 0.14843695
0.04555619 -0.23532175 0.25334316 -0.132018 0.3053309 0.10346768 0.21757115 0.35350865
-0.24266881 0.19442195 0.06826901 0.25968608 0.23553972 -0.037859086 0.2152265 0.10901367
0.20838788 0.08301346 0.00070804916 0.08598106 0.03443172 0.20776048 -0.10643965 0.041039526
0.2744701 0.034971815 -0.18017595 0.10878057 0.1410111 0.10010877 0.116065346 0.17966937
0.150974 0.15492223 0.094119385 0.045456186 0.008781463 -0.0969267 -0.14917648 0.15619282
-0.096078284 -0.06047876 0.19589351 -0.13145925 -0.07305155 0.095133044 0.2026794 0.2007135
0.1516479 -0.014993802 0.1037693 0.3413636 0.08244099 0.10988923 0.02369046 0.061011903
0.14322689 0.25508535 -0.10547909 0.143863 0.2128674 0.17128208 0.04660496 0.109642595
-0.001717099 0.120874375 0.17552324 0.1535808 0.34380496 0.24086049 0.12109674 0.18581443
-0.16020769 0.1389272 0.17046222 -0.071835555 0.2456748 0.010175095 0.14009179 0.1596094
-0.14906713 0.17326015 0.11022041 0.24881665 -0.15569681 0.12702142 -0.009728825 0.015355186
0.081301674 0.17918569 0.06637386 0.1256768 0.015345772 0.053248968 -0.09184737 0.01452102
0.1460353 0.08104947 0.114557736 0.126755 0.016806943 0.17357937 0.24962811 0.07041837
0.1353011 0.12420891 0.2082097 0.2601267 0.14646874 -0.035473265 0.12217518 0.114211276
0.10677995 0.15327357 0.03800005 0.020328145 0.059338 0.11290871 0.082799464 -0.009776666
0.25631282 0.09488613 -0.17840247 0.1038796 0.24713102 0.13540845 0.16850032 0.22781888
0.12026181 -0.21022929 0.22858544 -0.21858218 0.24787885 0.17598294 0.0979419 0.19123124
-0.2929644 0.15592884 0.1581838 0.081305735 0.25583026 -0.0004235751 0.22164693 0.16291384
0.16974536 0.12063688 -0.010736101 0.15409665 -0.051436927 0.11846845 -0.16341029 0.09768056
0.15784615 0.0074358378 -0.0994022 0.06566394 0.17040506 0.029249676 0.0041876747 0.12501664
0.08873862 0.14073901 0.19953686 0.10037932 0.02781722 -0.19667123 -0.011739697 0.16581725

fc2.bias f4 [128]
00000000: f389 6f3e f5e2 283e 172e 4cbd 2467 1e3e
00000010: c847 783e b187 863e 67de 1fbc ba8b 703e
00000020: 2e85 f9bb f745 d2bc 73f2 b8bd d414 383e
00000030: f430 8c3d 4cc9 7a3e 0a1c 143d 523f 603e
00000040: 4576 0b3e 1ea5 bcbd e78e fe3c 4fe2 1c3e
00000050: b26b c1bd 618b f53d 4340 fd3d 8db8 fdbd
00000060: 6cf6 c6bc 9f1d e73d f5a1 a0bd 8f94 453e
00000070: 8c35 1d3d 9738 493e 1713 473e d34e 713e
00000080: 45fd 103e afd5 983e d8b1 c93d a261 003d
00000090: f1d5 6e3d 2c5e 1a3e aff4 91bd d879 e53b
000000a0: 0db3 90bd 00fa 033d 042a 6cbd b298 bb3d
000000b0: 996e 34bb c03f 603d a0c2 cb3d 16c8 1e3d
000000c0: 55e6 4d3e 8c53 143e 02be 6e3e 67fb 4abc
000000d0: b6fc 343e b82c b63e eef3 69bd c796 883c
000000e0: c9ed b9bc d8c4 ca3d cf20 0c3e 06c1 84bc
000000f0: b038 b33d 4324 743e 08d3 1f3d 3d23 343e
00000100: b2c2 693e db44 f03d 6c40 b13b 7c2d cebd
00000110: 334e 45bc ea82 813d 0f7d 653e 46e3 613e
00000120: a745 8bbd 6f2e c5bc a4b8 463e ae14 1dbb
00000130: f133 4a3e e40e 3a3e af81 173e 0d89 8b3e
00000140: 4027 503e 944c 44bb 7dbe 8f3c 12a3 e9bd
00000150: 18a1 153e 3ba1 103c 7542 2a3e 811b 1cbd
00000160: cdcb 543e e53e dfbd d715 8a3e 5551 7a3e
00000170: bfa1 403d 1f11 223c 2ce0 cbbd 4826 4c3e
00000180: 9dab a1bd ab83 8b3e 7dba 723e 16a9 3cbd
00000190: ebb0 643d e937 ef3d 601d b33e fc07 acbd
000001a0: e29c 323e a4bd b83e a359 78bd dfca ccbd
000001b0: 7845 3a3e 8f8e 513e b1a1 bd3c 8a4b 793e
000001c0: c3d9 b93c 90ea 8b3d 0260 133e 0c95 95bd
000001d0: bceb 223e ce2a 913e 93f2 f93b 9b6d 9abd
000001e0: 2dc7 abbd 4420 053e 2ee3 8ebb 8826 8f3e
000001f0: b7eb 263e 55ce b3bd 711d 903b fe7c 0d3e
0.23392467 0.16492827 -0.049848642 0.15469033 0.24246132 0.262754 -0.009757615 0.23490801
-0.007614753 -0.025668127 -0.090306185 0.17976695 0.068452746 0.24490851 0.036159553 0.21899155
0.13619335 -0.09211181 0.031074 0.15320705 -0.094443694 0.11989475 0.123657726 -0.12388716
-0.024287425 0.11284947 -0.07843391 0.19294952 0.038381144 0.19650494 0.19440876 0.23565225
0.14159115 0.29850528 0.09848374 0.03134311 0.0583095 0.15074986 -0.07126748 0.0070030503
-0.07065401 0.03222084 -0.057657257 0.09159984 -0.0027531742 0.054748297 0.09949231 0.038765036
0.20107396 0.14484996 0.2331467 -0.012389041 0.17674527 0.35580993 -0.057117395 0.016673459
-0.022696393 0.09900826 0.1368439 -0.016205322 0.08751047 0.23841958 0.039019614 0.17591567
0.22828177 0.11731883 0.005409291 -0.10067269 -0.01204257 0.06323798 0.22410987 0.22059354
-0.068003945 -0.024069993 0.19406372 -0.0023968625 0.19746377 0.18169743 0.14795564 0.27253
0.20327473 -0.002995287 0.017546887 -0.11408056 0.14612234 0.008827503 0.16626914 -0.038112167
0.20780869 -0.10900668 0.26969787 0.24445088 0.047029253 0.009891777 -0.09954867 0.19936478
-0.07894061 0.27248892 0.23703952 -0.04605969 0.055832785 0.11680586 0.3498335 -0.083999604
0.17442659 0.36082184 -0.06063236 -0.09999632 0.18190563 0.20464538 0.02314839 0.24345222
0.022686845 0.068318486 0.14392093 -0.07303819 0.15910238 0.2835297 0.007627794 -0.07540437
-0.08387599 0.1300059 -0.004360578 0.27959085 0.16300856 -0.08779589 0.004398041 0.13817212

q1.weight f4 [1, 128]
00000000: 1f1d 963e bddd 503e 7e2a 61bf e240 2f3e
00000010: cb49 663e cfcf 4e3e 05d1 45bf 3af7 893e
00000020: 401a 27bf 38f9 8bbe 9439 a7be f360 8c3e
00000030: 29c2 46bf f19e 4f3e f46c 44bf 7e17 593e
00000040: 3f39 453e 96aa 10be 06a3 37bf 331e 913e
00000050: b02d 28bf 329f 763e 7239 653e 15aa 84be
00000060: 1b21 f1be 46e0 673e d77b dabe e00b 913e
00000070: af86 f5be 3ba5 7d3e 3413 653e b3a5 9d3e
00000080: a7a6 363e 2571 723e 0561 14bf a162 d0be
00000090: 5804 53bf cd0f 6d3e f33c 08bf ec08 c6be
000000a0: c3d5 29bf 6385 52bf 9007 c7be 259d 733e
000000b0: eed6 e9be 6673 13bf 171f 30bf 7762 f7bc
000000c0: 2282 5b3e 6d2c 503e 6461 813e f480 61bf
000000d0: dd77 7b3e 0a0f 803e 1d2a 08bf c073 47bf
000000e0: 0b82 f9be e933 09bf 4576 373e 8b87 26bf
000000f0: 5f10 1abf c9da 863e d397 56bd c830 873e
00000100: 3086 823e 1344 3a3e e49a 59bd 23f4 7abe
00000110: f7b5 afbe 6d14 3ebf edc0 553e 91d3 943e
00000120: 48d0 4cbc 569c 3bbf 78ca 883e 0f6a 25bf
00000130: 1642 6d3e 5bd4 3d3e c232 7b3e 6f26 a63e
00000140: ebf5 843e 1590 f8be 76e0 70be 9952 38be
00000150: d950 603e 4146 14bf 3d5d 6c3e 51d0 43bf
00000160: 62e1 463e c636 afbe 668e 4a3e 8450 6c3e
00000170: 0b47 3a3f 1de9 74bd 9525 9d3b fd23 5d3e
00000180: df45 aabe d1b2 323e ac44 613e 6ef4 14bf
00000190: 0667 4bbf a1f3 463e 923a 803e a4d7 f2be
000001a0: 8045 7f3e 84e2 833e 4758 12bf 37b9 4abe
000001b0: e9f5 6e3e e536 273e 716c cbbe 005d 5f3e
000001c0: a816 2fbf 4b68 48bf 4a92 463e 85e4 98be
000001d0: 136e 8c3e 6846 623e 079b 23bf 6a27 2cbf
000001e0: 5027 88bc 3dfd 693e ca58 5ebf 07fd 603e
000001f0: bf72 413e 08d9 94be 50d4 89be 47fb 753e
0.29319093 0.20397086 -0.8795546 0.17114595 0.22489087 0.2019646 -0.77272063 0.2694643
-0.6527443 -0.27338576 -0.32661116 0.27417716 -0.77640015 0.20275475 -0.7672875 0.21200368
0.19260119 -0.14127573 -0.7173313 0.28343353 -0.65694714 0.24084166 0.22385195 -0.25911012
-0.4709557 0.22644147 -0.42672607 0.28329372 -0.47954318 0.24770062 0.22370607 0.3079048
0.1783701 0.23675974 -0.5796054 -0.40700248 -0.82428503 0.23150559 -0.53218 -0.38678682
-0.663418 -0.8223478 -0.38872957 0.23790415 -0.4567179 -0.5759796 -0.6879744 -0.030198319
0.2143636 0.20329447 0.25269616 -0.8808739 0.24557443 0.25011474 -0.5318926 -0.77910995
-0.48732027 -0.53594834 0.1791621 -0.6505057 -0.6018123 0.26338795 -0.052390885 0.26404405
0.25493002 0.18190031 -0.05312623 -0.24507193 -0.34318516 -0.7424992 0.20874377 0.29067662
-0.01250083 -0.73285425 0.2671697 -0.6461496 0.23169741 0.18538038 0.24531081 0.32451198
0.2596887 -0.48547426 -0.23523125 -0.18000259 0.21905841 -0.579197 0.23082443 -0.7648974
0.19421914 -0.34221476 0.19780883 0.2307759 0.7276465 -0.059792627 0.00479574 0.2159576
-0.33256432 0.17451026 0.21998852 -0.5818547 -0.79454076 0.19428875 0.25044686 -0.47430146
0.24928856 0.25758755 -0.5716595 -0.19797216 0.23335995 0.16329534 -0.39731172 0.2181282
-0.68393946 -0.7828414 0.19391742 -0.29861847 0.2742773 0.2209717 -0.6390843 -0.6724764
-0.016620308 0.22850509 -0.8685423 0.21971522 0.18891428 -0.29071832 -0.26919794 0.24021636

fc3.weight f4 [128, 17]
00000000: e034 7e3e 422f 373e 5eeb aabd f07b fa3d
00000010: 346c 4cbc 4791 353e d942 6d3e 9396 6a3e
00000020: 8430 09be b4fd f9bd 725a 91be e099 c63c
00000030: ee96 a23d 9185 493e 9ecf 213e 18a5 053e
00000040: 37d5 83be 704d 10bd 4a9d 95be 1ec7 10be
00000050: e7c6 8d3d 7b18 f9bd b1b4 483e 53fd 88be
00000060: 3b20 843e ef44 74bd 28d3 993e ccbd 4abd
00000070: 8f3b c5bd 7947 713e 4362 1d3e 7d0e 74be
00000080: d697 30be d6a0 babe e587 1f3d 6af2 ea3d
00000090: daf8 05be eaf8 be3d 2b01 413e c3f0 ea3d
000000a0: f89e b73d 7eb9 ae3d 38a3 a83d 2eed 32be
000000b0: 8135 2bbe 514e 563e a551 303e 3511 563e
000000c0: d72d 2abd 3910 5bbe d58b 61be af97 c53d
000000d0: ff47 ce3c ea69 7d3e d779 623e 68fe a03d
000000e0: c3a1 5e3c 4651 48bd 7d10 a9bd fd23 6b3e
000000f0: 03ad c4bc c726 613e 6d49 ecbb b4d5 5d3c
00000100: 8c78 03be e7a2 833e d9d2 c43c 9b7a 41be
00000110: f323 1e3e f044 cdbd 81ad d23e 7fcc f23d
00000120: fdf7 6a3e d818 1fbd 1bba dfbd 8b76 92be
00000130: 9bce 0cbe 43b2 503e 9994 923d 213c 8dbe
00000140: 92e8 cfbe 313d cebe 7627 1abe bcf0 42be
00000150: cab5 1b3e 1f5b eabd 64e6 9fbd 834d 25be
00000160: 9a13 6b3e e03b 033e 4a78 863e c007 94bd
00000170: 30d2 34be 3f73 2b3e 8e71 48bc b08f d13e
00000180: 5737 e2bd 9e33 d0bc 0b78 c63e 7e06 b13e
00000190: b677 8cbd 65f1 82bd 98fb fa3c 0404 1c3e
000001a0: 43b8 64be 6218 023e 60d4 eebd fde6 d3bd
000001b0: 5608 b53d 239d 43ba 7239 65be bdcd 0f3c
000001c0: 6e24 273d a462 273e f7d9 903c 9dd0 00be
000001d0: 37f6 ffbd 6c7c 563e 0a58 76bd 50f6 0ebe
000001e0: bdcf 873e 5b8f 34be 281d 613e 5a5a 57bd
000001f0: 223e 58bc 4720 37be 24d6 22be f6bd af3d
00000200: 039f 1abe 7fcd f4bd e35f 5d3e 4103 87bc
00000210: fc13 05be 7c4d d2ba 7b0c b43d 8337 813e
00000220: 209e 5e3e f021 973e 074b b83d 556b 2c3e
00000230: d550 32ba f332 2b3d 0f38 1dbd e042 d4bc
00000240: 37f5 41bd 5c64 a3bd 1942 c1bb f5c8 273e
00000250: b27c 09be 2a68 99be 9f1b f33c 772f 2abe
00000260: 1b9e aabc b685 78be 9b5c af3d c8bf 2ebe
00000270: 5b01 2ebd 435e 313d cd6a 91bd 92b7 c9bd
00000280: 3318 5e3e af71 86be 8f5b 33bb b8c4 f6bd
00000290: 7ee6 323e 4380 ed3d 1044 fdbd b730 43be
000002a0: e053 3b3c 8b32 4dbe 5941 69be 014f cc3c
000002b0: 9752 37be aefe 9d3d fa69 e8bd 2fd4 2bbe
000002c0: 3b2d b7bd 22f0 5ebe b047 aabe 1425 3fbe
000002d0: a223 853e 4797 bcbd 6068 00bd 2374 ae3e
000002e0: e5b4 6abd 534f af3e 9380 d0be 9d00 773e
000002f0: f07f 5fbd 3a8f 53bd fffc 193e 069c 103e
00000300: fb9d c13d dc32 83be 1d34 1e3e 8337 0a3c
00000310: 4fa1 3e3e cea1 823e 47e4 7b3e f7e5 023e
00000320: 2f41 8b3d d9af b3bc a97f c5bc de3c 193e
00000330: e7f4 01be 6807 553d c661 e0bd 97f2 16be
00000340: 363a 4e3d bfd3 06be ddc8 fdbd 784b 433e
00000350: 4503 833e 4fd2 89be 11bd 66be 2cd0 ddbc
00000360: 465b cbbe dbee ab3d 8d8c 3e3d dd82 823d
00000370: 75d7 393d 2866 cf3d aa79 1a3d e22d fc3d
00000380: 6f12 0bbe f055 9d3d 0d99 753e b813 7d3e
00000390: 6887 12bd efd8 9a3d 3721 55be 74cc 4cbd
000003a0: ac0f 8d3c 9e9d 7a3e 1d43 7e3e f698 7e3e
000003b0: 04c4 a93e fbcc 1f3e e4e4 e93d 4ae3 663c
000003c0: a4bd 503e f96c 323e 23c3 f0bd df06 cebe
000003d0: 4a3d f53d f717 da3b b874 a03d dd76 90be
000003e0: 28ba 953e 0ac0 29bd 8883 8bbd e024 a4bd
000003f0: 1c89 a53c 39c4 143e 8032 413d 0800 603e
0.24824858 0.17889121 -0.08345674 0.122306705 -0.0124769695 0.177312 0.23170032 0.22909002
-0.13397413 -0.12206593 -0.28389317 0.024243295 0.07938944 0.19679858 0.15801856 0.1305126
-0.25748608 -0.0352301 -0.29221565 -0.14138457 0.06922703 -0.121628724 0.19600178 -0.2675577
0.2580584 -0.059636053 0.30043912 -0.04949741 -0.096305005 0.23562421 0.15369515 -0.23833652
-0.17245421 -0.36450833 0.03894796 0.11472018 -0.1308321 0.0932482 0.18848102 0.11471703
0.08965868 0.085314736 0.082342565 -0.1747329 -0.16719629 0.20928313 0.17218645 0.20905001
-0.041547623 -0.21392907 -0.22025998 0.09648072 0.025180815 0.24747434 0.2211679 0.07861024
0.013588372 -0.048905633 -0.08255098 0.22962947 -0.02400828 0.21987449 -0.0072109015 0.01353972
-0.12838954 0.25710222 0.024026321 -0.18894427 0.15443401 -0.100229144 0.41147998 0.11855411
0.22946163 -0.038842052 -0.10924169 -0.28606066 -0.13750689 0.20380501 0.07157249 -0.27584937
-0.40607125 -0.4028106 -0.15054116 -0.19037145 0.15206066 -0.11443161 -0.078076154 -0.1614285
0.22956696 0.12815809 0.26263648 -0.07228041 -0.17658305 0.16743182 -0.012234105 0.40929937
-0.110457115 -0.025415238 0.3876346 0.34575266 -0.068587705 -0.063936986 0.030637547 0.15235907
-0.22335915 0.12704614 -0.11661601 -0.10346792 0.088394806 -0.0007462075 -0.22385195 0.008777079
0.040806226 0.16346222 0.017682059 -0.1257958 -0.12498134 0.209459 -0.060142554 -0.13961148
0.2652568 -0.17632811 0.21983778 -0.0525764 -0.013198407 -0.17883407 -0.15902 0.08581154
-0.1509972 -0.11953258 0.21618609 -0.016481044 -0.12995905 -0.0016044821 0.08791443 0.25237665
0.21740007 0.2951808 0.08998685 0.16837819 -0.0006802206 0.041796636 -0.03838354 -0.025910795
-0.047352996 -0.079781264 -0.005897772 0.16385253 -0.13426474 -0.29962283 0.029676257 -0.16619669
-0.020827344 -0.24269757 0.08562585 -0.17065346 -0.04248176 0.043302786 -0.07100449 -0.098494664
0.21688919 -0.2625861 -0.0027367806 -0.1204924 0.17470738 0.115967296 -0.123664975 -0.19061552
0.011433572 -0.20038812 -0.22778834 0.024940016 -0.179026 0.07714592 -0.113483384 -0.1678016
-0.08944174 -0.21771291 -0.33257818 -0.18666488 0.26003748 -0.09208541 -0.03134954 0.3407298
-0.05730142 0.34240207 -0.40723094 0.24121328 -0.05456537 -0.051650263 0.15037917 0.14122018
0.094539605 -0.2562474 0.15449567 0.008436087 0.18616222 0.25514072 0.245988 0.12783037
0.06799542 -0.021934437 -0.024108725 0.14964625 -0.12691079 0.052009016 -0.10956149 -0.14740978
0.050348483 -0.13166712 -0.12391827 0.19071758 0.25588432 -0.26918265 -0.2253306 -0.027076803
-0.39718074 0.083951674 0.04652076 0.063726164 0.04537149 0.10126907 0.037713684 0.12313439
-0.1358125 0.07682407 0.23984165 0.24714553 -0.035773665 0.07560908 -0.20813452 -0.04999967
0.017219387 0.24474189 0.24830289 0.24863037 0.3315736 0.15605538 0.114206105 0.014092276
0.20384842 0.17424382 -0.117559694 -0.40239617 0.119745806 0.006655689 0.07834762 -0.28215685
0.29243588 -0.04144291 -0.06812197 -0.08014846 0.02020698 0.14527978 0.0471673 0.21875012

fc3.bias f4 [128]
00000000: 013a 25be 35f8 893e b4e0 ce3e a9c7 de3e
00000010: 7632 8f3b f23f 2dbe 4a52 e03e 9ba9 733e
00000020: 0d5e 8b3e 1332 673e 9055 ebbc 08d1 853e
00000030: 0b43 1cbe 12e9 463e a222 b63e e006 a73e
00000040: b94f 853e a0c3 ea3e 9b0a dd3e da72 6f3e
00000050: 7978 843e b915 d03d 30fe 4d3e adb2 e23e
00000060: 94ea 88bd 148e 183d f71b 2a3d 5eac c03e
00000070: f83e f43e 79e4 efbd 8c28 b0bc 76b0 853e
00000080: 3ee1 583d a0de ab3d 36bb 49be cfb1 e83b
00000090: 2816 0c3d 3273 0cbd 9f84 e73e 1f7b 3ebd
000000a0: f6ff a23b ff85 eb3d 6e0c 01be 02a7 253e
000000b0: 715a e53e 22d5 b43e 615e aa3e 0e0a f4bd
000000c0: bc9b b5bd 66ce c73e fb59 483e e857 cb3e
000000d0: 7052 443e 505d 16bd 7d00 fdbc c8f2 9b3e
000000e0: 4e28 21be 8144 c33e 35b4 d73e 37b3 413e
000000f0: 1f92 1fbe da5f d93e 682c a23e 3f90 ef3e
00000100: 9770 be3e c869 22be 5752 983e 8b1c e43e
00000110: 7a77 64be 03b8 8cbe e310 c63e 1ba8 e6bd
00000120: 7e83 55be 8206 663e 3419 96bd e9e4 cebb
00000130: dfdd 843e a9b1 c13e 0ac0 a33e 4026 9f3e
00000140: d1ae 0d3e 8c9d 64bd 05e1 e33e ca81 cf3e
00000150: 56ab d13d 5674 823e e36a b1bc c8b6 843e
00000160: a50f e93e 1198 8f3e f647 c03e f1d9 533c
00000170: 2ba2 9fbd 62f8 833d e636 4b3e 3098 9f3c
00000180: 4f38 c53e af71 303e 7d4b 74be ff64 623e
00000190: 1972 0bbe 5c3a 39bd 136b 4a3e cf79 053f
000001a0: 6f52 c03e e340 873e bb7e 7f3e 0541 a33e
000001b0: 9daa 5d3d 9500 60be 27e3 1cbe 9961 c33e
000001c0: b999 a93e ede0 a2be 6788 9f3e 9d24 37be
000001d0: 7806 b5bd 88ec 913d f1ca 683e d445 d73e
000001e0: 7227 31be 388d 513e 4112 29bd 6a23 06bc
000001f0: 0030 68bd ed23 a93e ad94 f4bd 7a2d e73e
-0.16135408 0.2694718 0.4040581 0.43511704 0.004370029 -0.16918924 0.43812782 0.23795168
0.27220193 0.22577696 -0.028727323 0.2613604 -0.1525995 0.19424847 0.35573298 0.32622433
0.26037386 0.45852375 0.43172154 0.23383656 0.25873163 0.10160393 0.20116496 0.44276944
-0.06685367 0.03724487 0.041530576 0.37631506 0.4770429 -0.117134996 -0.02150371 0.26111192
0.052949183 0.08392072 -0.19700322 0.0071012746 0.034200817 -0.034289546 0.4521837 -0.046504136
0.0049743606 0.11500167 -0.12602398 0.1617699 0.44795564 0.35318857 0.3327513 -0.1191598
-0.088675946 0.39024657 0.19565575 0.39715505 0.19172072 -0.036710083 -0.030884022 0.30458665
-0.15738031 0.38138202 0.42129675 0.18916021 -0.15583085 0.4245594 0.31674504 0.4678974
0.37195274 -0.15860665 0.2975032 0.44553027 -0.22311202 -0.2748414 0.3868476 -0.11262532
-0.20850942 0.2246342 -0.07329026 -0.0063139093 0.25950524 0.37830856 0.31982452 0.3108387
0.13836218 -0.05581431 0.44507614 0.4052871 0.10237758 0.25479382 -0.021657413 0.259207
0.45519748 0.28045705 0.37554902 0.012930379 -0.07794603 0.0644386 0.19845161 0.019481748
0.38519523 0.17230867 -0.23856921 0.2210884 -0.13617744 -0.04522167 0.19767408 0.5213899
0.37562892 0.26416692 0.24950688 0.31885543 0.054117788 -0.21875222 -0.15321027 0.381604
0.33125094 -0.3181223 0.31158754 -0.1788506 -0.088391244 0.07125193 0.22733666 0.42045462
-0.17300203 0.20464027 -0.041277174 -0.008187154 -0.0566864 0.33035222 -0.1194242 0.45151883

fc4.weight f4 [128, 128]
00000000: d23f ba3d 75ee 88be 1058 2dbe 3332 ef3d
00000010: 71d1 aa3b 37df 5c3e 54c9 073e 1b05 a73d
00000020: 1df8 013d ff59 5b3d 156a 3f3e 48f9 a83c
00000030: c3e5 5f3d ebbb 72bb 068e 223e 78b9 71bd
00000040: fdf0 343b 942d 4fbd 2c22 b13d f91a 78bd
00000050: ae48 22be 7616 103d db1e 423d 254b 49be
00000060: be52 a03e 43db a0bd 249b abbd 37e0 f0bb
00000070: 626a 66be b04a e2bd 16f0 10bd 47c6 8c3d
00000080: 53bd 39bc 1c71 48bd 21df 5fbe 5e39 513c
00000090: ab59 2f3e bef5 efbb 328d 98be 5815 1a3d
000000a0: 37b0 b9be 1b81 423a 46f2 a63d f5b0 743d
000000b0: c0ce 1fbe ad11 cb3d 548a ea3b 2f61 a0bc
000000c0: 90a9 1b3d 0460 19bd a52b d73b f8dc a2bd
000000d0: 07bc 3dbd dda2 b83e 34f8 52ba c0da 613d
000000e0: 9cdc 5abe e90d fbbd 9f40 88bd 925f 2b3e
000000f0: 2ba5 2abe 6a2a a5bb db4f 4f3d 44ef 0c3d
00000100: 67dd 473a 2954 78bd d394 fb3c cefd 5ebc
00000110: a2a1 093e 6206 8a3e bfd0 0a3d ef79 a13b
00000120: c6ea 3cbd ee0c 033d f458 b5bb 3385 92bd
00000130: 00db e43d 46d0 a8bc e9bc e93d 4855 4bbe
00000140: 5947 cfbb 5ee5 6bbe f2db 4c3d e678 ddbd
00000150: 7f1c aabd b87d 11be 4e32 4f3d e831 acbd
00000160: 6e24 e13d 3435 a8bd 0e6a 4c3a ec91 1b3e
00000170: 5a07 e8bd 239d 133e b195 853d 11f0 5a3d
00000180: 87c5 06be f8c9 d83b 6657 4fbe 0fd2 cb3c
00000190: 9e26 7abe 2180 c4bd b9fa d43c c271 6f3d
000001a0: d84b 093c c667 0ebd ac57 a83d 667a 0ebb
000001b0: 63ef d53b a100 c73c 7cc7 113d 17bb 02be
000001c0: f5dc b9ba 4c70 b73d bd2e 373e 84ea 4abe
000001d0: 5fcc 79bd 1494 5a3d 0962 353a 7a88 4f3c
000001e0: 7cc3 633e 8890 733d 573e e33d a57e 0a3e
000001f0: 7570 c63e ffdc 7e3d bd2b f4bd 8261 9d3d
00000200: fd5e dd3b 4ec2 153e d5f6 3a3d 7774 183e
00000210: ef9d 3c3d c644 14be 1bda 2d3e 2484 013c
00000220: 6060 f53d 6722 4a3e 0ead 103e f702 0a3d
00000230: 95ee 62bd cded db3d d13f 103e 7c3f 003e
00000240: a299 ef3d eabc 273e 7c2e 8e3e af71 743e
00000250: 92b4 e73d f6ec 9a3e fcd6 f03d dc02 883e
00000260: 320f 2dbd ca6d 103e 52d4 903d 3a00 093e
00000270: 936f 863e 8740 013e 74ab de3d 9753 d73d
00000280: 1103 ac3c 80b5 123d ee0d 17be 9623 eebd
00000290: a1f3 103d 01d9 ca3d 9b25 1f3e 44bd 12be
000002a0: 2530 ac3d 4657 013d 5381 0e3e fdc4 a83e
000002b0: 17e9 dc3d b55a 573e 0fb4 a63d 4963 e0bd
000002c0: c611 0c3e f535 d83d 2de6 b93d 6a34 973e
000002d0: 69f1 113e 7a92 c13d a670 ac3d ffda 353e
000002e0: 65b1 2ebe 6e92 003e 6ebc 103e 9630 0bbd
000002f0: 6c0b 5d3e 8043 7e3e 70ad d73d 0e2d f13d
00000300: 707a f93d 0a2c 4a3d ea77 d23d 7efb 323d
00000310: 21d6 31be 1d58 493e 2a34 ad3d 83a4 cc3d
00000320: f5cd 853d 9231 773d 7703 16be 1f1b b03c
00000330: 9a72 b53d 5097 8b3e 9e2d 0e3e 80bb 233e
00000340: 650e 183e b2db 2bbe 76fc 3e3e f1af e33d
00000350: 8142 143e 4eda 593e aa8c b13d 18f9 433e
00000360: a754 073e 77e7 00ba 0be3 2d3e df84 8f3d
00000370: d21e d8bd 3364 5c3d bfd6 1e3e 0f1c d73d
00000380: 6ed0 c93d c4a1 27bb ee1b 88be 9ed2 083e
00000390: 4723 f63d b099 39bd f167 ec3d f111 a63e
000003a0: e846 153e c547 293e 8988 113e 7ef6 4f3e
000003b0: b4e3 273d 0225 12be f3ef c33d ef44 893e
000003c0: e00f e93d 9b8e 09be e9ac 6f3d ce9c b6bd
000003d0: fe51 213e 17d5 193e fa65 a23d ab56 793e
000003e0: 3c2a 9abe c4bb 243e 3a17 913c 4751 0abd
000003f0: f0be 13be 8d3e 283c 69dc 8939 f74a 6a3e
0.09094204 -0.26744428 -0.16928124 0.116794966 0.0052129556 0.21569525 0.13260394 0.08155271
0.03173076 0.053552624 0.18692811 0.020626679 0.054662477 -0.0037038277 0.1587449 -0.059014767
0.002760946 -0.050580576 0.08649096 -0.060572598 -0.15848038 0.03517767 0.047392707 -0.19657572
0.31313127 -0.07854321 -0.083792 -0.0073509472 -0.2250152 -0.11049402 -0.035385214 0.06873756
-0.011336642 -0.048935995 -0.2186246 0.012770025 0.1712405 -0.007322996 -0.29795223 0.03761801
-0.36267254 0.0007419751 0.08151679 0.059739072 -0.15606213 0.09915481 0.0071576033 -0.01957759
0.038003504 -0.037445083 0.006566482 -0.07952303 -0.046321895 0.36061755 -0.00080478494 0.055140257
-0.21373218 -0.122585125 -0.066529505 0.16735676 -0.16664569 -0.0050404565 0.050613265 0.03440787
0.0007624239 -0.060627136 0.030710613 -0.013610316 0.13440564 0.26957995 0.033890482 0.0049278657
-0.046122335 0.031994753 -0.0055342857 -0.07154312 0.111745834 -0.020607125 0.11412985 -0.19856751
-0.006325644 -0.23036715 0.050014444 -0.10814075 -0.083062164 -0.14208114 0.050585084 -0.08407956
0.109932765 -0.08213273 0.0007797786 0.15192384 -0.11329527 0.14415412 0.06522692 0.0534516
-0.13161288 0.0066158734 -0.20248184 0.024880437 -0.24428794 -0.09594751 0.02599846 0.058458097
0.008379899 -0.034766935 0.08219847 -0.0021740436 0.0065287813 0.024292292 0.035590634 -0.12766682
-0.001418023 0.08956966 0.17888923 -0.19816023 -0.06098592 0.053363875 0.00069192104 0.012666816
0.2224254 0.059464008 0.11095875 0.13524874 0.38757673 0.062222477 -0.11922405 0.07684614
0.0067557083 0.14624903 0.045645554 0.14888178 0.046049055 -0.1447936 0.16977732 0.00790504
0.11981273 0.19739686 0.14128515 0.033694234 -0.05540331 0.10738716 0.14086844 0.12524217
0.11699225 0.16380659 0.2776984 0.23871492 0.11313738 0.30258912 0.11759755 0.26564682
-0.04225082 0.14104381 0.07071747 0.13378993 0.26257 0.12622271 0.10872546 0.1051399
0.020997556 0.035817623 -0.14751408 -0.11627881 0.035388593 0.099046715 0.15541689 -0.14330012
0.0840762 0.03157737 0.13916521 0.3296279 0.10786646 0.21030696 0.08139812 -0.10956437
0.13678655 0.105571665 0.09077106 0.29532176 0.14252247 0.09451766 0.084199235 0.17759322
-0.17059858 0.12555858 0.1413438 -0.033981882 0.21586388 0.24830437 0.105311275 0.117761716
0.12181556 0.049358405 0.10276778 0.043696873 -0.1736684 0.19662519 0.08457215 0.099923156
0.06533424 0.06035001 -0.14649759 0.021497307 0.08859749 0.2726388 0.13884589 0.15989494
0.14849241 -0.16783026 0.18650994 0.111175425 0.14478494 0.21274683 0.08669408 0.1913799
0.13215886 -0.00049173034 0.16981141 0.07007765 -0.105527535 0.053806495 0.15511607 0.105033986
0.09854208 -0.0025578598 -0.2658381 0.13361594 0.12018447 -0.045312583 0.11543263 0.32435563
0.1457783 0.16531284 0.1421224 0.20308873 0.04098864 -0.1427193 0.09567251 0.26810405
0.11379981 -0.13433306 0.05851451 -0.08916627 0.15753934 0.15022694 0.07929607 0.24349467
-0.30110347 0.16087252 0.01771127 -0.03376892 -0.14428306 0.0102688195 0.00026294895 0.2288016

fc4.bias f4 [128]
00000000: 7890 093c 89a5 5d3e 6067 d83d 349f b4bd
00000010: 9df0 dc3d 9c12 693e 06eb 053d 51e3 d1bc
00000020: 20a9 2c3e 6e28 743e 2066 80bd 3e82 7e3e
00000030: cac3 5c3e fb3c aabd 5921 d1bd 2def 83bd
00000040: 2939 f23d cbd6 1abd c805 603e a93d 7b3e
00000050: 3c32 583d 4881 dfbd cb56 73bd 4f10 c03c
00000060: 043e 883e 2b74 2abc 7f07 abbc a9ea 2c3e
00000070: 18c1 3d3e a5f5 4d3e 285e 253e 4a4d 6d3e
00000080: 4d1b 893e 0014 8a3d 8db4 0f3e 48a1 73bd
00000090: 5693 04bd 0a98 763e 9c6f 2f3e 6ffb 6e3e
000000a0: 9c31 bcbc c6e3 b3bd 090a 403e 39d4 453d
000000b0: 3da2 273e 32c4 79bb 02df 383c ee24 763d
000000c0: 83a5 f73d 7071 2d3e c9ed 783d bd84 c83d
000000d0: 331a 7b3d 6c69 253e 59df b6bd 0fc5 943e
000000e0: c8d6 4f3d 7ddb dfbc 3ff2 8d3e f11d 113e
000000f0: 879a cb3d 60d1 833d e5a4 02bd 278f 153e
00000100: b330 173d a81c 5fbd c4eb 683c 40fa 473e
00000110: e90f 42bd 90f1 953e a9f4 cfbc 2be1 7c3e
00000120: b5ec 8cbd 2382 223e 485d 013e 2946 273e
00000130: 104b a3bd a310 0ebd dc78 81bd efb1 793d
00000140: 8708 b7bd 395a 6c3e ca52 673e 3f6f b03c
00000150: 1bbc 883e daa5 6d3e 3589 503e 9cbb 273e
00000160: 4aa4 893e 98aa 2a3e ac1b 28bd 6971 1bbc
00000170: fb91 6f3e 5460 5d3e 078d 27bb 6ed9 473e
00000180: 6715 1c3d 78e7 4d3e 8913 9bbd 452b 4b3d
00000190: 6663 94bd 0a5e abbd cb96 3d3e 2024 34bd
000001a0: 76e0 dc3d aa8b 443e fcfc 713e c862 8c3e
000001b0: d97f a43d d3a6 2ebd 9c2e 293e d48d 41bd
000001c0: affc f3bd 2805 f13b 550e c3bd 2167 433e
000001d0: dece 213c 9564 88bb c489 a83b e7b9 debc
000001e0: 5ff9 5c3d 4e90 3c3e 6f91 38bd 2c36 123e
000001f0: e011 733e da08 fe3d 6aef 963e 95c9 353e
0.00839626 0.21645178 0.10566592 -0.08819428 0.10788081 0.22761005 0.03269484 -0.025621088
0.16861391 0.23843548 -0.06269479 0.24854371 0.21559063 -0.08312412 -0.10211439 -0.064421035
0.11827309 -0.0378025 0.21877205 0.2453524 0.052782282 -0.1091333 -0.059408944 0.023445277
0.26609814 -0.010403673 -0.020877598 0.16886391 0.1853069 0.20113237 0.16149199 0.23174015
0.2677864 0.06742096 0.14033718 -0.05947998 -0.032367073 0.24081436 0.1713242 0.23338102
-0.022972874 -0.08783679 0.18753828 0.048298094 0.16370483 -0.0038111326 0.011283638 0.060093813
0.12092116 0.16937804 0.060773645 0.09790943 0.061304282 0.16153497 -0.08929319 0.29056594
0.05074194 -0.02732634 0.27723882 0.14171578 0.09941583 0.064364195 -0.031895537 0.1460539
0.036911678 -0.054470688 0.014216367 0.19529057 -0.047378454 0.2928586 -0.025385218 0.2469527
-0.06881086 0.15869956 0.1263324 0.16335358 -0.079733014 -0.034683835 -0.0632188 0.060960706
-0.08937173 0.23081292 0.22590175 0.021537421 0.26706013 0.23207799 0.2036484 0.16380161
0.26883155 0.16666639 -0.041042015 -0.009487488 0.23395531 0.21618778 -0.0025566237 0.19516537
0.03810635 0.2010783 -0.075720854 0.049601812 -0.07245521 -0.08367546 0.18514554 -0.043979764
0.10785 0.19193903 0.23631662 0.27419114 0.080321975 -0.042639565 0.16521686 -0.0472544
-0.1191343 0.007355351 -0.09524218 0.1908231 0.009875981 -0.004162381 0.005143376 -0.027188255
0.053948756 0.18414423 -0.04506057 0.14278477 0.23737288 0.12404032 0.29479533 0.17752679

q2.weight f4 [1, 128]
00000000: 9c1c 9abe 14f6 5e3e d78a 943e 19a4 afbe
00000010: 065d 6bbf 371b 8a3e bd8c 2ebf 0b26 56bf
00000020: 4419 4e3e 42d2 843e 4bc0 29bf a84e 8f3e
00000030: fad1 2e3e 923f 20bf 3f30 ffbe 40c4 6fbe
00000040: 707f 6a3e 7423 f9be 4213 723e 17fc a63e
00000050: 2cbe 87bd 1ba2 05bf cd24 eabe 2167 5abf
00000060: 35ba 633e c065 2abf f717 3ebf f116 7d3e
00000070: c137 3d3e 9c74 5f3e a757 803e 0226 733e
00000080: 3588 3e3e a14b 44bd 5533 753e 69f1 9dbd
00000090: a6f1 31bf 5849 633e 3821 823e 8487 513e
000000a0: 59d0 ddbe a98e 2bbb 78b9 653e 9e5f fdbe
000000b0: 4ddf 943e a6d8 a6be 4782 12bf 4570 79bf
000000c0: 9802 3d3e 5257 323e 8ad7 02bf 1067 08bf
000000d0: 4449 f9be 4619 8d3e cc4e 1dbf 8b9e 4a3e
000000e0: e30e a2be eee1 d2be b04d 5a3e dd3d 6c3e
000000f0: 9831 873e bf28 38bf 4d9d adbe 9387 3c3e
00000100: e5b4 f5bc a4a0 18bf adac 56bf fab2 3e3e
00000110: 48c4 a1bd c13f 453e eeee 63bf 6b24 6d3e
00000120: 10b5 02bf b5a0 b13e 0472 473e 9f84 7e3e
00000130: 5389 2abf 196e d0be 0d0d 233e 22c0 29bf
00000140: cef3 56be 7b95 633e bd54 813e 9647 17bf
00000150: 5809 3f3e 69da 443e 486a 773e f144 753e
00000160: c446 7b3e 7260 8a3e bee5 eabe 87d7 b1be
00000170: 4a4a a73e e6e6 6a3e 54ec bebe 829b 6b3e
00000180: 206a 62bf 9297 743e bbfd 76bd 6106 53bf
00000190: ff47 97be 0859 14bf 223f 513e 4b2e 2bbf
000001a0: bcaa 3a3e d66b 6c3e 99a2 893e 0122 393e
000001b0: 0dc1 7fbf 0c26 e0be 1708 383e 067f c1be
000001c0: d23a 10bf 6b5c 0abf 888c a0be b4aa 373e
000001d0: b334 ebbe eca3 21bf 4459 83be a1c6 1dbf
000001e0: 2061 c4be aafd 4e3e e4fb 03bf c735 8c3e
000001f0: e71a 823e 6f9e 793e 6035 4e3e 8206 443e
-0.30099952 0.21773559 0.29012176 -0.34304884 -0.9193882 0.26973888 -0.681835 -0.836518
0.20126826 0.25941664 -0.6630904 0.27989697 0.17072287 -0.62597 -0.49841496 -0.23414707
0.22900176 -0.4865986 0.23640159 0.32614204 -0.06628069 -0.5220048 -0.45731202 -0.8531361
0.22239001 -0.6656151 -0.7425532 0.24715783 0.184783 0.21821827 0.25066873 0.23744968
0.18606646 -0.047923688 0.23945363 -0.07712061 -0.6950935 0.22195947 0.2541597 0.20461851
-0.4332302 -0.0026177561 0.22434032 -0.49487013 0.29076615 -0.32587165 -0.5723004 -0.97436935
0.1845802 0.17416123 -0.51110137 -0.5328226 -0.4868871 0.27558345 -0.6144836 0.19787042
-0.31651983 -0.41187996 0.21318698 0.23070474 0.26405025 -0.71937174 -0.33909073 0.18411092
-0.029993484 -0.5962012 -0.8385723 0.18622962 -0.07898766 0.19262601 -0.8903645 0.23158424
-0.5105753 0.34692922 0.19477087 0.24855278 -0.6661579 -0.40708998 0.15922947 -0.66308796
-0.20991442 0.22224991 0.25259963 -0.59093606 0.18655908 0.19223942 0.24161637 0.2395208
0.24538714 0.27026707 -0.45878404 -0.34734747 0.32673866 0.22939643 -0.3728968 0.2300854
-0.88443184 0.23885944 -0.06030057 -0.8243161 -0.29547116 -0.5794835 0.2043424 -0.6686751
0.18229192 0.23088011 0.26881865 0.18079378 -0.9990395 -0.43779027 0.17971836 -0.37792224
-0.5633975 -0.5404727 -0.31357217 0.17936212 -0.45938644 -0.6314075 -0.25654042 -0.6163121
-0.3835535 0.20213953 -0.5155623 0.2738478 0.2541115 0.24376844 0.20137548 0.19143108
