resource/multi_run_experiment_20250319_111011/run_5/sac_actor_30000.pth (torch, 80607 bytes, 8 tensors)

fc1.weight f4 [128, 12]
00000000: c922 32be f07d 03bf 7e3c 2bbe 10a4 cf3d
00000010: 4f7d 433e bda8 a8be 8567 c5be 898a 503e
00000020: 3ce1 9bbd e9cf 3f3e ca6f 443e b130 a83d
00000030: e141 d4be 7cb6 90be 1cc8 073e c080 0cbe
00000040: 250b f5bd ef95 2ebe 0eda b9bc 21e5 93be
00000050: 656b 4d3c f57a 3d3e 9183 36be e40a bdbd
00000060: 9503 62bd 07a0 ce3d 08e0 6cbd ebf0 abbe
00000070: 37f0 debe e847 5f3d 1924 3e3e 2688 15be
00000080: ce78 113a af04 1cbe 3c9b 97bb 213a b9bd
00000090: e8fc 34be 6130 ccbd 1ac3 fcbb e142 9b3d
000000a0: 2254 a33c 4653 c13e c8a6 a33e 7568 b6be
000000b0: dce4 9a3e 2c2a b3bd c7a4 8fbd c9cc d7be
000000c0: b753 aebe ec3d 353e b7da 92be 0160 85be
000000d0: aadd 29be b0c5 be3e 5157 2f3e 3110 8dbd
000000e0: 5e5c 18be 47e4 083e aa66 c43d 505d 9dbe
000000f0: 7c6f 0ebe 9ecc d0bd 2bb3 59be e0bb 833d
00000100: 721f dfbe 5c60 f93c b7b0 7abe f7ae 4f3e
00000110: b6c4 71bc bc46 e33e 1acf 4c3e 5c52 0abc
00000120: f3c5 8cbe ae6a 44be 9342 54be 4282 cabe
00000130: 3f9c 5cbe 425f ec3e 90b2 633d c1e9 81be
00000140: 834d 48bd ba5a f5bd a67d 19be ded2 f1bd
00000150: 63f4 1e3e 8ba2 2d3e 66e1 ff3d eb8c 693e
00000160: 5ba3 34bd 91e8 f1bd 9aff 00be 767f a03d
00000170: 3e5c 3c3e a3ad 783e 07bd c93e b412 ebb9
00000180: 9d2f e03d 3898 8ebe 28de 133e e1aa 973e
00000190: 03b1 eebc 8da5 8cbe 9482 8abe d043 b6bd
000001a0: fc22 82be 1548 e43d b651 503e ce11 3b3e
000001b0: cc99 a5be bd7f cabe 862d 9dbd 7eb8 d43c
000001c0: e3f6 0abf be4f 5c3e 13ca 7abd 2b29 babd
000001d0: 6807 f9bb ed9b 88bd fcd8 18be aeab c33e
000001e0: 60bd 7abc 22b0 2f3e 207d 9cbd 874f 2ebe
000001f0: 40db 363c 7a8c 91be f27e 30be 97f4 72be
00000200: 244a d5bd 84d2 703e da1a 233e 7bf7 2bbe
00000210: c362 3fbe 5600 f5be 48bd da3d 29de 233e
00000220: 020f da3d 078a d9be a33c 8d3e 1a46 de3d
00000230: 4c37 60be c439 703e 5d93 0ebd ee82 a83e
00000240: 10a6 f43d 93ed ffbe 1c3b 78bd 391a 1b3e
00000250: 7358 67bd 7d93 9f3e 6fbd f43c c3b9 8ebe
00000260: ef88 493d cc88 d2be ec39 2fbe 5188 56be
00000270: 3e14 92be b084 00bd b339 c13e e344 913e
00000280: 97f2 6e3e 91ac 0a3e e7a9 be3e b710 343e
00000290: 0ca9 89be 2b0e 97be 49bd 55be deec 14be
000002a0: 4924 133e 6dab cabe cb86 38be 817c 35bc
000002b0: 351c 34be 5ad5 053e e8c5 d43d 153a 90be
000002c0: 218a 99be 3021 c73d 6cdc 3c3e af54 183d
000002d0: b358 ddbe d683 813e 248d 38be 8aac 743e
000002e0: 2970 5d3e 34af 963c 8b02 e73d 9e22 87bd
000002f0: a4d2 a2be 18f9 443e 57f7 27bd 5df0 a03e
00000300: f695 cdbd 2eb3 003e 0813 3b3e 7a76 273e
00000310: 6dff c13c 82f2 383e f0b2 03bf 3ae4 8b3e
00000320: b1df 82bc cad9 f7be 1c14 ad3e ddda 95be
00000330: 70fd 3f3e 680d ca3d 94f4 98bd d974 84be
00000340: 11ce 173e 4a9b 0f3e c8ca 7cbe 7a61 7bbd
00000350: dd53 c0bd d1fc 423e cad6 26bd d223 bbbc
00000360: 4d4c 52be bf87 d6bc 439d bb3e a118 67bc
00000370: 41e1 ea3d d6db c5be c040 ad3e bcc7 873e
00000380: 8ed1 52bc ea7f 683d f7b1 54bd a560 ae3d
00000390: 8019 62bd 3c39 34bd 22d4 6cbe 0feb 6abe
000003a0: 136f f0be 33a7 07bd 9c1a 90bd f946 99be
000003b0: 4015 edbd 8ac5 9c3e 5b59 5f3d 957b 0a3d
000003c0: 5342 d23d 1162 243e 2416 b23d 55b0 39be
000003d0: 3258 adbc 3d30 dbbd 9c88 d1be 4986 7cbe
000003e0: 6f8b dc3d 948c b9be 2ee9 663e eb9e 5d3e
000003f0: 4aac 953d 93a8 7a3e 4c8a 18be b643 4bbe
-0.17396082 -0.5136404 -0.16722295 0.10138714 0.1909077 -0.32941237 -0.38555542 0.20365347
-0.076113194 0.18731655 0.19183269 0.08212412 -0.41456512 -0.28264225 0.1325993 -0.13720989
-0.11965016 -0.17049383 -0.022686984 -0.2888575 0.012537812 0.18503936 -0.17823626 -0.09230593
-0.055179197 0.100891165 -0.05783084 -0.33582243 -0.43542644 0.054511935 0.18568458 -0.14602718
0.00055493123 -0.15236162 -0.0046266597 -0.0904429 -0.17674601 -0.09970165 -0.0077136876 0.075811155
0.019937579 0.37758845 0.31963181 -0.3562657 0.3025273 -0.08748278 -0.07013851 -0.42148426
-0.34048244 0.17699403 -0.2868249 -0.26049808 -0.16588464 0.372602 0.17123152 -0.06887854
-0.14878985 0.13368331 0.09589894 -0.30735254 -0.13909715 -0.10195278 -0.21259753 0.06432319
-0.43578678 0.030441456 -0.24481474 0.20281588 -0.014756372 0.44389904 0.20000878 -0.008442488
-0.27494773 -0.1918132 -0.20728521 -0.39552504 -0.21543978 0.46166426 0.055590212 -0.25373653
-0.048902046 -0.11980195 -0.14989337 -0.11807798 0.15522914 0.16956536 0.12494163 0.22807662
-0.0441011 -0.11811937 -0.12597504 0.07836811 0.18394563 0.24284987 0.3940203 -0.00044836628
0.109465815 -0.2785051 0.14440215 0.29622558 -0.02913714 -0.27470055 -0.27052748 -0.08899653
-0.25417316 0.11146561 0.2034367 0.1826851 -0.323439 -0.39550582 -0.076746985 0.025966879
-0.5428297 0.21514794 -0.06122787 -0.090898834 -0.00759976 -0.066703655 -0.14926523 0.3821692
-0.01530394 0.17157033 -0.07641053 -0.17022525 0.011160672 -0.28427488 -0.17235926 -0.23726116
-0.10414532 0.23517805 0.15928212 -0.16793625 -0.18690018 -0.4785182 0.10680634 0.16002716
0.10647394 -0.4248812 0.27585325 0.108532146 -0.21896094 0.23459536 -0.034808505 0.3291239
0.119457364 -0.49985942 -0.060603246 0.15146722 -0.056480836 0.31167212 0.029875485 -0.278761
0.049202856 -0.41119993 -0.17111939 -0.20950438 -0.2853107 -0.03137654 0.37739334 0.2837287
0.23334728 0.13542391 0.37239 0.17584501 -0.26886785 -0.29502997 -0.20872988 -0.14543483
0.1436931 -0.39583912 -0.1802017 -0.011077047 -0.17588885 0.13069668 0.1038931 -0.28169313
-0.29988196 0.09723127 0.1844346 0.037190136 -0.43231735 0.25295895 -0.18022591 0.23893943
0.21624817 0.01839409 0.11279782 -0.065983996 -0.3180133 0.19235647 -0.041007366 0.31433383
-0.100383684 0.12568352 0.18268979 0.16353789 0.023681367 0.1806126 -0.5144491 0.2732256
-0.015975805 -0.48408347 0.33804405 -0.29268542 0.18749022 0.09865838 -0.074685246 -0.25870398
0.14824702 0.14024082 -0.2468673 -0.061372258 -0.09390996 0.19041754 -0.040732183 -0.022844229
-0.20536919 -0.026187776 0.3664342 -0.014104993 0.11468745 -0.38644284 0.33838463 0.26519573
-0.012867345 0.056762613 -0.051927533 0.08514527 -0.0552001 -0.043999895 -0.23127797 -0.2294123
-0.46959743 -0.033118438 -0.07036325 -0.2993696 -0.11576319 0.3061946 0.054528575 0.033809263
0.102665566 0.16053034 0.08695629 -0.18133672 -0.021160219 -0.1070256 -0.40924537 -0.246606
0.10768782 -0.36240065 0.22549888 0.21642654 0.07308252 0.24478368 -0.14896506 -0.19850048

fc1.bias f4 [128]
00000000: edd1 843e c6f4 d53d 068f fe3d befa fdbd
00000010: 1413 f7bd e151 01be 62be 483d 3270 c9bd
00000020: e0d4 083d 9fd3 823e 1e4b 84be a639 dabb
00000030: 9661 863d 5cf1 713d 7ba4 203d 995f 193d
00000040: 5f30 82bb 6483 55bc 13ad 38bd 5f75 7f3e
00000050: 4967 ed3a 203d 2fbe 9c3c ad3d c178 84ba
00000060: 2625 803c 550e aabd ce5d ad3c d272 b7be
00000070: 3e91 90be d9d8 c13c 6198 07bd a7a7 693e
00000080: bbce 05bd 49a7 b5bd cf20 263e 8e3b 19be
00000090: 5cd1 a4bc 99ed 91be c482 a13c 7470 ee3d
000000a0: d091 8b3e 8887 f1bd 1999 86bd 4b6b 623b
000000b0: 6d12 8dbe df4d 173e 8118 633e 3c92 393e
000000c0: 10c6 923e 8723 5cbe 6976 003d 3441 453e
000000d0: d695 8d3d 68ef 72bd 2fbc 6cba 79b3 223e
000000e0: 26b5 9fbd 425c cb3d 3e47 fabc 614d 923e
000000f0: eff3 c83d ab26 3d3d 7806 353d f7fb 003e
00000100: dd89 75be b0fc 813e dd1b fabd 8017 a43d
00000110: e2e7 b23d 4e70 fbbd 0ea5 67bb 4a67 003e
00000120: 65b4 bb3d ef1e ecba 9b09 22bc b2c1 babc
00000130: 6bb7 c4be 4bea febd ef50 e6bd 557a 24be
00000140: bf8c 27bc 1d20 8bbe b02b 20be 1838 82bd
00000150: 63e0 023e 3992 ab3d dd51 6ebd 420a 87bd
00000160: bf78 0a3c ffdf 853e 7c0c 4ebe 70ed c6bd
00000170: cc61 f43d 2a37 64be 5186 27bd 90bd a83e
00000180: 4e76 823e 0c68 4f3e 2a5f cabd 1f66 08be
00000190: 4653 b1bd c920 003e 33c2 60be efc8 ae3d
000001a0: 4c1e 213d 2176 413e 131a 8ebe b419 0abe
000001b0: edd1 0fbe bc0a 92bd 1d74 683d ec26 da3d
000001c0: c426 333d aab8 fa3c bec4 62bc 12b5 a13d
000001d0: a912 1a3e 643d 81bd cb5a 6e3d 4da6 a5bc
000001e0: 3a93 c5bd f5cc d93d 18a5 8cbd f3f3 b93d
000001f0: 5273 e4bc b7b2 d53d 2aa0 34be 42d9 fbbc
0.2594141 0.104470775 0.12429623 -0.12401341 -0.12064186 -0.1262889 0.04900969 -0.09835853
0.03340614 0.2555208 -0.2583856 -0.0066597043 0.06561582 0.05906807 0.03921936 0.037444685
-0.0039730514 -0.013031814 -0.04508693 0.24947117 0.0018112446 -0.17113161 0.08458826 -0.0010106788
0.015642714 -0.08303515 0.021162894 -0.35829788 -0.2823581 0.023662971 -0.033104304 0.2281786
-0.032667857 -0.08869798 0.16223453 -0.14964125 -0.020119362 -0.28501585 0.019715674 0.116425425
0.27259684 -0.11793429 -0.0657217 0.0034548815 -0.2755312 0.14775799 0.22177316 0.1812219
0.28666735 -0.21497928 0.031362925 0.19263154 0.069133446 -0.059310347 -0.0009030727 0.15888776
-0.07798223 0.09929706 -0.030551549 0.2857466 0.09812152 0.046179455 0.044195622 0.12596117
-0.23978372 0.25388098 -0.12212346 0.08012295 0.087356344 -0.1227728 -0.0035346183 0.12539402
0.09165267 -0.001801459 -0.009889985 -0.02279744 -0.38421187 -0.124470316 -0.112459056 -0.16062291
-0.010226428 -0.27172938 -0.15641665 -0.06358355 0.12780909 0.08377499 -0.05818354 -0.065937534
0.00845164 0.26147458 -0.2012195 -0.09713256 0.11932716 -0.22286668 -0.04089958 0.32957125
0.25480884 0.20254534 -0.09881432 -0.13320206 -0.08658461 0.12512507 -0.21949081 0.08534419
0.039335534 0.18892719 -0.27754268 -0.13486367 -0.14044924 -0.07130954 0.05675136 0.10651955
0.04373814 0.030605633 -0.013840852 0.078958645 0.15046181 -0.063105375 0.058192056 -0.0202209
-0.09647222 0.106347956 -0.06867427 0.09079733 -0.02788702 0.10434478 -0.17639223 -0.030743245

fc2.weight f4 [128, 128]
00000000: 06c0 d93d 632f 60bd 0412 65bd e3f0 a2bd
00000010: 09c4 1d3e 77e1 87bd df40 1c3b 6254 59be
00000020: 3277 4c3c 68b9 9bbc 8482 cbbc f5d8 5dbe
00000030: 6e2a a4bd 162f 8bbe 4c00 15bd 4cb4 3f3c
00000040: 6c77 f0bd b223 403d ec53 0abe 0b36 ab3d
00000050: cc33 06bd 51b6 8dbe 4e78 aabd 53ed 3cbe
00000060: 7e8e 2e3d 4440 003e a8a7 bb3b df1a 9ebd
00000070: ef28 98bd 7fcb 423c 94e5 d1bd 833a 0d3e
00000080: 5f9c b3bd 9d49 7a3d 0240 07be d7ed d2bd
00000090: 8e23 da3c 500a 94bc 4d17 ccbc 892c 06be
000000a0: 1194 26bc 8fa3 f3bd c8f0 103e 14ac 2c3d
000000b0: f7cb 40bc 0fc8 dbbd 30aa b7bd ce87 cabd
000000c0: 6e2e f9bc 6562 1ebd 5bde debd 3507 e43c
000000d0: 3007 fabc 256f adbc d157 5c3d 7bd7 35be
000000e0: 241c 503d ba86 e33c b24f b5bd 31d5 8fbd
000000f0: 7a6a 07be 9798 8c3d 03f6 923c d648 1dbe
00000100: cfba 73bd 7fe3 89bd 3a40 18be 5389 2abb
00000110: 3d04 44bc 5425 6a3d 915f 7dbd 8742 94bc
00000120: f27b 1fbd 1c24 88bd 825f 64bd 6835 24be
00000130: 1fd9 a2bc 1490 1ebe ec05 a63c 365c 89bc
00000140: c57e e6bc 67f2 653d 2b03 92bd fe42 09bd
00000150: ce8d a83d bd31 28bd 68f4 1e3c 3347 66bd
00000160: 2868 1f3d 44d1 a63c 2770 06be bcb4 4ebd
00000170: 061d a9bd ac53 53bd 5e15 3fbe d193 b4bd
00000180: f024 2fbb 5704 b3bd 68c5 04be 5495 edbd
00000190: d115 c63d 4975 f2bd e7a1 7cbe 2996 88be
000001a0: be92 213c e464 92bd 9c3a 8d3c 677b 79bc
000001b0: 3c0b c93c 55ee 80bc ad45 38bd 564e 263c
000001c0: baf6 b1bd 7276 f0bc f3c4 ebbd 6ef4 d4bd
000001d0: 54ba 7f3d 1f1a 93bd 18ab 65bd 6056 46bd
000001e0: e806 1d3d fb75 90ba 8e68 00be 20d0 76bd
000001f0: cfad 3e3c 44db 2bbc f9d8 aebb fc94 2bbe
00000200: 834d aabd 3f72 d5bc 9974 adbd 17d0 8dbd
00000210: b5d7 2bbe cafb 76bb 9862 36be 017f 0ebd
00000220: 4062 e53c 82dd 003e c0cc 45bc 151b 23be
00000230: 155d 2e3d b608 463b 8fea ed3b 6e09 b9bc
00000240: a520 0c3e 8b87 8fbc 83e3 51be 9858 223c
00000250: fb81 b23c 07df 7dbd 3f15 a9bc af9d 4ebe
00000260: a951 1ebd 186a 70be f954 5d3a df6c 533d
00000270: d07a bcbc 3c22 e2bd 3695 4bbd 36df 95be
00000280: 0ee8 15bd 3d0b 483c a10c 15be 450e 3dbe
00000290: e098 5fbe 7267 a6bc c57d 3ebc 3071 9f3b
000002a0: c530 37bd 0c99 30be 9701 ebbd a8cf f63c
000002b0: 6f32 f03d faea 843c 3911 ae3c 469e 3a3d
000002c0: c696 8cbc 14bd 5dba 1a0a 2ebc a8b9 babd
000002d0: 7735 7cbe 4885 d53d 7dc7 38be 03cb cabd
000002e0: 52e4 633d 3b16 b93d ca41 033e e7c7 17be
000002f0: 32e1 723d 1829 423c 8906 bebd 1868 e33d
00000300: f58f 8a3d e6e0 04be ef07 723e 15f9 a43d
00000310: 5663 e03d f35d 8c3d 549e a7bd 68f6 dc3d
00000320: 90e8 e8bd 2caf 573d dfef 05be 1063 c33d
00000330: ac94 e03c 88ea 62be 2afe 0cbe 814d 253e
00000340: 7574 49be 9c27 8abe a29a ab3d 49e9 19be
00000350: 187d 2cbe 8e36 4f3d faf3 8ebe ae7e 013e
00000360: 8192 e53d c87f cb3c 6f45 593d 500d 86bd
00000370: 2ce9 48be ce50 373e c260 cdbc 7207 7dbe
00000380: 4f1f 7a3c 6225 aabc 2a78 6cbe 1a28 0bbd
00000390: d15d 473d 69cb cabd 1a53 bf3d bf6b be3c
000003a0: 72ff 973e f699 5f3d 1fb7 8c3d 948d bebd
000003b0: 9837 403e e063 59be f77b 80bd b41f 72bd
000003c0: ea01 5dbd fad1 a5be 5e21 d0bb fd27 9a3d
000003d0: b9aa 253e 66d7 04bd b4f9 3b3e 1a32 20be
000003e0: 80e2 843d 4aa4 f2bd 4c88 9bbd 4cc1 d7bd
000003f0: 43e9 0f3d 5820 32bd 1110 843b b61c f03d
0.10632329 -0.05473269 -0.055925384 -0.07956102 0.15406813 -0.06634801 0.0023842377 -0.21223596
0.01247959 -0.019009307 -0.024842508 -0.21664794 -0.08015905 -0.2718436 -0.036377236 0.011700701
-0.11741528 0.04690904 -0.13508576 0.08359917 -0.03276424 -0.2767816 -0.083237275 -0.18449907
0.04261636 0.12524515 0.0057267733 -0.07719969 -0.074296825 0.011889338 -0.10248867 0.13791852
-0.0877006 0.06110536 -0.13208011 -0.102992706 0.026628282 -0.018071324 -0.024913454 -0.13102926
-0.010167138 -0.11896431 0.14154351 0.042156294 -0.011767379 -0.107315175 -0.089680076 -0.09889184
-0.030417647 -0.038668055 -0.10882255 0.027835468 -0.030521005 -0.021171162 0.053794686 -0.1775798
0.050808087 0.027774204 -0.08853091 -0.07023085 -0.13224211 0.06865042 0.017939573 -0.15359816
-0.059504326 -0.067328446 -0.1486825 -0.0026021793 -0.011963901 0.057164505 -0.061858717 -0.018098129
-0.038936563 -0.06647512 -0.055755146 -0.16035998 -0.019878922 -0.15484649 0.020266496 -0.016767602
-0.02813662 0.056139376 -0.071295105 -0.033511154 0.08230172 -0.04106306 0.009701826 -0.056220245
0.03891769 0.020363458 -0.1312872 -0.05046533 -0.08257489 -0.051593468 -0.18660495 -0.08817256
-0.0026724897 -0.08741062 -0.1296593 -0.11600748 0.0967213 -0.118387766 -0.24671136 -0.26677063
0.009861646 -0.071481496 0.017239861 -0.015227175 0.02454149 -0.015738646 -0.044988323 0.010150513
-0.086896375 -0.029353354 -0.115121745 -0.10398184 0.062433556 -0.071827166 -0.05607137 -0.048422217
0.038336664 -0.0011021489 -0.12539884 -0.060257077 0.011638119 -0.010489289 -0.0053359237 -0.16756052
-0.083155654 -0.026055453 -0.08469505 -0.069244556 -0.16781504 -0.00376867 -0.17811048 -0.03478909
0.02800095 0.12584499 -0.012072742 -0.159283 0.04256924 0.0030217594 0.0072606276 -0.022587504
0.13684328 -0.017520687 -0.20496945 0.009908818 0.021790495 -0.061980274 -0.020640014 -0.20177339
-0.038652096 -0.23477972 0.0008443143 0.0516175 -0.02300778 -0.11041686 -0.049702846 -0.2927186
-0.036598258 0.012209711 -0.14555599 -0.18462475 -0.21835661 -0.020312998 -0.0116266655 0.004865788
-0.044724245 -0.17245883 -0.114749126 0.030128315 0.117283694 0.016225327 0.021248447 0.045561098
-0.017161738 -0.0008458656 -0.010622526 -0.09117442 -0.2462977 0.10425812 -0.18044849 -0.09902003
0.055637665 0.09037443 0.12818065 -0.1482235 0.059296794 0.011850618 -0.0927859 0.11103839
0.06765739 -0.12976417 0.23635839 0.08055321 0.10956447 0.06853857 -0.081844956 0.10789186
-0.11372483 0.05265729 -0.13079785 0.09540379 0.027414642 -0.22159779 -0.13768831 0.16142847
-0.19673331 -0.26983345 0.08379103 -0.15030397 -0.16844594 0.050589137 -0.27920514 0.1264598
0.11209584 0.024841204 0.053044733 -0.06545508 -0.19620198 0.17901918 -0.025070552 -0.24709871
0.015266254 -0.020769779 -0.23092714 -0.03397379 0.048673455 -0.09902079 0.09342022 0.023244737
0.29687077 0.054590188 0.06870865 -0.09304348 0.18771207 -0.21229506 -0.062736444 -0.059112266
-0.053956904 -0.32386762 -0.006351634 0.075271584 0.16178407 -0.032431982 0.18356973 -0.15644112
0.06488514 -0.11847742 -0.07594356 -0.10534915 0.035134565 -0.043487877 0.0040302356 0.11724226

fc2.bias f4 [128]
00000000: 4a30 c3bc 718c a2bd 8929 12bd 5241 993b
00000010: 9ffe 8d3d 92d0 103d 5b28 e03c 7010 0abd
00000020: 994a 323d 16ef e83a 16d7 35bd 070c 97bc
00000030: cc39 993c 55e1 15bd a4bd f5bc 1895 c93c
00000040: 11ba 25bd c92c 05bc cdb7 89bc 48d7 a53d
00000050: 69de a43d cc29 8dbd aa31 afbd ff6d 12be
00000060: 51a3 14be 713d 94bd 3618 f93c 1a20 fb3c
00000070: ad04 17be 6399 62bb 7883 323d 20c9 66bd
00000080: f029 d9bd 6fff 5fbd eaf8 2bbd 4027 92bd
00000090: 7d08 973c a095 daba 1b2b 79bd f000 573d
000000a0: 4729 b53d 5c1a 853c 43b8 be3c c74c ef3b
000000b0: 0f6e 9c3c 6e89 b23c 6f07 8cbd 4fb7 073d
000000c0: 330c d53d fb00 6dbd d885 bfbd 0dc1 46bd
000000d0: 79cb e6bd 2927 093e 6469 e4bc 2806 b13d
000000e0: b075 4c3a ef49 96bd 5c41 cf3d 407f 463d
000000f0: ef63 ff3d cdc0 3fbc 2760 933d 7f71 0cbd
00000100: 486e 1fbd c8b5 1d3d 182c 2cbd 6062 a33d
00000110: bc27 fa3d b9a7 ddbd 9700 ac3c b6c5 2a3d
00000120: 2a8c 533d f340 f9bd b32b 903d fb3b 13bd
00000130: 8b1d 86bc 204c e23c 3230 90bd 9d3b 4b3c
00000140: 1a04 5a3d f91b 7ebd bfeb 34bc 249c 5cbd
00000150: 32bb 6e3d 442d 58bd 01b6 c53d 9440 863d
00000160: 8936 553d b41b 143d 8233 64bc 9784 a7bd
00000170: 54dc 8f3d 7586 7c3b 0d2c d03c 24a9 8cbc
00000180: cd0d cbbd 9919 3b3c 55d1 73bd ac00 4bbd
00000190: 3ca0 dfbd 535c 033d 5234 3f3d a0e3 b13d
000001a0: 5ca3 8abd c87d b93d 1e9a dd3c 4016 a93d
000001b0: 105f a93d 9a75 bbbd 26bb 0d3d c0db 8bbd
000001c0: a850 32bc 9158 a7bc 6245 d8bc aaf5 873d
000001d0: 7b14 bebc 2df9 803d 784c ddbd ffef 9a3d
000001e0: 2896 76bc 2666 0fbd ee57 64bd b8e4 e2bd
000001f0: c546 56bd 453b fc3c aaf9 273d 8904 5abd
-0.023826737 -0.07936943 -0.035684142 0.0046769762 0.06933331 0.03535516 0.027362993 -0.033707082
0.043528173 0.0017771448 -0.044394575 -0.018438352 0.018704318 -0.036591846 -0.029997654 0.024607226
-0.04046065 -0.008128353 -0.016811276 0.08097702 0.08050234 -0.06892738 -0.085543945 -0.14299773
-0.14515425 -0.072382815 0.030407052 0.030654956 -0.14747877 -0.003457629 0.04358241 -0.05634415
-0.10603702 -0.05468696 -0.04198543 -0.071363926 0.018436665 -0.0016676672 -0.060832124 0.05249113
0.08845764 0.01624792 0.023281222 0.0073028537 0.019095449 0.021794047 -0.06837355 0.0331338
0.104027174 -0.057862263 -0.093517005 -0.04852395 -0.11269278 0.13393845 -0.027882285 0.08643752
0.0007799519 -0.073383205 0.10119888 0.0484612 0.12470233 -0.011703682 0.07196074 -0.034287926
-0.03892353 0.03850344 -0.04203424 0.07977748 0.1221461 -0.10823006 0.020996375 0.041692458
0.051647343 -0.12170591 0.07039585 -0.035945874 -0.016371509 0.02762419 -0.070404425 0.01240435
0.053226568 -0.062038396 -0.011042534 -0.053859845 0.058283992 -0.052777544 0.09653855 0.06555286
0.052053962 0.036159232 -0.013928296 -0.081795864 0.07024446 0.003853229 0.02541163 -0.017170496
-0.09914742 0.011419677 -0.059525806 -0.049561188 -0.10919234 0.03207047 0.046680756 0.08685994
-0.067694396 0.09057194 0.027051028 0.08256197 0.08270085 -0.0915329 0.034602307 -0.06829023
-0.010883488 -0.020427974 -0.026400272 0.066386536 -0.023203125 0.062975265 -0.10805601 0.07565307
-0.0150504485 -0.035009526 -0.05574792 -0.11078781 -0.052313585 0.03078998 0.041009583 -0.05322698

mu.weight f4 [5, 128]
00000000: bde2 4dbd c39a 26bd 1ea6 85bd 42a0 febd
00000010: e924 61be 86d3 473c 0f8c 4f3e ac3b 8e3d
00000020: 605e cfbb f583 643e 9883 5c3e fcc9 a0bd
00000030: 676b 923d 42e0 2abe 30a9 8fbd bd76 57be
00000040: 0797 033e 33e4 b4bd b160 6c3d bcbe f13d
00000050: a461 80be a2b0 813d 6f29 693e 47f6 363d
00000060: 303e ecbd df26 11be 97c6 ebbd c732 6ebd
00000070: 77bb 433e 3ee2 1d3e ba4a 70bd 346a 91be
00000080: ecd2 203d 242d ad3c c32e 413d 7128 6cbe
00000090: 5dd0 9ebd 380f d5bd 6a47 173d c1b8 c13e
000000a0: 8b3e dbbd ba7e 533e 6d1c b4bc cc44 a3bd
000000b0: 1af0 313e ea0f a7bd b7ed 3bbe 2a4c d2bd
000000c0: 131b 6d3e e8f2 ddbd f2fd 0ebe 79b7 4dbe
000000d0: 72bc ae3d 774b 013e dae3 773d b1fe c4bd
000000e0: 707e d5bd 1f74 efbd c7b7 f6bd 294d cd3c
000000f0: 8d2d bb3d b107 873e 62a3 423e 3a5d 383b
00000100: 0e14 15bd ba5b 8bbe fdcd 56bd 79f9 b73e
00000110: 57a2 7d3e feaa 84bd cd05 0e3e 9e85 80be
00000120: afa6 4cbe e1e0 953d fafb 7a3d c068 8bbc
00000130: cb9b 043e c647 073d 14b6 41be a701 30bd
00000140: e5d7 cfbd 68bd 52be 6b9c 27be c62b d8bc
00000150: 1e80 2a3e 4071 45bc 25b6 4b3e befa 893d
00000160: 6da5 073e 536a 273d d3e0 43bd 28a5 823d
00000170: 1964 313e 9966 683c 282f e43d e4db 0cbe
00000180: 1b32 333e 96ed b03d 3ed1 573e be0f 323d
00000190: 5c0b ad3d 8aae c4bc 545b ab3c cc31 19be
000001a0: 2598 923d 05ac c1bd 69e9 15be 7309 b63b
000001b0: 0b75 b73e 5f2d 78be 5f63 1b3e 7b01 913d
000001c0: 8394 283e 0335 07be 1805 ccbc 5def 6ebd
000001d0: 1f67 f13c 3f57 55bd dfaa 603d 34eb 423d
000001e0: 5fcb 183e 50d1 4537 cdfa f33b f9a0 20bd
000001f0: fbbd 0d3e 1695 c0bc 4e97 babc e44b 17be
00000200: 393b 043e 3a7e a7bd d30b bfbc 6e11 983e
00000210: ea73 ffbd 2dae 16bd c2de 7dbe a2e0 e83c
00000220: d98c 30be c29c 6e3c 5f67 363e 0683 253d
00000230: e42f 00be b71c 5dbd ea78 ba3d 33e7 92be
00000240: f657 a93e 4105 2b3e bda6 573e 1046 7fbb
00000250: d146 473d f91f 593d 584d d0bd b75f d9bc
00000260: 0508 94be 2fe3 213e 9d32 9dbd b6f2 09be
00000270: b653 82bd 8a6c 9b3d 11eb fabd b96a 233d
00000280: 0a00 8ebd d648 5a3d a8c9 963d f6c0 d63d
00000290: 6665 ccbd 2739 98bd ed65 bc3c cd3b dc3c
000002a0: 5983 e63d d155 8fbc ee28 89bd 114d a0bd
000002b0: c37b 743e 8f43 703c 356e 7b3d af2d 0dbe
000002c0: 86f4 febd ade6 21be 7221 db3c da89 143d
000002d0: 4422 fbbd 3235 8ebd 2737 813d b3ca 843e
000002e0: 1268 203e ad35 f6bc a4d2 863e 4dba ccbd
000002f0: 555e 92bd 3a0e 2f3e 8319 bc3d f958 20bd
00000300: f896 c23d e0d5 5b3e ef4a 033c 9c3c d23d
00000310: f6fb 023e 9f89 47be 93ac 8bbe 486e a6be
00000320: c9f1 d8bd c468 4a3e c9a6 6dbc cce4 c0bb
00000330: c323 85bc a6ae 14be e812 3cbe 2c95 c83b
00000340: 893e c6bd 742a 0f3e 74ae 61be 42f8 f53c
00000350: 72ad 1e3d 6510 623e 9700 d5bd 30a9 203d
00000360: 9cbb 7cbc a7b0 953b 9d5a b53d 3a66 a2bd
00000370: 4076 eabd ea59 bd3d 522c e2bd 360a 18be
00000380: 322e 4ebe b462 b33d c875 86bd 59b6 0fbe
00000390: aeba 08be 916a bd3c 9a73 6a3e d54c 8fbd
000003a0: dc3f 25be 7e6c bbbd 86bc 0f3e 22a7 d2bd
000003b0: 3ed2 b93d b5c6 233e fae9 f93d ecce 863d
000003c0: 8ff7 1b3d 01b8 d7bc 056a 063c 272d b23c
000003d0: c4f7 3c3d d7bf 393d adb4 81bd 526c 43be
000003e0: 9f24 29bc b0f7 923d 26e9 373d 1c52 e6bd
000003f0: f209 75be c890 00bc 8a68 09be 0f4a bf3e
-0.050265063 -0.040674936 -0.06525825 -0.124329105 -0.21986736 0.012196427 0.20268272 0.06944975
-0.006328389 0.22315963 0.21534574 -0.078510255 0.071493916 -0.1668711 -0.07014692 -0.21041389
0.12850581 -0.08832588 0.0577094 0.11803958 -0.25074494 0.06332518 0.22769712 0.044668462
-0.11535299 -0.14174984 -0.115124874 -0.058153894 0.19114481 0.15418336 -0.058665015 -0.2840134
0.03926365 0.021139689 0.047163736 -0.23062302 -0.07754586 -0.10403293 0.03693334 0.3783627
-0.107052885 0.20653811 -0.02198621 -0.07972106 0.17376748 -0.08157332 -0.183524 -0.102684334
0.23154859 -0.10837346 -0.1396406 -0.2008952 0.08532037 0.12626444 0.06052003 -0.09618891
-0.10424507 -0.1169207 -0.120467715 0.025061207 0.091395475 0.26373056 0.19007638 0.002813174
-0.03639608 -0.2721842 -0.05244254 0.3593252 0.24768959 -0.06477927 0.138694 -0.25101942
-0.1998546 0.07318283 0.06127546 -0.017017722 0.12950055 0.033027433 -0.18917114 -0.042970326
-0.101486005 -0.20580065 -0.16368262 -0.02638806 0.16650435 -0.012050927 0.19893701 0.067372784
0.13246699 0.040872883 -0.04782183 0.06379157 0.1732334 0.014184617 0.11141807 -0.13755757
0.17499582 0.08639066 0.21075913 0.043472044 0.08449432 -0.024009008 0.020917572 -0.14960402
0.071579255 -0.09456638 -0.1463982 0.0055553257 0.35831484 -0.24236058 0.15174626 0.070803605
0.16462903 -0.13203816 -0.024904773 -0.058333743 0.029468117 -0.052085157 0.054850455 0.04758759
0.1492133 1.1790849e-05 0.0074456693 -0.039216015 0.13842003 -0.02350859 -0.022777226 -0.14775044
0.12913217 -0.08178373 -0.023321068 0.29700798 -0.12473281 -0.0367872 -0.24792007 0.028427426
-0.17241229 0.014563741 0.1781287 0.040408157 -0.12518269 -0.053982463 0.09105094 -0.28692016
0.3307492 0.16701223 0.210597 -0.0038951673 0.04865152 0.053009007 -0.10171002 -0.026534898
-0.28912368 0.1580932 -0.07675669 -0.13471493 -0.06363623 0.075890616 -0.122518666 0.0398967
-0.06933601 0.053292118 0.073626816 0.10486023 -0.09980278 -0.07432776 0.02299782 0.026883984
0.11255521 -0.017496975 -0.0669726 -0.07827199 0.23875336 0.014664545 0.0613844 -0.13786958
-0.12448983 -0.15810652 0.026749346 0.036264278 -0.12262395 -0.0694374 0.063093476 0.25935897
0.156647 -0.030054891 0.2633258 -0.099964716 -0.07146899 0.17095271 0.091845535 -0.03914735
0.09501451 0.21468306 0.008013471 0.102654666 0.12791428 -0.19486092 -0.272801 -0.32506013
-0.10592992 0.19766527 -0.014505097 -0.0058866497 -0.016252404 -0.14519748 -0.18366587 0.0061212983
-0.096798964 0.13981038 -0.22039205 0.030025605 0.03873963 0.22076567 -0.10400503 0.03922385
-0.015425589 0.0045681777 0.08855174 -0.079296544 -0.11448336 0.09245665 -0.1104361 -0.14847645
-0.2013481 0.087590605 -0.06565434 -0.14034404 -0.13352463 0.023122104 0.22895661 -0.069970764
-0.16137642 -0.091515526 0.1403676 -0.10285784 0.09073304 0.1599377 0.122028306 0.06582436
0.038077887 -0.026332857 0.008203988 0.021750046 0.046134725 0.04534897 -0.06333289 -0.1908429
-0.010323673 0.07176149 0.044900082 -0.1124613 -0.23929575 -0.007847019 -0.13418785 0.3736119

mu.bias f4 [5]
00000000: cd9b 9bbd 69d3 cfbc 2fd9 fcbc 10fc 8dbc
00000010: 0a0f 293e
-0.07598076 -0.025369363 -0.03086528 -0.017332107 0.16509643

log_std.weight f4 [5, 128]
00000000: 43e0 01bd 31c8 603d 9fcc 0d3e 1344 35bd
00000010: f4d4 1b3d 01a8 1e3d 8b16 d0bb 9437 e6bd
00000020: 75cf e7bd 1507 fcbd 908e 273d 9927 80bd
00000030: 123c 93bd 6397 293e 2a10 42bc cabb 33be
00000040: 07b0 21be 3a4a 133c 9e47 81bd 0e09 f3bc
00000050: 4fb1 5cbe a452 80bd 372a d53d d7b6 813c
00000060: cff4 b03d 1bd5 7b3d f610 27be a62f 22be
00000070: 53cc 443e e00d 37bd fc0d c4bd aad8 0bbd
00000080: 4f8a cf3c 6218 0c3e 5101 76bd e0f0 00be
00000090: 72bd 233c 24fc 483d cead b0bc 1af7 eb3d
000000a0: b6ec 95bd 2993 37be d456 24bd 6510 1abe
000000b0: 8f0b afbc d620 e5bd 0112 663c f210 30be
000000c0: f3ff a43d 612e b0bd bade 81bc 3d14 f0bc
000000d0: 82aa 63bd 8753 d3bd f3a6 34be a0a4 eabd
000000e0: 6646 c63c 9a23 233e acd6 3bbe dffc f53d
000000f0: 0929 86bc ce1c dd3d d765 f8bd 0f1d b3be
00000100: 11df c0bd 397c 1f3e affe 7d3c e75f 6d3c
00000110: 1835 f43c ef3f 59be b8ae 87bc c626 9abd
00000120: d031 e73b e8cd 3937 23bc 5cbe 9130 8bbd
00000130: ab39 8fbd 71c4 803c 2f8b a6bd 5936 893d
00000140: e671 f3bd 236f c5bd 7daf bb3a 8f3c 2fbb
00000150: 7519 9f3c d066 323c 78b2 92bd c2b5 9cbd
00000160: 7ad2 0e3e 8f9c a3bc a602 3fbc 35bb 433c
00000170: 420c 1c3d d766 523d d34e 06be 883c 9d3c
00000180: e030 06bd b30b 2c3d 72c7 90bd 1de9 94bd
00000190: c88f 093d 8759 8fbe 93a0 1cbe c6e0 dfbc
000001a0: f96d 2c3d ef2b 253d 0b63 49be db52 a4bd
000001b0: 53fa ee3c 1be4 81bc 7c7e 2c3d eefe 73bd
000001c0: fcf8 bebc 1d54 adbd 17f9 19bd 2371 963d
000001d0: 90a4 ec3c 9542 17be d3b2 bb3c 4f04 063c
000001e0: cb58 953d aad5 87bd 1300 563b fcfa 24be
000001f0: f19f adbd 3ff2 d3bd 395f 17be 3f3b 093e
00000200: 1d8f e43b 521b dcbd 8cc7 533d 4cee 303d
00000210: c120 9a3d 4b52 c53d b445 e1bd 6c1f 223d
00000220: 70c3 91bc 468f d13c c0c3 3ebd 4b76 983d
00000230: a60f f6bc 04c9 cdbd 5115 21be 3478 febd
00000240: 0c2a 60bd a3bb 75bd c9c0 dcbd 0fbb 4ebe
00000250: 70b7 0dbe e3b6 b0bc cb3f 89bc 7e03 7c3d
00000260: be45 c03d 3523 fe3c 897b 4bbe d23c 3fbe
00000270: 1fc6 1c3d 3ff4 ffbc ad16 21bd cb72 12bd
00000280: ed67 993c 64ac 78bd be66 8fbc 7b25 48bd
00000290: 0be9 aebc a21c 43be c07a 48bd bf00 c7bb
000002a0: f524 aa3d 716c 11be 1983 523d 27a0 a93d
000002b0: a1e7 08be a0a9 aabd e213 56bd d9d1 bdbd
000002c0: 0825 5bbe 6e52 8bbd 2252 19bd 15a1 07be
000002d0: 677c c1bd 7be3 49be ff34 d3bd a4bd 10bd
000002e0: 13f9 a73d f252 65bc 4098 86be 424c bebd
000002f0: e9dc 36be bd7e 93be 1e50 ec3c 854e c0bc
00000300: 359d 21be 3e6c e33d eb7d 92bc 68b2 7bbd
00000310: a2f4 1fbe 172c 6cbc f2cc 923d 8c81 ec37
00000320: a0af 203d b935 0c3e 4924 54be 5629 9b3d
00000330: e774 2cbd 2f96 893d bf89 3bbd c847 eebd
00000340: 02bf 8db8 10d0 8ebd 38e7 753e 4f0b 9bbd
00000350: d930 e0bd 0f85 c3bb eec6 6e3c 1721 783d
00000360: d83f abbd 34cc 0cbd 1464 c83c b160 183d
00000370: c0df 7dbe d751 663d 8647 103e 5864 823c
00000380: 7a2d 5e3c 17b8 ddbc e36d 03be 65db 7f3b
00000390: dbbd 0f3e 19d9 f63d dd80 7bbd 97fe 553d
000003a0: bb5c d2bd f8c2 b73d b570 823d 6e9e 40bd
000003b0: 2e31 56bd 3b31 bfbc 7ebf 34bd d367 9c3c
000003c0: 8aba 0f3d 0025 e2bd b22c 133d 8a03 473d
000003d0: f4fd 33bc c6e6 59be 4b52 26bd fa55 0d3e
000003e0: 272e 6dbd 8af7 9cbd fdd0 9c3d ea0e 0d3e
000003f0: 7739 2a3e 84c6 183a 1156 f23d bd9d 123c
-0.031708013 0.054878417 0.13847588 -0.044254374 0.038044885 0.03873444 -0.0063503436 -0.112410694
-0.11318866 -0.12306038 0.040907443 -0.06257553 -0.07189192 0.16561656 -0.011844674 -0.17552105
-0.15789805 0.008989865 -0.06312488 -0.029667404 -0.21552013 -0.062657624 0.104084425 0.015834255
0.086404435 0.06148253 -0.16315064 -0.15838489 0.19218569 -0.044690967 -0.0957298 -0.034142174
0.025334505 0.13681176 -0.06005985 -0.12591887 0.009993898 0.049068585 -0.021567252 0.1152174
-0.0732054 -0.17927231 -0.04012187 -0.15045317 -0.021367816 -0.111879036 0.014042378 -0.17193964
0.08056631 -0.08602596 -0.015853275 -0.029306525 -0.05558253 -0.10318666 -0.17641811 -0.11457181
0.02420349 0.1593155 -0.1834361 0.12011122 -0.016376989 0.1079651 -0.121287994 -0.34983107
-0.094175465 0.15574731 0.015502616 0.014488197 0.029810473 -0.21215795 -0.016562805 -0.07526927
0.0070554987 1.1074801e-05 -0.21556143 -0.06796373 -0.06993421 0.01571867 -0.08132016 0.06699819
-0.11886959 -0.09640338 0.0014319267 -0.0026738977 0.019421319 0.01088877 -0.071629465 -0.07651855
0.13947478 -0.019972114 -0.011658346 0.011946489 0.038097627 0.051367607 -0.13116007 0.019193903
-0.032761455 0.042003345 -0.07069291 -0.07271025 0.033584386 -0.2799799 -0.15295629 -0.02732886
0.042097066 0.0403251 -0.19666688 -0.08023616 0.029172098 -0.01585584 0.042112812 -0.05956929
-0.023312084 -0.08463309 -0.037591066 0.07345798 0.028887063 -0.14771493 0.022912418 0.008179738
0.072923265 -0.0663255 0.0032653853 -0.16111368 -0.08477772 -0.10348939 -0.14782418 0.13401507
0.0069750682 -0.107473984 0.051703975 0.043196008 0.075257786 0.09634837 -0.10999623 0.039580747
-0.017793387 0.025581013 -0.0465734 0.074444376 -0.030036759 -0.10048106 -0.15730788 -0.12425271
-0.0547276 -0.059993397 -0.10778958 -0.20188545 -0.13839507 -0.021571582 -0.016754052 0.061526768
0.09388302 0.031022647 -0.19871344 -0.18675545 0.03827488 -0.031244395 -0.039328266 -0.035754006
0.018726313 -0.06071128 -0.017505046 -0.04886387 -0.021351358 -0.19053891 -0.04894519 -0.006073087
0.0830783 -0.14201523 0.051394556 0.082825 -0.1336961 -0.08333135 -0.052265055 -0.09268541
-0.21400845 -0.068028316 -0.037431844 -0.13245042 -0.09447556 -0.19715683 -0.103128426 -0.035337105
0.08201804 -0.0139968265 -0.26288033 -0.09291889 -0.17857708 -0.2880763 0.028846797 -0.023474941
-0.15782626 0.1110463 -0.017882308 -0.06144944 -0.15620664 -0.014414809 0.071679965 2.8193717e-05
0.03922999 0.13692369 -0.20716967 0.075762436 -0.042103674 0.06718098 -0.04578566 -0.11634785
-6.758982e-05 -0.069732785 0.24013984 -0.07570516 -0.10946817 -0.0059667896 0.014573796 0.060578432
-0.083617866 -0.03437443 0.024461783 0.037201587 -0.24792385 0.056230392 0.14089784 0.015916988
0.013560647 -0.02706532 -0.12834887 0.0039040681 0.14037268 0.12053127 -0.06140219 0.05224475
-0.10271593 0.08972734 0.063691534 -0.04702609 -0.052292995 -0.023338905 -0.044127934 0.019092476
0.035090007 -0.110422134 0.035931297 0.04858736 -0.01098584 -0.2127944 -0.040605824 0.13802329
-0.057905342 -0.07664402 0.07657049 0.1377522 0.16623484 0.0005827921 0.11832822 0.008948741

log_std.bias f4 [5]
00000000: 57c3 72be 4e28 e8bd 0a1f a8bd f648 72be
00000010: 22ce 4abe
-0.23707329 -0.113358125 -0.08209045 -0.23660645 -0.19805196
