resource/multi_run_experiment_20250319_111011/run_5/sac_actor_35000.pth (torch, 80607 bytes, 8 tensors)

fc1.weight f4 [128, 12]
-0.31789783 -0.5099432 -0.16722295 0.066796 0.043745607 -0.35488638 -0.3844672 0.15150549
-0.21568437 0.21512537 0.19074427 0.066424586 -0.41456512 -0.28264225 0.1325993 -0.13720989
-0.11965016 -0.17049383 0.005409877 -0.2888575 0.012537812 0.18503936 -0.20633306 -0.09230593
-0.06600001 0.090615354 0.041206717 -0.34672248 -0.43542644 0.0195716 0.2070163 -0.19012974
0.010943178 -0.13227794 0.036466047 -0.042268433 -0.07724038 -0.011572422 0.010906145 -0.043148026
0.11944297 0.47596803 0.29685238 -0.41864276 0.40203336 -0.0337891 -0.037296206 -0.38213077
-0.34048244 0.15158899 -0.29019833 -0.26049808 -0.16588464 0.32928097 0.15971935 -0.103613324
-0.14878985 0.13796213 0.105393134 -0.27261862 -0.15032208 -0.12099429 -0.2125608 0.119822636
-0.44701102 0.01141512 -0.24478413 0.2504597 -0.025980398 0.4248715 0.20004101 0.05320754
-0.27494773 -0.17293455 -0.25097042 -0.39552504 -0.21543978 0.51296437 0.06432056 -0.25373653
-0.048902046 -0.07432664 -0.17551588 -0.11807798 0.16763222 0.16749339 0.119213834 0.21882637
-0.03617662 -0.13058382 -0.13172063 0.082964174 0.18734881 0.23094721 0.38827384 -0.027466629
0.07529694 -0.26523066 0.14440215 0.2815725 -0.071395054 -0.27535465 -0.27052748 -0.11006531
-0.30254376 0.0926048 0.2034367 0.15536076 -0.3155431 -0.3769871 -0.076746985 0.0801092
-0.54347926 0.22784165 -0.10152788 -0.036756653 0.0068723056 -0.0036241817 -0.108965434 0.43631202
-0.01530394 0.17157033 -0.07641053 -0.17022525 0.011160672 -0.28427488 -0.17235926 -0.23726116
-0.10414532 0.23517805 0.15928212 -0.16793625 -0.23917069 -0.4785182 0.10680634 0.15254778
0.061037954 -0.4248812 0.28835157 0.101052515 -0.27770522 0.23459536 -0.047307067 0.32164502
0.18507029 -0.45152554 -0.060603246 0.10973319 0.010228103 0.31171316 0.032677088 -0.30650404
0.11520466 -0.45171773 -0.17392111 -0.19741265 -0.3432505 -0.038188014 0.42516926 0.23276168
0.16443534 0.16789803 0.33503574 0.12845534 -0.31389624 -0.2324051 -0.14081699 -0.20201294
0.13297403 -0.42747447 -0.20494913 -0.021794923 -0.17588885 0.12764437 0.026253216 -0.28169313
-0.28916305 0.08896531 0.24190897 0.047908 -0.42102727 0.24051487 -0.28363684 0.23947132
0.21442463 -0.019855268 0.12900686 -0.0654517 -0.29474854 0.21184449 -0.11521995 0.31486586
-0.14890005 0.15549296 0.18268979 0.12588634 -0.021374108 0.17725374 -0.5144491 0.2341731
-0.049465466 -0.50643474 0.33804405 -0.33571178 0.15457693 0.08212791 -0.095872685 -0.28453273
0.102919646 0.13923146 -0.27874032 -0.06549439 -0.11398182 0.20540927 -0.04596738 -0.004937933
-0.2622292 -0.02232419 0.3955968 -0.08143649 0.07359913 -0.3576829 0.33657536 0.20827283
-0.08323822 0.081886224 -0.031575695 0.012732281 -0.0552001 -0.18177128 -0.24590471 -0.2294123
-0.46959743 -0.17088957 -0.074905746 -0.2993696 -0.11576319 0.16842337 0.03209065 0.033809263
0.015742293 0.18739565 0.08695629 -0.19107656 -0.09214872 -0.105426095 -0.40924537 -0.24356788
0.032188956 -0.38350904 0.22549888 0.23306668 0.04713606 0.25315562 -0.14896506 -0.14992867
00000000: 81c3 a2be a38b 02bf 7e3c 2bbe 57cc 883d
00000010: 982e 333d abb3 b5be e3d8 c4be 4124 1b3e
00000020: 5ddc 5cbe d349 5c3e 7752 433e 9d09 883d
00000030: e141 d4be 7cb6 90be 1cc8 073e c080 0cbe
00000040: 250b f5bd ef95 2ebe 5645 b13b 21e5 93be
00000050: 656b 4d3c f57a 3d3e f948 53be e40a bdbd
00000060: 032b 87bd 8b94 b93d 60c8 283d 9c85 b1be
00000070: 37f0 debe 9f54 a03c 15fc 533e 5fb1 42be
00000080: 044b 333c de73 07be 6c5d 153d aa21 2dbd
00000090: 3430 9ebd 429a 3dbc b0af 323c fcbb 30bd
000000a0: 849e f43d 15b2 f33e 09fd 973e 5858 d6be
000000b0: 51d7 cd3e 7066 0abd e8c3 18bd a5a6 c3be
000000c0: b753 aebe 253a 1b3e e094 94be 0160 85be
000000d0: aadd 29be 8497 a83e 788d 233e 3933 d4bd
000000e0: 5e5c 18be f245 0d3e 5bd8 d73d ab94 8bbe
000000f0: 08ee 19be dbcb f7bd 8aa9 59be 9265 f53d
00000100: a1de e4be 7c06 3b3c b1a8 7abe 413c 803e
00000110: d8d4 d4bc c288 d93e 8dd7 4c3e 26f0 593d
00000120: f3c5 8cbe c115 31be 327f 80be 4282 cabe
00000130: 3f9c 5cbe a251 033f 7fba 833d c1e9 81be
00000140: 834d 48bd 9138 98bd 6fba 33be ded2 f1bd
00000150: c8a7 2b3e 6383 2b3e 6226 f43d 0514 603e
00000160: ef2d 14bd c4b7 05be c6e1 06be 1fe9 a93d
00000170: 5ed8 3f3e 6d7d 6c3e d4cb c63e b201 e1bc
00000180: 4835 9a3d 50cc 87be 28de 133e 452a 903e
00000190: 9237 92bd 49fb 8cbe 9482 8abe ec69 e1bd
000001a0: 04e7 9abe 96a7 bd3d b651 503e e416 1f3e
000001b0: dd8e a1be 7404 c1be 862d 9dbd 4b10 a43d
000001c0: 7521 0bbf 524f 693e d9ed cfbd 258e 16bd
000001d0: 1431 e13b ae83 6dbb 4529 dfbd 4a64 df3e
000001e0: 60bd 7abc 22b0 2f3e 207d 9cbd 874f 2ebe
000001f0: 40db 363c 7a8c 91be f27e 30be 97f4 72be
00000200: 244a d5bd 84d2 703e da1a 233e 7bf7 2bbe
00000210: 29e9 74be 5600 f5be 48bd da3d 7c35 1c3e
00000220: ef02 7a3d 078a d9be d1a2 933e 9ff4 ce3d
00000230: 612f 8ebe c439 703e 0ec5 41bd a8ae a43e
00000240: 1183 3d3e 5b2e e7be 1c3b 78bd cbbb e03d
00000250: c693 273c de98 9f3e 69d8 053d 19ee 9cbe
00000260: 6cf0 eb3d 8c47 e7be 6018 32be 8b26 4abe
00000270: 88be afbe 096b 1cbd c9af d93e 1459 6e3e
00000280: bd61 283e 76ed 2b3e ce89 ab3e cc89 033e
00000290: 02b7 a0be 9afb 6dbe 5432 10be 7bdc 4ebe
000002a0: 582a 083e efdd dabe 2fde 51be 448b b2bc
000002b0: 351c 34be 35b5 023e fc10 d73c 153a 90be
000002c0: 2e0d 94be 7233 b63d fcb6 773e 2e3b 443d
000002d0: e390 d7be 8849 763e d938 91be f837 753e
000002e0: 2192 5b3e 84a7 a2bc 601a 043e 8a0b 86bd
000002f0: 48e9 96be c3ed 583e 70f8 ebbd 1936 a13e
00000300: 4179 18be 8c39 1f3e 0813 3b3e 59e8 003e
00000310: c118 afbc 0182 353e f0b2 03bf 13cb 6f3e
00000320: 4d9c 4abd b5a5 01bf 1c14 ad3e 6ae2 abbe
00000330: 6a49 1e3e ad32 a83d e658 c4bd 46ae 91be
00000340: 89c7 d23d b192 0e3e 0db7 8ebe ec21 86bd
00000350: 4d6f e9bd cf56 523e 4b48 3cbd 62ce a1bb
00000360: e842 86be 38e1 b6bc aa8b ca3e 2dc8 a6bd
00000370: 24bb 963d 3722 b7be 9b53 ac3e 7945 553e
00000380: cd78 aabd f7b3 a73d 8455 01bd 0f9b 503c
00000390: 8019 62bd 4022 3abe 72ce 7bbe 0feb 6abe
000003a0: 136f f0be adfd 2ebe 2f68 99bd f946 99be
000003b0: 4015 edbd 2d77 2c3e 7c71 033d 957b 0a3d
000003c0: fbf5 803c a5e4 3f3e 2416 b23d 93a9 43be
000003d0: 78b8 bcbd a3e9 d7bd 9c88 d1be dc69 79be
000003e0: 91d8 033d 4c5b c4be 2ee9 663e 08a9 6e3e
000003f0: be11 413d 9d9d 813e 4c8a 18be e786 19be

fc1.bias f4 [128]
0.18831272 0.08479433 0.14394742 -0.014786945 -0.1723137 -0.09625666 0.05688969 -0.06427189
0.013618149 0.25090918 -0.2583856 -0.019305933 0.08222588 0.090079814 0.09289276 0.027247801
-0.029024309 -0.08063091 -0.09936361 0.23541404 -0.030812463 -0.14515893 0.18732162 -0.04722357
-0.04326116 -0.103719465 -0.016410941 -0.35386828 -0.24156687 -0.055197697 -0.05298715 0.27509114
-0.011648793 -0.054968245 0.1671906 -0.1053881 -0.041618835 -0.2831322 0.03709926 0.076227084
0.27779555 -0.03392766 -0.017298922 -0.014444856 -0.2755312 0.12788312 0.2520389 0.16644703
0.30670488 -0.09423926 0.029743476 0.20455629 0.0904313 -0.057693418 -0.068950124 0.16724302
-0.07798223 0.09186261 0.06634741 0.26864675 0.08138413 0.12223919 0.08027196 0.17265671
-0.23978372 0.24201785 -0.09372109 0.15699023 0.13897902 -0.1377953 0.092085324 0.107196234
0.116288655 0.06503129 -0.006805653 -0.014243574 -0.35739297 -0.11204119 -0.1188415 -0.15619008
-0.06936826 -0.24155287 -0.08600256 -0.06358355 0.14183037 0.04533826 -0.021987965 -0.036482025
0.036409266 0.22996064 -0.15892713 -0.11880475 0.11603795 -0.25111416 -0.019568404 0.3331622
0.1984915 0.16505484 -0.0924164 -0.16477217 -0.13376783 0.16755652 -0.19804907 0.03961024
-0.017677868 0.19356802 -0.27754268 -0.14240593 -0.11815698 -0.036435366 0.026008056 0.12834243
0.11492241 0.07899405 -0.0014788177 0.013458136 0.20267503 -0.009116352 0.11322707 -0.0037720872
-0.14915022 0.10782949 -0.0080599375 0.06841298 -0.02788702 0.09241702 -0.19830033 -0.028621854
00000000: 0dd5 403e a6a8 ad3d f466 133e f144 72bc
00000010: 0173 30be 3622 c5bd 2a05 693d fba0 83bd
00000020: a81e 5f3c 2b77 803e 1e4b 84be 7a27 9ebc
00000030: 0b66 a83d c47b b83d 8f3e be3d c836 df3c
00000040: 63c4 edbc d221 a5bd 267f cbbd 6110 713e
00000050: 6b6a fcbc 8ba4 14be 3dd1 3f3e 816d 41bd
00000060: 9d32 31bd df6a d4bd 3d70 86bc 392e b5be
00000070: 4e5d 77be fb16 62bd 0e09 59bd bfd8 8c3e
00000080: 94da 3ebc 6226 61bd 0334 2b3e b7d5 d7bd
00000090: 8378 2abd b4f6 90be 65f5 173d f21c 9c3d
000000a0: 383b 8e3e bbf7 0abd 78b6 8dbc 1eaa 6cbc
000000b0: 6d12 8dbe cbf3 023e 3e0b 813e 1771 2a3e
000000c0: 6c08 9d3e 8300 c1bd 97a8 f33c 3477 513e
000000d0: 0c34 b93d ef4f 6cbd b935 8dbd c141 2b3e
000000e0: 26b5 9fbd 7722 bc3d 27e1 873d 118c 893e
000000f0: b9ac a63d 8a58 fa3d a065 a43d eccc 303e
00000100: dd89 75be 87d3 773e d8f0 bfbd 0cc2 203e
00000110: 8450 0e3e 361a 0dbe 3b97 bc3d b389 db3d
00000120: bf28 ee3d 202f 853d f501 dfbb e15d 69bc
00000130: 36fc b6be da75 e5bd 2c63 f3bd 4bf0 1fbe
00000140: f210 8ebd a359 77be 1c22 b0bd 1838 82bd
00000150: fb3b 113e 9cb4 393d 1b20 b4bc 2d6e 15bd
00000160: e221 153d cd7a 6b3e cbbd 22be e84f f3bd
00000170: 4ea5 ed3d 0992 80be eb4d a0bc 3c94 aa3e
00000180: 5b41 4b3e 2304 293e cf44 bdbd 09ba 28be
00000190: 6ffa 08be f093 2b3e 60cd 4abe 593e 223d
000001a0: 2dd1 90bc b236 463e 131a 8ebe dcd2 11be
000001b0: 49fc f1bd 403d 15bd d90e d53c 336c 033e
000001c0: 715c eb3d a2c7 a13d e3d4 c1ba 837f 5c3c
000001d0: 0b8a 4f3e c05c 15bc 98e3 e73d 1f35 77bb
000001e0: d6ba 18be b5d5 dc3d d40d 04bc 1b1c 8c3d
000001f0: 5273 e4bc 2245 bd3d 3e0f 4bbe 6178 eabc

fc2.weight f4 [128, 128]
0.10632329 -0.05473269 -0.055925384 -0.07956102 0.15406813 -0.06634801 0.0023842377 -0.21223596
0.01247959 -0.019009307 -0.024842508 -0.21664794 -0.08015905 -0.2718436 -0.036377236 0.011700701
-0.11741528 0.04690904 -0.13508576 0.08359917 -0.03276424 -0.2767816 -0.083237275 -0.18449907
0.04261636 0.12524515 0.0057267733 -0.07719969 -0.074296825 0.011889338 -0.10248867 0.13791852
-0.0877006 0.06110536 -0.13208011 -0.102992706 0.026628282 -0.018071324 -0.024913454 -0.13102926
-0.010167138 -0.11896431 0.14154351 0.042156294 -0.011767379 -0.107315175 -0.089680076 -0.09889184
-0.030417647 -0.038668055 -0.10882255 0.027835468 -0.030521005 -0.021171162 0.053794686 -0.1775798
0.050808087 0.027774204 -0.08853091 -0.07023085 -0.13224211 0.06865042 0.017939573 -0.15359816
-0.059504326 -0.067328446 -0.1486825 -0.0026021793 -0.011963901 0.057164505 -0.061858717 -0.018098129
-0.038936563 -0.06647512 -0.055755146 -0.16035998 -0.019878922 -0.15484649 0.020266496 -0.016767602
-0.02813662 0.056139376 -0.071295105 -0.033511154 0.08230172 -0.04106306 0.009701826 -0.056220245
0.03891769 0.020363458 -0.1312872 -0.05046533 -0.08257489 -0.051593468 -0.18660495 -0.08817256
-0.0026724897 -0.08741062 -0.1296593 -0.11600748 0.0967213 -0.118387766 -0.24671136 -0.26677063
0.009861646 -0.071481496 0.017239861 -0.015227175 0.02454149 -0.015738646 -0.044988323 0.010150513
-0.086896375 -0.029353354 -0.115121745 -0.10398184 0.062433556 -0.071827166 -0.05607137 -0.048422217
0.038336664 -0.0011021489 -0.12539884 -0.060257077 0.011638119 -0.010489289 -0.0053359237 -0.16756052
-0.08233242 -0.026055453 -0.091971025 -0.09972636 -0.17541464 0.09711647 -0.19336402 -0.028442396
0.0358114 0.10231873 -0.012072742 -0.1596168 0.014582199 -0.028698444 -0.012712356 0.014476242
0.09765354 -0.088176064 -0.21628965 0.009908818 0.0130473105 -0.09984748 -0.10349623 -0.14442971
-0.038652096 -0.2415006 0.078521535 0.012327386 -0.037463047 -0.13941532 -0.08770837 -0.31179368
-0.021056175 0.012209711 -0.18190938 -0.25113967 -0.22187094 -0.006304867 -0.013768213 0.0014427014
-0.0439476 -0.16698039 -0.11784353 0.08414936 0.117283694 0.016225327 0.089501955 0.028906012
-0.014229277 -0.0008458656 -0.020662602 -0.09874832 -0.2055099 0.060535267 -0.19348587 -0.10805271
0.055637665 0.08707437 0.13879244 -0.12698612 0.07030066 0.00113886 -0.0927859 0.12107547
0.06765739 -0.13883306 0.28022826 0.049649272 0.19309697 0.04584935 -0.07504 0.080668725
-0.107818015 0.07337058 -0.13079785 0.056033753 0.0010304276 -0.20939721 -0.09951132 0.11855989
-0.21218556 -0.24663615 0.053501777 -0.15030397 -0.18890812 0.023074642 -0.2889135 0.1264598
0.100639686 0.1063055 0.030669851 -0.057542183 -0.20175886 0.19582078 -0.040151056 -0.24590626
-0.0013629769 -0.04576576 -0.25521457 -0.03397379 0.048673455 -0.013434084 0.08776962 0.03052512
0.38980946 0.05657319 0.06870865 -0.09304348 0.26098147 -0.22047609 -0.06168537 -0.04932218
-0.048544466 -0.34395036 -0.032110322 0.13317394 0.16120017 -0.062154263 0.13630684 -0.1834829
0.06488514 -0.1214066 -0.11491949 -0.08817325 0.035134565 -0.08453557 0.0040302356 0.06924087
00000000: 06c0 d93d 632f 60bd 0412 65bd e3f0 a2bd
00000010: 09c4 1d3e 77e1 87bd df40 1c3b 6254 59be
00000020: 3277 4c3c 68b9 9bbc 8482 cbbc f5d8 5dbe
00000030: 6e2a a4bd 162f 8bbe 4c00 15bd 4cb4 3f3c
00000040: 6c77 f0bd b223 403d ec53 0abe 0b36 ab3d
00000050: cc33 06bd 51b6 8dbe 4e78 aabd 53ed 3cbe
00000060: 7e8e 2e3d 4440 003e a8a7 bb3b df1a 9ebd
00000070: ef28 98bd 7fcb 423c 94e5 d1bd 833a 0d3e
00000080: 5f9c b3bd 9d49 7a3d 0240 07be d7ed d2bd
00000090: 8e23 da3c 500a 94bc 4d17 ccbc 892c 06be
000000a0: 1194 26bc 8fa3 f3bd c8f0 103e 14ac 2c3d
000000b0: f7cb 40bc 0fc8 dbbd 30aa b7bd ce87 cabd
000000c0: 6e2e f9bc 6562 1ebd 5bde debd 3507 e43c
000000d0: 3007 fabc 256f adbc d157 5c3d 7bd7 35be
000000e0: 241c 503d ba86 e33c b24f b5bd 31d5 8fbd
000000f0: 7a6a 07be 9798 8c3d 03f6 923c d648 1dbe
00000100: cfba 73bd 7fe3 89bd 3a40 18be 5389 2abb
00000110: 3d04 44bc 5425 6a3d 915f 7dbd 8742 94bc
00000120: f27b 1fbd 1c24 88bd 825f 64bd 6835 24be
00000130: 1fd9 a2bc 1490 1ebe ec05 a63c 365c 89bc
00000140: c57e e6bc 67f2 653d 2b03 92bd fe42 09bd
00000150: ce8d a83d bd31 28bd 68f4 1e3c 3347 66bd
00000160: 2868 1f3d 44d1 a63c 2770 06be bcb4 4ebd
00000170: 061d a9bd ac53 53bd 5e15 3fbe d193 b4bd
00000180: f024 2fbb 5704 b3bd 68c5 04be 5495 edbd
00000190: d115 c63d 4975 f2bd e7a1 7cbe 2996 88be
000001a0: be92 213c e464 92bd 9c3a 8d3c 677b 79bc
000001b0: 3c0b c93c 55ee 80bc ad45 38bd 564e 263c
000001c0: baf6 b1bd 7276 f0bc f3c4 ebbd 6ef4 d4bd
000001d0: 54ba 7f3d 1f1a 93bd 18ab 65bd 6056 46bd
000001e0: e806 1d3d fb75 90ba 8e68 00be 20d0 76bd
000001f0: cfad 3e3c 44db 2bbc f9d8 aebb fc94 2bbe
00000200: e69d a8bd 3f72 d5bc 4e5b bcbd 553d ccbd
00000210: e59f 33be 00e5 c63d 3801 46be 0700 e9bc
00000220: f9ae 123d 7b8c d13d c0cc 45bc 9672 23be
00000230: 2dea 6e3c 0019 ebbc 7c47 50bc c22d 6d3c
00000240: 94fe c73d a795 b4bd 097b 5dbe 9858 223c
00000250: 63c4 553c d67c ccbd d5f5 d3bd 62e5 13be
00000260: a951 1ebd ef4b 77be e6cf a03d cef8 493c
00000270: da72 19bd e4c2 0ebe 72a0 b3bd 6ca3 9fbe
00000280: 007e acbc 3d0b 483c 7446 3abe 6195 80be
00000290: 2332 63be 0f99 cebb 1294 61bc 0719 bd3a
000002a0: 6602 34bd e8fc 2abe f357 f1bd 8056 ac3d
000002b0: 6f32 f03d faea 843c cd4c b73d 4dcc ec3c
000002c0: ea21 69bc 14bd 5dba 9e44 a9bc 8f3c cabd
000002d0: 3071 52be d4f3 773d 2921 46be bd4a ddbd
000002e0: 52e4 633d 0c54 b23d 9b1f 0e3e a608 02be
000002f0: cbf9 8f3d cd45 953a 8906 bebd 6af6 f73d
00000300: f58f 8a3d 412a 0ebe 147a 8f3e 095d 4b3d
00000310: 36bb 453e 87cc 3b3d 92ae 99bd a535 a53d
00000320: b1cf dcbd 5143 963d dfef 05be a683 653d
00000330: 6a0f 873a 396c 56be 97cc cbbd 87cf f23d
00000340: 2c47 59be 308e 7cbe ae24 5b3d 49e9 19be
00000350: 2171 41be 0807 bd3c 78ec 93be ae7e 013e
00000360: 2e1c ce3d b3b6 d93d 573f fb3c 5ab1 6bbd
00000370: e099 4ebe 3e85 483e 6f75 24bd dace 7bbe
00000380: eaa5 b2ba e174 3bbd 7cab 82be 1a28 0bbd
00000390: d15d 473d a21a 5cbc 8fc0 b33d d10f fa3c
000003a0: 1b95 c73e 4ab9 673d 1fb7 8c3d 948d bebd
000003b0: 5d9f 853e 7cc4 61be cca9 7cbd 0e06 4abd
000003c0: 90d6 46bd 431a b0be 1d86 03bd c05e 083e
000003d0: a811 253e 7895 7ebd 0594 0b3e f1e2 3bbe
000003e0: 80e2 843d 06a4 f8bd e95a ebbd 2d94 b4bd
000003f0: 43e9 0f3d fc20 adbd 1110 843b 28ce 8d3d

fc2.bias f4 [128]
-0.023826737 -0.09327345 -0.07423812 -0.0036757183 0.05655495 0.03535516 -0.003763133 -0.033707082
0.034106337 0.05323507 -0.091738574 -0.027963918 0.08844333 -0.06988503 -0.0016583754 0.004139705
-0.058877144 -0.008128353 -0.019317139 0.070527524 0.04510377 -0.06892738 -0.09118673 -0.14218977
-0.085765004 -0.06430712 0.010108921 0.03638669 -0.10659179 -0.01769806 0.043888025 -0.06680427
-0.10603702 0.038776755 -0.04198543 -0.070580564 0.018436665 -0.03775974 -0.060832124 0.043158554
0.08845764 -0.0138929095 0.023281222 0.009286461 -0.01768843 0.021794047 -0.09274853 0.05816816
0.056906126 0.010141073 -0.11826127 -0.04852395 -0.07465115 0.093707524 -0.017273404 0.054252297
0.0007799519 -0.079304285 0.11271163 0.09640059 0.15963641 0.01302014 0.06368491 0.010236014
-0.051112264 -0.060022954 -0.028715417 0.011673892 0.040622976 -0.101587445 0.014884835 0.08501722
0.07009463 -0.15410642 0.07519292 -0.035945874 -0.027588751 -0.013436844 -0.008293476 0.01240435
0.066974066 -0.06396312 -0.024296962 -0.053859845 0.12691735 -0.060456924 0.069988996 0.062339485
0.043598864 0.036159232 -0.013928296 -0.081795864 0.054573607 -0.005662706 0.01899036 -0.017170496
-0.10218458 0.011419677 -0.024865128 -0.0508467 -0.10919234 0.030236714 0.018241081 0.12401035
-0.10944081 0.07839157 0.00045527465 0.054860048 0.00095876027 -0.0915329 0.02092738 -0.10652762
-0.010883488 -0.020427974 -0.050569374 0.066386536 -0.023203125 0.040368017 -0.10805601 0.09612666
0.035907276 -0.035009526 -0.05574792 -0.11078781 -0.0594989 0.03078998 0.041304164 -0.09614146
00000000: 4a30 c3bc 2706 bfbd 280a 98bd 52e4 70bb
00000010: 2aa6 673d 92d0 103d e59e 76bb 7010 0abd
00000020: 16b3 0b3d 040d 5a3d 6fe1 bbbd 9614 e5bc
00000030: c721 b53d e21f 8fbd d85d d9ba 5da6 873b
00000040: 2929 71bd c92c 05bc fa3e 9ebc bc70 903d
00000050: bbbe 383d cc29 8dbd 1cc0 babd 329a 11be
00000060: 90a5 afbd 74b3 83bd e39f 253c 360a 153d
00000070: cc4c dabd 86fb 90bc eec3 333d add0 88bd
00000080: f029 d9bd 60d4 1e3d eaf8 2bbd 8b8c 90bd
00000090: 7d08 973c f5a9 1abd 1b2b 79bd 06c7 303d
000000a0: 4729 b53d 169f 63bc 43b8 be3c 3e26 183c
000000b0: 54e7 90bc 6e89 b23c f1f2 bdbd bd41 6e3d
000000c0: 6616 693d be26 263c f732 f2bd 0dc1 46bd
000000d0: b4e2 98bd bbe9 bf3d f480 8dbc a837 5e3d
000000e0: b075 4c3a 496a a2bd 5bd5 e63d ac6d c53d
000000f0: ba77 233e 6d52 553c 3c6d 823d f4b4 273c
00000100: 185b 51bd a1da 75bd 983c ebbc da43 3f3c
00000110: 4764 263d 140d d0bd 86df 733c 821d ae3d
00000120: c68d 8f3d 13ce 1dbe bffe 993d fb3b 13bd
00000130: ce01 e2bc 3526 5cbc 5ce1 07bc 9d3b 4b3c
00000140: b329 893d 19ff 82bd 6c0a c7bc 249c 5cbd
00000150: 9ff6 013e aea1 77bd 6456 8f3d b057 7f3d
00000160: b994 323d b41b 143d 8233 64bc 9784 a7bd
00000170: 9388 5f3d 398e b9bb ac91 9b3c 24a9 8cbc
00000180: 2646 d1bd 9919 3b3c f4b1 cbbc a144 50bd
00000190: 3ca0 dfbd fcb2 f73c 526e 953c 23f9 fd3d
000001a0: 8122 e0bd c28b a03d eeb1 ee39 eeb4 603d
000001b0: 5055 7b3a 9a75 bbbd e66f ab3c 272b dabd
000001c0: a850 32bc 9158 a7bc d521 4fbd aaf5 873d
000001d0: 7b14 bebc ef58 253d 784c ddbd 0ede c43d
000001e0: 8213 133d 2666 0fbd ee57 64bd b8e4 e2bd
000001f0: 1eb5 73bd 453b fc3c 8e2e 293d d0e5 c4bd

mu.weight f4 [5, 128]
-0.050265063 -0.07852022 -0.075054444 -0.11295614 -0.22366542 0.012196427 0.19693026 0.06944975
0.004705506 0.22048965 0.26683053 -0.070067674 0.066768885 -0.15284146 -0.035747677 -0.21192169
0.13844524 -0.08832588 0.10378498 0.13009612 -0.23062125 0.06332518 0.24017227 0.012694102
-0.1520859 -0.12338021 -0.09266231 -0.057102207 0.20016295 0.09679361 -0.029433647 -0.20512056
0.03926365 0.14379813 0.047163736 -0.21556221 -0.07754586 -0.10534243 0.03693334 0.35239178
-0.107052885 0.10096126 -0.02198621 -0.06610581 0.15986183 -0.08157332 -0.12006143 -0.07465383
0.016896011 -0.14146131 -0.1237131 -0.2008952 0.083338365 0.08248184 0.06470662 -0.09999048
-0.10424507 -0.10195732 -0.12155592 0.025283799 -0.12264397 0.23453523 0.18227056 0.011570368
-0.04267365 -0.25580776 -0.10758084 0.30814385 0.16212453 -0.07909567 0.13287255 -0.32317677
-0.13472147 0.10867535 -0.009038625 -0.017017722 0.1214454 -0.0106595885 -0.1991865 -0.042970326
-0.09279726 -0.2024028 -0.15942861 -0.02638806 0.01692653 -0.017214034 0.15475534 0.11061352
0.13245773 0.040872883 -0.04782183 0.06379157 0.0009961529 0.009637003 0.14205392 -0.13755757
0.09311066 0.08639066 0.2348986 0.043388434 0.08449432 -0.026959974 0.016759641 -0.103203215
0.021901762 -0.09037072 -0.14789334 -0.041011136 0.3831716 -0.24236058 0.1252648 0.060331225
0.16462903 -0.13203816 -0.009243187 -0.058333743 0.029468117 -0.063828744 0.054850455 0.05164727
0.0049423277 1.1790849e-05 0.0074456693 -0.039216015 0.13651562 -0.02350859 -0.01497515 -0.12663803
0.12913217 -0.09650565 -0.032709107 0.2906175 -0.13060981 -0.0367872 -0.2681371 0.028427426
-0.1672478 -0.119779296 0.061055757 0.032223597 -0.06459246 -0.04816681 0.105296314 -0.29139084
0.31242165 0.16701223 0.22076648 -0.056193583 0.023700718 0.053009007 -0.0979799 -0.035574168
-0.11776493 0.2007588 -0.17657939 -0.121309966 -0.038505513 0.100521296 -0.10345326 0.11488768
-0.06933601 -0.15413989 0.073626816 0.05153465 -0.09980278 -0.00800945 0.02299782 0.11592612
0.11255521 -0.053230006 -0.0669726 -0.0490116 0.23037474 0.014664545 0.075124435 -0.16914134
-0.11776083 -0.16901912 -0.024028638 0.036264278 -0.04212318 -0.080679104 0.0548662 0.27571252
0.156647 -0.025375342 0.29932037 -0.06737683 -0.0028562981 0.21401607 0.09993483 -0.09235604
0.08593491 0.19707985 0.07486298 0.10927429 0.11944587 -0.26636627 -0.20051402 -0.18656066
-0.09547773 0.119819894 0.014853811 -0.0058866497 -0.019970508 -0.047075346 -0.13053793 0.0061212983
-0.14180923 0.13992028 -0.22538505 0.030025605 0.1585485 0.20963234 -0.12495544 -0.024231674
-0.0154262055 0.0045681777 0.08855174 -0.079296544 -0.044657245 0.08956322 -0.20452736 -0.14847645
-0.32686663 0.087590605 -0.022284526 -0.14033115 -0.13352463 0.058896728 0.24231258 -0.11301315
-0.19944601 -0.10914587 0.112555735 -0.061193757 -0.03510474 0.1599377 0.10505923 0.034453746
0.038077887 -0.026332857 -0.030501176 0.021750046 0.046134725 0.023908013 -0.06333289 -0.22221889
0.1297628 0.07176149 0.044900082 -0.1124613 -0.28336933 -0.007847019 -0.19069462 0.3805036
00000000: bde2 4dbd 36cf a0bd 25b6 99bd 8c55 e7bd
00000010: 8c08 65be 86d3 473c 16a8 493e ac3b 8e3d
00000020: a530 9a3b 0ac8 613e 039e 883e a47f 8fbd
00000030: 20be 883d 7982 1cbe 286c 12bd 0002 59be
00000040: 97c4 0d3e 33e4 b4bd 388d d43d eb37 053e
00000050: fa27 6cbe a2b0 813d b8ef 753e ecfa 4f3c
00000060: 68bc 1bbe c3ae fcbd bdc5 bdbd 01e4 69bd
00000070: 84f7 4c3e ba3b c63d d51e f1bc 200b 52be
00000080: ecd2 203d d13f 133e c32e 413d 57bc 5cbe
00000090: 5dd0 9ebd c6bd d7bd 6a47 173d b26c b43e
000000a0: 8b3e dbbd c7c4 ce3d 6d1c b4bc 7c62 87bd
000000b0: d2b2 233e ea0f a7bd c4e2 f5bd 1be4 98bd
000000c0: 8169 8a3c 3cdb 10be 4b5d fdbd 79b7 4dbe
000000d0: 4ead aa3d 3dec a83d e884 843d cfc7 ccbd
000000e0: 707e d5bd 00cf d0bd 4ff2 f8bd f81f cf3c
000000f0: c32c fbbd 012a 703e 22a5 3a3e a491 3d3c
00000100: 91ca 2ebd 3cf9 82be 5853 dcbd 08c5 9d3e
00000110: f903 263e e9fc a1bd be0f 083e 6d77 a5be
00000120: 6df4 09be 2f91 de3d be16 14bc c068 8bbc
00000130: 5eb8 f83d 8ea5 2ebc 8cf7 4bbe a701 30bd
00000140: 7d0c bebd ae42 4fbe 4141 23be c62b d8bc
00000150: 82a9 8a3c 7204 8dbc 2f78 1e3e 5789 e23d
00000160: 00a3 073e 536a 273d d3e0 43bd 28a5 823d
00000170: 5891 823a 85e4 1d3c 9576 113e e4db 0cbe
00000180: cdb0 be3d 96ed b03d 4289 703e 12b8 313d
00000190: 5c0b ad3d 2adb dcbc 844b 893c 355c d3bd
000001a0: 536b b33c 4914 b9bd 5a71 17be 4bfb 27bd
000001b0: 112f c43e 5f2d 78be 6a45 003e e01d 773d
000001c0: 8394 283e 0335 07be bc70 17bc 5def 6ebd
000001d0: 1f67 f13c a5b8 82bd dfaa 603d 168c 533d
000001e0: 40f3 a13b 50d1 4537 cdfa f33b f9a0 20bd
000001f0: c0ca 0b3e 1695 c0bc 555a 75bc 66ad 01be
00000200: 393b 043e c1a4 c5bd fcf9 05bd d1cb 943e
00000210: 94be 05be 2dae 16bd 4449 89be a2e0 e83c
00000220: 0243 2bbe d94e f5bd 9a15 7a3d e4fc 033d
00000230: 0d49 84bd 904a 45bd 98a5 d73d 2e31 95be
00000240: bbf5 9f3e 4105 2b3e 9c10 623e 3e2b 66bd
00000250: 0228 c23c f91f 593d b0a9 c8bd 38b6 11bd
00000260: bd2e f1bd b793 4d3e 3ad1 34be 5c71 f8bd
00000270: f5b7 1dbd 1cde cd3d 4edf d3bd 3b4a eb3d
00000280: 0a00 8ebd d9d6 1dbe a8c9 963d ff15 533d
00000290: 6665 ccbd 113a 03bc ed65 bc3c ac6a ed3d
000002a0: 5983 e63d b507 5abd ee28 89bd 63c0 48bd
000002b0: 5be7 6b3e 8f43 703c d7da 993d 6333 2dbe
000002c0: 972c f1bd 5913 2dbe b5d7 c4bc da89 143d
000002d0: 5b89 2cbd 163b a5bd 61bb 603d 312a 8d3e
000002e0: 1268 203e f3df cfbc 8540 993e ddfc 89bd
000002f0: bb30 3bbb 0727 5b3e a2aa cc3d 2a25 bdbd
00000300: a4fe af3d 4dcf 493e c351 993d 33cb df3d
00000310: 09a0 f43d 2961 88be 8c53 4dbe c209 3fbe
00000320: d489 c3bd 2264 f53d 665d 733c cce4 c0bb
00000330: 3199 a3bc 14d2 40bd bcab 05be 2c95 c83b
00000340: 7036 11be 4347 0f3e 57cb 66be 42f8 f53c
00000350: 8a5a 223e dca9 563e a3e8 ffbd 8181 c6bc
00000360: 32be 7cbc a7b0 953b 9d5a b53d 3a66 a2bd
00000370: 84ea 36bd ec6c b73d 9f6f 51be 360a 18be
00000380: 105b a7be b462 b33d 0a8e b6bc f8b2 0fbe
00000390: aeba 08be b23d 713d ca20 783e 7073 e7bd
000003a0: 933b 4cbe df87 dfbd 9f83 e63d 4ea6 7abd
000003b0: fdc9 0fbd b5c6 233e 4b29 d73d 5f1f 0d3d
000003c0: 8ff7 1b3d 01b8 d7bc 9add f9bc 272d b23c
000003d0: c4f7 3c3d bdda c33c adb4 81bd 598d 63be
000003e0: 8ae0 043e b0f7 923d 26e9 373d 1c52 e6bd
000003f0: c915 91be c890 00bc 7345 43be 5ed1 c23e

mu.bias f4 [5]
-0.09396314 -0.02850879 -0.0140446955 -0.03360324 0.16099438
00000000: bf6f c0bd 448b e9bc b91b 66bc 8da3 09bd
00000010: b6db 243e

log_std.weight f4 [5, 128]
-0.031708013 0.05594732 0.19128431 -0.083848305 0.056393106 0.03873444 -0.008524971 -0.112410694
-0.12711482 -0.15973717 0.06937025 -0.06904223 -0.073680356 0.19192326 0.041532453 -0.1182882
-0.10692386 0.008989865 -0.027643519 0.0024133702 -0.2001708 -0.062657624 0.050815385 0.036331657
0.22473772 0.10654598 -0.105219394 -0.12818193 0.05091236 -0.0136767095 -0.10432329 -0.09129918
0.025334505 0.3160302 -0.06005985 -0.113844715 0.009993898 -0.0059072645 -0.021567252 0.03248769
-0.0732054 -0.19912471 -0.04012187 -0.22976609 -0.03318235 -0.111879036 0.15461312 -0.19494118
0.094582364 0.070535704 -0.015425252 -0.029306525 -0.008799625 -0.009646366 -0.19860052 -0.17760314
0.02420349 0.17913583 -0.31637695 0.17541876 0.076820455 0.1110278 -0.036357228 -0.3865969
-0.095457196 0.18608795 0.021921286 0.04689086 0.059291963 -0.17160322 0.0072665326 -0.079419486
-0.029245809 0.015661273 -0.21567462 -0.06796373 -0.20138395 -0.02575474 0.005997957 0.06699819
-0.10328854 -0.096654125 -5.4904252e-05 -0.0026738977 0.14977455 0.011868475 -0.033814404 -0.18491967
0.13947468 -0.019972114 -0.011658346 0.011946489 0.12641089 0.05296166 -0.15493661 0.019193903
0.24188888 0.042003345 -0.12583427 -0.0726589 0.033584386 -0.3332593 -0.10118064 0.050713737
0.060398754 0.03739081 -0.16315764 -0.071985275 0.08470637 -0.01585584 0.0042062565 -0.06463683
-0.023312084 -0.08463309 -0.030410644 0.07345798 0.028887063 -0.023974046 0.022912418 -0.016114002
0.1728347 -0.0663255 0.0032653853 -0.16111368 -0.07508684 -0.10348939 -0.11971918 0.08039464
0.0069750682 -0.11053675 0.034793332 0.0423497 0.010905943 0.09634837 -0.10536785 0.039580747
-0.023717757 0.14201376 -0.015362005 0.067927316 -0.02991073 -0.13261025 -0.17737117 -0.12865135
-0.0061883805 -0.059993397 -0.06250408 -0.20583591 -0.1029578 -0.021571582 -0.008978079 0.046979092
0.20224756 0.00082746823 -0.24539188 -0.1995861 0.012031936 -0.003125379 -0.06880753 -0.06377486
0.018726313 -0.0076853572 -0.017505046 -0.058779467 -0.021351358 -0.19153428 -0.04894519 0.04649241
0.0830783 -0.051785335 0.051394556 0.01774639 -0.15199985 -0.08333135 -0.13847753 -0.08689011
-0.032295834 -0.02717576 -0.0143312 -0.13245042 -0.08756065 -0.20893349 -0.17923494 -0.06751543
0.08201804 -0.03364967 -0.19142818 -0.043455537 0.034342553 -0.23743191 0.012012246 -0.053184517
-0.1597619 0.10011453 -0.07591218 -0.060817912 -0.14836125 0.08568874 0.098536514 0.10365273
-0.023872659 0.15544704 -0.11098624 0.075762436 -0.13821852 -0.008573929 0.059045333 -0.11634785
0.012844204 -0.066973105 0.24479723 -0.07570516 0.12550752 -0.012662771 -0.015007993 -0.08552682
-0.08361293 -0.03437443 0.024461783 0.037201587 -0.026138507 0.05656181 0.056865383 0.015916988
0.03551128 -0.02706532 -0.118793055 0.0040615126 0.14037268 0.21370111 -0.16995114 0.04364071
-0.09536563 0.081925064 0.024894921 -0.027102215 -0.009035038 -0.023338905 -0.048937008 -0.03344
0.035090007 -0.110422134 0.050493266 0.04858736 -0.01098584 -0.20143838 -0.040605824 0.13558012
0.080146894 -0.07664402 0.07657049 0.1377522 0.11847199 0.0005827921 0.13615462 -0.051029254
00000000: 43e0 01bd 0429 653d 09e0 433e a9b8 abbd
00000010: 75fc 663d 01a8 1e3d 52ac 0bbc 9437 e6bd
00000020: 632a 02be 2492 23be fd11 8e3d 0366 8dbd
00000030: bae5 96bd 8887 443e ef1d 2a3d 1541 f2bd
00000040: e6fa dabd 3a4a 133c a974 e2bc a229 1e3b
00000050: 93f9 4cbe a452 80bd cb23 503d 81d0 143d
00000060: a521 663e c734 da3d 447d d7bd 2042 03be
00000070: 7b89 503d 4714 60bc 73a7 d5bd 11fb babd
00000080: 4f8a cf3c b6ce a13e 5101 76bd 6b27 e9bd
00000090: 72bd 233c ba91 c1bb cead b0bc d011 053d
000000a0: b6ec 95bd 59e7 4bbe d456 24bd cd47 6bbe
000000b0: 37ea 07bd d620 e5bd e752 1e3e a99e 47be
000000c0: 66b4 c13d 0675 903d 32ba 7cbc 3d14 f0bc
000000d0: 4d2c 10bc cb0b 1ebc ef5d 4bbe 99dd 35be
000000e0: 6646 c63c 626f 373e 29fc a1be faa0 333e
000000f0: 0b54 9d3d 8b62 e33d 51eb 14bd 07f0 c5be
00000100: 107f c3bd d78d 3e3e 4594 b33c a110 403d
00000110: 21dc 723d c1b8 2fbe 181c ee3b afa6 a2bd
00000120: e894 efbc 124c 803c cfd9 5cbe 9130 8bbd
00000130: 9837 4ebe 9bfb d2bc 838a c43b 5936 893d
00000140: f188 d3bd 99f2 c5bd fe48 66b8 8f3c 2fbb
00000150: 805e 193e fe73 423c f980 0abd 955b 3dbe
00000160: 73d2 0e3e 8f9c a3bc a602 3fbc 35bb 433c
00000170: db71 013e 53ee 583d b4a7 1ebe 883c 9d3c
00000180: b8b1 773e b30b 2c3d b3da 00be 30ce 94bd
00000190: c88f 093d f7a0 aabe cc37 cfbd 35b9 4f3d
000001a0: af64 773d 1b27 193d cc12 27be 046d 93bd
000001b0: 897a ad3d 1be4 81bc a3d4 893b 5060 84bd
000001c0: fcf8 bebc 1d54 adbd be1f f9bc 2371 963d
000001d0: 90a4 ec3c 3865 c4bc d3b2 bb3c 8301 84bc
000001e0: 94fb 303e aad5 87bd 1300 563b fcfa 24be
000001f0: 21c7 99bd 3ff2 d3bd 542f f5bd f2a5 a43d
00000200: 1d8f e43b 1761 e2bd 7483 0e3d e176 2d3d
00000210: d7ae 323c 4b52 c53d 19cb d7bd 6c1f 223d
00000220: be4b c2bc 0e6c 113e ebb0 7bbc 7a1d 8b3d
00000230: 5907 f5bc fbca 07be caa0 35be 2ebd 03be
00000240: e6c7 cabb a3bb 75bd 2402 80bd a6c6 52be
00000250: 8adb d2bd e3b6 b0bc cb18 13bc 266d 403d
00000260: fc19 4f3e 74ea 583a 0248 7bbe 4c60 4cbe
00000270: 9921 453c 29d3 4cbb f6ea 8cbd 659c 82bd
00000280: ed67 993c 73d5 fbbb be66 8fbc bdc2 70bd
00000290: 0be9 aebc 9021 44be c07a 48bd d36e 3e3d
000002a0: f524 aa3d dc1c 54bd 1983 523d e160 913c
000002b0: d9a5 1bbe a0a9 aabd 0ecd 0dbe 71f3 b1bd
000002c0: a348 04bd b39f debc 69cd 6abc 15a1 07be
000002d0: 0053 b3bd a9f2 55be 5d89 37be 8845 8abd
000002e0: 13f9 a73d 3dd4 09bd c005 44be 6ffe 31bd
000002f0: c7aa 0c3d 5a21 73be 03cf 443c 02d8 59bd
00000300: a098 23be d908 cd3d d877 9bbd 341c 79bd
00000310: 03ec 17be 947d af3d 83cd c93d e247 d43d
00000320: 9890 c3bc 822d 1f3e c14c e3bd 5629 9b3d
00000330: 2889 0dbe aa79 0cbc 85d9 713d c847 eebd
00000340: 7f70 523c 3229 89bd 20ac 7a3e 4f0b 9bbd
00000350: 0b85 003e 8377 4fbc 16e4 75bc af28 afbd
00000360: 413d abbd 34cc 0cbd 1464 c83c b160 183d
00000370: 6c20 d6bc 5bad 673d adeb 683d 5864 823c
00000380: 4774 113d 17b8 ddbc c649 f3bd 7016 853b
00000390: dbbd 0f3e 77d4 5a3e ac07 2ebe 9ac0 323d
000003a0: 0e4f c3bd 54c8 a73d 6ff0 cb3c 7705 debc
000003b0: b207 14bc 3b31 bfbc 2c72 48bd 62f8 08bd
000003c0: 8aba 0f3d 0025 e2bd 07d2 4e3d 8a03 473d
000003d0: f4fd 33bc dd45 4ebe 4b52 26bd 84d5 0a3e
000003e0: 0e24 a43d 8af7 9cbd fdd0 9c3d ea0e 0d3e
000003f0: 71a1 f23d 84c6 183a 1e6c 0b3e 0d04 51bd

log_std.bias f4 [5]
-0.22311532 -0.11624057 -0.05173093 -0.22793987 -0.22155434
00000000: 5878 64be 890f eebd d0e3 53bd 1269 69be
00000010: 24df 62be
