resource/multi_run_experiment_20250319_111011/run_5/sac_actor_20000.pth (torch, 80607 bytes, 8 tensors)

fc1.weight f4 [128, 12]
000000 f2 36 9a be 1a 2a ca be 7e 3c 2b be e3 4d 50 3d
       -0.30120045 -0.39485246 -0.16722295 0.05085553
000010 0e aa 76 3b 43 c0 2d be 5e 88 85 be 47 97 1e 3e
       0.0037637982 -0.16967873 -0.26080602 0.15487395
000020 6c dd 0f be 30 3d 56 3e e4 62 89 3d 49 23 72 3c
       -0.1404931 0.20921779 0.06708315 0.01477892
000030 58 2f c7 be 7c b6 90 be 1c c8 07 3e 77 1b 9e bc
       -0.38903308 -0.28264225 0.1325993 -0.019300206
000040 46 c0 c0 bd b6 f6 61 bd 74 0e 1a 3e 07 12 2f be
       -0.09411673 -0.055166923 0.15044576 -0.1709672
000050 57 f0 1b 3d 74 c5 8e 3d a1 e6 b3 be b6 8d d1 3c
       0.038071003 0.06971255 -0.35136893 0.025580268
000060 61 cc d8 3d d7 74 a1 bd 57 42 de bd a3 cd ab be
       0.10585857 -0.078836136 -0.10852497 -0.33555326
000070 9a b3 79 be 30 1a 30 b8 94 0e 63 3e c3 fd 33 be
       -0.24384919 -4.198606e-05 0.2217353 -0.17577271
000080 cb 84 5f 3c b0 66 04 be 90 87 83 bd 48 ca b9 3c
       0.0136425 -0.12929797 -0.06422341 0.022679463
000090 d3 a8 b7 bd ce da 27 be 63 a6 2f bd 19 28 00 3e
       -0.089677475 -0.16392061 -0.042883288 0.12515296
0000a0 19 26 db 3d e7 f0 a4 3e 44 93 83 3e b5 e5 7c be
       0.10700626 0.32215044 0.25698292 -0.24697001
0000b0 f0 78 c7 3e 29 d2 14 be be 58 43 bd ab 92 8d be
       0.38959455 -0.14533295 -0.047692053 -0.2765096
0000c0 b7 53 ae be b9 90 8d 3d 91 fc 8a be 01 60 85 be
       -0.34048244 0.06912369 -0.27145818 -0.26049808
0000d0 aa dd 29 be 2b a5 a0 3e 61 44 ad 3e 4a 89 c6 bd
       -0.16588464 0.31376013 0.3384123 -0.096941546
0000e0 5e 5c 18 be 81 09 3b 3d df c3 31 bd e3 fe 8e be
       -0.14878985 0.04566336 -0.043399688 -0.27928838
0000f0 93 3a d6 bd 5b d5 ae bd 6f 0b 77 be 58 9f 0c 3e
       -0.10460391 -0.08536788 -0.24125455 0.1373266
000100 17 75 c3 be 55 59 6d 3d e5 52 84 be f4 e2 86 3e
       -0.3817527 0.05794652 -0.25844494 0.26345026
000110 a3 03 3b b9 b5 9b e5 3e e2 59 32 3e e4 92 9b 3d
       -0.00017835065 0.44845358 0.174171 0.075963765
000120 50 60 7e be c6 ce c1 bd 79 bd 74 be 42 82 ca be
       -0.24841428 -0.09463267 -0.23900403 -0.39552504
000130 75 70 41 be ff da 02 3f f1 d9 95 3d c1 e9 81 be
       -0.18890555 0.5111541 0.0731696 -0.25373653
000140 ea 3c b7 bc 01 68 a2 bd 7b f6 5e be de d2 f1 bd
       -0.022367913 -0.079299934 -0.21773712 -0.11807798
000150 65 cd c6 3d e9 22 9e 3d 93 51 f1 ba 77 43 7f 3e
       0.09707145 0.07721502 -0.0018411152 0.2492808
000160 45 25 ae bd 57 d1 40 be de 6e 5b be c4 9e c3 3d
       -0.08503202 -0.18829857 -0.21429011 0.095517665
000170 9c 18 9a 3d f1 3b e1 3d 8b 85 5c 3e 14 3b 2f 3c
       0.07524225 0.10997761 0.21535318 0.010695238
000180 72 42 b3 3d f8 42 6d be 28 de 13 3e ac 08 99 3e
       0.08752908 -0.23170078 0.14440215 0.2988943
000190 b5 a8 0b bd 0d 5a ee bd 94 82 8a be a5 12 b5 bd
       -0.03409644 -0.116382696 -0.27052748 -0.08841447
0001a0 e5 b0 8c be 0b 2c 54 3c b6 51 50 3e 12 9d 39 3e
       -0.2747871 0.012949954 0.2034367 0.18126324
0001b0 48 e3 5d be 7a 7f b9 be 86 2d 9d bd 5a 20 13 be
       -0.21668732 -0.3623007 -0.076746985 -0.1436781
0001c0 54 7d a7 be e9 66 4b 3e 2e 0d f7 3d f8 65 85 be
       -0.32712805 0.19863476 0.12063061 -0.26054358
0001d0 62 f2 2a bd 6a 9d a7 bd 03 89 a9 be bb 9f 59 3e
       -0.04173506 -0.08184321 -0.33112344 0.21252339
0001e0 60 bd 7a bc 22 b0 2f 3e 20 7d 9c bd 87 4f 2e be
       -0.01530394 0.17157033 -0.07641053 -0.17022525
0001f0 40 db 36 3c 7a 8c 91 be f2 7e 30 be 97 f4 72 be
       0.011160672 -0.28427488 -0.17235926 -0.23726116
000200 24 4a d5 bd 84 d2 70 3e da 1a 23 3e 7b f7 2b be
       -0.10414532 0.23517805 0.15928212 -0.16793625
000210 98 b3 1d be 08 2b df be 48 bd da 3d dc 18 44 3e
       -0.15400541 -0.43587518 0.10680634 0.19150108
000220 7b 3d 2d 3e 73 66 ed be b7 c3 a0 3e ab 5d 0f 3e
       0.16917984 -0.46367225 0.3139932 0.14000575
000230 93 0e 5d be 9c f3 48 3e 57 66 95 bd 65 a0 b8 3e
       -0.21587591 0.1962418 -0.072949104 0.3605987
000240 e2 6b 4d 3e 74 9a e1 be 1c 3b 78 bd 83 83 09 3e
       0.20060685 -0.4406315 -0.060603246 0.13429074
000250 30 6a 28 3d 4f a5 8e 3e be 36 7a bb 63 c7 97 be
       0.041116893 0.27860495 -0.0038179602 -0.29644307
000260 f3 7d 25 3e 47 59 b6 be 89 b9 0c be 6c 06 2e be
       0.16161327 -0.35614988 -0.13742651 -0.16994637
000270 79 14 74 be 9a cb 91 bd 01 f8 d3 3e a4 2a 4c 3e
       -0.23835935 -0.07118912 0.4140015 0.19938141
000280 45 89 8d 3e 36 8a 6c 3e c2 6e c3 3e 92 b7 15 3e
       0.2764379 0.23099598 0.3817044 0.14620808
000290 40 7d 3f be 62 f9 a0 be d3 2b 44 be 21 61 60 be
       -0.18700123 -0.31440264 -0.19157343 -0.21912052
0002a0 db 00 17 3e 46 41 ba be 4c fa 26 be 08 49 f4 bb
       0.1474642 -0.36377925 -0.16306418 -0.007454995
0002b0 35 1c 34 be 56 58 3d 3e 8e a0 fc 3d 15 3a 90 be
       -0.17588885 0.18490729 0.12335311 -0.28169313
0002c0 3c 77 9b be 17 02 b6 3d a8 6a 45 3e b9 7d 09 3d
       -0.30364406 0.08887117 0.19278967 0.033567164
0002d0 ce 77 bc be 1d cf 73 3e 02 e4 d1 bd 7b e2 47 3e
       -0.36810154 0.23809476 -0.10248567 0.19519989
0002e0 17 98 26 3e 88 f0 c3 3c 00 1d 5b 3d e3 b6 e0 bd
       0.16268955 0.023918405 0.053494453 -0.10972383
0002f0 c7 4a 5d be 90 14 67 3e 54 83 b0 3d 70 8b 8a 3e
       -0.21610557 0.22566438 0.08618799 0.27059507
000300 78 0f e0 bd 70 46 18 3e 08 13 3b 3e 66 f9 0c 3e
       -0.109404504 0.1487062 0.18268979 0.13767013
000310 2a f7 46 3d e0 ee 05 3e 24 1c ed be 6d 5c 81 3e
       0.048575558 0.13079405 -0.46310532 0.25265828
000320 30 38 a5 3b 97 49 c1 be 18 ca 92 3e 0f ff 93 be
       0.0050420985 -0.37751457 0.2866981 -0.28905532
000330 9a 0c 08 3e 22 b2 be bb 9b 4b 34 bd 29 9c ac be
       0.13286057 -0.005819575 -0.044017415 -0.3371289
000340 cd 30 a8 3d d7 ff 65 3d 3d 51 c9 bd 67 c3 13 be
       0.08212433 0.05615219 -0.09829948 -0.14430009
000350 f4 63 0c be 93 42 04 3e 47 f2 19 be 85 5c df bd
       -0.13710004 0.12916021 -0.15033828 -0.109063186
000360 bd 2e 1a be a0 20 99 3c 0f 5a d7 3e f9 d5 f3 bb
       -0.15056892 0.018692315 0.42060897 -0.007441279
000370 16 8c 42 3e ca db ab be c8 c6 9c 3e fe b6 8b 3e
       0.18998751 -0.33566123 0.30620408 0.2728805
000380 1d c8 a8 3c d0 da 8f 3d 55 8c 7f 3c ab 4e bf 3d
       0.020603234 0.07024157 0.015597423 0.093411766
000390 80 19 62 bd d5 9c 45 be 71 c3 41 be 1c e4 be bd
       -0.0552001 -0.19298108 -0.18922211 -0.09320852
0003a0 13 6f f0 be 9e c7 2d be 04 a6 4b 3c 12 15 27 be
       -0.46959743 -0.16970679 0.012429718 -0.16316631
0003b0 40 15 ed bd 4e 51 18 3e a1 ad 56 bd c4 17 2e 3e
       -0.11576319 0.14874765 -0.05241168 0.17001253
0003c0 bb dd 0f 3e f5 7d 17 3e 24 16 b2 3d 75 ed ef bd
       0.14049427 0.14794143 0.08695629 -0.11715213
0003d0 2e d4 e1 3c 1b fb 5e be 02 a7 cd be 81 6c 36 be
       0.027566995 -0.21775477 -0.4016648 -0.17814828
0003e0 c8 85 17 3e bd a6 bf be 2a 26 5f 3e ba 39 93 3e
       0.14797127 -0.374319 0.21791902 0.2875498
0003f0 83 b6 34 3d 25 b7 92 3e 4d 2f fd bd 35 8e 27 be
       0.04411937 0.28655353 -0.123625375 -0.16362841

fc1.bias f4 [128]
000000 a7 df 4f 3e ce 04 24 3e 14 79 e8 3d 1c d6 29 bd
       0.2030016 0.16017458 0.11351219 -0.041463956
000010 9a 5b 87 bd 16 eb bd bd ac c6 eb 3d d0 f2 dd bd
       -0.066092685 -0.09273355 0.11512503 -0.108373284
000020 4f 6a 3d 3d 24 81 53 3e 1e 4b 84 be b7 a3 3d 3c
       0.046243962 0.20654732 -0.2583856 0.011574677
000030 43 ac df 3d d8 54 46 3c ce 05 93 3d 87 08 09 bd
       0.10921528 0.012105189 0.071788415 -0.033455398
000040 cf 51 97 3c 18 46 4a bd 31 92 81 bd a3 1c 93 3e
       0.018471627 -0.049383253 -0.06326712 0.28732786
000050 81 6c 40 3d 19 e7 3b be f5 39 8d 3d b5 85 90 3b
       0.046978477 -0.18349876 0.0689582 0.0044104704
000060 8f 8b 94 3d c0 52 fa bd 2b 81 09 3c e1 f0 b8 be
       0.07253181 -0.122228146 0.008392612 -0.36121276
000070 df cb a8 be 99 f7 22 3c d4 64 60 bc 90 47 8a 3e
       -0.3296804 0.009946727 -0.013695914 0.27007723
000080 4b 33 4c bd 81 06 a5 3d 85 f6 19 3e 11 15 29 be
       -0.049853604 0.08057881 0.15035446 -0.16511942
000090 bd f5 89 3a ed fd 69 be 77 f9 99 3b 9b 50 74 3e
       0.0010525506 -0.22850771 0.004698928 0.23858874
0000a0 4b a7 ab 3e 2b 37 d9 bd 2d ca 96 3c 42 fd 2b 3b
       0.33526072 -0.106062256 0.018406952 0.0026243483
0000b0 d5 41 67 be 0f bd 29 3e 81 2e 58 3e e1 13 72 3e
       -0.22583707 0.16576026 0.2111149 0.23640396
0000c0 d1 82 a2 3e 62 40 08 be 62 9e 74 39 43 04 67 3e
       0.3174043 -0.1330581 0.00023328656 0.2256022
0000d0 dc 0e e6 3d b2 7b 1a bd cc c3 18 3d 32 69 43 3e
       0.11233303 -0.03771562 0.0372961 0.19083098
0000e0 5e 0a e4 bc ed aa e2 3d 52 49 1c 3d 2c e5 87 3e
       -0.027836975 0.11067758 0.03815586 0.26542032
0000f0 37 8a 80 3d 5d 0b 6e 3d 3f 54 94 3d e7 7b 2f 3e
       0.062763624 0.058116306 0.07242631 0.17137109
000100 dd 89 75 be bd f6 99 3e 9d db 80 bd 65 f8 18 3e
       -0.23978372 0.3007106 -0.06291888 0.14938505
000110 d2 e7 98 3d c1 b8 0a be e5 f5 85 3d 3a dc a3 3d
       0.07466091 -0.1354704 0.06541041 0.08000989
000120 f0 13 e5 3d 9b 84 ad ba f7 17 a5 3d b5 2d ea bb
       0.111854434 -0.0013238372 0.080612116 -0.007146562
000130 37 8f b4 be d6 43 00 be c6 a6 e7 bd e3 ff 56 be
       -0.35265514 -0.12525877 -0.113111064 -0.2099605
000140 fe 75 5d 3b d2 be 45 be c2 3b 6b be 58 a6 93 bb
       0.0033792253 -0.19311073 -0.22972015 -0.0045059137
000150 b8 0e 1e 3e 29 ad 22 3d 62 a7 de bc 2b dd 1d 3d
       0.15435302 0.03971592 -0.027179424 0.038541
000160 ca f6 de 3c fe 09 37 3e 60 a4 3d be 15 b6 07 be
       0.027217288 0.17874905 -0.18519735 -0.13253053
000170 65 a8 34 3e 50 dc 87 be 63 be ea bc c7 2a a1 3e
       0.17642362 -0.26535273 -0.028655237 0.3147795
000180 6f c7 48 3e bf 9f b6 3d 11 3f 1e be 3b fc 19 be
       0.19607328 0.08917188 -0.15453745 -0.15037625
000190 57 ed f1 bd 4f d7 56 3e 17 1f 44 be dc dc a0 3d
       -0.11812847 0.20980571 -0.19152485 0.078546256
0001a0 89 94 42 3c b8 2c 7c 3e 13 1a 8e be 03 3b ed bc
       0.011876234 0.24626434 -0.27754268 -0.028958803
0001b0 13 4f fe bd ff 9a 97 bb 1e b0 84 3d 1a 79 61 3d
       -0.12417426 -0.0046266313 0.06478904 0.055047132
0001c0 e9 d9 22 3d 0b 58 a0 3d af 30 48 3c 69 8f bc 3d
       0.039758597 0.07829293 0.012218638 0.09207041
0001d0 70 f0 88 3d 8c bc b9 bb d5 4a 76 3d 6f e7 44 3d
       0.06686485 -0.0056682285 0.06012996 0.048072275
0001e0 ab ed 7d bd 34 f4 1a 3e 1b dc f4 bd 7d 61 9f 3d
       -0.061994236 0.15132219 -0.11956044 0.07782266
0001f0 d6 b8 3f 3d b5 62 8a 3d ec de 3b be cc a0 07 bc
       0.046807133 0.06757108 -0.18346757 -0.008278083

fc2.weight f4 [128, 128]
000000 06 c0 d9 3d 63 2f 60 bd 04 12 65 bd bc 0f 9b bd
       0.10632329 -0.05473269 -0.055925384 -0.075713605
000010 5c 5f 37 3e 17 de 09 bd 9e 4c 0b 3d 62 54 59 be
       0.1790747 -0.033659067 0.034008615 -0.21223596
000020 32 77 4c 3c 68 b9 9b bc 84 82 cb bc f5 d8 5d be
       0.01247959 -0.019009307 -0.024842508 -0.21664794
000030 6e 2a a4 bd 16 2f 8b be f0 fd 14 bd c9 c2 14 3d
       -0.08015905 -0.2718436 -0.036374986 0.036318574
000040 6c 77 f0 bd b6 1e a2 3d ec 53 0a be aa d3 e1 3d
       -0.11741528 0.07916014 -0.13508576 0.110267
000050 cc 33 06 bd 24 92 7d be 4e 78 aa bd cf 85 2c be
       -0.03276424 -0.2476278 -0.083237275 -0.16847919
000060 7e 8e 2e 3d 39 aa 1c 3e d9 5a 06 3d df 1a 9e bd
       0.04261636 0.1529931 0.032801483 -0.07719969
000070 ef 28 98 bd 8b 2d 25 3d 94 e5 d1 bd d2 d4 28 3e
       -0.074296825 0.040326636 -0.10248867 0.16487435
000080 5f 9c b3 bd 9d 49 7a 3d 02 40 07 be d5 9c 92 bd
       -0.0877006 0.06110536 -0.13208011 -0.071588196
000090 8e 23 da 3c 8a 84 31 3c fc 71 ba bb 89 2c 06 be
       0.026628282 0.010834822 -0.0056898575 -0.13102926
0000a0 11 94 26 bc 0f 26 b0 bd 33 5f 2d 3e 1c ca 8d 3d
       -0.010167138 -0.08601009 0.16930847 0.06923315
0000b0 f7 cb 40 bc 0f c8 db bd 63 7a 7c bd ce 87 ca bd
       -0.011767379 -0.107315175 -0.061640155 -0.09889184
0000c0 00 bb 92 b6 65 62 1e bd 5b de de bd 30 8a 4b 3d
       -4.3729087e-06 -0.038668055 -0.10882255 0.049692333
0000d0 30 07 fa bc 25 6f ad bc cd 2f aa 3d 7b d7 35 be
       -0.030521005 -0.021171162 0.083098985 -0.1775798
0000e0 24 1c 50 3d ba 86 e3 3c b2 4f b5 bd ca 95 50 bd
       0.050808087 0.027774204 -0.08853091 -0.0509241
0000f0 9e c8 db bd 3a 84 c9 3d 03 f6 92 3c d6 48 1d be
       -0.10731624 0.09839673 0.017939573 -0.15359816
000100 cf ba 73 bd 7f e3 89 bd b2 78 1b be 8e 62 d3 3c
       -0.059504326 -0.067328446 -0.1518276 0.02580383
000110 2c 77 7f 3c 54 25 6a 3d 98 5f 7d bd 87 42 94 bc
       0.015592378 0.057164505 -0.061858743 -0.018098129
000120 f2 7b 1f bd d0 37 29 bd f0 33 07 bd 68 35 24 be
       -0.038936563 -0.041312993 -0.033008516 -0.16035998
000130 1f d9 a2 bc 43 1b e5 bd 97 21 4a 3d 36 5c 89 bc
       -0.019878922 -0.111868404 0.04934844 -0.016767602
000140 71 02 3d 3b 67 f2 65 3d b5 e1 02 bd fe 42 09 bd
       0.0028840567 0.056139376 -0.031953532 -0.033511154
000150 19 cf df 3d bd 31 28 bd fe 35 16 3d 33 47 66 bd
       0.109281726 -0.04106306 0.036672585 -0.056220245
000160 79 21 8c 3d fc dc 41 3d a8 0a 06 be bc b4 4e bd
       0.06842322 0.047329888 -0.13090003 -0.05046533
000170 06 1d a9 bd b0 f1 d5 bc 8a 64 27 be d1 93 b4 bd
       -0.08257489 -0.026116222 -0.16346946 -0.08817256
000180 f0 24 2f bb 57 04 b3 bd 68 c5 04 be 54 95 ed bd
       -0.0026724897 -0.08741062 -0.1296593 -0.11600748
000190 97 29 f0 3d 49 75 f2 bd d8 a4 5d be dc 43 7c be
       0.11726683 -0.118387766 -0.21644914 -0.24635261
0001a0 3c a8 1e 3d e4 64 92 bd 9c 3a 8d 3c 66 b6 72 3c
       0.03873466 -0.071481496 0.017239861 0.014813995
0001b0 ee 0e 4b 3d 55 ee 80 bc ad 45 38 bd 68 5b 2b 3d
       0.049574785 -0.015738646 -0.044988323 0.04183522
0001c0 ba f6 b1 bd 72 76 f0 bc f3 c4 eb bd 6e f4 d4 bd
       -0.086896375 -0.029353354 -0.115121745 -0.10398184
0001d0 99 91 97 3d 1f 1a 93 bd 18 ab 65 bd 14 0b 8a bc
       0.074008174 -0.071827166 -0.05607137 -0.016850986
0001e0 e8 06 1d 3d fb 75 90 ba 8e 68 00 be 20 d0 76 bd
       0.038336664 -0.0011021489 -0.12539884 -0.060257077
0001f0 cf ad 3e 3c 44 db 2b bc f9 d8 ae bb fc 94 2b be
       0.011638119 -0.010489289 -0.0053359237 -0.16756052
000200 80 0b e5 bc 3f 72 d5 bc 46 a0 33 bd 52 71 cd bd
       -0.027959585 -0.026055453 -0.04385402 -0.1003138
000210 2f d9 2e be 18 21 f1 3c 0b f0 2f be 61 2e 70 bc
       -0.17075036 0.029434726 -0.17181413 -0.014659495
000220 e2 35 c7 3d 38 2a af 3d c0 cc 45 bc 0d 60 10 be
       0.09727074 0.085529745 -0.012072742 -0.1409914
000230 85 7e a9 bc 19 77 6d bd 05 bb 27 bc c4 82 49 bd
       -0.020690212 -0.05797491 -0.01023746 -0.049196973
000240 07 c6 ab 3d 29 0f 04 bd 4a 9a 3f be f7 45 86 3b
       0.0838738 -0.03224102 -0.187112 0.004097696
000250 23 48 eb bc fe 19 dd bd 3d 02 ae bc 2b a8 2a be
       -0.02872092 -0.10795973 -0.021241302 -0.16665713
000260 28 07 47 bd 98 98 47 be 66 93 26 bc 4d 9f 2b 3d
       -0.04859081 -0.19491804 -0.010166978 0.041899968
000270 27 1e a7 bd d1 7a cc bd 58 d8 06 bd 18 fe 84 be
       -0.08160048 -0.09984363 -0.032921165 -0.25975108
000280 ed 83 73 bd 3d 0b 48 3c 7d dc dd bd ca 45 28 be
       -0.059451986 0.012209711 -0.108330704 -0.16432872
000290 6d 69 1c be 58 e0 16 3a c6 ab 79 bc cb c7 4a 3d
       -0.15274592 0.0005755476 -0.015238708 0.049506944
0002a0 81 79 f5 bb 35 dc 20 be 17 7c 97 bd 0d ad f8 3b
       -0.007491291 -0.15709002 -0.07396715 0.0075889886
0002b0 db 96 93 3d 0b fd 20 3d 38 9c 16 3b b5 c5 47 3d
       0.07206508 0.03930382 0.0022981297 0.048772532
0002c0 f9 31 09 bd 14 bd 5d ba 78 6b 29 bd a7 db c7 bd
       -0.033494923 -0.0008458656 -0.041362256 -0.09758692
0002d0 7d 9c 32 be f5 fa bf 3d 12 2a 15 be 4f fd de bd
       -0.17442508 0.09374038 -0.1456683 -0.108881585
0002e0 52 e4 63 3d 2a ee d3 3d 7d 52 c6 3d 4b 22 11 be
       0.055637665 0.103481606 0.09683702 -0.14173238
0002f0 17 ee 68 3c 26 6b 56 3d 89 06 be bd 61 c4 aa 3d
       0.014216921 0.05234828 -0.0927859 0.083382376
000300 f5 8f 8a 3d ce 3d 60 bd db 32 3f 3e 65 82 82 3d
       0.06765739 -0.05474644 0.18671744 0.06372527
000310 2b 4d cc 3d d2 9d 26 3d 18 0b bc bd e6 c4 6c 3d
       0.09975656 0.040677853 -0.091818035 0.057804964
000320 f9 32 15 bd 98 0b f1 3c df ef 05 be 2b 61 32 3d
       -0.036425564 0.029424474 -0.13079785 0.043549698
000330 dc 95 61 bc 1a 89 3e be 4d 04 f2 bd 46 37 c1 3d
       -0.013768639 -0.18606988 -0.118172266 0.09434371
000340 21 c4 5b be c7 b1 4b be d3 a0 b6 3c e2 cd 0c be
       -0.21461536 -0.19892035 0.022293484 -0.13750413
000350 c2 7f 31 be 5e c8 a0 3c 02 00 85 be 80 b8 f7 3d
       -0.17333892 0.019626793 -0.25976568 0.120957375
000360 8d 7f 6b 3d 3c ac 94 bc 8c 33 90 3c be e4 76 bd
       0.05749469 -0.018148534 0.017602704 -0.06027674
000370 fa d6 20 be bb 08 02 3e c2 60 cd bc 5b 67 86 be
       -0.15707007 0.12698643 -0.025070552 -0.2625073
000380 fd fd 32 3c dd cb 0d 3a 34 a3 3d be f5 db 7b bd
       0.010924813 0.0005409101 -0.18519288 -0.061489064
000390 71 ea 0b 3d 66 91 c3 bd 23 36 8f 3d a0 22 69 3d
       0.034159128 -0.09549217 0.06992748 0.056917787
0003a0 a9 c5 72 3e ee 53 13 3d 1f b7 8c 3d fb b8 cb bd
       0.23708214 0.035968713 0.06870865 -0.099473916
0003b0 77 86 0a 3e e4 14 8f be 0c b0 2e 3c 25 08 85 bc
       0.13527857 -0.27945626 0.01066209 -0.016239235
0003c0 3a 15 64 bd 85 45 92 be 12 38 4a bd fb fd 2e 3d
       -0.055684306 -0.28568664 -0.04936988 0.042722683
0003d0 f2 6d cf 3d 19 a1 6d bd 14 fa 03 3e f0 41 d4 bd
       0.10128392 -0.058014963 0.12888366 -0.10364139
0003e0 46 92 d4 3b 63 51 39 bd fe 48 03 be 23 34 b4 bc
       0.0064871637 -0.045243632 -0.12820813 -0.021997517
0003f0 43 e9 0f 3d e4 b4 98 bd 11 10 84 3b 3e bf 75 3d
       0.035134565 -0.07456377 0.0040302356 0.059996836

fc2.bias f4 [128]
000000 15 74 0c 3b df 1f d5 bd c0 50 37 bd 79 5e 9e bb
       0.0021431495 -0.104064696 -0.044754744 -0.0048330394
000010 94 2f 7d 3d b1 28 35 3d 87 8f 05 3d 89 67 63 3c
       0.061812952 0.04422826 0.03260758 0.013879665
000020 56 18 f6 3c d4 27 a9 3c 3b f7 6b bb 07 0c 97 bc
       0.030040901 0.020648874 -0.0036005515 -0.018438352
000030 9d 58 a6 3d ab 50 5e 3c a5 b5 cb 3b a4 59 2d 3d
       0.081223704 0.013569037 0.006216722 0.042321816
000040 27 95 c2 3c a5 06 f1 3c 3b 6b 45 3d fe 21 98 3d
       0.023752762 0.029422114 0.048197966 0.074283585
000050 6e 03 2f 3d 94 96 7c bd 10 d7 90 bd 50 f1 e8 bd
       0.04272788 -0.06166704 -0.0707227 -0.11374152
000060 37 69 67 bd ea 5e 4d bc e5 42 37 3d 5c b0 74 3d
       -0.056496825 -0.012534836 0.04474153 0.059738502
000070 d9 60 91 bd 05 3f 94 bc f5 be 04 bc 0e 17 81 bd
       -0.0709855 -0.018096456 -0.008102168 -0.063032255
000080 86 d9 bf bd a9 00 e0 3c ea f8 2b bd 07 e4 cb bd
       -0.09367661 0.027344065 -0.04198543 -0.09955602
000090 30 32 bd 3c 3a c5 55 bc 8f 83 4d bd f7 66 16 3d
       0.02309522 -0.013047511 -0.050174292 0.03671929
0000a0 36 e6 b7 3d 63 c3 e1 3b 61 b0 09 3d e8 86 74 39
       0.08979456 0.006889747 0.033615474 0.0002331991
0000b0 c9 97 62 3d 7e c6 11 3d a6 3a 97 bd 6f 2d d7 3c
       0.055320535 0.035589688 -0.07384233 0.026266782
0000c0 b4 cf ff 3d e5 3e 8a bc 6a 5b 9a bd 4d 56 d2 bc
       0.12490788 -0.016875694 -0.07536967 -0.025675917
0000d0 90 36 85 bd 9c 22 dc 3d 9b af 84 3c 91 7f 74 3d
       -0.065045476 0.10748789 0.016197016 0.05969197
0000e0 e3 5c 85 3c 8c 14 cf bc ac b9 a4 3d dd fb fe 3c
       0.016279643 -0.025278352 0.080432266 0.031125957
0000f0 ef 4c d8 3d ab 02 94 bd 7f 2b dc 3c 9e 97 f6 bd
       0.10561549 -0.072270714 0.02687621 -0.120406374
000100 8c ab 2a 3d c0 e0 4d 3c 82 85 4f bc 91 d4 e5 3d
       0.041667506 0.012565792 -0.012666108 0.112221844
000110 6c 02 c3 3d 4b d1 7a bd 91 67 b2 3d b8 04 bd 3c
       0.09521946 -0.061234754 0.0871116 0.02307354
000120 26 8c 7f 3d 94 47 7e bd 2e e1 8e 3d 14 68 d8 bc
       0.062389515 -0.06207998 0.06976543 -0.026416816
000130 a3 9a 0c 3c 02 b8 14 3d 6e 2e 53 bd 9d 3b 4b 3c
       0.00858179 0.036308296 -0.05155795 0.01240435
000140 1f 1b 91 3d 57 f5 91 3a b6 7f 03 3c 24 9c 5c bd
       0.07085251 0.0011135739 0.008026054 -0.053859845
000150 ae 08 49 3d 8a 2d 70 bc 21 da 6a 3d 03 73 b8 3d
       0.049080543 -0.014659295 0.05733693 0.09006312
000160 20 93 90 3d b4 1b 14 3d 82 33 64 bc 97 84 a7 bd
       0.07059312 0.036159232 -0.013928296 -0.081795864
000170 7c ce 97 3d 75 86 7c 3b 5d 4f 98 3c 24 a9 8c bc
       0.07412431 0.003853229 0.01859253 -0.017170496
000180 81 78 68 bd 39 9a ab 3c 50 ff a0 bc 94 05 94 3c
       -0.056755546 0.020947563 -0.019652992 0.018069066
000190 a6 e1 82 bc 91 20 42 3d 3a 25 5a ba 5c fb c9 3d
       -0.015976738 0.04739434 -0.0008321587 0.09862396
0001a0 70 7b 2d bd 9d b4 cb 3d 72 14 ac 3d 8b 09 1d 3c
       -0.042354047 0.099465586 0.08402337 0.009584795
0001b0 86 a5 dc 3d c6 5d de 3a a1 3e 96 bc 90 1c 90 bc
       0.107737586 0.0016965203 -0.01834041 -0.017591745
0001c0 a8 50 32 bc 91 58 a7 bc 56 b2 17 3b aa f5 87 3d
       -0.010883488 -0.020427974 0.0023147068 0.066386536
0001d0 7b 14 be bc 6a 76 97 3d 16 ec c9 bd 05 24 44 3d
       -0.023203125 0.073956326 -0.09859483 0.047885913
0001e0 f9 38 81 bc 9b c5 d0 bc ee 57 64 bd b6 93 8d bd
       -0.015774237 -0.02548485 -0.05574792 -0.06912939
0001f0 bf 82 0d bd 4b 7b 2b 3d 49 ea 9b 3d 34 df 7b bd
       -0.034548517 0.04186563 0.07613046 -0.06149216

mu.weight f4 [5, 128]
000000 34 60 50 bd 73 a6 01 bd 7e 95 26 3e fe ce 4f bd
       -0.050872996 -0.03165288 0.16267964 -0.050734513
000010 57 38 2a be e2 d3 47 3c 7f 2b 25 3e 99 36 13 3e
       -0.16623054 0.012196513 0.16129874 0.14376296
000020 a2 82 f1 3b b3 55 ec 3d a0 fb 45 3e fc c9 a0 bd
       0.007370309 0.11539783 0.19334269 -0.078510255
000030 de 54 12 3e cc fd bc bd 8e fe 09 bd fd 5f 5d be
       0.14290187 -0.092280954 -0.033690028 -0.21618648
000040 e4 17 d7 3d 61 25 15 be 53 34 ec 3d 20 e2 0e 3e
       0.10502604 -0.1456504 0.115334176 0.13953447
000050 fb 8b d0 bd f1 ad a9 3d 37 3a 82 3e 7c 4c cd 3c
       -0.10182949 0.0828513 0.2543504 0.025060885
000060 94 6c 3d be c8 5d a5 bd 8a db 72 bd 04 9c 83 bd
       -0.1849845 -0.08074528 -0.0592914 -0.06426242
000070 61 7e dc 3d 3b b9 1e 3d 72 8d 29 3e eb 16 45 be
       0.10766292 0.03875087 0.16557863 -0.19247024
000080 df d6 20 3d f4 db df bd c3 2e 41 3d aa b9 fc bd
       0.039267417 -0.109306246 0.047163736 -0.123401
000090 2a 9f 8e bd 24 37 f3 bc a6 4b 48 3d 0a dd 4a 3e
       -0.06963952 -0.029689379 0.04890027 0.19810882
0000a0 28 99 20 be d0 9f 4c 3e 00 10 5e bb 4c db 83 bd
       -0.15683424 0.19982839 -0.0033884048 -0.06438312
0000b0 c4 3f 93 3d 70 75 ae bd bb af 7f bd 74 f5 a9 bd
       0.07189897 -0.08518493 -0.06242345 -0.082987696
0000c0 4e 42 4a 3e d5 0a 22 bd ea b7 5d bd 65 35 55 be
       0.19751856 -0.03956111 -0.054130472 -0.2082115
0000d0 61 8c 76 3d 36 f5 01 3e 6f df 10 3e e8 58 96 bb
       0.06019247 0.12691197 0.14147733 -0.004588235
0000e0 2d be a7 bd 2f 31 12 be c8 20 17 bd 8d 31 25 3e
       -0.0819057 -0.14276575 -0.036896497 0.16132183
0000f0 15 ee 0a 3d 00 78 df 3d 4a a2 b4 3d 35 19 02 3d
       0.03391846 0.1091156 0.08820017 0.03176232
000100 9f c5 b1 3d 08 ee 3a be 33 d4 e6 bd c1 97 a9 3e
       0.08680271 -0.18254864 -0.112709425 0.33123592
000110 50 3c 49 3e ab 42 8e bd 2a bc ae 3d 00 4c 18 be
       0.19651914 -0.0694631 0.08531983 -0.14872742
000120 40 99 2e be 2c 4b 8d 3d d8 c0 64 3d 2f 4e 1d bc
       -0.17050648 0.068991035 0.055847973 -0.00960116
000130 09 14 6b 3d 42 40 07 3e e0 27 2c be a7 01 30 bd
       0.057392154 0.13208106 -0.16812086 -0.042970326
000140 db 18 3b bd 07 b2 8d be c9 50 49 bd c6 2b d8 bc
       -0.045678 -0.27674887 -0.04914931 -0.02638806
000150 d0 0d e7 3d 31 ec 85 bc 3a ba 9f 3d 66 eb ad 3d
       0.112819314 -0.016347976 0.07799192 0.08492164
000160 a4 73 83 bb 53 6a 27 3d d3 e0 43 bd 28 a5 82 3d
       -0.004011588 0.040872883 -0.04782183 0.06379157
000170 b7 53 f3 3d 99 66 68 3c a2 a1 cf 3d e4 db 0c be
       0.11881202 0.014184617 0.10138251 -0.13755757
000180 4c 5a ac 3d 12 3c b5 3d 20 12 83 3e 42 32 a8 3d
       0.0841566 0.08849348 0.25599766 0.08212711
000190 ab 05 d0 3d 43 8a 76 bd f6 af 54 bb f9 8c ac bd
       0.10157331 -0.06019045 -0.0032453514 -0.08425326
0001a0 59 99 38 3d 72 1a 94 bd 07 9a 84 bd 6d 3a 0d be
       0.04506812 -0.072316065 -0.06474691 -0.13791819
0001b0 a5 ed 98 3e 7b ae 77 be cb f3 d6 3d 61 7d 1f 3e
       0.29868808 -0.24187653 0.104957186 0.15575172
0001c0 83 94 28 3e 03 35 07 be 02 91 be bd 5d ef 6e bd
       0.16462903 -0.13203816 -0.09305002 -0.058333743
0001d0 1f 67 f1 3c 9e 67 21 bd 90 42 61 3d 97 c5 c4 3c
       0.029468117 -0.039405458 0.05499512 0.02402
0001e0 d6 ef 56 3e 41 a4 f4 bb cd fa f3 3b 76 d6 ff bc
       0.20989928 -0.0074658697 0.0074456693 -0.031230193
0001f0 96 d4 e3 3d c2 62 35 bc e3 d4 20 3b b0 dd f1 bd
       0.11124532 -0.011070909 0.0024540953 -0.11809862
000200 a7 da 06 3e 55 0e 67 3a b2 d6 24 3d 65 6f 45 3e
       0.13169347 0.00088140863 0.040243812 0.19280775
000210 0b 5f 4b bd 6d ad 16 bd c6 64 39 be db d7 2a bd
       -0.049651187 -0.036786485 -0.18104848 -0.041709762
000220 1d c9 53 be 76 7e 16 3e 86 90 7c 3e 06 83 25 3d
       -0.20682187 0.14696679 0.24664506 0.040408157
000230 fa 87 b0 bd 67 10 f4 bd a6 50 09 bd a3 44 de bb
       -0.086196855 -0.11917191 -0.033524178 -0.0067830845
000240 ca 15 12 3e c1 ae 41 3e b7 5a 21 3e 61 92 5b bc
       0.14266124 0.1891432 0.15757261 -0.013401599
000250 e6 31 42 3a 5c e1 70 3c a4 09 d7 bc 97 ee fe bc
       0.0007407948 0.014702167 -0.026249714 -0.031119628
000260 70 fe 86 be 64 24 c5 3d ea 30 b1 bd 9b 03 17 be
       -0.26365995 0.096260816 -0.08651908 -0.14747469
000270 56 31 32 be 78 d0 87 3d 75 41 6d bd 81 f9 fb 3d
       -0.17401633 0.06631559 -0.057923753 0.123034485
000280 ad 35 91 bd 3f 37 25 3e a8 c9 96 3d 06 0a f0 3c
       -0.07090316 0.16134356 0.073626816 0.029301655
000290 f6 4a b4 bd a4 53 27 bc 1b b3 21 3d 7f 71 75 bd
       -0.0880336 -0.010212813 0.03947745 -0.05992269
0002a0 0a 5f ff 3d f1 f8 ef 3c a7 40 b0 bd 8d b8 b3 bd
       0.12469299 0.02929351 -0.086060815 -0.08775435
0002b0 c5 b4 25 3d c6 8f 8d 3b c3 30 d0 3c 58 ed 15 be
       0.0404556 0.0043201176 0.025413876 -0.1464132
0002c0 e1 ff 2b be e2 a2 26 be ce 15 1c bd 21 fa ed 3c
       -0.16796829 -0.16273072 -0.038106732 0.029049935
0002d0 d0 ac c4 bd 5c a3 c9 bd 0f 1b 8f 3d 1d a5 4d 3e
       -0.09603274 -0.098456115 0.06987583 0.20082517
0002e0 45 e5 75 3d 0b 1d 16 bc 1f a0 6f 3e 7c 07 b1 3d
       0.0600331 -0.009162198 0.23400925 0.08644006
0002f0 21 ae af bd 7c d9 0e 3e 96 47 6c 3d 64 a6 26 bd
       -0.08578134 0.13950151 0.057685457 -0.040686026
000300 c5 38 86 3c 2b fd 26 3e 2d c4 50 3e d2 24 00 3e
       0.016384492 0.16307513 0.20387335 0.12514046
000310 60 bc 05 3e b7 d4 21 be bc 89 92 be e0 89 83 bd
       0.1306014 -0.158038 -0.28620708 -0.06422782
000320 1e 7a aa bc 7b b7 60 3e d0 b3 be bd bf 8e 62 bc
       -0.020810183 0.21944992 -0.0931164 -0.013827979
000330 8f 35 f6 bd 2d ac d7 3d df 91 22 be 2c 95 c8 3b
       -0.12021934 0.10530887 -0.15875958 0.0061212983
000340 6d b2 02 be 16 e7 58 3e 0c 7d 72 be 42 f8 f5 3c
       -0.12763377 0.21181902 -0.23680514 0.030025605
000350 ed 23 07 3d b7 60 78 3e c0 51 28 be 16 d8 02 3d
       0.032993246 0.24255644 -0.16437435 0.031944357
000360 60 64 e4 bc a7 b0 95 3b 9d 5a b5 3d 3a 66 a2 bd
       -0.027879894 0.0045681777 0.08855174 -0.079296544
000370 34 f8 15 be ea 59 bd 3d e9 86 c8 bd 36 0a 18 be
       -0.14645463 0.09245665 -0.09791357 -0.14847645
000380 eb b0 92 be a3 a8 ba 3d a5 2e 01 be 70 e6 23 be
       -0.28650603 0.09114196 -0.1261545 -0.16005874
000390 aa b7 15 be c6 24 e7 3d 95 ac be 3d 33 31 44 bd
       -0.14620844 0.11286311 0.09310261 -0.047898483
0003a0 91 bd 71 be df 24 a6 bc cd 3b 3e bd 65 95 07 be
       -0.2360747 -0.020281253 -0.04644375 -0.13240583
0003b0 d6 f4 d3 3d c6 a9 ff 3d 87 a7 74 3d f8 c9 19 3b
       0.10349433 0.124835536 0.05973008 0.002346633
0003c0 8f f7 1b 3d 01 b8 d7 bc 85 44 6d 3e 27 2d b2 3c
       0.038077887 -0.026332857 0.2317067 0.021750046
0003d0 c4 f7 3c 3d 0a 96 ac 3c 10 cb 81 bd 82 a8 53 be
       0.046134725 0.021067638 -0.06337559 -0.2066975
0003e0 ed df 4f 3d e0 af 92 3d 26 e9 37 3d 00 bb a7 bd
       0.05075066 0.07162452 0.044900082 -0.08189964
0003f0 b0 e7 85 be 39 60 8f ba b2 76 65 be c3 44 6a 3e
       -0.26153326 -0.0010938711 -0.2240856 0.22877793

mu.bias f4 [5]
000000 f7 b2 bb bc 13 70 6f bd fb 87 fe bc 2e 5f a9 3a
       -0.022912486 -0.05845649 -0.0310707 0.0012922043
000010 8f c4 24 3e
       0.16090606

log_std.weight f4 [5, 128]
000000 b3 e6 07 bd e8 24 9e bd f5 84 7d 3e 65 fc e3 bd
       -0.033178996 -0.07721883 0.2475775 -0.11132125
000010 75 f2 f3 3d b0 a8 1e 3d 61 40 5e 3d 53 40 c5 bd
       0.119114794 0.03873509 0.054260615 -0.096314095
000020 29 00 eb bd db 48 e2 bd 62 af 08 3d 99 27 80 bd
       -0.1147464 -0.11049052 0.033370383 -0.06257553
000030 0b 3c 24 bb 9b 6e e7 3d 8f b8 5e bc 64 09 d2 bd
       -0.0025060202 0.11300393 -0.013593807 -0.10255697
000040 75 df 5e bb a3 ac df bc 08 fd 58 3b fc 1e 79 bd
       -0.0034007702 -0.027304 0.0033109803 -0.060820565
000050 ca df 47 be 78 22 c8 bd fe 42 73 3d 24 60 8b 3d
       -0.19518963 -0.097721994 0.05939006 0.06805447
000060 1f 64 0f 3d db af 42 3d 4c 91 5e be 57 0f fc bd
       0.035007592 0.04753099 -0.21735114 -0.12307613
000070 2b 8e 97 3e 49 19 a7 bd 7a 07 2f 3c 6f c1 7a bd
       0.29600653 -0.0815912 0.010682935 -0.06121963
000080 21 8d ca 3c 4a e2 6a 3d 51 01 76 bd f5 7b 36 be
       0.024725499 0.057344712 -0.06005985 -0.17820723
000090 63 bc 2a 3d ff 32 77 bd 3d 5b 23 bd ff 8d 45 3d
       0.041683566 -0.060351368 -0.039881933 0.04823112
0000a0 c8 2e d9 bd 24 1f 64 bd 6b aa 80 bd 22 e5 7b bd
       -0.10604626 -0.05569376 -0.06282505 -0.061497815
0000b0 3b f2 35 bd e3 91 d8 bd b1 72 9d bd fc 90 1b be
       -0.044420462 -0.10574701 -0.07687891 -0.15192026
0000c0 0c 9c 7b 3d 94 74 9e bd 56 c6 8a bd 8a 01 6c bd
       0.061428115 -0.07737079 -0.06776111 -0.057618655
0000d0 99 25 22 bd 29 60 05 be 55 17 f7 bd d8 42 04 be
       -0.039586637 -0.13024963 -0.12064997 -0.12916124
0000e0 36 41 11 3d 1b 3d 04 3e 19 0b f3 bd 21 f5 95 3d
       0.03546258 0.12913935 -0.11867351 0.07322145
0000f0 b4 5f 7d bd 6d 63 f1 3d 7d 50 ad bd 48 5f 23 be
       -0.061858848 0.11786542 -0.084626175 -0.15954316
000100 3e cb d5 bd 6e 90 39 3d ce b2 97 bc bc 81 8a 3a
       -0.10439156 0.045303755 -0.018517878 0.0010567228
000110 f7 12 41 bb 77 b0 65 be 4c 8e a2 3a 30 e9 eb bd
       -0.0029460767 -0.22430597 0.0012402027 -0.11519086
000120 01 46 14 3d 38 9c 65 bd 52 38 ea bd fb 54 92 bd
       0.036199573 -0.056057185 -0.114365235 -0.07145115
000130 0a 03 db bc f6 cf cc bc e1 1e 7b bd 59 36 89 3d
       -0.026734848 -0.025001507 -0.061308745 0.06699819
000140 a8 58 39 be 3b 6a fe bd a2 d1 a6 bd 8f 3c 2f bb
       -0.18100226 -0.124226056 -0.08145453 -0.0026738977
000150 5f 1b 4a bc 70 ab 0c 3d d0 c6 2e bd 7f f0 85 bd
       -0.012335627 0.034343183 -0.04267007 -0.065400116
000160 ef 47 eb 3c 8f 9c a3 bc a6 02 3f bc 35 bb 43 3c
       0.028720824 -0.019972114 -0.011658346 0.011946489
000170 6c 76 db bc d7 66 52 3d 7b cd 84 3d 88 3c 9d 3c
       -0.026789866 0.051367607 0.06484505 0.019193903
000180 f0 de d9 bb a7 53 4c 3d 32 d8 b2 bc a6 01 61 bd
       -0.0066488907 0.049884465 -0.021831606 -0.054933213
000190 da b5 67 3d 58 fb 2e be 17 e4 54 be ff bf 3a 3a
       0.05656991 -0.17088068 -0.20790134 0.00071239466
0001a0 98 49 89 3b 5c da f0 3d 72 32 48 be 80 f5 45 bc
       0.0041896813 0.11760399 -0.19550493 -0.012082458
0001b0 f3 26 c9 bb 2f 6c 1d bd a1 90 e6 3d 6a ec 39 bd
       -0.0061386763 -0.03843325 0.112580545 -0.045391478
0001c0 fc f8 be bc 1d 54 ad bd 3f 32 0c be 23 71 96 3d
       -0.023312084 -0.08463309 -0.13691042 0.07345798
0001d0 90 a4 ec 3c 05 7c ab bd c3 68 bb 3c 7a 62 8e 3d
       0.028887063 -0.08373264 0.022877103 0.06952377
0001e0 d2 64 05 3d fb 24 7b bd 13 00 56 3b b5 9f 1b be
       0.032566853 -0.061314564 0.0032653853 -0.15197642
0001f0 ca 78 d4 bd 13 98 e2 bd 9f 2f 30 be 3d 6d 9f bc
       -0.10374601 -0.11064162 -0.17205666 -0.019461269
000200 15 5b 19 3c a6 fc 05 be 95 bc 98 3c a1 dd 1d bd
       0.009360095 -0.13084659 0.01864461 -0.03854144
000210 98 47 55 3d ac 52 c5 3d ad 67 89 bd f3 07 24 3d
       0.05207023 0.09634909 -0.06709228 0.040046643
000220 22 09 35 bc 7f 20 80 3c 48 e4 23 bd 4b 76 98 3d
       -0.011049541 0.015640495 -0.040012628 0.074444376
000230 af 0a 56 bd 89 17 e2 bd 90 6f f4 bd de 78 b0 3c
       -0.052256282 -0.11039645 -0.11935341 0.021542009
000240 a9 8a c5 3d b5 af 2e bd a5 d1 b7 bd 04 df f9 bd
       0.09645588 -0.042648036 -0.089755334 -0.1220074
000250 32 38 13 be 0f 4d c7 bc 98 94 43 ba e3 82 09 3d
       -0.14376906 -0.024328737 -0.0007460802 0.03357209
000260 00 c3 f5 3d c7 88 a9 bd 06 57 29 be 5b 30 06 be
       0.12000084 -0.08278041 -0.16537103 -0.13104384
000270 b2 1b 0e 3d 34 1b 1e bc 75 d7 d5 bd 89 89 a1 bd
       0.03469438 -0.00965004 -0.10441486 -0.07887561
000280 c4 ca 7e 3c 7e eb d1 bd be 66 8f bc 44 8a 12 bd
       0.015551273 -0.10249995 -0.017505046 -0.03577639
000290 21 a2 15 bd 23 ef fa bd 7d 6d 8d bd 16 58 4c bd
       -0.03653157 -0.12252643 -0.06905649 -0.049888693
0002a0 4a b9 fd 3c e9 bc f1 bd 61 e2 5f 3d a7 c5 4a 3d
       0.030972142 -0.1180361 0.05465925 0.049504902
0002b0 18 b1 ad bd 8b 05 ae bd 59 d2 f5 bc c7 c3 b1 bd
       -0.084810436 -0.08497151 -0.030007528 -0.0867992
0002c0 b9 3d 0e be 1d 16 5b bd 86 d8 35 bd 55 ee fe bd
       -0.13890733 -0.053487886 -0.044395946 -0.12447802
0002d0 7a 4a 05 bd 74 a4 12 be 7f 14 9d bd 3a f1 cf bb
       -0.03254173 -0.14320546 -0.07669925 -0.006345895
0002e0 19 69 44 3c 3c ea b6 bd de a0 9f be 5d ce e9 bd
       0.011987948 -0.089313954 -0.3117742 -0.11416314
0002f0 b6 4a 88 bd 2e 57 3b be 45 46 35 3d 32 bd e9 bc
       -0.06654875 -0.18294975 0.044256467 -0.028532598
000300 4e 44 90 bd d6 48 06 bc da 87 99 bd d9 1c e5 bb
       -0.07044278 -0.008196076 -0.07496615 -0.0069919643
000310 d2 c4 95 bd 38 69 b6 3c 1a fc 78 3d af 6e 2b 3d
       -0.07312931 0.02226697 0.060787298 0.041853603
000320 f2 95 f1 ba 34 1f f4 3b a0 8d 1a be 73 b1 8a 3d
       -0.0018431528 0.0074500088 -0.15093088 0.06772127
000330 30 9d 61 bb 1c ef f9 bc 91 49 25 bb c8 47 ee bd
       -0.0034425966 -0.030509524 -0.002522085 -0.11634785
000340 78 0c 3a 3c 1e 05 bf bd 5a e8 93 3d 4f 0b 9b bd
       0.011355512 -0.09327148 0.07222052 -0.07570516
000350 4e 4c a7 bc 16 81 96 bc a3 92 be bc 6a ba b7 3d
       -0.020422127 -0.0183721 -0.023263281 0.089711025
000360 d7 e8 1c bd 34 cc 0c bd 14 64 c8 3c b1 60 18 3d
       -0.03830799 -0.03437443 0.024461783 0.037201587
000370 f5 84 15 be d7 51 66 3d fd a3 72 3d 58 64 82 3c
       -0.146015 0.056230392 0.059238423 0.015916988
000380 59 04 6a 3d 57 f7 c8 bc 27 84 3f be 63 fc 84 bc
       0.057133052 -0.024532003 -0.18702756 -0.016233629
000390 29 67 fc 3d 75 a4 c7 3d b3 0c 99 bd 10 44 ce 3d
       0.12324364 0.097481646 -0.07473125 0.10071576
0003a0 21 fd 93 bd 3d f6 4f bc 49 22 ce 3d 72 2d e4 3c
       -0.07226015 -0.012692985 0.10065133 0.027853701
0003b0 52 88 bb bc b5 3c bf 3a 49 27 25 3c 65 f5 48 bd
       -0.022892151 0.0014590236 0.010080167 -0.04906215
0003c0 8a ba 0f 3d 00 25 e2 bd 38 39 c5 bd 8a 03 47 3d
       0.035090007 -0.110422134 -0.09630054 0.04858736
0003d0 f4 fd 33 bc 7b b2 53 be 5d 83 26 bd 56 e8 1e 3d
       -0.01098584 -0.20673554 -0.04065262 0.03879579
0003e0 1a d7 0c 3b 54 87 9f bd fd d0 9c 3d b5 6f 1f 3e
       0.0021490515 -0.07789484 0.07657049 0.15569957
0003f0 70 24 ba 3d 3f 4a 2a 3c f2 50 c4 3d ab 7e 4e bd
       0.09088981 0.010393678 0.095857516 -0.05041377

log_std.bias f4 [5]
000000 d7 fa 2c be 9a 10 c5 bd e0 c8 d4 bc 4c 53 1f be
       -0.16892563 -0.09622307 -0.02597469 -0.15559119
000010 c8 58 21 be
       -0.15756524
