resource/multi_run_experiment_20250319_111011/run_5/sac_critic_45000.pth (torch, 155391 bytes, 10 tensors)

fc1.weight f4 [128, 17]
00000000: 9f6c 993d bb0d 93be a610 b6be 9d85 0fbe
00000010: 495d 733e 9d8c 7f3d 7197 0abf bd2d 623e
00000020: a9cd 7b3e d09e c0bd 6271 b63e 380a 10be
00000030: 813c 473e bdea efbe 5d1a e53d 0790 93be
00000040: 639b 0b3e 8c48 18bc 244a ce3d eb95 22be
00000050: 1f95 2d3e b3e4 9cbc 8ae9 63be e184 a9be
00000060: 883b 343e ff82 453d 4127 1d3e 8fbe a23d
00000070: 2cad 82be 7441 f43e 3416 a5bd 421e a93e
00000080: 9de1 5e3e 475b 4a3e 4d6d 86bd 137b 09be
00000090: bf2b 04be 9c87 a7be 5834 4fbe 1e66 8fbe
000000a0: d8cd c1be 06e5 31bd 9f94 363e 2c1f 90bd
000000b0: a1bd 4d3e 1875 cebe 74eb 923e 1a5f debd
000000c0: 7b9a fdbe 447e b1be b3c3 c5be fc3a 1bbe
000000d0: bedc 63bb bc69 f5be 6262 bb3d b49c 3e3e
000000e0: e555 363e d820 37be bafd 4b3e 0959 653e
000000f0: 9a0c 823e 9b80 113d 9a9f 4abe 6b80 f6be
00000100: fa88 eb3c aa78 36bd cb47 d6be db37 cbbe
00000110: d9e9 4e3e a3aa 8a3c 9be6 183c 6e42 a33d
00000120: f800 49be ed7e 83bd 30dd a63d 850e 113e
00000130: 56e5 463e 98e9 36be 0492 adbe 694e 003e
00000140: bac3 a0be efc1 b2bd 88fc 4d3e ab96 60be
00000150: bb39 883e d8e5 6c3e daba 87be a6df efbd
00000160: e782 31bd 4a5f 2bbe 73b9 3cbe 197d 503e
00000170: 3fef a93d 72de 29be c9ce a0be 5f47 08bd
00000180: ba8a 7dbe a6f8 91be df0f 1dbe 7573 69bd
00000190: 638e c1be d011 04be 5774 903c 08d5 993e
000001a0: 8ec9 653d 9d1e 49be 14d0 133d 1a2b 17be
000001b0: e9b3 cf3c 78d6 533e 3984 8a3d 3d8f 183d
000001c0: 80b1 63be 27c9 4abe 2365 933e 78f5 7b3c
000001d0: ffbe 19bc e01a 263e fed9 4a3e b804 173e
000001e0: 0185 cbbd 355b 203e 2af1 10bf b10d 98be
000001f0: 2836 ab3e 57c1 4a3e fe5d 01be cc8c 6cbe
00000200: 4cdf bf3e 0ff2 8cbd 98e6 70be 8201 c8bd
00000210: c11e dfbe bd1f 36be f1d8 a3be 3efb bebd
00000220: 15af dfbd b257 8cbd 60be af3d 74d0 513e
00000230: f669 2d3e 9f9a 713c 4382 403e 1ebc 5e3e
00000240: 1868 423e 379d a13e e33c 6abd 7a33 56bc
00000250: d30b 8abc 8f27 3d3e 34fe 273e 36e2 2e3d
00000260: f64f 7a3e e703 a5bd 3e08 443d f244 48bf
00000270: 63d2 7cbd fd43 fdbc 4409 823e f56a adbe
00000280: 8f3a 833e 522b 47bd 0b4c 10be 67a0 ff3d
00000290: a887 5ebd d231 edbe c4cc 8bbe 0f67 043c
000002a0: fce2 8fbe 8853 473e 5973 f93d 02e1 4b3e
000002b0: 1c08 823e 5942 36be 8702 39be 5b65 57be
000002c0: c30f a93d 4e4f a3bd cfe2 d0bc d745 3fbd
000002d0: 1066 abbd 3a23 7cbe d665 cebb 969f 1b3e
000002e0: 9169 b73e c540 9bbe 0d70 80be ceb5 293d
000002f0: 1f83 4ebe 326f 6a3e 9f37 87be 85cd 013e
00000300: 69d0 38be 2eaf 11bc 8c29 58bd caeb d2bd
00000310: ec17 bebe 19c4 75be 98ac 93bd 0af8 9cbc
00000320: d6c7 c7bd de7e 60be 0221 aebc 0473 153d
00000330: ff0b 2e3e 16b1 3dbe 8804 d33d 35d7 a2bd
00000340: 4996 52be 93cc ddbd acd7 d4bc f512 0a3d
00000350: 0c27 903e 823a 56be 439f 0ebe 73be 943e
00000360: 369a 8c3e 9dbb 7bbe f897 113e 6e22 febd
00000370: bb10 89bb d734 ad3d 47f9 133e 8a44 6fbd
00000380: c8f9 143e a9ba e63d 3b5c 103e af67 a7be
00000390: f601 1b3e 663f debd e74b 60bd 8f7f 793e
000003a0: 4e60 573e 68c3 cfbe 930f 7f3c 5228 833c
000003b0: 309d c43d b594 9abe ed32 083d d5d8 843e
000003c0: 0cd7 1cbe ee90 6e3e 925e 94bc cc27 4a3c
000003d0: 7ad7 e1bd 582a f6bd 6e89 993d 2975 8e3e
000003e0: c865 eebd 90f6 af3c 4dfe 93bb 7c97 02be
000003f0: 4b38 43bd e874 95be 5c23 e6bd cd19 403e
0.07491421 -0.28721413 -0.35559577 -0.14015813 0.23766054 0.06238996 -0.5413733 0.2208776
0.24590172 -0.09405291 0.3563338 -0.14066398 0.19456674 -0.4685878 0.11186669 -0.28820822
0.13633494 -0.00929464 0.10072735 -0.15877502 0.16951416 -0.019152021 -0.22257057 -0.3310919
0.17600834 0.04822063 0.15347005 0.079465024 -0.25522745 0.47706187 -0.080608755 0.33030897
0.21765752 0.19761382 -0.06563816 -0.13425855 -0.12907313 -0.3272065 -0.20234811 -0.28007597
-0.3785236 -0.043431304 0.17830132 -0.070371956 0.20091869 -0.4032371 0.2869526 -0.10857983
-0.49531922 -0.34666646 -0.3862587 -0.1515922 -0.0034769024 -0.4793223 0.091496244 0.18614465
0.17806204 -0.17883623 0.19921008 0.22397245 0.2540024 0.03552304 -0.19787446 -0.4814485
0.028751839 -0.044548668 -0.4185165 -0.39691052 0.20206393 0.016927069 0.009332324 0.07971655
-0.19629276 -0.064206935 0.08147657 0.14165695 0.19423422 -0.17862546 -0.33900464 0.12529911
-0.31399328 -0.08728396 0.20115864 -0.21932475 0.26606545 0.23134553 -0.26509744 -0.117125794
-0.04333773 -0.16735569 -0.18430118 0.20360221 0.08297586 -0.16588762 -0.31407765 -0.03327119
-0.24759951 -0.28510016 -0.15338086 -0.056994874 -0.37803945 -0.1289742 0.0176336 0.30045342
0.05610042 -0.19640584 0.03608711 -0.14762536 0.025354343 0.20687282 0.06763501 0.037245978
-0.2223568 -0.19803296 0.287881 0.0153783485 -0.009383916 0.1622119 0.1980972 0.14747894
-0.09937478 0.15659793 -0.5661799 -0.29697946 0.33439755 0.19800316 -0.12633511 -0.23100585
0.3747505 -0.068821065 -0.23525465 -0.097659126 -0.4357815 -0.17785545 -0.3200145 -0.093252644
-0.10922066 -0.06852664 0.08581233 0.20489675 0.16934952 0.014746337 0.18799691 0.21751449
0.18985021 0.31565258 -0.057186972 -0.013073796 -0.016851341 0.18472122 0.16405565 0.0426962
0.24444565 -0.08057385 0.047859423 -0.782302 -0.061724078 -0.030916208 0.25397694 -0.33870664
0.25630614 -0.048625298 -0.14091508 0.12481766 -0.05432859 -0.46327072 -0.2730466 0.008081212
-0.28102863 0.19465458 0.12180204 0.19910052 0.25396812 -0.17798747 -0.1806737 -0.21034758
0.082549594 -0.079741105 -0.025498776 -0.046697464 -0.08369076 -0.24622813 -0.006298761 0.15197596
0.35822728 -0.30322853 -0.25085488 0.041433148 -0.20167206 0.2289398 -0.26409623 0.12676056
-0.18048252 -0.008891864 -0.052773997 -0.102988794 -0.37127626 -0.24000587 -0.07210654 -0.019161243
-0.097549126 -0.21923396 -0.021255974 0.03648664 0.16996764 -0.18524584 0.10303599 -0.07951204
-0.20565142 -0.10830035 -0.025981747 0.033709485 0.2815479 -0.20920756 -0.13927941 0.2905155
0.27461404 -0.24583288 0.14218128 -0.12408911 -0.0041829026 0.08457344 0.1445056 -0.058414973
0.14548409 0.11266071 0.14097683 -0.32696292 0.15137467 -0.10851936 -0.054759886 0.24365066
0.21032831 -0.4057877 0.015567678 0.016010437 0.09600294 -0.3019158 0.03325169 0.2594668
-0.15316409 0.23297474 -0.0181115 0.01233859 -0.11027427 -0.12019795 0.07496916 0.2782376
-0.11640507 0.021479875 -0.004516399 -0.12753099 -0.047661107 -0.29190755 -0.11237213 0.18759842

fc1.bias f4 [128]
00000000: 5bd8 22be 1437 ecbc db89 093e a15c 41be
00000010: ba19 6fbe dbef c03e 663b c33e 0c6f 3e3e
00000020: 1112 ca3e 1424 f73d 75c9 2c3e 5724 c33e
00000030: 3345 9b3e d119 153e e79b a33e 68f1 823d
00000040: f40e 963e 25c9 0a3f 14f5 79be 6ad7 8e3e
00000050: e5d3 e93d 2320 cb3d ec28 3ebd d3d5 833e
00000060: 822c 173e 65b4 a33e e066 293d 4cbf 983e
00000070: 47a0 803e 4905 d53e 2c48 be3d 4ce5 6b3e
00000080: 8b7f 4abe de03 f13e 0743 f53e 6fd1 9abd
00000090: 7bea b53e a5ea cfbc 7381 cf3e a10b d23e
000000a0: 6b99 5bbe af2d b13e 477f 033d 5183 c93e
000000b0: 80dc 01bd 46d3 8d3e 5f2a 9ebe 27c3 4abd
000000c0: 00af d13e 25ac 843e 1ec7 25be be27 a03e
000000d0: 82cb 793c 765c 0e3e c8a8 6abe a414 233e
000000e0: ea41 d33e 0a88 093d 6ac6 803e b82b 0dbe
000000f0: 0244 11be 2afe c63e 5af5 ca3e b33f f0bd
00000100: b6af 8d3e 12be 823e 2135 d5bc 486a ba3e
00000110: 508a 17bc ea9f 873d c7a3 fb3e e6a1 83be
00000120: 9f08 143e abc5 d23e 0d80 ba3e 6e41 593e
00000130: 03ae 943e a68a df3e 3ac0 b7be 16b2 223e
00000140: 53d1 d93e c89b cd3e 75d4 14be 1329 c03e
00000150: 81ee 933e 5fb9 0a3e 478c e13e f23d d4bc
00000160: 2353 be3e 06cf cbbd decf 9a3e 84d6 b6bd
00000170: 2f24 f13e 3a50 583e 8deb 963e 562e 8a3e
00000180: fe54 62be 0257 de3e 3857 a53e f16f e63e
00000190: e977 c03d 36f5 3dbe 3b76 75bd 0132 b33e
000001a0: 0040 c03d ebb7 95bd 1540 823e 7012 a93e
000001b0: e7b2 4bbd d737 cd3e 6c0d 9abe 6c2c 0b3e
000001c0: ef0e dd3e e221 a2bc 2e2e 8e3d 1f7c be3e
000001d0: 098f 79be 4e15 62be 5e32 2dbe d2f2 223e
000001e0: 87e9 aebb bf3e c83e 8f35 dc3c c67f 22be
000001f0: 9ee4 3abe eaba 10be 8b2f 17bd ea77 9d3e
-0.15902846 -0.028834857 0.13431494 -0.18882991 -0.23349658 0.37682995 0.38131255 0.18597049
0.3946691 0.12067428 0.16873725 0.38113663 0.30326232 0.1456063 0.31954882 0.06393701
0.29308283 0.5421317 -0.24409896 0.27898723 0.11417369 0.09918239 -0.046425745 0.25749072
0.14763072 0.31973568 0.041357875 0.29833448 0.25122282 0.41605595 0.092911094 0.23036689
-0.19775216 0.47073263 0.479027 -0.075594775 0.35530457 -0.025380442 0.4052845 0.41024497
-0.21445243 0.34605166 0.032103803 0.39358 -0.031704426 0.2770025 -0.30891702 -0.049502518
0.40953827 0.25912586 -0.16189238 0.3128032 0.015246274 0.13902459 -0.22915947 0.15925843
0.41261226 0.033577003 0.25151378 -0.13786209 -0.14186099 0.38865787 0.39640313 -0.117309
0.2767312 0.25535637 -0.02602631 0.3640921 -0.009249285 0.06622298 0.4914839 -0.25709456
0.14456414 0.41166434 0.3642582 0.21216366 0.2903901 0.43660468 -0.35888845 0.15888247
0.42542514 0.40157914 -0.14534171 0.37531337 0.28892902 0.13547276 0.44052336 -0.025908444
0.37172803 -0.09951596 0.30236715 -0.08927634 0.47097918 0.21124354 0.29476586 0.26988477
-0.22102734 0.43425757 0.32293105 0.4500728 0.09397871 -0.18550572 -0.059927206 0.34999087
0.09387207 -0.0731047 0.25439516 0.3302188 -0.04973116 0.40081665 -0.30088365 0.13591164
0.43175456 -0.019791547 0.06942402 0.37204072 -0.2437097 -0.2207844 -0.16913745 0.15912941
-0.005337897 0.3911037 0.026881007 -0.15869054 -0.18251273 -0.14133802 -0.036910575 0.3075555

fc2.weight f4 [128, 128]
00000000: f8b5 aebb 75df c7bd 1c7d 223e d343 95bd
00000010: 41f0 ecbd 4560 803e c659 813e bd31 653e
00000020: bc06 e53d 957f 90bd d582 5a3e 4b24 af3e
00000030: 0663 893e 74cb 5c3d 78e3 8f3d 2cfa a73d
00000040: 171c c13d 6e30 9c3e b51d 5ebe 1251 003e
00000050: e9b0 393e 9d62 663e 4876 073e bd06 163e
00000060: 9c68 933c 9ec3 b63d aff3 9f3d 14ac 173e
00000070: 6261 983e e00c bc3e 1b80 1b3e c4cf 573e
00000080: 7856 8dbd bb78 a43e 63a9 583e 759c b9bc
00000090: 9234 b03e 3d92 ad3d bb9d 7c3e 6e3d 8f3d
000000a0: b271 18be c1be 983e 6388 043d d8e6 893e
000000b0: 3eaf 52bd bf83 40bb 7378 35bd 1279 30bb
000000c0: 7e96 973e 003a c23d 97ec 4dbd 72f1 373d
000000d0: 6696 683e 547d 213b f6d3 91bd 2c51 083e
000000e0: 9252 4b3d 383e 913c 02a2 293d f066 b53d
000000f0: 1fe3 f33c 1c79 d13d 55b8 983e b228 723e
00000100: 99e8 893d d243 fb3c 35ed 053e a258 573e
00000110: 1fd7 453d b04f 763d 6805 2b3e a3c8 c83d
00000120: 82f5 9f3d 8ce1 db3d 0070 0c3e 3db8 403e
00000130: f0bb 3c3e 38fd 583e 5d02 c83d 81aa b83d
00000140: a259 a93e 2b92 793e 0e10 07be acc7 5a3e
00000150: c3d0 783e 2709 8c3d ba5e 8d3e f201 233e
00000160: d55b 4e3d b9bc 6cbe b299 803e f917 06be
00000170: 4ece 953e 77e9 b63d 8f61 5c3e b5cf b33e
00000180: 2d85 5dbe f650 4f3e e713 6a3d 038d 843e
00000190: c31c 7d3e df6d d8bc 77be 713e f694 d53d
000001a0: 0739 473e ca77 ab3d 9c44 a13b a194 bf3d
000001b0: 7b56 023d d263 4d3e 0698 a9bd 1258 503d
000001c0: 368f 893e f260 7e3d a50a 42be 8ff7 e33d
000001d0: 4ba3 003e 797a d83d 651f 0b3e 8414 463e
000001e0: 6443 1c3e a01a 213e 69e8 c83d 107a 643d
000001f0: 1364 9e3c 2776 b2bd 3df6 26be 23fc 0e3e
00000200: e5aa b6bd 8a12 83bd f023 4a3e 0492 f0bd
00000210: c990 a4bd fad1 df3d 3526 503e 4cc6 4f3e
00000220: c41f 183e 8471 69bc 91db d73d 905e a83e
00000230: 8b88 aa3d a26b e33d df66 ac3c 8794 5e3d
00000240: 4a29 163e 5db2 703e 5935 1dbe fa2a 023e
00000250: cdea 5f3e 0852 3c3e 764a 823d 2721 c53d
00000260: 4440 96b8 9c97 013e ae3e 313e 8f35 1d3e
00000270: fc3e a63e 589c 683e a303 ef3d a0a8 383e
00000280: 7466 39be 05d7 113e e44d 2f3e 1d3a b8bd
00000290: 9e49 7b3e 0951 e93c 6a55 0a3e fdd7 233e
000002a0: 61ff 13be afca 293e 81b5 e93d 10a8 743e
000002b0: bc99 09be f526 f53d 7d59 05bc 0bed a53c
000002c0: aa51 9c3d 8e04 243e 2f02 8d3d e7b9 f13d
000002d0: cbeb 153d e7e9 3b3d d1d5 dabd 3e29 a13c
000002e0: 2229 173e 34c2 c83d a296 f93d 9366 013e
000002f0: 1ac9 fc3c dc63 463e 9655 813e f742 9f3d
00000300: 3f8f 043e ba17 f13d c57d 473e 8da3 803e
00000310: 4a44 173e cf4c 04bd 055a fe3d c9b1 ee3d
00000320: a2c4 043e dcd4 183e ae9b 053d 534b 1c3d
00000330: 3f60 863d b1b9 e93d 87c3 eb3d de12 03bc
00000340: 53d0 7e3e 33c5 b43d 8ecd 36be 4a30 e63d
00000350: a4ee 813e 7c65 083e ad3a 293e cee2 733e
00000360: 34aa fe3d d282 53be cf45 673e ad26 5fbe
00000370: 3c21 703e d72a 253e 1d53 c23d d51f 413e
00000380: 36bf 88be 4e35 273e 25ec 153e 2d80 a33d
00000390: 3db2 883e 2758 2c3c 84e0 773e 5747 213e
000003a0: 3114 1f3e 056b f73d d501 e9bb 15e2 243e
000003b0: d4d6 5ebd 1c69 e23d c394 0fbe 880c db3d
000003c0: 79f6 1a3e 7636 0b3d c5bf dfbd 832d 8a3d
000003d0: 3f6e 1e3e 3753 0c3d ea19 c13c dd75 0d3e
000003e0: 607b b83d e2d6 113e c9df 4f3e 2244 e13d
000003f0: 94a2 1a3d e5e6 3fbe a18f d5bc a237 183e
-0.005331751 -0.09759418 0.15868038 -0.07288327 -0.11569262 0.25073448 0.25263804 0.22382255
0.11182925 -0.07055584 0.21338971 0.34207377 0.2683336 0.053904966 0.07025808 0.082020134
0.09429186 0.305057 -0.2169102 0.12530926 0.18133892 0.22498555 0.13228714 0.14651008
0.017994218 0.0892403 0.07810151 0.14811736 0.29761797 0.36728573 0.15185587 0.2107535
-0.06901258 0.3212336 0.21158366 -0.022657612 0.34415108 0.08475158 0.24669544 0.06994139
-0.14887121 0.29833034 0.03235663 0.26933932 -0.051436655 -0.0029375402 -0.044304322 -0.0026927632
0.29607004 0.09483719 -0.050274458 0.044907995 0.22713622 0.0024641352 -0.071205065 0.13312215
0.049639292 0.017729864 0.04141427 0.088575244 0.029771386 0.10228178 0.29828134 0.23648337
0.067338176 0.030671988 0.13078769 0.21029904 0.04830086 0.06013459 0.16701281 0.098038934
0.07810499 0.10736379 0.137146 0.18820281 0.18431067 0.21190345 0.09766076 0.09016896
0.33076197 0.24372165 -0.13189718 0.21365231 0.24298386 0.06837683 0.27611333 0.15918711
0.050380547 -0.23118867 0.2511726 -0.13095082 0.2925896 0.08931249 0.2152159 0.35119405
-0.21632834 0.20245728 0.057147887 0.25888833 0.24718003 -0.026419578 0.23607813 0.10428803
0.19455348 0.08372457 0.004921509 0.093545206 0.031820755 0.2005761 -0.08280949 0.05086524
0.26867074 0.062104173 -0.18949373 0.111312024 0.12562291 0.10570235 0.13586195 0.19343764
0.15260082 0.15732813 0.09809954 0.05578047 0.019334828 -0.08713942 -0.1630487 0.1396337
-0.08919314 -0.064000204 0.19740272 -0.117466 -0.08035428 0.10928722 0.20327075 0.20290488
0.14855868 -0.014248256 0.10539926 0.32884645 0.08326825 0.11104514 0.021045147 0.054340865
0.14664188 0.2350554 -0.15352382 0.12711707 0.21866913 0.18390667 0.063618585 0.09625464
-7.164528e-05 0.1265549 0.17309067 0.15352462 0.32469928 0.2271589 0.116706155 0.18033075
-0.18105489 0.1424218 0.17119557 -0.08995459 0.24539801 0.028481023 0.13509145 0.16000362
-0.14452888 0.16581224 0.11411572 0.23892236 -0.13437551 0.11970321 -0.008139011 0.020254632
0.07632764 0.16017362 0.06885182 0.11803036 0.036601823 0.045877364 -0.106853135 0.019672986
0.14761785 0.09802666 0.12186934 0.12636785 0.030857611 0.19374031 0.2526061 0.077764444
0.12945269 0.117721036 0.19481571 0.2512478 0.14772144 -0.032299813 0.124195136 0.116550036
0.12965634 0.1492495 0.03261917 0.038157772 0.06561326 0.11412371 0.11511903 -0.008000104
0.24884157 0.08826675 -0.1785185 0.11239679 0.2537738 0.13319963 0.1652629 0.23816988
0.124348074 -0.20655373 0.22585224 -0.21792097 0.23450178 0.16129623 0.09488509 0.18859799
-0.26708382 0.16328928 0.14640863 0.07983432 0.26698485 0.010519064 0.2420674 0.1574987
0.15535046 0.12080959 -0.007110814 0.16101868 -0.054404095 0.11055204 -0.14021592 0.106957495
0.15133084 0.033987485 -0.10925249 0.06746962 0.15471743 0.034259047 0.023571927 0.13814493
0.09007907 0.14242128 0.20300211 0.109993234 0.037752703 -0.18740423 -0.026069464 0.14864972

fc2.bias f4 [128]
00000000: 69af 6e3e de36 273e 66bb 0cbd c33a 1c3e
00000010: bbde 763e 58af 853e b63d 273c bd86 6f3e
00000020: 4a09 4638 f88e abbc e1c1 aabd 111a 373e
00000030: f391 693d 401b 793e 4930 293d 9baf 5e3e
00000040: c8a1 093e ac25 b9bd 24cb 173d 70f6 1b3e
00000050: f7e2 c5bd d706 f33d fe64 fa3d 5927 07be
00000060: b8ab 8abc 2151 e43d a3ec a2bd ada9 443e
00000070: b827 3a3d 8d06 483e 93a0 453e 9889 703e
00000080: 45f0 0e3e 0330 983e a30c d93d 5da9 113d
00000090: f606 663d 7106 193e 4cb5 6ebd 8c7a bc3c
000000a0: cc19 82bd 0f18 353d b602 4abd a107 b93d
000000b0: 0a89 80b9 e00e 7e3d 8328 cd3d 16c8 1e3d
000000c0: 2b5e 4c3e 64a6 123e 6e96 6d3e a477 87bc
000000d0: 82c6 333e 3497 b53e af2e 83bd 187c 843c
000000e0: 8028 8cbc 83de b63d 9a17 0a3e 2253 25bc
000000f0: 04e4 bd3d df13 733e 08d3 1f3d 8f13 333e
00000100: 13a1 683e c84d ec3d 6c40 b13b b974 d1bd
00000110: e6e9 36bc 52ea 903d 2de2 633e fb03 613e
00000120: a745 8bbd 62e3 75bc 15b0 453e aab7 e6bb
00000130: a9da 483e d41e 383e 664a 163e d631 8b3e
00000140: 3d0f 4f3e ea7e 0abc 4154 a23c 2667 f3bd
00000150: 7a24 143e 315a 643c b8e8 283e 6581 c0bc
00000160: f9fe 523e d115 dcbd ca35 893e b1f5 783e
00000170: 81bb 373d 1f11 223c 2ce0 cbbd 41a0 4a3e
00000180: bdce b4bd 8e74 8a3e 6341 713e 66d0 18bd
00000190: 00d0 683d 50a0 eb3d 0d88 b23e 96cf a3bd
000001a0: 6f6e 313e 692f b83e f35e 9dbd df4d d9bd
000001b0: d7f0 383e d638 4f3e e6dc b53c b1ce 773e
000001c0: 0f2d 023d 7f28 813d f092 113e f1d0 9fbd
000001d0: daf0 213e ac6f 903e 1cec 1f3c b222 89bd
000001e0: 2dc7 abbd 65bd 033e 0940 edbb 5369 8e3e
000001f0: 380d 253e dcfe babd a892 44bb a73a 0c3e
0.23309101 0.16329524 -0.034358405 0.15256791 0.24108402 0.2611034 0.010207584 0.23391242
4.721553e-05 -0.020942196 -0.08337761 0.17881037 0.057023954 0.24326801 0.041305814 0.21746676
0.13440621 -0.090403885 0.037058964 0.15230727 -0.09662431 0.11866539 0.12226294 -0.13198604
-0.016927585 0.111482866 -0.07955291 0.19205351 0.045448035 0.19533749 0.19299535 0.23489988
0.13958843 0.2972413 0.105981134 0.035561908 0.056158982 0.14943863 -0.058278367 0.023007654
-0.063525766 0.044212397 -0.04931899 0.09034658 -0.00024516165 0.062025905 0.100174926 0.038765036
0.19957797 0.14321285 0.23201916 -0.016536541 0.17556193 0.3546692 -0.064053886 0.016172454
-0.017109156 0.089291595 0.13485566 -0.010090621 0.09272006 0.23738049 0.039019614 0.1748793
0.22717695 0.11538273 0.005409291 -0.10227341 -0.011164164 0.07075943 0.22254248 0.21974175
-0.068003945 -0.015007826 0.19305451 -0.0070409374 0.19614662 0.1798051 0.14676818 0.2718646
0.20220657 -0.00845311 0.019815566 -0.118849084 0.1446704 0.013937519 0.16495025 -0.0234992
0.20605077 -0.10746349 0.2679885 0.24312474 0.044856552 0.009891777 -0.09954867 0.19787695
-0.08828495 0.2704205 0.235601 -0.03730812 0.05683899 0.115051866 0.34869424 -0.07998578
0.17327283 0.3597367 -0.07684126 -0.10610556 0.18060623 0.20236525 0.02220006 0.2419994
0.031781252 0.06306552 0.14216208 -0.07803524 0.15814534 0.282102 0.009760883 -0.06696071
-0.08387599 0.12865217 -0.0072402996 0.2781473 0.16118324 -0.09130642 -0.002999464 0.13694249

q1.weight f4 [1, 128]
00000000: ff6d 933e 819c 493e d586 83bf b886 293e
00000010: 6c04 613e 04c6 483e 5f93 6abf 41f1 863e
00000020: 8577 2fbf ca2f 9fbe 69aa a7be 54a6 893e
00000030: 2a51 72bf 3876 493e e32e 57bf 7e09 533e
00000040: 62ae 3e3e df3d 04be 5857 53bf fed0 8d3e
00000050: af9c 44bf eedc 6f3e 56dd 5e3e 3e9d 8ebe
00000060: 37c7 f9be 19c9 613e fe36 f4be f9f5 8d3e
00000070: 2445 0ebf 37b3 763e fa79 5a3e 3c0b 9a3e
00000080: f932 303e 438b 6c3e 77f7 1ebf 2d9c f8be
00000090: 00e0 7fbf ae6a 673e d28f 0ebf 3cec dcbe
000000a0: 7838 45bf e730 6ebf 87d1 00bf 4ea6 6d3e
000000b0: bb4c 04bf e3e6 17bf df6f 49bf 7762 f7bc
000000c0: 6b67 563e 21c9 483e fcf1 7b3e fa8e 90bf
000000d0: b48c 753e 119e 7a3e 1388 0fbf 3deb 7abf
000000e0: 4c15 07bf 1153 21bf 4fbc 313e 4924 3fbf
000000f0: d225 2fbf 3b05 843e d397 56bd 2119 843e
00000100: c2fc 7e3e 9cdd 343e e49a 59bd cf28 7ebe
00000110: d553 babe 065c 6abf 1c17 4f3e 345e 913e
00000120: 48d0 4cbc e764 68bf 25a6 853e 92b3 48bf
00000130: fcf0 663e 68ac 373e 8224 753e b6e2 a23e
00000140: bdfa 813e 176b 0cbf 027e 6bbe 086c 43be
00000150: 5952 593e 6a02 30bf 110d 673e 5a1e 64bf
00000160: fed6 403e 89f7 aebe 0233 443e ead5 653e
00000170: ca93 473f 1de9 74bd 9525 9d3b 75c8 563e
00000180: cd9e d4be bf36 2c3e 22aa 5a3e b3d0 32bf
00000190: 19d8 66bf d348 413e 004d 7b3e d636 0abf
000001a0: 4353 793e 0a16 813e 92ed 2bbf 9196 31be
000001b0: af4c 683e a61d 213e a7ca d9be 2d92 5a3e
000001c0: 3984 49bf 7334 56bf 518b 403e f094 a1be
000001d0: 307c 893e 103a 5c3e 096c 35bf f06a 4bbf
000001e0: 5027 88bc 2a9d 623e e7e0 67bf aa24 5a3e
000001f0: 8c65 3c3e 6101 a0be 8b9d a1be 6976 703e
0.28794858 0.19688608 -1.0275522 0.16555297 0.21974343 0.19606787 -0.9163112 0.26355937
-0.6854175 -0.31091148 -0.327472 0.2688471 -0.94655097 0.19674003 -0.8405592 0.2060909
0.1862121 -0.12914227 -0.8255515 0.2769851 -0.7680158 0.23424122 0.2176412 -0.2785434
-0.487848 0.22049369 -0.47698206 0.27726725 -0.5557425 0.24091803 0.21335593 0.30086696
0.17206945 0.23099999 -0.6209635 -0.48556653 -0.9995117 0.22599289 -0.556882 -0.43148983
-0.7703929 -0.9304337 -0.50319713 0.23207971 -0.5167958 -0.5933668 -0.78686327 -0.030198319
0.20937888 0.19607975 0.24604028 -1.1293633 0.23979455 0.2447436 -0.5606701 -0.98015195
-0.5276687 -0.63017374 0.1735699 -0.7466474 -0.68417084 0.2578524 -0.052390885 0.25800422
0.24901107 0.17662662 -0.05312623 -0.24820255 -0.36392084 -0.91546667 0.2022366 0.28392184
-0.01250083 -0.90778965 0.2610332 -0.78399 0.22552866 0.17936862 0.23939708 0.31813592
0.2538661 -0.54850906 -0.22997287 -0.1908418 0.2122282 -0.68753684 0.22563578 -0.8910881
0.18832013 -0.3417323 0.19160083 0.22444883 0.77959883 -0.059792627 0.00479574 0.20974906
-0.41527405 0.16817759 0.21353963 -0.698497 -0.9017349 0.18875436 0.24541092 -0.53989923
0.24348168 0.25212127 -0.6715938 -0.17342593 0.22685502 0.15733966 -0.42537424 0.21344824
-0.7871738 -0.8367378 0.18803145 -0.31558943 0.2685256 0.21506524 -0.70867974 -0.7946005
-0.016620308 0.22130266 -0.9057755 0.21303049 0.18398112 -0.31251052 -0.31565508 0.2348267

fc3.weight f4 [128, 17]
00000000: 87ae 823e fb7d 2e3e cbfd b6bd 3793 f33d
00000010: e172 89bb 5643 373e fc97 6e3e 566e 683e
00000020: e8db 02be ff43 06be 176e 93be 724b 0d3d
00000030: 5e26 a73d 2c7f 513e 0867 263e 6959 fb3d
00000040: cf25 82be b9ed cdbc ead2 9cbe 07dd 57bd
00000050: 2088 8e3d 326e f6bd 4a40 393e 0ccb 82be
00000060: 775d 863e 3570 50bd 101e a03e de16 d039
00000070: 8673 bbbd 4f40 7c3e a6df 2b3e 2498 70be
00000080: 0cb1 4bbe 00d5 c1be 823a fc3c 2ccd ba3d
00000090: b0fe ebbd e97c bc3d 0a70 3a3e 5dd4 b83d
000000a0: e0a6 da3d 6388 ae3d 6caa 9e3d 3cf3 4dbe
000000b0: bdfc 31be 10e0 503e 8434 243e 12ec 593e
000000c0: 5e7f 1cbd 95da 5cbe e2c7 60be 7d48 c33d
000000d0: 48c0 a13c 06dc 6e3e f3e4 5c3e 6382 a73d
000000e0: a9f2 cd3c e2cf 4fbd 88a4 a7bd 591c 663e
000000f0: 1bd7 3bbd 24a4 563e e9f4 b8bc dae8 e33c
00000100: 5da5 11be ea53 8a3e 9782 853c 4d8a 61be
00000110: e686 243e 5b05 c1bd c6f1 d93e 76ee dd3d
00000120: 9d33 753e ca36 02bd 4122 8dbd 677f a5be
00000130: 8af6 0dbe cbc8 713e 43cf 463d cb91 96be
00000140: 437e eabe 528a debe 4cc4 d3bd 1b45 4cbe
00000150: 5677 303e a94b 03be 57d2 86bd 7f17 27be
00000160: ecde 813e fa0b e83d a4fc 8e3e 374f a5bd
00000170: f5d3 2abe 66b6 263e 46e2 613c 934a d43e
00000180: d872 b9bd 3708 28bd 50e8 cd3e 6750 b13e
00000190: 6902 bbbd 257b a6bd e451 bf3c 08de 233e
000001a0: 0629 6bbe cdcd 003e d513 febd 24a0 c1bd
000001b0: 118d 963d c647 a73b 50de 6bbe aa6e 8d3c
000001c0: 143b 493d a825 2a3e 77f1 ab3c 891f 06be
000001d0: 0707 edbd c17b 533e c5af 83bd 8d4c 19be
000001e0: 8e93 823e 915c 45be e8bb 693e 6ba3 83bd
000001f0: 52e1 7abc 2505 32be 69ac 18be ce73 983d
00000200: 9692 2abe e143 0fbe 253c 553e 2a5e 1abd
00000210: ea4e 01be 32dd 5439 18c2 9a3d 085e 8e3e
00000220: 3f51 543e b415 963e 2c94 843d caaa 343e
00000230: 72d8 2cbc 0623 323d 021d 91bd b004 ffbc
00000240: 7597 5ebd e904 a5bd d9a6 feba 672b 3b3e
00000250: cb3c cfbd 083d a8be 974e 403d 9645 40be
00000260: 4e21 153a 6e28 81be ec6a 8a3d 3321 21be
00000270: ee16 26bd 293c 253d ec5e 4ebd 6a36 b1bd
00000280: a1c3 733e 04a4 85be 007b 0cbd 56e0 0abe
00000290: bd99 2f3e d642 a93d e0d9 24be d3d6 61be
000002a0: 241f 063c fa76 62be d258 5bbe 103a 97bc
000002b0: 483d 17be 3bde 013e 296a 24be 88fb e6bd
000002c0: 053a e2bc 73e4 49be f3d5 a5be 8c5e 54be
000002d0: 0329 6a3e a702 12bd 1b4d cc3c 519a a23e
000002e0: 3545 02bd f28d ed3e bf8a d5be f553 733e
000002f0: 254f 96bd 0869 86bd 90a3 193e 901a 0b3e
00000300: feda fb3d fc6c 8bbe 534c 1e3e 8807 133c
00000310: 436d 393e 0245 833e af24 7b3e eda8 063e
00000320: 1c01 733d 9e36 a03b 34f9 18bd b913 1c3e
00000330: 8f74 00be 2255 583d c661 e0bd 7668 39be
00000340: e444 493d 7d2c e0bd ec57 01be 0a2a 453e
00000350: 0817 853e adba 87be b749 64be 5887 90bd
00000360: 2b68 cebe 9a41 0f3e 4762 3f3d 6584 973d
00000370: d7f6 603c 5898 db3d 46c5 823d 3d8c bc3d
00000380: ab09 05be e147 ae3d def1 883e c3c7 703e
00000390: deb1 59bd 3134 be3d 7a33 33be 0d41 89bd
000003a0: 3654 053d cac6 963e 1061 763e 511d 953e
000003b0: acfc 9f3e 963a 3e3e 7be4 e53d a167 9f3c
000003c0: a0fd 463e 8f63 373e 24f9 f4bd b6b9 cbbe
000003d0: d047 f13d daf1 e13b ebfa a03d f162 90be
000003e0: 85f0 913e bc18 1ebd f729 55bd 2df2 9ebd
000003f0: da91 893c cf89 1f3e 4105 563d d5d2 5b3e
0.2552378 0.17040245 -0.08935126 0.118933134 -0.004194603 0.1789678 0.23300165 0.2269834
-0.127792 -0.13111876 -0.2879493 0.03449578 0.08161615 0.20458668 0.16250241 0.12272913
-0.2541947 -0.025137769 -0.30629665 -0.052701022 0.069595575 -0.12032737 0.1809093 -0.25545537
0.26243183 -0.05088826 0.31272936 0.0003968989 -0.09152894 0.24633907 0.16784534 -0.23495537
-0.19891757 -0.3785782 0.030789617 0.09121165 -0.11523187 0.09203512 0.18206802 0.0902488
0.1067636 0.085221075 0.07747349 -0.20112318 -0.17381568 0.20397973 0.16035658 0.2128146
-0.038207404 -0.21567757 -0.21951249 0.095353104 0.019745007 0.2332612 0.21571712 0.08179166
0.025140123 -0.050735362 -0.08185679 0.22471751 -0.045859437 0.20961052 -0.02257772 0.027820993
-0.14223237 0.27017146 0.016297622 -0.22025414 0.16067085 -0.094248496 0.4256727 0.108364984
0.2394547 -0.031790532 -0.06891299 -0.32323763 -0.13863578 0.23611753 0.048537504 -0.29408106
-0.45799455 -0.43464905 -0.10340175 -0.19948237 0.17233023 -0.12821831 -0.06583088 -0.16317557
0.25365388 0.11330409 0.27927125 -0.0807175 -0.16682418 0.16280517 0.013786858 0.41463146
-0.09055108 -0.04102346 0.40216303 0.34631655 -0.09131319 -0.08128957 0.023354478 0.16002667
-0.22964868 0.12578507 -0.124061264 -0.094543725 0.07351125 0.0051049916 -0.23034024 0.017264683
0.049128607 0.16615927 0.020989163 -0.13097967 -0.11573606 0.20652677 -0.0643001 -0.14970608
0.255032 -0.19273593 0.22825587 -0.06427654 -0.01531251 -0.17384775 -0.1490952 0.07443963
-0.1665748 -0.13990737 0.20823725 -0.037687458 -0.1262776 0.00020300297 0.07556552 0.27806115
0.20734118 0.29313433 0.06473574 0.17643276 -0.010549651 0.043490432 -0.07085611 -0.031130165
-0.05434366 -0.08057577 -0.0019428387 0.18278275 -0.10119017 -0.32859063 0.04694995 -0.18776545
0.0005688862 -0.25226158 0.06758675 -0.15735321 -0.04054921 0.040340576 -0.050383493 -0.08652957
0.23805095 -0.26101696 -0.03429699 -0.1356214 0.1714849 0.08264701 -0.16098738 -0.22054605
0.008186135 -0.22115698 -0.21420601 -0.018460304 -0.1476947 0.1268243 -0.16056122 -0.112784445
-0.027615556 -0.19716053 -0.32389793 -0.20739192 0.22867207 -0.03564706 0.02493911 0.3175836
-0.031804282 0.46397358 -0.41707417 0.23762496 -0.07339314 -0.06563002 0.150038 0.13584352
0.12297629 -0.27231586 0.15458803 0.008973964 0.18108086 0.25638586 0.24525712 0.13150378
0.05932723 0.0048893234 -0.037347034 0.15241899 -0.12544464 0.052815564 -0.10956149 -0.18106255
0.049137965 -0.109459855 -0.12631196 0.19254318 0.25994134 -0.2650961 -0.22293745 -0.07057065
-0.4031385 0.13989869 0.046724584 0.07398299 0.013730726 0.10722417 0.06385283 0.09206436
-0.1299197 0.085098036 0.2674703 0.23513703 -0.053148143 0.092872985 -0.17500106 -0.067018606
0.032551013 0.2944854 0.24060464 0.2912393 0.3124746 0.18577036 0.1122522 0.019458594
0.19432688 0.17909072 -0.11961582 -0.39790124 0.11781275 0.006895286 0.07860359 -0.28200486
0.28503814 -0.038597807 -0.052041974 -0.07761035 0.01679318 0.15579914 0.052251104 0.21467145

fc3.bias f4 [128]
00000000: 864b 28be 7024 913e c950 cc3e 2fa7 d73e
00000010: d0bf acbc 65d3 35be 5454 dc3e 18c6 7d3e
00000020: 6350 833e 8e57 523e 2a0e f5bc a7c6 813e
00000030: 3f0a 04be 5ca8 3b3e 2756 b13e 2cde a33e
00000040: bf6e 743e ad4d ec3e cbfe da3e e0d7 843e
00000050: 5e9f 863e a4d1 ff3d 6684 353e 9621 e33e
00000060: 063a 7ebd ddc5 223d ad9a 1d3d 9594 c63e
00000070: a7ae f83e c370 e8bd db06 0bbd dd03 903e
00000080: bf8f 2e3d 11d2 f33d c492 58be cf20 0e3d
00000090: 960e 3b3d e6b4 49bd 2123 e73e fca0 82bd
000000a0: 616d 93bc 8b8d c53d e3f0 05be 81e2 2d3e
000000b0: 4610 e13e 00d7 ba3e 6b28 a93e 82d7 f4bd
000000c0: 5df2 97bd fab1 c43e ebaa 503e 34af c73e
000000d0: c358 343e f9bd 53bd 71c2 19bd 30f0 9c3e
000000e0: 6650 22be 47df b93e 8bcd d43e 60eb 2b3e
000000f0: 2742 46be 5cef d83e 0612 9f3e bdb3 f33e
00000100: b5d7 b93e 8bf2 37be b4e3 9b3e 0d44 da3e
00000110: b915 59be 8688 88be 5ea9 c73e a4a1 eebd
00000120: 1bc0 54be 8575 743e 1d78 abbd e0e8 03bc
00000130: 1bc7 773e 6947 bf3e 84aa a33e a5cf 9e3e
00000140: 294e 0e3e e3c9 8abd 4429 de3e cf19 cb3e
00000150: 24a8 e03d 3e21 803e f369 d8bc 61d3 6b3e
00000160: 6486 ed3e c389 953e 9929 cf3e 714f 033c
00000170: 89ce 43bd c13c 423d 9107 433e d2ed f93c
00000180: 25dd c33e 8faa 233e 9b83 86be 341a 563e
00000190: 738c 17be 066c 4abd 05ef 593e 8354 053f
000001a0: d421 ba3e 9f1b 823e addb 7e3e 6dd4 a43e
000001b0: 7513 9f3c 370c 72be 6e90 15be d660 c33e
000001c0: c520 a93e af4f adbe cc0b 9f3e e459 49be
000001d0: 60f6 edbd 6c49 993d 93a5 663e 54fd d53e
000001e0: 8790 05be 23fa 593e db64 7dbd fc1c 8b3c
000001f0: 1c66 32bd 8ee1 a73e a3b6 e6bd c2d9 dd3e
-0.1643506 0.28348112 0.39905384 0.42119738 -0.021087557 -0.17756422 0.43033087 0.24782598
0.25647268 0.20541212 -0.02991398 0.25346872 -0.12894534 0.18325943 0.34636042 0.3200544
0.23870371 0.46153012 0.42772517 0.2594595 0.26293463 0.12491158 0.17726287 0.44361562
-0.062067054 0.03973948 0.03847759 0.38785234 0.4857075 -0.113496326 -0.033942085 0.28127947
0.042617556 0.11905301 -0.21149737 0.034699257 0.045668207 -0.049244784 0.4514399 -0.063783616
-0.017996492 0.09646138 -0.13080172 0.16980936 0.43957728 0.36492157 0.3303865 -0.11955167
-0.07419274 0.38417035 0.203777 0.39000857 0.17611985 -0.051694844 -0.03753895 0.30652
-0.15850982 0.3630316 0.41563067 0.16789007 -0.19361173 0.42370117 0.31068438 0.47598067
0.36297384 -0.17963617 0.3044716 0.42630044 -0.21199693 -0.2666666 0.38996404 -0.11651924
-0.20776407 0.23872955 -0.08372519 -0.008051127 0.24197046 0.3735917 0.3196603 0.31017795
0.13897003 -0.06776788 0.43390858 0.39668128 0.1096957 0.25025362 -0.026417708 0.23029853
0.46391594 0.29206666 0.40461424 0.008014546 -0.04780439 0.04742122 0.19045855 0.03050891
0.38254657 0.15983032 -0.26272282 0.20908433 -0.14799671 -0.049419425 0.21282585 0.5208208
0.36353934 0.25411698 0.24888487 0.32193318 0.019418458 -0.23637472 -0.14605877 0.38159817
0.33032814 -0.33849856 0.31063688 -0.19663197 -0.11619258 0.07484707 0.22524099 0.41794837
-0.13043414 0.21286826 -0.06186376 0.016981594 -0.04355441 0.32789272 -0.11265304 0.433302

fc4.weight f4 [128, 128]
00000000: 2bcd e43d 420e a0be ae37 28be 8cd9 033e
00000010: 90e9 5fbc 0f4b 7c3e d1c4 1a3e 9776 da3d
00000020: ce4f ee3c 9f01 6c3d 5883 563e e001 af3c
00000030: 0ddc 083d c718 cfbb ecab 423e 93f7 dabd
00000040: 9bd9 443c 4ae7 11bd 4bf9 263d a3b0 7fbd
00000050: d1ba 70be 772d a33d 6f1e 463d ce96 25be
00000060: 4700 a13e 0213 92bc c2a1 b2bd 0aad 063c
00000070: 527b 81be 66be 19be 4d25 40bd bfc8 ff3c
00000080: b967 9ebc f229 8abd 6b99 54be 7065 ea3c
00000090: 46e5 423e 12a7 e4bb f5f8 b5be 76e4 3c3d
000000a0: 7a08 cbbe bfa8 aabc 8751 c03d d206 e43d
000000b0: 9382 3bbe 4359 ea3d 6e1c 4cbc ecff 15bd
000000c0: a80b 873d d5fb 1ebd 7242 113b 75cc 85bd
000000d0: 1e28 afbd da01 db3e cb6d 943d 5e86 f93c
000000e0: 7612 5cbe 7be2 fcbd 555c 8bbd 4b8b 413e
000000f0: a553 e8bd 9513 5c3c b19a 8e3d bd01 093d
00000100: 1a4d 143b f007 c7bd 19a6 2d3d 5966 1ebb
00000110: 27f4 493e beca 913e 48b3 b63c 0b82 06bc
00000120: 89c7 1bbd c667 863d 9f78 70bb 6b8d 94bd
00000130: 35e0 f93d 65ed 05bd 250e 153e 726b 47be
00000140: b4d5 91bc 9783 83be 48b4 5a3d c908 dcbd
00000150: 4037 04be 76f1 04be 13f3 113d 682a bdbd
00000160: fdb6 023e 1c48 bdbd d175 8dbd b4a8 193e
00000170: f132 31be fc8a 2b3e 03ed 393d 4039 673d
00000180: 3434 0bbe 539d 913c 13cd bdbe de99 ca3c
00000190: b719 9dbe 3dfd c2bd bfd6 363d 9eca 463d
000001a0: fc04 cf3a 8533 12bd 7d95 e63d c2d6 7bbc
000001b0: 2f0f 70ba ccaf 4c3d 9930 7d3d e53e 0abe
000001c0: a6cc 013d 9b9c d43d 4216 473e 7095 76be
000001d0: 3975 67bd c267 883d d18c e53b 233c 903c
000001e0: 0d0b 7e3e b1f8 323d 8a76 883d e365 1c3e
000001f0: 8375 c93e 2f23 8a3d e19d 90bd d302 bc3d
00000200: f05e da3c 4b89 173e 7464 2c3d 0d90 163e
00000210: 6753 543d 4425 02be 042c 243e 9802 d23b
00000220: eaf8 f93d 8fe9 493e fbf8 023e 46b8 093d
00000230: 69cc dbbc fad6 e53d cb59 013e 882e 003e
00000240: a01a ff3d a5c1 233e 5c1e 8f3e 01cb 7c3e
00000250: 739f fa3d 006e 9a3e 30a4 f13d b3ab 943e
00000260: 0dca 88bd ddfe 0c3e fe50 8f3d 6b8d 0c3e
00000270: 475d 853e d47a 123e 56e9 f73d 5caa f83d
00000280: 8628 173d a4f6 323d 26c3 18be f78e f0bd
00000290: d59c 053d e413 e13d e8be 113e 035d 10be
000002a0: 5aaa ca3d 502c ce3c 2467 083e 2316 a03e
000002b0: 61c5 c93d c69b 523e 99d8 913d ce96 dcbd
000002c0: ee92 063e 15de d53d 2df8 b23d dcc2 923e
000002d0: 50ef 1c3e 1cc2 e13d cee5 973d ee17 333e
000002e0: e69f 22be d994 f83d 1866 073e 2f8c 3bbd
000002f0: 399a 5c3e 4340 753e 0501 d33d af01 013e
00000300: d458 f23d 0395 643d 5add be3d 8902 c33c
00000310: f9b9 2bbe 2d9b 503e 9599 b23d 7486 d33d
00000320: 56aa 6e3d b2d2 5e3d d5c5 2dbe 3e6a e43c
00000330: 7baf a93d 4b77 833e 5997 113e be32 1c3e
00000340: 478f 1e3e 36b7 1abe 0d40 3a3e fa50 033e
00000350: 13fd 213e 76f5 533e 31d7 bc3d ce59 473e
00000360: 2a1a 063e c554 0e3b c86e 1b3e 7d2d b73d
00000370: 11ec afbd a5e2 963d 6995 2a3e 319a d23d
00000380: 56ce bf3d b032 13bb b6dc 92be 46d2 033e
00000390: f05a 023e 9dee abbd 2d5f f63d 3439 a63e
000003a0: 6f8a 0f3e 4a91 203e e9eb 013e b2ed 443e
000003b0: bb40 3d3d 1508 10be 21da f73d 000f 883e
000003c0: 62e8 dd3d 53c6 ccbd 945e 743d bb37 c2bd
000003d0: 9e13 3c3e afe1 1e3e 1739 a33d 8784 6e3e
000003e0: f010 9fbe b454 2b3e bf83 e83c a088 ebbc
000003f0: 184f f3bd f453 d03b 3580 b4bc fda1 693e
0.11171945 -0.31260878 -0.1642749 0.12875956 -0.0136665255 0.24638008 0.15114142 0.106671505
0.029090788 0.057618733 0.20948541 0.021363199 0.03341298 -0.0063200924 0.19010895 -0.10691752
0.012014772 -0.035620965 0.040765088 -0.062424313 -0.23508765 0.07967656 0.048368867 -0.16170809
0.31445524 -0.01783133 -0.08722259 0.008219967 -0.25289398 -0.15014037 -0.046910573 0.031223653
-0.019336568 -0.06746282 -0.2076165 0.028612822 0.19032773 -0.006977924 -0.35541502 0.046116315
-0.39654905 -0.020832418 0.0939055 0.11134113 -0.18311529 0.114428066 -0.01245795 -0.03662102
0.0659402 -0.038814384 0.0022164849 -0.06533138 -0.085525736 0.4277485 0.07247504 0.03045958
-0.21491417 -0.12347885 -0.0680472 0.18900792 -0.11344079 0.013432403 0.06963099 0.033448923
0.0022628964 -0.09718311 0.04239473 -0.002416989 0.19722043 0.28474993 0.022302285 -0.008209716
-0.03803209 0.06562762 -0.003669299 -0.07253536 0.12200967 -0.0326971 0.14556177 -0.19474581
-0.017802097 -0.25686333 0.053394586 -0.10743863 -0.12911701 -0.12982735 0.035632204 -0.09236604
0.12765117 -0.092422694 -0.06907237 0.15005761 -0.17304589 0.16752237 0.045392048 0.056451082
-0.13594133 0.017775213 -0.37070522 0.024731573 -0.3068368 -0.095209576 0.04463839 0.048533075
0.0015794332 -0.035693664 0.112589814 -0.0153710265 -0.0009157536 0.04997234 0.061813924 -0.13500555
0.03168931 0.103814326 0.19442084 -0.24080443 -0.056508277 0.06660415 0.007005312 0.0176068
0.24808903 0.0436942 0.066632345 0.15273242 0.39347467 0.06744992 -0.07061363 0.09180226
0.026656598 0.14798467 0.042087987 0.14703389 0.05183735 -0.12709528 0.16032416 0.0064090006
0.1220568 0.19718002 0.12790291 0.033623002 -0.026830869 0.11222644 0.1263191 0.1251775
0.1245625 0.15991838 0.2795285 0.24686815 0.12237444 0.30162048 0.117988944 0.29037246
-0.06679163 0.13769098 0.0699787 0.13725822 0.26047727 0.14304668 0.12105052 0.121418685
0.03690388 0.043692246 -0.14918193 -0.117460184 0.03262027 0.10990122 0.14232981 -0.14097981
0.09895773 0.025167614 0.13320595 0.3126689 0.098521 0.20567235 0.07121391 -0.10770951
0.13141987 0.104427494 0.08738742 0.2866429 0.15325665 0.110233516 0.07416879 0.17489597
-0.15881309 0.121377654 0.1322254 -0.045787986 0.21543206 0.23950295 0.10302929 0.12598298
0.11833349 0.05580617 0.09319563 0.02380492 -0.16770162 0.20371695 0.087207 0.10328379
0.058267914 0.054400153 -0.16969998 0.027882691 0.08285423 0.2567695 0.14217891 0.15253732
0.15484343 -0.15108952 0.18188496 0.12823859 0.15819196 0.20699105 0.09220732 0.19467852
0.13095918 0.0021718007 0.15178978 0.08944223 -0.08589948 0.07367448 0.16658558 0.10283316
0.09365527 -0.0022460632 -0.28684014 0.12873182 0.12730002 -0.08395121 0.12029872 0.32465518
0.14017652 0.15680423 0.12687649 0.19231299 0.04620431 -0.14065583 0.12102152 0.26573944
0.10835339 -0.09998765 0.05966051 -0.09483286 0.18366858 0.15515779 0.079698734 0.23292743
-0.3106761 0.1673153 0.028383134 -0.028751671 -0.1188032 0.0063576642 -0.02203379 0.228157

fc4.bias f4 [128]
00000000: 1177 353c 46f3 5b3e 5b46 d63d d007 b1bd
00000010: 631d d33d 85dd 673e 3ccf d53c 618d 19bd
00000020: eec0 2a3e ecdd 723e 0746 7cbd 4b60 7d3e
00000030: ab5c 5a3e ae4c adbd 6b32 c6bd 2cef 90bd
00000040: d915 ef3d cd9b 39bd 1986 5e3e 0163 7a3e
00000050: 3c32 583d 6982 ddbd baaa 41bd a271 a93c
00000060: d86a 873e 79a7 573a e6b3 d4bc 6085 2b3e
00000070: b799 3b3e 4244 4c3e 9801 243e 5dcf 6b3e
00000080: 5a0a 883e 0014 8a3d 923c 0e3e 48a1 73bd
00000090: ad9e 0ebd c0ef 743e 5a1b 2e3e 331f 6d3e
000000a0: 4c1e 05bd c6e3 b3bd ce69 3e3e 3b6e 633d
000000b0: 4393 263e 02f9 b7bb fe46 7a3c 989f a33d
000000c0: 2855 f33d bd1a 2b3e 4c3c 773d a4e7 c13d
000000d0: ec71 613d 9b3f 243e c93b bcbd 35cb 933e
000000e0: 29ce 4c3d 1924 8cbc c111 8d3e 4391 0f3e
000000f0: 261a c93d b138 6a3d 456d d6bc db64 133e
00000100: b330 173d 708c 0fbd bfa6 7e3b 59d8 453e
00000110: e90f 42bd cbed 943e c928 babc e654 7b3e
00000120: e121 58bd fa53 213e aeb7 fe3d 58e3 253e
00000130: 5f27 94bd 9ba9 ebbc e193 86bd e953 773d
00000140: f483 b1bd f2b5 6a3e 7efa 653e 9e34 a23c
00000150: f6ac 873e 279d 6b3e d316 4f3e 5144 263e
00000160: 38ef 883e d273 293e abb0 0fbd bb55 6dbc
00000170: f5b5 6e3e 16ce 5b3e 0421 b13a 014b 463e
00000180: 1c74 483d c36d 4c3e 8913 9bbd 461b 5a3d
00000190: 1534 8fbd 1c57 a3bd 25b9 3b3e ee45 3abd
000001a0: 967e d83d 52fd 423e 5fc5 703e b346 8b3e
000001b0: 3366 a13d 4c47 2ebd 6df1 263e 1710 2bbd
000001c0: 309d fabd 783c d4bb e950 cebd e929 413e
000001d0: c14e 793c 3a83 ef3b 9fb3 d93b f8f8 f3bc
000001e0: 41c6 7a3d 30ac 3a3e bbfb 09bd 0608 113e
000001f0: 01bc 713e 412e fb3d 20fc 953e 05bc 333e
0.011075751 0.2147952 0.10462638 -0.08644068 0.103083394 0.22643097 0.026099794 -0.037488345
0.1667516 0.23717469 -0.06159022 0.24743764 0.21324413 -0.08461891 -0.09677585 -0.070768684
0.11674089 -0.0453146 0.21730842 0.2445183 0.052782282 -0.108158894 -0.04728196 0.020684067
0.26448703 0.00082265545 -0.025964689 0.16750097 0.18320356 0.19947913 0.16016233 0.23028322
0.26570398 0.06742096 0.13890293 -0.05947998 -0.034819294 0.23919582 0.17002621 0.23156433
-0.032499596 -0.08783679 0.18595049 0.055525046 0.16267113 -0.005614401 0.015275715 0.079894245
0.11881477 0.16709419 0.060360238 0.0946801 0.055040285 0.16039889 -0.091910906 0.28865972
0.050001297 -0.017107056 0.27552608 0.14020257 0.098194405 0.05718297 -0.02617515 0.14393942
0.036911678 -0.03504604 0.0038856713 0.19320811 -0.047378454 0.29087672 -0.022724526 0.24544105
-0.052766684 0.15754691 0.12437378 0.16200006 -0.07234072 -0.028767398 -0.065711744 0.060382757
-0.08667746 0.22920969 0.22458836 0.01980048 0.26499146 0.23009168 0.2022355 0.16236998
0.2674501 0.16548088 -0.035080593 -0.014485772 0.23311599 0.21465334 0.0013513868 0.19364549
0.048938856 0.19963746 -0.075720854 0.053248666 -0.06992356 -0.07975599 0.18332346 -0.045476846
0.10571019 0.19041947 0.23512791 0.27202377 0.07880821 -0.042548463 0.16303034 -0.04176339
-0.122370124 -0.006476935 -0.10074026 0.18863644 0.01521653 0.0073093446 0.006643727 -0.029781803
0.061224226 0.18229747 -0.033687335 0.14163217 0.23606874 0.122646816 0.2929392 0.17552193

q2.weight f4 [1, 128]
00000000: 72ca afbe f374 593e 65c4 913e 05ab cabe
00000010: d87f 87bf 68f0 863e 2bd3 4fbf 27f8 68bf
00000020: de50 483e 8835 823e dc52 45bf 8bbd 8c3e
00000030: 5576 293e c397 3bbf 631f 07bf d31e 79be
00000040: 92b5 643e 9cc2 06bf 2cf9 6b3e dd1a a43e
00000050: 2cbe 87bd 18b7 0fbf cb42 04bf b007 93bf
00000060: 4bd8 5d3e 4860 3abf a3ee 53bf 45f3 773e
00000070: da47 373e 4271 5a3e ece4 7b3e aa9e 6c3e
00000080: a10b 393e a14b 44bd 7b53 6f3e 69f1 9dbd
00000090: 606c 53bf 2620 5d3e 1671 7f3e 4773 4c3e
000000a0: 687e 09bf a98e 2bbb 5fed 5f3e 4f46 1ebf
000000b0: b743 923e 1a15 a0be 7b85 25bf 94ea 97bf
000000c0: b0c4 363e 4168 2d3e ac21 2dbf c21e 2ebf
000000d0: d2fa 08bf e495 8a3e 2c91 3dbf cfc6 453e
000000e0: 5c2c c7be e9f3 e1be e094 543e 5aca 673e
000000f0: 276e 843e bfc7 5dbf 4ad2 c6be 8901 373e
00000100: e5b4 f5bc 620e 50bf ad4f 7ebf 3df5 383e
00000110: 48c4 a1bd e254 403e 6d1e 85bf d476 673e
00000120: 929a 16bf 6201 aa3e d8e7 403e f659 783e
00000130: 71e9 38bf 7bc6 03bf dabf 2b3e 23d5 3cbf
00000140: 2cd0 73be c03d 5e3e 22a8 7c3e 5940 29bf
00000150: 976f 3a3e 81d3 3f3e 4d58 723e 880f 703e
00000160: 6d85 753e 30a0 863e cd38 09bf 6a2b f3be
00000170: 80ef a23e 4c4f 653e 33ff eabe 80ba 663e
00000180: ead6 8ebf cacd 6e3e bbfd 76bd 5b2d 7abf
00000190: 667b d2be 8b30 27bf 2cb9 4b3e 063e 44bf
000001a0: 89c6 343e feec 653e 33c8 863e bf27 343e
000001b0: d07c 9abf 02b5 02bf 0fda 323e c07b dcbe
000001c0: 7992 21bf 130b 25bf ad67 a4be b5be 323e
000001d0: 1ec9 04bf cc67 44bf b073 95be 031a 38bf
000001e0: acc1 d6be 86f1 493e b9a4 03bf b826 893e
000001f0: 5fba 7d3e baba 733e ecbe 493e 9468 3e3e
-0.3433414 0.21236019 0.2847015 -0.39583603 -1.058589 0.2635529 -0.8118159 -0.9100365
0.19562098 0.25431466 -0.7707956 0.2748836 0.16549046 -0.73278445 -0.5278227 -0.24328165
0.22334889 -0.526407 0.2304427 0.32051745 -0.06628069 -0.56138754 -0.5166442 -1.1486721
0.2166454 -0.72803164 -0.82786006 0.24213894 0.17898503 0.21332267 0.24599046 0.231074
0.18070842 -0.047923688 0.23371689 -0.07712061 -0.8258724 0.21594295 0.24945483 0.1996585
-0.53708506 -0.0026177561 0.21867894 -0.6182603 0.28567287 -0.312661 -0.646568 -1.1868463
0.17848468 0.16934301 -0.67629504 -0.6801568 -0.5350772 0.27067482 -0.7404964 0.1931412
-0.3890103 -0.441314 0.20759916 0.22635785 0.2586529 -0.86632913 -0.38832313 0.1787168
-0.029993484 -0.81271946 -0.99340326 0.18062301 -0.07898766 0.1878238 -1.039991 0.22603923
-0.58829606 0.3320418 0.18838441 0.24253067 -0.72231203 -0.5147473 0.16772404 -0.7376272
-0.2380988 0.21703243 0.24673513 -0.6611381 0.1820663 0.18733026 0.23666497 0.23443425
0.23976679 0.26294088 -0.53602296 -0.4749406 0.3182335 0.2239353 -0.45897827 0.22532082
-1.1159337 0.2332069 -0.06030057 -0.97725457 -0.4110977 -0.65308446 0.19894856 -0.7665714
0.1765386 0.22453687 0.26324615 0.17593287 -1.206934 -0.51057446 0.17465995 -0.43063164
-0.63114125 -0.6447002 -0.32110348 0.17455561 -0.5186938 -0.7672088 -0.29189825 -0.7191469
-0.41944635 0.1972104 -0.5142322 0.26787353 0.24778126 0.238017 0.19701737 0.18594581
