resource/multi_run_experiment_20250319_111011/run_5/sac_critic_25000.pth (torch, 155391 bytes, 10 tensors)

fc1.weight f4 [128, 17]
000000 16 9a 02 3d d6 47 88 be 8e ec a7 be 92 fe 26 be
       0.03188523 -0.26617306 -0.32797664 -0.16308048
000010 0b e6 63 3e 66 4b 6e 3d 43 c0 e7 be bc 63 51 3e
       0.22255723 0.058177374 -0.45263872 0.20448202
000020 35 cc 64 3e ab 8b 3c bd 0d 0e a5 3e d1 6c 00 be
       0.22343524 -0.046031635 0.32237282 -0.1254151
000030 e6 cb 47 3e a8 fa de be 27 9b 02 3e e1 db 7f be
       0.19511375 -0.4355061 0.12754498 -0.24986221
000040 e7 4b ef 3d c1 9a d0 bb a6 f2 f8 3d 55 e1 9d be
       0.11684399 -0.0063661044 0.121556565 -0.30835977
000050 86 d9 15 3e 6e c8 4b 3c 9a b1 16 be 39 c6 b4 be
       0.1463376 0.012437923 -0.14716187 -0.35307482
000060 0f 06 f4 3d 37 81 1c 3d 40 9f 21 3e 6f 04 40 3d
       0.11915218 0.038209166 0.15783405 0.04687923
000070 93 e5 6c be 50 f6 fc 3e 54 e6 a7 bc 29 7b 9e 3e
       -0.2313445 0.49406672 -0.020495571 0.3095334
000080 e5 47 84 3e 4a 0b 02 3e ba 80 7d bd ec 4b 68 bd
       0.258361 0.12699619 -0.06189034 -0.05671303
000090 7f c9 34 be 23 d2 99 be 5a b8 24 be c3 c2 88 be
       -0.1765499 -0.30043134 -0.1608595 -0.2671109
0000a0 3e 29 c0 be 22 27 c5 bd dd fe 16 3e 6f 71 25 be
       -0.37531465 -0.096266046 0.1474566 -0.16156553
0000b0 01 86 4c 3e 2f ed ac be 53 d0 81 3e dd 6d a6 bd
       0.19972993 -0.33774707 0.2535425 -0.081264235
0000c0 20 13 f3 be e4 2c a2 be c6 93 b3 be 40 fc 2a be
       -0.4747553 -0.31674874 -0.3507368 -0.16697788
0000d0 76 85 fc 3b c8 18 df be 3e 08 c1 3d ac 99 33 3e
       0.0077063395 -0.43573594 0.094254 0.1753909
0000e0 15 7a 26 3e 85 e2 07 be 7d 47 45 3e f9 6e 50 3e
       0.16257508 -0.13270004 0.19265552 0.20354833
0000f0 5a da 57 3e 2d 50 63 3c 0e fe 29 be 16 5e 08 bf
       0.21079388 0.013874096 -0.1660082 -0.53268564
000100 88 5a 58 b9 47 43 47 bd b2 38 cc be 61 81 cc be
       -0.00020633091 -0.048648145 -0.39887005 -0.39942458
000110 4f b0 41 3e 92 aa c6 3c 9b e6 18 3c 2f 94 90 3d
       0.18914913 0.024251256 0.009332324 0.07059514
000120 6d d7 45 be db d1 76 bd 7a cf 12 3d cd ee 1b 3e
       -0.1932046 -0.060258728 0.035842396 0.15227814
000130 1a 3f 43 3e 46 0a e4 bd 91 34 96 be 1c 21 0e 3e
       0.1906704 -0.11134772 -0.2933698 0.13879818
000140 bd 57 80 be 65 8a e9 bd 80 bd 39 3e 6c 65 35 be
       -0.2506694 -0.1140335 0.18138695 -0.1771447
000150 00 00 8c 3e 0f 27 72 3e 4d bd 8d be 2e 98 d6 bd
       0.2734375 0.23647712 -0.27683488 -0.10478245
000160 48 d8 2a bd a8 00 21 be 5a 61 ba bd 7b e4 55 3e
       -0.041710168 -0.15722907 -0.091005996 0.2088794
000170 1b e3 b4 3d af cd 30 be 1b 9d 99 be dd 7d aa bc
       0.088323794 -0.17265962 -0.30002674 -0.02081197
000180 93 0b 6c be 66 67 86 be 14 d0 fe bd 11 1e 73 bd
       -0.2305129 -0.26250762 -0.124420315 -0.059354845
000190 40 d2 b5 be 57 bb 03 be c0 8c b2 3c f2 8c 8f 3e
       -0.3551197 -0.12864433 0.02179563 0.2803722
0001a0 e6 3b 6f 3d 51 1e 48 be 69 fa 4c 3d 14 39 dc bd
       0.058406733 -0.19542815 0.050043497 -0.10753074
0001b0 41 30 fd 3c b6 ad 58 3e a2 4a 7a 3d 84 4b 0e 3d
       0.030906798 0.21160015 0.06110633 0.034739986
0001c0 67 2c 64 be 94 fd 45 be 08 4b 91 3e 34 82 16 3c
       -0.22282563 -0.19335014 0.28377557 0.009186316
0001d0 ab 24 4c bb 7b ab 33 3e c8 a4 5a 3e 4a 59 33 3e
       -0.0031149786 0.17545883 0.21351922 0.1751453
0001e0 23 c1 07 be 8c d5 01 3e fe 84 ed be 97 24 87 be
       -0.1325727 0.12679118 -0.46390527 -0.26395103
0001f0 f9 7d 8d 3e c5 ab 0b 3e 17 23 7d bd 81 24 7a be
       0.27635172 0.13639744 -0.061801042 -0.24427988
000200 d1 ee ab 3e 04 d5 fd bc 81 76 35 be 6e c2 ba bd
       0.3358064 -0.030985363 -0.17720987 -0.09119116
000210 bd 86 a2 be 6b 76 fc bd 51 94 9b be 6f 9a a3 bd
       -0.31743422 -0.12327274 -0.30386594 -0.0798844
000220 48 46 ec bd db 58 c6 bd 4d 7a 02 3e c4 af 44 3e
       -0.115368426 -0.096849166 0.12741967 0.19207674
000230 40 07 29 3e 90 4d df 3c 88 c7 5a 3e d7 70 61 3e
       0.16506672 0.027258664 0.21365178 0.22015701
000240 7f 24 4c 3e d9 17 99 3e fd cc 3b bd 50 4b 67 bb
       0.19935797 0.29901007 -0.04584979 -0.0035292692
000250 8e 0e 5d bd 2d 37 42 3e ad 65 18 3e c4 9c fc 3c
       -0.05396896 0.1896636 0.14882536 0.03083647
000260 fc e0 82 3e ab 9c a9 bd bb 16 4b 3c 09 fe 2c bf
       0.25562274 -0.08281835 0.012395556 -0.67575127
000270 bc 3f 8c bd 72 04 94 bc 82 2e 77 3e 0b b1 91 be
       -0.06848094 -0.018068526 0.24138835 -0.28455386
000280 4e 83 8b 3e 72 be 06 bd 1e 9f f9 bd 69 11 93 3d
       0.27248615 -0.032896467 -0.12188552 0.07181055
000290 e0 6d 2a bd 5b 57 c2 be 53 f3 8f be c8 2a 52 3c
       -0.04160869 -0.37957272 -0.2811533 0.012827583
0002a0 3c 1b 80 be 0d 98 53 3e 34 f0 11 3e 91 fd 5f 3e
       -0.25020778 0.20663472 0.14251786 0.21874072
0002b0 74 9e 73 3e 08 4b 2f be 73 fe 13 be 6f 65 64 be
       0.23790914 -0.17118466 -0.14452533 -0.22304319
0002c0 aa ef fb 3d df ef 2c be df e8 35 bd 6f f2 49 bd
       0.12301572 -0.16888379 -0.044411536 -0.04930347
0002d0 60 85 0d be 5e 60 75 be f2 19 ab bc fc 17 04 3e
       -0.1382041 -0.23962542 -0.020886395 0.12899774
0002e0 ac 79 a2 3e b2 d0 82 be 03 e6 6e be 24 5c 11 3d
       0.31733453 -0.25549847 -0.2332993 0.035488263
0002f0 3f b5 36 be 32 6f 6a 3e b1 56 8c be 5f a8 fa 3d
       -0.17842577 0.2289398 -0.2740989 0.122391455
000300 75 66 27 be 1e 2f 21 bc 51 40 53 bd 1e 42 e5 bd
       -0.16347678 -0.009837894 -0.05157501 -0.111942515
000310 48 6e b6 be 12 cc 74 be e2 15 99 bd f5 32 89 ba
       -0.35631013 -0.23905972 -0.07474877 -0.0010467457
000320 94 73 ba bd 70 f2 46 be ad d8 87 bc 1e 01 05 3d
       -0.09104076 -0.1942842 -0.016582811 0.03247177
000330 1c d5 2d 3e 41 67 5f be ea 92 52 3e 02 c5 8c bd
       0.16975826 -0.21816732 0.20563856 -0.06873514
000340 dc d7 51 be 89 77 ff bd 24 59 8c bb cb 89 78 3d
       -0.204925 -0.124739714 -0.0042830873 0.060678285
000350 02 fc 86 3e 79 0f 4b be f4 0b de bd 77 5c 8d 3e
       0.26364142 -0.19830121 -0.10842124 0.27609608
000360 dc 19 7e 3e 30 2d 79 be 9d de 41 3e a8 cf 9b bd
       0.24814552 -0.24333644 0.18932576 -0.07607967
000370 d7 37 88 bc ac 40 8a 3d 3d f5 09 3e 16 3c 82 bd
       -0.016628189 0.067506164 0.13472457 -0.06359117
000380 9e 08 01 3e 26 06 d9 3d 21 b9 41 3e 86 df aa be
       0.12600943 0.10596876 0.18918277 -0.3337366
000390 3d 06 13 3e 9c da c4 bd c5 bd 80 bd a0 e5 7f 3e
       0.14357848 -0.09612009 -0.06286196 0.24989939
0003a0 e1 49 63 3e a7 aa c6 be 93 08 05 3d d3 51 0c bc
       0.22196151 -0.38802072 0.03247888 -0.00856443
0003b0 6c 80 ee 3d c2 a1 9d be ba 0b 1b 3d 60 ad 7a 3e
       0.11645588 -0.30787474 0.03785298 0.244802
0003c0 2f d3 03 be 55 0f 72 3e c5 e4 3e bc b9 de 0f 3d
       -0.12873529 0.23638661 -0.011651223 0.035124514
0003d0 3d 30 b0 bd 11 c0 e0 bd bf ff 97 3d 90 81 86 3e
       -0.08602951 -0.10974134 0.074218266 0.26270723
0003e0 2e b9 f1 bd 54 53 ee 3c f1 43 88 3d 55 56 06 be
       -0.11802898 0.029092468 0.06653584 -0.1311887
0003f0 a1 9e c9 bd ae 66 98 be 76 fb 23 be 9b fd 51 3e
       -0.09844709 -0.29765838 -0.16013893 0.20506899

fc1.bias f4 [128]
000000 ae 73 32 be f2 81 2a bd 85 a4 08 3e 7a 0d 32 be
       -0.17426941 -0.04162783 0.13344009 -0.17387953
000010 f2 3d 76 be 42 a4 b5 3e e5 11 be 3e 6d 9a 3b 3e
       -0.24047068 0.3547688 0.37123027 0.18320628
000020 6a 17 cb 3e 10 fb d4 3d b2 31 1c 3e a1 50 c5 3e
       0.396663 0.10399449 0.15253332 0.38538077
000030 8c ac 9a 3e d7 85 0d 3e 2b 4e a3 3e 94 1c bb 3c
       0.30209768 0.13820587 0.31895575 0.022840776
000040 e8 af 8e 3e 8c 1b 0f 3f 58 09 62 be 42 d0 9a 3e
       0.2786858 0.5590141 -0.22073877 0.30237013
000050 b0 fb 1b 3e 71 93 1e 3e e7 f3 3d bb 89 fd 87 3e
       0.1523273 0.15485932 -0.0028984488 0.2656062
000060 4b f3 2b 3e 9e 59 9a 3e 82 26 1b 3d 4c ea 9d 3e
       0.16792028 0.30146497 0.03787852 0.30842817
000070 f4 4f 7f 3e a5 4e da 3e 7d 31 01 3e 66 1a 5a 3e
       0.24932843 0.42638126 0.12616535 0.21299133
000080 19 36 3a be eb 49 f2 3e 3b 9d f2 3e 35 a5 da bd
       -0.18184699 0.4732202 0.47385582 -0.10676042
000090 3c b7 a9 3e d6 b4 d6 bb 19 81 ce 3e 3d f3 ce 3e
       0.3314761 -0.006552319 0.4033287 0.4041995
0000a0 d9 e2 35 be a1 14 b9 3e b9 03 60 3d 4a be c4 3e
       -0.17762317 0.3614855 0.05469105 0.3842643
0000b0 77 cb 91 bd c7 08 8b 3e e7 f4 83 be 99 2f 55 bd
       -0.07118886 0.27155134 -0.25772783 -0.052047346
0000c0 5a 86 d9 3e 61 bd 8e 3e df 81 03 be 92 23 ac 3e
       0.42485315 0.2787886 -0.1284251 0.33620888
0000d0 f4 1b 42 bc d9 9d 20 3e 20 65 46 be 8a 75 39 3e
       -0.011847485 0.15685214 -0.19374514 0.18111244
0000e0 ad 71 db 3e f8 41 b9 3d 34 26 85 3e ab 30 07 be
       0.42860165 0.09045786 0.2600571 -0.13202159
0000f0 bf 0b db bd 30 58 b6 3e 3a ed c7 3e 8d 88 98 bd
       -0.106956 0.35614157 0.39048177 -0.0744792
000100 16 9f 92 3e 9e 51 8e 3e e0 de 72 bd 08 5c b8 3e
       0.28636998 0.27796644 -0.05929458 0.36007714
000110 f7 47 58 3c 06 b1 89 3d 27 6a e6 3e be 5a 70 be
       0.0132007515 0.06723218 0.45002863 -0.23472115
000120 07 b2 15 3e 12 c1 e1 3e 50 06 c0 3e 54 f2 24 3e
       0.14618693 0.44092613 0.37504816 0.16108066
000130 4a 12 93 3e bc 4f e9 3e db d4 96 be b3 82 29 3e
       0.2872489 0.45568645 -0.2945927 0.16553764
000140 da d5 db 3e a7 6a d6 3e 85 36 1c be 62 5e c6 3e
       0.42936593 0.41878244 -0.15255173 0.38743883
000150 1a a7 95 3e cc 9e 17 3e d6 bd dc 3e 28 d4 bb bc
       0.2922905 0.1480667 0.43113583 -0.022928312
000160 b8 e2 b9 3e a9 18 f7 bd bd 59 98 3e e0 a4 03 be
       0.36305785 -0.120652504 0.29755965 -0.12855864
000170 c3 d5 f2 3e db bb 61 3e 9a cb 96 3e e6 f3 86 3e
       0.47428712 0.22044317 0.2945221 0.26357955
000180 9c 85 4f be f3 81 d1 3e ec 7d 95 3e f3 ed f1 3e
       -0.20265812 0.40919456 0.29197633 0.47251853
000190 ba bd b5 3d 99 a1 34 be 50 1e 6f bd 4b 9a b1 3e
       0.08874078 -0.1763977 -0.058378518 0.3468803
0001a0 98 b2 ad 3d 8c 8d a8 bd 6e a1 7d 3e a8 cc 9f 3e
       0.0848133 -0.08230123 0.24768612 0.31210828
0001b0 16 71 1f bd 9c da cd 3e d9 5a 92 be 15 e0 f9 3d
       -0.038926207 0.40205848 -0.28584936 0.122009434
0001c0 bd 47 e2 3e 95 d7 15 3c 58 28 a5 3c ea 2a bc 3e
       0.44195357 0.009145637 0.020160839 0.3675149
0001d0 87 76 87 be 2d 88 69 be 3c 9e 1d be f3 2e 1a 3e
       -0.26457617 -0.22805853 -0.15392393 0.15056972
0001e0 6d d3 f3 bc b5 7f d3 3e 26 73 37 3d fa 0c ed bd
       -0.029763902 0.4130837 0.04478755 -0.11574741
0001f0 3c 52 1f be a0 c5 c4 bd b7 49 95 bd b3 4d a1 3e
       -0.15558714 -0.096080065 -0.072894506 0.31504592

fc2.weight f4 [128, 128]
000000 25 fb 54 bc 94 20 ad bd 21 e4 0f 3e e8 53 ad bd
       -0.012999331 -0.084534794 0.14051868 -0.084632695
000010 3f ad ca bd ce 5a 68 3e 9b a1 7c 3e c0 24 63 3e
       -0.09896325 0.22690889 0.24671023 0.22181988
000020 d7 dd eb 3d 83 a8 90 bd f2 c4 50 3e a1 0b b5 3e
       0.11516922 -0.07063391 0.20387629 0.35360435
000030 67 bb 89 3e 94 9b 5d 3d bc 93 93 3d 19 a3 c0 3d
       0.2690079 0.05410345 0.072059125 0.094061084
000040 b3 77 bd 3d 82 5b a9 3e 29 3f 40 be 99 65 19 3e
       0.092513464 0.33077627 -0.18774094 0.14980163
000050 33 d7 2d 3e ba f4 5d 3e 73 59 de 3d e7 0f 27 3e
       0.16976623 0.21675387 0.10856905 0.1631466
000060 83 c3 86 3c a5 fd a5 3d 4e 88 a3 3d ec 6b 16 3e
       0.01645065 0.081050195 0.079849824 0.14689606
000070 23 e7 9b 3e a5 d4 c2 3e f0 0c 28 3e c9 52 51 3e
       0.3044978 0.3805286 0.16411185 0.20441736
000080 1f 4c ff bc c0 fd a1 3e 74 67 53 3e 8b 1a 75 bb
       -0.031164227 0.31638908 0.20644933 -0.0037399854
000090 34 3a b0 3e df 00 84 3d 31 4a 81 3e f3 32 8c 3d
       0.34419405 0.06445479 0.25251916 0.06845655
0000a0 64 ad 06 be db 3c 9b 3e 9e 45 ac 3c f6 d5 8d 3e
       -0.13152081 0.30319867 0.02102929 0.27702302
0000b0 07 58 98 bd 3f 0d 98 3b b6 8c 5d bd c0 3b ea bb
       -0.07438665 0.004640251 -0.05408927 -0.007148236
0000c0 82 3e 99 3e 8c 74 f8 3d 0f ce 85 bd e8 6e 68 3d
       0.29930502 0.121316046 -0.06533443 0.056746393
0000d0 c1 42 4e 3e f8 b2 2c 3c 05 7a 3a bd 0e 4b 02 3e
       0.20142652 0.010540716 -0.045526523 0.12723944
0000e0 72 e9 3e 3d e0 c1 96 b8 cc 70 03 3d ef 48 b1 3d
       0.04660935 -7.1886694e-05 0.032089993 0.08656489
0000f0 37 d2 1d 3c c6 2a 92 3d 51 a6 93 3e 10 64 63 3e
       0.009632639 0.07137065 0.28837827 0.2220614
000100 ac 0d 95 3d 29 b3 14 3d 2d da 19 3e 3d aa 67 3e
       0.07277998 0.036303673 0.15024634 0.22623535
000110 f3 94 52 3d d8 80 5e 3d 62 81 25 3e a1 b5 ac 3d
       0.05141158 0.054322094 0.16162637 0.084330805
000120 62 7a 59 3d 91 04 e4 3d 34 37 11 3e 03 f8 27 3e
       0.05309523 0.111336835 0.14181215 0.16403203
000130 2e 08 32 3e a8 45 53 3e 58 c8 ef 3c 7d 2c b1 3d
       0.17385933 0.2063204 0.029270336 0.086510636
000140 8b aa ad 3e e5 3f 81 3e a9 9f 05 be 5d 44 51 3e
       0.33919176 0.2524406 -0.13049187 0.20436235
000150 2a 17 73 3e 1e 18 89 3d 03 a2 8c 3e 9b 61 10 3e
       0.23739305 0.06694053 0.27467355 0.14099734
000160 7e a4 31 3d da fa 73 be 29 8c 78 3e 9d 61 01 be
       0.043369763 -0.23826161 0.24272217 -0.12634893
000170 ca ff 9d 3e 57 22 d0 3d 77 5b 5e 3e f8 98 b0 3e
       0.30859214 0.101628 0.21714579 0.34491706
000180 e7 f7 7a be 4f ac 46 3e 7e 8b 88 3d fa 7f 86 3e
       -0.2450863 0.19401668 0.06667231 0.26269513
000190 99 e7 5f 3e 4b a0 37 bd 3b cc 5d 3e 2d ca e3 3d
       0.21865691 -0.0448306 0.21659939 0.11122546
0001a0 91 55 50 3e fc 21 a7 3d d0 58 ad bb fb f1 a1 3d
       0.20345141 0.08160779 -0.0052901283 0.07907482
0001b0 1f 45 0e 3d 84 9f 58 3e 2f 72 e6 bd ee cf 22 3d
       0.034733888 0.211546 -0.112522475 0.03974908
0001c0 25 24 8c 3e 67 3f db 3c d8 61 32 be 9c a8 e4 3d
       0.27371326 0.026763631 -0.17420137 0.11164972
0001d0 cf d7 26 3e 25 db be 3d 90 e4 dd 3d 71 db 37 3e
       0.16293262 0.09319142 0.108346105 0.17954804
0001e0 7d 9d 14 3e 7a 7c 1d 3e 12 c3 ae 3d 67 ed 2a 3d
       0.14513202 0.15379515 0.085333005 0.04173031
0001f0 43 f4 2f 3c 43 31 ba bd 1e 8c 12 be aa b1 1f 3e
       0.010739389 -0.09091427 -0.14311263 0.15595117
000200 f5 d9 c4 bd 1f 47 4e bd 99 fe 37 3e 8a 94 03 be
       -0.096118845 -0.050360795 0.17968215 -0.12849632
000210 6c e8 80 bd f3 94 b0 3d ae 07 4b 3e 19 5a 4e 3e
       -0.06294331 0.0862216 0.19827148 0.20151557
000220 c7 8b 1c 3e 76 e6 5c bc f2 67 c5 3d 8a ab ae 3e
       0.15287696 -0.013482681 0.096389666 0.3411525
000230 e9 b7 ad 3d fe b8 e5 3d 3b ca c2 3c b5 82 89 3d
       0.08482344 0.11216925 0.023778072 0.067143835
000240 69 31 15 3e a3 d9 85 3e f7 34 fe bd fc ec 1b 3e
       0.1456963 0.26142606 -0.12412446 0.15227121
000250 bb e0 54 3e 81 8c 34 3e bc 29 26 3d f0 df e8 3d
       0.20788853 0.17631723 0.040567145 0.11370838
000260 1b ce 28 ba fc 61 f4 3d a5 d7 33 3e 7b f0 1c 3e
       -0.00064394035 0.119327515 0.1756273 0.15326111
000270 e7 14 aa 3e cd e2 76 3e dd d0 04 3e 06 e9 32 3e
       0.33219072 0.24109955 0.129703 0.17471704
000280 62 fb 11 be 6e b4 0d 3e a4 ea 2a 3e c2 53 90 bd
       -0.14256051 0.1383836 0.16691071 -0.070472255
000290 fb 1c 7c 3e 21 bf 12 3c 70 36 11 3e 02 30 23 3e
       0.2462043 0.0089567015 0.14180923 0.15936282
0002a0 79 be 01 be 3c 70 2f 3e 69 33 d4 3d de 58 7d 3e
       -0.12670316 0.17132658 0.10361368 0.24740931
0002b0 e2 89 20 be 71 50 03 3e 3c 5f 8c bc 3c f7 87 3c
       -0.15677598 0.12823655 -0.017135255 0.016597383
0002c0 cc ba a4 3d 31 06 40 3e 88 6b 5f 3d 2e f5 05 3e
       0.08043441 0.18752362 0.05454591 0.1308181
0002d0 86 23 3f 3c 47 89 60 3d 76 2a a5 bd 7a 45 71 3c
       0.011666184 0.054818418 -0.080647394 0.014726037
0002e0 0a 1a 15 3e ba 35 a6 3d e8 7f e8 3d 58 1c 00 3e
       0.14560714 0.08115716 0.11352521 0.12510812
0002f0 78 46 3a 3c cf a2 27 3e 49 82 79 3e 41 fd 82 3d
       0.01136934 0.163707 0.24366106 0.063959606
000300 20 11 0b 3e 6a a9 fe 3d 8f cd 5b 3e ae 10 89 3e
       0.13580751 0.12434657 0.21465133 0.26770538
000310 93 ef 1a 3e b7 a7 18 bd 03 19 f5 3d ae 3c d4 3d
       0.15130453 -0.03726932 0.11967661 0.10363136
000320 be b0 d7 3d ba ed 1d 3e e9 9c 1c 3d d7 f9 73 3c
       0.10531758 0.15422717 0.03823558 0.014891109
000330 b0 a3 64 3d 8b e2 df 3d 97 4a 41 3d 4b f9 2f bc
       0.055820167 0.109318815 0.047190275 -0.010740588
000340 16 12 84 3e e3 99 c8 3d 3f d5 34 be a7 c9 d4 3d
       0.25795048 0.097949766 -0.17659472 0.10390025
000350 69 c8 7e 3e b7 d8 07 3e a7 ac 28 3e df d0 61 3e
       0.24881138 0.13266264 0.16472112 0.22052334
000360 47 50 f2 3d e4 22 5a be 4d 62 5f 3e f5 e0 59 be
       0.11831718 -0.21302372 0.21814843 -0.2127722
000370 d1 b1 80 3e de 85 32 3e 40 32 c8 3d 2f 24 3b 3e
       0.25135663 0.17433879 0.097752094 0.18275522
000380 18 28 97 be 1e 7e 1f 3e 94 90 20 3e 3a 28 ad 3d
       -0.29522777 0.15575454 0.15680152 0.08454938
000390 45 d6 74 3e a7 61 ed bb fd 83 64 3e 50 54 29 3e
       0.23909862 -0.007244307 0.22315975 0.16536069
0003a0 92 f3 28 3e 8e 8a f4 3d a7 7c 87 bc 0e ef 16 3e
       0.16499165 0.1194049 -0.016538931 0.1473963
0003b0 3e fb 50 bd 17 e3 fa 3d cb 71 2d be be bf c5 3d
       -0.051020853 0.12250345 -0.1693794 0.096557125
0003c0 be 1a 21 3e 0c cc 1c ba 9c fe be bd c6 db 8c 3d
       0.15732858 -0.0005981333 -0.09325907 0.06877856
0003d0 86 0d 45 3e a9 90 b8 3c 48 b7 5f bb 12 18 00 3e
       0.1924344 0.022529917 -0.0034136344 0.12509182
0003e0 0f f5 a9 3d b3 35 0f 3e 06 7f 43 3e 21 69 c6 3d
       0.08298694 0.13985328 0.19091424 0.096880205
0003f0 f3 8e f5 3c b1 11 43 be 2f 78 b5 bb e2 c0 29 3e
       0.02997539 -0.19049717 -0.0055380086 0.16577485

fc2.bias f4 [128]
000000 c5 64 6e 3e 85 03 28 3e 4a df 52 bd ab b2 1d 3e
       0.23280628 0.16407593 -0.051482476 0.15400188
000010 ca 52 77 3e f4 18 86 3e 81 58 eb bb e4 74 6f 3e
       0.24152675 0.26190913 -0.0071821813 0.23384434
000020 48 1d 89 bc 1b c7 df bc c4 10 c2 bd f9 fa 36 3e
       -0.016737595 -0.02731662 -0.09475854 0.17869176
000030 3b fc 7f 3d b8 ea 79 3e 43 2e e9 3c 44 57 5f 3e
       0.062496405 0.24405944 0.028464442 0.21810633
000040 23 a4 0a 3e 30 5d c3 bd b2 57 03 3d dc c2 1b 3e
       0.13539176 -0.095392585 0.032066055 0.15211052
000050 02 21 cb bd 6e 86 f3 3d c6 57 fb 3d 00 7e fb bd
       -0.09918405 0.11890875 0.12272601 -0.12279892
000060 79 6d c9 bc 24 31 e5 3d f5 ff a2 bd 11 75 44 3e
       -0.024588333 0.111910135 -0.07958976 0.19185282
000070 34 28 1e 3d 73 30 48 3e 30 1f 46 3e 30 22 70 3e
       0.03861256 0.19549732 0.19347835 0.23450541
000080 ab 3d 10 3e 15 56 98 3e 83 82 b5 3d bc dd f2 3c
       0.14086024 0.29753175 0.08862784 0.029646747
000090 b5 ed 62 3d 03 63 19 3e 48 c0 9b bd 5b ca 83 3b
       0.055402476 0.14979176 -0.07605034 0.0040219254
0000a0 9c e6 90 bd fa d9 fc 3c 60 d9 7a bd 51 98 b9 3d
       -0.07075235 0.030865658 -0.06124246 0.09062255
0000b0 b6 af a7 bb b8 18 52 3d 90 7b bd 3d 16 c8 1e 3d
       -0.005117382 0.051293105 0.09252083 0.038765036
0000c0 e1 fb 4c 3e 2d 74 13 3e 4b b2 6d 3e ff 6d 77 bc
       0.20017959 0.14399786 0.23212545 -0.015101909
0000d0 42 f6 33 3e d3 a7 b5 3e da 92 71 bd ef c6 4c 3c
       0.17574409 0.35479602 -0.05897794 0.012498601
0000e0 f9 46 d4 bc eb de c4 3d 4d 61 0b 3e 6e c5 9e bc
       -0.025912749 0.09612831 0.13611336 -0.019381251
0000f0 de b3 bf 3d 6a 11 73 3e 08 d3 1f 3d d6 0f 33 3e
       0.09360479 0.23737112 0.039019614 0.1748651
000100 f5 b4 68 3e 98 bd ee 3d 6c 40 b1 3b ba 5c d0 bd
       0.2272528 0.11657256 0.005409291 -0.10173936
000110 fd 22 68 bc d5 25 54 3d a8 97 64 3e 76 bf 60 3e
       -0.014168498 0.051793892 0.22323477 0.21948037
000120 a7 45 8b bd ea 58 f7 bc d7 a2 45 3e 9c fc d7 b9
       -0.068003945 -0.030193765 0.193004 -0.00041196204
000130 e9 38 49 3e 16 46 39 3e bc 7b 16 3e e6 ee 8a 3e
       0.19650616 0.18093142 0.14695638 0.2713539
000140 30 17 4f 3e fe 27 d4 bb 7a 85 a6 3c 86 f8 ee bd
       0.20223689 -0.006474494 0.020327318 -0.11668496
000150 22 b1 14 3e cb a8 44 3c 94 48 29 3e d1 3a 1c bd
       0.14520696 0.012003134 0.16531593 -0.03814203
000160 8c f7 53 3e 11 72 e7 bd ef a9 89 3e 12 57 79 3e
       0.206999 -0.11301053 0.26887462 0.24349621
000170 b2 f4 33 3d 1f 11 22 3c 2c e0 cb bd 2f 3a 4b 3e
       0.04393453 0.009891777 -0.09954867 0.19846414
000180 10 4c a1 bd fd 26 8b 3e e3 c9 71 3e ee a9 3b bd
       -0.07875836 0.27178183 0.2361217 -0.045816354
000190 6a 35 71 3d 1f 8f ed 3d 69 98 b2 3e b1 e6 a9 bd
       0.05888883 0.11599564 0.34881905 -0.08295954
0001a0 b4 93 31 3e 49 36 b8 3e 69 02 7a bd 4c 48 d2 bd
       0.173415 0.35978916 -0.061037455 -0.10267696
0001b0 e3 48 39 3e 05 e7 50 3e 10 db a6 3c 46 5d 78 3e
       0.1809421 0.20400627 0.020368129 0.24254331
0001c0 ba fc ac 3c a4 2a 87 3d 18 8c 12 3e 82 8d 95 bd
       0.021116603 0.0659993 0.14311254 -0.07302381
0001d0 a7 d1 21 3e 58 b2 90 3e 9c 04 ab 3b dd 7b a1 bd
       0.15802632 0.28261065 0.0052190553 -0.07884953
0001e0 2d c7 ab bd 50 28 04 3e 24 14 f3 bb a7 ae 8e 3e
       -0.08387599 0.12906003 -0.0074181724 0.27867624
0001f0 f0 1d 26 3e c2 aa b3 bd af 1e e2 3b 0e 7b 0c 3e
       0.16222358 -0.08772804 0.0069006304 0.13718817

q1.weight f4 [1, 128]
000000 e6 ea 95 3e 8a 89 50 3e 90 8c 46 bf 99 02 2f 3e
       0.29280776 0.20364967 -0.7755823 0.17090835
000010 cb 34 66 3e 0e 7f 4e 3e bb ff 34 bf f1 d2 89 3e
       0.22481076 0.20165655 -0.70702714 0.26918748
000020 1b b3 1b bf 0d b1 7b be 77 ad a0 be 64 60 8c 3e
       -0.6082017 -0.24579258 -0.31382343 0.2741729
000030 11 2a 30 bf 46 b9 4f 3e 07 d0 31 bf 5a 83 58 3e
       -0.6881419 0.2028552 -0.6945805 0.21143857
000040 2c 15 45 3e 09 f7 09 be 4e db 2a bf 65 1c 91 3e
       0.19246358 -0.13473143 -0.6674088 0.28341976
000050 c6 2f 16 bf a5 46 76 3e 58 f5 64 3e df e7 67 be
       -0.58666646 0.24050386 0.22359216 -0.22647046
000060 37 4a e0 be 57 95 67 3e 38 6b ca be ef a3 90 3e
       -0.4380662 0.22615562 -0.39534926 0.2825007
000070 c5 86 ef be 4d b0 7d 3e 7c 82 65 3e 65 b7 9d 3e
       -0.46782508 0.24774285 0.22413057 0.3080398
000080 b1 ca 36 3e b3 f9 71 3e 31 3a 08 bf 02 d5 b8 be
       0.17850758 0.23630409 -0.53213793 -0.36100012
000090 4b 15 3d bf ae e3 6c 3e 4b 91 00 bf 47 1d b9 be
       -0.73860615 0.23133728 -0.502217 -0.3615515
0000a0 ea c1 19 bf b5 85 43 bf 22 10 b2 be 47 8c 73 3e
       -0.60061514 -0.76375896 -0.34777933 0.2378398
0000b0 40 47 df be d6 a0 0a bf 56 0b 23 bf 77 62 f7 bc
       -0.43609047 -0.54151666 -0.6368917 -0.030198319
0000c0 c6 19 5b 3e 28 46 50 3e d0 3f 81 3e 65 48 41 bf
       0.2139655 0.20339262 0.25243998 -0.7550109
0000d0 bf cf 7a 3e 26 ac 7f 3e 0a 13 fe be 6b f2 2d bf
       0.24493311 0.24968013 -0.496239 -0.67948025
0000e0 dc a9 e3 be 22 9b f7 be 06 fb 36 3e bd a6 1a bf
       -0.4446553 -0.48360544 0.17869195 -0.6041067
0000f0 ef 65 11 bf 7d a2 86 3e d3 97 56 bd 29 12 87 3e
       -0.56796163 0.26295844 -0.052390885 0.26381043
000100 57 4f 82 3e 31 5f 39 3e e4 9a 59 bd de 6a 7b be
       0.25451156 0.18102719 -0.05312623 -0.24552485
000110 8e dc a3 be 61 80 24 bf 20 ab 55 3e 85 c0 94 3e
       -0.32004207 -0.6425839 0.2086606 0.2905313
000120 48 d0 4c bc bf 1c 28 bf 5d a2 88 3e 8b 29 14 bf
       -0.01250083 -0.65668863 0.26686373 -0.5787589
000130 7c 38 6d 3e 74 ec 3d 3e 67 41 7b 3e 37 e5 a5 3e
       0.23166078 0.18547231 0.24536668 0.3240144
000140 9e d2 84 3e 64 89 e5 be a1 aa 65 be d9 aa 1f be
       0.25941938 -0.44831383 -0.22428371 -0.15592517
000150 94 7f 60 3e 07 58 09 bf 35 f0 6b 3e 7d 4e 32 bf
       0.21923667 -0.53649944 0.2304085 -0.69651014
000160 40 7e 46 3e 65 ae a3 be 73 2f 4a 3e 00 8c 6c 3e
       0.19384098 -0.3196899 0.19744663 0.23100281
000170 d3 08 2f 3f 1d e9 74 bd 95 25 9d 3b 0a 1f 5d 3e
       0.6837284 -0.059792627 0.00479574 0.21593872
000180 cc 35 97 be 9a ac 32 3e 2d 3a 61 3e b7 3b 04 bf
       -0.2953323 0.17448655 0.21994849 -0.5165362
000190 5d 86 3c bf 76 c3 46 3e 83 ff 7f 3e bd 1d e5 be
       -0.7364252 0.194105 0.24999814 -0.4474925
0001a0 88 39 7f 3e d1 c5 83 3e f1 90 04 bf e4 e9 40 be
       0.2492429 0.2573686 -0.51783663 -0.18839222
0001b0 e9 af 6e 3e c9 78 27 3e 88 ee be be 07 b0 5e 3e
       0.23309292 0.1635467 -0.3729136 0.21746837
0001c0 00 46 19 bf 81 32 39 bf 6a 76 46 3e 98 e8 90 be
       -0.59872437 -0.7234269 0.19381109 -0.28302455
0001d0 05 54 8c 3e 08 1a 62 3e 18 8c 17 bf 8e 23 20 bf
       0.27407852 0.22080243 -0.5919814 -0.6255425
0001e0 50 27 88 bc 16 dc 69 3e 77 1c 50 bf 50 f9 60 3e
       -0.016620308 0.22837862 -0.81293434 0.21970105
0001f0 4f 2f 41 3e cd 12 8d be cc 69 79 be 6c 4f 75 3e
       0.18865703 -0.27553406 -0.24356765 0.23956078

fc3.weight f4 [128, 17]
000000 8f 3d 78 3e 0f 4b 32 3e bd 90 82 bd a8 63 fb 3d
       0.24242233 0.17411445 -0.06375263 0.12274867
000010 e2 ac 6f bc f0 fc 2e 3e b5 13 6d 3e 21 f1 67 3e
       -0.014628621 0.17088675 0.23152049 0.22650577
000020 31 ae 07 be 81 a6 f6 bd 21 f9 8a be e3 62 c0 3c
       -0.13250042 -0.12043477 -0.27143195 0.023484653
000030 b7 57 a6 3d 3d e4 4c 3e 29 80 23 3e c7 d7 fe 3d
       0.08122199 0.20008941 0.15966858 0.124435
000040 5d 7a 82 be 12 83 16 bd 6d 6d 8c be 81 74 32 be
       -0.2548398 -0.036746092 -0.27427235 -0.17427255
000050 99 d8 5b 3d 5b 96 f4 bd a5 7d 45 3e 86 1e 89 be
       0.05367336 -0.119427405 0.19286211 -0.267811
000060 77 79 7c 3e 9d 0c 74 bd d9 fd 96 3e 2d e0 93 bd
       0.2465571 -0.05958234 0.29490545 -0.072204925
000070 52 24 d9 bd c3 ec 6d 3e 5d 1f 07 3e 7d e9 72 be
       -0.10602631 0.23234849 0.13195558 -0.23721881
000080 c0 a9 22 be 54 02 b9 be 35 3e 32 3d cd 81 f2 3d
       -0.15885067 -0.3613459 0.043516356 0.11841164
000090 c3 52 10 be 8e 9a c2 3d 8b a0 40 3e 12 d4 ef 3d
       -0.14094071 0.09502135 0.18811242 0.11710371
0000a0 ae 6c b7 3d 69 98 b9 3d 38 c9 a5 3d 58 a4 2e be
       0.08956276 0.09062273 0.0809502 -0.1705488
0000b0 aa 79 33 be 5f 89 57 3e 09 95 2b 3e 10 83 53 3e
       -0.1752688 0.21048497 0.16756071 0.20655465
0000c0 29 64 2e bd 8d 4b 58 be 46 79 59 be c9 e7 ca 3d
       -0.04257599 -0.2112257 -0.21237668 0.09907491
0000d0 a5 bd e2 3c 7e 7d 7c 3e 09 b2 63 3e f9 50 9f 3d
       0.02767832 0.24657246 0.22235884 0.07779116
0000e0 95 be 17 3c 89 a2 2a bd 97 93 a4 bd 49 5e 69 3e
       0.009261747 -0.04165891 -0.08035963 0.22789873
0000f0 2b f5 99 bc 2c f6 58 3e b3 6a 63 ba 14 fa db 3b
       -0.018793663 0.21187657 -0.0008675262 0.0067131612
000100 a2 f2 03 be 09 16 82 3e 43 c5 ed 3c 46 9e 32 be
       -0.12885526 0.25407436 0.029024726 -0.17443189
000110 4b 5b 25 3e 55 85 b4 bd b9 e6 bf 3e ca 6a c6 3d
       0.16148107 -0.088144936 0.37480715 0.09688337
000120 12 b8 71 3e 80 6f 14 bd b5 6b 18 be 33 ac 96 be
       0.23605374 -0.036239147 -0.14884837 -0.29428253
000130 ae 09 00 be 31 57 53 3e e7 30 78 3d e6 1e 8f be
       -0.12503693 0.2063873 0.060593512 -0.2795326
000140 b7 d2 c6 be b0 fb ba be cf 7b 12 be 31 db 36 be
       -0.38832638 -0.36520147 -0.14305042 -0.17857052
000150 12 a0 0a 3e 1d fe d2 bd 07 c9 b7 bd 40 37 1a be
       0.13537624 -0.103023745 -0.0897389 -0.15060139
000160 75 3f 71 3e 0a 53 0e 3e 4a bf 81 3e 23 db 62 bd
       0.23559363 0.13898864 0.25341254 -0.055384766
000170 bb ab 37 be 16 56 33 3e 34 67 fc bc 51 60 d3 3e
       -0.17936604 0.17513308 -0.03081093 0.4128442
000180 01 6c d1 bd 1a d4 8a 3b 9d 15 b7 3e f4 70 ad 3e
       -0.10225678 0.0042367103 0.35758677 0.3387524
000190 0a 8c 9e bd 8e 0d 5a bd 22 77 1a 3d f2 a3 13 3e
       -0.07741554 -0.053235583 0.03771127 0.14418009
0001a0 55 58 64 be a7 01 05 3e 3e 98 e6 bd e0 00 e3 bd
       -0.22299321 0.12988912 -0.11259507 -0.11084151
0001b0 25 da ca 3d 2e 04 e6 ba 88 b7 63 be 8f 2b 86 bb
       0.09904889 -0.0017548853 -0.2223798 -0.004094548
0001c0 a1 8b f8 3c 0e f3 25 3e 3f 69 92 3c a9 59 0b be
       0.030340018 0.16206 0.01787245 -0.13608421
0001d0 50 6f 00 be 02 4c 4f 3e 7f 61 64 bd 22 e5 0b be
       -0.12542462 0.20243838 -0.055757042 -0.13661626
0001e0 82 9b 86 3e f5 ea 0f be 25 70 52 3e 9e 11 55 bd
       0.26290518 -0.14054473 0.20550592 -0.052018754
0001f0 9b 83 ac bc dd d7 40 be b1 cc 2e be c4 49 ab 3d
       -0.021058848 -0.18832345 -0.17070271 0.08363679
000200 e0 1a 1a be 4f 8a b2 bd e8 d9 50 3e 81 5e 0a 3c
       -0.15049314 -0.087177865 0.20395625 0.008445383
000210 3b fd 07 be 3d 65 01 bb 5a 69 dc 3d f8 58 82 3e
       -0.13280194 -0.001974418 0.10762282 0.25458503
000220 ea 79 66 3e 57 73 97 3e 28 7f b7 3d c0 69 2b 3e
       0.22507444 0.29580185 0.089598 0.16739559
000230 93 58 6c 3b 2c 8b 1f 3d e0 4e 30 bd 5f 2c c8 bc
       0.0036063537 0.038951084 -0.04304397 -0.02443522
000240 39 c5 3c bd e6 92 a0 bd 57 96 cc ba ac 24 29 3e
       -0.046086524 -0.07840519 -0.001560877 0.16517895
000250 df ab 0f be eb 77 94 be a2 48 cb 3b 40 13 21 be
       -0.14030407 -0.2899774 0.006203727 -0.1573
000260 30 61 14 bd 83 52 73 be f2 7a cb 3d d2 ea 3e be
       -0.036225498 -0.23761944 0.09935559 -0.18644264
000270 b3 1e 0e bd 3e e7 30 3d 2e 60 96 bd 08 90 f1 bd
       -0.034697246 0.04318928 -0.073425636 -0.1179505
000280 2a bd 5a 3e fc b5 87 be a0 b4 4e 3c 44 a3 d9 bd
       0.21361223 -0.2650603 0.012616307 -0.106268436
000290 36 6d 3b 3e c1 01 f5 3d 8d a8 01 be 1c 57 3d be
       0.1830338 0.11963225 -0.12661953 -0.18490261
0002a0 e5 f2 ce 3c 5f 58 2f be 36 fa 77 be 61 eb e8 3c
       0.025262306 -0.17123555 -0.24216542 0.02843255
0002b0 ac a5 3e be cb 0b 9b 3d 59 c0 c2 bd c7 68 11 be
       -0.18617886 0.07570609 -0.09509344 -0.14200126
0002c0 22 a5 c2 bd c6 38 59 be cf 85 aa be 78 3e 38 be
       -0.09504153 -0.21213064 -0.33305213 -0.1799258
0002d0 32 cb 85 3e 88 35 b4 bd bb 7e 1f bd a6 d7 a6 3e
       0.26131588 -0.08799273 -0.03893922 0.32586402
0002e0 16 3b 97 bd 68 55 9d 3e a0 a6 d1 be 73 76 76 3e
       -0.073843166 0.30729222 -0.40947437 0.24068622
0002f0 eb eb 1f bd c2 e5 54 bd 79 6a 1b 3e c8 d5 0d 3e
       -0.03904335 -0.051976927 0.15177335 0.13851082
000300 e8 af a9 3d b4 8c 79 be 13 57 1e 3e 26 a2 df 3a
       0.082855046 -0.2437008 0.15462904 0.0017061874
000310 6b 25 3c 3e e8 e6 78 3e 7a 9a 80 3e a6 66 fe 3d
       0.18373649 0.24306834 0.25117856 0.124219224
000320 d1 26 8e 3d a4 84 00 bd 6f 86 e5 bc df 88 17 3e
       0.069409974 -0.031376496 -0.028018204 0.14798306
000330 d9 1c f7 bd 17 e1 64 3d c6 61 e0 bd 52 32 16 be
       -0.12066049 0.055878725 -0.10956149 -0.14667633
000340 66 74 79 3d 93 d5 f9 bd a5 1b f9 bd cc 5d 39 3e
       0.06090202 -0.12198939 -0.12163476 0.18102187
000350 70 e4 83 3e d6 c5 85 be 88 13 69 be dc cd fb bc
       0.2576022 -0.261275 -0.22761357 -0.03073781
000360 12 8b c9 be b8 cb b1 3d 8c ae 8e 3c c2 c8 1e 3d
       -0.39363915 0.086814344 0.017417215 0.038765676
000370 c5 a1 98 3c c0 88 c7 3d a6 d6 c6 3c 6c 18 f8 3d
       0.018631825 0.0974288 0.024272274 0.12114033
000380 99 04 13 be 29 ec 8a 3d ad c4 61 3e 65 4c 7f 3e
       -0.14357223 0.06783325 0.22047682 0.24931486
000390 b4 0e 00 bd 60 c3 83 3d 67 b5 5b be 74 87 5c bd
       -0.031264022 0.06433749 -0.21455918 -0.053840116
0003a0 9f 1d 50 3b 5c 9a 6a 3e ef db 6b 3e 3f 1a 6f 3e
       0.0031755937 0.22910446 0.23033117 0.23349856
0003b0 ae 9f ac 3e e3 7d 29 3e 00 c2 f7 3d 47 55 ee 3b
       0.33715576 0.16551928 0.120975494 0.0072733494
0003c0 8d 75 37 3e 19 bd 31 3e 0c d5 ea bd c6 32 d0 be
       0.17915936 0.17357291 -0.11466417 -0.40663737
0003d0 96 a6 f0 3d e9 dc 09 3c e5 a1 9f 3d 4e 8f 95 be
       0.11750524 0.0084144855 0.07794551 -0.29210895
0003e0 6a 19 8c 3e 36 53 26 bd cd f2 9a bd 83 1d bb bd
       0.2736314 -0.0406067 -0.07565842 -0.09136488
0003f0 45 d4 b2 3c 12 7f 1a 3e 50 3e 44 3d d6 af 63 3e
       0.021829734 0.15087536 0.04791099 0.22235045

fc3.bias f4 [128]
000000 dc 4c 2c be eb 20 8a 3e 61 da cd 3e 82 8d e0 3e
       -0.16826195 0.2697824 0.40205672 0.43857962
000010 85 55 ac 3c a0 92 36 be db 8c e2 3e 9a 41 74 3e
       0.021036873 -0.1782937 0.4424809 0.2385315
000020 ed 48 8b 3e 0d 4b 6d 3e a5 6e 02 bd 9b 64 88 3e
       0.27204075 0.23173161 -0.0318438 0.26639256
000030 97 d9 1c be 2d 9c 53 3e 1a 60 b7 3e a1 29 a9 3e
       -0.15317379 0.20665045 0.35815507 0.33039573
000040 67 ec 89 3e 63 e7 eb 3e 2c 21 dd 3e 02 8c 72 3e
       0.26938173 0.46074972 0.4318937 0.23686221
000050 5b 70 81 3e 73 66 c1 3d 92 b9 4f 3e 3a 05 df 3e
       0.25281033 0.09443369 0.20285633 0.43558675
000060 54 48 8b bd 86 20 c2 3c 73 26 0e 3d b1 20 c3 3e
       -0.06800905 0.023697149 0.034704637 0.3811088
000070 ba c7 ed 3e 6b c5 e5 bd 9e ad d9 bc 70 07 81 3e
       0.46441442 -0.11219295 -0.026572045 0.25200987
000080 75 30 7a 3d 62 31 98 3d 72 6f 3c be fe ec 97 bb
       0.06108137 0.07431294 -0.18401888 -0.004636406
000090 f4 f5 15 3d 23 84 0a bd 8d 06 e9 3e 43 59 83 bd
       0.036611512 -0.03381742 0.4551281 -0.0641351
0000a0 82 18 fe 3b 81 de eb 3d 13 66 fe bd 01 b3 29 3e
       0.0077543864 0.115170486 -0.12421813 0.16572191
0000b0 c0 c7 e8 3e 02 7b b2 3e 30 09 ac 3e f0 c7 e0 bd
       0.45464897 0.34859473 0.3360076 -0.10975635
0000c0 ec e4 b0 bd 3f 6b c6 3e 9a 3a 49 3e 1e 9f cc 3e
       -0.086374134 0.38753697 0.19651261 0.39965147
0000d0 a2 94 52 3e 29 fc 04 bd c8 1e e7 bc 8e 80 9a 3e
       0.20564511 -0.03246704 -0.02821292 0.30176204
0000e0 43 3b 25 be 9b 28 c4 3e d7 32 d7 3e 8c 67 41 3e
       -0.16135888 0.3831223 0.42030975 0.18887156
0000f0 08 b4 1e be 3b 21 d9 3e 0c 5b a0 3e 03 90 ed 3e
       -0.15498364 0.42408165 0.31319463 0.46398935
000100 65 de c0 3e 83 24 25 be 5d 49 98 3e 56 85 e5 3e
       0.37669674 -0.1612721 0.29743472 0.4482829
000110 1f 8c 63 be c4 91 8a be f8 2f c7 3e ce 35 d6 bd
       -0.2222142 -0.27064335 0.38903785 -0.10459481
000120 94 89 53 be b4 88 65 3e 07 5a 8e bd f4 67 10 bc
       -0.2065795 0.2241543 -0.06950765 -0.008813847
000130 da 69 8c 3e 2c bf c2 3e b7 fb a1 3e 47 ef 9e 3e
       0.27424508 0.38036478 0.31637356 0.3104193
000140 91 64 10 3e 05 c9 2a bd db 68 e6 3e 15 42 d3 3e
       0.14100863 -0.041695613 0.45001873 0.41261354
000150 51 7d bc 3d bc 2c 7d 3e 3d 11 b0 bc 16 06 87 3e
       0.0920359 0.24724096 -0.021492595 0.2637183
000160 8c e3 e5 3e 2e bf 8d 3e b1 ba bc 3e 3b d2 8c ba
       0.44900167 0.2768492 0.36861184 -0.0010743806
000170 7a 1a ab bd 9f d9 82 3d 38 4a 43 3e de c3 af 3c
       -0.083546594 0.06389164 0.19071281 0.021455701
000180 dc d0 c5 3e fc db 2c 3e cd 0b 71 be 6c f6 68 3e
       0.3863591 0.16880792 -0.23539658 0.22750252
000190 2b 93 01 be e3 b8 44 bd 68 ed 42 3e c2 f4 04 3f
       -0.12653796 -0.048027884 0.19035876 0.5193597
0001a0 c9 8c c2 3e d5 25 8c 3e e7 14 79 3e 17 ad a3 3e
       0.37998036 0.27372614 0.2432438 0.31967995
0001b0 8e ec 95 3d 30 37 56 be 8b dd 11 be cc 8d c6 3e
       0.0732051 -0.2091949 -0.14244668 0.38780057
0001c0 45 97 ac 3e d2 9c 9b be a1 14 a4 3e 43 94 31 be
       0.3370916 -0.30393082 0.3204699 -0.17341714
0001d0 fa 8f 9c bd 65 e0 8d 3d 5a 7d 67 3e 88 8c d5 3e
       -0.07644649 0.069275655 0.22606412 0.4170878
0001e0 65 16 2f be 70 72 4b 3e fb 98 00 bd 6b 61 08 bd
       -0.17098387 0.19867873 -0.031395894 -0.03329603
0001f0 82 70 88 bd c0 af a9 3e 42 79 ee bd f4 13 e8 3e
       -0.06662084 0.331419 -0.11644222 0.45327723

fc4.weight f4 [128, 128]
000000 c3 8a a7 3d 24 61 80 be ff f0 25 be a8 78 ed 3d
       0.081807636 -0.25074112 -0.16205214 0.11595279
000010 f5 17 82 3a c5 19 46 3e 0d fa fd 3d 86 f7 9b 3d
       0.0009925353 0.19345768 0.12401209 0.07615571
000020 86 91 fe 3c cc 6a 28 3d d7 a1 29 3e 30 fe c6 3c
       0.03107525 0.041117474 0.16565643 0.024291128
000030 11 cf 59 3d 40 83 2d 3b 72 c2 17 3e 01 f7 52 bd
       0.05317599 0.0026475936 0.14820269 -0.051505093
000040 2a 53 ef b9 2c 34 74 bd 15 1b ca 3d 84 a2 73 bd
       -0.00045647594 -0.059620067 0.09868447 -0.05948116
000050 ec b6 02 be ab 5d 2f 3d 1c 49 5c 3d be 4c 50 be
       -0.12765092 0.042813938 0.05378066 -0.20341775
000060 9b 58 96 3e 05 1b bb bd aa d4 93 bd d9 c5 d1 bb
       0.29364476 -0.09136013 -0.07218297 -0.006401759
000070 22 28 60 be 8b a3 b7 bd fc 06 e0 bc 13 2e 6b 3d
       -0.2189031 -0.0896674 -0.02734708 0.057416987
000080 6d 41 34 bc 7f 36 1c bd b5 e7 46 be ce a6 dc 3b
       -0.011001927 -0.03813791 -0.19424327 0.006733752
000090 63 5e 28 3e 41 48 3f bc 6d 06 99 be d3 d2 4c 3d
       0.16442256 -0.0116749415 -0.29887715 0.050005745
0000a0 55 eb 98 be f5 40 a1 3c 7f 71 8b 3d ce 63 35 3d
       -0.29867044 0.019684294 0.06808757 0.044284634
0000b0 6d d0 0f be d4 b5 cc 3d f7 df 77 3c 43 b2 0f bd
       -0.14044352 0.099956185 0.015129081 -0.035082113
0000c0 d3 07 11 3d 51 0e 05 bd 5e d7 8a 3c a6 b1 b9 bd
       0.035407852 -0.032484356 0.016948398 -0.09067087
0000d0 d1 6d 1a bd e8 c6 a3 3e 17 66 f8 bc 4b cb 7a 3d
       -0.037702385 0.3198769 -0.030322118 0.06122903
0000e0 d5 d7 44 be aa 8f f2 bd f5 10 74 bd 46 1a 2a 3e
       -0.19222958 -0.11843808 -0.059586484 0.16611585
0000f0 30 ce 34 be 60 7d b2 bc 3f bf 5d 3d 29 65 f4 3c
       -0.1765678 -0.0217883 0.054137465 0.029833393
000100 d7 a3 b7 bb 67 52 88 bd c1 09 cd 3b 15 17 8c bc
       -0.005604248 -0.06656342 0.0062572663 -0.01710085
000110 06 af d5 3d 67 be 87 3e c1 4c 03 3d d3 e1 78 bb
       0.10433774 0.26512453 0.03205562 -0.0037976399
000120 fd b6 36 bd c2 4c d4 3c fc 33 3c bb 49 5c 80 bd
       -0.044608105 0.025915507 -0.0028717509 -0.06267602
000130 5b ef e6 3d fa d4 5b bc 62 18 b1 3d df 5b 46 be
       0.11276122 -0.013417477 0.08647229 -0.19370984
000140 f3 05 b9 39 9b db 4d be aa 96 43 3d 7e 2a c1 bd
       0.00035290382 -0.20103304 0.047751106 -0.09431933
000150 9e 39 7b bd c2 2c 1b be 15 c8 6f 3d a7 b2 d9 bd
       -0.061334245 -0.15153793 0.058540422 -0.10629778
000160 9d b5 e4 3d 69 59 82 bd 7b 9d 58 3d f7 04 19 3e
       0.111674525 -0.0636471 0.05288456 0.149433
000170 78 24 01 be 39 90 00 3e 53 ab 97 3d ba d1 6f 3d
       -0.12611568 0.12555017 0.074057244 0.05854962
000180 ef 41 00 be 58 8b 05 3c e6 ff dd bd 78 19 f7 3c
       -0.12525152 0.008150898 -0.108398244 0.030163512
000190 5e d1 66 be a1 2a ac bd 5a b0 bf 3c 66 f2 3f 3d
       -0.22540805 -0.08406568 0.02339952 0.04686203
0001a0 e2 59 7a 3c d1 20 02 bd 4b 63 a7 3d 16 54 b7 3c
       0.015280219 -0.031769577 0.081732355 0.022378962
0001b0 d2 1c 58 3a 99 17 ea 3b 56 d7 aa 3c 63 0c 01 be
       0.00082440407 0.0071439263 0.020854633 -0.12602381
0001c0 5a 73 e5 bb a5 4a b5 3d 62 57 35 3e b4 d0 1c be
       -0.0070022764 0.08852128 0.17709115 -0.15313989
0001d0 f5 0c 79 bd e2 28 78 3d 4c 70 9a 3b 24 d7 a1 3c
       -0.060803372 0.060585864 0.004713094 0.019755907
0001e0 86 c2 70 3e 4c 54 83 3d fd e6 02 3e 47 ea f9 3d
       0.23511705 0.06412563 0.12783428 0.12202888
0001f0 9f 0c b3 3e bb cf 75 3d db e1 05 be 4d 80 98 3d
       0.34970567 0.06001256 -0.13074438 0.074463464
000200 30 ad 9b 3b 43 19 0e 3e ec 84 35 3d 53 dc 17 3e
       0.00475087 0.13876824 0.044316217 0.14830141
000210 77 f8 26 3d 3f 75 13 be 3a 40 33 3e 3f 07 02 3c
       0.0407643 -0.14400195 0.17504969 0.007936298
000220 b3 74 f4 3d 7e 3e 4c 3e f9 8b 07 3e d2 6c 05 3d
       0.11936321 0.19945714 0.13236989 0.032574482
000230 85 6b 6a bd d0 56 da 3d ac 46 17 3e d6 4a 02 3e
       -0.057231445 0.106610894 0.14773053 0.1272386
000240 a5 95 f8 3d 9d 19 29 3e 49 46 88 3e 7b 71 71 3e
       0.121379174 0.16513677 0.26616123 0.23578446
000250 2c 4a db 3d 0a d8 94 3e 80 d3 f2 3d a0 77 87 3e
       0.107075065 0.29071075 0.11856747 0.26458454
000260 60 4d 04 bd 8d dd 0a 3e 09 93 89 3d ee dc 06 3e
       -0.032300353 0.13561077 0.06717498 0.13170215
000270 4e 01 89 3e 28 ed f5 3d c0 ce d2 3d c4 3d c5 3d
       0.26758808 0.120081246 0.10293341 0.096309215
000280 e7 65 8b 3c 87 b7 01 3d 24 49 14 be 19 c4 ea bd
       0.017016364 0.031669166 -0.14481026 -0.11463184
000290 1f 73 0a 3d f3 b7 b5 3d 91 ec 21 3e ac 54 0f be
       0.033801194 0.08872976 0.15812899 -0.13997144
0002a0 54 93 9b 3d 02 ec 05 3d fe 14 10 3e e0 03 ae 3e
       0.0759646 0.032695778 0.14070508 0.3398733
0002b0 17 16 df 3d 8d 2a 56 3e d5 94 a7 3d 76 41 c3 bd
       0.10892885 0.2091467 0.08182684 -0.0953397
0002c0 94 4f ff 3d dc 23 da 3d 7b 75 b5 3d ab a1 96 3e
       0.1246635 0.10651371 0.08860298 0.29420218
0002d0 d3 f3 10 3e 57 19 c0 3d 68 b9 a8 3d 00 41 38 3e
       0.14155512 0.09379833 0.082384884 0.17993546
0002e0 aa 48 2a be d0 ae 01 3e 49 5e 13 3e 3c a9 ea bc
       -0.16629282 0.12664342 0.14391436 -0.02864515
0002f0 54 ce 69 3e 59 94 7e 3e 54 b2 d8 3d 87 95 ee 3d
       0.22832614 0.24861278 0.105808884 0.11649614
000300 b1 c2 f9 3d 12 78 1d 3d cb c2 dd 3d 47 e9 48 3d
       0.121953376 0.038444586 0.108281694 0.049050596
000310 63 12 32 be dd 35 3d 3e ad 1b ad 3d 6c e3 c9 3d
       -0.17389826 0.18477578 0.08452544 0.098578304
000320 9d 3b 60 3d 53 39 84 3d a1 d4 13 be 86 3b a7 3c
       0.05474435 0.06456246 -0.1443658 0.020414125
000330 6e 9a b9 3d 57 65 89 3e 51 8f 0b 3e 77 9a 24 3e
       0.09062658 0.2683513 0.1362889 0.16074549
000340 b8 57 16 3e ff 85 1c be 89 e8 3f 3e 03 7c cf 3d
       0.146819 -0.1528549 0.18741049 0.10131075
000350 19 02 08 3e 0f 1b 5b 3e da 8f af 3d 6c cd 3d 3e
       0.1328205 0.21397041 0.085723594 0.18535393
000360 41 01 07 3e 82 8b fc 3a 80 80 2b 3e 5d 15 91 3d
       0.13184072 0.0019267651 0.16748238 0.07084153
000370 7c 9f bd bd 51 0e 50 3d 71 b7 14 3e 2f 18 da 3d
       -0.09258935 0.050794903 0.14523102 0.10649144
000380 8a 3e c9 3d a9 4c 3d 3a 27 cb 85 be fa 3a 06 3e
       0.098263815 0.0007221201 -0.26131555 0.13108435
000390 35 63 f0 3d eb c2 25 bd 87 22 de 3d bb c6 a4 3e
       0.11737672 -0.04046909 0.10846429 0.3218287
0003a0 27 65 16 3e d4 9f 29 3e fa 21 14 3e 43 12 52 3e
       0.14687024 0.16564876 0.14466086 0.20514779
0003b0 32 ff 14 3d c4 82 0f be 2d 90 99 3d 65 8a 89 3e
       0.036376186 -0.14014727 0.074982025 0.268634
0003c0 d3 a8 f1 3d 44 6b 05 be 0d 0d 6d 3d 54 8f 95 bd
       0.11799779 -0.130292 0.057873774 -0.07302728
0003d0 2d 18 21 3e 8f b7 11 3e 27 0e a6 3d 10 0b 7e 3e
       0.15731879 0.14230178 0.08108168 0.24808908
0003e0 21 a1 9c be 78 0c 1e 3e 8a 84 3a 3c 85 be 15 bd
       -0.30591682 0.15434444 0.011384139 -0.036558647
0003f0 e9 fc 1a be 7a bb 43 3c 14 76 24 3a 4e d3 6a 3e
       -0.1513554 0.011946553 0.00062736985 0.22932169

fc4.bias f4 [128]
000000 58 e0 1c 3c 9a 55 5d 3e c9 5d d7 3d a2 50 b6 bd
       0.009574972 0.21614686 0.10515935 -0.08902098
000010 04 c4 e4 3d 3c 99 68 3e 34 ca f6 3c 88 59 c8 bc
       0.111701995 0.22714704 0.030125715 -0.024456754
000020 b4 6a 2c 3e 81 b6 73 3e 84 c2 81 bd 43 03 7e 3e
       0.16837579 0.23800088 -0.06335929 0.24805932
000030 34 af 5c 3e 2b c7 b1 bd 8a 81 d9 bd 1c 4f 84 bd
       0.2155121 -0.086805664 -0.10620411 -0.064604014
000040 33 84 f1 3d d0 e0 21 bd 98 a5 5f 3e 1f a7 7a 3e
       0.11792793 -0.03952104 0.21840513 0.24477814
000050 3c 32 58 3d 76 ab dd bd e6 5e 84 bd d6 27 c6 3c
       0.052782282 -0.10823719 -0.06463413 0.024188917
000060 d1 13 88 3e 78 25 70 bc ce a5 cb bc 9c 81 2c 3e
       0.2657762 -0.014657371 -0.024859335 0.16846317
000070 50 97 3d 3e ff a5 4d 3e ae f2 24 3e 12 ec 6c 3e
       0.18514752 0.20082854 0.161082 0.23136929
000080 89 05 89 3e 00 14 8a 3d 91 51 0f 3e 48 a1 73 bd
       0.26762035 0.06742096 0.13995959 -0.05947998
000090 48 3d 0a bd ee 43 76 3e ee 01 2f 3e f5 b8 6e 3e
       -0.03374985 0.2404935 0.1709058 0.23312743
0000a0 d9 c4 c4 bc 7e 64 a0 bd 1e b4 3f 3e 8d f5 39 3d
       -0.024019646 -0.07831667 0.18721053 0.04540019
0000b0 e7 1c 27 3e f7 8b 11 bc 03 83 0b 3c 3d cb 68 3d
       0.16319619 -0.008883468 0.008515122 0.056834448
0000c0 76 51 f7 3d aa 56 2d 3e 81 62 6f 3d 1b 20 c0 3d
       0.12076084 0.16927591 0.05844355 0.09381124
0000d0 fe 49 86 3d ea ec 24 3e ef db bd bd c2 a7 94 3e
       0.06557082 0.16106 -0.09270465 0.2903424
0000e0 7d 4d 44 3d e5 b3 fb bc 92 cc 8d 3e e2 c1 10 3e
       0.04792546 -0.030725429 0.27695137 0.1413646
0000f0 56 af ca 3d 42 c9 79 3d fa 3d 08 bd 18 66 15 3e
       0.09896724 0.06098295 -0.03326223 0.14589727
000100 b3 30 17 3d bb 83 73 bd 86 7e 4c 3c 54 ce 47 3e
       0.036911678 -0.0594518 0.012481337 0.19512302
000110 e9 0f 42 bd c9 d7 95 3e be 34 00 bd e2 84 7c 3e
       -0.047378454 0.29266194 -0.0313003 0.24660066
000120 ff 1a 96 bd c6 f7 20 3e 61 26 01 3e af db 26 3e
       -0.07329368 0.15719518 0.12612297 0.1629474
000130 5b 30 b2 bd d9 64 13 bd 16 ce 7d bd 1e b6 7b 3d
       -0.08700629 -0.035984848 -0.061964117 0.061452977
000140 b3 90 b9 bd c6 05 6c 3e 6b e5 66 3e ed 81 8b 3c
       -0.09060802 0.23049077 0.22548454 0.017029727
000150 2c a6 88 3e 8e 72 6d 3e 74 24 50 3e ab 58 27 3e
       0.2668928 0.2318823 0.20326406 0.16342418
000160 8e 70 89 3e 9f 31 2a 3e 0c 85 32 bd ad 88 fa bb
       0.26843685 0.16620491 -0.043583915 -0.0076456876
000170 33 fb 6e 3e cf 05 5d 3e b2 f4 b6 bb 10 7e 47 3e
       0.23338012 0.21584247 -0.005583369 0.19481683
000180 25 3b df 3c 1c 85 4d 3e 89 13 9b bd c0 f8 4f 3d
       0.027249882 0.20070308 -0.075720854 0.050774336
000190 92 77 9f bd 6e 5f ad bd ac 54 3d 3e 18 db 26 bd
       -0.07786478 -0.084654674 0.18489331 -0.040736288
0001a0 31 93 dc 3d fa 2f 44 3e f9 84 71 3e da 50 8c 3e
       0.10770262 0.19158927 0.23585881 0.27405435
0001b0 51 8e 9a 3d 22 22 33 bd 5b 0b 29 3e c2 c4 3e bd
       0.07546676 -0.043733723 0.16508238 -0.04657436
0001c0 7b f8 f5 bd 66 bd 05 3c 0c b5 c0 bd c5 44 43 3e
       -0.120102845 0.008162832 -0.09409532 0.19069202
0001d0 56 65 09 3b dc b0 0c ba 95 aa 63 3b 80 8a f8 bc
       0.0020964942 -0.000536693 0.0034739126 -0.03033948
0001e0 2f b2 5a 3d 12 51 3c 3e b1 78 51 bd cd ba 11 3e
       0.053392585 0.18390301 -0.05114049 0.14231415
0001f0 5f a3 72 3e da 3b fd 3d 89 d0 96 3e 50 97 35 3e
       0.23695134 0.123649314 0.29455975 0.17733502

q2.weight f4 [1, 128]
000000 d0 3a 8e be 9c d3 5e 3e 9a 8a 94 3e c5 36 a2 be
       -0.27779245 0.2176041 0.29011995 -0.3168241
000010 dc 3a 55 bf fd 00 8a 3e 44 13 21 bf ba 8f 46 bf
       -0.8329294 0.2695388 -0.6292002 -0.7756306
000020 07 ef 4d 3e 1c ce 84 3e c8 28 1b bf 75 0f 8f 3e
       0.20110713 0.259385 -0.606091 0.2794148
000030 38 df 2e 3e f5 b7 0c bf 09 8f f8 be 75 7c 69 be
       0.17077339 -0.54968196 -0.48546627 -0.22801383
000040 c2 66 6a 3e 32 8c e5 be d3 26 72 3e 84 9b a6 3e
       0.22890761 -0.44833523 0.23647623 0.32540524
000050 2c be 87 bd f9 99 00 bf 1f 5f d6 be fc 4a 3a bf
       -0.06628069 -0.50234944 -0.41869447 -0.7277067
000060 ce 79 63 3e 50 2c 1d bf 7f e9 2d bf de de 7c 3e
       0.22214434 -0.6139574 -0.6793441 0.24694392
000070 2c 44 3d 3e fb 56 5f 3e 64 21 80 3e f8 55 73 3e
       0.18483037 0.21810524 0.25025475 0.23763263
000080 e1 3b 3e 3e a1 4b 44 bd 97 3e 75 3e 69 f1 9d bd
       0.1857753 -0.047923688 0.23949657 -0.07712061
000090 c6 e8 21 bf f5 8c 63 3e 88 d8 81 3e a3 b8 51 3e
       -0.6324581 0.2222174 0.25360513 0.2048059
0000a0 db 9e c6 be 7c 52 23 bc a3 95 65 3e c0 30 e4 be
       -0.38793072 -0.009968396 0.22420363 -0.44568443
0000b0 1e fd 94 3e 6e 3b a1 be 0c c5 07 bf 04 24 5c bf
       0.29099363 -0.31490654 -0.53035045 -0.85992455
0000c0 b3 29 3d 3e 11 42 32 3e 81 39 e1 be 8d 8d f0 be
       0.18472938 0.17408015 -0.43989184 -0.46982995
0000d0 c7 97 e2 be 7a 20 8d 3e ad 48 09 bf 2a 1c 4a 3e
       -0.44256422 0.2756384 -0.5362652 0.19737306
0000e0 45 72 8e be cf 10 ca be a0 6b 5a 3e 94 2d 6c 3e
       -0.27821556 -0.3946595 0.21330118 0.23064262
0000f0 b4 62 87 3e 0d 91 23 bf a2 40 9b be 58 9d 3c 3e
       0.26442492 -0.63893205 -0.30322748 0.18419397
000100 e5 b4 f5 bc d4 61 05 bf 42 f2 40 bf ad a9 3e 3e
       -0.029993484 -0.521024 -0.75369656 0.18619414
000110 48 c4 a1 bd a1 fa 44 3e 81 23 4e bf 4c 3a 6d 3e
       -0.07898766 0.19236232 -0.80522925 0.2316677
000120 e8 00 ed be ed 19 b2 3e 31 90 47 3e c5 d3 7e 3e
       -0.46289754 0.34785405 0.19488598 0.24885471
000130 49 33 21 bf 6d fc b8 be af d8 21 3e 46 1b 1a bf
       -0.6296888 -0.36130086 0.15805314 -0.60197866
000140 0d 7d 47 be e7 56 63 3e 44 52 81 3e b7 0c 0b bf
       -0.19481297 0.2220112 0.25258076 -0.54316276
000150 f8 de 3e 3e f2 cc 44 3e 65 13 77 3e 1c 17 75 3e
       0.18639743 0.19218805 0.24128492 0.23934597
000160 3d e0 7a 3e 55 5a 8a 3e d4 8f d5 be da a6 a3 be
       0.24499603 0.27022043 -0.41711295 -0.31963235
000170 78 4e a7 3e e9 af 6a 3e cc fb a2 be f8 a4 6b 3e
       0.32677054 0.22918667 -0.3183273 0.2301215
000180 3e c4 42 bf 4a 4c 74 3e bb fd 76 bd 78 2f 39 bf
       -0.7608069 0.23857227 -0.06030057 -0.72338057
000190 59 cf 82 be f0 fd 05 bf d4 43 51 3e 9c 49 19 bf
       -0.2554882 -0.523406 0.2043603 -0.59877944
0001a0 16 5a 3a 3e 07 e8 6c 3e bb 80 89 3e 61 e6 38 3e
       0.18198428 0.23135386 0.26856026 0.18056633
0001b0 fc a8 61 bf c1 6f d0 be bb 2e 38 3e 13 07 b1 be
       -0.88148475 -0.4071026 0.17986576 -0.3457571
0001c0 0b d5 04 bf 3e ed 00 bf 09 fe 97 be 3c 63 37 3e
       -0.5188758 -0.50362 -0.29686 0.17908949
0001d0 93 db df be 06 99 12 bf 0f ab 6f be 18 12 11 bf
       -0.4372221 -0.57264745 -0.23405097 -0.56668234
0001e0 4e e7 b3 be e1 de 4e 3e 3a 94 f6 be 5e 15 8c 3e
       -0.3513741 0.20202209 -0.48159963 0.27360052
0001f0 63 09 82 3e 12 8f 79 3e d7 d9 4d 3e ca 1c 44 3e
       0.25397786 0.24370983 0.2010263 0.19151607
