resource/multi_run_experiment_20250319_111011/run_5/sac_critic_20000.pth (torch, 155391 bytes, 10 tensors)

fc1.weight f4 [128, 17]
0	0x3d1753f9	0.036945317
1	0xbe87be91	-0.26512578
2	0xbe9f376a	-0.31096965
3	0xbe182a31	-0.14859845
4	0x3e6be884	0.23037916
5	0x3d4c7935	0.04992028
6	0xbed8f70b	-0.4237598
7	0x3e5d08fd	0.2158546
8	0x3e678ff8	0.22613513
9	0xbd77b7c7	-0.060477998
10	0x3ea6ad11	0.32553914
11	0xbdd818c5	-0.105515994
12	0x3e35d91a	0.17758599
13	0xbed5a963	-0.41730794
14	0x3dd48a2d	0.103779174
15	0xbe865d11	-0.2624288
16	0x3de597b3	0.11210575
17	0xbb15a806	-0.0022835745
18	0x3e0ca811	0.13735987
19	0xbe93daa7	-0.28877756
20	0x3e100f86	0.14068422
21	0x3caf7ed6	0.021422785
22	0xbe10174a	-0.14071384
23	0xbea58d7b	-0.32334504
24	0x3de528fc	0.11189458
25	0x3d10ab4d	0.035319615
26	0x3e1704d7	0.1474794
27	0x3ca244d8	0.019808218
28	0xbe6b1a0a	-0.22959152
29	0x3efc3f1d	0.49266902
30	0xbcce8388	-0.025209203
31	0x3e9f29da	0.31086618
32	0x3e80fb12	0.2519155
33	0x3deb7c5a	0.114983276
34	0xbd8f3920	-0.069933176
35	0xbd30f09d	-0.043198217
36	0xbe3c782a	-0.18405214
37	0xbe8b4bd9	-0.27206305
38	0xbe2a7e87	-0.16649829
39	0xbe628c4e	-0.22123834
40	0xbec70181	-0.38868335
41	0xbded68c9	-0.11592252
42	0x3e080f50	0.13287091
43	0xbe32221e	-0.17395827
44	0x3e5eb0f0	0.21747184
45	0xbeaf3146	-0.3421728
46	0x3e7fc81e	0.24978682
47	0xbdb53221	-0.08847452
48	0xbee3c7af	-0.44488284
49	0xbe97ea27	-0.29670832
50	0xbe9f854f	-0.31156394
51	0xbe359269	-0.17731632
52	0xbc22ac21	-0.009928734
53	0xbed1f388	-0.41006112
54	0x3dbaaeca	0.091153696
55	0x3e2acc43	0.16679482
56	0x3e1eac2e	0.15495369
57	0xbde72529	-0.112863846
58	0x3e462e7b	0.19353668
59	0x3e44f32b	0.19233386
60	0x3e39cb97	0.1814407
61	0x3c15e6c4	0.009149257
62	0xbe1fc588	-0.15602696
63	0xbf032386	-0.5122608
64	0xbcb20c7f	-0.021734474
65	0xbd17658e	-0.036962084
66	0xbed6e0bb	-0.4196833
67	0xbecb9a76	-0.39766282
68	0x3e419941	0.18906118
69	0x3c947ace	0.018124964
70	0x3c18e69b	0.009332324
71	0x3d877df7	0.06615823
72	0xbe417217	-0.18891178
73	0xbd7b3794	-0.0613323
74	0x3b992117	0.004673134
75	0x3e1c5aae	0.15268967
76	0x3e417991	0.1889403
77	0xbdb4d10e	-0.088289365
78	0xbe863f15	-0.26220003
79	0x3e12adbb	0.14324085
80	0xbe854e4d	-0.260363
81	0xbdf48ba1	-0.119406946
82	0x3e39934c	0.18122596
83	0xbe1d7d2b	-0.15379779
84	0x3e846890	0.25861025
85	0x3e798062	0.2436538
86	0xbe8e2c67	-0.2776825
87	0xbdcc4fab	-0.09976133
88	0xbd16352e	-0.03667181
89	0xbe174200	-0.14771271
90	0xbd54e9fd	-0.05198096
91	0x3e5b0c07	0.21391307
92	0x3dc3476e	0.095351085
93	0xbe2cc148	-0.16870606
94	0xbea0e78c	-0.31426656
95	0xbcafd4e8	-0.021463826
96	0xbe668afc	-0.22513956
97	0xbe83a12e	-0.25708908
98	0xbded61ac	-0.11590895
99	0xbd99f35a	-0.07517119
100	0xbeab88e5	-0.3350288
101	0xbe0f3751	-0.13985945
102	0x3caf2798	0.021381184
103	0x3e8a12d3	0.26967487
104	0x3d8e8a4d	0.069599725
105	0xbe4a3331	-0.1974609
106	0x3d578765	0.052619357
107	0xbddd4442	-0.10804035
108	0x3d2b0885	0.04175617
109	0x3e542af5	0.20719512
110	0x3d648dcf	0.0557993
111	0x3d11e4d9	0.035618637
112	0xbe642509	-0.22279753
113	0xbe4bc353	-0.19898729
114	0x3e8ab9cf	0.27094886
115	0x39b4b41c	0.00034466467
116	0xbc4879c4	-0.012236062
117	0x3e330eb1	0.17486073
118	0x3e5b57f2	0.21420267
119	0x3e481949	0.19540896
120	0xbe1cd702	-0.15316394
121	0x3e0965cf	0.13417743
122	0xbee977ac	-0.45599115
123	0xbe7c8788	-0.24661076
124	0x3e875d44	0.26438344
125	0x3e194712	0.14968517
126	0xbd7afaed	-0.061274458
127	0xbe678952	-0.22610977
128	0x3eac82aa	0.3369344
129	0xbd17c271	-0.03705067
130	0xbe20238a	-0.15638557
131	0xbdbb9fc7	-0.091613345
132	0xbe974428	-0.29544187
133	0xbde07fe4	-0.10961893
134	0xbe8b75ef	-0.27238414
135	0xbd8e5067	-0.06948929
136	0xbdf15afc	-0.11784932
137	0xbdd5df99	-0.104430385
138	0x3e0b9606	0.13631448
139	0x3e427cbd	0.18992896
140	0x3e24785c	0.16061538
141	0x3cd3a06f	0.025833337
142	0x3e5dfa39	0.21677484
143	0x3e60c5de	0.2195048
144	0x3e4aa698	0.19790113
145	0x3e968bea	0.2940362
146	0xbd29569a	-0.041342355
147	0xbba40f27	-0.005006689
148	0xbd5ff7e8	-0.05467978
149	0x3e380ea9	0.17974342
150	0x3e082619	0.13295783
151	0x3cd501f3	0.026001906
152	0x3e8240a1	0.25439933
153	0xbdaf104c	-0.0854803
154	0xbc914895	-0.017734805
155	0xbf243dcd	-0.641568
156	0xbd84bdc3	-0.06481507
157	0xbc9a10a5	-0.018806765
158	0x3e6c01e6	0.23047599
159	0xbe878ad3	-0.26473102
160	0x3e91d0ea	0.284797
161	0xbcf37e50	-0.029723316
162	0xbdbea11a	-0.093080714
163	0x3d58a53e	0.052891962
164	0xbce98b36	-0.028508764
165	0xbeadb2b5	-0.33925405
166	0xbe8bbbea	-0.27291805
167	0x3c0baa42	0.008524479
168	0xbe7c7546	-0.24654111
169	0x3e5ac3a7	0.21363698
170	0x3e105bf7	0.14097582
171	0x3e4d37ab	0.20040767
172	0x3e5187f0	0.20462012
173	0xbe18882e	-0.14895698
174	0xbe130d49	-0.14360537
175	0xbe5b433f	-0.21412371
176	0x3de40415	0.11133591
177	0xbe376935	-0.17911227
178	0xbd52838a	-0.051394977
179	0xbd76f0e5	-0.06028833
180	0xbe1bdb27	-0.15220319
181	0xbe777383	-0.24165158
182	0xbd02f547	-0.031972196
183	0x3dda120e	0.10647975
184	0x3ea34638	0.3188951
185	0xbe81579a	-0.25262147
186	0xbe6613af	-0.22468446
187	0x3cef4367	0.029206945
188	0xbe2dd687	-0.16976367
189	0x3e6a6f32	0.2289398
190	0xbe88c111	-0.26709798
191	0x3deb42e4	0.11487368
192	0xbe24cf2d	-0.16094656
193	0xbc0c091e	-0.008547096
194	0xbd38d9c2	-0.045129545
195	0xbdf287ce	-0.11842309
196	0xbeb253e7	-0.34829637
197	0xbe761e3f	-0.24034975
198	0xbd8fc709	-0.07020385
199	0xba8adf36	-0.0010595086
200	0xbdbc03bf	-0.09180402
201	0xbe40aeb2	-0.18816641
202	0xbcc5f50d	-0.0241647
203	0x3cda470c	0.026645206
204	0x3e343acf	0.17600559
205	0xbe66c14c	-0.22534674
206	0x3da7298d	0.08162222
207	0xbda191b4	-0.07889119
208	0xbe4a6da4	-0.19768387
209	0xbe02f78c	-0.12789744
210	0xbc3a08b9	-0.011354619
211	0x3d4d05ab	0.050054234
212	0x3e8a3042	0.26989943
213	0xbe420217	-0.1894611
214	0xbdda4e0d	-0.10659418
215	0x3e867653	0.2626215
216	0x3e78b5a3	0.24288039
217	0xbe6f0f41	-0.23345663
218	0x3e4536de	0.19259211
219	0xbd788b51	-0.060679737
220	0xbbf039ce	-0.0073311096
221	0x3d75e208	0.060030013
222	0x3e0dbfc9	0.13842691
223	0xbd580e0c	-0.05274777
224	0x3e013d95	0.12621148
225	0x3dc868c4	0.097856075
226	0x3e54cfb9	0.20782365
227	0xbea156a6	-0.3151142
228	0x3e0a5989	0.13510717
229	0xbdd4e0b3	-0.103944205
230	0xbd8b8467	-0.06812363
231	0x3e74bde1	0.23900558
232	0x3e668d15	0.22514756
233	0xbec080ec	-0.3759836
234	0x3cf1fb72	0.029538844
235	0xbce183d3	-0.027528679
236	0x3e033527	0.12813245
237	0xbe9abd9e	-0.3022279
238	0x3d363f41	0.044493917
239	0x3e74b4a0	0.23897028
240	0xbdf869db	-0.12129565
241	0x3e69d5ea	0.22835508
242	0xbbaadccb	-0.005214309
243	0x3d1bbaf8	0.038020104
244	0xbd9f7869	-0.07786638
245	0xbdf0236a	-0.11725505
246	0x3da4f825	0.08055142
247	0x3e85387f	0.26019666
248	0xbdf47209	-0.11935813
249	0x3ca1b26e	0.019738402
250	0x3d986914	0.07441917
251	0xbdfb4a8f	-0.1227008
252	0xbdfb2dc1	-0.12264586
253	0xbe950d53	-0.29111728
254	0xbe209513	-0.15681867
255	0x3e444ee2	0.19170716

fc1.bias f4 [128]
0	0xbe2d753b	-0.16939251
1	0xbd3958fa	-0.04525087
2	0x3e122156	0.14270529
3	0xbe2f280b	-0.17105119
4	0xbe765c46	-0.24058637
5	0x3ead8930	0.33893728
6	0x3eb92605	0.3616182
7	0x3e3587a5	0.17727526
8	0x3ecb57af	0.39715335
9	0x3dc5b583	0.09653761
10	0x3e167f0e	0.14696905
11	0x3ec52ff6	0.38513154
12	0x3e9ab025	0.30212513
13	0x3e09a996	0.13443598
14	0x3ea460a4	0.3210498
15	0x3c817eb0	0.01580748
16	0x3e8d37c0	0.27581596
17	0x3f0f7328	0.5603509
18	0xbe5b33cb	-0.21406476
19	0x3e9b2487	0.30301306
20	0x3e20102a	0.15631166
21	0x3e26b124	0.16278511
22	0xbb9b3781	-0.004736841
23	0x3e88e7cf	0.26739356
24	0x3e36b0dd	0.17840905
25	0x3e91b23c	0.28456295
26	0x3d09e1c2	0.033662565
27	0x3e9fdf96	0.3122527
28	0x3e81e5f2	0.25370747
29	0x3eda540c	0.42642248
30	0x3e0c974f	0.13729595
31	0x3e4a77e3	0.19772296
32	0xbe42b751	-0.19015242
33	0x3ef23c49	0.4731162
34	0x3ef230b2	0.47302777
35	0xbde01e28	-0.10943252
36	0x3eaf51cb	0.3424209
37	0xbb8668fe	-0.0041018715
38	0x3ece590f	0.4030232
39	0x3ecbb0fa	0.3978346
40	0xbe3d29d5	-0.18472989
41	0x3eb9efe6	0.3631584
42	0x3d7f888b	0.062386077
43	0x3ec912fd	0.392723
44	0xbd9c3e76	-0.07629101
45	0x3e894e30	0.26817465
46	0xbe740ef8	-0.23833835
47	0xbd4677ea	-0.048454203
48	0x3ed84b21	0.4224482
49	0x3e913388	0.28359628
50	0xbdd72bcc	-0.105064005
51	0x3ea9cbdc	0.33163345
52	0x3b84634c	0.0040401574
53	0x3e1d0e19	0.15337409
54	0xbe43df6d	-0.19128199
55	0x3e42a57b	0.19008438
56	0x3edd65d6	0.43241757
57	0x3dc66153	0.09686532
58	0x3e896c1a	0.26840287
59	0xbdd2f054	-0.10299745
60	0xbddeca78	-0.108784616
61	0x3eb4eb63	0.35335836
62	0x3ec5437f	0.38528058
63	0xbd456058	-0.048187584
64	0x3e92534a	0.2857917
65	0x3e8ea7e7	0.27862474
66	0xbd75e8fa	-0.060036637
67	0x3eb3122e	0.34974808
68	0x3b9463cf	0.0045284997
69	0x3d8de1da	0.069278434
70	0x3edeb5b3	0.43498
71	0xbe61e6c4	-0.22060686
72	0x3e1d51ec	0.15363282
73	0x3ee2c65a	0.44291955
74	0x3ebfe673	0.37480506
75	0x3e22a6a3	0.1588388
76	0x3e930f32	0.2872253
77	0x3eeadeba	0.45873052
78	0xbe90a228	-0.28248715
79	0x3e2f7be6	0.17137107
80	0x3edc892c	0.43073404
81	0x3ed7535b	0.42055783
82	0xbe190a95	-0.14945443
83	0x3ec48765	0.38384548
84	0x3e968b39	0.29403093
85	0x3e21639f	0.15760659
86	0x3ed9fa38	0.42573714
87	0xbcc9a13d	-0.024613017
88	0x3eb8cb78	0.36092734
89	0xbdfac4d5	-0.12244574
90	0x3e973fd3	0.29540882
91	0xbe0e1993	-0.13876943
92	0x3ef371b6	0.47547692
93	0x3e59f0ea	0.21283308
94	0x3e997c03	0.29977426
95	0x3e81afdf	0.25329491
96	0xbe53937e	-0.20661733
97	0x3ed1a20b	0.4094394
98	0x3e8e8fbf	0.27844045
99	0x3ef25f8b	0.47338519
100	0x3dcc169c	0.0996525
101	0xbe39d31d	-0.1814694
102	0xbd5272fc	-0.05137919
103	0x3eb0738a	0.3446315
104	0x3da00fa7	0.078154854
105	0xbda4c5d0	-0.08045542
106	0x3e8146a1	0.25249198
107	0x3e9da556	0.30790204
108	0xbc594158	-0.013260208
109	0x3ecb0147	0.39649412
110	0xbe90c324	-0.2827388
111	0x3de03f97	0.10949629
112	0x3ee3e2a1	0.44508842
113	0xbad628ea	-0.0016339098
114	0x3b6c5549	0.0036061576
115	0x3ebbb709	0.36663082
116	0xbe82f754	-0.2557932
117	0xbe63df8d	-0.22253247
118	0xbe146027	-0.14489804
119	0x3e20e812	0.15713528
120	0xbd120ec7	-0.035658624
121	0x3ed389c0	0.41316032
122	0x3d359906	0.044335388
123	0xbde1f0df	-0.11032271
124	0xbe1d0915	-0.15335496
125	0xbda8482d	-0.082168914
126	0xbdb54a00	-0.08852005
127	0x3e9fc9d0	0.31208658

fc2.weight f4 [128, 128]
0	0xbc5b5808	-0.0133876875
1	0xbdac6c5a	-0.08419104
2	0x3e078e5a	0.13237897
3	0xbda13f20	-0.07873368
4	0xbdb4ecad	-0.08834205
5	0x3e5f15f9	0.21785726
6	0x3e72adf9	0.23699178
7	0x3e645d48	0.22301209
8	0x3de83345	0.11337904
9	0xbd86fd0f	-0.06591236
10	0x3e49ab95	0.1969436
11	0x3eb359f2	0.3502956
12	0x3e884da8	0.26621747
13	0x3d5e4493	0.054264616
14	0x3d9278d5	0.07151953
15	0x3dc387b4	0.09547368
16	0x3da6dae3	0.08147218
17	0x3eab61c4	0.33473027
18	0xbe41c09d	-0.18921132
19	0x3e16af3e	0.14715287
20	0x3e27d237	0.16388784
21	0x3e59259a	0.2120575
22	0x3dca9ce5	0.098932065
23	0x3e2a24d7	0.16615616
24	0x3c7528b0	0.014963314
25	0x3d96adf9	0.073574014
26	0x3d95698c	0.07295522
27	0x3e143f62	0.14477304
28	0x3e9284b6	0.28616875
29	0x3ec34fc2	0.38146788
30	0x3e3004a7	0.17189275
31	0x3e3e1987	0.18564425
32	0xbc14f2e1	-0.00909111
33	0x3e9faffb	0.3118895
34	0x3e541d9a	0.20714417
35	0x3aa012f4	0.001221268
36	0x3ead5d45	0.33860222
37	0x3d7d5bac	0.061855003
38	0x3e822155	0.25416055
39	0x3d8dc6cd	0.06922684
40	0xbe0a86c7	-0.13527976
41	0x3e99eaa9	0.30061844
42	0x3cb8e148	0.02256836
43	0x3e8d73b1	0.27627328
44	0xbda78618	-0.08179873
45	0x3b694c14	0.0035598325
46	0xbd66312d	-0.05619924
47	0xbc40fe09	-0.011779317
48	0x3e955d4b	0.2917274
49	0x3e0469bc	0.1293096
50	0xbd9590fe	-0.07303046
51	0x3d61b68d	0.055105735
52	0x3e4a1c84	0.1973744
53	0x3c4f6c75	0.0126601355
54	0xbd42bd69	-0.047543917
55	0x3df9d870	0.12199485
56	0x3d31c7e8	0.043403536
57	0xbab84613	-0.001405897
58	0x3cd673f8	0.026178345
59	0x3da07ace	0.07835923
60	0x3c881833	0.016613102
61	0x3d8e8343	0.0695863
62	0x3e90f63c	0.28312862
63	0x3e60df4f	0.21960185
64	0x3d92cd6f	0.071680896
65	0x3d12c9ff	0.03583717
66	0x3e049f6e	0.12951443
67	0x3e6725e7	0.22573052
68	0x3d2f0533	0.042729568
69	0x3d500c2b	0.050792854
70	0x3e1d9258	0.15387857
71	0x3d9c9cdf	0.07647108
72	0x3d39548c	0.045246646
73	0x3de34376	0.110968515
74	0x3e113edf	0.1418414
75	0x3e2430be	0.16034219
76	0x3e32fd87	0.17479526
77	0x3e4afd3a	0.19823161
78	0x3cc3d54f	0.023905424
79	0x3daf0cb3	0.08547344
80	0x3ead7833	0.33880767
81	0x3e825110	0.2545247
82	0xbe00470d	-0.12527104
83	0x3e4fcd6d	0.20293207
84	0x3e72e10e	0.23718664
85	0x3d824b22	0.06361987
86	0x3e898275	0.26857343
87	0x3deebcdb	0.11657115
88	0x3d24c25b	0.040224414
89	0xbe6d7825	-0.23190363
90	0x3e7548b3	0.23953514
91	0xbe04b554	-0.12959796
92	0x3e9e3b5f	0.30904672
93	0x3dc83fc4	0.09777787
94	0x3e588e87	0.2114812
95	0x3ea8de5c	0.32982147
96	0xbe742346	-0.23841581
97	0x3e470360	0.19434881
98	0x3d7b9b8b	0.061427634
99	0x3e86e30a	0.26345092
100	0x3e4d797d	0.20065875
101	0xbd5a8e8c	-0.0533586
102	0x3e505f0d	0.20348759
103	0x3de36216	0.11102693
104	0x3e4ea1a0	0.20178843
105	0x3d9a54ec	0.07535729
106	0xbc439376	-0.011937013
107	0x3da61bb3	0.08110752
108	0x3cd3f7c0	0.025874972
109	0x3e5b1bd4	0.21397334
110	0xbdcdd171	-0.100497134
111	0x3cf622e1	0.030045928
112	0x3e8bd63f	0.27311894
113	0x3c695233	0.014240789
114	0xbe264e50	-0.16240811
115	0x3de27113	0.110567234
116	0x3e1ce781	0.15322687
117	0x3db332da	0.087499335
118	0x3ddf6577	0.10908025
119	0x3e397164	0.18109661
120	0x3dfd1836	0.123581335
121	0x3e1aa07b	0.15100281
122	0x3d9b5324	0.07584217
123	0x3d20d53f	0.039265867
124	0x3c61a57c	0.013772365
125	0xbdc69fa6	-0.09698419
126	0xbe09eaec	-0.13468522
127	0x3e230cab	0.15922801
128	0xbdc5425f	-0.096318
129	0xbd4c40d5	-0.049866516
130	0x3e2fbeef	0.17162679
131	0xbdfabeb9	-0.12243409
132	0xbd558028	-0.052124172
133	0x3d9e5b7c	0.07732293
134	0x3e414c9e	0.18876883
135	0x3e4fb55f	0.20284031
136	0x3e1af5b6	0.15132794
137	0xbc0bfc7e	-0.008544086
138	0x3db76c22	0.089561716
139	0x3ead10f4	0.33801997
140	0x3da874e5	0.08225421
141	0x3de6868e	0.11256133
142	0x3cc02acb	0.023457905
143	0x3d8cd25f	0.068760626
144	0x3e0a1540	0.13484669
145	0x3e87f69f	0.26555344
146	0xbe008761	-0.12551643
147	0x3e195f4d	0.1497776
148	0x3e4f0a33	0.20218734
149	0x3e2fe2e2	0.17176393
150	0x3cfeacbe	0.03108823
151	0x3def7d09	0.116937704
152	0xbaf84825	-0.0018942399
153	0x3de58aee	0.11208139
154	0x3e2cfd45	0.1689349
155	0x3e1b0018	0.15136755
156	0x3ea0c4fa	0.3140028
157	0x3e78068e	0.2422125
158	0x3e0cfcee	0.1376836
159	0x3e1fd6f9	0.1560935
160	0xbdf65fe6	-0.1203001
161	0x3e094a04	0.13407141
162	0x3e2bd4b1	0.16780354
163	0xbd85d524	-0.06534794
164	0x3e768ef9	0.24077977
165	0x3bd61985	0.006533804
166	0x3e132324	0.14368874
167	0x3e242ff2	0.16033915
168	0xbe058084	-0.13037306
169	0x3e2cf52d	0.16890402
170	0x3dd7b888	0.105332434
171	0x3e7ccaff	0.24686812
172	0xbe280578	-0.16408336
173	0x3e027557	0.12740074
174	0xbc9c1253	-0.019051706
175	0x3c474f5a	0.012164915
176	0x3d959e41	0.07305575
177	0x3e486e8c	0.1957342
178	0x3d40acf0	0.047039926
179	0x3e0485bd	0.12941642
180	0x3bff96f3	0.007799977
181	0x3d6a1b93	0.057155203
182	0xbda90f6e	-0.08254896
183	0x3c1ec905	0.0096914815
184	0x3e12122e	0.14264748
185	0x3da3f042	0.0800481
186	0x3ddce0ff	0.10785102
187	0x3defd0d8	0.11709756
188	0x3c979e17	0.018508
189	0x3e260645	0.16213329
190	0x3e7459db	0.23862402
191	0x3d7c7261	0.061632518
192	0x3e0a2a57	0.13492714
193	0x3dfe35a2	0.124125734
194	0x3e46a28d	0.19397946
195	0x3e88df2d	0.2673277
196	0x3e1224f7	0.14271913
197	0xbd264913	-0.040597033
198	0x3de5a10d	0.112123586
199	0x3dc489e0	0.0959661
200	0x3dc7ebf3	0.097618006
201	0x3e1dcef5	0.15410979
202	0x3d1db2e3	0.038500678
203	0x3c3b0dfd	0.011416909
204	0x3d692035	0.05691548
205	0x3dcfaed7	0.1014077
206	0x3d2bcb1d	0.04194175
207	0xbc3d6b3d	-0.011561212
208	0x3e83f6f9	0.25774363
209	0x3dcd5d45	0.100275554
210	0xbe2f5659	-0.17122783
211	0x3dd23da9	0.10265667
212	0x3e7eb5f6	0.248741
213	0x3e04ac56	0.12956366
214	0x3e22a67f	0.15883826
215	0x3e48e43b	0.19618313
216	0x3dec5b55	0.11540858
217	0xbe5379f4	-0.2065199
218	0x3e5c4663	0.21511225
219	0xbe5d1586	-0.21590242
220	0x3e8107c3	0.25201234
221	0x3e2ebb86	0.17063722
222	0x3dbd108a	0.0923167
223	0x3e2bc7cf	0.1677544
224	0xbe93a8a6	-0.28839606
225	0x3e200feb	0.15631072
226	0x3e1b6660	0.15175772
227	0x3daf23bd	0.085517384
228	0x3e6286e2	0.22121766
229	0xbc800575	-0.015627602
230	0x3e573809	0.2101747
231	0x3e295b5a	0.16538754
232	0x3e2773ac	0.16352719
233	0x3de80a96	0.11330144
234	0xbcbc97ec	-0.02302166
235	0x3e1937a6	0.14962634
236	0xbd74e279	-0.059786294
237	0x3e002dab	0.12517421
238	0xbe20f64a	-0.15718952
239	0x3db2350a	0.08701523
240	0x3e20be97	0.15697704
241	0xbc540ac5	-0.012942021
242	0xbda67320	-0.08127427
243	0x3d8b1d3c	0.067926854
244	0x3e3b3b60	0.18284369
245	0x3c8b42b7	0.016999586
246	0xbb27732b	-0.0025550823
247	0x3e01e312	0.12684277
248	0x3d7be7eb	0.06150047
249	0x3e0c97b5	0.13729747
250	0x3e39ec98	0.1815666
251	0x3dc1d318	0.09464091
252	0x3d081831	0.033226196
253	0xbe491ccd	-0.19639893
254	0x3b469ce7	0.0030305923
255	0x3e2d5334	0.1692627

fc2.bias f4 [128]
0	0x3e6b74b6	0.2299374
1	0x3e255668	0.16146243
2	0xbd396816	-0.04526528
3	0x3e1b2ea0	0.15154505
4	0x3e749097	0.23883282
5	0x3e84c392	0.25930458
6	0xbc286335	-0.010277559
7	0x3e6c9272	0.2310274
8	0xbcbc7d9c	-0.023009114
9	0xbd0b64b8	-0.0340316
10	0xbdc9a7d0	-0.09846461
11	0x3e341545	0.17586239
12	0x3d7672fe	0.06016826
13	0x3e773de9	0.2414471
14	0x3cf65705	0.030070791
15	0x3e5ca1a4	0.21546036
16	0x3e08038f	0.13282607
17	0xbdc9409b	-0.09826776
18	0x3ce15771	0.027507516
19	0x3e18d81a	0.14926186
20	0xbdc170b9	-0.09445328
21	0x3dede84f	0.11616575
22	0x3df5d506	0.120035216
23	0xbdfb1fb4	-0.12261906
24	0xbce35580	-0.02775073
25	0x3ddfaaaf	0.10921227
26	0xbdb18a77	-0.08668988
27	0x3e418a18	0.18900335
28	0x3d025f15	0.03182896
29	0x3e455c6b	0.19273536
30	0x3e435cba	0.19078341
31	0x3e6d2ae0	0.23160887
32	0x3e0daebc	0.13836187
33	0x3e96f03d	0.29480162
34	0x3da67461	0.08127666
35	0x3cbfc2f0	0.023408383
36	0x3d6bb911	0.05754954
37	0x3e169b71	0.14707734
38	0xbda16f90	-0.07882607
39	0xba5d95ec	-0.0008452821
40	0xbd9ae84b	-0.075638376
41	0x3cda9539	0.026682483
42	0xbd884450	-0.066536546
43	0x3db3fefd	0.087888695
44	0xbbda44d8	-0.006661039
45	0x3d3f502c	0.046707317
46	0x3dae1f53	0.08502068
47	0x3d1ec816	0.038765036
48	0x3e4a4400	0.19752502
49	0x3e10c683	0.14138226
50	0x3e6ada94	0.22934943
51	0xbc836b7d	-0.016042465
52	0x3e3123e6	0.1729885
53	0x3eb43ce7	0.35202715
54	0xbd792add	-0.060831893
55	0x3c15f742	0.009153189
56	0xbcd76a76	-0.026295882
57	0x3dc0152e	0.0937904
58	0x3e08d25b	0.13361494
59	0xbcb26a73	-0.021779275
60	0x3dbd7b4f	0.09252035
61	0x3e703302	0.23456958
62	0x3d1fd308	0.039019614
63	0x3e30311c	0.17206234
64	0x3e65dc5b	0.2244734
65	0x3de9996d	0.11406217
66	0x3bb1406c	0.005409291
67	0xbdd7d799	-0.10539169
68	0xbc8b92fa	-0.017037857
69	0x3d2c21f4	0.042024568
70	0x3e61e44f	0.22059749
71	0x3e5dd0b8	0.21661651
72	0xbd8b45a7	-0.068003945
73	0xbd1ab524	-0.037770405
74	0x3e42c130	0.19019008
75	0xbc1e624b	-0.00966699
76	0x3e467118	0.1937908
77	0x3e36ae60	0.17839956
78	0x3e13a93a	0.14420024
79	0x3e896fbd	0.26843062
80	0x3e4c3b0f	0.19944404
81	0xbbb61722	-0.005556957
82	0x3c8d49e8	0.017247155
83	0xbdf5e5ba	-0.120067075
84	0x3e11f463	0.14253382
85	0x3c6a8864	0.014314745
86	0x3e268180	0.16260338
87	0xbd52553e	-0.051350825
88	0x3e51556e	0.20442745
89	0xbdecfb8e	-0.11571418
90	0x3e885678	0.2662847
91	0x3e768fd9	0.24078311
92	0x3d312f58	0.04325804
93	0x3c22111f	0.009891777
94	0xbdcbe02c	-0.09954867
95	0x3e4880da	0.19580403
96	0xbda95a7a	-0.0826921
97	0x3e89e20b	0.2693027
98	0x3e6f0c3c	0.23344511
99	0xbd3d9d78	-0.046292752
100	0x3d6a16f9	0.057150815
101	0x3de84991	0.11342157
102	0x3eb12d4e	0.34604877
103	0xbdb897ff	-0.09013366
104	0x3e2ebe54	0.17064792
105	0x3eb6c8b6	0.35700005
106	0xbd7a4884	-0.061104313
107	0xbdd5566c	-0.10416874
108	0x3e367fc2	0.17822173
109	0x3e4e6f2a	0.20159593
110	0x3c91529f	0.017739592
111	0x3e75a20b	0.23987596
112	0x3cb488dd	0.022037918
113	0x3d80d3de	0.062904105
114	0x3e0fea70	0.14054275
115	0xbd97adc0	-0.07406187
116	0x3e1eebf7	0.15519701
117	0x3e8f5339	0.2799318
118	0x3bb55706	0.0055340556
119	0xbd9fcec1	-0.07803107
120	0xbdabc72d	-0.08387599
121	0x3e01631d	0.12635465
122	0xbbdafb86	-0.006682816
123	0x3e8d4fd8	0.27599978
124	0x3e238237	0.15967642
125	0xbdbaa0cd	-0.091127016
126	0x3ba4bb2c	0.0050271954
127	0x3e09ac79	0.134447

q1.weight f4 [1, 128]
0	0x3e946b19	0.2898796
1	0x3e4d994f	0.20078014
2	0xbf26353b	-0.64924973
3	0x3e2c2f4d	0.16814919
4	0x3e63b475	0.22236808
5	0x3e4bb645	0.19893749
6	0xbf1c569b	-0.6106965
7	0x3e8840cc	0.26611936
8	0xbf0e4e3b	-0.5558812
9	0xbe4ea44c	-0.20179862
10	0xbe98c19d	-0.29835215
11	0x3e8add99	0.2712219
12	0xbf1332c1	-0.5749932
13	0x3e4ce4d8	0.20009172
14	0xbf1c7d05	-0.61128265
15	0x3e55abbe	0.20866296
16	0x3e425475	0.1897753
17	0xbe0864db	-0.13319723
18	0xbf1566ae	-0.583598
19	0x3e8fcbc1	0.2808514
20	0xbf02191f	-0.5081958
21	0x3e735c76	0.2376574
22	0x3e625551	0.22102858
23	0xbe51b558	-0.20479333
24	0xbec7f920	-0.39057255
25	0x3e64aa31	0.22330548
26	0xbeb65696	-0.35612935
27	0x3e8f3d7e	0.27976602
28	0xbed2bccc	-0.41159666
29	0x3e7aa8fc	0.24478525
30	0x3e635cf2	0.22203425
31	0x3e9c83cf	0.30569312
32	0x3e34aba0	0.17643595
33	0x3e6ee49c	0.23329395
34	0xbef0e40b	-0.47048983
35	0xbea1a611	-0.3157201
36	0xbf2b8c69	-0.67011124
37	0x3e6a625a	0.2288908
38	0xbeeccdcf	-0.4625077
39	0xbeaad1d5	-0.33363214
40	0xbf050cb1	-0.5197249
41	0xbf2c03e4	-0.67193437
42	0xbe9c4fed	-0.3052973
43	0x3e70e80e	0.23526022
44	0xbec5e917	-0.38654396
45	0xbefec8d3	-0.49762592
46	0xbf0ff533	-0.5623352
47	0xbcf76277	-0.030198319
48	0x3e57fca7	0.21092473
49	0x3e4dcbf4	0.20097333
50	0x3e7f9fa5	0.24963243
51	0xbf23a3cc	-0.6392181
52	0x3e77d67a	0.2420291
53	0x3e7c7848	0.24655259
54	0xbee73e21	-0.45164588
55	0xbf13b457	-0.5769705
56	0xbecb6ad2	-0.39729935
57	0xbedc185e	-0.4298734
58	0x3e33be26	0.17553005
59	0xbf08eb5d	-0.53484136
60	0xbf02856d	-0.5098484
61	0x3e852cda	0.26010782
62	0xbd5697d3	-0.052390885
63	0x3e8589f0	0.260818
64	0x3e80d90b	0.2516559
65	0x3e3634b5	0.17793544
66	0xbd599ae4	-0.05312623
67	0xbe712be7	-0.23551904
68	0xbe9bbf18	-0.3041923
69	0xbf0a23dc	-0.5396097
70	0x3e53680f	0.20645164
71	0x3e93408e	0.2876019
72	0xbc4cd048	-0.01250083
73	0xbf11fb2a	-0.5702387
74	0x3e8766eb	0.26445708
75	0xbefe0682	-0.4961434
76	0x3e6a76ec	0.22896928
77	0x3e3b8ebb	0.18316166
78	0x3e783736	0.24239811
79	0x3ea46595	0.3210875
80	0x3e835899	0.25653532
81	0xbece3c06	-0.4028017
82	0xbe532ce2	-0.2062259
83	0xbe084bd4	-0.13310176
84	0x3e5df47d	0.21675296
85	0xbefae24e	-0.49000782
86	0x3e68c04e	0.22729608
87	0xbf1b488a	-0.6065756
88	0x3e43bf25	0.19115885
89	0xbe971a41	-0.29512218
90	0x3e46c056	0.19409308
91	0x3e69f6c9	0.22848047
92	0x3f1e2748	0.6177869
93	0xbd74e91d	-0.059792627
94	0x3b9d2595	0.00479574
95	0x3e5a5a6e	0.21323559
96	0xbe898ce6	-0.2686531
97	0x3e301319	0.17194785
98	0x3e5ed0d4	0.21759349
99	0xbedde8c4	-0.4334165
100	0xbf1ff281	-0.62479407
101	0x3e4407bf	0.1914358
102	0x3e7ced0f	0.24699806
103	0xbed3c49a	-0.41360933
104	0x3e7c56ca	0.24642482
105	0x3e8257c6	0.2545759
106	0xbef0cb56	-0.47030133
107	0xbe3d5e45	-0.18492992
108	0x3e6c2f9a	0.23065034
109	0x3e252d10	0.16130471
110	0xbeb297e7	-0.34881517
111	0x3e5bbd33	0.21458893
112	0xbf06d568	-0.5266938
113	0xbf22c9f0	-0.6358938
114	0x3e436044	0.19079691
115	0xbe8f95dc	-0.2804402
116	0x3e8ad7e1	0.27117828
117	0x3e5f144f	0.21785091
118	0xbf048eee	-0.51780593
119	0xbf0bc5d1	-0.5459872
120	0xbc882750	-0.016620308
121	0x3e66ed2a	0.22551408
122	0xbf3d3c0f	-0.7391977
123	0x3e5e813d	0.21728988
124	0x3e3e4115	0.18579514
125	0xbe8286a8	-0.2549336
126	0xbe5ed833	-0.21762161
127	0x3e725b35	0.23667605

fc3.weight f4 [128, 17]
0	0x3e7cd84a	0.24691883
1	0x3e2566b8	0.16152465
2	0xbd4273b2	-0.047473617
3	0x3e00790c	0.12546176
4	0xbc27ead3	-0.010248858
5	0x3e21aacd	0.15787812
6	0x3e704485	0.23463638
7	0x3e681a49	0.22666277
8	0xbe0207c6	-0.12698278
9	0xbe069608	-0.1314317
10	0xbe87a3bf	-0.26492116
11	0x3c3c4c61	0.0114928195
12	0x3da1f5d3	0.079082154
13	0x3e42359f	0.18965767
14	0x3e25bd57	0.16185509
15	0x3df45026	0.119293496
16	0xbe7b7bf3	-0.24559002
17	0xbd098ecb	-0.033583444
18	0xbe7c0a79	-0.2461337
19	0xbe4cc273	-0.19996051
20	0x3d45eef8	0.0483236
21	0xbdf1f333	-0.11813965
22	0x3e341f71	0.17590119
23	0xbe8bef62	-0.27331072
24	0x3e756010	0.23962426
25	0xbd59dad2	-0.0531872
26	0x3e90b590	0.2826352
27	0xbda371f0	-0.07980716
28	0xbde8669c	-0.11347696
29	0x3e746976	0.23868355
30	0x3e06657e	0.13124654
31	0xbe5eebbe	-0.21769616
32	0xbe153666	-0.14571533
33	0xbeb4830d	-0.35256234
34	0x3d3d96bf	0.04628634
35	0x3df4f19c	0.11960146
36	0xbe142666	-0.14467773
37	0x3dc68c65	0.09694747
38	0x3e4298e5	0.19003637
39	0x3df458d6	0.119310066
40	0x3db1eb15	0.086874165
41	0x3dbdd9b7	0.092700414
42	0x3daa090a	0.08302505
43	0xbe288b17	-0.16459309
44	0xbe3313a8	-0.17487967
45	0x3e586408	0.21131909
46	0x3e29f3a3	0.16596846
47	0x3e4e598f	0.20151351
48	0xbd3385d8	-0.043828815
49	0xbe55dda5	-0.20885332
50	0xbe4b762e	-0.198693
51	0x3dd1ed03	0.102502845
52	0x3cddc071	0.027069302
53	0x3e8268a9	0.25470474
54	0x3e64cc75	0.22343619
55	0x3da321f5	0.07965461
56	0x3b9045ed	0.004402867
57	0xbcec4cbc	-0.028845184
58	0xbda7ca01	-0.08192826
59	0x3e6c809f	0.2309594
60	0xbc44e955	-0.012018521
61	0x3e5283a2	0.20558026
62	0x3b3d74f1	0.0028908814
63	0x3bf6b51a	0.007528913
64	0xbe07dab8	-0.13267028
65	0x3e7d9a3f	0.24765871
66	0x3ce478a6	0.02788956
67	0xbe271e8b	-0.16320245
68	0x3e21bf9a	0.15795746
69	0xbd5e7289	-0.054308448
70	0x3ec1d8bc	0.37860668
71	0x3dc9132c	0.0981811
72	0x3e6b7411	0.22993495
73	0xbc566dab	-0.01308767
74	0xbe169a84	-0.1470738
75	0xbe91b9d2	-0.28462082
76	0xbe0354df	-0.12825345
77	0x3e61bfe1	0.22045852
78	0x3d84919b	0.064730845
79	0xbe877bc4	-0.26461613
80	0xbebd86d6	-0.37016934
81	0xbead24c5	-0.33817115
82	0xbe1c80e6	-0.15283546
83	0xbe12e826	-0.1434637
84	0x3e058f26	0.13042888
85	0xbdc7763e	-0.0973935
86	0xbdc72c22	-0.097252145
87	0xbe1d9d99	-0.1539215
88	0x3e6ce089	0.23132528
89	0x3e14bbcf	0.14524768
90	0x3e80271c	0.25029838
91	0xbd4e58aa	-0.050377525
92	0xbe3711af	-0.1787784
93	0x3e37fd38	0.17967689
94	0xbd0bb8cb	-0.03411178
95	0x3ecd8d05	0.40146652
96	0xbdcd1567	-0.10013848
97	0x3cd9523c	0.02652847
98	0x3eb5d57a	0.35514432
99	0x3ea4fd6f	0.32224604
100	0xbdc9a6c9	-0.09846265
101	0xbd4b710e	-0.049668364
102	0x3d3032c9	0.043017182
103	0x3e133cc2	0.14378646
104	0xbe5c5e7f	-0.21520422
105	0x3e08c2ec	0.13355607
106	0xbddf25e7	-0.10895901
107	0xbddde05e	-0.1083381
108	0x3decb11b	0.11557218
109	0x3a9df828	0.0012052106
110	0xbe5ef59e	-0.21773383
111	0xbbdaee52	-0.006681242
112	0x3ca8a8f9	0.020588385
113	0x3e22cec8	0.15899193
114	0x3cad459d	0.021151358
115	0xbe1cad65	-0.1530052
116	0xbe024f61	-0.12725593
117	0x3e4b3f02	0.19848254
118	0xbd3ef5a1	-0.04662097
119	0xbe0a838e	-0.13526747
120	0x3e7eca43	0.24881844
121	0xbde4dfea	-0.11175521
122	0x3e437085	0.19085892
123	0xbd559ec3	-0.05215336
124	0xbd12577e	-0.03572797
125	0xbe4a6afe	-0.19767377
126	0xbe38495c	-0.17996734
127	0x3dac7347	0.08420425
128	0xbe261f2d	-0.1622283
129	0xbd7675c7	-0.060170915
130	0x3e4978c0	0.19674969
131	0x3ca4e86a	0.020130355
132	0xbe040bde	-0.12895152
133	0x38c1924e	9.2302085e-05
134	0x3e096ca3	0.13420348
135	0x3e7ce9db	0.24698584
136	0x3e711a82	0.23545268
137	0x3e93f04b	0.28894266
138	0x3dcd7950	0.10032904
139	0x3e26e899	0.16299666
140	0x3c450924	0.012026105
141	0x3d08d05e	0.03340184
142	0xbd6aefbe	-0.057357542
143	0xbcdfce37	-0.02732001
144	0xbd14306c	-0.03617899
145	0xbda72981	-0.08162213
146	0x3cbfa607	0.023394598
147	0x3e23fe34	0.1601494
148	0xbe1a0c2e	-0.15043709
149	0xbe93cfa4	-0.28869355
150	0xbd0e045f	-0.034672137
151	0xbe16db19	-0.14732017
152	0xbd2db648	-0.042410165
153	0xbe6f2c91	-0.23356844
154	0x3dc02b46	0.09383254
155	0xbe4744e2	-0.1945987
156	0xbd17a2ac	-0.03702037
157	0x3d3b4a37	0.045725074
158	0xbdae454b	-0.0850931
159	0xbe30f023	-0.17279105
160	0x3e52b6f5	0.20577605
161	0xbe857d96	-0.26072377
162	0x3bf53d3a	0.0074841054
163	0xbd5343c2	-0.05157829
164	0x3e3dbc00	0.18528748
165	0x3e0f3499	0.13984908
166	0xbdd8fe7f	-0.10595416
167	0xbe2798bd	-0.16366859
168	0x3d5225f0	0.05130571
169	0xbe1c2f4f	-0.15252422
170	0xbe78410c	-0.24243563
171	0x3cf5362d	0.02993306
172	0xbe41a0c6	-0.18908986
173	0x3d7e6bb7	0.062114444
174	0xbda9dc49	-0.08293969
175	0xbdf7d747	-0.12101608
176	0xbdac7af0	-0.08421886
177	0xbe67b77f	-0.22628592
178	0xbeafc8a1	-0.34332755
179	0xbe1c1169	-0.15241016
180	0x3e7e8c74	0.24858266
181	0xbdcd5d20	-0.10027528
182	0xbd20d5d0	-0.039266407
183	0x3e9ef1fd	0.31043997
184	0xbd953036	-0.07284586
185	0x3e8a9661	0.27067855
186	0xbecdbc61	-0.40182784
187	0x3e7717f0	0.24130225
188	0xbd09c391	-0.033633772
189	0xbd399410	-0.04530722
190	0x3e1d4db0	0.15361667
191	0x3e0ad787	0.1355878
192	0x3d97832a	0.073980644
193	0xbe56a94f	-0.20963024
194	0x3e1f32dd	0.15546747
195	0x3b8c5b6f	0.0042833607
196	0x3e3c8eb7	0.18413816
197	0x3e5c9c8c	0.21544093
198	0x3e8047d6	0.25054806
199	0x3dfa3347	0.122168116
200	0x3d955389	0.07291324
201	0xbd04b059	-0.03239474
202	0xbcbba4bd	-0.022905702
203	0x3e1482fd	0.14503093
204	0xbdf9f356	-0.12204616
205	0x3d4e7929	0.050408516
206	0xbde061c6	-0.10956149
207	0xbe1f69e7	-0.15567742
208	0x3d745bd3	0.059657883
209	0xbde47afb	-0.11156269
210	0xbe03430d	-0.12818547
211	0x3e28c2e2	0.16480592
212	0x3e833f4c	0.2563423
213	0xbe87eb4c	-0.26546705
214	0xbe625e61	-0.22106315
215	0xbd43ce39	-0.04780409
216	0xbec32100	-0.38111115
217	0x3d8b1dd3	0.06792798
218	0x3c937565	0.018000314
219	0x3cdc0e24	0.026862212
220	0x3d065742	0.03279806
221	0x3dc26f16	0.09493844
222	0x3c8f2521	0.01747376
223	0x3e013047	0.12616073
224	0xbe225aff	-0.15855025
225	0x3d82c1c3	0.06384613
226	0x3e6116ee	0.21981403
227	0x3e77801f	0.24169968
228	0xbd18e3be	-0.037326567
229	0x3d757c17	0.059932794
230	0xbe4b20c2	-0.19836715
231	0xbd2831da	-0.041063167
232	0xbbab7add	-0.0052331523
233	0x3e4260da	0.18982258
234	0x3e58d0ca	0.21173397
235	0x3e4a2fb1	0.19744755
236	0x3ea56de5	0.32310405
237	0x3e29cbb6	0.16581616
238	0x3df877fd	0.12132261
239	0xbb11b365	-0.0022232172
240	0x3e34e645	0.17665966
241	0x3e2e84bf	0.17042826
242	0xbdecfb94	-0.11571422
243	0xbecaec31	-0.39633325
244	0x3dfa52aa	0.12222798
245	0x3bb2bbab	0.0054545007
246	0x3d9ee91a	0.07759304
247	0xbe9def75	-0.30846754
248	0x3e88b9b1	0.2670417
249	0xbd314d8e	-0.043286853
250	0xbd658030	-0.056030452
251	0xbdd68925	-0.10475377
252	0x3cb10b4e	0.021611836
253	0x3e1590b1	0.14605977
254	0x3d561ac4	0.05227162
255	0x3e66dfa4	0.2254625

fc3.bias f4 [128]
0	0xbe2de294	-0.16980964
1	0x3e8b42af	0.27199313
2	0x3ecc2d51	0.39878324
3	0x3ee00683	0.43754968
4	0x3c6c8ade	0.014437405
5	0xbe323964	-0.17404705
6	0x3ee2f6f8	0.44329047
7	0x3e72d60a	0.23714462
8	0x3e8a1bd7	0.26974365
9	0x3e70df9b	0.23522799
10	0xbd1c4c5d	-0.038158763
11	0x3e8be9d4	0.27326834
12	0xbe14722f	-0.14496683
13	0x3e64cba0	0.22343302
14	0x3eb742e9	0.35793236
15	0x3ea77fbe	0.32714647
16	0x3e8877c9	0.2665389
17	0x3eea7a98	0.45796657
18	0x3ed6dc7f	0.419651
19	0x3e6cdf01	0.23131944
20	0x3e7f2ce1	0.24919464
21	0x3dc7a681	0.09748555
22	0x3e54e407	0.2079011
23	0x3edcb81a	0.43109208
24	0xbd8cdbf0	-0.06877887
25	0x3c73df63	0.0148848025
26	0x3d1b7bdf	0.03795993
27	0x3ec35db5	0.3815743
28	0x3ee7e506	0.4529192
29	0xbddf67cc	-0.109084696
30	0xbce9d19e	-0.028542336
31	0x3e778e34	0.2417534
32	0x3d7cf466	0.061756514
33	0x3d7adfe4	0.061248675
34	0xbe350e66	-0.17681274
35	0xbc1f8c7f	-0.009738087
36	0x3d191552	0.03737385
37	0xbcec4cee	-0.028845277
38	0x3ee6ab78	0.45052695
39	0xbdb5847c	-0.0886316
40	0x3cd7094b	0.026249548
41	0x3df1cdd2	0.11806835
42	0xbe005130	-0.1253097
43	0x3e32d1cd	0.17462845
44	0x3ee99561	0.4562178
45	0x3eb5316f	0.35389277
46	0x3eae771a	0.34075242
47	0xbdd1b4b4	-0.102395445
48	0xbdc82d15	-0.09774224
49	0x3ec4bccd	0.38425294
50	0x3e489938	0.19589698
51	0x3ecb47f8	0.39703345
52	0x3e5aa45c	0.2135176
53	0xbd19b88d	-0.037529517
54	0xbd07bad8	-0.033137172
55	0x3e98f037	0.2987077
56	0xbe25d76f	-0.16195463
57	0x3ec47622	0.38371378
58	0x3ed78de4	0.4210044
59	0x3e447a09	0.19187178
60	0xbe194daf	-0.1497104
61	0x3ed29e93	0.41136608
62	0x3ea4c16e	0.32178825
63	0x3ef07e08	0.46971154
64	0x3ec273b3	0.37978896
65	0xbe21e753	-0.158109
66	0x3e94e0c7	0.29077742
67	0x3ee3671d	0.44414607
68	0xbe6686e3	-0.22512393
69	0xbe81caae	-0.25349945
70	0x3eca8333	0.39553222
71	0xbdc2ae23	-0.0950587
72	0xbe42b07b	-0.19012634
73	0x3e621755	0.22079213
74	0xbd96f1cf	-0.0737034
75	0xbbf7b87c	-0.007559834
76	0x3e90134a	0.28139716
77	0x3ec01d56	0.37522382
78	0x3e9e20df	0.30884454
79	0x3ea27920	0.31733036
80	0x3e277bfe	0.16355893
81	0xbc8938e6	-0.016750764
82	0x3ee7baed	0.452598
83	0x3eda33cf	0.42617652
84	0x3db5dfff	0.088806145
85	0x3e80392f	0.25043628
86	0xbc49ce36	-0.012317231
87	0x3e87dca5	0.26535526
88	0x3ee47913	0.44623622
89	0x3e8e0bcf	0.27743384
90	0x3eb6507e	0.35608286
91	0x3be326a5	0.006932097
92	0xbd5a8565	-0.05334987
93	0x3d77a351	0.060458485
94	0x3e45f222	0.19330648
95	0x3cc29e83	0.023757225
96	0x3ec4b108	0.38416314
97	0x3e232dad	0.15935393
98	0xbe62babb	-0.22141545
99	0x3e6fced7	0.23418747
100	0xbdfb0934	-0.12257615
101	0xbd60500d	-0.054763842
102	0x3e3cb177	0.18427072
103	0x3f048dae	0.51778686
104	0x3ec1ca73	0.3784977
105	0x3e90f1d7	0.2830951
106	0x3e72ba05	0.23703773
107	0x3ea4b4f4	0.32169306
108	0x3dc8fce5	0.09813861
109	0xbe4ead59	-0.20183314
110	0xbe030c79	-0.12797727
111	0x3eca78fb	0.39545426
112	0x3eac78f0	0.33686018
113	0xbe8bf73e	-0.27337068
114	0x3ea6b197	0.32557365
115	0xbe25843c	-0.16163725
116	0xbd8f6c07	-0.070030265
117	0x3d8e5ff5	0.06951896
118	0x3e60fffa	0.21972647
119	0x3ed36024	0.41284287
120	0xbe3d5fa4	-0.18493515
121	0x3e4cff3f	0.20019244
122	0xbcda557d	-0.026652092
123	0xbd5a947a	-0.053364255
124	0xbd8611c5	-0.06546358
125	0x3ea97322	0.33095652
126	0xbe00255c	-0.12514251
127	0x3ee8432f	0.45363757

fc4.weight f4 [128, 128]
0	0x3d873c36	0.06603281
1	0xbe52ba93	-0.20578985
2	0xbe1e8b24	-0.15482765
3	0x3dd65a26	0.10466413
4	0xbc7fdb1d	-0.0156162055
5	0x3e2dfdca	0.16991344
6	0x3df7487d	0.12074373
7	0x3d8a6924	0.06758335
8	0x3cd5397c	0.026028387
9	0x3d41be0c	0.047300383
10	0x3e22c46a	0.15895239
11	0x3ca68fc4	0.020332225
12	0x3d83d3de	0.06436895
13	0x3c22f842	0.009946885
14	0x3e0bef62	0.13665536
15	0xbd201f92	-0.039092608
16	0x3b3f0b3d	0.0029150986
17	0xbd750c7a	-0.05982635
18	0x3dc5bde4	0.096553594
19	0xbd860d5d	-0.065455176
20	0xbdd3f7f3	-0.10350027
21	0x3d8ca1a0	0.06866765
22	0x3d3cc834	0.046089366
23	0xbe5bc485	-0.21461685
24	0x3e9a680d	0.3015751
25	0xbdac7c69	-0.08422167
26	0xbd5e6748	-0.054297715
27	0xbc09a9f8	-0.00840234
28	0xbe4a6ab9	-0.19767274
29	0xbd87a540	-0.06623316
30	0xbca3005d	-0.019897634
31	0x3ce53933	0.027981376
32	0x3cb1a6ed	0.021686042
33	0xbd0f6b52	-0.035014458
34	0xbe14ea2f	-0.14542459
35	0x392a345e	0.00016231972
36	0x3e172ce9	0.14763226
37	0xbc865155	-0.016396204
38	0xbe88f70d	-0.26750985
39	0x3ce9a691	0.028521808
40	0xbe920631	-0.2852035
41	0x3cf80c70	0.030279368
42	0x3da39d8d	0.07989035
43	0x3d0755eb	0.033040922
44	0xbe150061	-0.14550926
45	0x3d9e6763	0.07734563
46	0x3ca6b72c	0.020351015
47	0xbcb4248a	-0.02199008
48	0x3db7e837	0.08979838
49	0xbd15e3ed	-0.03659432
50	0x3c40dbed	0.011771184
51	0xbdb713e1	-0.089393385
52	0xbd07b9d5	-0.033136208
53	0x3e8e9071	0.27844575
54	0xbd4a4413	-0.049381327
55	0x3d83fbc0	0.06444502
56	0xbe0e22c0	-0.13880444
57	0xbdefc498	-0.11707419
58	0xbd792370	-0.06082481
59	0x3e228dcc	0.15874404
60	0xbe3947f0	-0.18093848
61	0xbc59449e	-0.0132609885
62	0x3d4af08b	0.049545806
63	0x3d101e81	0.03518534
64	0xbc88cca8	-0.01669915
65	0xbdb313d6	-0.08744018
66	0x3ca528d1	0.020161064
67	0xbc8f0c15	-0.017461816
68	0x3db84ccb	0.08999022
69	0x3e7b06d1	0.24514319
70	0x3d165edf	0.03671157
71	0xbb5dcd90	-0.0033844449
72	0xbd491d59	-0.049100254
73	0x3c77df63	0.015128943
74	0xbc863a89	-0.016385334
75	0xbd27404f	-0.040832814
76	0x3de08ce0	0.1096437
77	0xbcb901ae	-0.022583809
78	0x3d9ad43b	0.07560011
79	0xbe31ebbd	-0.17375083
80	0x39d28ef4	0.0004016083
81	0xbe23ec25	-0.1600805
82	0x3d2f2bf5	0.04276653
83	0xbd8fe149	-0.070253916
84	0xbce75a4e	-0.028241303
85	0xbe1c34a3	-0.15254454
86	0x3d56fd7a	0.052487828
87	0xbdfcab24	-0.1233733
88	0x3ddf5f2a	0.10906823
89	0xbd3a7e24	-0.045530453
90	0x3d9b3119	0.07577724
91	0x3e152329	0.14564194
92	0xbd8409d8	-0.0644719
93	0x3dfed52b	0.12443002
94	0x3da21470	0.079140544
95	0x3d58ea3c	0.05295776
96	0xbe0197a8	-0.12655509
97	0x3c25d5e1	0.0101217935
98	0xbcb18575	-0.021670083
99	0x3ccf62e2	0.025315706
100	0xbe5dcf46	-0.216611
101	0xbd9a7dcc	-0.07543525
102	0x3bb84f75	0.0056247064
103	0x3d7b70da	0.06138692
104	0x3c99d2b2	0.018777225
105	0xbd2c20f6	-0.04202362
106	0x3d8f1743	0.06986859
107	0x3d1bd75c	0.03804718
108	0xbc0b942c	-0.008519214
109	0x3b562a47	0.0032679008
110	0x3c525df8	0.012839787
111	0xbe01db3d	-0.12681289
112	0xbc88fea3	-0.016722983
113	0x3dbb63d5	0.09149901
114	0x3e1bdac4	0.15220171
115	0xbe074e48	-0.13213456
116	0xbd3a09b4	-0.04541941
117	0x3d7dd94e	0.061974816
118	0x39189847	0.00014552577
119	0x3c7a61f0	0.015282139
120	0x3e729ace	0.23691866
121	0x3d641a38	0.055689067
122	0x3e108e99	0.14116897
123	0x3dc131d7	0.09433334
124	0x3e9d4c36	0.30722207
125	0x3d67be5f	0.056578036
126	0xbe0ea3ef	-0.13929723
127	0x3d9152aa	0.07095845
128	0x3c0f8c72	0.008761512
129	0x3e01a9a5	0.1266237
130	0x3d2dd3fb	0.04243849
131	0x3e17692e	0.14786217
132	0x3d2786e0	0.04090011
133	0xbe1a9ded	-0.15099306
134	0x3e361a05	0.17783363
135	0x3c0aa692	0.008462565
136	0x3df5fb24	0.12010792
137	0x3e4a378d	0.19747753
138	0x3de36323	0.11102893
139	0x3cf880ac	0.030334793
140	0xbd6a3ed9	-0.057188842
141	0x3dc00f6c	0.093779415
142	0x3e1a6019	0.15075721
143	0x3dfe30ba	0.124116376
144	0x3de0a9f9	0.1096992
145	0x3e288931	0.16458584
146	0x3e7d2e85	0.24724777
147	0x3e67f3b4	0.22651559
148	0x3dd994d7	0.10624092
149	0x3e953ee7	0.29149553
150	0x3decf3ee	0.115699634
151	0x3e83f230	0.25770712
152	0xbcf1d510	-0.029520541
153	0x3dfb9cb4	0.12285748
154	0x3d8bf52c	0.06833872
155	0x3e05493a	0.13016215
156	0x3e847370	0.25869322
157	0x3df12c98	0.11776084
158	0x3dbe4061	0.09289623
159	0x3dac853f	0.08423852
160	0x3c096312	0.008385437
161	0x3cec620e	0.02885535
162	0xbe1ed283	-0.15509991
163	0xbdd9ad18	-0.10628718
164	0x3d066fd9	0.03282151
165	0x3da91724	0.08256367
166	0x3e22f64a	0.15914264
167	0xbe05a8cf	-0.13052677
168	0x3d87f2f4	0.066381365
169	0x3cea53de	0.028604444
170	0x3e041a55	0.1290067
171	0x3eab1a74	0.3341862
172	0x3de9b8bd	0.11412189
173	0x3e544fdc	0.20733589
174	0x3da8d511	0.08243764
175	0xbdb0c84d	-0.08631954
176	0x3de33a3b	0.11095091
177	0x3dd95a1d	0.10612891
178	0x3da94863	0.0826576
179	0x3e92bc7c	0.28659427
180	0x3e0ea3c7	0.13929664
181	0x3dc26b69	0.09493143
182	0x3daf43b5	0.08557836
183	0x3e3a6073	0.18200855
184	0xbe28eac2	-0.16495803
185	0x3e021dd1	0.12706687
186	0x3e148869	0.14505161
187	0xbce43a1d	-0.027859742
188	0x3e5f297a	0.21793166
189	0x3e786a1d	0.24259229
190	0x3dc7727b	0.09738632
191	0x3de16286	0.1100512
192	0x3e006195	0.12537225
193	0x3cfe467b	0.031039467
194	0x3ddc3bb6	0.107535765
195	0x3d52f7f4	0.051505998
196	0xbe3830ec	-0.17987412
197	0x3e366b95	0.17814477
198	0x3dab3f44	0.08361676
199	0x3db0fd52	0.08642067
200	0x3d40e560	0.04709375
201	0x3d86f122	0.06588961
202	0xbdfbb8a6	-0.12291078
203	0x3ca54282	0.020173315
204	0x3dbb959b	0.09159394
205	0x3e88cded	0.2671961
206	0x3e028c45	0.12748821
207	0x3e23605f	0.15954731
208	0x3e159eaf	0.14611314
209	0xbe0ab6a4	-0.13546234
210	0x3e413bc7	0.1887046
211	0x3dc3bd72	0.09557618
212	0x3df213a4	0.118201524
213	0x3e5c1a7c	0.21494478
214	0x3dae7063	0.0851753
215	0x3e42f50f	0.19038795
216	0x3e0047d8	0.12527406
217	0x3bdc843e	0.0067296317
218	0x3e2a5709	0.16634764
219	0x3d80310d	0.06259356
220	0xbdbd06d4	-0.09229818
221	0x3d444ac8	0.04792288
222	0x3e0a42aa	0.13501993
223	0x3de007b1	0.10938967
224	0x3dc7e107	0.097597174
225	0xbae9a31b	-0.0017825098
226	0xbe746a72	-0.2386873
227	0x3e0577a7	0.13033925
228	0x3dec04c0	0.115243435
229	0xbcf07780	-0.029353857
230	0x3de798ad	0.113084175
231	0x3ea0325e	0.31288427
232	0x3e176dc5	0.14787968
233	0x3e2a1f2d	0.16613455
234	0x3e15a869	0.14615025
235	0x3e54db41	0.20786764
236	0x3d0d6707	0.034522083
237	0xbe117fe2	-0.1420894
238	0x3d6f6390	0.05844456
239	0x3e8554e1	0.2604132
240	0x3df55c12	0.11980452
241	0xbe04c8d3	-0.12967233
242	0x3d8283e4	0.063728124
243	0xbd43469d	-0.047674764
244	0x3e0c1271	0.1367891
245	0x3e0d1bf3	0.13780193
246	0x3da768c3	0.081742786
247	0x3e793d60	0.24339819
248	0xbe9d08ee	-0.30670875
249	0x3e17bed0	0.14818883
250	0x3c126bb2	0.008936809
251	0xbcd95668	-0.02653046
252	0xbe2097b2	-0.15682867
253	0x3c5c7be6	0.013457274
254	0x3c13136f	0.008976801
255	0x3e67f2cd	0.22651215

fc4.bias f4 [128]
0	0x3beee4d2	0.007290461
1	0x3e5b2d3d	0.21403976
2	0x3dd2a78e	0.10285865
3	0xbdc16045	-0.0944219
4	0x3dd9fda9	0.10644085
5	0x3e6649ca	0.22489086
6	0x3cec770a	0.028865356
7	0xbcc59cc2	-0.0241226
8	0x3e2a52a2	0.16633084
9	0x3e716d71	0.23576905
10	0xbd85eefe	-0.06539725
11	0x3e7bae1e	0.24578139
12	0x3e5abea9	0.21361794
13	0xbdbf987c	-0.09355256
14	0xbddacb98	-0.10683364
15	0xbd7fdfb0	-0.062469184
16	0x3ded1eb8	0.11578125
17	0xbd1853de	-0.037189357
18	0x3e5d6cbc	0.2162351
19	0x3e783b88	0.2424146
20	0x3d58323c	0.052782282
21	0xbde391a6	-0.111117646
22	0xbd86a5f2	-0.0657462
23	0x3c9963f1	0.018724414
24	0x3e86fdc8	0.26365495
25	0xbccb21fe	-0.024796482
26	0xbcb10c3e	-0.021612283
27	0x3e2a4122	0.16626409
28	0x3e3b9305	0.18317802
29	0x3e4b7d18	0.19871938
30	0x3e22afc6	0.15887365
31	0x3e6ab27f	0.22919653
32	0x3e8802ad	0.2656454
33	0x3d8a1400	0.06742096
34	0x3e0d16e3	0.13778262
35	0xbd73a148	-0.05947998
36	0xbd05e8e4	-0.032692805
37	0x3e7417f2	0.2383726
38	0x3e2cbc6f	0.16868757
39	0x3e6c9dac	0.23107022
40	0xbca26dd8	-0.019827768
41	0xbda0647e	-0.07831667
42	0x3e3d8615	0.1850818
43	0x3d28a074	0.041168645
44	0x3e24c1a9	0.160895
45	0xbc113d1c	-0.008864667
46	0x3b40a900	0.0029397607
47	0x3d47ac15	0.048748095
48	0x3df348e7	0.118791394
49	0x3e2b6171	0.1673639
50	0x3d6fbd3e	0.058530085
51	0x3dc0daca	0.09416731
52	0x3d872e4e	0.06600629
53	0x3e2299c6	0.15878972
54	0xbdceef9e	-0.10104297
55	0x3e939e3a	0.28831655
56	0x3d42b03b	0.047531348
57	0xbd1b13eb	-0.037860792
58	0x3e8cba9f	0.2748613
59	0x3e0e8e14	0.13921386
60	0x3dc61668	0.096722424
61	0x3d561593	0.05226667
62	0xbd0fdd90	-0.035123408
63	0x3e136309	0.14393248
64	0x3d1730b3	0.036911678
65	0xbd73e9d5	-0.05954917
66	0x3c82a612	0.01594833
67	0x3e45c87d	0.19314761
68	0xbd420fe9	-0.047378454
69	0x3e94d0b6	0.29065484
70	0xbd07ef21	-0.033187035
71	0x3e7a5011	0.24444605
72	0xbd9b8c30	-0.07595098
73	0x3e1fda0a	0.15610519
74	0x3dfe2be4	0.12410715
75	0x3e2499ff	0.1607437
76	0xbdb3ef71	-0.08785904
77	0xbd07eba3	-0.033183705
78	0xbd7ca306	-0.06167891
79	0x3d85625c	0.06512901
80	0xbdba4c66	-0.09096603
81	0x3e69d933	0.22836761
82	0x3e64a113	0.2232707
83	0x3c467dc1	0.012114943
84	0x3e87a327	0.26491663
85	0x3e6b6536	0.22987828
86	0x3e4de7d2	0.20107964
87	0x3e251e11	0.1612475
88	0x3e88512c	0.2662443
89	0x3e27e207	0.16394816
90	0xbd2ed285	-0.042681236
91	0xbc194687	-0.009355194
92	0x3e6c8f0e	0.23101446
93	0x3e5ad39a	0.21369782
94	0xbc115e71	-0.008872614
95	0x3e454a6b	0.1926667
96	0x3c7e0075	0.015503039
97	0x3e4b4b02	0.19852832
98	0xbd9b1389	-0.075720854
99	0x3d5c9dd2	0.053861447
100	0xbd9f82f1	-0.07788647
101	0xbdb836cd	-0.089948274
102	0x3e3b399e	0.18283698
103	0xbd21dfa7	-0.039519932
104	0x3dd8917f	0.10574626
105	0x3e41fbb1	0.18943669
106	0x3e6f3648	0.2336055
107	0x3e8b51b0	0.2721076
108	0x3d8e99a1	0.06962896
109	0xbd4226dc	-0.04740034
110	0x3e270e47	0.1631404
111	0xbd516fba	-0.05113194
112	0xbdf61024	-0.12014797
113	0x3c180eeb	0.0092809005
114	0xbdc2083d	-0.094742276
115	0x3e414886	0.18875322
116	0xbb474721	-0.0030407386
117	0xbb59af1c	-0.0033215946
118	0x39fbb734	0.00048010948
119	0xbd0a3d86	-0.03375008
120	0x3d4d41fa	0.05011175
121	0x3e3a38af	0.18185686
122	0xbd5756e4	-0.0525731
123	0x3e0f6913	0.14004926
124	0x3e705e51	0.23473479
125	0x3df8bfa6	0.12145929
126	0x3e95c4c4	0.29251683
127	0x3e338ae6	0.17533454

q2.weight f4 [1, 128]
0	0xbe7ddf83	-0.24792294
1	0x3e5bd32c	0.21467274
2	0x3e92ef3c	0.28698146
3	0xbe87163b	-0.26384148
4	0xbf34667b	-0.7046887
5	0x3e8877b9	0.2665384
6	0xbf103b41	-0.56340414
7	0xbf309aef	-0.6898641
8	0x3e4a9e65	0.19786985
9	0x3e832b27	0.2561886
10	0xbf0a0208	-0.5390935
11	0x3e8d538e	0.2760281
12	0x3e2c6b69	0.16837849
13	0xbee6c578	-0.45072532
14	0xbee83c8b	-0.4535869
15	0xbe58d4fb	-0.21174996
16	0x3e67702d	0.22601385
17	0xbecff937	-0.40619823
18	0x3e6f51a3	0.23370986
19	0x3ea4b734	0.32171023
20	0xbd87be2c	-0.06628069
21	0xbeebeebb	-0.46080574
22	0xbebfe218	-0.37477183
23	0xbf193e7b	-0.5986096
24	0x3e6069d9	0.21915378
25	0xbf0c73e3	-0.5486433
26	0xbf19cef3	-0.60081404
27	0x3e79b0c6	0.2438384
28	0x3e3a871a	0.182156
29	0x3e5c228d	0.21497555
30	0x3e7d291f	0.24722718
31	0x3e7089ca	0.23490062
32	0x3e3b38af	0.18283342
33	0xbd444ba1	-0.047923688
34	0x3e722b0f	0.23649238
35	0xbd9df169	-0.07712061
36	0xbf0e33d6	-0.55547845
37	0x3e605beb	0.21910064
38	0x3e7ff404	0.24995428
39	0x3e4ea6cf	0.2018082
40	0xbeb5e807	-0.35528585
41	0xbc23527c	-0.009968396
42	0x3e62ca8f	0.22147582
43	0xbec13fce	-0.37743992
44	0x3e937246	0.2879812
45	0xbe930c7a	-0.28720456
46	0xbeeafc12	-0.4589544
47	0xbf38c3d6	-0.7217382
48	0x3e3a82a9	0.18213905
49	0x3e2f5337	0.17121588
50	0xbec17373	-0.37783393
51	0xbed54b88	-0.41659188
52	0xbec1de9e	-0.37865156
53	0x3e8bae9e	0.2728166
54	0xbefd7262	-0.4950133
55	0x3e46acb7	0.19401823
56	0xbe7db5f4	-0.24776441
57	0xbeb52eb0	-0.35387182
58	0x3e578563	0.21046977
59	0x3e68c484	0.22731215
60	0x3e86037d	0.26174536
61	0xbf059c8e	-0.5219201
62	0xbe82b6d2	-0.25530106
63	0x3e39bc9a	0.18138352
64	0xbcf5b4e5	-0.029993484
65	0xbed92f72	-0.4241901
66	0xbf2cc27e	-0.6748427
67	0x3e3bf512	0.18355206
68	0xbda1c448	-0.07898766
69	0x3e42301c	0.18963665
70	0xbf30408c	-0.6884849
71	0x3e6a3bef	0.22874425
72	0xbec5ae21	-0.38609412
73	0x3eaf0e6d	0.34190693
74	0x3e45326e	0.19257519
75	0x3e7c1c62	0.24620202
76	0xbf14f8f0	-0.5819235
77	0xbe9836da	-0.29729348
78	0x3e181e8f	0.14855407
79	0xbf09b7d9	-0.53796154
80	0xbe3e85f9	-0.18605794
81	0x3e60b1a2	0.21942762
82	0x3e7fc9e8	0.24979365
83	0xbef46777	-0.47735187
84	0x3e3c17f0	0.18368506
85	0x3e42199c	0.18955082
86	0x3e73bdeb	0.23802917
87	0x3e71fa09	0.23630537
88	0x3e77b506	0.24190149
89	0x3e88d709	0.2672656
90	0xbec3db3e	-0.38253206
91	0xbe9473c9	-0.28994587
92	0x3ea5b06a	0.32361156
93	0x3e678d08	0.22612393
94	0xbe898852	-0.26861817
95	0x3e6890dc	0.2271151
96	0xbf1d1bed	-0.61370736
97	0x3e71207a	0.23547545
98	0xbd76fdbb	-0.06030057
99	0xbf1f0c3a	-0.6212803
100	0xbe598291	-0.21241213
101	0xbeed4330	-0.46340322
102	0x3e4e1bad	0.20127745
103	0xbf049dcc	-0.5180328
104	0x3e3799fd	0.17929836
105	0x3e6a8210	0.22901177
106	0x3e87df7e	0.26537699
107	0x3e35e721	0.1776395
108	0xbf3f2d55	-0.74678546
109	0xbebf0c74	-0.37314188
110	0x3e357dc5	0.17723759
111	0xbe9dc756	-0.30816144
112	0xbef775d1	-0.48332074
113	0xbee80604	-0.4531709
114	0xbe864883	-0.26227197
115	0x3e348390	0.17628312
116	0xbec9d484	-0.3941995
117	0xbf01b1a0	-0.5066166
118	0xbe561e3f	-0.20909975
119	0xbf023802	-0.5086671
120	0xbe95f891	-0.29291204
121	0x3e4bfe7c	0.19921297
122	0xbed5b505	-0.4173967
123	0x3e8a9bf7	0.27072117
124	0x3e80b963	0.2514144
125	0x3e766865	0.24063261
126	0x3e4a6e38	0.19768608
127	0x3e414113	0.1887248
